data/results/gru_regime_BTC_r5d_r6_wNone.pt (torch, 167493 bytes, 9 tensors)

rnn.weight_ih_l0 f4 [192, 16]
-0.018001102 0.112769894 -0.56033695 0.11530542 -0.064981215 -0.1413 0.19468173 -0.35367626
-0.32845527 0.06726136 -0.058698364 0.10523448 -0.4882263 -0.4272285 -0.33101204 0.10123519
-0.21107133 -0.19625884 -0.50214785 -0.17854175 -0.17816511 0.010147587 -0.115441166 -0.37145078
-0.32480887 -0.2943285 -0.11935059 -0.12701018 -0.49560392 -0.5739656 -0.48646623 -0.14673923
-0.15788062 -0.049391452 -0.15132755 -0.15136063 0.2337357 0.09878736 0.14159586 -0.13203755
-0.08586919 0.10621617 -0.042415004 -0.04915947 -0.03677988 -0.37042928 0.27340242 -0.0021517656
0.29341835 -0.060580865 -0.5502048 0.6518357 -0.6655876 0.051149365 -0.016879221 -0.42009294
-0.18190125 -0.4827711 -0.09780355 0.04368898 -0.6746353 -0.03004462 -0.66948366 0.015323738
-0.17878424 -0.04469326 -0.2845206 0.1963562 0.053179752 -0.3169354 -0.13820562 -0.33448818
0.027779296 0.036354646 -0.022940278 -0.030572454 -0.082981735 -0.3559523 -0.18354787 0.10073282
-0.08935417 0.29742756 -0.40790752 0.057237566 -0.09423985 -0.2079361 0.039260805 -0.3574519
-0.19561063 0.08676332 -0.77815235 0.06675546 -0.6895904 0.19320025 -0.06409266 -0.008128765
0.10634068 0.14576271 -0.13287126 0.061808635 -0.17291988 -0.07838939 0.13235924 -0.1436386
0.03944577 -0.09791561 0.031503107 0.07208947 -0.00036489038 0.19857557 -0.06261077 -0.10446392
0.12428752 -0.07729276 0.028707596 -0.2017857 -0.11143924 -0.003498733 0.030315734 0.16061899
0.17366768 -0.15371458 0.118239745 0.15245931 0.04896205 -0.08932823 0.10025526 -0.09026147
0.27809086 0.03302733 0.09999411 -0.07783948 0.0130791925 0.25965068 -0.031987246 0.13133763
0.26642594 0.11038805 0.08737657 -0.100699775 0.028797267 -0.046911575 0.11513963 -0.11763213
-0.03927033 -0.06266372 0.041507524 -0.21081597 -0.015502303 -0.12378517 -0.108373515 0.1515604
0.32304916 0.008273648 -0.22305305 0.14459465 0.0428679 0.30193678 0.4202656 -0.14087278
-0.11475454 -0.19187884 -0.089674555 -0.2843534 0.32604453 -0.14319381 0.18476613 -0.20695989
-0.22112602 0.40842235 -0.1898907 0.23416866 -0.12489566 -0.419819 0.65202796 -0.15400326
-0.08216775 -0.21328041 -0.21534804 -0.30405283 0.47911674 -0.065775916 0.021972787 -0.10500484
-0.35657933 0.71263665 -0.015492403 -0.089169234 0.0041285274 -0.55152977 0.7723141 -0.13804054
-0.2996301 0.09911889 -0.12202588 -0.047866855 -0.013362979 -0.25211117 -0.2045399 -0.037226144
0.16779193 -0.1363276 -0.22139029 0.0566737 -0.20893964 0.068847805 -0.1847643 0.018659914
-0.12333786 0.2850763 0.391569 0.42340723 -0.48024717 0.30656028 0.49063808 0.27986744
0.25851154 -0.04183781 -0.36632136 -0.18358019 0.37823647 -0.27095702 -0.15606382 -0.042767487
0.24230848 0.114612065 0.1187739 -0.0989196 0.00064231106 0.24345647 0.030026924 0.033312134
0.16657247 -0.038092695 0.16685386 0.25798076 -0.117488064 0.2824665 0.2599651 0.06267518
-0.04196081 -0.09600537 -0.33912376 -0.18165137 0.3411334 -0.15142353 -0.19146352 -0.16362703
-0.2551383 0.34711665 0.052873384 -0.06291837 -0.21149509 -0.3536048 0.5798173 -0.0095160995
00000000: 0c77 93bc e7f3 e63d 3e72 0fbf 3f25 ec3d
00000010: df14 85bd f2b0 10be a65a 473e 0e15 b5be
00000020: 4a2b a8be 53c0 893d b26d 70bd 2d85 d73d
00000030: ccf8 f9be b2bd dabe 697a a9be 6554 cf3d
00000040: 1523 58be 14f8 48be c38c 00bf a6d3 36be
00000050: ea70 36be 1142 263c 6b6c ecbd cc2e bebe
00000060: 594d a6be 3ab2 96be 156e f4bd f50e 02be
00000070: ccbf fdbe 69ef 12bf 1a12 f9be cf42 16be
00000080: 75ab 21be b14e 4abd 9cf5 1abe 48fe 1abe
00000090: 6958 6f3e 0751 ca3d 81fe 103e da34 07be
000000a0: 30dc afbd dd87 d93d 5bbb 2dbd 715b 49bd
000000b0: 80a6 16bd e8a8 bdbe 67fb 8b3e a304 0dbb
000000c0: ee3a 963e a423 78bd 39da 0cbf b4de 263f
000000d0: f363 2abf ff81 513d 4b46 8abc 6c16 d7be
000000e0: 5244 3abe c62d f7be 3a4d c8bd 37f3 323d
000000f0: e6b4 2cbf 2320 f6bc 4863 2bbf 6a10 7b3c
00000100: 3713 37be 4810 37bd afac 91be 9a11 493e
00000110: 03d3 593d 5b45 a2be c685 0dbe 0942 abbe
00000120: 6891 e33c 9ce8 143d 40ed bbbc 1573 fabc
00000130: 54f2 a9bd 613f b6be f9f3 3bbe 024d ce3d
00000140: 52ff b6bd 6d48 983e 41d9 d0be f071 6a3d
00000150: d300 c1bd 33ed 54be f0cf 203d ef03 b7be
00000160: 274e 48be f8b0 b13d fe34 47bf 16b7 883d
00000170: ff88 30bf 49d6 453e 0343 83bd 832e 05bc
00000180: 24c9 d93d d242 153e 670f 08be 0d2b 7d3d
00000190: e911 31be 9e8a a0bd 2e89 073e ff15 13be
000001a0: e391 213d fb87 c8bd 6709 013d a5a3 933d
000001b0: c24e bfb9 6557 4b3e 133a 80bd 2ef1 d5bd
000001c0: 758a fe3d ab4b 9ebd 312c eb3c e9a0 4ebe
000001d0: 423a e4bd 004b 65bb b458 f83c 4e79 243e
000001e0: f1d5 313e 5b67 1dbe ae27 f23d 4b1e 1c3e
000001f0: 6e8c 483d b8f1 b6bd a152 cd3d 01db b8bd
00000200: ed61 8e3e aa47 073d b6c9 cc3d 4e6a 9fbd
00000210: 1c4a 563c eff0 843e 0f05 03bd 5f7d 063e
00000220: fb68 883e 2113 e23d 7df2 b23d af3b cebd
00000230: 3fe8 eb3c 5a26 40bd 54ce eb3d 1de9 f0bd
00000240: edd9 20bd d655 80bd cb03 2a3d 24e0 57be
00000250: 5ffd 7dbc 1483 fdbd eff2 ddbd a632 1b3e
00000260: b366 a53e 328e 073c 0568 64be 9f10 143e
00000270: 4096 2f3d 7597 9a3e 0d2d d73e f440 10be
00000280: 6e04 ebbd e37b 44be 4ba7 b7bd c596 91be
00000290: 4fef a63e 66a1 12be 5533 3d3e 4bed 53be
000002a0: dc6e 62be bc1c d13e b572 42be e9c9 6f3e
000002b0: 4cc9 ffbd 84f2 d6be 4eeb 263f 08b3 1dbe
000002c0: 9147 a8bd 2e66 5abe 3284 5cbe d0ac 9bbe
000002d0: ca4e f53e 86b5 86bd 4600 b43c c70c d7bd
000002e0: 9191 b6be 5b6f 363f d9d3 7dbc 5c9e b6bd
000002f0: 9948 873b 0e31 0dbf 60b6 453f 805a 0dbe
00000300: 1e69 99be d8fe ca3d b4e8 f9bd 0910 44bd
00000310: 65f0 5abc b714 81be e872 51be 717a 18bd
00000320: a6d1 2b3e 7699 0bbe 23b4 62be af22 683d
00000330: 46f4 55be 1400 8d3d da32 3dbe addc 983c
00000340: 8f98 fcbd 85f5 913e bb7b c83e d5c8 d83e
00000350: f5e2 f5be 78f5 9c3e ea34 fb3e c94a 8f3e
00000360: a05b 843e 205e 2bbd 798e bbbe 72fc 3bbe
00000370: 36a8 c13e e1ba 8abe 32cf 1fbe f62c 2fbd
00000380: b71f 783e bbb9 ea3d bb3f f33d 5c96 cabd
00000390: c460 283a a74c 793e 06fb f53c 4e72 083d
000003a0: f991 2a3e 1607 1cbd bddb 2a3e 0e16 843e
000003b0: 959d f0bd 739f 903e 251a 853e d85b 803d
000003c0: 19df 2bbd 779e c4bd a1a1 adbe d102 3abe
000003d0: 09a9 ae3e c50e 1bbe 030f 44be d88d 27be
000003e0: 7da1 82be 46b9 b13e c391 583d 59db 80bd
000003f0: 2b92 58be b00b b5be e86e 143f 6ae9 1bbc

rnn.weight_hh_l0 f4 [192, 64]
0.0026668645 0.010337427 0.11596564 -0.2231618 0.0014160488 -0.24324256 0.08649367 0.11037573
-0.054725144 -0.034574524 0.05021117 0.021022322 0.15822192 0.16165411 0.026179895 -0.08356198
-0.02988006 0.023387339 -0.076488346 -0.04714401 0.09051672 -0.052960116 -0.081973456 -0.0869563
-0.033902682 0.013179213 -0.024617936 0.029212877 0.122832224 0.01651572 -0.0071292287 -0.105148345
-0.0457719 0.12404935 -0.11962055 -0.04943279 0.15271714 0.06735112 0.08732083 0.038338013
0.053695068 -0.06351496 0.1914299 0.06198338 -0.036246583 -0.06838711 -0.06725662 -0.0938512
-0.15240054 0.096066006 -0.06388716 -0.16449058 -0.06761074 -0.008459354 0.03927784 0.09420797
0.07848169 0.20696089 -0.25904614 0.056979068 -0.063934274 -0.203343 -0.06761303 -0.041112073
0.26695317 0.35063362 0.049194742 -0.13774924 0.35410884 -0.30109373 -0.13617085 0.09563627
0.10133953 -0.09234267 -0.31016284 -0.2988672 0.3531029 0.28704393 -0.123899765 -0.060049128
0.2219726 -0.046203393 -0.30076417 0.028360328 0.050059672 0.40225017 -0.098652415 -0.14960948
-0.05315616 0.19602814 -0.13036849 0.028428854 -0.003968503 -0.33986253 0.09305521 -0.07741109
-0.15983483 -0.004654014 0.06216733 -0.30620536 0.20713641 -0.101492174 -0.16856782 -0.18461448
0.25528857 -0.09838979 0.24682435 -0.39105627 0.13793394 0.07078822 0.05753217 -0.07133071
-0.23132722 0.004345787 -0.1329915 -0.14286438 -0.3166681 -0.17700297 0.17683291 0.061875675
-0.16851257 0.01201906 -0.30920509 -0.0037677204 -0.34989095 -0.24006498 -0.18487029 -0.025735386
-0.1010565 0.0994469 0.010546276 0.12043763 0.037461687 0.120847955 0.023925971 0.078590095
-0.096044935 -0.017830076 0.10005618 -0.023826469 0.03709274 0.008770468 0.021123722 -0.082005575
-0.073591895 0.062116038 0.09450441 0.06508909 0.0495729 -0.06642529 -0.08831447 0.06222918
-0.071381085 -0.12396998 -0.06399787 0.068972416 -0.06587425 -0.05089752 -0.10325346 0.08175643
0.07098455 -0.006929952 0.12147148 -0.04612772 -0.19098589 0.019013131 -0.012936904 -0.071395986
-0.08619005 0.05248589 -0.009940366 -0.12492378 0.06357481 -0.016906928 0.021377554 0.089621015
0.053588767 -0.005915119 -0.13458121 0.0662787 0.08766727 0.18956992 0.07558176 -0.07083043
-0.030647738 -0.08559737 0.004521329 0.10682516 -0.056920003 0.08845662 -0.049626455 0.11903813
0.119870305 -0.012258914 0.09156753 -0.05584787 0.07128026 -0.07826071 -0.25923985 0.12734845
0.056443498 0.012181033 -0.035406303 -0.055235155 0.096351765 0.21844909 -0.14300777 0.029276833
-0.3560964 0.06193516 -0.05934471 0.16166957 0.077028975 0.12988546 -0.19005184 -0.09269249
0.057093628 0.071301416 0.05991657 -0.35537043 0.08269658 0.013843009 0.24184667 -0.30853188
-0.0072437907 0.06967316 0.11435304 0.07831019 -0.038894404 -0.15601638 -0.07410996 -0.20522977
-0.01150689 0.024040153 -0.0097224945 -0.038322516 0.11751916 0.08227526 -0.09755378 0.037307736
0.16360247 -0.12769233 0.032981828 -0.0012876824 0.02025685 -0.10194874 -0.049758855 -0.08553405
-0.14193906 0.27116042 -0.2728197 0.050873876 -0.008274754 -0.08816764 0.011189206 0.0076112146
00000000: 90c6 2e3b 505e 293c 657f ed3d 8784 64be
00000010: b79a b93a 9414 79be 9823 b13d ac0c e23d
00000020: 7927 60bd 049e 0dbd 3aaa 4d3d 0137 ac3c
00000030: ed04 223e a888 253e 3877 d63c 8b22 abbd
00000040: 07c7 f4bc ce96 bf3c eca5 9cbd 141a 41bd
00000050: d560 b93d b5ec 58bd b3e1 a7bd 2516 b2bd
00000060: 8add 0abd a0ed 573c 8eab c9bc d84f ef3c
00000070: 768f fb3d fa4b 873c 4e9c e9bb 0458 d7bd
00000080: 517b 3bbd 960d fe3d 9efb f4bd 0a7a 4abd
00000090: e261 1c3e 62ef 893d 43d5 b23d 5208 1d3d
000000a0: 5cef 5b3d 2214 82bd 3306 443e 49e2 7d3d
000000b0: 4c77 14bd 8b0e 8cbd d7bd 89bd 0f35 c0bd
000000c0: e30e 1cbe 41be c43d 45d7 82bd 3870 28be
000000d0: 8077 8abd 1a99 0abc cde1 203d 1cf0 c03d
000000e0: 02bb a03d 8eed 533e b2a1 84be e262 693d
000000f0: f9ef 82bd 2639 50be b378 8abd 2265 28bd
00000100: 16ae 883e 4086 b33e 6d80 493d 230e 0dbe
00000110: c14d b53e f528 9abe 5f70 0bbe f3dc c33d
00000120: 198b cf3d 271e bdbd aacd 9ebe 1f05 99be
00000130: e7c9 b43e 6cf7 923e 29bf fdbd 13f6 75bd
00000140: c94c 633e c53f 3dbd c3fd 99be eb53 e83c
00000150: 5f0b 4d3d bcf3 cd3e 470a cabd 3a33 19be
00000160: 46ba 59bd 9abb 483e 517f 05be a1e3 e83c
00000170: 370a 82bb 7602 aebe bb93 be3d b589 9ebd
00000180: beab 23be b380 98bb 2ca3 7e3d f3c6 9cbe
00000190: 911b 543e 21db cfbd 0b9d 2cbe 940b 3dbe
000001a0: 2fb5 823e 9680 c9bd 86bf 7c3e 8738 c8be
000001b0: 8e3e 0d3e 6af9 903d daa6 6b3d d615 92bd
000001c0: 0be1 6cbe 1b67 8e3b ec2e 08be 0a4b 12be
000001d0: 5222 a2be 4440 35be b013 353e 5971 7d3d
000001e0: 8f8e 2cbe 97eb 443c 2150 9ebe dceb 76bb
000001f0: e824 b3be 98d3 75be a34e 3dbe 04d3 d2bc
00000200: b6f6 cebd d1aa cb3d 4aca 2c3c 01a8 f63d
00000210: 6d71 193d 227f f73d 6600 c43c d8f3 a03d
00000220: 35b3 c4bd 6110 92bc 41ea cc3d ba2f c3bc
00000230: 8fee 173d 02b2 0f3c a80b ad3c 8af2 a7bd
00000240: 59b7 96bd 636d 7e3d 878b c13d 6e4d 853d
00000250: f40c 4b3d fc09 88bd 38de b4bd 06e4 7e3d
00000260: 3f30 92bd f9e3 fdbd 5111 83bd 6941 8d3d
00000270: 14e9 86bd eb79 50bd 8d76 d3bd ea6f a73d
00000280: 5960 913d a714 e3bb 0ac6 f83d 6cf0 3cbd
00000290: ce91 43be 6dc1 9b3c 4ff5 53bc 0f38 92bd
000002a0: 6984 b0bd 72fb 563d ebdc 22bc 0ad8 ffbd
000002b0: 8333 823d 6680 8abc fb1f af3c 398b b73d
000002c0: e57f 5b3d 9dd3 c1bb a8cf 09be 21bd 873d
000002d0: e68a b33d 9e1e 423e 9cca 9a3d 8b0f 91bd
000002e0: f710 fbbc ad4d afbd a827 943b 26c7 da3d
000002f0: f324 69bd bf28 b53d 1c45 4bbd 43ca f33d
00000300: 907e f53d 9dd9 48bc c287 bb3d bcc0 64bd
00000310: 63fb 913d 2747 a0bd 16bb 84be a267 023e
00000320: 4c31 673d f592 473c 3306 11bd 423e 62bd
00000330: 1354 c53d 1eb1 5f3e a170 12be f8d5 ef3c
00000340: 4452 b6be b9af 7d3d 7013 73bd b58c 253e
00000350: 5ec1 9d3d b200 053e f39c 42be 8fd5 bdbd
00000360: 02db 693d 7a06 923d 146b 753d 1df3 b5be
00000370: d35c a93d cacd 623c a7a6 773e e4f7 9dbe
00000380: 525d edbb cdb0 8e3d ed31 ea3d 1861 a03d
00000390: bd4f 1fbd c2c2 1fbe f6c6 97bd c127 52be
000003a0: 6587 3cbc dbef c43c 194b 1fbc 12f8 1cbd
000003b0: e3ad f03d ee7f a83d 47ca c7bd ffcf 183d
000003c0: 6887 273e c7c1 02be f417 073d 74c7 a8ba
000003d0: b2f1 a53c 80ca d0bd f1cf 4bbd 7a2c afbd
000003e0: 7958 11be 8ad5 8a3e 06af 8bbe 2061 503d
000003f0: d592 07bc 3c91 b4bd ee52 373c 7f67 f93b

rnn.bias_ih_l0 f4 [192]
-0.072349064 0.057916872 0.0062706396 0.065817915 0.08614711 -0.13245343 -0.1295848 0.06876423
0.016879007 0.1721689 0.014294817 0.0705068 0.16463368 -0.007914233 0.08911044 -0.070711434
0.061019488 -0.08056077 0.03894382 0.100615785 0.112218894 0.020923693 -0.047545068 -0.049244687
-0.056520555 0.037130296 0.14505042 0.044650935 0.078570835 -0.07967867 -0.057481743 0.085689135
-0.05057464 -0.086118765 -0.028174978 -0.037552435 0.033719596 -0.08699158 -0.14020687 0.10599347
0.08020895 0.13024563 -0.013656736 -0.095114686 -0.0005326027 -0.064360954 -0.10891908 0.099661276
0.070194826 0.04844086 0.048793554 -0.014430585 -0.06957172 -0.0010287008 0.12378508 0.008812221
0.041413717 -0.0017310621 0.056555387 -0.12097789 0.079596914 -0.08247962 -0.061911255 -0.01576458
-0.0003554734 -0.17621179 0.118578225 -0.14711985 0.036399096 -0.04846903 -0.072522074 0.043342944
0.025815532 0.053034924 -0.30957076 -0.25515142 -0.0029305753 -0.13523063 -0.033214934 -0.025779366
-0.097350776 -0.13929074 -0.1942145 0.064559996 -0.20636684 0.013648075 -0.017229352 -0.038166843
-0.038729496 -0.15032285 -0.14954214 0.044658437 0.013994379 -0.23725341 0.010148578 -0.32787573
-0.20746535 -0.034722768 -0.03557833 -0.118763134 -0.0603454 -0.06588061 -0.10381219 -0.16441022
-0.32124954 -0.03801202 0.024465 -0.03705118 -0.1261392 0.06867592 0.009941954 0.029895695
-0.048225947 0.10510264 0.08219163 -0.24553569 -0.14631177 -0.21306856 -0.1868782 -0.15984464
-0.18689875 -0.07479295 -0.04109997 -0.0032093902 0.1332983 -0.10102111 -0.17818768 -0.039463807
0.007263121 0.13192417 -0.053318195 -0.09820666 -0.028543623 -0.06109228 0.042396158 0.07095406
-0.04936873 0.04972383 -0.11481695 0.07412714 0.06235407 -0.025852393 -0.06708697 -0.022645775
0.062362917 0.13278478 0.05768058 0.050209362 0.07463041 -1.1853437e-05 -0.010605542 -0.08561057
0.10951094 -0.095061086 -0.0462928 -0.0824065 0.014385939 -0.09053306 0.064309336 0.057997882
0.0290488 -0.13771068 0.10559749 -0.06108641 0.022393012 -0.058306083 -0.061385643 -0.023447115
0.009238157 0.083939485 -0.023865594 -0.10705901 0.08546258 -0.03680509 0.0948893 -0.025153464
0.10080383 -0.07414137 0.12133542 0.08936007 -0.048071258 0.07034291 -0.062338915 -0.07069736
-0.07534922 -0.103218265 -0.015322384 -0.06515552 -0.0153149385 -0.038256947 0.015285383 -0.05046111
00000000: bf2b 94bd 3e3a 6d3d f079 cd3b 8bcb 863d
00000010: e56d b03d dfa1 07be e1b1 04be 43d4 8c3d
00000020: d845 8a3c 0b4d 303e cf34 6a3c df65 903d
00000030: bb95 283e b3aa 01bc 897f b63d 28d1 90bd
00000040: 92ef 793d 0cfd a4bd 8e83 1f3d a60f ce3d
00000050: 05d3 e53d 2a68 ab3c 9ebe 42bd ccb4 49bd
00000060: 1982 67bd f015 183d 1988 143e e6e3 363d
00000070: bfe9 a03d 922e a3bd fa71 6bbd c97d af3d
00000080: 5b27 4fbd 095f b0bd 36cf e6bc 95d0 19bd
00000090: 8f1d 0a3d a428 b2bd 6492 0fbe 1b13 d93d
000000a0: 9744 a43d 1c5f 053e 81c0 5fbc 7dcb c2bd
000000b0: 5d9e 0bba adcf 83bd f710 dfbd 361b cc3d
000000c0: 4ec2 8f3d ec69 463d c0db 473d 436e 6cbc
000000d0: 9e7b 8ebd 79d5 86ba 0883 fd3d 2261 103c
000000e0: 6ea1 293d cee4 e2ba 9fa6 673d 42c3 f7bd
000000f0: b503 a33d 13eb a8bd a896 7dbd b824 81bc
00000100: d55e bab9 dd70 34be 24d9 f23d 96a6 16be
00000110: 3817 153d 7687 46bd 7486 94bd 5f88 313d
00000120: 187b d33c 263b 593d 0f80 9ebe 35a3 82be
00000130: e50e 40bb e679 0abe 620c 08bd 402f d3bc
00000140: d85f c7bd 3ba2 0ebe 2ae0 46be 0838 843d
00000150: d451 53be 2d9c 5f3c 9224 8dbc d654 1cbd
00000160: d2a2 1ebd 3cee 19be 9321 19be c4eb 363d
00000170: ae48 653c 8ff2 72be 3946 263c 54df a7be
00000180: cc71 54be 7639 0ebd 95ba 11bd 163a f3bd
00000190: bd2c 77bd 6aec 86bd 7c9b d4bd 275b 28be
000001a0: d27a a4be 7eb2 1bbd d36a c83c fac2 17bd
000001b0: a22a 01be f6a5 8c3d 94e3 223c d1e7 f43c
000001c0: 9288 45bd 0e40 d73d 1654 a83d b56d 7bbe
000001d0: c1d2 15be a52e 5abe 005d 3fbe 50ae 23be
000001e0: 6362 3fbe 0c2d 99bd 7158 28bd a254 52bb
000001f0: 597f 083e 28e4 cebd d576 36be cda4 21bd
00000200: 7aff ed3b 2117 073e 2e64 5abd 9320 c9bd
00000210: 51d4 e9bc e63b 7abd 98a7 2d3d 5d50 913d
00000220: de36 4abd 37ab 4b3d 2625 ebbd f8cf 973d
00000230: fb66 7f3d 66c8 d3bc e564 89bd a283 b9bc
00000240: 4270 7f3d bcf8 073e 7942 6c3d 55a8 4d3d
00000250: d4d7 983d 20de 46b7 dec2 2dbc 9854 afbd
00000260: 4647 e03d 63af c2bd 859d 3dbd bdc4 a8bd
00000270: 00b3 6b3c 6669 b9bd 9db4 833d 308f 6d3d
00000280: c0f7 ed3c 0704 0dbe 7f43 d83d be35 7abd
00000290: 8d71 b73c 5cd2 6ebd 836f 7bbd 2a14 c0bc
000002a0: a45b 173c 77e8 ab3d c781 c3bc c141 dbbd
000002b0: 0107 af3d efc0 16bd 5255 c23d a30e cebc
000002c0: 3d72 ce3d 6ed7 97bd b47e f83d 6a02 b73d
000002d0: 5ee6 44bd f20f 903d 1757 7fbd c7c9 90bd
000002e0: b150 9abd 1964 d3bd bd0a 7bbc 4270 85bd
000002f0: 82eb 7abc 51b3 1cbd 8b6f 7a3c 4fb0 4ebd

rnn.bias_hh_l0 f4 [192]
0.057930853 -0.069391765 -0.048743036 -0.09586003 0.06187273 -0.083991036 -0.1463219 0.09386898
0.081175655 0.08701943 -0.056988813 -0.016212339 0.15243839 -0.009094376 0.072549365 -0.09466788
0.023574067 0.1008542 0.090775535 -0.107222974 -0.11012889 0.064110726 -0.13604303 0.046027496
0.08436013 0.019059017 0.10792022 0.16992426 -0.07302681 -0.02476744 -0.016332058 0.072058715
0.1174083 0.05071954 0.1128369 0.16203937 0.024347404 0.07487121 -0.013763673 -0.009473122
0.052107874 0.13709873 0.116812944 0.10101483 0.098098546 -0.008792475 0.039098673 -0.13071086
-0.10290046 -0.08979767 0.00018495852 -0.089348175 0.04205615 0.014933415 -0.02384283 -0.03003642
0.104854986 -0.07433806 -0.13009447 0.010530142 -0.07526966 -0.043908987 -0.016755588 -0.110342994
-0.083836004 -0.1491131 0.13462658 -0.3102792 0.08290956 -0.14506997 -0.19514415 0.021776348
0.15912236 -0.050054245 -0.3120757 -0.25254446 -0.04684938 -0.23299447 -0.27621445 -0.09558888
0.059672933 -0.21403508 -0.19242376 0.017027091 -0.021574058 0.012623903 -0.07848915 -0.001818058
-0.13303454 0.021021148 -0.15825517 0.11785307 0.018664509 -0.34857687 -0.100331 -0.4110046
-0.14241627 -0.018517466 -0.02877616 -0.049672835 -0.06124733 -0.12868406 -0.10031638 -0.16564296
-0.14450273 0.005725451 -0.11460087 0.0017116898 -0.12283841 -0.100645736 0.002900452 -0.046748314
-0.069887295 0.0098856585 -0.059068132 -0.11167343 -0.20318632 -0.23521854 -0.021043647 -0.0949335
-0.20746492 -0.13663062 0.015717605 0.14703783 0.07749839 -0.26120132 -0.070088334 -0.2228747
0.036767084 0.03761175 -0.061072916 0.051621415 0.13925636 0.09052489 0.06278305 -0.08908261
0.0104201 -0.048317283 -0.015532445 0.0007413367 0.013972072 0.010895196 -0.03311877 0.011045664
-0.031638768 0.112512216 -0.13043886 -0.13172658 0.016006544 -0.040661506 0.009996755 -0.09197153
0.007081256 -0.09463786 0.04302695 0.027161323 -0.002246428 0.015217418 -0.05828505 0.1345467
-0.014853262 0.03451991 0.034413017 -0.11139324 -0.06935969 0.050479453 0.011177622 0.055391587
0.09828893 0.084354386 -0.048889052 -0.039142262 0.10209259 0.026764538 -0.07412723 0.016463656
-7.733045e-05 -0.10459442 -0.07888335 0.012745438 0.04363153 -0.02950729 0.13215004 0.00046266947
-0.043909073 -0.02577088 -0.07241729 -0.0016468086 -0.108847156 0.0032700584 -0.12735641 0.050358076
00000000: e748 6d3d 451d 8ebd c7a6 47bd 4352 c4bd
00000010: 426e 7d3d 7e03 acbd 68d5 15be 613e c03d
00000020: 6c3f a63d 3e37 b23d 1a6d 69bd bdcf 84bc
00000030: cf18 1c3e 9400 15bc c394 943d 3ce1 c1bd
00000040: 671e c13c a68c ce3d 86e8 b93d b897 dbbd
00000050: 418b e1bd 7c4c 833d dd4e 0bbe 5487 3c3d
00000060: 01c5 ac3d a821 9c3c 4705 dd3d a000 2e3e
00000070: 158f 95bd 16e5 cabc cfca 85bc 8593 933d
00000080: c373 f03d 4bbf 4f3d 0817 e73d a6ed 253e
00000090: 3574 c73c 1456 993d 0781 61bc 2735 1bbc
000000a0: 116f 553d 9c63 0c3e a03b ef3d dde0 ce3d
000000b0: e4e7 c83d 500e 10bc ee25 203d 11d9 05be
000000c0: 7abd d2bd d7e7 b7bd 6df1 4139 2dfc b6bd
000000d0: 1243 2c3d 48ab 743c 0a52 c3bc f00e f6bc
000000e0: 36be d63d 8e3e 98bd 7c37 05be 9e86 2c3c
000000f0: fb26 9abd e9d9 33bd 0443 89bc 82fb e1bd
00000100: 36b2 abbd 1bb1 18be 8ddb 093e eadc 9ebe
00000110: 7dcc a93d 398d 14be ded3 47be 5064 b23c
00000120: f9f0 223e ae05 4dbd 63c8 9fbe 824d 81be
00000130: 23e5 3fbd 1a96 6ebe fb6b 8dbe 1ac4 c3bd
00000140: 9b6b 743d 032c 5bbe bc0a 45be 667c 8b3c
00000150: 14bc b0bc 7dd4 4e3c ebbe a0bd e74b eeba
00000160: 353a 08be 8b34 ac3c a50d 22be f35c f13d
00000170: 50e6 983c ab78 b2be 577a cdbd 326f d2be
00000180: 92d5 11be f1b1 97bc fbbb ebbc be75 4bbd
00000190: 7bde 7abd c1c5 03be ad72 cdbd 4f9e 29be
000001a0: 86f8 13be 909c bb3b dcb3 eabd c75a e03a
000001b0: b492 fbbd 5a1f cebd 8215 3e3b 297b 3fbd
000001c0: 1221 8fbd 75f7 213c 6df1 71bd 0ab5 e4bd
000001d0: 1310 50be 21dd 70be ba63 acbc 7f6c c2bd
000001e0: af71 54be e6e8 0bbe 35c2 803c 1691 163e
000001f0: 7ab7 9e3d 2ebc 85be 798a 8fbd 4439 64be
00000200: 1599 163d c70e 1a3d 9827 7abd fa70 533d
00000210: 3899 0e3e 1d65 b93d 6694 803d f270 b6bd
00000220: 11b9 2a3c 58e8 45bd cc7b 7ebc 4456 423a
00000230: 1eeb 643c c481 323c 8ca7 07bd dff8 343c
00000240: a797 01bd ce6c e63d c491 05be 55e3 06be
00000250: 2820 833c ae8c 26bd 6ec9 233c 925b bcbd
00000260: e109 e83b 7fd1 c1bd 073d 303d 6c81 de3c
00000270: cf38 13bb 7a52 793c 4ebc 6ebd 9cc6 093e
00000280: 195b 73bc c064 0d3d aaf4 0c3d 2422 e4bd
00000290: 740c 8ebd 8bc3 4e3d 5822 373c 4ae2 623d
000002a0: b54b c93d fec1 ac3d e33f 48bd a353 20bd
000002b0: eb15 d13d 4e41 db3c 04d0 97bd cade 863c
000002c0: 782c a2b8 9935 d6bd 988d a1bd 3ed2 503c
000002d0: fab6 323d 46b9 f1bc 5752 073e 7292 f239
000002e0: 00da 33bd 741d d3bc 844f 94bd bad9 d7ba
000002f0: 42eb debd 7a4e 563b b869 02be 4544 4e3d

rnn.weight_ih_l1 f4 [192, 64]
0.012051498 -0.058569193 0.06680453 -0.0691259 -0.016927475 -0.010300826 0.06678477 0.11614102
-0.088430725 0.037522346 0.066756114 -0.09749895 -0.08526393 0.007679065 -0.10172101 0.02174155
-0.17891663 0.21495678 0.08210994 -0.02679355 0.09893299 -0.05658825 0.15522365 0.13652146
-0.080151156 -0.07953854 -0.061508976 0.039308924 -0.06308597 0.09585158 0.096629605 0.006091479
-0.030414362 0.004365414 -0.084717266 -0.0064057256 0.10001922 -0.09290803 0.017996423 0.024804035
-0.041050456 -0.0022096203 0.085363634 -0.022508435 0.11986098 -0.11193828 -0.06575931 0.021826655
-0.016799374 -0.09607151 -0.08293054 0.09271219 -0.06527349 -0.05593732 -0.14653282 0.07225713
-0.05414688 0.06502347 0.115636565 -0.11599098 0.039699845 0.0072663124 0.09299115 -0.05700793
0.29177085 0.3204014 -0.050556563 -0.19553132 -0.014633196 -0.05317393 -0.005236936 -0.003307894
0.053161975 -0.1705943 0.015562321 0.32208875 0.24702838 0.07412144 -0.039697282 0.017733434
0.06523446 -0.26810777 -0.16292214 -0.1341579 0.11397096 0.18108132 0.043544326 -0.32808352
-0.07416927 0.04105688 -0.1997788 -0.0017372455 0.06562122 -0.30999368 0.24642242 -0.10812484
-0.19329728 -0.08493482 0.14692637 -0.19662155 -0.07542262 0.002037074 0.047860365 -0.024940468
0.2115814 0.040682834 -0.1815007 -0.19314085 0.09274976 -0.085333645 -0.0652474 0.038855456
0.1697891 -0.038605362 0.030169433 -0.073523074 -0.30446714 -0.040715426 0.105165936 0.02582263
-0.19160244 -0.103307344 0.10780683 0.09595791 -0.026387023 0.069368996 -0.095976494 0.009403478
0.14319304 0.16194613 0.036924988 -0.15812175 0.06551782 0.04597495 0.058146894 0.06897064
-0.033433855 -0.09609955 0.08243742 0.10438771 0.17673369 -0.057772055 -0.106887676 -0.07415496
-0.03388497 -0.15224634 -0.10613682 -0.12892279 -0.046417955 -0.050085627 0.084581666 -0.13308093
-0.12675555 -0.04283253 0.039627228 -0.0063083814 -0.031721305 -0.15508044 -0.11509466 0.09110564
-0.06625233 0.071366474 0.038665526 -0.035611317 0.122103736 0.005190235 0.06971945 0.010064647
0.111175306 0.019790972 0.19738597 0.0746579 0.1448095 0.11521813 0.09626495 -0.012443054
-0.14123063 0.08829054 -0.07412139 -0.07742561 -0.08204703 -0.010154071 0.049377516 -0.07767327
0.0531264 0.12367618 0.095636055 0.04992837 -0.13307919 -0.047271926 -0.15195195 -0.062039644
0.26400027 0.25795254 0.2493881 -0.071484216 0.05616612 -0.4710306 0.13418655 0.12828945
-0.04827614 0.11847823 -0.20337722 -0.3914093 0.06212752 -0.18455218 0.1936958 0.15855844
-0.35753387 -0.11429377 -0.10460714 -0.21918185 0.09947274 0.19464578 0.20134607 -0.09707719
-0.01828148 0.1921823 -0.11010045 -0.15710069 -0.2588911 -0.10682235 -0.2683049 0.13415003
-0.17103225 -0.009783297 -0.07754014 -0.080677144 0.51774323 0.28653073 -0.16653343 0.030510096
0.23107521 -0.18966345 0.07148389 0.05910476 0.20438743 0.35625678 -0.051336996 -0.21355937
0.026439995 -0.07154106 -0.24776685 -0.08178576 -0.20338541 -0.026263889 0.034130465 0.17343348
0.085247934 -0.099911734 -0.59592265 -0.15528567 -0.3241243 -0.42839405 0.02342168 -0.098730594
00000000: a573 453c 40e6 6fbd d0d0 883d e191 8dbd
00000010: 7dab 8abc ccc4 28bc 74c6 883d 58db ed3d
00000020: 2b1b b5bd 08b1 193d 6eb7 883d 88ad c7bd
00000030: db9e aebd aba0 fb3b 1b53 d0bd 561b b23c
00000040: ec35 37be a11d 5c3e 4229 a83d 267e dbbc
00000050: 619d ca3d 15c9 67bd f3f2 1e3e 48cc 0b3e
00000060: 4a26 a4bd 1ae5 a2bd d6f0 7bbd 6502 213d
00000070: 3833 81bd d54d c43d bee5 c53d 089b c73b
00000080: 8a27 f9bc bf0b 8f3b 3f80 adbd 1fe7 d1bb
00000090: e0d6 cc3d 9146 bebd 3c6d 933c d531 cb3c
000000a0: 8624 28bd 47cf 10bb 21d3 ae3d 9c63 b8bc
000000b0: ac79 f53d e63f e5bd d1ac 86bd d0cd b23c
000000c0: d79e 89bc 24c1 c4bd 7dd7 a9bd e3df bd3d
000000d0: 1cae 85bd 881e 65bd b30c 16be 8cfb 933d
000000e0: 1ec9 5dbd 062b 853d ddd2 ec3d ae8c edbd
000000f0: 4e9c 223d 3f1a ee3b 2572 be3d 2681 69bd
00000100: fd62 953e a70b a43e 6614 4fbd 5d39 48be
00000110: 13c0 6fbc e8cc 59bd 9a9a abbb 41c9 58bb
00000120: 5fc0 593d 46b0 2ebe 1bf9 7e3c d1e8 a43e
00000130: 02f5 7c3e fbcc 973d 9e99 22bd b545 913c
00000140: a599 853d 6c45 89be 10d5 26be b060 09be
00000150: 9b69 e93d 626d 393e 895b 323d 90fa a7be
00000160: 0fe6 97bd 422b 283d d092 4cbe 49b4 e3ba
00000170: 6b64 863d 7eb7 9ebe 2956 7c3e 8e70 ddbd
00000180: b9ef 45be 4ff2 adbd de73 163e 2957 49be
00000190: 2d77 9abd 6e80 053b 3b09 443d f44f ccbc
000001a0: cba8 583e 0ba3 263d 52db 39be b7c6 45be
000001b0: 96f3 bd3d 68c3 aebd 6ea0 85bd e626 1f3d
000001c0: 32dd 2d3e a820 1ebd e325 f73c 4493 96bd
000001d0: 1ee3 9bbe 38c5 26bd 3d61 d73d fb89 d33c
000001e0: 6e33 44be cd92 d3bd d4c9 dc3d 9585 c43d
000001f0: 9929 d8bc 5511 8e3d 538f c4bd 0c11 1a3c
00000200: 32a1 123e 35d5 253e a83e 173d abea 21be
00000210: 352e 863d 3b50 3c3d 702b 6e3d 7b40 8d3d
00000220: f0f1 08bd d7cf c4bd f3d4 a83d 39c9 d53d
00000230: adf9 343e 64a2 6cbd ede7 dabd 8ede 97bd
00000240: f7ca 0abd 77e6 1bbe 435e d9bd 5604 04be
00000250: c120 3ebd 9626 4dbd 2739 ad3d 5e46 08be
00000260: 35cc 01be 2a71 2fbd 2950 223d 8ab6 cebb
00000270: 33ee 01bd 68cd 1ebe c0b6 ebbd 9895 ba3d
00000280: 4daf 87bd 9628 923d be5f 1e3d 2cdd 11bd
00000290: 8611 fa3d d912 aa3b 12c9 8e3d 30e6 243c
000002a0: e1af e33d ad20 a23c 8c1f 4a3e 3ee6 983d
000002b0: f148 143e 7cf7 eb3d 8f26 c53d f3dd 4bbc
000002c0: c39e 10be acd1 b43d f5cc 97bd 5191 9ebd
000002d0: 4608 a8bd 435d 26bc 1440 4a3d 2a13 9fbd
000002e0: 119b 593d f049 fd3d d6dc c33d b181 4c3d
000002f0: e945 08be 35a0 41bd 4b99 1bbe 481d 7ebd
00000300: 0b2b 873e 5b12 843e 985f 7f3e 5166 92bd
00000310: 720e 663d ec2a f1be 3368 093e 4f5e 033e
00000320: 34bd 45bd b7a4 f23d 1e42 50be cd66 c8be
00000330: 6d79 7e3d 3ffb 3cbe 3158 463e 255d 223e
00000340: ae0e b7be da12 eabd 453c d6bd 3571 60be
00000350: 5db8 cb3d 3951 473e aa2d 4e3e 68d0 c6bd
00000360: 0bc3 95bc 70cb 443e 587c e1bd 01df 20be
00000370: 608d 84be adc5 dabd 435f 89be a05e 093e
00000380: 1423 2fbe 1f4a 20bc 5dcd 9ebd 0f3a a5bd
00000390: d28a 043f 28b4 923e bd87 2abe 4ff0 f93c
000003a0: fb9e 6c3e 2337 42be 2566 923d d517 723d
000003b0: f04a 513e 4a67 b63e be46 52bd 4faf 5abe
000003c0: b098 d83c 1f84 92bd 98b6 7dbe 4b7f a7bd
000003d0: 4444 50be 5e27 d7bc 63cc 0b3d 8c98 313e
000003e0: 7896 ae3d 869e ccbd 638e 18bf 3503 1fbe
000003f0: 9ff3 a5be 7756 dbbe d3de bf3c 4433 cabd

rnn.weight_hh_l1 f4 [192, 64]
-0.005389737 -0.05003979 0.092966236 -0.045838986 0.014920916 0.09418494 0.038683012 0.090401195
0.0030392392 0.0034688474 0.11450238 -0.012248196 -0.014945602 -0.11762723 -0.014839371 -0.052259244
0.11170856 0.023397865 -0.11884025 0.06572855 -0.09898477 0.057705764 -0.004354535 -0.16677555
-0.06030861 -0.064249046 0.028997937 0.15793574 -0.09491349 0.11572395 0.049825583 -0.049647022
0.0008015282 0.12550274 -0.015298908 -0.07560433 -0.0012938416 0.0022782236 -0.13260032 -0.02827124
-0.025133433 0.014907161 -0.062488157 0.06503885 -0.14310254 -0.08640398 -0.056728292 0.02509734
0.064970955 -0.00016425349 -0.18623686 -0.029849641 0.034055203 -0.011576416 -0.024575 -0.025673468
0.031589005 0.018862715 -0.24274693 0.05742423 -0.09256031 0.025588322 0.097509675 0.01947328
0.0952121 0.04398735 0.15243906 -0.061418932 0.081049845 -0.34733725 -0.27991188 0.09835075
0.3113294 0.12341876 -0.041159287 0.15745229 -0.007125878 0.15388203 -0.047762666 -0.2745599
-0.22808269 0.15767612 0.14222664 -0.05609672 0.06743026 0.3679795 -0.08207765 -0.21269566
-0.1274468 0.35871807 -0.016560644 -0.32508156 -0.08262916 -0.00488067 0.061671935 0.08672377
0.15963 -0.28323045 -0.14493194 0.19890636 0.34726253 0.09217009 -0.067964144 0.23783672
0.09411573 -0.23373388 -0.14759625 0.029669883 -0.00043946964 0.115803994 -0.4840975 0.36626288
-0.13379024 -0.30209357 0.16430709 -0.0961806 -0.12254393 -0.28075948 -0.23530403 -0.07887912
0.20573506 0.11353947 0.09208068 0.28515908 0.050852846 -0.22221997 -0.40415773 -0.196984
0.028017363 -0.059871487 -0.116461575 -0.14666499 -0.13825522 0.04388126 0.075360596 0.046812482
0.15159072 0.080890164 0.040198635 0.1714966 0.00042456813 0.088834494 0.08033782 -0.083813585
0.031399526 -0.07091577 0.022969255 0.038990926 0.07623102 0.0048761535 0.08287825 -0.1556733
-0.030825421 0.114904754 -0.029572047 -0.07722478 0.032416653 0.058312353 0.09774128 -0.0026287753
-0.01760022 -0.058825854 0.07545988 0.28264654 0.026267251 -0.051224664 0.11024047 -0.022028057
-0.058944926 -0.024857918 0.02503396 -0.1136723 0.0075256284 0.09617192 -0.14664212 0.16353337
-0.09720344 -0.16093676 0.11422773 0.068964936 -0.11538425 0.0073336703 0.0143446205 0.14812955
0.049051322 0.10376639 0.14609995 0.36196452 0.099716395 0.12518775 -0.12907039 -0.008501095
0.13427849 0.08884834 0.1659441 -0.0977746 -0.09987323 -0.1277743 -0.28725043 -0.02395259
0.29041004 0.05221366 0.03760647 0.10785012 0.074799605 -0.0021514327 -0.19415887 -0.031814896
-0.39330176 -0.11409022 0.21756905 0.032153524 0.20055294 0.08475537 -0.014368591 -0.20080768
-0.07843568 -0.14271832 -0.13750973 0.04996105 0.054208174 -0.074853055 0.32320544 0.056261554
-0.15785761 -0.027223853 0.053471267 0.13112558 0.24109676 -0.10338032 -0.288833 0.27327755
0.11512024 0.16719854 -0.2862177 -0.26901144 -0.027958488 -0.20236701 -0.2578792 0.5648164
-0.030531574 -0.19412114 0.21389656 -0.028649364 -0.29594585 -0.2567112 -0.5099918 -0.069886014
0.095059015 -0.11555178 0.29609585 0.2885255 0.08505271 -0.0877181 -0.14712715 0.14613318
00000000: 649c b0bb 86f6 4cbd 1565 be3d a9c1 3bbd
00000010: dc76 743c 09e4 c03d 1472 1e3d 4324 b93d
00000020: f92d 473b 9a55 633b 3980 ea3d a8ac 48bc
00000030: 66de 74bc 8ce6 f0bd d520 73bc ca0d 56bd
00000040: 75c7 e43d e1ac bf3c 8462 f3bd b19c 863d
00000050: 87b8 cabd e15c 6c3d 7db0 8ebb 36c7 2abe
00000060: 2906 77bd 0195 83bd 158d ed3c e8b9 213e
00000070: 0162 c2bd ae00 ed3d e915 4c3d ad5a 4bbd
00000080: a61d 523a ca83 003e 45a8 7abc 71d6 9abd
00000090: 1f96 a9ba 404e 153b 61c8 07be 1699 e7bc
000000a0: a1e4 cdbc 2a3d 743c 95f3 7fbd 1733 853d
000000b0: 7989 12be 92f4 b0bd ed5b 68bd f098 cd3c
000000c0: 7e0f 853d 763b 2cb9 e0b4 3ebe 3c87 f4bc
000000d0: 787d 0b3d 02ab 3dbc 8351 c9bc 2a51 d2bc
000000e0: 7963 013d fb85 9a3c a792 78be ab35 6b3d
000000f0: 4390 bdbd 9a9e d13c 27b3 c73d 6e86 9f3c
00000100: 90fe c23d 142c 343d fc18 1c3e 6b92 7bbd
00000110: 76fd a53d 30d6 b1be 9c50 8fbe 1e6c c93d
00000120: 9166 9f3e fac2 fc3d a496 28bd 2c3b 213e
00000130: 3280 e9bb 4093 1d3e c9a2 43bd 1d93 8cbe
00000140: 828e 69be d975 213e dca3 113e adc5 65bd
00000150: e018 8a3d cf67 bc3e 5418 a8bd e4cc 59be
00000160: 6a81 02be e5a9 b73e 30aa 87bc 1771 a6be
00000170: 7a39 a9bd 07ee 9fbb b69b 7c3d 3b9c b13d
00000180: 0c76 233e 9503 91be 0a69 14be 1cae 4b3e
00000190: 65cc b13e acc3 bc3d c930 8bbd 788b 733e
000001a0: bfbf c03d ef57 6fbe 7923 17be 410e f33c
000001b0: 9e68 e6b9 a52a ed3d a1db f7be cf86 bb3e
000001c0: 4f00 09be 02ac 9abe 1e40 283e 56fa c4bd
000001d0: 50f8 fabd b5bf 8fbe 8af3 70be 608b a1bd
000001e0: 36ac 523e 6287 e83d cc94 bc3d 5f00 923e
000001f0: 134b 503d a28d 63be c3ed cebe 2cb6 49be
00000200: ab84 e53c ce3b 75bd 6883 eebd 592f 16be
00000210: c792 0dbe d6bc 333d a856 9a3d 72be 3f3d
00000220: 993a 1b3e bea9 a53d 53a7 243d ce9c 2f3e
00000230: 9298 de39 dcee b53d 2888 a43d 75a6 abbd
00000240: ca9c 003d 4a3c 91bd 052a bc3c f3b4 1f3d
00000250: 021f 9c3d 24c8 9f3b 12bc a93d d268 1fbe
00000260: 9885 fcbc 2f53 eb3d 1441 f2bc 0728 9ebd
00000270: 53c7 043d efd8 6e3d 952c c83d 8847 2cbb
00000280: 562e 90bc 61f3 70bd b68a 9a3d 0cb7 903e
00000290: 6b2e d73c f4d0 51bd c1c5 e13d 2f74 b4bc
000002a0: 3c70 71bd d5a2 cbbc 0514 cd3c 06cd e8bd
000002b0: 8c99 f63b c9f5 c43d 5a29 16be 4b75 273e
000002c0: 9912 c7bd 9bcc 24be 3af0 e93d 7d3d 8d3d
000002d0: 944e ecbd 494f f03b b305 6b3c 46af 173e
000002e0: 0aea 483d 7983 d43d 3a9b 153e 6a53 b93e
000002f0: 1c38 cc3d 3831 003e 072b 04be 2d48 0bbc
00000300: 4d80 093e 1ef6 b53d 40ed 293e 0d3e c8bd
00000310: 568a ccbd 44d7 02be 7d12 93be 3938 c4bc
00000320: a0b0 943e fedd 553d 3e09 1a3d 86e0 dc3d
00000330: 8930 993d 0dff 0cbb 95d1 46be 5650 02bd
00000340: d95e c9be 22a8 e9bd 6cca 5e3e 6ab3 033d
00000350: c05d 4d3e 3994 ad3d 3d6a 6bbc 87a0 4dbe
00000360: e3a2 a0bd c024 12be 5acf 0cbe f5a3 4c3d
00000370: 6409 5e3d 8f4c 99bd 2f7b a53e 8472 663d
00000380: 6da5 21be 8f04 dfbc b004 5b3d c945 063e
00000390: 12e2 763e 10b9 d3bd ebe1 93be 09eb 8b3e
000003a0: 29c4 eb3d 1836 2b3e 208b 92be debb 89be
000003b0: 3309 e5bc 4c39 4fbe be08 84be cf97 103f
000003c0: 5a1d fabc b1c7 46be b307 5b3e 12b2 eabc
000003d0: 3786 97be a76f 83be d38e 02bf 6620 8fbd
000003e0: 4dae c23d 69a6 ecbd e099 973e 9db9 933e
000003f0: 1d30 ae3d 8ca5 b3bd 80a8 16be f0a3 153e

rnn.bias_ih_l1 f4 [192]
0.1665566 0.11896084 -0.055260845 -0.08507711 -0.07448432 0.0068930336 0.40354618 0.051919956
-0.05475613 0.026136972 0.007496694 0.061244294 -0.031482816 -0.06746709 0.038286686 -0.07349824
0.20367572 0.08304443 0.040598307 0.040814873 -0.046732683 0.13356428 -0.0016521077 7.60566e-05
-0.007908909 0.0736093 0.16211812 0.06300322 0.007910308 0.01656392 0.04021039 0.089130014
-0.023185356 -0.06186629 -0.03429825 0.12584487 0.047277108 0.049386952 -0.06757271 -0.082891
0.025751358 -0.060860727 0.04933449 -0.002127155 0.06677652 0.17670082 -0.004867708 0.14225982
0.15370063 -0.055146974 0.20226799 0.096814975 0.058443855 -0.11762539 -0.032942086 0.11286874
-0.08855622 0.07883695 -0.02053913 0.35312238 0.11006864 0.13480581 -0.01775204 0.19711936
-0.055571634 -0.06008704 0.044507638 -0.035080772 0.19814415 -0.24305972 -0.60065144 -0.07375179
-0.11267154 -0.0466766 0.035815857 -0.24458009 0.19764207 0.023443107 -0.035698816 -0.259235
-0.0343801 0.12358289 -0.29594043 0.12305548 0.099175125 -0.074337274 0.20644192 0.2660584
-0.16628969 0.063763715 -0.13823304 -0.056632366 0.035047565 0.13452122 -0.10507467 -0.042547543
0.06656069 -0.1381648 -0.027703466 -0.17631535 -0.27797052 -0.18778925 0.11332326 -0.0690004
0.14680815 0.027802764 -0.12155432 0.007340912 0.07138452 -0.15806447 -0.07749526 -0.19007048
-0.004027465 -0.21132857 -0.20002824 0.116682306 0.15002295 -0.2099463 -0.08173804 0.07011356
-0.12191185 -0.0032202262 -0.31822622 -0.7038708 0.085521854 -0.11350549 -0.019243972 -0.27128202
-0.05974434 0.07858339 0.084814996 -0.055566326 -0.045103684 -0.06142655 0.056824975 -0.10499914
-0.053091146 -0.0062936204 0.039827395 0.078919 0.0066651264 -0.045658913 0.016388642 0.011616214
0.00037354094 -0.027886428 0.042893365 0.06417092 -0.123977326 0.06346685 -0.097189486 -0.10646916
-0.08371668 0.057703853 -0.09368133 -0.06247573 0.102642015 0.007880801 0.045765627 -0.11463689
0.045198835 -0.07240323 0.08985843 -0.003146626 0.06208654 0.010380253 0.020858262 0.10892386
-0.007384948 -0.012709212 -0.04952218 0.019198626 -0.02260417 -0.048132714 -0.042040486 -0.052402243
0.08036623 -0.01765055 0.043697517 -0.08006324 0.1016377 -0.016074698 -0.034800746 -0.095945805
0.09194888 0.05838264 -0.06998793 0.054783378 -0.026306525 0.041977394 0.04689631 0.04208862
00000000: d08d 2a3e bea1 f33d 3259 62bd e83c aebd
00000010: 3c8b 98bd f5de e13b 9b9d ce3e 05aa 543d
00000020: f747 60bd 341d d63c d4a6 f53b 4cdb 7a3d
00000030: 20f4 00bd 302c 8abd 80d2 1c3d 3f86 96bd
00000040: 5e90 503e 3313 aa3d 694a 263d 7f2d 273d
00000050: c56a 3fbd 13c5 083e 898b d8ba 9480 9f38
00000060: 5e94 01bc 79c0 963d 4b02 263e d507 813d
00000070: 3d9a 013c 0fb1 873c a6b3 243d cc89 b63d
00000080: 37ef bdbc 8267 7dbd 527c 0cbd 7add 003e
00000090: a4a5 413d f949 4a3d 9063 8abd c2c2 a9bd
000000a0: 83f4 d23c 1949 79bd f612 4a3d bd67 0bbb
000000b0: 21c2 883d 0ff1 343e 4b81 9fbb 8fac 113e
000000c0: b363 1d3e cbe1 61bd 571f 4f3e ee46 c63d
000000d0: d362 6f3d 95e5 f0bd 48ee 06bd ba27 e73d
000000e0: f75c b5bd 4475 a13d ad41 a8bc 75cc b43e
000000f0: ab6b e13d 890a 0a3e ba6c 91bc a8d9 493e
00000100: 159f 63bd d41d 76bd a44d 363d dbb0 0fbd
00000110: 4de6 4a3e a6e4 78be 4bc4 19bf 2e0b 97bd
00000120: 56c0 e6bd f62f 3fbd a6b3 123d 3473 7abe
00000130: af62 4a3e c20b c03c ec38 12bd 73ba 84be
00000140: 26d2 0cbd 0719 fd3d 8185 97be 8304 fc3d
00000150: 541c cb3d 243e 98bd 8365 533e ce38 883e
00000160: d847 2abe 8d96 823d f68c 0dbe 57f7 67bd
00000170: 098e 0f3d eebf 093e 6331 d7bd 5546 2ebd
00000180: f950 883d 137b 0dbe 61f2 e2bc 038c 34be
00000190: 2752 8ebe d34b 40be 0616 e83d 1550 8dbd
000001a0: e054 163e 9fc2 e33c 79f1 f8bd 088c f03b
000001b0: 0c32 923d a7db 21be d6b5 9ebd d6a1 42be
000001c0: d3f8 83bb 8466 58be 34d4 4cbe 22f7 ee3d
000001d0: 9e9f 193e 2afc 56be 4666 a7bd b397 8f3d
000001e0: ecac f9bd 6e0a 53bb 8cee a2be e030 34bf
000001f0: 1526 af3d 9175 e8bd 89a5 9dbc 7ae5 8abe
00000200: 7bb6 74bd 54f0 a03d 7cb3 ad3d 8499 63bd
00000210: a4be 38bd 689a 7bbd 4ec1 683d ca09 d7bd
00000220: 1a76 59bd b73a cebb 0d22 233d 49a0 a13d
00000230: 2267 da3b d704 3bbd 7941 863c ef51 3e3c
00000240: d1d7 c339 1472 e4bc f4b0 2f3d 0b6c 833d
00000250: d3e7 fdbd e8fa 813d 480b c7bd 810c dabd
00000260: a773 abbd e05a 6c3d ffdb bfbd 8de6 7fbd
00000270: fa35 d23d 7a1e 013c bd74 3b3d bfc6 eabd
00000280: 6a22 393d 2548 94bd b207 b83d a037 4ebb
00000290: 754e 7e3d f011 2a3c f2de aa3c 7913 df3d
000002a0: 6ffd f1bb 4c3a 50bc c5d7 4abd 7046 9d3c
000002b0: 612c b9bc cf26 45bd a532 2cbd bca3 56bd
000002c0: 0d97 a43d e397 90bc 2bfc 323d 32f8 a3bd
000002d0: 6d27 d03d 16af 83bc 3a8b 0ebd 3c7f c4bd
000002e0: b24f bc3d a322 6f3d d555 8fbd 8964 603d
000002f0: c880 d7bc 7df0 2b3d 5816 403d 1e65 2c3d

rnn.bias_hh_l1 f4 [192]
0.018335102 0.011234389 -0.10219093 -0.16074626 0.05065346 -0.097905636 0.47787997 -0.048700105
0.053640503 0.03424064 -0.050545137 0.078618 0.01895121 0.028403537 -0.026109178 0.09227117
0.02994662 0.035155974 0.12425262 0.09919477 0.04476912 0.15982343 -0.123582065 0.0324001
0.097725846 -0.085788704 0.018678948 0.0118309595 0.13504857 -0.072116405 -0.061130643 -0.036773756
0.10108466 0.093209825 0.09797574 0.028626094 -0.07965854 0.0028580846 0.12223369 0.0048910216
0.07599046 0.058047365 -0.06336128 -0.034632184 -0.11231799 0.04004891 0.030461524 0.13592629
0.04013095 0.087246746 0.052834485 0.10503076 0.11713548 0.10911424 0.19553737 0.08802201
0.021311177 0.030609775 0.12254644 0.50552434 -0.058057226 0.30486116 -0.04515959 0.086772226
-0.1476641 -0.027720401 -0.013194705 0.05258422 0.16252057 -0.29684776 -0.5872403 0.057194978
-0.16153568 0.09370401 0.038663507 -0.27401114 0.011492639 -0.06589093 -0.059828814 -0.25942004
-0.055673204 0.1516834 -0.13497047 0.18056719 0.15873922 0.0041578184 0.20424129 0.12755755
-0.19190216 -0.13109583 -0.24137092 -0.028640842 0.045070324 0.2191214 -0.1823592 -0.18626949
0.18046306 -0.1714726 -0.09612101 -0.1282854 -0.150142 -0.2663815 0.081122115 -0.21734369
0.052966155 -0.15256035 -0.19909121 0.09972844 0.1563457 -0.19041763 -0.06754021 0.0056668613
-0.05434126 -0.07980292 -0.22568032 0.31474036 0.16015963 -0.15505585 -0.10024096 0.13284858
-0.19035907 -0.17302229 -0.30509388 -0.6202292 0.06662623 -0.3565276 -0.011413198 -0.29785335
-0.095736586 -0.11573355 0.03130261 0.11466397 -0.052974004 -0.10125446 0.0298102 -0.026376903
0.07612023 -0.03217196 0.039771147 0.094458334 -0.08912601 0.039275885 -0.11684113 -0.051767778
-0.086505674 0.07244423 0.025023956 0.12660478 0.05353719 0.031560734 -0.10501469 -0.12666789
-0.084756166 0.040068723 -0.059251048 0.018271625 -0.1277648 0.036317028 -0.07276978 0.026828097
0.05387801 0.026340349 -0.04511482 -0.00893475 0.0780944 -0.04845212 -0.035242632 -0.121471494
-0.08680542 -0.012749192 -0.089992546 0.004696265 -0.061812885 -0.035631046 -0.052500054 0.088747844
0.0020660693 -0.093065225 -0.057698753 -0.115157016 -0.05023496 0.02700515 -0.03979889 -0.009064221
0.045093752 -0.08790422 0.0057644206 -0.030904563 0.023102924 0.015653322 -0.03828248 -0.07049606
00000000: 7f33 963c 7110 383c 7a49 d1bd ab9a 24be
00000010: 017a 4f3d c082 c8bd afac f43e c379 47bd
00000020: 25b6 5b3d ea3f 0c3d 6b08 4fbd 7902 a13d
00000030: 913f 9b3c 89ae e83c eae2 d5bc abf8 bc3d
00000040: 9d52 f53c b6ff 0f3d 2878 fe3d a126 cb3d
00000050: d35f 373d c1a8 233e 9818 fdbd f8b5 043d
00000060: 7d24 c83d fdb1 afbd 9804 993c a4d6 413c
00000070: 2c4a 0a3e c4b1 93bd 2064 7abd 14a0 16bd
00000080: 7905 cf3d cbe4 be3d 81a7 c83d 4581 ea3c
00000090: 0424 a3bd b44e 3b3b a855 fa3d dd44 a03b
000000a0: e3a0 9b3d 13c3 6d3d 8fc3 81bd 7ada 0dbd
000000b0: f906 e6bd 530a 243d 728a f93c 4330 0b3e
000000c0: 5a60 243d 6cae b23d f968 583d 5e1a d73d
000000d0: bae4 ef3d 4977 df3d f33a 483e e244 b43d
000000e0: c794 ae3c 5ac1 fa3c a1f9 fa3d 0b6a 013f
000000f0: 6acd 6dbd c316 9c3e 43f9 38bd a3b5 b13d
00000100: 4235 17be e515 e3bc 9b2e 58bc 8d62 573d
00000110: cb6b 263e 6efc 97be 6155 16bf 4845 6a3d
00000120: 9c69 25be e3e7 bf3d a05d 1e3d 304b 8cbe
00000130: 9f4b 3c3c d3f1 86bd 0f0f 75bd b4d2 84be
00000140: 9609 64bd e552 1b3e b335 0abe 9be6 383e
00000150: 898c 223e 4f3e 883b a124 513e 729e 023e
00000160: 0082 44be fc3d 06be f029 77be 33a0 eabc
00000170: a99b 383d 5c61 603e 5fbc 3abe 6ebd 3ebe
00000180: 4fcb 383e 8396 2fbe 18db c4bd 3f5d 03be
00000190: d3be 19be 2863 88be 5a23 a63d 588f 5ebe
000001a0: 0af3 583d c838 1cbe 91de 4bbe 6d3e cc3d
000001b0: 1619 203e d7fc 42be 8652 8abd 14b1 b93b
000001c0: f194 5ebd b76f a3bd be18 67be a625 a13e
000001d0: e300 243e f6c6 1ebe 224b cdbd 7509 083e
000001e0: 7ded 42be c12c 31be 4435 9cbe 57c7 1ebf
000001f0: 5573 883d c98a b6be 6cfe 3abc 3c80 98be
00000200: 8b11 c4bd b605 edbd 2a37 003d f2d4 ea3d
00000210: 45fb 58bd 805e cfbd 8534 f43c 6014 d8bc
00000220: ece4 9b3d bfc6 03bd 12e7 223d 5f73 c13d
00000230: b387 b6bd c0df 203d 674a efbd 730a 54bd
00000240: e329 b1bd a45d 943d 0aff cc3c afa4 013e
00000250: d049 5b3d d445 013d f111 d7bd 3ab5 01be
00000260: a494 adbd 1a1f 243d 3ab1 72bd 60ae 953c
00000270: c7d4 02be 2ac1 143d 5308 95bd 99c6 db3c
00000280: 30af 5c3d b7c7 d73c 51ca 38bd 0f63 12bc
00000290: f5ef 9f3d bb75 46bd 945a 10bd 0cc6 f8bd
000002a0: 0ac7 b1bd fde1 50bc 034e b8bd 20e3 993b
000002b0: 822f 7dbd dcf1 11bd 4c0a 57bd 6ec1 b53d
000002c0: e466 073b fb98 bebd 8755 6cbd 71d7 ebbd
000002d0: 2cc3 4dbd e839 dd3c 2904 23bd 1982 14bc
000002e0: 3ab4 383d 2107 b4bd 77e3 bc3b 912b fdbc
000002f0: 5842 bd3c 653b 803c 17ce 1cbd 3d60 90bd

fc.weight f4 [1, 64]
-0.008000956 0.048772573 -0.010497124 0.030435503 0.063088454 0.089697465 -0.035829894 0.01702096
-0.08723669 0.0149856275 0.008959048 -0.100215815 0.06118189 -0.059104122 0.048367463 0.11556902
0.044320017 0.023025958 0.0015880102 0.09037359 -0.077874064 -0.017250236 -0.024309471 -0.017251544
0.050279386 0.012927177 0.021722706 0.052842304 -0.017502466 -0.024026485 -0.0283596 -0.08647631
0.101540044 0.06604417 -0.04045198 -0.09201029 0.029301284 -0.06442595 0.011631807 -0.076070815
0.082366034 0.0028674898 0.08854402 0.08493652 -0.05638253 0.05381126 0.11194565 -0.038785316
0.093813576 0.07547797 -0.060708642 -0.009712427 -0.054678805 0.009699281 0.0074107284 0.016241401
-0.07454358 -0.039980117 -0.020641088 -0.0054851156 0.06845527 0.042649414 0.044180516 -0.04290708
00000000: 7116 03bc c0c5 473d 21fc 2bbc e053 f93c
00000010: 8534 813d 4eb3 b73d 5ec2 12bd 8a6f 8b3c
00000020: 26a9 b2bd 4786 753c f9c8 123c f33d cdbd
00000030: dd99 7a3d 2a17 72bd f61c 463d 73af ec3d
00000040: e888 353d efa0 bc3c c824 d03a ca15 b93d
00000050: 707c 9fbd 5e50 8dbc a824 c7bc 1c53 8dbc
00000060: c2f1 4d3d 83cc 533c d1f3 b13c 2c71 583d
00000070: 5561 8fbc 31d3 c4bc 6452 e8bc 7e1a b1bd
00000080: 3af4 cf3d 2a42 873d fab0 25bd e46f bcbd
00000090: 3f09 f03c c1f1 83bd 5693 3e3c 04cb 9bbd
000000a0: 86af a83d 7fec 3b3b 9156 b53d 33f3 ad3d
000000b0: 5ef1 66bd 3269 5c3d c343 e53d 5add 1ebd
000000c0: 5521 c03d 3294 9a3d a0a9 78bd df20 1fbc
000000d0: e2f6 5fbd bce9 1e3c b2d5 f23b b00c 853c
000000e0: 4eaa 98bd 31c2 23bd 8017 a9bc 7cbc b3bb
000000f0: 4732 8c3d 27b1 2e3d a1f6 343d 56bf 2fbd
