data/results/gru_baseline_BTC_r10d.pt (torch, 166565 bytes, 9 tensors)

rnn.weight_ih_l0 f4 [192, 15]
-0.06529288 -0.06727988 -0.091878876 -0.07419567 -0.02835209 0.10044889 -0.06498202 -0.082600474
-0.12667024 0.09746042 0.071719274 -0.13245381 0.14508657 -0.032939903 0.19394138 0.14091341
0.14174977 0.048932027 0.00061011827 -0.013487615 -0.02103443 0.11470438 0.015025534 0.088381425
-0.15195261 0.06517795 0.2045268 0.12999965 0.016723625 -0.07033198 -0.1907306 -0.059149183
-0.004997495 -0.2084199 0.09165243 -0.04375284 0.12308978 0.07412524 -0.22246706 -0.005157205
0.02249336 -0.072493136 0.10579591 -0.22175547 0.089368895 -0.045505293 -0.02262308 -0.19100578
-0.004176698 0.05477218 -0.08441717 0.16823295 -0.13659173 -0.05975469 0.02164946 0.125732
0.12544584 -0.12246392 -0.0074335667 0.19494306 0.14814755 0.19050397 0.22410722 0.07974615
0.020480206 -0.0054423045 0.10154399 0.19670191 0.014206926 0.19457375 0.085204296 0.123660125
0.12669815 0.053910747 0.17662857 -0.0827831 -0.16867073 -0.087060474 -0.11589541 -0.016944187
0.0174821 -0.042950198 -0.105774775 -0.15052518 0.09080095 -0.15015894 -0.08907101 0.10580318
-0.13344106 0.11705935 0.14164042 0.13373838 0.08255534 0.25459287 -0.037705824 0.0554222
0.11100084 -0.058753904 0.03205187 -0.038555533 0.044783536 0.05446463 0.02568477 -0.19359472
0.16228613 0.13300379 -0.09820984 0.014609527 0.0046141422 0.047869243 -0.17049538 0.03631154
0.16833562 0.08400054 -0.08893538 -0.026535254 0.14024842 0.015140248 -0.15388696 0.0619998
0.11267869 0.0067144427 -0.03859969 -0.041543465 0.1184372 -0.09206274 -0.121001646 -0.04718317
0.028458046 -0.013691432 0.095879674 0.12500922 -0.04856462 -0.10767785 0.13889532 0.10306521
0.13348939 0.008937975 -0.060267363 -0.056292184 0.004120671 -0.06744162 0.055142127 -0.011803092
0.18236439 0.16060428 0.02123123 0.12524466 -0.008404828 0.002648793 0.07606775 -0.014811396
-0.037327375 -0.2561879 0.15322408 0.16001464 0.053707607 0.029412203 -0.17736284 0.017090233
0.21420607 0.06756474 0.01783874 -0.11209699 0.23069161 -0.038326774 0.043834478 -0.1675134
0.09576601 0.14008947 -0.037105273 0.00415812 -0.103141956 -0.07192041 -0.011654575 -0.05325201
-0.046283726 0.08012444 -0.035954554 0.067686535 0.14732336 -0.013802756 0.107243344 -0.1706777
-0.07026973 -0.07850162 -0.1281647 -0.10395861 0.0760965 -0.056150418 0.0035635994 0.042788405
-0.058129504 -0.031858213 0.025552189 0.17980038 0.051367566 0.0013105457 -0.014114019 0.12547664
0.09606098 -0.09957991 -0.026614757 -0.049923196 0.12032034 0.15445209 0.05910136 0.0051097
-0.06490441 0.06033922 0.1716427 0.113309845 0.1147997 0.19638546 0.006049324 -0.053639837
-0.10297902 0.03569606 0.08081626 0.013591736 0.13497004 -0.08597788 -0.12159295 -0.11453707
-0.10216767 -0.09311549 -0.089030005 -0.09877819 -0.24049112 0.27401114 0.055691365 0.07317306
0.03529873 -0.04141776 0.15004429 0.07384592 0.15581624 0.042640302 -0.02559828 0.15707183
0.22560146 0.111068286 0.15395285 0.17261228 0.004781264 0.095608614 -0.0244334 0.041309647
0.053978343 0.17902116 -0.0068985545 0.026244719 0.07746303 -0.039149404 0.1277361 0.21549565
00000000: 46b8 85bd 09ca 89bd fe2a bcbd e6f3 97bd
00000010: a442 e8bc 26b8 cd3d 4b15 85bd 702a a9bd
00000020: d8b5 01be 5499 c73d 8ee1 923d f9a1 07be
00000030: 9391 143e feeb 06bd 9298 463e 9b4b 103e
00000040: da26 113e f36c 483d 58f0 1f3a 28fb 5cbc
00000050: 6650 acbc 21ea ea3d a82d 763c 5201 b53d
00000060: 7799 1bbe 047c 853d 796f 513e a11e 053e
00000070: fcff 883c 370a 90bd e24e 43be 6a46 72bd
00000080: 07c2 a3bb 076c 55be 45b4 bb3d 2e36 33bd
00000090: 7f16 fc3d f9ce 973d 68ce 63be c5fd a8bb
000000a0: ff43 b83c 4877 94bd 87ab d83d de13 63be
000000b0: 0a07 b73d c263 3abd 0a54 b9bc 0597 43be
000000c0: afdc 88bb cb58 603d e9e2 acbd 4245 2c3e
000000d0: b4de 0bbe 55c1 74bd 355a b13c e4bf 003e
000000e0: e074 003e 5dce fabd 4795 f3bb 279f 473e
000000f0: feb3 173e 7913 433e 5d7c 653e f351 a33d
00000100: 1bc6 a73c 5c55 b2bb 4cf6 cf3d 3a6c 493e
00000110: 2bc4 683c 573e 473e 977f ae3d 8541 fd3d
00000120: 29bd 013e 84d1 5c3d 1fde 343e 308a a9bd
00000130: 05b8 2cbe c34c b2bd 935a edbd 89ce 8abc
00000140: 9f36 8f3c 8cec 2fbd 72a0 d8bd 4623 1abe
00000150: d9f5 b93d 44c3 19be dd6a b6bd 56af d83d
00000160: c6a4 08be d0bc ef3d 300a 113e b7f2 083e
00000170: c612 a93d ff59 823e 6c71 1abd 6402 633d
00000180: 6954 e33d efa7 70bd d248 033d 68ec 1dbd
00000190: f16e 373d 4e16 5f3d de68 d23c b23d 46be
000001a0: 562e 263e 2532 083e 3e22 c9bd cc5c 6f3c
000001b0: 3b32 973b 8a12 443d 5796 2ebe 69bb 143d
000001c0: 2c60 2c3e 7a08 ac3d c123 b6bd 7660 d9bc
000001d0: 489d 0f3e ce0e 783c 8b94 1dbe 81f3 7d3d
000001e0: 16c4 e63d d404 dc3b b51a 1ebd 7b29 2abd
000001f0: 348f f23d 648b bcbd b6cf f7bd 2443 41bd
00000200: d920 e93c 0752 60bc 905c c43d 6b02 003e
00000210: b2eb 46bd 3486 dcbd 933a 0e3e da13 d33d
00000220: 71b1 083e 9670 123c e9da 76bd a292 66bd
00000230: b206 873b d51e 8abd b6dc 613d c261 41bc
00000240: bbbd 3a3e 7375 243e 1eed ad3c 2340 003e
00000250: 67b4 09bc 5f97 2d3b 69c9 9b3d 7fab 72bc
00000260: 97e4 18bd 0f2b 83be c6e6 1c3e e1da 233e
00000270: 82fc 5b3d dcf1 f03c 9b9e 35be d100 8c3c
00000280: d658 5b3e 625f 8a3d 8d22 923c 1b93 e5bd
00000290: 6c3a 6c3e 89fc 1cbd c88b 333d a288 2bbe
000002a0: f820 c43d 9d73 0f3e b3fb 17bd d740 883b
000002b0: 173c d3bd 024b 93bd d5f2 3ebc c81e 5abd
000002c0: 0194 3dbd 4818 a43d 1545 13bd 3d9f 8a3d
000002d0: efdb 163e f424 62bc 66a2 db3d 23c6 2ebe
000002e0: 94e9 8fbd 75c5 a0bd 9b3d 03be 40e8 d4bd
000002f0: 7bd8 9b3d fbfd 65bd 478b 693b e542 2f3d
00000300: 3419 6ebd c27d 02bd d352 d13c 971d 383e
00000310: cc66 523d 9ec6 ab3a 7d3e 67bc f37c 003e
00000320: 9ebb c43d 8df0 cbbd 3107 dabc 447c 4cbd
00000330: 836a f63d b028 1e3e 4514 723d 456f a73b
00000340: 9aec 84bd 4226 773d 1bc3 2f3e fe0e e83d
00000350: 1b1c eb3d 4519 493e 6839 c63b 72b5 5bbd
00000360: aae6 d2bd 0836 123d ff82 a53d dfaf 5e3c
00000370: 9635 0a3e 2c15 b0bd b905 f9bd 6992 eabd
00000380: 493d d1bd 56b3 bebd 5d55 b6bd 384c cabd
00000390: 4e43 76be 304b 8c3e a11c 643d c2db 953d
000003a0: 6795 103d aba5 29bd 36a5 193e 883c 973d
000003b0: 4b8e 1f3e 99a7 2e3d 7cb3 d1bc 70d7 203e
000003c0: 1204 673e c577 e33d d1a5 1d3e 46c1 303e
000003d0: 26ac 9c3b 73ce c33d 8e28 c8bc 4e34 293d
000003e0: 6518 5d3d 5351 373e 450d e2bb 2aff d63c
000003f0: f0a4 9e3d 205b 20bd 41cd 023e e4aa 5c3e

rnn.weight_hh_l0 f4 [192, 64]
-0.057893388 -0.112571105 -0.19761582 0.004921492 0.03826697 0.1421998 -0.2048612 0.04961669
0.069455214 0.08573989 -0.021036351 -0.124611326 -0.031728227 -0.03716361 -0.057349727 0.14891966
-0.052226573 0.052879497 0.04159098 -0.048630442 0.027541494 -0.06937204 0.03932465 -0.0420993
-0.05371405 0.025601055 0.032819327 0.0039689797 -0.10609613 0.14662823 0.09254829 -0.084660016
0.11176933 0.08906482 -0.1852068 0.05093065 -0.1636462 -0.0836187 0.036163773 0.009071956
0.054679167 -0.08368267 -0.1413619 -0.12367161 0.036029313 -0.09524939 -0.15280592 -0.087151006
0.040511884 0.09698153 -0.07460187 -0.04755867 -0.17065679 0.20095219 0.10640466 0.07624862
0.11843964 -0.016181823 0.117177576 0.09702184 -0.17030706 -0.096366465 -0.08503063 0.06328572
-0.022359649 0.08798635 0.09440707 0.21053343 -0.13420017 -0.014121272 -0.034499556 0.10486287
0.04641495 0.15865286 0.07999183 -0.0630897 -0.018817548 -0.12792218 -0.045059863 -0.09475268
-0.1335647 0.08335054 0.115286425 0.07928921 0.004038751 -0.078987435 -0.07228139 0.03186369
0.10763418 0.17282727 0.07915938 0.040790904 0.084694676 0.11368343 0.15239099 0.16481766
0.0789385 0.08110932 0.12007373 0.041422475 0.08664313 0.11302532 -0.06526623 0.11052623
0.012950248 -0.061087836 0.08936598 0.007042144 0.11038557 -0.033527993 0.090391 -0.05477562
0.16825423 0.049584936 -0.024488946 -0.031368237 0.09823579 -0.16047436 -0.06538703 -0.07785854
0.04374387 0.034886565 0.104994684 -0.10578896 -0.09932414 0.040712204 0.14142622 -0.025950594
0.047695428 -0.033365622 -0.024306951 0.0040347017 0.010992572 -0.013120991 0.10667446 0.091163106
-0.042672236 0.1333657 0.06971608 0.05050432 -0.031653162 -0.008810619 -0.060949776 0.027155673
0.06477416 -0.053061552 -0.11554527 0.10789974 0.10744432 -0.0009223309 -0.003831947 0.095447555
-0.15086798 0.04467489 -0.028589394 0.049624242 0.03241432 -0.032801423 0.11163815 -0.121083155
-0.13981186 0.035974268 -0.026604855 -0.07612435 -0.05974518 -0.060520977 -0.00465264 -0.07265923
-0.08869175 -0.11708786 0.044273898 -0.015529095 -0.05843237 -0.036032267 -0.111178875 0.060111806
-0.03236178 0.18028784 -0.06369122 -0.0886615 0.015593724 0.13944016 -0.04558581 0.083773784
-0.05991408 -0.05793392 0.017134903 0.22234778 0.012618403 0.025538165 -0.08543209 0.101714835
0.076009244 0.013024549 -0.078611664 0.030463418 0.011205856 0.018906787 0.032214053 0.05187974
-0.08124308 0.08110824 -0.025467573 0.055878513 0.019722065 0.02893423 -0.020817334 -0.11794343
0.13056856 0.13335174 -0.16206792 -0.014195809 0.053088233 0.044490665 -0.057219557 -0.03850493
0.027023422 0.036041915 0.0002668669 0.038103215 0.10502964 0.07297636 0.08570866 -0.04525356
-0.02777126 0.07335692 0.08710076 -0.054262694 0.06508634 -0.06635247 0.021419005 0.12293246
-0.0386943 0.043073785 0.03301338 0.08047756 0.06442248 0.053551953 0.10544239 0.10381024
-0.01994509 0.005198186 -0.14347091 -0.0057730787 0.11979951 0.05853617 0.124335825 0.08901612
-0.030677656 -0.086149886 -0.014999596 0.14540799 -0.08869693 -0.16388226 0.03677582 0.044992354
00000000: 9e21 6dbd ae8b e6bd cd5b 4abe 7844 a13b
00000010: d4bd 1c3d d39c 113e 22c7 51be df3a 4b3d
00000020: 893e 8e3d 6598 af3d 6d54 acbc 3934 ffbd
00000030: 75f5 01bd df38 18bd 8ce7 6abd 657e 183e
00000040: 88eb 55bd 2c98 583d 4e5b 2a3d b730 47bd
00000050: b39e e13c ee12 8ebd e212 213d 5170 2cbd
00000060: 4403 5cbd 4eb9 d13c 8f6d 063d 370e 823b
00000070: ee48 d9bd b625 163e f589 bd3d 3b62 adbd
00000080: 52e7 e43d 9e67 b63d daa6 3dbe a89c 503d
00000090: df92 27be 4840 abbd 7720 143d 8ba2 143c
000000a0: 43f7 5f3d d261 abbd 2dc1 10be 8b47 fdbd
000000b0: 7993 133d 1d12 c3bd 2879 1cbe 3a7c b2bd
000000c0: caef 253d 419e c63d ddc8 98bd e1cc 42bd
000000d0: a7c0 2ebe 69c6 4d3e b0ea d93d 3d28 9c3d
000000e0: 7b90 f23d be8f 84bc ccfa ef3d 63b3 c63d
000000f0: f964 2ebe c85b c5bd 8a24 aebd f29b 813d
00000100: 952b b7bc 3032 b43d 7e58 c13d 1396 573e
00000110: c56b 09be e85c 67bc 684f 0dbd 58c2 d63d
00000120: 9a1d 3e3d e575 223e c2d2 a33d 2c35 81bd
00000130: 4227 9abc 08fe 02be b190 38bd b10d c2bd
00000140: 2fc5 08be b0b3 aa3d 4a1b ec3d 6262 a23d
00000150: 8057 843b 2ac4 a1bd 4408 94bd 8083 023d
00000160: 4f6f dc3d a2f9 303e 501e a23d 5d14 273d
00000170: 6774 ad3d dcd2 e83d 620c 1c3e f6c5 283e
00000180: 82aa a13d a51c a63d 37e9 f53d 9daa 293d
00000190: f471 b13d d279 e73d 4daa 85bd 935b e23d
000001a0: 472d 543c 3d37 7abd 8305 b73d c9c1 e63b
000001b0: d411 e23d a654 09bd eb1e b93d 675c 60bd
000001c0: d64a 2c3e 9319 4b3d 0b9d c8bc fb7b 00bd
000001d0: d92f c93d 6453 24be a3e9 85bd 4c74 9fbd
000001e0: c62c 333d 37e5 0e3d 7407 d73d e2a7 d8bd
000001f0: 746a cbbd d7c1 263d 09d2 103e 5796 d4bc
00000200: 485c 433d 64aa 08bd 5f1f c7bc 8835 843b
00000210: 301a 343c 6df9 56bc 2478 da3d b9b3 ba3d
00000220: 15c9 2ebd 0591 083e 4ec7 8e3d 9edd 4e3d
00000230: bfa6 01bd 6a5a 10bc 79a6 79bd 9375 de3c
00000240: 51a8 843d 1257 59bd 00a3 ecbd 8afa dc3d
00000250: c50b dc3d 94c8 71ba 6721 7bbb 027a c33d
00000260: 237d 1abe 04fd 363d 4e34 eabc ca42 4b3d
00000270: e1c4 043d c95a 06bd 8ba2 e43d 72fa f7bd
00000280: d72a 0fbe c159 133d 6df2 d9bc 15e7 9bbd
00000290: 5db7 74bd d8e4 77bd 2c75 98bb 5dce 94bd
000002a0: 05a4 b5bd c3cb efbd 8c58 353d bf6d 7ebc
000002b0: c856 6fbd 9296 13bd c0b1 e3bd cc37 763d
000002c0: c98d 04bd 609d 383e 8b70 82bd 2994 b5bd
000002d0: d27c 7f3c 67c9 0e3e 30b8 3abd 9791 ab3d
000002e0: 7768 75bd 1e4c 6dbd 7f5e 8c3c 23af 633e
000002f0: 6bbd 4e3c 6a35 d13c 05f7 aebd de4f d03d
00000300: bcaa 9b3d eb64 553c 27ff a0bd 6b8e f93c
00000310: c498 373c 68e2 9a3c e2f2 033d da7f 543d
00000320: c662 a6bd 141c a63d 5fa1 d0bc dee0 643d
00000330: 2b90 a13c 7a07 ed3c 1d89 aabc 538c f1bd
00000340: c4b3 053e 5c8d 083e 22f5 25be 8a95 68bc
00000350: 0c73 593d d83b 363d 0e5f 6abd 58b7 1dbd
00000360: 3960 dd3c b0a0 133d 45ea 8b39 1e12 1c3d
00000370: c819 d73d a174 953d 0688 af3d cc5b 39bd
00000380: 8e80 e3bc 273c 963d e261 b23d 8f42 5ebd
00000390: fd4b 853d cee3 87bd e976 af3c 03c4 fb3d
000003a0: ea7d 1ebd 236e 303d 0a39 073d 6bd1 a43d
000003b0: efef 833d 4b59 5b3d 2ef2 d73d 779a d43d
000003c0: e363 a3bc 8b55 aa3b 0aea 12be 182c bdbb
000003d0: 7259 f53d 9fc3 6f3d c8a3 fe3d 154e b63d
000003e0: b54f fbbc 5a6f b0bd dec0 75bc d5e5 143e
000003f0: bca6 b5bd c0d0 27be 3ea2 163d e749 383d

rnn.bias_ih_l0 f4 [192]
0.06653151 0.0050115925 -0.010377994 0.07501068 0.17394197 0.08604553 -0.0022761603 0.111729465
-0.102745965 -0.07501222 0.14281747 -0.103897505 0.054881062 -0.021430807 -0.095466726 0.23602803
-0.031224966 -0.104826346 0.06568311 0.092809334 0.020240495 0.009271614 0.0047428347 0.04271245
-0.08888941 -0.051892716 0.06809842 -0.05246487 -0.10866725 0.08281427 -0.098753884 0.07855662
0.09208242 -0.09343707 -0.05631506 -0.029451184 -0.053432345 -0.015500153 0.04836049 0.027597552
0.1324099 -0.029148607 0.08889284 0.1479897 0.13352603 -0.095344484 -0.052033186 -0.094991036
-0.088564396 -0.07524345 0.087537095 0.012335235 0.23865409 -0.020656392 0.059863504 0.06403915
-0.07629852 -0.067556106 -0.007887528 0.009368363 0.026388815 0.006925154 0.022320624 -0.050710544
-0.047585472 -0.17143828 0.030427272 -0.032169692 0.065471396 -0.21893379 -0.13556081 -0.22611307
0.007873785 -0.06364222 -0.08535918 0.06299171 0.006016325 -0.14576675 -0.18723701 -0.104296245
-0.19206016 -0.10383928 -0.013079631 -0.1936526 -0.118866205 0.06162464 0.031161224 -0.014348561
-0.18480983 -0.25067592 -0.2022877 -0.14603013 0.12973483 -0.21330085 0.028286815 0.11033526
-0.097115174 0.022921156 0.012572229 -0.19940725 -0.15579654 -0.039468497 0.1506595 -0.109076425
-0.20141114 -0.19546336 -0.042009465 -0.048739996 -0.10824748 0.008768549 0.060969178 -0.044988748
0.077608556 -0.07143827 0.041921686 -0.051230684 -0.2801271 -0.05578285 -0.16508006 0.08058745
-0.07621593 -0.18558246 0.058357555 -0.08132732 -0.126761 -0.28003436 -0.20948523 -0.20222093
0.076324835 -0.05561537 -0.047966294 -0.06578885 0.07654725 0.07723809 -0.04428817 0.0017094641
-0.0921177 -0.048630074 -0.010340478 -0.10255886 -0.067190826 -0.017345056 -0.08313683 -0.005814422
0.083256856 0.081572786 -0.02159252 -0.07168684 -0.10109745 0.016953746 0.028612312 0.096819244
-0.030358389 -0.037678286 -0.065111995 -0.05645487 -0.10384591 -0.06703098 -0.03288336 -0.05362173
0.07419857 0.081180856 0.006878409 0.07158215 -0.10450311 -0.06838874 -0.042760905 0.03859022
0.0057237623 0.07717778 0.037968095 -0.08139277 0.014254689 0.09089814 0.039908048 -0.012618121
-0.086542495 0.044560354 -0.0706653 -0.047907695 0.02465655 0.01509799 0.10630055 0.006708972
-0.020651812 0.08838717 0.00165077 0.036317784 -0.062268805 -0.03713702 -0.08784196 -0.0031260091
00000000: ac41 883d 4938 a43b 7608 2abc 339f 993d
00000010: d81d 323e a438 b03d a22b 15bb 6bd2 e43d
00000020: 7a6c d2bd 02a0 99bd be3e 123e 37c8 d4bd
00000030: f7ca 603d a98f afbc 0f84 c3bd 55b1 713e
00000040: 80cb ffbc 32af d6bd de84 863d d212 be3d
00000050: 65cf a53c f8e7 173c c869 9b3b 40f3 2e3d
00000060: a70b b6bd 758d 54bd 2f77 8b3d 67e5 56bd
00000070: ef8c debd 879a a93d 7a3f cabd 4be2 a03d
00000080: b595 bc3d ef5b bfbd 9faa 66bd 9c43 f1bc
00000090: e0db 5abd 5bf4 7dbc a615 463d 4314 e23c
000000a0: 7696 073e 0fc9 eebc 730d b63d 9d8a 173e
000000b0: 0cbb 083e f843 c3bd c020 55bd a98a c2bd
000000c0: 4061 b5bd 3d19 9abd a646 b33d ba19 4a3c
000000d0: bd61 743e 9837 a9bc 6f33 753d f526 833d
000000e0: 6642 9cbd db5a 8abd b13a 01bc c37d 193c
000000f0: 5b2d d83c 67ec e23b bed9 b63c dcb5 4fbd
00000100: fce8 42bd 848d 2fbe 9d42 f93c 5ec4 03bd
00000110: de15 863d 2e30 60be 74d0 0abe 2f8a 67be
00000120: 0c01 013c da56 82bd cbd0 aebd cc01 813d
00000130: 9824 c53b e143 15be 0fbb 3fbe 4599 d5bd
00000140: 6bab 44be b0a9 d4bd f34b 56bc de4c 46be
00000150: 2070 f3bd 1e6a 7c3d d345 ff3c 3a16 6bbc
00000160: ca3e 3dbe 9858 80be 8224 4fbe ec88 15be
00000170: 35d9 043e 8a6b 5abe c0b9 e73c 74f7 e13d
00000180: 52e4 c6bd 26c5 bb3c c0fb 4d3c 6a31 4cbe
00000190: 2189 1fbe b8a9 21bd 7c46 1a3e 7663 dfbd
000001a0: b93e 4ebe 8c27 48be 1e12 2cbd 97a3 47bd
000001b0: dbb0 ddbd f6a9 0f3c d1ba 793d 1f46 38bd
000001c0: 3cf1 9e3d 3a4e 92bd 13b6 2b3d 44d7 51bd
000001d0: d26c 8fbe 8f7c 64bd bf0a 29be 080b a53d
000001e0: 1917 9cbd 5409 3ebe 5508 6f3d f08e a6bd
000001f0: a3cd 01be aa60 8fbe 4c83 56be 0113 4fbe
00000200: 3250 9c3d f1cc 63bd 4e78 44bd 4ebc 86bd
00000210: cec4 9c3d 012f 9e3d 8367 35bd 1910 e03a
00000220: 34a8 bcbd 5430 47bd 1c6b 29bc 610a d2bd
00000230: 589b 89bd 3817 8ebc a443 aabd e886 bebb
00000240: 9282 aa3d a20f a73d cce2 b0bc 8dd0 92bd
00000250: 2e0c cfbd 95e2 8a3c 5e64 ea3c 2b49 c63d
00000260: 28b2 f8bc 8c54 1abd 7059 85bd 393d 67bd
00000270: 2aad d4bd 8a47 89bd b4b0 06bd 76a2 5bbd
00000280: 6bf5 973d 2642 a63d 4764 e13b aa99 923d
00000290: ba05 d6bd 650f 8cbd 0f26 2fbd c710 1e3d
000002a0: 668e bb3b 620f 9e3d 6f84 1b3d 41b1 a6bd
000002b0: 808c 693c ce28 ba3d 9f76 233d 3cbc 4ebc
000002c0: 313d b1bd eb84 363d f8b8 90bd dc3a 44bd
000002d0: 88fc c93c 8f5d 773c 1ab4 d93d f0d6 db3b
000002e0: fd2d a9bc 5504 b53d a65e d83a f5c1 143d
000002f0: 930d 7fbd fd1c 18bd 7ce6 b3bd bbdd 4cbb

rnn.bias_hh_l0 f4 [192]
0.15259309 -0.12511466 0.09920126 -0.0050252317 -0.02188733 0.05193147 0.16478083 0.19437923
0.071590856 0.08091806 0.18013252 0.06369839 -0.09332676 0.03629813 0.05470195 0.28608105
0.024357732 -0.008242292 0.072193116 0.053226393 0.08271775 0.09996385 0.040791668 -0.028518124
0.10980191 0.023186052 -0.030650456 0.015457182 0.0524496 0.005290914 0.05961346 -0.0079599945
0.12259847 -0.012460887 -0.06498341 -0.057206962 -0.09258837 0.0026024482 -0.08404325 -0.059058797
0.10856526 0.1396516 0.046405975 0.17234223 0.0042786337 0.097554296 0.06751746 -0.008658776
-0.027672775 0.020668512 -0.040976837 0.011678511 0.26389858 0.0747673 0.044919115 -0.08233354
-0.02140658 -0.029327571 0.009735662 -0.0077234777 -0.039196275 -0.055577375 -0.050528057 -0.089752816
-0.16116354 -0.22438352 -0.064292975 0.019555552 -0.041302394 0.0024739958 0.050870955 -0.19184244
-0.13636893 -0.09747124 -0.07681788 0.0072705494 0.024221428 -0.174162 -0.01159507 -0.2550574
-0.012019751 -0.1238036 0.017900784 -0.11010724 0.014191776 0.10567709 -0.079155006 0.010188411
-0.12708169 -0.1517424 -0.2310893 -0.0033449132 0.026534226 -0.17845306 -0.20207709 0.04559718
0.032690402 -0.045723192 -0.0054552173 -0.1233261 -0.027110217 0.0055912174 -0.062140655 -0.046755724
-0.09610127 -0.028885933 -0.084915645 -0.23381753 -0.0009287889 0.024205225 0.034447458 0.00055809005
-0.13722165 -0.1059286 0.10057566 -0.06288311 -0.22180235 -0.04768691 -0.19187994 -0.07299547
-0.0011033093 -0.13786808 -0.020642884 -0.035787113 -0.12859397 -0.16403262 -0.17531115 -0.22242843
-0.07084966 -0.038853373 -0.012854223 0.04494777 -0.024318594 0.0803621 0.071232304 0.048795838
0.082393676 -0.041028384 0.015269311 -0.06498271 -0.09752442 0.01756245 0.08675928 0.031860627
-0.06652424 -0.07875229 -0.014734932 0.10507643 -0.10284116 0.08987138 0.10755864 -0.0003388379
0.0329739 0.054622985 -0.029814003 -0.10419524 0.016028615 0.06062025 -0.04893493 0.010802402
-0.10455212 0.03943371 0.0035644537 -0.11287971 -0.025829036 0.06151662 0.04445256 0.09354387
-0.06397405 -0.08410394 -0.021686632 0.00764812 -0.113760166 0.013975297 -0.119646594 0.030312587
-0.016071621 -0.09274027 -0.026237376 0.08674673 -0.0688702 -0.06783184 -0.09331427 0.07088541
-0.0057238624 -0.11392299 -0.06894336 0.011333868 0.10654984 0.001963611 -0.07761411 0.015782306
00000000: 5d41 1c3e 0f1e 00be 082a cb3d b3aa a4bb
00000010: 0f4d b3bc 18b6 543d 4ebc 283e 590b 473e
00000020: 3a9e 923d 5eb8 a53d a974 383e 4d74 823d
00000030: 1a22 bfbd 59ad 143d 270f 603d 3779 923e
00000040: de89 c73c ae0a 07bc fcd9 933d eb03 5a3d
00000050: ec67 a93d d9b9 cc3d 2a15 273d d79e e9bc
00000060: d3df e03d adf0 bd3c aa16 fbbc 1f40 7d3c
00000070: 64d5 563d 675f ad3b 3e2d 743d a36a 02bc
00000080: e814 fb3d c028 4cbc 0616 85bd d951 6abd
00000090: f99e bdbd d68d 2a3b de1e acbd a3e7 71bd
000000a0: 7757 de3d d400 0f3e 3114 3e3d 7b7a 303e
000000b0: c833 8c3b 8cca c73d 9846 8a3d 8add 0dbc
000000c0: 04b2 e2bc 0351 a93c 54d7 27bd 3a57 3f3c
000000d0: b71d 873e 991f 993d 1bfd 373d 7d9e a8bd
000000e0: da5c afbc 6040 f0bc 5382 1f3c 3a15 fdbb
000000f0: 468c 20bd 1aa5 63bd 82f6 4ebd 53d0 b7bd
00000100: 0e08 25be cbc4 65be 09ac 83bd f732 a03c
00000110: b32c 29bd c322 223b 105e 503d 5872 44be
00000120: 4ca4 0bbe 009f c7bd b152 9dbd ca3d ee3b
00000130: 046c c63c 8657 32be 40f9 3dbc e296 82be
00000140: 7dee 44bc be8c fdbd aaa4 923c e87f e1bd
00000150: 9f84 683c 3b6d d83d 051c a2bd 4bed 263c
00000160: b421 02be 5c62 1bbe aca2 6cbe 5536 5bbb
00000170: 4e5e d93c 66bc 36be 4ced 4ebe 1cc4 3a3d
00000180: 5fe6 053d 3e48 3bbd aec1 b2bb 6592 fcbd
00000190: 3f16 debc 8836 b73b 3387 7ebd ee82 3fbd
000001a0: bed0 c4bd 31a2 ecbc 41e8 adbd dd6d 6fbe
000001b0: f879 73ba 094a c63c c718 0d3d ca4c 123a
000001c0: d583 0cbe 18f1 d8bd 9dfa cd3d dcc8 80bd
000001d0: 2820 63be 5953 43bd 2d7c 44be a67e 95bd
000001e0: eb9c 90ba 4a2d 0dbe 441b a9bc 8295 12bd
000001f0: 23ae 03be 2bf8 27be c484 33be 47c4 63be
00000200: a019 91bd b724 1fbd 859a 52bc 271b 383d
00000210: ca37 c7bc e294 a43d 3ee2 913d 25de 473d
00000220: 04be a83d 610d 28bd 222c 7a3c a815 85bd
00000230: e2ba c7bd 21df 8f3c d9ae b13d 4a80 023d
00000240: dc3d 88bd e148 a1bd c96a 71bc 5032 d73d
00000250: 639e d2bd 7c0e b83d b447 dc3d 0ea6 b1b9
00000260: a40f 073d 5abc 5f3d 7f3c f4bc 5064 d5bd
00000270: 714e 833c f04c 783d fe6f 48bd 8ffc 303c
00000280: 6c1f d6bd 3e85 213d 9c99 693b 7a2d e7bd
00000290: 6a97 d3bc daf8 7b3d e313 363d ee93 bf3d
000002a0: d404 83bd b03e acbd 2aa8 b1bc 159d fa3b
000002b0: 17fb e8bd a5f8 643c 4609 f5bd 1a52 f83c
000002c0: a2a8 83bc 9cee bdbd c4ef d6bc 45a8 b13d
000002d0: d20b 8dbd 6beb 8abd 8d1b bfbd 5f2c 913d
000002e0: 3d8f bbbb 7550 e9bd 2d32 8dbd b0b1 393c
000002f0: cd36 da3d edaf 003b 26f4 9ebd e549 813c

rnn.weight_ih_l1 f4 [192, 64]
-0.0272974 -0.07950043 0.07463564 -0.09355662 0.06359943 -0.05418475 0.031307682 0.06863187
0.075144716 0.099673934 -0.07500184 0.04427047 0.07573469 0.13221972 -0.08296574 -0.030582534
-0.029246652 0.037060805 -0.0037625083 0.05377629 -0.051530994 -0.064924896 0.13735902 -0.04173349
-0.11373546 -0.09324111 0.10782843 -0.13185807 0.025336204 0.090931214 -0.06116183 -0.05812532
0.024538267 0.011401922 -0.11890316 -0.09851914 -0.1061929 -0.086412236 0.024137823 -0.07929004
-0.025533045 -0.009609584 0.08068926 -0.017075649 -0.1288408 0.0058466443 -0.0388253 0.007475686
0.032296304 -0.004548487 0.08273417 0.012591829 -0.0858522 0.03570809 0.0011608262 0.15196986
0.02514147 0.13190448 -0.042826105 0.15153253 -0.109807104 0.09422821 -0.1368654 0.100607365
0.012372 -0.073914014 -0.03701435 -0.027661368 0.08483991 -0.080666706 -0.056542244 0.091119416
0.10616939 -0.07532544 -0.018005151 -0.05227894 0.13448314 -0.028374905 -0.10904989 -0.07273846
-0.07840878 0.04383611 -0.086321354 0.050888646 0.06866925 0.09085919 0.067838766 0.022510527
-0.07821372 0.08547235 -0.08483626 0.026995251 -0.022080591 -0.06331819 0.009008693 -0.07287726
-0.0037878528 -0.010788177 -0.110731944 0.08177864 0.027574476 -0.13685809 0.0063993623 0.03932463
-0.008325957 0.13023493 0.015864288 0.12365674 -0.0030540803 0.08131004 0.0152462395 -0.017562516
0.1247763 0.022012271 0.107734665 -0.12130142 0.058662817 0.02199445 0.028160729 -0.06974493
-0.04869905 -0.015311951 -0.035578907 -0.056873824 0.10953974 0.008707576 -0.069082126 0.12692371
0.08817102 0.09331347 -0.12852326 -0.044767022 -0.022982078 0.15833068 -0.042568643 0.18381934
-0.15995672 -0.14491493 -0.24239948 -0.06033804 0.057943556 -0.25213894 -0.02230483 0.19004059
0.025023177 0.15954703 0.11701319 0.114650466 -0.005540619 0.06004494 -0.03993447 0.0643188
-0.14104187 0.21447001 0.022035398 -0.17373201 -0.067558445 0.22579834 0.09272626 -0.0136232255
0.02806449 0.032271016 -0.08195527 0.041395646 -0.039557006 0.053060323 0.15560505 -0.079539895
-0.035177995 -0.110793136 0.020615576 0.054018516 -0.13439131 0.11982876 -0.09243124 0.024618482
-0.07005669 0.14765553 0.16850328 0.039411478 -0.10749072 -0.035004195 -0.07860984 0.19068064
0.01679053 0.13555774 0.07242272 0.025742866 0.014459872 0.17877635 -0.14478576 0.015721912
-0.062334664 -0.11209606 -0.020063901 0.076647155 -0.008431481 0.031934466 -0.07741953 -0.092685014
-0.001889119 -0.017078705 0.06656493 -0.06909105 0.05471945 0.020557772 0.06225986 -0.074902035
0.1339536 -0.082918994 0.07439946 -0.006827055 0.05137009 0.12257172 0.027103787 -0.07169487
0.06606463 -0.0875825 0.02957792 -0.11028719 -0.124391094 -0.055231318 -0.13073939 -0.11661037
0.025148734 0.110427976 -0.14940198 -0.07502339 0.018775323 -0.11172542 0.077256106 -0.12067131
-0.04360421 -0.012847496 0.036813296 0.085182495 0.09347516 0.055856258 -0.0941643 0.05618216
0.08333639 -0.026579872 -0.04295082 -0.1527581 -0.03665927 0.094385095 -0.004435788 -0.120974846
-0.0060777836 0.099795274 0.09398557 -0.032625407 -0.048113644 -0.07742545 0.09698662 -0.023186328
00000000: cc9e dfbc 1fd1 a2bd 92da 983d 9d9a bfbd
00000010: 6b40 823d d4f0 5dbd 7c3c 003d de8e 8c3d
00000020: 79e5 993d d921 cc3d 919a 99bd f454 353d
00000030: ca1a 9b3d 9b64 073e f1e9 a9bd 3988 fabc
00000040: ad96 efbc 12cd 173d 6a94 76bb 8744 5c3d
00000050: 2a12 53bd 58f7 84bd d8a7 0c3e bcf0 2abd
00000060: 23ee e8bd 32f5 bebd 27d5 dc3d cd05 07be
00000070: df8d cf3c 253a ba3d d484 7abd d114 6ebd
00000080: 7a04 c93c 21cf 3a3c 8083 f3bd 67c4 c9bd
00000090: aa7b d9bd e6f8 b0bd afbc c53c d162 a2bd
000000a0: ad2a d1bc 8471 1dbc 6940 a53d 3be2 8bbc
000000b0: d8ee 03be 3595 bf3b 4707 1fbd 99f6 f43b
000000c0: 2149 043d 790b 95bb 8870 a93d f54d 4e3c
000000d0: 47d3 afbd a542 123d dd26 983a fd9d 1b3e
000000e0: 7cf5 cd3c f811 073e 6d6a 2fbd 582b 1b3e
000000f0: 8ce2 e0bd b8fa c03d 7226 0cbe 3c0b ce3d
00000100: eeb3 4a3c 3b60 97bd 5c9c 17bd 189a e2bc
00000110: 8cc0 ad3d 9634 a5bd d798 67bd d19c ba3d
00000120: 566f d93d 3944 9abd 8a7f 93bc 7122 56bd
00000130: f3b5 093e 7d72 e8bc 8c55 dfbd e7f7 94bd
00000140: c894 a0bd 7e8d 333d 40c9 b0bd 9d70 503d
00000150: 77a2 8c3d 6214 ba3d 0def 8a3d ff67 b83c
00000160: 842e a0bd 210c af3d a2be adbd 2525 dd3c
00000170: 5be2 b4bc f8ac 81bd 3299 133c ac40 95bd
00000180: a03d 78bb e5c0 30bc 6ec7 e2bd 8f7b a73d
00000190: dee3 e13c 8724 0cbe beb1 d13b dd12 213d
000001a0: 9869 08bc 4e5c 053e d3f5 813c bf3f fd3d
000001b0: f726 48bb e185 a63d 5dcb 793c 44df 8fbc
000001c0: b78a ff3d 1453 b43c fea3 dc3d e16c f8bd
000001d0: 6c48 703d b42d b43c 54b1 e63c 6ed6 8ebd
000001e0: a878 47bd fade 7abc 30bb 11bd 87f4 68bd
000001f0: 5f56 e03d 39aa 0e3c ee7a 8dbd 4af8 013e
00000200: 0293 b43d 221b bf3d 9a9b 03be a05d 37bd
00000210: e944 bcbc 7021 223e 755c 2ebd 233b 3c3e
00000220: b2cb 23be 9464 14be 9237 78be 0525 77bd
00000230: 3956 6d3d 5b18 81be 9eb8 b6bc 009a 423e
00000240: 68fd cc3c 4c60 233e 9da4 ef3d ddcd ea3d
00000250: 158e b5bb aff1 753d 5492 23bd 93b9 833d
00000260: 486d 10be 079e 5b3e 9483 b43c cee6 31be
00000270: 155c 8abd ae37 673e 44e7 bd3d f333 5fbc
00000280: 80e7 e53c 9d2e 043d 2ad8 a7bd 7b8e 293d
00000290: 8706 22bd c855 593d ee56 1f3e d0e5 a2bd
000002a0: cd16 10bd 83e7 e2bd ffe1 a83c 8542 5d3d
000002b0: e09d 09be c868 f53d 974c bdbd b3ac c93c
000002c0: e279 8fbd 0333 173e 208c 2c3e ee6d 213d
000002d0: 1824 dcbd 8f60 0fbd 32fe a0bd c941 433e
000002e0: 4b8c 893c a6cf 0a3e 5d52 943d b4e2 d23c
000002f0: 19e9 6c3c 2611 373e b842 14be 3dcb 803c
00000300: a252 7fbd 9e92 e5bd 0d5d a4bc 2ff9 9c3d
00000310: 3224 0abc b7cd 023d 218e 9ebd a4d1 bdbd
00000320: 519c f7ba a4e8 8bbc 3253 883d 9c7f 8dbd
00000330: 8121 603d c668 a83c 3204 7f3d 3d66 99bd
00000340: 222b 093e 6fd1 a9bd be5e 983d 7db5 dfbb
00000350: 7269 523d e206 fb3d c308 de3c c3d4 92bd
00000360: e54c 873d 745e b3bd 654d f23c 40de e1bd
00000370: c2c0 febd 3c3a 62bd 8ce0 05be 6bd1 eebd
00000380: b804 ce3c 1028 e23d d5fc 18be dda5 99bd
00000390: b5ce 993c 4cd0 e4bd 7338 9e3d 8522 f7bd
000003a0: 549a 32bd 4e7e 52bc 8ac9 163d 2974 ae3d
000003b0: e86f bf3d 88c9 643d 36d9 c0bd 441f 663d
000003c0: 45ac aa3d 08be d9bc 33ed 2fbd 9f6c 1cbe
000003d0: 0828 16bd f94c c13d 165a 91bb a9c1 f7bd
000003e0: 2528 c7bb 7761 cc3d 827b c03d 38a2 05bd
000003f0: d012 45bd 3c91 9ebd eca0 c63d 41f1 bdbc

rnn.weight_hh_l1 f4 [192, 64]
0.09629373 0.15859643 0.05382076 0.08335122 0.06330772 -0.09839871 0.13180555 -0.012235551
0.16673827 -0.0028509032 -0.056182824 -0.048437092 -0.04677129 0.032723032 -0.08048049 -0.064890966
0.09461685 0.016337674 0.13384973 0.062289476 -0.018115507 -0.07991187 0.068778455 0.044516902
0.1217078 0.03201529 0.0028125995 -0.020292515 0.097810484 0.012171061 0.046229083 -0.12055884
-0.077558406 -0.07892568 0.15614694 -0.08878391 -0.08195721 -0.07115801 0.10526212 -0.14215834
0.06172812 -0.03993809 0.021797935 0.08557753 -0.02484877 0.07877085 -0.101815894 0.14626653
0.045161504 -0.0773699 -0.0017281702 0.0013241235 0.09166509 0.08576809 -0.11785725 -0.010869853
-0.04014104 0.04673962 -0.018007401 0.043430332 -0.037203416 -0.06688692 -0.06071738 -0.12270697
-0.09745829 0.003912422 0.10606451 0.005164624 0.05612603 -0.070744455 -0.08184797 0.080139354
0.09270294 0.076116376 -0.050072577 0.0869446 0.13339964 -0.035451416 0.105959244 -0.04754419
-0.06652311 -0.032172948 -0.035117023 0.0077360673 0.12211841 0.027128175 -0.10799492 0.0035861838
0.013583931 0.03645606 -0.01493735 -0.094329454 0.045444172 -0.087413676 -0.11749527 0.041312624
0.0958627 -0.06462945 -0.08901489 0.0057556066 -0.07593171 0.114136934 0.10933493 0.023270007
0.11653331 -0.08252119 0.106410526 0.038459085 -0.103355214 -0.0032234464 -0.14738435 -0.07981801
-0.08755699 0.010452162 -0.03747748 -0.09200043 0.08876543 0.078444965 0.006417109 0.1384644
0.053291343 0.003267199 -0.052522823 -0.092797786 -0.053743523 0.04104179 -0.06956008 0.13978158
-0.05409356 0.055075362 -0.075419284 0.11706577 -0.01898346 -0.016221618 -0.07390092 -0.19555523
0.096647665 -0.039305262 -0.06322681 -0.024804873 -0.040877465 -0.11289072 -0.06925964 0.02873217
0.045266747 -0.034091894 -0.074574195 -0.04848577 0.04452134 0.09370476 -0.008000422 0.07350531
0.061829153 0.08682422 -0.016543213 0.08729107 -0.008436216 0.05142774 0.007962174 0.003242054
0.06960964 -0.111005515 0.175953 -0.081836775 -0.06117147 0.09105868 0.046511885 0.09329658
0.00942288 -0.016386122 0.1009275 0.055593226 -0.05270298 0.14042625 -0.15650605 -0.09989019
0.05748423 -0.101679906 0.121480614 0.0067924135 -0.0110865375 -0.058231324 0.0029574612 0.053986534
0.01025968 0.07393533 -0.11723381 -0.044489063 -0.025762577 -0.17455587 0.12198463 0.07188573
0.03695569 0.035729893 -0.14553328 -0.12840347 -0.12157391 0.136591 0.0014396096 -0.014645063
-0.08603613 -0.029196281 0.039579537 -0.0987406 -0.071874425 0.0017881576 0.06780889 0.025939498
0.06308921 0.074630976 0.061872188 -0.019257577 -0.0061930697 -0.016230065 0.10192157 -0.06396623
-0.01703442 -0.09004437 -0.11211833 -0.019810405 -0.08809883 0.05351886 0.09417605 -0.019226214
-0.03550099 0.0065325606 0.10084862 -0.08061405 -0.025230654 -0.082405955 -0.095356755 0.072573185
-0.08209689 -0.063842386 0.011771045 0.12452608 -0.012620887 0.088447064 -0.078318 -0.03616463
-0.004422243 -0.07716879 -0.043421585 0.013325174 0.04751306 -0.13312225 -0.12933832 -0.06693701
-0.015305762 0.08364265 0.09610044 0.018667175 -0.11050015 -0.09975547 -0.14194244 -0.10853621
00000000: a635 c53d 1a67 223e 2873 5c3d 0bb4 aa3d
00000010: 7aa7 813d 4385 c9bd 09f8 063e 9f77 48bc
00000020: 70bd 2a3e 38d6 3abb f61f 66bd f965 46bd
00000030: 4193 3fbd 9608 063d f5d2 a4bd 8ee5 84bd
00000040: 7bc6 c13d 96d6 853c e70f 093e 4023 7f3d
00000050: f966 94bc d6a8 a3bd b8db 8c3d 5b57 363d
00000060: f041 f93d 7722 033d 9753 383b 7d3c a6bc
00000070: dd50 c83d 2169 473c b55a 3d3d 8ee7 f6bd
00000080: f1d6 9ebd c9a3 a1bd fce4 1f3e 57d4 b5bd
00000090: 2fd9 a7bd 4abb 91bd ab93 d73d f591 11be
000000a0: a0d6 7c3d 1f96 23bd 9591 b23c 4643 af3d
000000b0: a68f cbbc 9d52 a13d da84 d0bd e5c6 153e
000000c0: 45fb 383d 1c74 9ebd c583 e2ba 368e ad3a
000000d0: e8ba bb3d 2ea7 af3d 245f f1bd 7817 32bc
000000e0: ee6a 24bd 0b72 3f3d 4284 93bc 01e4 313d
000000f0: 9c62 18bd 02fc 88bd cab2 78bd cb4d fbbd
00000100: 3698 c7bd c633 803b 5a38 d93d 023c a93b
00000110: 68e4 653d 78e2 90bd e99f a7bd 1a20 a43d
00000120: 0adb bd3d e7e2 9b3d e718 4dbd 0310 b23d
00000130: ea99 083e 8135 11bd 2901 d93d b2bd 42bd
00000140: 453d 88bd c8c7 03bd ded6 0fbd d67e fd3b
00000150: 3819 fa3d e83b de3c 712c ddbd 2e06 6b3b
00000160: 238f 5e3c f352 153d c9bb 74bc cd2f c1bd
00000170: ab23 3a3d f105 b3bd 5ca1 f0bd 6d37 293d
00000180: aa53 c43d 725c 84bd 704d b6bd 8799 bc3b
00000190: 1682 9bbd a0c0 e93d feea df3d bea0 be3c
000001a0: 04a9 ee3d df00 a9bd c3ed d93d 4687 1d3d
000001b0: e6ab d3bd 7540 53bb eceb 16be a077 a3bd
000001c0: 1451 b3bd 8b3f 2b3c fc81 19bd b96a bcbd
000001d0: a6ca b53d c1a7 a03d 9d46 d23b 9dc9 0d3e
000001e0: 0648 5a3d 811e 563b 2c22 57bd c40c bebd
000001f0: 2b22 5cbd 701b 283d 8475 8ebd e722 0f3e
00000200: 3591 5dbd b496 613d 6d75 9abd 2ec0 ef3d
00000210: 3383 9bbc 33e3 84bc 5e59 97bd a13f 48be
00000220: 36ef c53d 8efe 20bd 0f7d 81bd 9733 cbbc
00000230: 216f 27bd 4033 e7bd 00d8 8dbd ba5f eb3c
00000240: a069 393d f1a3 0bbd 5bba 98bd 0499 46bd
00000250: 025c 363d 48e8 bf3d 3414 03bc f489 963d
00000260: 9140 7d3d e6d0 b13d a285 87bc a9c5 b23d
00000270: 0e38 0abc e5a5 523d c773 023c a478 543b
00000280: 808f 8e3d dc56 e3bd 062d 343e 0a9a a7bd
00000290: ef8e 7abd f97c ba3d 3f83 3e3d 4712 bf3d
000002a0: 6c62 1a3c 303c 86bc 14b3 ce3d b9b5 633d
000002b0: 14df 57bd e6cb 0f3e 1f43 20be 3a93 ccbd
000002c0: 9574 6b3d 8e3d d0bd d4ca f83d e592 de3b
000002d0: 4fa4 35bc f883 6ebd f7d1 413b fc20 5d3d
000002e0: 3818 283c 686b 973d 4818 f0bd 2a3a 36bd
000002f0: 0a0c d3bc c6be 32be 14d3 f93d d338 933d
00000300: d95e 173d 8259 123d ad06 15be 337c 03be
00000310: befb f8bd 83de 0b3e 48b1 bc3a d9f1 6fbc
00000320: b633 b0bd 0a2d efbc 271e 223d 8338 cabd
00000330: e632 93bd 9d60 ea3a 63df 8a3d 127f d43c
00000340: ea34 813d 20d8 983d b16d 7d3d 11c2 9dbc
00000350: 3cef cabb eaf4 84bc 42bc d03d ba00 83bd
00000360: c58b 8bbc 2f69 b8bd 4c9e e5bd 6e49 a2bc
00000370: 296d b4bd 9836 5b3d 5fdf c03d 4b80 9dbc
00000380: 7c69 11bd 170f d63b b989 ce3d fb18 a5bd
00000390: 84b0 cebc 74c4 a8bd 674a c3bd 40a1 943d
000003a0: 6a22 a8bd ccbf 82bd 57db 403c 8807 ff3d
000003b0: d6c7 4ebc bc23 b53d 3065 a0bd 5d21 14bd
000003c0: 77e8 90bb ac0a 9ebd d5da 31bd d551 5a3c
000003d0: 0e9d 423d 3351 08be 4471 04be 4516 89bd
000003e0: 05c5 7abc d64c ab3d 4fd0 c43d e7eb 983c
000003f0: e74d e2bd 994c ccbd 5c59 11be 3c48 debd

rnn.bias_ih_l1 f4 [192]
-0.03181097 -0.053956065 0.08746578 0.024203325 -0.13526611 -0.035096 0.034907043 0.13270515
-0.012704601 0.07955635 0.092152 -0.1223156 -0.0031757965 -0.030517967 0.079734035 0.00770083
0.06261672 -0.07033637 -0.0010901003 -0.10367358 -0.086321 -0.02689744 -0.10471158 -0.047295928
-0.022823317 -0.06373585 0.007916852 0.112665504 0.05535032 0.011651069 0.085167825 0.0012723891
0.09404702 -0.10436196 -0.0005525056 -0.0012824481 0.10672871 -0.016411312 -0.03160589 -0.090660185
0.026555687 -0.07032674 0.062444862 -0.11411455 -0.11509309 0.06756382 0.12449386 0.12023357
-0.004715548 0.01025372 -0.0835816 -0.0104295 0.082670406 0.07371705 0.034090303 -0.10441491
0.08365465 0.10602991 0.07476473 -0.043559387 -0.06887498 -0.026125265 0.0536778 0.019385956
-0.124309875 -0.013831842 -0.12359914 -0.16821888 -0.19398926 -0.03934846 0.00056984916 0.12140119
-0.07431922 -0.14989923 0.049889147 0.026739009 -0.015727594 0.02608788 -0.041228343 -0.039825104
-0.013228347 -0.014122324 0.002797801 -0.15924211 -0.21068695 -0.1320875 -0.14674723 0.09306184
-0.16610754 -0.03976601 0.0048445933 -0.10739931 -0.0044159046 -0.042638958 -0.027530026 -0.08128537
-0.24294487 -0.039859366 -0.11460176 0.011029223 0.048351344 -0.060244747 0.043164324 -0.056710806
-0.018295215 -0.046302706 -0.15853556 0.08359079 0.047664315 -0.14852145 -0.21137515 -0.098166965
-0.0022722865 -0.2085692 -0.018748483 -0.106066585 0.09845886 -0.04091051 0.08577197 -0.109892175
-0.07955867 0.06512209 -0.07938402 -0.0030409857 -0.010891972 0.08787665 -0.04916121 0.043195393
0.035707884 0.018750025 0.022830404 -0.05491725 -0.013068849 0.06668534 0.038965374 -0.0034092213
0.0660839 -0.02738112 -0.088341266 0.022912644 -0.01147843 -0.007632512 -0.10948024 0.07554486
0.07026044 -0.017329244 -0.06855667 0.06276937 -0.09112207 -0.07302363 0.016719209 0.057043377
0.04701267 -0.059949264 -0.10990435 -0.10662572 0.027040401 0.003570764 0.009297304 0.06718905
-0.007589875 -0.1010462 0.024500446 -0.025345938 -0.0041076713 -0.11343221 -0.07978206 -0.0221337
-0.10829052 0.05658684 0.052058693 0.0036257 0.09604491 0.06657537 -0.015805146 -0.062379107
-0.10587141 -0.037034422 -0.017620783 -0.0903332 0.020040944 0.025020849 -0.0060123233 -0.033105362
0.06465613 0.11584949 -0.09251626 0.07655445 0.082231686 -0.05788501 0.07371844 0.039699536
00000000: 384c 02bd 0901 5dbd 4221 b33d 0d46 c63c
00000010: 3383 0abe d3c0 0fbd b0fa 0e3d dce3 073e
00000020: f526 50bc 71ee a23d 30ba bc3d 9a80 fabd
00000030: 0621 50bb d100 fabc 994b a33d 3f57 fc3b
00000040: 323d 803d 840c 90bd b2e1 8eba d052 d4bd
00000050: 10c9 b0bd 0558 dcbc 0673 d6bd 60b9 41bd
00000060: f7f7 babc f187 82bd afb5 013c 2cbd e63d
00000070: 04b7 623d 20e4 3e3c 786c ae3d 4bc6 a63a
00000080: b99b c03d b9bb d5bd 06d6 10ba d117 a8ba
00000090: 9594 da3d 0471 86bc 2d75 01bd 0cac b9bd
000000a0: 508b d93c 7707 90bd 2fc6 7f3d e4b4 e9bd
000000b0: edb5 ebbd e65e 8a3d a3f6 fe3d 053d f63d
000000c0: e284 9abb 38ff 273c d42c abbd 7ee0 2abc
000000d0: 1a4f a93d f7f8 963d 46a2 0b3d 7cd7 d5bd
000000e0: 2153 ab3d 3626 d93d 401e 993d 546b 32bd
000000f0: 530e 8dbd a704 d6bc 41dd 5b3d 4ccf 9e3c
00000100: 2d96 febd f39e 62bc 8c21 fdbd 9241 2cbe
00000110: 1fa5 46be da2b 21bd ee61 153a 30a1 f83d
00000120: ad34 98bd 2f7f 19be 9058 4c3d c40b db3c
00000130: 28d7 80bc 40b6 d53c 0ddf 28bd a61f 23bd
00000140: b5bb 58bc 5261 67bc 505b 373b 5d10 23be
00000150: 52be 57be f241 07be e844 16be 3597 be3d
00000160: 1818 2abe afe1 22bd 65bf 9e3b 2bf4 dbbd
00000170: 4bb3 90bb 30a6 2ebd a686 e1bc f278 a6bd
00000180: 8ac6 78be 9343 23bd 54b4 eabd eab3 343c
00000190: 0f0c 463d 32c3 76bd 13cd 303d 9749 68bd
000001a0: d9df 95bc e8a7 3dbd 2557 22be a631 ab3d
000001b0: a83b 433d 0216 18be ba72 58be c30b c9bd
000001c0: a4ea 14bb 2a93 55be 6b96 99bc 7039 d9bd
000001d0: cca4 c93d c791 27bd 37a9 af3d 260f e1bd
000001e0: a8ef a2bd bb5e 853d 1794 a2bd 464b 47bb
000001f0: 3e74 32bc acf8 b33d 445d 49bd a7ed 303d
00000200: 6e42 123d a799 993c d406 bb3c e9f0 60bd
00000210: ba1e 56bc 5392 883d 289a 1f3d 3e6d 5fbb
00000220: ff56 873d 5f4e e0bc 44ec b4bd 4cb3 bb3c
00000230: 0610 3cbc 271a fabb 2d37 e0bd 43b7 9a3d
00000240: b5e4 8f3d 0ff6 8dbc 7067 8cbd 3a8d 803d
00000250: 359e babd 6a8d 95bd b9f6 883c 51a6 693d
00000260: 5c90 403d 5c8d 75bd 8815 e1bd 965e dabd
00000270: d583 dd3c 7b03 6a3b b853 183c 6a9a 893d
00000280: 7cb4 f8bb 4ff1 cebd 29b5 c83c 49a2 cfbc
00000290: a599 86bb 264f e8bd c764 a3bd bc51 b5bc
000002a0: 6cc7 ddbd 9ac7 673d 7f3b 553d 279d 6d3b
000002b0: 32b3 c43d ab58 883d cb79 81bc 3c81 7fbd
000002c0: 1cd3 d8bd 68b1 17bd 7659 90bc 9d00 b9bd
000002d0: e82c a43c 86f8 cc3c 0603 c5bb 7d99 07bd
000002e0: 6f6a 843d 7f42 ed3d 2a79 bdbd 94c8 9c3d
000002f0: 1669 a83d d518 6dbd b2f9 963d fb9b 223d

rnn.bias_hh_l1 f4 [192]
0.12587255 0.037228074 0.09332608 -0.016574463 -0.043684855 0.062428672 0.049592257 0.11711725
0.009415948 0.006134984 -0.08192916 0.017967623 -0.02587307 -0.113549024 -0.075544395 -0.11249497
0.06651134 0.09210761 0.005176986 0.07942663 -0.07952739 -0.07449187 -0.098167896 0.093861125
-0.0037144371 -0.008190137 -0.04792951 0.005294619 0.09596571 0.080366954 -0.0960152 -0.09441591
-0.069880314 0.0056631435 0.0753383 -0.064291164 -0.07466746 -0.044252392 -0.058767527 0.116059124
0.00046412536 0.104498275 0.037256178 0.05598578 -0.09047892 0.0036411423 0.023023741 0.04980884
0.0032281883 0.046675287 0.021594327 -0.030713305 -0.020056074 0.015154145 -0.11748494 -0.025117444
0.005677509 -0.046354324 -0.023455411 0.036482066 -0.113767795 0.0913058 -0.09577869 -0.11045614
-0.12463893 -0.07434793 0.0016793335 -0.17577317 -0.15076087 -0.21195056 -0.19925109 0.07920364
-0.077129774 -0.124868244 0.00557503 0.056361586 -0.074419536 -0.13679855 -0.13357328 -0.19719476
-0.048666216 -0.06950324 0.034499474 -0.038565803 -0.033258453 0.03516042 -0.09688874 0.09064933
0.078549944 -0.026591199 0.07766645 -0.21183766 -0.038518038 -0.05288402 -0.019773303 0.08091816
-0.27316993 -0.118977584 -0.1574524 -0.10365462 -0.18636614 -0.14640594 0.026829341 0.018262107
0.028436711 -0.020788025 0.019977223 0.118699975 -0.00031092414 -0.05023661 -0.1570079 -0.08340498
-0.10839634 -0.18748441 -0.22742324 -0.19109 0.05130693 -0.07140066 -0.08910803 -0.07101208
-0.19124903 -0.09717022 -0.047724277 -0.10437913 0.018102884 0.041701935 -0.11326344 -0.039929125
0.010207979 0.09722203 0.076815 0.063977 -0.008668296 -0.003326515 -0.1030988 -0.044040985
-0.0073266844 -0.019634563 0.11728082 0.089074716 -0.08816146 -0.078573756 -0.11130616 0.0778603
0.07891275 0.09224709 0.107475296 0.011142839 0.022678982 0.084310085 -0.003066993 -0.0972551
0.04401643 0.016544867 0.030842239 0.054047484 0.048426583 0.026245017 0.015577147 0.085354954
-0.061597846 -0.09171038 -0.116450004 0.009934588 -0.12453113 0.06432008 -0.022115245 0.1166702
-0.11450215 -0.10532258 0.078665994 0.07451816 0.07799338 0.0429736 0.08031064 0.12688752
0.016094567 -0.042823736 0.030835623 0.08603891 0.013884277 -0.031843077 0.07607093 -0.024712773
-0.08880338 -0.100661695 0.028763121 0.05784948 0.0646171 0.091185495 -0.0292 0.02423808
00000000: bce4 003e 777c 183d be21 bf3d 2bc7 87bc
00000010: e4ee 32bd 35b5 7f3d 4021 4b3d 2bdb ef3d
00000020: 5945 1a3c fa07 c93b 7aca a7bd d630 933c
00000030: c3f3 d3bc 648c e8bd 05b7 9abd c363 e6bd
00000040: 1937 883d eaa2 bc3d b5a3 a93b 6eaa a23d
00000050: 42df a2bd 328f 98bd 400c c9bd 433a c03d
00000060: ea6d 73bb ed2f 06bc bc51 44bd 7c7e ad3b
00000070: ac89 c43d 6e97 a43d 9ea3 c4bd 215d c1bd
00000080: 691d 8fbd e491 b93b f74a 9a3d 16ab 83bd
00000090: 41eb 98bd ff41 35bd 38b6 70bd 68b0 ed3d
000000a0: da55 f339 3103 d63d ef99 183d 5851 653d
000000b0: 034d b9bd 3ba0 6e3b 499c bc3c 5b04 4c3d
000000c0: 0390 533b 962e 3f3d 96e6 b03c 789a fbbc
000000d0: a34c a4bc 1749 783c f29b f0bd 19c3 cdbc
000000e0: 660a ba3b 08de 3dbd 9025 c0bc 386e 153d
000000f0: 17ff e8bd 89fe ba3d 9e27 c4bd d436 e2bd
00000100: b242 ffbd ba43 98bd 151d dc3a e2fd 33be
00000110: 0f61 1abe 9109 59be 7a08 4cbe 8535 a23d
00000120: 37f6 9dbd ecba ffbd beae b63b 68db 663d
00000130: 4569 98bd eb14 0cbe 6fc7 08be 6ced 49be
00000140: 3a56 47bd b757 8ebd 524f 0d3d 2df7 1dbd
00000150: 043a 08bd 5f04 103d 9b6d c6bd 5ba6 b93d
00000160: cbde a03d c9d5 d9bc 960f 9f3d f9eb 58be
00000170: 17c5 1dbd ea9c 58bd 9ffb a1bc 6cb8 a53d
00000180: eedc 8bbe 85aa f3bd 343b 21be e048 d4bd
00000190: c4d6 3ebe 70eb 15be 35c9 db3c 6a9a 953c
000001a0: 1bf4 e83c a64b aabc 46a7 a33c f918 f33d
000001b0: 8803 a3b9 e7c4 4dbd aec6 20be 3bd0 aabd
000001c0: e6fe ddbd eafb 3fbe a3e1 68be 19ad 43be
000001d0: 3727 523d 823a 92bd 457e b6bd c86e 91bd
000001e0: c9d6 43be 2e01 c7bd 887a 43bd bac4 d5bd
000001f0: 804c 943c a6cf 2a3d aaf6 e7bd b98c 23bd
00000200: 5e3f 273c 581c c73d 2f51 9d3d 6006 833d
00000210: 7805 0ebc a901 5abb 7725 d3bd 5264 34bd
00000220: af14 f0bb aad8 a0bc ed30 f03d ce6c b63d
00000230: ff8d b4bd 47eb a0bd 7cf4 e3bd 3975 9f3d
00000240: 029d a13d 0bec bc3d 021c dc3d 7490 363c
00000250: 46c9 b93c c4aa ac3d 9bff 48bb af2d c7bd
00000260: 924a 343d 1a89 873c dda8 fc3c e560 5d3d
00000270: f45a 463d caff d63c 4a37 7f3c 94ce ae3d
00000280: 064e 7cbd a7d2 bbbd 577d eebd afc4 223c
00000290: 2d0a ffbd 3fba 833d 082b b5bc c9f0 ee3d
000002a0: 1a80 eabd 5db3 d7bd a31b a13d fa9c 983d
000002b0: feba 9f3d 1605 303d e879 a43d cdee 013e
000002c0: c1d8 833c f167 2fbd fd9a fc3c 2b35 b03d
000002d0: e17a 633c e36d 02bd 13cb 9b3d 7172 cabc
000002e0: 8cde b5bd b827 cebd a3a0 eb3c 94f3 6c3d
000002f0: f855 843d 76bf ba3d d734 efbc f08e c63c

fc.weight f4 [1, 64]
0.09948806 0.014246118 0.08671469 0.09909456 0.06633477 -0.12353312 -0.08799729 -0.038754344
-0.08439745 0.062963605 -0.07243074 -0.105560035 0.07871792 -0.07729626 -0.09346157 0.09713556
-0.11147347 -0.016927755 -0.10552191 0.08252415 0.04493414 0.024763608 -0.045494862 0.0042950213
-0.10010179 -0.050653633 0.07038867 0.08011748 0.08254224 -0.12235577 -0.06832719 0.0030506735
0.0515134 0.10322779 -0.13897324 -0.005223351 0.084347814 -0.10677075 -0.031012295 0.09845674
0.024006931 -0.105856575 -0.10826799 -0.08962113 0.054112528 -0.11194285 -0.04558201 -0.07940271
-0.09565041 0.052464213 0.075426474 0.12692139 0.049031634 0.100025214 0.01569397 0.092508614
-0.08016952 -0.058327015 -0.08949915 0.069321364 -0.072151534 0.096387036 0.093415774 0.038323585
00000000: 65c0 cb3d 8d68 693c 7997 b13d 17f2 ca3d
00000010: 86da 873d effe fcbd ec37 b4bd e0bc 1ebd
00000020: 92d8 acbd 10f3 803d 9156 94bd dc2f d8bd
00000030: dc36 a13d 804d 9ebd c868 bfbd 02ef c63d
00000040: 344c e4bd 13ac 8abc df1b d8bd 6c02 a93d
00000050: dc0c 383d 0ddd ca3c d258 3abd 40bd 8c3b
00000060: 2b02 cdbd 2f7a 4fbd ef27 903d a214 a43d
00000070: e80b a93d a995 fabd 20ef 8bbd cfed 473b
00000080: b7ff 523d 1769 d33d 004f 0ebe a528 abbb
00000090: 8cbe ac3d 9faa dabd 7f0d febc b0a3 c93d
000000a0: 2faa c43c 55cb d8bd 9cbb ddbd 488b b7bd
000000b0: 19a5 5d3d 4b42 e5bd 34b4 3abd e39d a2bd
000000c0: 5de4 c3bd b7e4 563d 3279 9a3d aef7 013e
000000d0: 65d5 483d 05da cc3d a490 803c 2875 bd3d
000000e0: eb2f a4bd 4fe8 6ebd 554b b7bd 5cf8 8d3d
000000f0: 2fc4 93bd 9166 c53d c550 bf3d 31f9 1c3d
