data/results/gru_regime_DXY_r5d_r6_wNone.pt (torch, 167493 bytes, 9 tensors)

rnn.weight_ih_l0 f4 [192, 16]
000000 97 9c 14 bc c5 54 a8 bd 92 31 47 be 2f f9 57 be
       -0.009070537 -0.082192935 -0.19452503 -0.2109115
000010 fa 5b 9f 3e ea e5 03 be 10 d8 e1 bd 4a 41 81 be
       0.3112486 -0.12880674 -0.11027539 -0.25245124
000020 b4 bf b0 bd 8e 57 dc 3d 80 96 ed bd ee 88 e9 3d
       -0.086303145 0.10758887 -0.11600971 0.114030704
000030 26 7b 81 be cf c9 5c bd 97 81 a7 3e 32 d6 3b bd
       -0.25289267 -0.053903397 0.32716057 -0.04585857
000040 3d 85 00 3e df 5a 46 3d 74 81 08 3e f9 86 14 3e
       0.12550826 0.048426505 0.13330632 0.14504613
000050 d2 49 8e be cd d3 4f 3d fe c4 63 3d 67 6a 84 3c
       -0.27790695 0.0507391 0.05560779 0.016164018
000060 19 eb e5 3d 3a 7d 1b be a5 be 04 3e fa c5 b2 bd
       0.11226482 -0.15184489 0.1296335 -0.08729167
000070 11 4d 92 3d 20 65 25 3e a7 de 69 be b8 2b f6 bc
       0.071436055 0.16151857 -0.22838841 -0.030050144
000080 36 44 30 3d eb 6e fd bb 7d 81 4b 3d 9d d3 45 3e
       0.0430338 -0.0077341697 0.049684037 0.19319005
000090 37 eb c2 3e 79 97 83 3c 3b e8 f1 3c 58 ad 2f 3e
       0.3807008 0.016063439 0.029529681 0.17155969
0000a0 e2 a8 00 3e 0e 18 7f 3e 7f 9a 94 bb 1d 95 ab bd
       0.12564424 0.2491152 -0.004535019 -0.083780505
0000b0 bb d4 90 3d aa e8 2e 3e d2 ba a5 3d b4 bd eb 3c
       0.07071825 0.17080942 0.08092274 0.028776981
0000c0 50 51 67 b7 55 69 d0 3d b0 a8 0c 3e 81 86 8d 3d
       -1.3787605e-05 0.101763405 0.13736224 0.0691042
0000d0 7f a1 1a be 8f ad 81 bd b1 4d ef 3d bb 33 0f 3e
       -0.15100668 -0.06331932 0.1168474 0.13984577
0000e0 d6 87 80 bd 66 87 a1 be 5b cf c5 bd 82 46 dc bd
       -0.06275909 -0.31548613 -0.096586905 -0.10755636
0000f0 26 ad b7 bb 5f 10 fe bd b6 bc 5e be dd 50 33 bc
       -0.0056053577 -0.12405466 -0.21751675 -0.010944572
000100 5e 83 cf bd 25 3d 90 bd d7 6d 05 be d6 f7 23 bc
       -0.10132478 -0.070429124 -0.13030182 -0.010007819
000110 2e 9e 0f be d2 ec fe 3d 32 59 9e bd 44 0d 9c bb
       -0.14025185 0.12447514 -0.077318564 -0.0047623236
000120 92 58 6e bd df ee c5 bd 4d 5f 49 bd e3 b4 4a bd
       -0.058189936 -0.09664702 -0.04916315 -0.049488913
000130 89 f2 cc bd ec c1 57 bc 3f d4 fc bd a5 c7 51 bd
       -0.100071974 -0.013168793 -0.1234517 -0.051215786
000140 b0 80 26 3d 43 05 a3 bd 35 d3 3c 3c d1 ab 2e 3e
       0.04065007 -0.07959988 0.011524965 0.1705773
000150 21 78 11 be ab 57 09 bd 3a cd 3c bb 85 54 8b bb
       -0.14205982 -0.033530872 -0.0028808848 -0.004252019
000160 be 1a 8f bc 37 35 ab bd b7 05 4d 3d f8 08 63 bd
       -0.017468806 -0.08359759 0.05005428 -0.055428475
000170 f3 b6 f7 bd 94 71 77 bd 0e cc 4b bd 3d 57 e9 bd
       -0.12095442 -0.06041105 -0.04975515 -0.113935925
000180 8c 53 b5 bc ac c1 47 bd 03 0b fb bb 7c ae 79 3e
       -0.022134565 -0.048768684 -0.007661225 0.24382967
000190 5b d2 29 3e 0d e0 9d bd 1b 03 91 bc 2c cb 01 be
       0.1658415 -0.0770875 -0.017701676 -0.1267516
0001a0 f2 36 8f bd fe 2d 66 bc 0d a8 ce 3d 68 c5 19 bd
       -0.06992902 -0.014049051 0.10090647 -0.037541777
0001b0 bb c0 c4 bb 0b d2 74 3c 56 83 46 3e 05 b5 8d bd
       -0.0060044206 0.014942656 0.19386038 -0.06919292
0001c0 94 0f 81 bd 10 4f 8e 3d 83 d1 9d 3d bb 26 25 bd
       -0.063017994 0.06948674 0.07705977 -0.04032014
0001d0 c6 a3 6e bd 11 4e 89 bd ae 84 3a bb 24 78 cd 3d
       -0.058261655 -0.06704343 -0.002846043 0.10032681
0001e0 f3 6e 21 3d e3 09 c1 bd 17 25 05 3d 38 fe 1e 3d
       0.03941245 -0.09425714 0.032506075 0.03881666
0001f0 ab 1e 26 3e 0e 13 bf 3d 74 dd df bd ae 47 9d ba
       0.16222636 0.09329806 -0.10930911 -0.0011999512
000200 ff 5c 3a be cc a0 63 be 9e b3 25 3d 6e 2a 21 3e
       -0.18199538 -0.22229308 0.0404545 0.15738842
000210 8f a1 98 bd 36 84 85 3d d9 4e 35 bd 8e e7 59 3e
       -0.0745269 0.06519358 -0.044264648 0.21279737
000220 48 8b 8e 3e f7 7a a0 be 77 fc 77 3c 0c 06 f1 3d
       0.27840638 -0.31343815 0.015135876 0.117687315
000230 e2 b3 8c 3e 11 58 12 3e 7f ba a2 be 24 c1 3d 3b
       0.2748099 0.14291407 -0.3178291 0.0028954232
000240 25 84 0c 3e a2 f6 5c bd dd 31 70 bd e1 6f 2c 3e
       0.13722284 -0.053946145 -0.058641303 0.16839553
000250 5a 69 4f 3e 65 58 34 bc b6 a7 a1 3d 18 6e fb 3b
       0.20255032 -0.011007403 0.078933164 0.0076730363
000260 2e 94 04 3e 59 db 93 3d ce 83 0b bd 11 03 2c bd
       0.12947151 0.072195716 -0.034061246 -0.04199511
000270 d7 bb b7 bd 79 19 1f 3e 76 ec b9 3d 88 3e db bc
       -0.089713745 0.15537061 0.090783045 -0.026763216
000280 38 62 44 3d d7 f8 a0 bc 8b fd f6 bd 6a 12 99 3d
       0.04794523 -0.019649906 -0.12060078 0.07474215
000290 fe 92 e4 be e4 da 63 be 47 e9 dc bd 32 bf a9 3b
       -0.44643396 -0.22251469 -0.107866816 0.005180263
0002a0 33 0e e8 3d ef f7 86 be 49 db 88 bd 96 7b 10 be
       0.11330833 -0.26361033 -0.0668245 -0.14109644
0002b0 f0 64 7d 3d 21 77 40 3e 48 72 97 be 05 91 e8 bb
       0.06186384 0.18795444 -0.29579377 -0.007097366
0002c0 ce d3 b4 bd 20 b1 08 be f2 e5 3a bd a4 65 b9 3e
       -0.08829461 -0.13348818 -0.04562945 0.36210358
0002d0 d0 dd f3 be 33 a5 cc bd 5c f0 ec bd 22 d8 c3 bc
       -0.47630167 -0.09992447 -0.115692824 -0.023906771
0002e0 97 a4 9e 3e d0 d2 66 be 19 23 81 3d 72 97 d2 bb
       0.30984947 -0.22541356 0.063055225 -0.006426745
0002f0 49 c5 6e bb f8 92 a6 3c 1d 3a 43 bd a2 de f7 3d
       -0.003643351 0.020333752 -0.047662843 0.12103011
000300 b5 42 c3 3d b5 ea d8 bd b4 2f d4 bd bf 2f 2e be
       0.09534208 -0.10591642 -0.10360661 -0.17010401
000310 e5 2d 12 3c 9d 0a 72 39 6e 23 72 bd f1 98 eb bd
       0.008922075 0.00023082872 -0.05911582 -0.11503781
000320 48 94 09 be b0 f8 c2 3d cf d9 b3 3c 21 e0 b9 bd
       -0.13435471 0.095200896 0.021954445 -0.09075952
000330 05 4f 9b bd 32 af 0b 3d 02 10 53 3e 47 2a ef 3d
       -0.07583431 0.034102626 0.20611575 0.11677986
000340 a5 0f ef 3b 52 1e 89 3d d4 0c db 3d bc cd 25 be
       0.007295566 0.06695236 0.10695806 -0.16191763
000350 70 fa 15 bd 0c c7 1b bd 45 15 20 3d 8c 6d 91 3d
       -0.03661579 -0.038031623 0.039082784 0.071009725
000360 73 e8 d0 bd 29 d4 8e be 41 07 f9 bc 27 cc d8 bd
       -0.10200586 -0.2789624 -0.030398967 -0.10585814
000370 9e 88 7b 3d 0b 16 69 bb 1d 00 72 be b5 f6 f3 bc
       0.061409585 -0.0035566117 -0.23632856 -0.029780725
000380 28 37 42 3e 62 64 42 3e 20 e9 73 3c 21 91 84 3e
       0.18966353 0.18983606 0.014887124 0.25891975
000390 03 a5 c4 be 66 8a 5a bb 4c 1a 8f 3d a2 10 cc bc
       -0.38407144 -0.0033346652 0.069874376 -0.024910275
0003a0 45 1a a7 3e d9 0a 00 be 4e 02 a4 3d ab 40 6c 3e
       0.3263723 -0.12504138 0.08008252 0.23071544
0003b0 60 a4 89 3a aa ed 90 3e db 4d 38 bb a2 81 94 3d
       0.0010501258 0.28306323 -0.0028122577 0.07251288
0003c0 86 e8 ad 3a cc 4c c1 bb 7a 79 34 3c 04 82 27 bd
       0.001326815 -0.0058990475 0.01101529 -0.040895477
0003d0 84 06 52 3d 09 c0 c5 3d 15 54 ce 3d 32 d8 5c ba
       0.051275745 0.096557684 0.10074631 -0.00084245496
0003e0 3b 3f 34 bd a0 fd 17 be dd 4d 64 bd 1f eb 75 3c
       -0.044005614 -0.14842844 -0.05573832 0.0150096705
0003f0 25 a1 8a 3d cd 09 25 3e cc 60 b7 bd c7 ca 3f 3c
       0.06769017 0.1611702 -0.089540094 0.011706061

rnn.weight_hh_l0 f4 [192, 64]
000000 bf a3 41 3d 98 3b 27 3d 07 67 b9 3d 11 0a 5d bd
       0.0472753 0.040828317 0.09052854 -0.05396468
000010 b2 09 ae bd 57 39 89 bd 94 40 a7 bd 9c b3 a5 bd
       -0.08497943 -0.0670039 -0.08166614 -0.080908984
000020 1f ac e8 3c fa ab 3f bd 59 12 db 3d 25 96 96 bb
       0.028402386 -0.04679487 0.10696859 -0.0045955353
000030 62 58 90 bb 2e 8a 9a bd 73 93 e8 bd c3 f0 89 3d
       -0.0044050673 -0.07545887 -0.11356249 0.06735375
000040 0d 2e 94 bd 34 45 7c 3c f6 ae 73 3d 7b 0c 3a bd
       -0.07235346 0.015397359 0.059493028 -0.04542206
000050 5f fa 95 3d 08 76 ec 3d 35 31 d1 bd a6 16 bc bd
       0.07323145 0.1154595 -0.102144636 -0.09184007
000060 ed 72 0c be 4f 26 2b 3c b4 12 b6 bd fd 48 ba 3d
       -0.13715716 0.010446145 -0.08890286 0.09095953
000070 15 ad f5 3d 2c d1 99 3d 2f a5 e2 3d 1c 1b 9d 3d
       0.119959034 0.075105995 0.110666625 0.07671186
000080 78 75 ee bd 36 8f 4b 3d 59 0f 8f bd 3e c4 cd bd
       -0.11643499 0.049697123 -0.06985349 -0.10047196
000090 08 41 fa 3c 30 88 30 bc ae 0c 74 3d 99 1b 4a bd
       0.030548587 -0.010774657 0.059582405 -0.049342725
0000a0 69 bc ae bd a2 5f a3 3d fe ad ed 3d d0 5e f3 3c
       -0.0853203 0.07977225 0.11605452 0.029708296
0000b0 f2 b3 76 3d d1 6d 24 3d 21 b2 89 3c cb ed b9 bd
       0.060230203 0.04014379 0.016808571 -0.090785585
0000c0 09 0b 42 bd 74 2f 93 bd 1e 9b e1 3d 0c 81 0c bd
       -0.047373805 -0.07186785 0.110159144 -0.034302756
0000d0 2c 77 ab 3d d6 1e 7c 3c 15 dc 4f bc fa 67 db bd
       0.083723396 0.015388211 -0.012686749 -0.10713191
0000e0 24 73 f2 3c b3 24 8a 3d 47 e4 20 3c 70 e3 40 3d
       0.029595919 0.06745281 0.009820051 0.0470919
0000f0 a1 32 e9 3d ab 0c ea 3d 80 0a 63 bd ee 39 a4 3b
       0.1138661 0.114281975 -0.055429935 0.0050117886
000100 a8 2d 87 bd 07 68 7f 3d 0f 74 3c bd e4 23 8d 3c
       -0.06600505 0.062355068 -0.04600912 0.017229028
000110 87 f9 9e bd b3 9b d6 bd bd c1 d3 3d 9d 53 8c bd
       -0.07762437 -0.10478916 0.10339687 -0.068518855
000120 94 cd eb bd 96 ce d8 bd c6 4f e8 3d 73 eb 8e 3d
       -0.1151382 -0.10586278 0.113433406 0.06978502
000130 db 93 01 be 21 2b 87 3d 59 80 65 3d 5a dc a9 3d
       -0.12654059 0.06600023 0.056030605 0.08293982
000140 55 ab b4 bd 20 78 e5 3b df bc 8e 3d 7b 9d b1 3c
       -0.088217415 0.0070028454 0.06969618 0.021681538
000150 54 ea 68 bd c0 e7 ef bd 7f 2f 62 bd ba 33 26 bc
       -0.056864098 -0.11714125 -0.055221077 -0.0101441685
000160 1f 34 bc 3d be ed d6 bd a0 e7 58 bb 12 cd e8 3d
       0.09189629 -0.104945645 -0.0033097044 0.11367239
000170 f4 7f 08 3d cc 5b 25 3d 9e be d8 3d c1 79 8f 3d
       0.03332515 0.040370747 0.10583232 0.070056446
000180 9d 1e ec 3a 85 67 cb bc ae a4 1e bd cc 83 ba ba
       0.0018014495 -0.024829635 -0.03873127 -0.0014229952
000190 5c 79 b6 3d 7b 9b 02 bd 39 21 45 bd d8 b9 8d 3d
       0.08909866 -0.03188656 -0.048127387 0.069202125
0001a0 af a0 9f 3d cb 5e 03 bd 55 97 6e bd 7c 29 7a bd
       0.0779432 -0.032072823 -0.05824979 -0.06107472
0001b0 b8 41 5c 3d e8 b8 1b bd a8 0d 9f bd 95 df e8 bd
       0.05377361 -0.038018137 -0.077662766 -0.1137077
0001c0 bf 4e 44 3d 9b ba c8 bd 82 f7 8d 3b 87 9b 33 bc
       0.04792666 -0.09801217 0.0043324837 -0.010962374
0001d0 da 93 d8 3c 5a 7d e7 3d e4 7b 34 bd cd 44 24 bd
       0.026437689 0.11303206 -0.044063464 -0.040104676
0001e0 f5 53 63 3c b5 47 fb bb 56 a0 3b bd 7f 1a 10 3d
       0.013874997 -0.0076684603 -0.045807205 0.03518152
0001f0 4c a5 e0 3d 81 ae 0a bd fa b2 d8 3b c4 32 f0 bd
       0.10969028 -0.033857826 0.0066131325 -0.11728433
000200 e8 9d 00 bd 5e 51 83 bc 6d ca 1c bd 1c 1f 96 3d
       -0.03140059 -0.01603001 -0.038278986 0.073301524
000210 d9 18 ab bd 1a a7 01 3e 22 35 4d bc 59 55 c8 3d
       -0.08354349 0.126614 -0.012524875 0.09781904
000220 15 80 8b bd d9 6c f1 bd b7 2c 87 bd 95 0f 47 bd
       -0.06811539 -0.11788339 -0.066003256 -0.048598845
000230 fc b4 f2 bd bf f4 e6 bd 2d 8f 27 3c 64 0c 3e 3d
       -0.11850926 -0.1127715 0.010227007 0.046398535
000240 8f f2 0b bd fa fb ca 3d 4d 9e 02 bd 7e 59 19 3c
       -0.03416687 0.09911342 -0.03188925 0.0093597155
000250 f6 a4 8d bd 24 fb 99 bd 56 a0 1d bd e0 cd 5b bd
       -0.069162294 -0.075186044 -0.038482986 -0.053663135
000260 1a fb 9f bd 9c de dd bd be f1 88 bd 05 0a c0 3d
       -0.07811566 -0.10833475 -0.06686734 0.09376911
000270 90 26 d2 3d 95 2d 88 3b 3a 48 83 3d c7 ce 09 bd
       0.102612615 0.0041558244 0.064102605 -0.033644464
000280 79 b5 8f bd c4 59 cf bd b7 ac 94 bd a2 50 04 3e
       -0.07017035 -0.10124543 -0.07259505 0.12921384
000290 27 30 a6 3d 6f 73 d3 3d e1 1d a1 bd 3b 73 4d bd
       0.08114653 0.103247516 -0.07867027 -0.05015872
0002a0 36 b6 e4 bd c6 27 38 bd 6a 9c 5d bd 8f 13 e2 3c
       -0.111675665 -0.044959806 -0.054104246 0.027597217
0002b0 37 45 5e 3d 93 a3 8d bd 8b 68 09 3d 85 97 6f bd
       0.054265227 -0.06915965 0.033546966 -0.05849411
0002c0 76 54 f7 bd 46 6d 89 3d b1 ad 7d bd 2f 9d 81 3d
       -0.120766565 0.067102954 -0.061933223 0.063288085
0002d0 a8 69 72 3d f0 f9 b7 bd 8e aa 31 bd 08 96 af 3c
       0.059182793 -0.08983219 -0.043375544 0.021433845
0002e0 e9 7d ac bd 5b 8b ad bd 39 65 2f bd d0 7a bc bc
       -0.08422453 -0.084738456 -0.042821143 -0.02300778
0002f0 32 63 84 3d ce ab ca bc ff c8 1e ba 59 49 25 bd
       0.064642325 -0.024740126 -0.00060571724 -0.040353153
000300 31 69 d1 3d 64 76 39 3d bd a6 0b bd 3f e1 8c bd
       0.10225142 0.04527892 -0.03409456 -0.068789
000310 9c 2a 06 be c2 9e 88 3d 3f 8b 85 bd 73 8b c8 bd
       -0.13102192 0.06670906 -0.065207 -0.09792223
000320 31 47 e1 3d a5 8a 55 3d 30 d0 68 bd 42 b6 41 bc
       0.10999907 0.052134175 -0.056839168 -0.011823239
000330 91 26 9b bc 63 c3 08 bd 7c bd cb bd da ae cb bd
       -0.018939288 -0.03338946 -0.09948251 -0.0994546
000340 78 32 a7 bd 67 8c fe bd 96 12 33 bd 7b 5e 4a 3d
       -0.08163923 -0.12429123 -0.043718897 0.04940651
000350 53 30 d3 3d 7c 14 73 3d bc c5 09 3d 95 48 3c bc
       0.103119515 0.059345707 0.03363584 -0.011491914
000360 26 b7 13 3d 27 d3 6f bd de 12 ad 3b ac f7 d6 bd
       0.036063336 -0.05855098 0.00528179 -0.104964584
000370 83 e5 b4 3d 71 4c b7 3c 93 00 33 bd 57 2f cb bc
       0.088328384 0.022375317 -0.04370172 -0.024802847
000380 84 57 8c bd e8 3d 03 3e 36 fc 65 3d 11 a0 e0 bd
       -0.0685263 0.12816584 0.05614873 -0.1096803
000390 f6 ed b7 bd a6 77 cf 3d fa 72 96 3d e0 de d2 3d
       -0.08980934 0.10130243 0.07346149 0.10296416
0003a0 93 74 c3 3d 94 21 84 bd c4 57 d3 3d de 07 a1 bd
       0.09543719 -0.06451717 0.10319474 -0.07862829
0003b0 92 1a ec bd 69 ce e9 3d 2d 9f 3f bc a1 25 6d 3d
       -0.115285054 0.11416323 -0.011695665 0.057897214
0003c0 e3 ff be bc b2 24 d5 3c f2 97 cb 3d 99 a7 b7 bc
       -0.023315376 0.026018474 0.09941091 -0.022418784
0003d0 da 01 fb 3d f9 be 9a 3d 92 2d 2f bd 7b 02 83 3b
       0.122562125 0.075559564 -0.04276807 0.0039980984
0003e0 a8 7e 08 be 62 15 9c bd a2 01 e7 bc 6d a3 91 bd
       -0.13329566 -0.07621266 -0.02819902 -0.07111249
0003f0 8c 3d b4 3d b9 1a b3 3d a5 26 b3 3d 65 d3 f5 bc
       0.08800802 0.08745331 0.08747605 -0.030008027

rnn.bias_ih_l0 f4 [192]
000000 0a a9 a9 bd c9 83 d8 3d e7 91 92 3d 96 7e c9 3c
       -0.08284195 0.10572011 0.07156735 0.024596494
000010 b0 d8 8e 3d c8 04 9d bc d4 50 b3 bd 1e e2 37 bd
       0.069749236 -0.019167319 -0.08755651 -0.044893377
000020 a4 13 14 3d fb 5c 7c bc 15 f8 53 bc 45 9b 84 3d
       0.036151543 -0.015403028 -0.012937565 0.06474928
000030 bc f1 84 3d 50 43 7e bd e0 7e 8b 3c dc 5c 9c 3d
       0.0649142 -0.062075913 0.017028272 0.07634899
000040 1e 22 2c 3d e8 44 64 3b d5 61 26 bd 9e 34 e8 bc
       0.042024724 0.003483111 -0.040620644 -0.028345402
000050 8c bd c5 3d ad 5d 08 3e e1 70 0e bb 17 f7 e9 bd
       0.09655294 0.13316984 -0.0021734762 -0.11424082
000060 b9 83 a5 bb f5 5b 4b 3d 43 d9 81 bd ec 12 0b bb
       -0.005051103 0.049648244 -0.063402675 -0.0021220995
000070 52 b3 0c bc 3a 46 5d 3d 40 a2 cf 3d 37 9e 25 bc
       -0.008587675 0.05402205 0.101383686 -0.010108522
000080 99 b0 92 3d 3f ee e5 3d 7b ad c7 bd 8f 63 ec bd
       0.071625896 0.112270825 -0.09749886 -0.11542427
000090 02 21 98 3d a7 32 d6 3d a9 31 a0 3d ca c6 e4 3a
       0.07428171 0.1045888 0.07821972 0.0017454263
0000a0 5e 0b 10 3d 86 78 8a bd 84 2a a1 bd 8e 11 d9 bd
       0.03516709 -0.06761269 -0.07869437 -0.105990514
0000b0 d6 42 84 3d 05 58 1f bd 2a 6d e9 3d e5 ce a0 bd
       0.064580604 -0.0389023 0.113977745 -0.07851962
0000c0 7a 05 8f 3d 17 ed ad bd 31 f4 98 3d 30 94 8b bd
       0.069834664 -0.08492487 0.07468451 -0.06815374
0000d0 8d b1 8c bd a6 ea 03 bd e5 f9 97 bd f7 91 b2 3d
       -0.068698026 -0.0322062 -0.074207105 0.08719247
0000e0 71 1b 32 3d 65 bf ea 3d 29 82 b0 3d 95 3b 43 3d
       0.0434832 0.11462287 0.08618576 0.047664244
0000f0 b9 12 47 3d 41 8a 5c bd 35 77 af ba 88 e7 c8 3d
       0.04860184 -0.053842787 -0.0013386967 0.09809786
000100 7c b3 c5 bd 85 18 00 be 42 cb 63 be 1a b8 57 3d
       -0.096533746 -0.12509353 -0.22245505 0.052665807
000110 fd 5e bf 3b 6a c4 48 bd c0 49 da bd 82 dd f6 bd
       0.005840181 -0.04901544 -0.10658598 -0.12053968
000120 7e 78 a5 3c 13 a4 ef 3c 51 f4 94 bd 6f db a0 bd
       0.020199057 0.029253041 -0.07273162 -0.07854354
000130 f4 2a e1 bd 07 aa 65 bc 92 f0 0f 3d 01 e9 e4 bd
       -0.10994521 -0.014017588 0.035141535 -0.111772545
000140 fd f3 16 be 73 e8 65 be ea e1 fe 3d 31 f0 73 bd
       -0.14741512 -0.22451954 0.124454334 -0.059555236
000150 af 52 2c bd 5e 4e 06 be 2a a1 18 bc 2d 51 b3 3d
       -0.04207104 -0.13115832 -0.009315768 0.087557174
000160 1b 04 18 be 8c be c9 bd 7f 5b 83 3d 35 ed a6 bd
       -0.14845316 -0.09850797 0.06413936 -0.081507124
000170 ac 35 86 bd 78 98 1b 3d 18 f2 2e bd 58 2c 8b 3d
       -0.06553206 0.037987202 -0.042711347 0.06795567
000180 b1 91 d0 3d 17 86 cb bd 36 4f ed bd a1 43 33 be
       0.101840384 -0.09937685 -0.11587374 -0.17506267
000190 fc 91 9e 3d f7 af c1 bc c9 26 8c bd 43 03 d9 bd
       0.07742688 -0.023643477 -0.06843335 -0.10596325
0001a0 62 cd 32 3d e0 a3 9f be 87 d8 11 bc ad ce 14 be
       0.0436529 -0.31179714 -0.008901722 -0.14531966
0001b0 0e de ae bd 67 9f 82 bd 78 92 0e bc 75 ff 1c be
       -0.08538447 -0.0637806 -0.008701913 -0.15331824
0001c0 fb cc b2 3d fc 00 b3 bd 9c 47 e9 3d 71 12 2e 3d
       0.08730503 -0.08740422 0.113906115 0.042498056
0001d0 30 90 f5 bc 9f 5c 3f 3d 14 b4 8c bd c7 6f 1b be
       -0.02997598 0.04671919 -0.06870285 -0.15179358
0001e0 21 c5 99 3d fd 0a f5 3b 75 ed 83 be 27 9b 32 bd
       0.075083025 0.0074781165 -0.25767103 -0.043604996
0001f0 e9 00 c6 bd bc 74 cb bd 18 8a d2 bd cd c7 83 bd
       -0.09668142 -0.09934375 -0.102802455 -0.06434593
000200 87 e6 87 bc d6 42 b5 3d e9 81 b7 3d 74 c5 dc 3d
       -0.016589416 0.088506386 0.08960325 0.10779849
000210 92 42 a9 3d 8f 2f 43 3b 46 c0 69 bd 1e c6 f6 3d
       0.082646504 0.0029782986 -0.057068132 0.120495066
000220 b5 39 bf 3d 33 d8 b8 bd 0d b5 66 3d 90 22 50 bd
       0.093371786 -0.09025612 0.056325007 -0.05081421
000230 f2 13 9e 3d bf af 42 bd f6 60 14 3d 58 16 6b 3d
       0.07718648 -0.047530886 0.03622528 0.057394356
000240 7b 66 f9 3d 00 b7 02 bd 6a 20 ad 3c 4f 66 c3 3d
       0.1217775 -0.031912804 0.02113362 0.09540998
000250 1d 96 7b 3d ee 98 a1 3b 6f c5 5b 3d e3 16 ba 3d
       0.061422456 0.0049315607 0.053655084 0.090863965
000260 93 8c 99 3d 3c a5 93 bd 07 58 44 bd 86 05 d1 bc
       0.074975155 -0.0720925 -0.047935512 -0.02551533
000270 e2 15 93 bd 56 32 d5 bd b1 c3 5c bc 91 ec b4 3c
       -0.07181908 -0.104099914 -0.013474391 0.02208546
000280 76 c0 c0 3d 76 14 89 bd 25 49 ff bd 36 79 c5 3b
       0.09411709 -0.06693356 -0.12465123 0.0060264124
000290 11 96 95 bd 50 e3 95 bd f2 20 b8 3d 6a c7 af bd
       -0.073040135 -0.07318747 0.08990659 -0.08582957
0002a0 65 bf 92 bb 9d df 19 bd 52 96 dd bd 47 a7 04 bd
       -0.0044783824 -0.03756677 -0.10819687 -0.03238609
0002b0 0e b5 24 bc 1a f1 ee bd 7b c9 4a 3c 41 d4 2d 3d
       -0.010052932 -0.1166708 0.012377138 0.04243875
0002c0 6c 07 83 3d 05 62 5d bd 62 ad 8a 3d 58 2c 5b 3c
       0.063979 -0.054048557 0.067713514 0.013377272
0002d0 77 f6 68 bd 19 0e 81 3d 5e 3d 97 bc 78 98 a7 3d
       -0.056875672 0.06301517 -0.01846188 0.08183378
0002e0 cc d7 a1 bd 5c e3 ed ba 6e be ab bd 4b 4b c0 3d
       -0.07902488 -0.0018149423 -0.08385931 0.09389361
0002f0 2f 18 4c 3d e0 53 33 3d 91 03 fb bb 87 76 88 bb
       0.04982775 0.04378116 -0.0076603373 -0.00416452

rnn.bias_hh_l0 f4 [192]
000000 9c 8d 8f bd cb 22 a4 bc c3 83 92 3c e4 3f a1 3d
       -0.07009432 -0.020036122 0.017885095 0.07873514
000010 da d4 68 3d 53 02 d8 3d 1c 0c b5 bd f4 8a 98 bd
       0.056843616 0.10547318 -0.088402 -0.07448378
000020 4a 9d b4 bd 28 80 1e 3d 69 d7 0c 3c ad 6e d4 bd
       -0.08819063 0.038696438 0.00859628 -0.10372672
000030 aa e2 2b 3a dc dc 94 3c 10 a2 17 3d 47 9b 26 3d
       0.0006556908 0.01817172 0.03701979 0.040675428
000040 29 03 8e bc c1 2e 7a bd 08 28 d4 3d 72 e2 e3 3c
       -0.017335491 -0.061079744 0.10359198 0.027817938
000050 d2 53 fd bd f9 df 39 bd 4f 53 41 3d c4 04 60 3d
       -0.12369503 -0.045379613 0.04719859 0.054692045
000060 f6 aa af bd 12 cb a3 3d 38 61 6c bd 0d 37 93 bd
       -0.0857753 0.07997717 -0.057709903 -0.071882345
000070 fe b3 47 bd 41 21 9d bd 82 18 28 bd d8 84 66 bd
       -0.04875564 -0.07672358 -0.041038997 -0.056279033
000080 33 4d a4 bd fc 9d cc bb c5 dc da bd 8e fe 17 3d
       -0.08022537 -0.006244419 -0.1068664 0.037107997
000090 36 3f 18 3a f4 83 32 bc c7 38 e7 bd fb c3 e0 3d
       0.0005807759 -0.010895718 -0.11290126 0.1097488
0000a0 8b 16 a2 3d 00 45 46 bc c7 c0 e9 3c f0 5c f4 bd
       0.07914456 -0.012101412 0.028534306 -0.11931789
0000b0 d1 ce 02 3e 61 a1 de bc 2e b3 07 bc 2a d2 20 3d
       0.12774207 -0.02717656 -0.008282466 0.039262928
0000c0 68 81 71 bd 2d e2 be 3d 16 ed 33 ba 95 9d 52 bd
       -0.058961302 0.09320483 -0.00068636367 -0.051419813
0000d0 76 6c a5 bd 05 7c 55 bb 49 7e 82 3d 63 4c b0 bd
       -0.08077328 -0.0032575142 0.06371743 -0.086083196
0000e0 00 90 cf 3d b7 f9 9d 3d 97 7a 14 bd 0b 9e 87 bd
       0.10134888 0.07713645 -0.036249723 -0.06621941
0000f0 c8 92 d4 bd 20 ea 0c bd 2d 67 df 3d ae 13 ad bd
       -0.10379559 -0.034402966 0.10908351 -0.08451019
000100 fe e8 dc bd c0 2d 3e be d8 c0 a4 bd fb 48 90 bd
       -0.10786627 -0.1857214 -0.080445945 -0.0704517
000110 b0 85 ee 3d 97 47 b3 3d 4e 19 8a 3d 56 3d 97 bd
       0.116465926 0.08753889 0.06743108 -0.07384746
000120 db 59 19 3c 81 a8 3b be bb 4c e1 bb 33 11 5a bd
       0.009359802 -0.18325998 -0.006875602 -0.05323906
000130 2e 7e fc bc 81 88 d5 bd 35 4e 1f bd f6 4b 31 3d
       -0.030821886 -0.10426427 -0.038892943 0.043285333
000140 30 1d f3 bd 0b 95 72 bd 22 cf 30 3d 92 aa 00 be
       -0.118708014 -0.05922417 0.043166287 -0.12565067
000150 e6 97 b9 bd aa eb 06 be 3b bb d3 3d 67 a3 e4 3d
       -0.090621755 -0.13175836 0.10338446 0.11163979
000160 00 5a 29 3d e7 b2 3e 3d e6 9a fa 3d a0 a1 6e 3d
       0.041345596 0.046557333 0.12236576 0.058259606
000170 6a 7b 14 bd 2d da d5 3d 73 37 2e bd b1 87 5d 3c
       -0.03625051 0.10442004 -0.04253335 0.013521121
000180 ff c7 cf 3c 93 64 a3 3c 73 82 47 3d 5e 48 69 be
       0.02536392 0.019945418 0.04870839 -0.22781512
000190 e8 98 34 3d 4a 78 f3 3d f7 4c 83 bc 0a 42 c5 bd
       0.044091135 0.11888178 -0.01602791 -0.096317366
0001a0 6c df f5 3c 5f 34 bb be 02 0d 39 3d d7 26 3c be
       0.030013762 -0.36563393 0.04517842 -0.18374191
0001b0 fb d2 3b bd a9 4e 5e 3d b3 57 e0 3d 76 71 e2 bd
       -0.045855504 0.054274235 0.10954227 -0.11056797
0001c0 43 c6 83 3d 24 4f 01 be 76 d2 a8 3d d0 b6 49 bc
       0.064343 -0.12627846 0.08243267 -0.012311652
0001d0 19 fa 91 3d b7 bf 81 bc 62 5d 3c be 99 ae 8b bd
       0.071277805 -0.015838487 -0.18394998 -0.06820411
0001e0 66 d2 f9 3b 0c 60 6e bd a4 0f 5f be 23 cd cd 3d
       0.0076239584 -0.058197066 -0.2178331 0.10048892
0001f0 05 bd 1b be d2 fa d3 3d 8a fd 64 bd dc 9f 3a be
       -0.15208824 0.103505746 -0.055905856 -0.18225044
000200 b0 e8 03 bd 9c 53 68 bd b3 26 b3 bd d8 d4 0f 3d
       -0.03220433 -0.05672036 -0.08747616 0.035115093
000210 9a a4 bd bd 61 26 9a bc 9c 25 da 3c e6 cc d3 3d
       -0.09259911 -0.018817129 0.026629262 0.10341816
000220 4b 1c fd bd bb c8 e0 bd dc a7 7b bd 08 e5 84 bd
       -0.12358912 -0.10975786 -0.06143938 -0.06488997
000230 31 41 c3 bd 96 26 ee 3c 10 a0 6d 3d 27 3c 4b bd
       -0.09533919 0.029071134 0.058013976 -0.049617913
000240 f2 b4 1a bd 3f 5e e0 3d a1 d5 e7 3d ee f7 f5 bd
       -0.03777022 0.10955476 0.11320043 -0.120101795
000250 03 39 37 bd 8c 61 44 3d 9a dc 83 bd 9a a5 03 3e
       -0.044732105 0.04794459 -0.06438561 0.1285614
000260 35 17 18 bd ce d3 10 3d 38 e9 48 3d 70 49 3c 3d
       -0.037131507 0.035358243 0.04905054 0.045968473
000270 a0 13 76 3d cd dc 10 bd 33 62 e8 3d f7 cb 3c bd
       0.06007731 -0.035366822 0.11346855 -0.046092954
000280 9c 0c d8 3d 19 01 ce bd f3 17 ab bc 34 42 86 3d
       0.1054928 -0.10058803 -0.020885443 0.06555596
000290 ca 48 c1 3b 75 e8 8e bd 75 5c 30 3c 79 f1 29 3d
       0.0058985697 -0.069779314 0.010764231 0.041490052
0002a0 6b ca 83 bc 32 50 a2 bd 5d 86 89 bd fa bb 91 3c
       -0.016087731 -0.07925452 -0.06715081 0.01778983
0002b0 3d b0 85 bd 6f a5 c8 bd 98 df 8e bb de 8a a8 bd
       -0.065277554 -0.09797179 -0.0043601505 -0.08229612
0002c0 26 fa 3f bc c1 03 9c 3c 33 7b f1 3c 28 cb b0 bc
       -0.011717355 0.019044759 0.029477691 -0.021581247
0002d0 2c 24 c6 bd d2 e0 4c bd fc 98 37 3d a2 4e 7d bd
       -0.09674868 -0.050019093 0.04482363 -0.06184257
0002e0 df 6c ec 3d c4 03 72 3d 44 12 8e 3c 59 de 6d bc
       0.11544203 0.059085622 0.017342694 -0.014518344
0002f0 eb b4 09 bd 8c 76 14 bd fe a8 2a 3d ac 32 a9 bd
       -0.033619802 -0.036245868 0.04166507 -0.08261618

rnn.weight_ih_l1 f4 [192, 64]
000000 1a 50 bd 3c 70 31 c2 bc e1 19 0a bd 41 b4 db 3d
       0.023109484 -0.023705214 -0.033716086 0.1072774
000010 21 61 39 3d 10 da ae bd 0a 7e b8 bd 63 99 ae bd
       0.045258645 -0.08537686 -0.09008415 -0.0852535
000020 a8 93 8f 3d 08 f7 f4 3d 2e cb 4d 3c 78 bf a9 3d
       0.07010585 0.1196118 0.012560649 0.08288473
000030 f8 3e 42 3c 2f ed 0d 3c e3 a1 da 3d dc c0 ae 3c
       0.011855833 0.008662506 0.10675409 0.021332197
000040 37 28 cc 3d f7 d1 14 3c dc 6b 9a 3d a4 d5 94 bd
       0.09968608 0.009083263 0.07540104 -0.07267311
000050 e3 68 fb bd 5c 16 d2 bd b3 f3 ec bd 30 0c e0 bd
       -0.12275865 -0.10258171 -0.115699194 -0.109398246
000060 c7 3e d1 3d 6e 38 7e 3d 57 95 00 bd e5 4e e3 3d
       0.10217052 0.062065534 -0.03139242 0.11099032
000070 6e 8a a4 bc 5b 74 9d bd 36 85 e9 bc 3c 25 ef 3d
       -0.02008554 -0.07688209 -0.028505903 0.11677024
000080 12 15 d2 3d c1 5c d7 bd ef 88 a7 bd 18 e4 fe bd
       0.10257925 -0.10515738 -0.08180415 -0.12445849
000090 3d c2 1d bd 04 fa 87 bd b8 85 c0 3d ef de 6d 3d
       -0.03851532 -0.066394836 0.09400505 0.058073934
0000a0 89 3c c3 3d 6c 09 bb 3c 16 64 76 bc db df ef 3c
       0.095330305 0.022831641 -0.015038511 0.029281547
0000b0 d3 ad 18 3d 2c 02 86 3d e7 56 03 bd 2f 2a 3b bd
       0.037275147 0.06543383 -0.0320653 -0.045694526
0000c0 ec 57 f0 3b 7b 9b 8b bd e9 59 de bd 5f 73 5d 3c
       0.0073347 -0.06816765 -0.10856993 0.013516276
0000d0 a6 99 ed 3d 91 b3 d2 bc 97 a2 96 3d d1 be a2 3a
       0.11601572 -0.02572039 0.0735523 0.0012416487
0000e0 45 90 9e bd 4d 76 e0 bd af ac 5a 3d 94 ef 35 bd
       -0.07742361 -0.10960064 0.05338734 -0.044417933
0000f0 7b da c3 3d 49 a5 61 3b 5d a1 a4 bd e2 fa b3 bd
       0.09563156 0.0034430793 -0.0803859 -0.087880865
000100 8e 61 cc bc 0b 02 42 3c 23 0e b5 3d f7 22 d5 bd
       -0.024948861 0.011841307 0.08840587 -0.1040706
000110 64 e2 c5 bd 9e 7e 2e 3d ab 9f e5 3c 89 0b e1 3d
       -0.09662321 0.04260122 0.028030237 0.10988528
000120 4e 1c ef bd aa 9a f3 bd 31 79 5d 3d 4b f4 fe 3d
       -0.116753206 -0.11894734 0.054070655 0.12448939
000130 f7 3e 5f 3d 77 83 98 3d d8 b9 94 bd c8 36 2c bd
       0.054503407 0.0744695 -0.072620094 -0.04204443
000140 96 6a fb bc d4 4d 57 bd 58 fa 33 3d 9b e0 be 3d
       -0.030690473 -0.052564457 0.04393992 0.09320184
000150 a5 20 a0 bd 52 52 6e bd 77 5f 74 3d 19 35 96 bd
       -0.078187265 -0.058183976 0.059661355 -0.07334346
000160 62 52 c0 3b 08 d5 48 ba 03 42 b4 3d f9 2c 80 bd
       0.005869196 -0.00076611387 0.08801653 -0.06258578
000170 bd fd 5a 3d 13 e2 a7 bd 95 98 a5 bb 05 bd a6 3d
       0.05346464 -0.08197417 -0.0050535896 0.08141521
000180 f1 03 48 3d ab f4 c2 bc c7 b8 6c 3d 62 b2 b7 3d
       0.048831884 -0.023798307 0.057793405 0.08969571
000190 00 c1 8e bd 72 e7 71 bd d1 a3 8e 3d a5 ac df 3d
       -0.069704056 -0.059058614 0.06964839 0.10921601
0001a0 a0 26 9e 3d 75 18 c1 3d 7b 0a 8c bc 3b 0d c1 bd
       0.07722211 0.09428493 -0.017094841 -0.09426352
0001b0 8b 60 e7 bd e5 1e fc bd ee 97 ca 3c f0 25 f3 bd
       -0.11297711 -0.1231058 0.024730649 -0.118724704
0001c0 8d 52 a0 3d f2 d2 ee bd 7a 22 e7 bd d4 38 7b 3d
       0.07828245 -0.116613284 -0.11285873 0.061333492
0001d0 e2 3b 03 bb d5 5b ae bd 01 e3 94 3d 27 f2 96 3d
       -0.0020024707 -0.08513609 0.0726986 0.07370406
0001e0 32 c5 24 bd 56 d5 b2 bd 7c 98 39 3d a9 4f a5 bd
       -0.040227123 -0.08732097 0.045311436 -0.080718346
0001f0 40 78 a9 3d 68 bd b2 3d b8 78 ff 3d fb eb fb bd
       0.08274889 0.087275326 0.12474197 -0.12300869
000200 4d 40 81 bd c7 d0 b2 bd 37 03 f2 3d b1 38 14 bd
       -0.063110925 -0.08731227 0.118170194 -0.036186878
000210 c7 fc 62 3d f0 40 b6 3d 7e 32 db bd 13 90 7b 3c
       0.05541685 0.088991046 -0.1070299 0.015354174
000220 ef 67 ed bd 47 45 13 bd bc 81 d3 bd f4 a5 eb 3d
       -0.115920894 -0.03595474 -0.10327479 0.115062624
000230 d8 92 92 3d 9d e1 c2 bc c8 e1 8a bc 04 f7 9e bd
       0.071569145 -0.023789221 -0.016953364 -0.07761958
000240 f2 63 6d bd fe 74 8f bd 47 64 89 3d d1 f9 f0 3d
       -0.057956643 -0.07004736 0.067085795 0.11766399
000250 5e 7a 3d 3d 87 39 a8 bd 80 45 6d bd a3 8d 28 3d
       0.046259277 -0.082140975 -0.05792761 0.0411507
000260 49 7a ee bd 04 c0 98 bd 71 55 e8 bd 22 2f 03 be
       -0.11644418 -0.07458499 -0.11344422 -0.12810948
000270 ef 82 50 bd 4c ee df 3d 5c 0d e9 bc 37 c9 b1 3d
       -0.050906118 0.109341234 -0.028448753 0.08680957
000280 b3 5a 84 bd c7 68 67 bd b0 55 8f 3d 48 fd d3 3b
       -0.06462612 -0.056496408 0.069987655 0.0064694025
000290 1f a4 40 3d ac 76 cd 3c aa 4e c9 bc 5a 26 73 bd
       0.047031518 0.025081001 -0.024573643 -0.059362747
0002a0 d3 3f 96 3d 26 c1 a9 3c e6 7f cb 3d 80 e5 0c 3d
       0.07336392 0.020721983 0.09936504 0.034398556
0002b0 49 28 07 bd 2e be d0 bd 29 72 16 3c a7 c6 94 bd
       -0.032997403 -0.10192524 0.009182491 -0.072644524
0002c0 ce f3 ed 3c 72 97 ac bc b7 f2 d3 bd 3c 27 37 bc
       0.02904692 -0.021068309 -0.103490286 -0.011178788
0002d0 b1 43 0b 3d 60 b4 ed 3d 72 a7 58 3d c1 75 c0 3d
       0.034000102 0.116066694 0.052894063 0.0939746
0002e0 e9 71 f4 bd 87 3c 90 3a f7 58 be bd c4 a0 a6 3d
       -0.11935789 0.0011004367 -0.092943124 0.08136132
0002f0 2a 73 5c bd ae 8d 3f bd ba ee aa bd 3f d6 c1 3d
       -0.053820767 -0.046765976 -0.08346315 0.09464692
000300 eb c3 75 3d b0 9d 40 bc b8 57 88 bd 96 ea 13 3c
       0.060001295 -0.011756346 -0.06657356 0.009028098
000310 22 ec d5 3d 10 ca c6 bd 4a 28 e6 3d e6 29 8c 3d
       0.104454294 -0.09706509 0.11238153 0.06843929
000320 ac 55 b3 3c 20 d5 18 bc c6 f1 6c bd da 08 fc bd
       0.021891437 -0.009328157 -0.05784776 -0.12306376
000330 67 45 92 bc 6b 6e ac 3d 19 ee 05 3d a1 5e 36 3b
       -0.01785536 0.08419498 0.03269777 0.00278274
000340 4b 65 ac 3d ed 67 ef bd 6b ae 83 3b cc c0 c0 3d
       0.084177576 -0.11689744 0.004018595 0.09411773
000350 10 73 0f 3d a5 b0 90 3c f8 f3 26 3d b2 da b6 bc
       0.03502184 0.017662356 0.04076001 -0.022321079
000360 97 9a 0d bb aa ea d5 bc b5 81 16 bd 5d 0c 9a 3b
       -0.0021607035 -0.026112873 -0.036744792 0.004701181
000370 82 71 87 bd 6b 31 ed bd 6a b8 c4 3d dc 7b 8c bd
       -0.06613447 -0.11581691 0.09605487 -0.06859562
000380 24 97 19 bd 58 c2 71 3d 64 d9 03 3d 63 60 98 bc
       -0.037497655 0.05902323 0.03218974 -0.018600648
000390 52 da 7a bd 59 a4 05 3d 54 33 b3 3d 78 83 c1 bd
       -0.061243363 0.032627437 0.087500244 -0.09448904
0003a0 c4 8a 84 3d de 59 a7 3d e7 c5 cf 3c 02 db f1 3d
       0.0647178 0.08171438 0.025362922 0.118093506
0003b0 c8 5a 18 3d a3 b5 fc bd 49 83 a3 bc d6 04 b5 bd
       0.03719595 -0.12339332 -0.019960063 -0.08838813
0003c0 b7 e4 76 3d 11 16 71 3d 9c 71 db 3d df bd 02 be
       0.060276713 0.058858935 0.10715029 -0.12767743
0003d0 63 6e 23 bc 7b b1 22 3d 18 1c a7 bd c0 cb 12 3d
       -0.009975049 0.03972004 -0.08159655 0.035838842
0003e0 73 15 0f bd 88 2c 9d bd 89 63 ed 3d 05 5f 83 3d
       -0.034932565 -0.07674509 0.115912504 0.06414608
0003f0 68 e1 7e bd cc d6 ec bd 9f c1 a6 bd 11 f5 07 bd
       -0.062226683 -0.11564407 -0.08142399 -0.033192698

rnn.weight_hh_l1 f4 [192, 64]
000000 6d 32 38 3d 1b 1b 1a 3d 67 94 f1 bc c7 fc d0 bc
       0.044969965 0.037623506 -0.029489709 -0.025511159
000010 7b 01 b1 3c d0 3f 8b bd 70 34 08 bd bf 77 d2 bd
       0.021607151 -0.06799281 -0.033253133 -0.10276746
000020 e3 b0 4b 3d b8 fb 30 3b 9f ba 52 3d 81 0e 36 3a
       0.04972924 0.0027005505 0.051447507 0.000694491
000030 28 4e 89 b9 66 5e 0d 3d c7 cc da bc 41 d3 37 3d
       -0.00026188907 0.034513853 -0.026708974 0.0448792
000040 52 ab b7 bd 54 21 9a bd 04 5f 8b bd 32 04 8b bd
       -0.08968224 -0.07525888 -0.06805232 -0.067879096
000050 1d ca c9 bd e0 45 9c bd 83 9d 3e bd c4 f4 b6 bd
       -0.09853003 -0.07630515 -0.046536934 -0.08933404
000060 bc 7c 52 3d 08 dd 68 bb 46 e2 b7 bb f7 07 be 3c
       0.051388487 -0.0035532136 -0.0056116907 0.023197157
000070 4e 73 50 bd de c7 c7 3d 58 c8 c0 bc 96 4d bf 3d
       -0.050891213 0.097549185 -0.023533031 0.0934097
000080 70 47 13 3d e1 fa a6 3d 65 f4 9a 3d cb 32 14 3d
       0.0359568 0.0815332 0.07566146 0.036181252
000090 01 57 b4 3d 99 7f 48 bd d0 38 85 bd db 6a 8e bd
       0.08805657 -0.04894981 -0.06504977 -0.06953975
0000a0 60 1f d3 3d 2f cc fb 3c 9b 92 a0 bd 9e be f7 bd
       0.10308719 0.03073701 -0.07840463 -0.12096904
0000b0 f9 bd 7f 3d bd ec ce 3d ad 5d 95 bd c2 dc 9a bd
       0.06243703 0.10103748 -0.07293258 -0.075616375
0000c0 5b 0e f8 3d 71 79 da bb 0e 9b be 3d 62 47 b4 bc
       0.12112113 -0.006667309 0.09306918 -0.022006694
0000d0 5b 7b 77 3c 76 6c f7 3d 8b 50 5e 3c f3 07 9d 3c
       0.015105094 0.12081234 0.013569008 0.01916883
0000e0 1d ce ca bd 09 ea 13 3c 60 40 da bc 4f ea 8c 3d
       -0.09902594 0.009027966 -0.026642025 0.06880628
0000f0 a1 8e 72 bd 9e 6c 48 bd de 9d 7a bd f2 a8 c4 bd
       -0.059218053 -0.04893171 -0.06118571 -0.09602536
000100 ea a0 c5 bd 28 10 a0 3d ae c5 53 3c f3 a5 bf 3d
       -0.096498325 0.078155816 0.0129255485 0.09357824
000110 b4 f0 dc bd c8 db ba 3c e4 67 cc 3d 1a 51 01 be
       -0.10788098 0.022809878 0.09980753 -0.12628594
000120 5c be 94 bc b3 3f fd 3c 9d 8a 30 bc c8 5d 8e 3d
       -0.018157177 0.030914163 -0.0107752355 0.06951481
000130 4a 94 c8 3d 5c db 8b bd 74 f5 12 3c f5 de e9 bd
       0.09793909 -0.06828949 0.008969653 -0.11419479
000140 cd 49 65 bd 2c b4 4b bd 24 8e 5c 3c c6 b8 69 3b
       -0.055978585 -0.049732372 0.013461623 0.0035663112
000150 c9 e6 54 3d d1 9d cc 3c a0 97 70 3d ce cc 38 bd
       0.051977906 0.024977596 0.05873835 -0.045117192
000160 c9 11 31 bd d5 b1 b3 bd c4 b8 ec bd 4a 04 1c bd
       -0.043229852 -0.08774153 -0.11558679 -0.038090028
000170 70 2b e5 bc 2d 94 da b9 c1 62 d3 bd 45 ee 7a bc
       -0.027974814 -0.000416906 -0.1032157 -0.015315597
000180 e4 2d 31 bd 85 66 f3 bd ba bd c8 38 b9 0b 83 bd
       -0.043256655 -0.118847884 9.5720825e-05 -0.0639872
000190 5b 09 68 bd 73 74 b3 3d 73 6f 87 3d 59 24 c6 ba
       -0.056649547 0.08762445 0.06613054 -0.0015117034
0001a0 2c f6 d4 bc dd 88 f7 bd 78 82 8e 3d 28 5a 85 3b
       -0.02599629 -0.120866515 0.06958479 0.0040695854
0001b0 08 99 53 3d 40 fe 85 3d 50 b1 79 bd 6e c9 4f bd
       0.051659614 0.06542635 -0.060960114 -0.050729208
0001c0 65 34 08 bd 3a 2b 3a bd c0 a9 f2 3d a6 9e 77 3d
       -0.033253092 -0.04545138 0.118487835 0.060454033
0001d0 b6 81 68 bd 55 8a d6 bd 47 6a c4 3d fb 77 08 3e
       -0.056764327 -0.104756035 0.09590583 0.13327019
0001e0 d8 e9 7c 3d 48 97 e8 bd 44 07 e2 3d ee 98 29 3d
       0.06174645 -0.113569796 0.11036542 0.04140561
0001f0 ad 99 d9 3d 55 7f 27 3d d0 d8 0a bd 31 51 ee 3c
       0.106250145 0.040892918 -0.033898175 0.02909145
000200 f4 a4 a8 3d eb 7b 94 3c 2f 81 ae 3d 48 5a 65 bd
       0.08234587 0.018125495 0.085207336 -0.055994302
000210 f1 50 ac bd 62 d1 4e bd 18 bd 75 3d e3 20 9b bc
       -0.08413876 -0.05049265 0.059994787 -0.01893658
000220 22 84 b8 3b 5f ca bd 3c 12 f0 e6 3d 9a f9 92 bd
       0.005630986 0.023167787 0.112762585 -0.07176514
000230 dd 96 c6 bd a6 07 11 bc 86 4e 8d 3c 7a 84 08 bd
       -0.09696744 -0.008851921 0.017249357 -0.033329464
000240 f4 a7 f4 3d 6d ed 1d bd 02 7f 41 3d df fc 99 bd
       0.11946097 -0.038556505 0.047240265 -0.075189345
000250 00 ba 7b bd 64 4b ba bd 62 05 3d bc b2 db b0 3d
       -0.06145668 -0.09096411 -0.011536928 0.086356536
000260 36 d6 c1 bd 1d c5 e8 bc d6 c1 02 bd a9 ab 44 bd
       -0.094646856 -0.028414303 -0.031923138 -0.04801527
000270 09 c8 a6 3d 7a 3a 84 bd 6b e1 00 3e bc ec 08 3d
       0.081436224 -0.06456466 0.1258599 0.033428892
000280 33 fe 40 3c 39 d0 a8 bc c1 cb 61 bc fb a9 9c bc
       0.011779356 -0.0206071 -0.013781489 -0.019124022
000290 c5 b9 39 bd 3e f6 da 3d d4 31 8d 3a 70 08 f6 3c
       -0.04534318 0.10691498 0.0010772296 0.03003332
0002a0 85 f5 c4 3d b6 72 bf bd 17 cf 07 3e f4 98 75 3d
       0.09617142 -0.09348051 0.13262592 0.05996032
0002b0 4d 14 ca 3c 34 38 bb 3d 3f 7f 85 3d f9 ef 32 bc
       0.024667883 0.09141579 0.06518411 -0.010921472
0002c0 02 3f 95 3d 9e f6 02 be 79 3e 0b 3b 14 35 48 bd
       0.072874084 -0.1278939 0.0021246953 -0.048878744
0002d0 db 7c 93 3d 31 5c a8 bd 3f ec 23 3d aa 16 e0 3d
       0.07201549 -0.08220709 0.040020224 0.10941823
0002e0 73 84 8d bd 5a 3f b0 3d a7 48 94 bd 78 44 dd 3d
       -0.06910028 0.08605833 -0.0724042 0.10804075
0002f0 c3 98 05 bd d2 ec 96 3d 82 79 c5 bc ef 86 d8 3c
       -0.032616388 0.07369389 -0.024105791 0.026431529
000300 d3 b1 50 3d fe 64 c7 bb 58 18 ed bc a5 91 2d bd
       0.050950836 -0.0060850373 -0.028942272 -0.042375226
000310 4c c4 d5 bd 4f a7 90 3d ef 8c 8b 3d 1b 2e 97 3d
       -0.10437831 0.070631616 0.0681399 0.07381841
000320 ba 7f 02 3d 3b 69 2a 3d 34 05 0e 3d a6 e7 b5 3d
       0.03186009 0.04160426 0.03467293 0.08882074
000330 aa cd ba bd 56 9a 94 bd 8e 84 c8 3d 01 2f a3 3c
       -0.091212586 -0.07256 0.09790908 0.019919874
000340 84 8f 28 bd b6 de c9 bb d8 e8 d4 bd 8a 02 fe 3d
       -0.041152492 -0.0061605824 -0.10395974 0.12402828
000350 1e c2 31 3b 3e 8a 88 3c c5 75 c1 bd 9d ee c5 3c
       0.002712376 0.016667482 -0.09446291 0.024161631
000360 68 f4 a8 bd 8d 89 af bd df ad dc 3d 0b 83 86 bd
       -0.08249742 -0.085711576 0.10775351 -0.06567963
000370 82 52 ab 3d fc c4 7b bc c2 16 90 3d 28 3c 3f 3d
       0.083653465 -0.015366789 0.07035591 0.04668823
000380 19 ee f2 3d f4 10 ba bd 09 59 ee 3d 81 67 b4 3d
       0.1186182 -0.09085265 0.11638076 0.08808804
000390 3a c7 af 3d 5a c5 9e 3d 7f 92 74 bd 97 60 88 bd
       0.08582921 0.077524856 -0.059710022 -0.06659048
0003a0 75 3a 31 3d de 22 ea bd fa 37 56 3c 90 78 f9 3c
       0.04326864 -0.11432432 0.013074869 0.030452996
0003b0 85 2d dc 3d 51 ff 50 bd 47 3e 8a bd 19 d2 b8 3d
       0.1075087 -0.05102474 -0.0675016 0.09024448
0003c0 89 1d 26 3d d0 7e c2 3c 40 d3 6e 3d 45 0c 42 bd
       0.04055551 0.02374211 0.058306932 -0.047374982
0003d0 b3 fc f1 bc bd 7a 9d 3d e6 7e be bd 1b 3e e6 3d
       -0.029539442 0.07689426 -0.09301548 0.112423144
0003e0 16 f5 a4 3c bd 18 0b 3d 5f 50 a1 bc 42 15 89 bd
       0.020136397 0.03395914 -0.019691644 -0.06693508
0003f0 a3 f4 ca bd a1 5b 95 bb f9 4d c9 3d 0c a2 90 3c
       -0.09909942 -0.004558042 0.09829325 0.017655395

rnn.bias_ih_l1 f4 [192]
000000 fc 3b cc 3d 71 91 e9 3d 55 63 45 3d d4 20 46 3d
       0.099723786 0.11404694 0.048190434 0.04837115
000010 6c b9 4c bd 89 73 87 3d ca d9 5f bb 11 2b d4 3d
       -0.04998152 0.066138335 -0.0034156912 0.10359777
000020 35 d1 b7 bd 23 c4 ae bb 67 24 82 bc 63 9c 9b bd
       -0.0897545 -0.00533344 -0.015886499 -0.07598188
000030 85 c0 36 bd ab f8 de bd c1 a3 86 3c 09 8f c0 bc
       -0.044617195 -0.108872734 0.016435506 -0.023505704
000040 1d 4d bf ba 45 52 aa 3d ce dc ba 3d 65 95 dc bd
       -0.0014595125 0.08316473 0.091241464 -0.10770682
000050 38 e1 8b bd 25 4b 40 3d 6b 15 58 3d f9 f8 5b 39
       -0.068300664 0.046946663 0.0527548 0.00020978217
000060 49 a6 7a 3d 7f 1c 8a bd fd a8 d8 bd e9 2c ce 3d
       0.061193738 -0.067437164 -0.10579107 0.1006716
000070 3f 0a a6 bd a5 17 6b bd a0 43 44 3d 56 2e 9c bd
       -0.08107423 -0.057395596 0.047916055 -0.076260254
000080 c9 a6 c9 bd 60 de d9 bc 6e 58 93 bd fc 48 b2 3c
       -0.09846265 -0.026595294 -0.07194601 0.021763317
000090 a7 1f 7c 3d ee e3 75 bd 6b 36 d5 3d f1 d6 99 3c
       0.061553624 -0.060031824 0.1041077 0.01877925
0000a0 30 61 b0 bd a9 41 56 3d 17 7e db bd 2e 3f a5 3c
       -0.08612287 0.052308712 -0.10717409 0.020171728
0000b0 9a 94 5d bc 5e 32 23 be 25 2a 95 bd 59 d9 6a 3d
       -0.013524199 -0.15937182 -0.07283429 0.057336185
0000c0 0e 4e c3 bc 9f 1b cb bd d2 87 0c bb da b3 ec bc
       -0.02384093 -0.09917378 -0.002144326 -0.028894354
0000d0 42 2b 1e bc 17 f4 d9 3c 58 a0 a1 bd b9 f0 7b 3d
       -0.009653868 0.026605649 -0.07891911 0.061508868
0000e0 b2 58 23 3d 74 19 b5 3d 8d 6a 84 ba bb a8 e2 bc
       0.03987951 0.088427454 -0.0010102555 -0.027668348
0000f0 2e 92 ad bd d6 8e e8 3b 77 dd 91 3d 68 75 64 3d
       -0.08475147 0.0070971055 0.07122319 0.05577603
000100 28 f4 b6 bd 63 ff f3 3d 6c 7c 23 be 93 39 82 be
       -0.08933288 0.119139455 -0.15965432 -0.2543455
000110 ee 35 85 3d 9b f3 eb bd fe 47 62 be f6 0e 01 be
       0.06504427 -0.115210734 -0.22097775 -0.12603363
000120 80 17 68 bd ab a0 f4 3c 49 c5 6b bb 03 6d 15 be
       -0.056663036 0.029861769 -0.0035975745 -0.14592366
000130 e6 c3 39 bd f0 c8 31 3e cc 35 8d 3d 42 a0 e9 3c
       -0.04535284 0.17361808 0.068950266 0.0285188
000140 cd bc 3c bd 0f 06 e2 3d 4d be 19 3d 18 bd 45 bd
       -0.046078492 0.11036312 0.037535 -0.048276037
000150 96 d5 65 be fb 3b 22 3d 1f 95 e8 bc 3d be f4 bd
       -0.22444758 0.039607983 -0.028391419 -0.119503476
000160 8e a5 86 bd 42 22 2d be d8 b3 f8 bd 86 cf d9 bd
       -0.06574546 -0.169076 -0.121436775 -0.10635285
000170 cf 03 b2 3d 7a 5b 90 bd 87 86 df bc d0 a1 84 ba
       0.08692133 -0.07048698 -0.027285827 -0.0010119025
000180 d7 5e bf 3d 75 a0 5a 3c 01 c4 6f 3d 3f 2c b1 3d
       0.09344261 0.01334392 0.058536533 0.086510174
000190 a7 e5 04 be b6 e2 3e 3d ff 28 b6 3d aa 3a c0 bc
       -0.1297823 0.046602927 0.08894538 -0.023465473
0001a0 6c 57 93 3d c0 29 d6 3c 17 d7 e6 3d ae dc 9c 3d
       0.07194409 0.026142955 0.11271494 0.07659279
0001b0 c9 86 23 bd 43 f4 96 3d bf 33 90 bd 91 77 d2 bc
       -0.039923463 0.07370808 -0.0704112 -0.02569178
0001c0 ba 47 b0 3d 7c c4 1c bd ae be 89 bd ba bd 96 3d
       0.08607431 -0.03827332 -0.067258224 0.07360406
0001d0 2e 9b 39 be f8 2a 69 be 01 62 97 3d d8 aa 93 be
       -0.18125603 -0.22770298 0.0739174 -0.2884128
0001e0 d3 e9 e9 bd 6a bd 8c 3d a3 12 91 bb 3e 76 3d be
       -0.114215516 0.06872065 -0.0044272705 -0.18502137
0001f0 7e 3b 03 3e 92 51 ce bc 6e 0d 98 3d 63 dc 10 be
       0.12815663 -0.02518538 0.074244365 -0.14146571
000200 bb 73 dd bd 78 b6 bb 3d 06 7c df bb bd 5e 28 bd
       -0.108130895 0.091656625 -0.0068202047 -0.041105974
000210 ac 29 e5 bd 41 b7 61 bd 97 5c 5c bd b1 cf e1 3d
       -0.11189589 -0.055106405 -0.053799238 0.11025942
000220 16 81 b3 bd 23 56 99 bd f7 fb d0 bd 18 28 81 3c
       -0.087648556 -0.074871324 -0.102043085 0.015766189
000230 fb f3 da 3d bd d9 fd 3d d6 b5 15 bd e5 de 46 bd
       0.10691067 0.12395046 -0.036550365 -0.048552413
000240 b9 73 b4 bd 85 e2 cd 3d e9 22 81 bc af b0 f0 3c
       -0.08811135 0.10052971 -0.015763717 0.029381124
000250 51 7c d7 bd 7a f4 75 3d 3b 98 43 3d 11 05 ff 3c
       -0.10521758 0.060047604 0.0477526 0.031130346
000260 b8 03 27 bc f2 cc 9f 3c 78 b3 26 3c ef e2 8d 3c
       -0.010193758 0.019506905 0.010174625 0.017320124
000270 c1 29 fc bb b2 a3 9a 3d a1 fe 1a 3d af 6c 4c 3d
       -0.007695407 0.07550754 0.03784049 0.049908336
000280 32 1c 8e 3c dd 99 c8 ba 6f b7 74 bc 52 fa 92 3d
       0.017347429 -0.0015304644 -0.014936312 0.07176651
000290 c3 2a 4e bc 60 3f b7 3d 42 6b 45 3d ea 49 0d bd
       -0.012583437 0.08947635 0.048197992 -0.034494318
0002a0 a7 e4 a2 3b b6 4b 56 bd 4c 3c b7 3b 5f 4c f6 bd
       0.004971105 -0.052318297 0.0055919047 -0.120262854
0002b0 86 af bf 3c 47 ae 81 bd 6a 5b 47 3d 34 6c 8c bd
       0.023399126 -0.06332069 0.048671164 -0.068565756
0002c0 75 97 44 bd 5e 80 a7 3c 22 8f a9 3d 9a bc 88 3d
       -0.047996003 0.020446952 0.082792535 0.06676598
0002d0 eb 32 ea 3c 56 f4 0b 3d fb f3 f3 bd 81 ec 89 bd
       0.028588733 0.034168564 -0.1191177 -0.06734563
0002e0 66 45 9a bc fd aa 00 3d a8 0d c8 bd 48 b8 d5 3d
       -0.01883192 0.031413067 -0.0976823 0.104355395
0002f0 c8 9f e2 3d 50 5e 61 bd fa b1 78 bd 55 fc 2a bc
       0.11065632 -0.055021584 -0.060716607 -0.010436137

rnn.bias_hh_l1 f4 [192]
000000 1f 8b ad 3c a7 0d d9 bc be 7b b1 bd 5a 12 d0 bd
       0.021184502 -0.026495768 -0.0866618 -0.1015975
000010 98 30 6b 3d 18 ec 60 bd 08 9a 56 bd 3b 3d e9 3d
       0.05741939 -0.054912657 -0.05239299 0.11388632
000020 0d e0 d2 bc c0 6b e8 3c 3b 6b a0 bd 3b 8a c1 bd
       -0.025741601 0.028371692 -0.078329526 -0.094501935
000030 41 d8 14 bd 49 79 7c 3d f0 c4 7f 3d c6 2a ba 3d
       -0.03633905 0.061639104 0.062443674 0.0909019
000040 9d 11 8b bd 65 7d e6 3c 0c 70 bf 3d 19 a8 d4 bd
       -0.06790469 0.028135965 0.09347543 -0.103836246
000050 00 0b a3 3d db 39 17 bd 8b 89 9c bd 1d 0e ff bc
       0.079610825 -0.03692041 -0.07643422 -0.03113466
000060 e2 06 b4 bc 6d ac f3 3d 57 5a 90 3d 36 8b ac ba
       -0.021975938 0.11898122 0.07048481 -0.0013164047
000070 a9 ed 6a 3c eb d9 2b 3d 1a 2e b9 bc 64 43 b3 bb
       0.014338889 0.04195587 -0.02260499 -0.00547068
000080 7b 49 99 bd f2 dc 5e bd e2 58 b1 bd 6c 83 de 3c
       -0.074847184 -0.05440993 -0.08659531 0.027162276
000090 fa d0 bc 3d 3e e9 4d bd 53 2b b1 bd 2d a5 9e bd
       0.092195466 -0.050271265 -0.086508416 -0.077463485
0000a0 9d 33 bf bc 57 fc 2a bd 09 6c c8 3c 9b 90 cd 3d
       -0.02334004 -0.041744556 0.024465578 0.10037347
0000b0 16 98 63 3d 9c 02 71 3d cc 89 39 bd 04 e3 58 bc
       0.055564962 0.05884038 -0.04529743 -0.0132377185
0000c0 4c f6 c6 bc 49 38 80 bd 4e b9 0f bd f3 4c 9d bd
       -0.024287365 -0.062607355 -0.03508883 -0.076806925
0000d0 e1 77 c9 bb 4c 42 f7 3d 70 e2 d2 3d 45 77 ca bb
       -0.006148324 0.12073192 0.10297096 -0.006178769
0000e0 51 b4 81 bd 6f 52 a0 bc 09 01 9d bc 45 df 82 3c
       -0.06333221 -0.019570557 -0.019165533 0.015975604
0000f0 22 f1 c5 3d a6 7b fa bd 38 81 74 3d 74 a3 72 3d
       0.09665133 -0.12230615 0.059693545 0.059237912
000100 ba c8 88 bd 80 ce 0c 3e 44 bd de 3c 99 37 43 be
       -0.066789106 0.13750648 0.027189858 -0.19064178
000110 2c 6e 6b 3d 0c 00 06 be f0 c4 7c be c4 ab ae 3d
       0.057478115 -0.13085955 -0.246845 0.085288554
000120 0c 75 fd 3c c1 77 08 3c 32 e1 61 bd 75 f1 2a be
       0.030939601 0.008329333 -0.055146404 -0.16693671
000130 bd 79 64 3d ed fa 85 bb 86 c1 a0 3d 51 9c c4 bc
       0.05578016 -0.0040887506 0.07849412 -0.024000319
000140 f0 8a b0 bc 51 2d e6 3d 63 f7 a0 3d 58 65 43 3d
       -0.021550626 0.11239112 0.07859685 0.04770407
000150 1e 0c e1 bd a5 67 18 3e be f2 90 bc e5 13 ec bd
       -0.10988639 0.14883287 -0.017693873 -0.11527232
000160 2f 55 21 bb e2 a1 14 be b2 fa 7c 3d e8 5d 91 bd
       -0.0024617424 -0.14514878 0.06176252 -0.07097989
000170 f3 74 c2 3d 06 74 0a be 2f be 29 3c 60 f2 1e 3d
       0.094949625 -0.13520822 0.010360285 0.038805366
000180 71 fc 90 bd 0b 74 3f 3c aa 1b ea bd 27 aa bc 3d
       -0.070793994 0.011685382 -0.11431058 0.092121415
000190 f3 5c 0b be 56 98 de 3c cd fe 3b 3d 4d 86 20 be
       -0.13609676 0.027172249 0.045897294 -0.15676232
0001a0 38 a1 94 3d 54 2f 30 bd c3 e0 e3 bd 5f e2 06 3d
       0.072573125 -0.043013886 -0.11126854 0.032930728
0001b0 32 be cc 3d ba 12 0a 3d a7 de 38 be 44 84 06 3d
       0.099972144 0.033709265 -0.18053685 0.032840982
0001c0 76 09 9c 3c fb c3 0a bb 84 a0 02 3e 57 11 44 bd
       0.01904748 -0.0021173942 0.12756544 -0.0478681
0001d0 f2 f1 78 bd 0b 62 24 be 87 f3 c7 3d 2e 24 ae bd
       -0.060777612 -0.16053025 0.09763246 -0.085029945
0001e0 85 60 61 bd e2 35 5a bd eb 10 a9 bd c1 3b 80 be
       -0.05502369 -0.053274043 -0.0825518 -0.2504559
0001f0 68 d0 d0 bc 9b c9 12 bc 03 0e bb 3c 09 3c 55 3b
       -0.02549 -0.008959199 0.02283383 0.0032537004
000200 71 a5 be 3c 8f 53 51 bd 6e bb 81 bc b5 b1 e8 bd
       0.023272248 -0.05110508 -0.015836444 -0.1136202
000210 49 f1 3e bd 8a c6 95 bd 9f 0c 90 bd 55 f8 97 bd
       -0.046616826 -0.07313259 -0.07033657 -0.074204125
000220 93 12 c1 3d 59 3b c3 bc 3b 2c e2 bc e8 ed 49 bd
       0.09427371 -0.02383201 -0.027608981 -0.04929915
000230 de 71 7b bd be 1e 7e 3b 2f 05 51 bd de de d6 3d
       -0.06138789 0.0038775648 -0.051030334 0.10491727
000240 2d 93 48 3b 67 eb cb 3d 50 25 6e bc 1c a3 b5 3d
       0.0030605302 0.09957009 -0.014535263 0.08869001
000250 59 67 1c bd 22 99 df bd f6 75 a8 3d 0f 30 c2 3d
       -0.038184498 -0.1091788 0.08225624 0.09481823
000260 49 b6 b0 3d 3a e4 f7 bc f3 79 bf bb 31 c0 89 bd
       0.08628518 -0.030260194 -0.005843395 -0.06726111
000270 9f 79 4e bc b1 ba 84 3d 47 be a2 3a 78 e0 d1 bd
       -0.012602239 0.06480921 0.0012416326 -0.10247892
000280 4b 82 a6 bd e1 aa 61 3a 64 9a ae bc 91 7d c1 bd
       -0.0813032 0.0008608532 -0.021313854 -0.09447778
000290 dc 34 7a 3d 4a 87 92 3d 8e 07 af 3b 7c 26 72 bd
       0.061085567 0.071547106 0.0053414768 -0.059118733
0002a0 75 64 98 bd 53 2e f3 bd d5 82 2c bd 8b 30 e9 3d
       -0.07441036 -0.1187407 -0.04211696 0.11386212
0002b0 bd f2 64 3d b9 a7 61 bc 35 2c d2 3d c9 11 57 3d
       0.055895556 -0.013772898 0.10262338 0.052507196
0002c0 aa c2 84 3c 65 8e 58 bd d1 b6 ab 3d 78 ae 8a 3d
       0.016206104 -0.052870173 0.08384479 0.067715585
0002d0 60 ec d5 3d cb 8b ba bd 35 61 0e 3c 38 a7 86 bd
       0.104454756 -0.09108695 0.008690168 -0.06574863
0002e0 67 c1 b5 3d 65 2d 66 3d 71 8a d3 3d d1 ff f0 3d
       0.08874779 0.056195635 0.1032914 0.11767543
0002f0 5d 05 d1 bd 44 ee 82 bd 93 84 d7 bd 04 43 8c 3c
       -0.10206101 -0.06393102 -0.105233334 0.0171218
