data/results/gru_regime_DXY_r15d_r6_wNone.pt (torch, 167509 bytes, 9 tensors)

rnn.weight_ih_l0 f4 [192, 16]
000000 26 c3 68 3e 2b b1 d9 3d 66 73 9d 3d 72 57 97 3c
       0.22730693 0.10629495 0.07688026 0.018474314
000010 55 33 2f 3e f5 41 06 3e 82 ed fa 3d 5d 1f 11 3e
       0.17109425 0.13111098 0.12252332 0.1417212
000020 2d 61 49 bd 82 51 38 3e 85 ec ac bc 19 30 1f 3d
       -0.04916494 0.17999843 -0.021108875 0.03886423
000030 6c 8f fd bd ae 99 9d bd 75 2d a4 3d 4c a0 86 bd
       -0.12380871 -0.07695328 0.08016483 -0.06573543
000040 e0 3e 40 bd 69 85 4e 3d b4 8c 36 3d 1b 07 a0 bd
       -0.046934962 0.0504202 0.04456778 -0.07813855
000050 6b 5b 4e bd 2d 09 ef 3d 4b 57 55 bc 68 02 80 3c
       -0.05038015 0.11671672 -0.013021301 0.015626147
000060 88 9e 96 3d cd d8 74 be 05 bf f1 bc cc 9d 61 3d
       0.07354456 -0.23910828 -0.02951003 0.055082127
000070 76 63 7b 3c f7 d4 a1 bd 4d 39 4b be d1 45 4f bd
       0.015343538 -0.07901948 -0.19846077 -0.05060369
000080 fa 08 05 3e 25 a2 2f 3e 3b 31 22 3e 21 f0 f5 3d
       0.12991706 0.17151697 0.15839092 0.120086916
000090 7b 96 27 3e 68 e6 45 bd 6c 37 7a 3d 6e 55 f4 bd
       0.16365997 -0.048315436 0.06108801 -0.11930357
0000a0 1a 1e fc bd c8 1e 2e 3e 75 72 3b 3d 27 7c 9e bd
       -0.12310429 0.1700393 0.04576345 -0.07738524
0000b0 ec b2 13 be 3d 52 5a 3d 0e 4e 3d 3e 00 c5 62 bd
       -0.14423722 0.053301085 0.18486807 -0.055363655
0000c0 3c b5 09 3d 5e e2 d7 3b 44 91 c4 bb 6f 58 27 be
       0.033620104 0.0065882644 -0.0059987623 -0.16342328
0000d0 0f 9c 44 3d b0 6d 56 3d 47 32 12 be c1 5d 86 bc
       0.04800039 0.0523507 -0.14276992 -0.016402127
0000e0 e3 e5 2f 3e 6c 0e bd bd 74 c3 9f bc 3b d7 84 3d
       0.17177539 -0.092312664 -0.019502379 0.064863645
0000f0 b2 bf 7b 3c 87 dd ba 3c 73 5c ee 3d f2 f5 1f 3d
       0.015365528 0.02281071 0.11638727 0.03905291
000100 9a 88 fb bd 49 7c 1f 3e 38 bc ac 3c fd 2d 1d be
       -0.12281914 0.15574755 0.021085843 -0.15349574
000110 99 37 87 be a5 e0 5f bc 48 c8 0a 3e 9f 9f 18 3e
       -0.26409605 -0.013664399 0.13552964 0.1490464
000120 a3 12 84 bd 57 e4 b4 be af 36 e2 bd fa f3 da 3d
       -0.06448867 -0.3533046 -0.11045586 0.10691066
000130 7c 26 e9 3c 93 c7 1d 3b f8 c5 cc be e2 a7 71 bd
       0.028460734 0.0024075254 -0.39994788 -0.058997996
000140 64 23 bb bd 20 1e 96 3d 5d ff 0e 3d 9f 54 50 bd
       -0.091376096 0.07329965 0.034911502 -0.05086195
000150 c2 c9 6f be 7e e0 b5 bd a4 40 67 3b 8e d1 a0 3d
       -0.23416808 -0.08880709 0.0035286332 0.078524694
000160 af a2 cd bd 80 59 e6 be 0e 29 ae bd 66 bf b3 3d
       -0.10040795 -0.44990158 -0.08503924 0.08776741
000170 2a 76 7e 3d 2e 08 ed bd 3d 6f 94 be ec 34 9e 3d
       0.06212441 -0.11573826 -0.28991118 0.07724938
000180 65 cf bb bd 01 25 a2 bd 2c 93 b5 3d 5e 35 ab bd
       -0.09170417 -0.07917214 0.088659614 -0.08359788
000190 be 0d 59 3d 3d 88 63 3d 1c 39 a6 3d 66 d6 a7 3d
       0.05299162 0.05554985 0.081163615 0.0819519
0001a0 5c 35 c8 bb 8a 35 13 3e 80 72 de 3c 91 84 cb 3d
       -0.0061098766 0.14375892 0.027154207 0.099373944
0001b0 a8 ff ae 3d e7 2a 42 3c f4 17 52 3e 90 a1 e8 bd
       0.08544856 0.011851049 0.2051695 -0.113589406
0001c0 fd 86 02 be fe d7 89 bd 66 dc 82 bc cb 5c 9d bd
       -0.12746806 -0.0673065 -0.015974235 -0.076837145
0001d0 77 66 c0 3d df 27 61 bc 3a 3e 08 bc 10 aa 0c be
       0.093945436 -0.013742416 -0.008315617 -0.13736749
0001e0 32 ff b2 bd 34 11 9c 3e ab 5c a4 bd d4 04 71 bd
       -0.08740081 0.30481875 -0.080254875 -0.058842495
0001f0 23 a8 10 bd af b6 bc bd 81 5a 64 3e a0 6d ed bd
       -0.035316598 -0.09214532 0.2230015 -0.11593175
000200 e1 98 ac bd 38 b0 00 be 6e 0d 43 3d 36 b8 c9 bd
       -0.08427597 -0.12567222 0.04762023 -0.098495886
000210 f5 c3 72 be 85 8f 0a be b0 5f ef 3d 30 00 0e 3e
       -0.23707564 -0.13531311 0.11688173 0.13867259
000220 6f a3 ce bd 46 cb ce be 77 f1 d6 bd 6a 58 33 3d
       -0.10089766 -0.4038946 -0.104952745 0.04378549
000230 f5 18 31 3e 9c c3 2a 3d f3 29 f3 be 6f b9 b4 bc
       0.17294677 0.041690454 -0.47492942 -0.022061078
000240 a6 92 bc 3d 10 b3 77 3d 47 ba 9f bc cc 66 02 3d
       0.092076585 0.0604735 -0.019498004 0.031836316
000250 24 0e 94 3d 34 86 ca bc 77 27 df 3c 7e d4 97 bc
       0.072292596 -0.024722196 0.027240498 -0.018533941
000260 0d 2a 02 bd 47 97 6c 3e 68 9a a7 3d 08 bf 82 3d
       -0.031778384 0.23104583 0.081837475 0.063840926
000270 6c 99 36 be a9 c8 f9 bd 36 67 05 3e c5 e8 e3 bc
       -0.17831963 -0.12196476 0.13027653 -0.027820954
000280 74 3b fa bc 2c 21 30 bd 5c f1 97 3c 8d 49 4a 3d
       -0.030545928 -0.043000385 0.018547706 0.04938655
000290 3a b3 bc bd 94 4f d5 3d 38 4f d1 bd 8d 33 0a bd
       -0.09213872 0.10415569 -0.10220188 -0.03374057
0002a0 1b fe 70 bd 46 35 c9 bd 9a 33 84 3c 16 ed 0a bd
       -0.058836084 -0.09824614 0.016137887 -0.03391751
0002b0 19 55 fe bc 70 13 61 3c 50 9b 88 be 8f d2 83 3d
       -0.031046437 0.013737544 -0.26680994 0.06436645
0002c0 69 1c d4 bc ab 0b e8 3d 10 5c a3 3d e9 20 c0 3d
       -0.025892453 0.113303505 0.07976544 0.09381277
0002d0 10 05 4f 3e c8 01 d7 3d 50 99 bd 3d 82 70 19 3b
       0.20216775 0.104983866 0.09257758 0.0023413007
0002e0 df 8e a3 3d 72 c1 9a 3e 19 81 96 3d ac e1 9d bd
       0.07986235 0.30225712 0.07348842 -0.07709059
0002f0 a0 bc b2 3d 77 74 94 3c 8a 9a 88 3e 24 26 0b bd
       0.087273836 0.018121941 0.26680404 -0.03397192
000300 2c 21 d2 bd 92 fb c4 bd c2 45 74 3d ed 49 80 3d
       -0.10260233 -0.09618296 0.05963684 0.062641
000310 59 c2 19 bd 66 55 45 3d eb ed 0c 3e d1 62 cb bd
       -0.03753886 0.048177145 0.13762634 -0.09930957
000320 26 2f eb bd 91 19 59 3e df 82 1c bd b3 83 25 3d
       -0.11483602 0.21201159 -0.038210746 0.0404088
000330 b8 1b 7e 3d fb 41 a2 3d a3 15 1c bb bf 10 93 bd
       0.062038153 0.07922741 -0.0023816607 -0.071809284
000340 f7 5b a6 3d 00 d6 8e bd 9a 0b 63 bd f6 a7 c4 3c
       0.0812301 -0.06974411 -0.055430986 0.024005871
000350 56 bd 34 3d eb 91 52 3d c9 9c ad 3d 86 33 04 3c
       0.044125877 0.05140869 0.0847717 0.008068925
000360 3e 08 db bd 4d 81 41 3e 77 6e 9a 3d 81 dd 96 3d
       -0.106949314 0.1889698 0.07540601 0.07366467
000370 33 17 10 3a 56 a0 d7 3c 7b 38 54 3e 37 36 ed 3c
       0.0005496621 0.026321571 0.2072467 0.028956516
000380 3d ee 2e 3d 2c 0f eb 3c 5e 5d 83 3d 7c ab 14 bd
       0.04270767 0.028693758 0.06414293 -0.036296353
000390 f6 7d 5a bd 87 57 c5 3c 6e b0 78 bd f8 7e a2 3d
       -0.053342782 0.024089588 -0.06071513 0.079343736
0003a0 29 7c 93 bc bf ca 11 3e 45 e5 3f bc 88 a7 c7 bd
       -0.01800354 0.14237498 -0.011712377 -0.09748751
0003b0 16 ec ca bc b3 cb 61 bd 87 9c 30 3e c0 ed 6b 3d
       -0.024770778 -0.055125903 0.1724721 0.057599783
0003c0 87 7f 07 3d 0d 3a 45 bd 9f a7 1e 3d c2 5e 8c 3d
       0.033080604 -0.048151065 0.038734075 0.06854011
0003d0 61 af 4b 3e f3 28 55 bd 63 7f dc bd 23 93 d9 bd
       0.1989112 -0.052041005 -0.107664846 -0.10623767
0003e0 f7 a6 04 3e bd 24 99 3e 44 dd 48 bc ce de 91 3a
       0.12954317 0.29910842 -0.012259785 0.0011129023
0003f0 6f 91 67 3d 72 a2 98 bd e6 7b 7c 3e 71 c3 91 3d
       0.05653518 -0.07452859 0.24656639 0.071173556

rnn.weight_hh_l0 f4 [192, 64]
000000 f1 a5 e2 39 ff fe 8f 3d c3 99 bc bd 44 f6 27 bb
       0.00043229715 0.070310585 -0.09209015 -0.0025628963
000010 95 e3 96 3d 26 db da bd 30 b0 9a 3d cc 91 e0 bc
       0.073676266 -0.106863305 0.07553136 -0.027413271
000020 84 bb 4b 3c a1 10 91 bd 14 7d 11 bd 1c 37 70 3b
       0.012434844 -0.0708325 -0.035519674 0.0036653941
000030 88 82 d6 bd 7f 5f 44 3d 22 e0 23 3d 51 80 03 3d
       -0.104741156 0.047942635 0.04000867 0.032104794
000040 34 1e f7 3d 0f bc 47 bd 5c c0 fe bd 47 42 21 3b
       0.12066308 -0.04876333 -0.124390334 0.0024606155
000050 50 b2 bb bd c9 48 e1 3c 07 57 66 bd 88 4a 01 bd
       -0.0916487 0.027500527 -0.05623534 -0.03156522
000060 3d fc d9 3d 47 83 97 3d fc 3a eb bd 21 aa 9e bc
       0.10643814 0.07398086 -0.1148586 -0.019368233
000070 06 76 8c bd 9e 61 c6 3d 84 17 ce 3b 26 b4 4a 3d
       -0.06858449 0.09686588 0.0062894244 0.04948821
000080 10 b1 c6 bc 2b 3e 88 3c 82 fe 5a 3b f5 8d 90 3d
       -0.024254352 0.016631206 0.0033415859 0.07058326
000090 09 af d0 bd bd 7e 46 bd 78 06 dc 3c 9d b7 e8 3d
       -0.10189635 -0.04846071 0.026858553 0.113631465
0000a0 5f 9e e2 3d b8 56 87 bd 5e 54 b0 bd 47 e0 c5 bd
       0.11065363 -0.06608337 -0.08609842 -0.09661918
0000b0 a8 03 e0 bb b1 78 a8 bd 0f 2b e3 3d 9e 1d 82 3c
       -0.0068363734 -0.08226145 0.11092197 0.015883263
0000c0 26 0b e0 3d 7d e7 20 bc 5a e2 f5 bd 3e 99 d9 3d
       0.109396264 -0.009820816 -0.12006064 0.10624932
0000d0 eb 18 34 3d 67 3b cd 3d d4 9d 0f 3d 8f 7c 00 3e
       0.043969076 0.10021096 0.035062626 0.12547515
0000e0 00 21 a6 bd b4 17 be bd fa 74 a7 3d b7 1b 4f 3d
       -0.08111763 -0.09281865 0.081766084 0.05056354
0000f0 2b 58 7d 3d 52 89 7c 3c 4e 17 b3 bd 6b 02 81 3d
       0.06185166 0.015413599 -0.087446794 0.06299289
000100 dc 16 b8 3d 9d a3 11 3d 14 19 01 3e 32 6c da 3d
       0.08988735 0.035556424 0.12607223 0.10665168
000110 2a 3d e1 3d 23 3e 01 3e 3c ba d4 3d 63 9a a1 bd
       0.10997994 0.1262136 0.10387084 -0.07890775
000120 c1 6c 2a bd bb 80 42 3d 94 8f c9 3d b7 f0 a1 3c
       -0.041607622 0.04748605 0.098418385 0.019768102
000130 93 46 7d 3d 37 75 2e 3d 4b 42 e1 bd 2d a7 39 bd
       0.061834883 0.042592254 -0.109989725 -0.045325447
000140 4a b4 f0 bd ad de a1 bd 89 86 10 bc a5 2f af bd
       -0.117531374 -0.079038 -0.008821138 -0.08554009
000150 b9 89 b1 bd 6b 33 16 bd 8e da 21 3d 29 8c 92 3d
       -0.08668847 -0.03667013 0.03951507 0.0715564
000160 72 72 37 bc 01 6c 94 bd 57 4f 9f 3d 24 80 c8 3d
       -0.0111967195 -0.072471626 0.07778805 0.09790066
000170 da 17 b9 bc a6 ff d0 bd 62 e6 b2 bb 15 80 e1 bd
       -0.022594381 -0.10205011 -0.0054595927 -0.11010758
000180 c7 11 44 3c cd 9c 8b 3d b8 9b f4 3d 1d e6 82 bd
       0.011967129 0.06817017 0.119437635 -0.06391547
000190 27 11 1d bc 6b 3d 13 bc 0f 75 e0 3c 5f 47 d8 3d
       -0.009586609 -0.008986811 0.027399568 0.10560488
0001a0 31 6b d6 bd 6b 94 3b 3d ec cc e5 bd 7c 90 0a bd
       -0.10469664 0.04579584 -0.11220726 -0.033829197
0001b0 9e 94 8f 3d 1a 62 3f 3d ea 75 d9 bd 96 e8 22 bd
       0.07010768 0.046724416 -0.106181934 -0.039772592
0001c0 37 5f a2 bd cb 97 84 3c 54 0c 60 3d 61 35 c2 bd
       -0.07928317 0.016185662 0.054699257 -0.094828375
0001d0 e5 39 d2 bd b5 4b f1 3d 85 95 2a bd 41 6d ad 3d
       -0.10264949 0.11782018 -0.0416465 0.08468104
0001e0 be 57 05 bd af 83 18 bd 70 c3 b5 3d 8c be af 3d
       -0.03255438 -0.03723496 0.08875167 0.08581266
0001f0 1f 3e 05 bd 20 42 d6 3c ae 74 61 bb 25 a7 e0 3c
       -0.032529946 0.026154578 -0.0034401822 0.02742345
000200 82 57 a1 3c 09 24 42 3c 8b 5a 89 3d bd b2 66 3d
       0.019695047 0.011849412 0.06706723 0.0563228
000210 73 27 a3 bd e6 77 b9 3d 29 fa 54 3d 2d 24 7b 3c
       -0.07966509 0.09056072 0.051996384 0.015328449
000220 48 fb 22 bd 6c 80 81 3a 01 8b d3 bd aa 85 c4 3d
       -0.03979042 0.0009880192 -0.10329247 0.09595807
000230 49 cd cb bd 28 e8 f4 bc cc ea c0 bd c1 60 9a bd
       -0.099512644 -0.029895857 -0.09419784 -0.075379856
000240 6a 17 f5 3d 9c d0 9c bd 6e 3f 9e 3d aa 75 8a bd
       0.119673565 -0.076569766 0.07726942 -0.06760724
000250 98 f9 46 bd d7 46 a0 3d 40 91 7f 3d 86 aa 8a bd
       -0.048577875 0.07826012 0.06239438 -0.06770806
000260 f9 4d ec bd 2f a3 f6 3d 7b a7 cb bd 7f 56 d0 bd
       -0.115383096 0.120428436 -0.09944054 -0.10172748
000270 6a 5b e2 bc 4b 08 05 be 14 fe e8 bd 2a 8e 08 3e
       -0.02763148 -0.12991445 -0.113765866 0.13335481
000280 9b 88 d6 bc 76 03 5f bd cd 9a 89 3d 34 50 0c 3c
       -0.026188185 -0.05444666 0.06718979 0.008564044
000290 c6 b5 62 3d 73 ec d8 3d 47 46 24 be 61 2f b7 3d
       0.055349134 0.10591974 -0.16042434 0.08944584
0002a0 a9 d7 22 bb 82 f2 7f bc b7 e7 e2 bd 93 4b 9d bd
       -0.0024847782 -0.015621783 -0.11079352 -0.0768043
0002b0 c8 02 3f 3d 62 2e 0d 3d 61 e2 bd 3d e0 e9 97 3d
       0.04663351 0.034468062 0.09271694 0.07417655
0002c0 48 32 bd 3d 5a 69 dc bd 77 02 54 3c c5 a2 f4 bd
       0.09238106 -0.10762282 0.012940041 -0.11945108
0002d0 42 6c 33 3e 97 30 a8 3d 25 5a d6 bc cc 7e ad bd
       0.17521766 0.08212393 -0.026166031 -0.0847145
0002e0 e7 a3 38 be 82 9b 4b 3d 47 42 4f bc 2a 30 62 bd
       -0.18031274 0.04970885 -0.012650079 -0.055221714
0002f0 5e 40 0d 3e 24 ba 02 be ed e0 80 3d b8 06 c9 bd
       0.13794085 -0.1276632 0.06292901 -0.098157346
000300 2f 4c d9 bd 37 ab d6 bb 2f cd 63 3d 23 67 8e 3d
       -0.10610234 -0.006551172 0.0556156 0.069532655
000310 40 da 66 bd 95 0b 88 3d 22 87 b5 bd dd 1d bd 3d
       -0.056360483 0.06642834 -0.08863665 0.092342116
000320 fa 6e 05 3e b5 bb fe 3c df cb 59 3d d3 e9 a5 bd
       0.13030615 0.031095365 0.053172942 -0.08101239
000330 9b 02 d2 bd 63 67 ad 3d 0a b4 7a bd 30 79 51 bd
       -0.10254403 0.08466985 -0.061206855 -0.051140964
000340 6e e6 e4 3c 48 ae a3 3c 84 88 9b bd 50 68 af 3d
       0.027941909 0.019980565 -0.07594398 0.08564818
000350 d7 a0 84 bc e4 f0 dc bd 09 31 b9 bc 60 84 e6 bd
       -0.016189976 -0.10788134 -0.02260639 -0.11255717
000360 a0 94 a7 bd 93 7a e2 bd 7c b4 9a bd be 16 9a 3d
       -0.08182645 -0.110585354 -0.07553956 0.07523869
000370 cf ac 25 bc 9d 61 20 bd b8 46 cd 3d 1e 4d e5 bd
       -0.010112002 -0.03915559 0.10023254 -0.111963496
000380 b4 09 fc bd ce e9 e3 3d 91 fc be 3d c7 63 8e 3c
       -0.12306538 0.11128579 0.09325517 0.017381562
000390 17 b9 d6 3d 8f 50 4e 3d b0 d1 b2 bd 9d 83 56 bc
       0.10484522 0.050369795 -0.08731401 -0.0130929025
0003a0 f3 14 1b bd 1c a0 d4 bd e7 71 71 bd e1 a2 97 bd
       -0.037861776 -0.10382101 -0.058946516 -0.074041136
0003b0 9f f1 8c 3d fe 0a 8c 3d f7 20 b2 3d 38 18 20 3c
       0.06882023 0.06838034 0.08697694 0.009771399
0003c0 24 1c d2 3c 0f 09 ab bd aa 3c fb 3d eb c2 fc 3c
       0.025648184 -0.08351337 0.1226743 0.030854663
0003d0 b3 05 15 bd 3a 5f 65 3d 1b 7b 72 bd af fb a2 bd
       -0.03638239 0.05599902 -0.059199434 -0.07958161
0003e0 f3 43 27 3d 31 64 9a bd 76 9d 88 3d 07 ec a5 3d
       0.040836286 -0.07538641 0.06670658 0.08101659
0003f0 37 bb c6 3d 29 4a 0e 3d 97 d6 67 bc bc 11 b7 3d
       0.09703677 0.034738693 -0.014150283 0.089389294

rnn.bias_ih_l0 f4 [192]
000000 02 5c c2 bc 32 1c bd bd fc b4 42 3d 00 29 81 bd
       -0.023725513 -0.092338935 0.04753588 -0.06306648
000010 37 67 8c bd 3e 9c 5b 3d 13 30 b7 bd ec e2 22 bc
       -0.06855624 0.0536158 -0.08944716 -0.009941798
000020 7e 68 34 3d 67 54 f5 3d d5 9b cf 3d 65 06 a6 bd
       0.044044964 0.11978989 0.101371445 -0.081066884
000030 cc 27 8c bc 62 3f 55 bd ca 42 ec bc 75 4f 31 bd
       -0.01710882 -0.0520624 -0.028840441 -0.043288667
000040 f8 f2 99 3d db eb e1 3d 79 0a 49 3d f4 42 72 bd
       0.07517046 0.11031314 0.049082253 -0.059145883
000050 4f d3 8d 3d 5f a8 ae 3d 0b 0f d5 3d a1 60 47 3d
       0.069250695 0.08528208 0.1040326 0.048676137
000060 50 cf 0b bc 2d eb d0 3d 5b 9f b6 bc 1d 89 e9 3d
       -0.008533314 0.10201106 -0.022292783 0.114031054
000070 88 01 f1 bd 03 e2 00 3d c4 2a d2 3d bb ba 7f 3d
       -0.1176787 0.03146554 0.10262063 0.06243394
000080 be e0 d3 bd ce b0 17 bd 06 38 09 3b 50 ba 56 bd
       -0.103456005 -0.03703385 0.0020937934 -0.052423775
000090 d1 34 43 3d 22 f2 99 bd 68 8d bb bd 83 a9 f3 bd
       0.04765779 -0.07516886 -0.091578305 -0.11897566
0000a0 8d 1f c7 3c 90 31 18 3c 2b 33 bd bd 48 6b e7 bd
       0.024307037 0.00928916 -0.09238275 -0.11299759
0000b0 e1 de 9e bb fc 15 9a bc f1 4c ac 3d c6 5c b7 bc
       -0.0048483466 -0.018809311 0.08413113 -0.022383105
0000c0 6c bb 02 be f4 68 0d 3e 89 c7 8f 3d 04 6c 83 3d
       -0.12766808 0.13809568 0.0702048 0.06417087
0000d0 58 bb de bd 75 6f c4 bd dc d2 c3 3d 72 50 fd bc
       -0.10875577 -0.09591571 0.095617026 -0.030922148
0000e0 49 98 97 bd 52 67 4c 3d 93 25 ab bd ab f2 c0 3d
       -0.07402093 0.04990322 -0.08356776 0.09421285
0000f0 4c e4 ae bd 47 bc 6c bd 9a cf 8f 3d fb 91 4a 3d
       -0.08539638 -0.057796743 0.07022019 0.049455624
000100 0e 13 e5 bd 1e 56 51 3d c3 f7 b6 bd 68 f6 46 bd
       -0.11185275 0.05110752 -0.089339755 -0.048574835
000110 e8 f4 7d 3d 05 cb 3a 3d 9d 01 07 3d d3 94 52 bd
       0.06200114 0.04560377 0.032960523 -0.05141146
000120 05 56 e1 bd 1a 57 fd 3d ed 0a da 3c 1a 9b 92 bd
       -0.11002735 0.12370129 0.026616538 -0.071584895
000130 47 ac 3a bd e3 1e cc 3d 45 85 19 bd 33 7d 94 bd
       -0.045574453 0.09966829 -0.03748061 -0.07250442
000140 01 70 a6 bd 72 99 45 3d 1c db 7e be 85 8a 7f 3d
       -0.08126832 0.04824204 -0.24888271 0.062387962
000150 e9 e1 b6 be 7f a3 93 bd 28 86 6d 3d f8 56 3f bd
       -0.3571923 -0.07208919 0.05798927 -0.0467138
000160 d4 f8 39 3d d6 7b 0c 3e d5 a7 e5 3d 85 82 81 bd
       0.045403317 0.13719115 0.11213652 -0.06323723
000170 b8 8a 93 3c 17 0a 43 be 4b 6a eb 3d f9 d1 21 3d
       0.018010482 -0.19046818 0.11494883 0.039506886
000180 ef 0f 4a 3d 96 9a 28 be 61 93 39 3d c5 5f ca 3d
       0.0493316 -0.1646522 0.045306567 0.09881548
000190 26 d0 59 be 70 94 8e bc 8e df 04 bd 26 0d a0 3d
       -0.21270809 -0.017404765 -0.03243976 0.07815008
0001a0 e2 64 30 be 6d 9b 71 be 05 fb 5a 3d 37 25 51 bd
       -0.17225984 -0.23594446 0.053462047 -0.05106088
0001b0 75 06 e9 bd 8e f2 98 39 7a 47 c7 3d 1c d4 a1 3d
       -0.11378185 0.00029172417 0.0973043 0.07901785
0001c0 cf aa c7 3d 88 21 e3 3d 16 66 bf 3d b7 cb 4a 3d
       0.09749376 0.1109038 0.09345643 0.049510684
0001d0 3f da 01 3e 16 08 3d be 2e 17 d3 bc 29 d4 84 3d
       0.1268091 -0.18460116 -0.025767889 0.06485779
0001e0 08 16 eb bd ee e2 de bd df fd 73 3d 8a 20 ba be
       -0.114788115 -0.10883127 0.059568282 -0.3635295
0001f0 da d3 ba bd 12 da 50 be c5 59 83 bd 0e 12 a1 bd
       -0.09122439 -0.20395687 -0.064136066 -0.07864772
000200 80 c4 f5 bd fd c9 f3 3c 18 1a e3 bd a7 6b aa bc
       -0.1200037 0.029759401 -0.11088961 -0.020803286
000210 90 08 02 be a9 c2 d2 bd 99 1a 8c 3d c0 03 db 3d
       -0.12698579 -0.10291035 0.068410106 0.10694075
000220 22 8c 5f bd 2d e7 a9 bd 3c 9b 97 bd b9 3a cc 3d
       -0.054577 -0.082960464 -0.074026555 0.09972138
000230 04 31 06 bd b5 5f c0 bd ab 4f e2 bd ab 96 b4 bc
       -0.03276159 -0.09393255 -0.11050352 -0.0220445
000240 6f f4 70 3d f7 b6 c4 bd 0f 1b 12 bd 21 5b ff bd
       0.05882686 -0.0960521 -0.035670336 -0.12468553
000250 cf 9c da 3c 4f c5 a9 3d b0 ef c5 bd 3f 6e a2 3d
       0.0266861 0.08289587 -0.096648574 0.07931184
000260 ff 58 5c bd d5 5c a7 bd e4 70 56 bd 48 df a6 3d
       -0.05379581 -0.08172003 -0.052353755 0.08148056
000270 77 05 9e 3b 22 83 ab bd a4 5e 9b 3d c7 0f 14 3d
       0.004822429 -0.08374621 0.07586411 0.03614786
000280 ff 17 f2 bc ae 29 b0 bc a2 14 ff bd 6f 23 b0 bd
       -0.029552458 -0.02150425 -0.12455107 -0.086005084
000290 1e 77 f0 3d 93 b0 a7 bd fe d6 bd bd c6 fe 68 3d
       0.1174147 -0.08187976 -0.09269522 0.056883596
0002a0 b1 b7 5a 3d ab d5 14 bd c7 5a ad bd c7 87 d9 3c
       0.053397838 -0.036336582 -0.0846458 0.026554001
0002b0 c0 ed 38 3a 4d 70 82 3d d4 10 f3 3d 3e 3f d0 3c
       0.00070544705 0.06369076 0.11868444 0.025420781
0002c0 9e 80 f5 b9 7e ff 87 bd 1d fe 4c 3d af 71 4a bc
       -0.0004682587 -0.06640528 0.05004703 -0.012356206
0002d0 24 72 d7 3d 29 95 54 3d 5a 4a e2 bb c4 7e 88 3d
       0.105198175 0.051900063 -0.006905836 0.066648036
0002e0 4d 8e fe bd c4 db 97 bd 28 1c b0 3b 1c f3 2d bd
       -0.124294855 -0.07414964 0.0053744502 -0.042468175
0002f0 dc 04 b5 3d 59 cd 36 3c 4c 82 cd 3b e2 2d dc bd
       0.088388175 0.011157357 0.006271636 -0.10750939

rnn.bias_hh_l0 f4 [192]
000000 ec 7a 3a 3d 0f 50 2f 3d 58 93 78 3d d0 cd 9a bd
       0.045527384 0.04280096 0.060687393 -0.07558787
000010 00 07 db 3c 48 ae 05 be 7a f9 f5 3c 5e 3c 95 bd
       0.026736736 -0.13054764 0.030026186 -0.07286905
000020 c9 77 da 3d a1 51 72 bd 49 79 6e bd a1 64 c2 bd
       0.106673785 -0.05915988 -0.058221135 -0.0949185
000030 48 dd 79 bd 4e f5 7a bd 0a 9c d7 bc 33 b0 0e 3d
       -0.061002046 -0.061269097 -0.026319522 0.034836005
000040 aa db e4 bd 15 1f e8 3d 87 f7 68 3d f8 76 88 3d
       -0.1117471 0.113340534 0.056876685 0.066633165
000050 95 10 a0 3d 73 19 df bd 53 2e 91 bc f7 e9 4f bb
       0.07815663 -0.10893526 -0.017722284 -0.0031725147
000060 17 ea a1 3c ae 85 81 bd 34 0c e2 bd 5b d4 5a 3c
       0.019764943 -0.063243255 -0.11037484 0.013356294
000070 80 ca e4 3d 9b 6c 13 3d 5f a2 02 be 4e 08 62 bd
       0.11171436 0.035992246 -0.12757252 -0.0551837
000080 bc 5d d8 bd 9a 8b 5c 3c c4 30 db 3b 78 35 71 3d
       -0.105647534 0.013461018 0.006689163 0.058888882
000090 53 07 b2 bb 35 50 4c bb cf f6 13 3d 51 e5 15 3d
       -0.005433002 -0.0031175737 0.036124047 0.036595646
0000a0 7a e4 e5 3d 0b 8e a3 bc 77 a0 92 3d 4a ac f9 3c
       0.11225219 -0.019965192 0.071595125 0.030477662
0000b0 31 dd 56 bb 0a 19 9d bb 99 5c 94 bc 76 76 c1 bc
       -0.003278565 -0.0047942447 -0.01811056 -0.023616057
0000c0 a8 9f 8f bd 17 52 ba 3c 11 98 b2 3d c0 0d 96 3d
       -0.07012874 0.022744222 0.087204106 0.07326841
0000d0 5b 19 17 bc 28 7f 72 bd c9 02 23 bd 72 b5 c6 3d
       -0.009222354 -0.059203297 -0.039797578 0.09702577
0000e0 9c 1e 4d bc 12 b9 39 bd a6 ef 22 bd e4 d1 3d bd
       -0.012519505 -0.045342512 -0.039779328 -0.046342745
0000f0 f7 5b cc 3b e9 18 86 ba f0 ae 66 3d ce 16 80 bd
       0.006236549 -0.0010230812 0.056319177 -0.0625435
000100 5a 16 45 bd 7b 50 7d bd 1d c2 82 bd 75 ac 93 bd
       -0.04811702 -0.06184433 -0.063846804 -0.07210628
000110 05 6b 44 3d 1d b6 11 be de f7 01 bd 1d 63 02 3e
       0.047953624 -0.14229627 -0.031730525 0.12733121
000120 75 98 88 bc 48 20 f3 3d 31 33 b7 3d 60 d0 84 bd
       -0.01667426 0.118713915 0.08945311 -0.06485057
000130 5a 58 98 3d 69 f1 e6 3d 8e e2 a7 bb 4b ad bd bd
       0.07438727 0.11276514 -0.005123443 -0.09261569
000140 c0 21 db 3c 3a 25 8f 3c 33 0c fe bd 0d de 35 3d
       0.026749492 0.017473806 -0.124046706 0.044401217
000150 13 09 b8 be 85 82 23 be 19 ae 7f 3c 4c c7 3e bd
       -0.35944423 -0.15967758 0.015605473 -0.046576783
000160 eb 59 a8 3d bd e0 01 3e cf 49 a6 3d 01 0d a7 3d
       0.082202755 0.12683387 0.081195466 0.08156777
000170 29 8d a0 3d 86 a8 ad be 51 7d 14 bc df a2 f7 bd
       0.07839424 -0.33917636 -0.009063081 -0.12091612
000180 02 a7 f6 bd 2a 3c 07 3d 86 6e d9 3d e0 d8 8d bd
       -0.12043573 0.03301636 0.10616784 -0.06926131
000190 5c ea a2 be 53 0c bc 3d a1 1f d6 bd 12 34 4b 3d
       -0.31819427 0.09182038 -0.104552515 0.049610205
0001a0 df 83 8c ba 54 7b f1 bd fe 4d e5 bc 51 2a c1 bd
       -0.0010720453 -0.11791101 -0.027991291 -0.09431899
0001b0 f6 c9 9a bc 0c 65 eb bc 30 60 cd 3d f2 e5 c1 3d
       -0.01889513 -0.028734706 0.10028112 0.09467687
0001c0 2f ed b8 bd 48 6e 4c bc 6e 96 5c bd b2 e3 e3 bd
       -0.09029614 -0.012477465 -0.0538544 -0.11127414
0001d0 3e aa 72 bd 2a 60 1b be 5e 23 55 3d 58 bf 9e bc
       -0.059244387 -0.15173402 0.052035682 -0.01937835
0001e0 a2 f4 32 bd 38 aa 11 be 87 b3 7d bd ef d3 e2 be
       -0.04369033 -0.1422509 -0.06193879 -0.44302318
0001f0 12 0f f0 bd 58 9f d4 bd 16 d1 6f 3d 5b 1b 58 bd
       -0.117216244 -0.10381955 0.05854901 -0.052760463
000200 15 4a 84 3c 3c 6a 7c 3d 14 fa 86 bd da 7e bc bd
       0.016148606 0.06162475 -0.06590667 -0.092038825
000210 0c 8f 4f 3d 27 24 44 bc 33 67 5c bd 54 4b 2f bb
       0.05067353 -0.01197151 -0.053809356 -0.002674778
000220 4d 91 2c bd 83 03 09 3c b8 fc ac 3c 87 f7 0b 3d
       -0.042130757 0.008362654 0.0211166 0.034171607
000230 c1 87 94 bc 28 93 53 3b 30 5e 25 bd 8a 00 25 bd
       -0.018131139 0.0032283757 -0.040373027 -0.040283717
000240 02 8f aa 3c 65 76 e6 bd 32 33 60 bd 75 03 f6 bd
       0.020820145 -0.11253051 -0.054736324 -0.12012378
000250 05 96 e8 3c 41 8a 63 bc a7 e8 1f bd 84 01 c7 bc
       0.028391847 -0.013887943 -0.039040234 -0.024292715
000260 c1 fb 3a 3c aa 83 25 bc a6 eb 68 3d 14 e2 55 bd
       0.011412562 -0.010102192 0.056865357 -0.052217558
000270 66 e0 f0 3b 4e 11 aa 3d d0 cd cb 3c 21 bd be 3d
       0.007350969 0.08304082 0.024878412 0.09313417
000280 58 c4 c9 bd 4f 08 58 bc 29 d2 8a 3d 57 f5 8b bd
       -0.09851903 -0.013185575 0.06778366 -0.06833904
000290 9b f7 b1 bd 41 06 bc 3c 41 ac 83 bd 9b cf 85 3d
       -0.08689805 0.0229522 -0.06429339 0.06533738
0002a0 79 be c1 3d a5 ff e8 bd 92 bb 35 3a dd cd 8c 3d
       0.09460158 -0.11376885 0.0006932552 0.06875203
0002b0 66 4f d5 3c 6c f0 3d 3c 18 0d 80 bd 84 18 85 bd
       0.026038837 0.011592966 -0.062524974 -0.064988166
0002c0 97 e1 90 3d 25 70 10 bd a9 b1 f8 3d a4 10 4d bd
       0.07074278 -0.0352632 0.12143261 -0.050064698
0002d0 6b fc e4 3d 59 c5 ee bd 41 ea c0 3d 10 96 3a bd
       0.111809574 -0.11658735 0.094196804 -0.045553267
0002e0 a9 a1 0b 3a 9e 97 dc 3d 00 12 7c bd 42 07 f7 3d
       0.00053265184 0.10771106 -0.061540604 0.12061931
0002f0 e2 84 a5 bd 4e 8c 5e 3d 02 bf 4b 3d 6c 70 d2 3c
       -0.08081986 0.054333024 0.049742706 0.025688373

rnn.weight_ih_l1 f4 [192, 64]
000000 0b 32 cd bd 8a 18 cb bc 80 5a 42 bc 41 4c d6 bd
       -0.100193106 -0.024791975 -0.011862397 -0.10463763
000010 c0 2d b2 bd ba 13 a5 3d b5 e3 37 bc c3 bd 98 3a
       -0.08700132 0.08060403 -0.011223723 0.0011653233
000020 e3 e6 00 3e b2 0b ff bc b2 cb 80 3b 09 bc 22 bd
       0.12588076 -0.031133506 0.0039305324 -0.039730106
000030 fd c5 24 3d ee 0f 03 3d 78 cd 3d bc 3f b5 d6 bd
       0.04022788 0.031997614 -0.011584632 -0.10483789
000040 88 da 06 39 02 67 d5 3d 12 df 53 bd 25 03 d7 bd
       0.00012860645 0.10420038 -0.05172641 -0.10498647
000050 1a 95 f0 3b 59 7c d1 3d 81 35 ac 3d 41 75 35 bd
       0.007341993 0.102287956 0.084086426 -0.044301275
000060 84 22 11 bd 74 1b 65 3d d6 c2 02 3e 5f 27 68 3d
       -0.035433307 0.055934384 0.12769637 0.056678172
000070 77 13 15 3d ba 2a ab bd fc e5 f8 3d 4f 9d e4 bd
       0.036395516 -0.08357759 0.12153241 -0.11162817
000080 29 00 d0 bd e8 32 81 3c 3e ba 5f bd fa f8 00 3d
       -0.101562805 0.015771344 -0.054620974 0.031487443
000090 11 f1 b7 3d 54 e3 db bd 59 9c 47 bd 9e e8 26 bd
       0.08981527 -0.10736719 -0.04873309 -0.040749185
0000a0 f2 05 fc 3d 94 ad ef 3d ba de 82 bd 56 47 e8 3c
       0.123058215 0.11703029 -0.06390138 0.028354328
0000b0 fc b2 7a 3d 96 a5 a9 3d 67 a9 d1 3d df c8 c6 3d
       0.06120585 0.08283536 0.10237389 0.09706282
0000c0 26 e5 4a 3c 26 dd a5 3d 1e 98 fc 3d f8 89 9f bc
       0.012383735 0.08098821 0.123337016 -0.019474968
0000d0 bc 34 4a bd b2 ef a4 bd 68 07 b2 bd 36 04 43 bd
       -0.049366698 -0.08053531 -0.08692819 -0.047611438
0000e0 f4 2c ed 3c e9 cc aa bd 07 d6 44 bd cf e5 55 bc
       0.0289521 -0.08339865 -0.048055675 -0.013055279
0000f0 c5 77 68 bc 77 6e 20 bd 5d d1 92 3d 88 93 12 3b
       -0.0141887115 -0.039167847 0.07168839 0.0022365768
000100 35 f1 e9 bd 14 20 ae 3d 6c fe a7 3a 0f 59 ca 3d
       -0.1142296 0.08502212 0.0012816912 0.09880268
000110 17 c6 01 3d ad d5 66 ba c7 28 cc 3d 3a 72 fc bc
       0.031683054 -0.0008805644 0.09968715 -0.030816186
000120 c9 85 2b bd 03 f6 a2 bc ae 0f 64 bc de 01 87 bc
       -0.041875634 -0.019892698 -0.013919754 -0.016480383
000130 26 ba e9 bb d9 1c 9f bd 55 61 a2 bd 49 13 8d bd
       -0.0071327863 -0.07769174 -0.07928721 -0.06888444
000140 a2 97 35 bd 71 c6 b7 bb 16 60 d4 bd 06 82 c9 bd
       -0.04433406 -0.005608373 -0.103698894 -0.09839253
000150 38 02 81 3d c8 2a 54 3d 8c 88 fe 3d d5 f7 aa bd
       0.06299251 0.051798612 0.12428388 -0.083480515
000160 c3 4c d2 bc fc 56 d7 3d 6a 17 e8 3d ef 76 d1 bd
       -0.025671368 0.10514638 0.11332591 -0.10227763
000170 9e 0f bf bd 1b 6e 83 3d d2 2a 8e 3d 24 08 77 bd
       -0.093291506 0.06417485 0.06941761 -0.060310498
000180 5a 99 e0 bb e6 a3 a5 3d 41 f3 d9 3d d7 ac e4 bd
       -0.0068542184 0.08087902 0.106421 -0.11165779
000190 a1 08 d3 3c 3b 94 8d 3d 61 39 e4 3c a0 cc 2b bc
       0.02576095 0.06913038 0.027859392 -0.010485798
0001a0 02 28 90 bd 1b aa 17 3d 9e cd b4 bd 80 38 8d 3d
       -0.07038881 0.03702746 -0.08828281 0.06895542
0001b0 c1 4c b1 bd 82 f8 12 bd cb 3c 8d 3d 17 f9 9d 3d
       -0.08657218 -0.035881527 0.06896361 0.07713526
0001c0 32 84 e7 3d b4 70 b3 3c 50 3c 97 3d 5e 27 57 3d
       0.11304511 0.021904327 0.073845506 0.052527778
0001d0 72 07 91 3d db 85 6b 3c d9 ee c6 3d 98 ea 70 bd
       0.07081498 0.014375175 0.09713525 -0.058817476
0001e0 9b 7a d6 bd fe d9 05 3d a5 c0 f2 3d 2c 12 a0 bb
       -0.10472604 0.032678597 0.1185315 -0.0048849788
0001f0 2b 4f 81 bd 53 ad 2d 3c cf 5e 81 3b 84 fe b9 3c
       -0.06313928 0.010600406 0.0039480696 0.02270437
000200 70 f0 aa 3d 7f 6c d2 3d 3d 4e 30 3d b9 2e 4f 3d
       0.08346641 0.102746 0.043043364 0.050581668
000210 89 a9 fe bb 57 86 5f 3c fd d1 f5 bd 99 73 6b bd
       -0.007771675 0.013642869 -0.12002943 -0.05748329
000220 5a b1 25 3d 43 3a c2 bd 3b b5 f4 bc a7 bc cf bc
       0.04045234 -0.09483769 -0.029871574 -0.025358511
000230 3a ff 1f bd da b7 0d bd bd 4a aa bd 10 bf ad bd
       -0.039061762 -0.034599163 -0.083150364 -0.08483708
000240 3e 18 6d bd fd 2a 3e 3c 95 b4 d8 bb 7d c3 94 bd
       -0.057884447 0.011606929 -0.006613324 -0.07263849
000250 61 1d 65 bd 5a 39 fc 3a 6b 11 f0 bd a3 33 5b bd
       -0.05593622 0.0019243166 -0.11722072 -0.05351604
000260 de 83 8f 3d 21 7a 42 bc f1 d0 0e 3d 6a 9a ad bc
       0.070075735 -0.011869938 0.03486723 -0.021191794
000270 ab f4 4d 3d b8 4a cc 3d 2d 86 a2 3c 26 e0 c0 3d
       0.05028216 0.09975189 0.01983937 0.09417753
000280 61 9e 8e 3d ff bb 48 3d 94 f7 b0 3d dd 43 bc 3d
       0.06963802 0.049007412 0.08640972 0.091926314
000290 c0 e3 49 bd a9 17 cf 3c c2 d5 41 bd 49 a8 ce bc
       -0.049289465 0.025279837 -0.047322996 -0.025226729
0002a0 a5 7f 57 bd ef eb da 3d 72 05 0c bc 86 74 50 bd
       -0.052611966 0.10689532 -0.00854622 -0.050892375
0002b0 75 48 66 3c 0e 58 9b bb fa 09 cc 3d cb c9 54 3d
       0.014055361 -0.0047407215 0.099628404 0.051950257
0002c0 65 b1 d9 3c 7c 6a e4 bc 08 29 59 bd 9b f8 fd bd
       0.026573846 -0.027882807 -0.053017646 -0.12400933
0002d0 7f 13 ee bd 1b b3 2b 3d bc 19 ca 3d 49 e7 eb bd
       -0.11624812 0.041918855 0.0986819 -0.115187235
0002e0 2e e8 f6 bd 6f ca f8 bd 01 9b 12 bd 5c 91 6c 3d
       -0.120560035 -0.12147986 -0.035792354 0.057755813
0002f0 ad b7 04 bd 2a 5a 19 bc 14 df 05 3c 55 db c3 3d
       -0.03240173 -0.009359876 0.008170862 0.09563319
000300 a5 bb 81 bb 57 dc 8d bd fd 55 f7 3d 98 a4 bf bc
       -0.0039591365 -0.06926792 0.12076948 -0.023393914
000310 46 51 30 bd 07 ab d6 bd 62 82 85 3d 62 11 ed bc
       -0.04304626 -0.104818396 0.06519009 -0.028938953
000320 54 78 b9 bc 8b e7 1d 3d 3c 93 4e 3d f1 e4 f9 bd
       -0.022640385 0.038550895 0.050433382 -0.1220187
000330 42 b1 c3 3d 45 bb 45 bd 22 3f aa bd fc bd 91 bb
       0.095552936 -0.048274297 -0.08312823 -0.0044476967
000340 00 51 d0 bc 99 77 a4 3d c5 e9 1b bd d5 be 36 3c
       -0.025429249 0.08030624 -0.038064737 0.011153896
000350 95 df fd 3d d4 4b 00 3d 1c 5c 84 3d f2 6b ef bc
       0.123961605 0.031322315 0.06462881 -0.029226277
000360 bb 89 01 3e d2 e3 85 3c c5 35 b7 3d 41 c3 83 3d
       0.12650196 0.016343985 0.089458026 0.06433726
000370 e5 7a d2 3d 7b 80 d3 3b 94 9a ab bd 69 cf ee bb
       0.102773465 0.006454525 -0.08379093 -0.007287909
000380 b8 6f 5f bd 2a 99 b5 3d 88 c9 a5 3d 30 89 2e bd
       -0.054549903 0.08867104 0.0809508 -0.0426113
000390 76 3e e3 3c 50 7b 54 3d 4a f9 11 3a 26 30 1b bc
       0.027739745 0.051875412 0.0005568458 -0.009471929
0003a0 fd 0d aa 3d 47 1e d6 3d f6 56 ce 3b c1 f6 fd bd
       0.08303449 0.10454994 0.0062969876 -0.1240058
0003b0 be 81 d3 bd c1 61 cb bd 63 3e ef 3d 21 a9 a1 3d
       -0.10327481 -0.099307545 0.11681821 0.07893587
0003c0 ba e6 ee 3d 1b f7 a6 3d 71 fa 16 3d d9 1a cc 3c
       0.11665101 0.081526004 0.036859933 0.024915146
0003d0 f4 31 11 3d 21 6b d5 bd 17 15 ac bc d8 26 04 bd
       0.03544803 -0.10420824 -0.02100615 -0.032263607
0003e0 c5 1d ce bd 5e c8 b9 3c 03 82 90 bd f2 ab a5 3b
       -0.10064272 0.02267855 -0.07056048 0.005055898
0003f0 86 9d f6 bd 50 a4 44 3d 7c 92 cb bc ab ae ba bc
       -0.12041764 0.048008263 -0.024850123 -0.022788366

rnn.weight_hh_l1 f4 [192, 64]
000000 d9 6d ec 3d 5d f5 49 bd 0c 3b d4 bc de e3 f2 3d
       0.11544389 -0.049306262 -0.025907062 0.118598685
000010 d5 03 13 bd 13 43 6b 3d c1 06 43 bc 34 e3 97 bd
       -0.035892326 0.057437014 -0.011903466 -0.074163824
000020 d2 c0 57 bd 77 22 a6 bd 30 c2 90 3d 30 57 e9 3c
       -0.052674122 -0.081120424 0.07068288 0.028483957
000030 93 6d 7c 3d f6 91 8c bb 31 9f bb bd 48 d8 ed bd
       0.061627936 -0.004289861 -0.09161223 -0.11613518
000040 2f 55 ab bd d0 e9 80 3d c5 ec e4 bd 51 5d ef 3d
       -0.08365857 0.06294596 -0.11177973 0.116877206
000050 fa 43 bb bc b5 42 ef bd 83 ea fe bc f3 41 40 3d
       -0.022859562 -0.11682645 -0.031117683 0.046937894
000060 db 55 01 3e cb 07 94 bd 8b 3c 3d bc 38 cf 30 3d
       0.12630408 -0.07228049 -0.011550079 0.04316637
000070 70 c9 96 3d dc 4e 07 3d ff 15 bd bd 27 52 13 3d
       0.0736264 0.03303419 -0.09232711 0.03596702
000080 4b db a4 bc 81 2a b1 b9 b9 de 77 bc c9 45 48 3b
       -0.020124098 -0.0003379174 -0.015128785 0.0030559173
000090 88 05 93 bd f9 84 7a bd 1b 68 c5 3d 36 64 bf bd
       -0.071787894 -0.06116197 0.09638997 -0.093452856
0000a0 a1 1d e9 3d 35 4e ef bc a5 7e c8 3a ca 78 c2 3d
       0.113826044 -0.029212097 0.0015296532 0.09495695
0000b0 42 30 eb 3d f2 f3 fd 3c 0d df e4 bd 03 87 c9 bd
       0.11483814 0.031000111 -0.11175356 -0.098402046
0000c0 b3 bc c1 bd 9a 59 00 3e 6d c9 e4 bb d6 5a a0 bd
       -0.0945982 0.1253418 -0.0069820196 -0.078298256
0000d0 3c 60 ca 3d a4 b9 48 3b 3e 86 11 bd e0 ec bd bd
       0.098816365 0.0030628229 -0.035528414 -0.09273696
0000e0 9b 11 4f 3d c9 c6 25 3d 47 97 95 bd b3 52 9c 3c
       0.0505539 0.04047278 -0.073042445 0.019082403
0000f0 b8 80 b5 bd 07 e0 6b 3c 94 9d 75 3b 7f b1 fd 3c
       -0.08862442 0.014396674 0.0037477957 0.030968426
000100 4e 6c 84 3d f4 0b d1 bd 92 40 41 3d 87 7c 94 bc
       0.0646597 -0.10207358 0.04718072 -0.018125786
000110 58 2f 25 bd f5 f0 de bd 8b af 3d 3d eb 6c db bd
       -0.040328354 -0.10885803 0.04630999 -0.10714134
000120 d5 3e a8 3c 67 b5 c7 3c 19 4a 6e 3c 82 6b db 3d
       0.020537773 0.024378492 0.014544033 0.10713865
000130 40 69 66 bc 8c 76 5f 3d 54 db 73 bd 35 b8 df 3d
       -0.0140631795 0.054556414 -0.05953534 0.109238066
000140 52 9a 15 3d 50 d3 74 3c e4 e5 90 bc ec c3 94 bd
       0.036524124 0.014942959 -0.017687745 -0.07263932
000150 76 ec de 3d 7f 19 9a 3b 49 3e 68 3d 72 0a dc bd
       0.10884945 0.0047027464 0.056700025 -0.1074418
000160 5a 8d eb 3d 33 8c e7 bb 29 3b eb 3c 3e 08 7b bc
       0.1150157 -0.0070662736 0.028714733 -0.015321789
000170 e4 23 94 3d f1 fe b8 bd 7b 8c 2c 3c 00 87 7e bd
       0.07233408 -0.09033001 0.01053154 -0.062140465
000180 16 da 53 bd 80 c8 5f bd 7e 28 32 3d 04 ff ea bc
       -0.051721655 -0.05463457 0.043495648 -0.028686054
000190 dd 14 7d 3d 8f dd ed 3d e0 55 dd 3d b9 eb 59 3d
       0.061787475 0.116145246 0.10807395 0.05320332
0001a0 dc b4 f5 bd 09 f6 0f bd 50 f1 dd bd 85 f8 ba 3c
       -0.11997387 -0.035146747 -0.10837042 0.022823581
0001b0 25 be b9 3d 20 44 d4 bc da 69 01 3e 2a 71 ee 3d
       0.0906947 -0.02591139 0.12638035 0.11642678
0001c0 36 de da 3d 74 43 ec 3d 8d bf e9 bc 95 cd 22 3c
       0.106869146 0.11536303 -0.028533721 0.00993671
0001d0 e8 44 d0 3c 24 07 cf 3d f1 bb fc 3d dc b6 2d 3d
       0.025423482 0.10108784 0.123405345 0.042410716
0001e0 99 af 85 bc 2b 61 be bd 43 c5 65 3d be 50 2b 3d
       -0.016319083 -0.09295877 0.056096327 0.04182505
0001f0 df ab 71 bd 76 f6 a7 bb 8d c5 87 3c 73 8c b2 bd
       -0.0590018 -0.005125816 0.016573692 -0.08718195
000200 1a d7 88 bd f5 ad a0 bd 26 1c d3 3d fc c7 fa bd
       -0.06681652 -0.0784568 0.10308103 -0.12245175
000210 56 6d 41 3d ec cd f2 bd eb 9e c4 bc 49 d9 9f 3d
       0.04722341 -0.11855683 -0.02400156 0.07805116
000220 13 7f 54 bd 1b 3a 8c bc f2 cb 32 bd 98 38 57 bd
       -0.051879 -0.01711755 -0.04365153 -0.052544206
000230 9c df 43 bc a4 00 19 3d a3 31 bc bd 85 51 ea 3c
       -0.011955168 0.037354127 -0.09189155 0.028603325
000240 be 38 90 bd cd c5 02 be a1 a2 42 3c 15 f2 01 3d
       -0.07042073 -0.12770768 0.011879594 0.031725008
000250 70 10 00 be 97 48 ec 3c 56 b5 3d 39 1e 95 4f 3d
       -0.1250627 0.028843207 0.00018091997 0.05067932
000260 67 5c 64 bc b4 bc 8c bc 98 5a c5 3d 9a b9 0a 3d
       -0.013938046 -0.017179824 0.0963642 0.03386841
000270 49 7e 95 3d db e8 fc bc be be cd 3d fc 45 24 3d
       0.072994776 -0.030872753 0.10046147 0.040105805
000280 59 ee 97 3c 26 60 7a bd d7 95 e5 3d c6 b4 2a 3d
       0.01854627 -0.06112685 0.1121022 0.041676305
000290 b2 84 47 bd d9 37 8b 3d 7a c8 e9 3c 88 b8 8d bd
       -0.048710532 0.067977615 0.028537977 -0.06919962
0002a0 b3 fa 07 3e 94 35 42 3b b0 ed 91 bc 61 e0 16 bd
       0.13279228 0.0029633986 -0.017813534 -0.03683508
0002b0 10 ae 75 bd 39 45 f5 bc d7 f8 cb 3d 24 b9 1e 3c
       -0.059980452 -0.029940234 0.09959572 0.009687696
0002c0 2e 0a 4c 3a a6 30 4b bd 93 ff da 3d 57 47 3a 3c
       0.00077834993 -0.04960694 0.10693278 0.011369548
0002d0 5e 39 00 3e be b8 2a 3c 29 24 46 bd 06 88 c9 3d
       0.12521884 0.0104200225 -0.04837433 0.098403975
0002e0 35 61 b2 bd 29 a8 fd 3d 7a a9 3d bd f1 e6 9c bd
       -0.08709947 0.1238559 -0.046304204 -0.07661236
0002f0 45 85 71 ba 9f d8 fc 3d 82 f3 54 bd 84 a2 9b 3d
       -0.0009213279 0.12346005 -0.05199004 0.07599357
000300 00 7a 15 bc 4b 7c 8b 3d c8 89 f2 3d 2a f1 8e bd
       -0.009123325 0.068108164 0.11842686 -0.06979592
000310 b4 4c aa bd da 3b 78 3c 34 0d 04 bd 10 fb 96 bd
       -0.08315411 0.0151509885 -0.032239154 -0.07372105
000320 18 3f 78 bd be 4b ab bc 53 a5 61 3d be f2 96 bd
       -0.060607046 -0.02091014 0.055089306 -0.07370518
000330 f7 7a ea 3d 9f 14 5a bc 74 24 e4 bd be 16 dd 3c
       0.11449235 -0.0133105805 -0.111397654 0.026988383
000340 cf be 89 bb 2d a4 ab 3c 9b 8d e2 3d 4a 18 ea bd
       -0.0042036544 0.020952309 0.11062165 -0.11430414
000350 7c 21 d1 bd 0c 1b 01 be 3b 0a b2 bc 6f cb de bd
       -0.10211465 -0.12607974 -0.021733394 -0.10878646
000360 bf a0 52 bd 77 45 cc bd c0 c4 d9 3d 5d c0 d7 3d
       -0.05142283 -0.09974187 0.1063323 0.10534737
000370 2e 19 04 3e 40 ff 73 bc 88 03 8c bd ae 1e d6 bd
       0.1290023 -0.014892399 -0.06836611 -0.104550704
000380 27 58 00 3e f7 4d b7 3d e9 2e 00 3e 08 11 1c 3d
       0.12533627 0.089504175 0.12517895 0.03810218
000390 15 71 d0 bd 4a e0 87 bd 77 3c f4 3d 10 11 bb bd
       -0.10177819 -0.066345766 0.11925595 -0.09134114
0003a0 0e 85 95 3d 37 e0 15 3d 6a 72 28 3d 4b 4b c7 bd
       0.07300769 0.03659078 0.04112474 -0.09731158
0003b0 69 d1 9a bd 88 66 cd 3d 17 93 37 3d e0 40 55 3d
       -0.07559473 0.10029322 0.04481801 0.052063823
0003c0 74 7b c8 bd d0 3a 13 bd 23 6f 5c 3d a6 f1 4d 3d
       -0.09789172 -0.03594476 0.053816926 0.050279282
0003d0 cf d6 b5 bd c4 1b 35 3d 00 98 cb 3d cc 37 de 3d
       -0.08878862 0.044215932 0.09941101 0.10850486
0003e0 4f 6e 3d bd 70 05 b3 3d e2 0e e7 3c 31 99 aa 3d
       -0.046247777 0.087412715 0.028205339 0.0833
0003f0 75 16 7d bc dd 01 b0 3b 01 5d 17 bd 1d c2 27 bd
       -0.015447249 0.005371316 -0.03695393 -0.040956605

rnn.bias_ih_l1 f4 [192]
000000 83 9e 49 3d 23 56 93 3c 85 09 ef bc 45 52 85 bd
       0.049223434 0.01798541 -0.029179344 -0.06509832
000010 c9 4a b0 bc 45 b1 53 3d 53 74 ad 3d 62 23 a1 bd
       -0.021520035 0.05168273 0.08469453 -0.07868077
000020 57 ce 35 3d 8a d9 92 3d 64 dc a2 3b 1d 52 d2 bd
       0.044386234 0.071703985 0.0049701203 -0.10269568
000030 56 c5 46 bd 13 73 78 3a 98 49 f9 bd 4e 5d 78 3d
       -0.048528038 0.00094775966 -0.1217224 0.060635857
000040 b8 a3 6d bd 78 78 f1 3d 44 ce 3b 39 e7 28 7d 3b
       -0.058017462 0.11790556 0.0001791055 0.0038629116
000050 e9 80 d6 bd c8 57 df 3b 5b a7 37 bc 7a 11 22 bd
       -0.104738064 0.0068158843 -0.011209334 -0.03956745
000060 70 38 ba 3d 63 f7 93 bd 1f 59 e6 bd e2 fa f7 bb
       0.09092796 -0.0722492 -0.11247467 -0.0075677494
000070 27 7b 95 3d 71 44 4f bb aa d9 e1 3d f8 92 50 3d
       0.0729888 -0.0031626488 0.11027844 0.05092141
000080 fb 98 71 3d dd f1 90 bd d6 a7 89 3d 0b 39 1a bd
       0.058983784 -0.07077382 0.06721465 -0.037652057
000090 57 5b a3 bd 27 51 85 3d 7b 14 8a 39 de 28 d5 3d
       -0.07976406 0.06509619 0.0002633667 0.104081854
0000a0 09 0b ea bd 04 c0 d1 3d 91 9f a4 3d dc 71 cd bc
       -0.11427886 0.10241702 0.080382474 -0.025078706
0000b0 e9 c8 06 bd ff 52 6c bc 34 8a c0 3d 2e e2 0a bd
       -0.032906447 -0.014424085 0.0940136 -0.033907108
0000c0 9b f8 28 3d 96 6b 04 be d4 88 75 bd 62 b9 1b bd
       0.041252714 -0.12931666 -0.059944943 -0.03801859
0000d0 61 32 8b bd 4e ec df bc 99 9c e0 3d fb 43 cc 3d
       -0.067967184 -0.027334359 0.10967369 0.09973904
0000e0 be e0 b5 3d 7b 56 50 38 f7 a9 c5 bd c0 17 8f 3c
       0.08880757 4.9671606e-05 -0.09651559 0.01746738
0000f0 c5 9a 89 bc 01 32 9d bd 56 be 62 3d a0 00 b6 bd
       -0.016797433 -0.07675553 0.0553573 -0.08886838
000100 ae b2 a6 3d 14 65 4f 3c 4a 4e d8 bd 34 5c e2 3d
       0.08139549 0.012658376 -0.105618075 0.110527426
000110 00 58 05 3e 4e 81 1f bd 37 f3 2b be 06 6e eb 3d
       0.1302185 -0.038941674 -0.16791998 0.11495595
000120 ac 06 9e bd 4b ff b6 bd 01 2a a4 bd 12 3f cd 3a
       -0.07716116 -0.08935412 -0.08015824 0.0015659055
000130 87 e6 e5 bc 2d a1 6a 3d 8c 1e 89 3d 2b 94 e9 3d
       -0.028064026 0.057282615 0.066952795 0.11405214
000140 3a d6 fe 3d 46 8d 2a be 20 cf 15 bd 5e d2 62 3d
       0.12443204 -0.16655454 -0.036574483 0.055376403
000150 7f 89 b4 bd c2 24 11 3e 8f be 03 bc 48 dc fe bd
       -0.08815288 0.14174178 -0.008041038 -0.12444359
000160 de 83 b2 bd 5a 42 64 bd 2d 03 58 bd df 82 a8 3d
       -0.08716558 -0.05572734 -0.052737404 0.08228087
000170 c2 22 91 bd 15 16 aa be a8 a5 ec bd 85 97 18 3d
       -0.07086708 -0.33219972 -0.11555034 0.037253875
000180 37 8c d8 bd e9 51 8a bd e6 03 1b bd 56 24 31 be
       -0.10573619 -0.06753904 -0.037845515 -0.17299017
000190 f1 5b ff 3d fe 00 4e 3d 85 6e eb bd e0 1c 57 3d
       0.12468708 0.050293915 -0.11495689 0.05251777
0001a0 c4 ae a1 3c 77 1f 6d bc 98 04 db bc 78 76 d7 bc
       0.019736655 -0.014472834 -0.026735589 -0.026301607
0001b0 26 c8 ce 3d 45 f3 00 3c ee 63 a2 bd fe be a7 bd
       0.10096769 0.0078705 -0.07929216 -0.08190726
0001c0 b4 ce 5d 3d b0 9a 62 bd 0f 79 63 3d a6 ce df bd
       0.054152206 -0.055323303 0.055535372 -0.10928087
0001d0 74 52 cd 3c 38 00 d0 bd cf ab 4a 3d b2 e8 31 bd
       0.02506373 -0.10156292 0.049480256 -0.043434806
0001e0 cf 58 7e 3b 8a 58 35 bd d6 31 22 be 94 67 0e bd
       0.0038810258 -0.04427389 -0.15839323 -0.03476675
0001f0 ee 16 70 bd c7 48 f6 3d 19 08 00 3c 3e ee 8b be
       -0.058615617 0.120256 0.007814431 -0.27330202
000200 06 b4 4a bb 8b 6f e7 bd 5f f5 92 3d ca 82 6c 3c
       -0.0030930056 -0.11300572 0.07175707 0.014435479
000210 30 b9 ad 3d 35 bd 87 3c 3f dd 52 3c 6b 94 84 bd
       0.08482587 0.016569713 0.012870132 -0.06473621
000220 8c 0a d9 3d 19 ac d1 3c 51 7c 33 3d 82 e3 a4 3a
       0.10597715 0.025594758 0.04381973 0.001258001
000230 9e 7e 9a 3d 50 21 69 3d 3b d9 dc 3d 2c 85 93 bd
       0.075436816 0.056916535 0.10783621 -0.07203135
000240 d1 eb 65 3c ff af 2b 3c 4d 3c ec 3d 02 9b 58 3d
       0.014033274 0.010478972 0.11534939 0.052882202
000250 0f 91 cb bd 36 25 22 3c d9 da e1 3c 1b 10 d8 3c
       -0.09939777 0.009896567 0.027570175 0.026374867
000260 bf 71 3e bd c5 69 1d bd f8 a6 8c bd 2a 10 6f 3d
       -0.046495195 -0.038430948 -0.06867784 0.058365025
000270 0f 85 cd 3d d0 b3 2f 3d f0 e9 aa 3d 70 2d 64 bd
       0.100351445 0.042896092 0.08345401 -0.055707395
000280 fa fa 28 bc ed 31 92 bd fe a9 56 bd 26 7f f2 bd
       -0.010313744 -0.07138429 -0.05240821 -0.11840658
000290 eb 45 bb bd e1 2d 83 3d fa 71 1d 3b f0 5c a1 3c
       -0.09144195 0.06405235 0.0024024234 0.019697636
0002a0 ba 58 79 3d b8 62 bc bd df 48 8f bd d5 01 87 3d
       0.060875632 -0.091985166 -0.06996321 0.06592146
0002b0 2a e6 82 3d df 95 f0 bd d3 4b b0 bc 91 4e 60 3d
       0.063915566 -0.11747336 -0.02152053 0.054762427
0002c0 fd de 9a 3d 6f c6 13 bb b5 56 1e bd e5 5d 42 bc
       0.07562063 -0.0022548696 -0.03865691 -0.0118632065
0002d0 93 b5 07 bb 1a b1 cf bd e6 ac 2a 3d ae b5 23 3d
       -0.0020707592 -0.10141201 0.041668795 0.039968185
0002e0 81 13 eb 3d 2c 14 99 3d 4a db d1 bd a2 08 c4 bd
       0.114783294 0.074745506 -0.10246904 -0.09571959
0002f0 b5 71 9d bd 2a ef 00 3c 8f 81 87 bd b2 2f 8b bd
       -0.076877035 0.007869521 -0.06616508 -0.067962065

rnn.bias_hh_l1 f4 [192]
000000 9d 93 b4 3d 7d 75 c9 bc db a0 94 3c 88 9d 81 bc
       0.088172175 -0.024592156 0.018143108 -0.015822187
000010 24 4e df 3d ac fd d8 3c 2d 6c df bd 26 bb c7 3c
       0.10903576 0.026488148 -0.10909305 0.024381232
000020 47 e8 05 3c c7 ae ad 3c 27 76 8a bd 05 9b a4 bc
       0.008173055 0.021201504 -0.06760817 -0.02009345
000030 73 39 eb bd 94 11 9d bd d3 e5 4b bd 07 b2 f4 bd
       -0.11485567 -0.076693684 -0.049779724 -0.119480185
000040 8b 5c e9 3d 4e 7f d5 ba ac 7b 8b bd 25 f8 9e 3d
       0.11394604 -0.001628855 -0.06810698 0.077621736
000050 15 89 b8 bd b2 a5 ca 3d 06 64 1a 3d 6e 52 43 bd
       -0.09010521 0.09894885 0.037693046 -0.047686033
000060 49 77 ea 3c b7 97 d3 bd 27 ff 93 bd bc 52 0a 3d
       0.028621333 -0.10331672 -0.07226401 0.033770308
000070 bd a7 b5 3c db 82 f8 bb 9c 5e 40 3d 0c 9d bb bd
       0.02217471 -0.0075839586 0.046965227 -0.09160814
000080 0a d8 e9 3d 59 52 87 bd 16 cf 92 bd b9 27 4d 3d
       0.11418159 -0.066075034 -0.07168405 0.05008671
000090 1b cd a7 3d b8 6b 1a 3c 50 6d 0b bc 92 e2 d3 3c
       0.08193418 0.009425096 -0.008509949 0.025864873
0000a0 e5 96 91 bd 47 94 33 bd f6 80 20 3c b1 e0 43 3b
       -0.07108859 -0.04384258 0.009796372 0.0029888565
0000b0 1b 6b 16 3d 3d 96 cd 3b c0 7d 05 bc 81 be 8f 3b
       0.036723237 0.0062740133 -0.008147657 0.0043867235
0000c0 ad 99 cc 3d 2a 1f 88 bc 80 b0 ed 3d 19 34 bc bd
       0.09990249 -0.016616423 0.1160593 -0.09189624
0000d0 17 ab 78 3d ea cb 4c bd bf 83 ca 3d 57 69 94 3d
       0.06071004 -0.049999155 0.0988841 0.072466545
0000e0 1a ae ab bd 51 a2 42 3d 9f be bb 3d 5e cf 97 3d
       -0.083828166 0.04751808 0.091672175 0.07412599
0000f0 19 81 63 bd 4d 99 83 3d 9d 1e f6 bd 8a d8 87 bd
       -0.05554304 0.06425724 -0.12017558 -0.066330984
000100 b8 7f f4 3d 88 f8 83 bd de d3 dd bd ff c2 b2 bc
       0.11938423 -0.06443888 -0.10831426 -0.021821497
000110 f5 c6 a2 bd 08 8c a3 3d df 84 0d be b1 86 0e 3e
       -0.07948104 0.07985693 -0.13820218 0.13918568
000120 d3 20 44 be 5c 7e 08 be a6 86 64 bc 01 0c a0 3d
       -0.19153146 -0.13329452 -0.013948118 0.078147896
000130 34 b2 b3 bd 56 69 00 3d 2c 9d 1b bc 95 9f 90 bd
       -0.08774224 0.031350456 -0.009497922 -0.07061688
000140 32 3f dc bd cf b4 14 3d 4e c2 f7 bc ba f3 46 3c
       -0.10754241 0.036305245 -0.030244019 0.01214307
000150 14 49 0d 3d dd eb 49 bd 2f 61 c7 bd 47 eb d9 bd
       0.03449352 -0.049297202 -0.09735333 -0.10640579
000160 d0 71 06 bc e5 42 d3 bd a7 eb bd bc 27 3a d8 bd
       -0.008205846 -0.103154935 -0.023183657 -0.10557967
000170 72 c6 08 be f4 92 b7 be 88 ab 60 bd fd 43 2b bd
       -0.13356951 -0.35854304 -0.054851085 -0.041812886
000180 fb b7 a5 3d 10 7b 91 3c 5c 3f 1f be 38 30 84 be
       0.08091732 0.017758876 -0.15551513 -0.25818038
000190 c7 29 fa bb a7 37 98 bd 31 2b 9f be fb 48 53 bd
       -0.007634375 -0.0743249 -0.3108764 -0.05158327
0001a0 b0 16 29 be e8 4d eb 3d cf 98 3c 3d ac 48 64 3c
       -0.16512561 0.11489469 0.046044167 0.013933342
0001b0 83 ed 79 bd 81 ee a3 3d 51 f3 97 3d bc 41 ae 3c
       -0.061017524 0.080044754 0.07419456 0.021271579
0001c0 4e 95 b1 bc 35 ef 04 3e f7 b1 a5 3d 26 86 fd 3d
       -0.02167764 0.12981875 0.08090585 0.123791024
0001d0 a0 8a d8 bc bd 1d 21 be 23 58 92 3d bb 4d b2 bd
       -0.026433289 -0.15734 0.07145717 -0.08706232
0001e0 fe 96 a8 bb 2f 75 9f 3d 65 02 0e be 2a 59 1f 3d
       -0.005144953 0.07786023 -0.13868101 0.038903393
0001f0 6d cf da bd bd 4d d0 bd 54 68 21 3d 9d 3e df bd
       -0.106840946 -0.101710774 0.039406136 -0.109006144
000200 d7 8f 03 3d a6 29 0c 3c c1 36 e3 3d bc 53 43 3d
       0.0321196 0.008554852 0.11094428 0.047687277
000210 be 22 58 bb 7f 3b ad 3c bb ad e7 bb 6d af f6 bd
       -0.0032979692 0.021146534 -0.007070271 -0.120451786
000220 f2 e5 93 bd f3 18 87 bc a1 d4 ba bd 30 03 f9 bd
       -0.07221593 -0.016491389 -0.09122587 -0.12158811
000230 70 34 aa 3c b9 ea a6 bd d9 37 85 3d 3b cc c8 bc
       0.020776957 -0.081502385 0.06504793 -0.024511447
000240 3b e5 cc bd 59 fd a6 bd 99 c7 2e 3d e5 40 70 3c
       -0.1000466 -0.08153791 0.04267082 0.01466391
000250 89 70 68 3d 3e b8 27 3d 15 9c ee 3d 21 db 78 3d
       0.056747947 0.04094719 0.11650864 0.060755853
000260 53 3f 95 bd 77 6d 31 3d 97 a7 5d 3c 87 dc 5a bd
       -0.07287469 0.043317284 0.013528726 -0.053432968
000270 3f 38 f8 bd 9c 3b b8 3d f3 67 85 bd d0 75 86 bc
       -0.12120103 0.089957446 -0.06513967 -0.0164136
000280 95 d2 9e bc 90 27 ca bd 92 98 bb bb fd d7 de 3c
       -0.019387523 -0.09870827 -0.005724975 0.0272026
000290 1b f0 aa 3d 0c be c4 bd dd 59 bd bd 57 37 7c 3d
       0.08346578 -0.09606561 -0.09245656 0.061576214
0002a0 fd 31 b2 3c 0b 18 cc 3d c9 24 68 bd 9e eb 34 3c
       0.021752352 0.09965523 -0.056675706 0.011042504
0002b0 36 f9 74 bd df 1f cf 3d 0e 63 f1 3d 51 ae a5 bd
       -0.05980798 0.10113501 0.11786471 -0.08089889
0002c0 16 22 ba 3c 33 b1 fe 3c c0 66 90 3d 6e 2e e1 3c
       0.022721332 0.031090355 0.07050848 0.02748796
0002d0 7e c8 7b bd 61 bf 3f bd 0e 9c 9e bd 56 ff b3 bd
       -0.0614705 -0.046813373 -0.07744609 -0.08788936
0002e0 c0 67 c6 bc 1e 16 ee bc 4c 97 40 ba 7f bf d9 bd
       -0.024219394 -0.02906328 -0.0007346764 -0.10632228
0002f0 71 31 ce 3c 1b f8 a2 bd 5a cf 7d 3d e1 4e 45 3b
       0.02517006 -0.079574786 0.061965324 0.003010683
