data/results/gru_baseline_ETH_r5d.pt (torch, 166549 bytes, 9 tensors)

rnn.weight_ih_l0 f4 [192, 15]
-0.11048452 -0.05307253 -0.23155679 0.3605335 -0.2654903 -0.06459458 0.009723214 -0.319829
-0.032628085 -0.1695011 0.116957255 -0.005537427 0.016412515 0.059948206 -0.27714747 0.015534645
0.13260652 -0.14188002 0.09877508 -0.0047457535 0.04301098 0.098294705 -0.14279364 -0.045442473
-0.09594848 -0.08519509 0.0580865 -0.21625651 -0.1561783 -0.15939438 0.0058481446 0.08856729
0.006169117 0.20164919 -0.10853028 -0.10744169 -0.091331884 -0.14241141 0.031518586 -0.018056598
0.04249395 0.0021973387 -0.15322557 0.08432042 -0.05542311 0.044983283 0.19735183 -0.22119878
0.08139082 0.14653619 -0.21935467 -0.053580653 -0.3021816 -0.059118595 -0.06266765 0.15521912
0.13251413 -0.15110391 -0.088240474 -0.033473022 -0.015495617 -0.08351347 0.0042552063 0.023068018
-0.11174783 0.053137757 -0.093262345 0.05183259 -0.10702167 0.16090757 -0.13475311 -0.05717258
-0.07632247 -0.19812515 0.035524633 0.16113475 -0.03010015 0.014279457 -0.14400928 0.05144913
-0.11074168 -0.11655855 0.043246984 -0.020360967 -0.067950584 0.11650705 -0.10826973 0.0069294255
0.0006125604 -0.06936191 -0.10436119 -0.11139121 -0.27489498 -0.024869388 -0.11993693 -0.26895195
-0.029414445 -0.24642335 0.14367285 -0.38000214 0.08580564 0.23242481 -0.11338661 0.023029242
-0.2401537 -0.075191796 0.07515092 -0.22192243 0.19261983 -0.08029706 0.08014071 -0.04377765
-0.209326 0.11198466 -0.15198791 0.028422251 -0.0046558348 -0.23286982 -0.11177263 -0.15221778
0.118980005 0.108122304 -0.07176849 0.19277579 -0.1829682 0.03452754 0.16726801 -0.1279015
-0.092109494 -0.16380249 0.090771526 0.17712721 -0.17681015 -0.091359004 -0.05266384 -0.098707415
0.071019836 -0.058898393 0.008722748 -0.14224875 -0.19088139 0.06031044 -0.054860223 0.040020335
0.020147128 0.08674831 -0.048119847 -0.18440373 0.10707384 -0.009565456 0.008287737 0.1671245
-0.44296017 0.2388247 -0.44861236 -0.12127559 -0.071481064 -0.3067034 0.2221599 -0.34506673
-0.08302804 0.11705485 -0.34332806 0.101363115 -0.45318562 0.029913401 0.09565583 0.009802127
-0.045147337 0.07333067 -0.2018766 0.13669671 -0.13275965 -0.020845246 0.057903472 0.0057087136
0.00020858686 -0.12734205 -0.12308027 0.08148447 -0.21721603 -0.05999457 -0.3258909 0.33942896
-0.3117352 -0.07100698 -0.08686458 -0.05430154 0.5194431 -0.3400851 -0.03856855 0.0136789745
-0.094833754 0.1870986 -0.42459178 -0.29198515 -0.2707716 0.15249221 0.040564228 -0.058121815
-0.045826975 0.03581855 0.03922649 -0.12088846 0.013333858 0.06671565 -0.105235904 0.10654754
-0.26690853 0.23574787 -0.0653052 -0.14512636 -0.17222212 0.29269326 -0.17689025 -0.09299542
-0.060082793 -0.10295961 -0.089897886 -0.102843985 -0.024622858 0.21680798 -0.011116317 -0.1276791
-0.0784514 -0.00482442 0.1462853 -0.029177524 0.120364055 -0.14346431 -0.12721162 -0.059615493
-0.036644578 -0.22354642 -0.23106237 0.20372233 0.11638763 0.080147855 -0.09888252 -0.08107486
-0.12958658 0.014905285 -0.12730496 -0.24476673 0.07642381 -0.12796752 -0.16506961 -0.07113742
-0.2363591 0.13554114 -0.065675296 -0.049039822 0.043701038 -0.093201905 0.13012688 -0.13746569
00000000: b545 e2bd 9562 59bd 391d 6dbe d997 b83e
00000010: 58ee 87be 2a4a 84bd 1e4e 1f3c a0c0 a3be
00000020: 07a5 05bd b291 2dbe 4987 ef3d 4e73 b5bb
00000030: 8a73 863c 408c 753d 46e6 8dbe 0685 7e3c
00000040: 01ca 073e ff48 11be 974a ca3d 4482 9bbb
00000050: 482c 303d bc4e c93d 7f38 12be e321 3abd
00000060: a380 c4bd c37a aebd 1cec 6d3d 5972 5dbe
00000070: 34ed 1fbe 4838 23be cba1 bf3b c462 b53d
00000080: 4e26 ca3b 207d 4e3e 2045 debd 640a dcbd
00000090: 360c bbbd 4cd4 11be a219 013d 6eeb 93bc
000000a0: 230e 2e3d 3a01 103b 2ae7 1cbe 2fb0 ac3d
000000b0: 5803 63bd 6440 383d 9916 4a3e ef81 62be
000000c0: 3bb0 a63d 950d 163e 839e 60be 6377 5bbd
000000d0: 8cb7 9abe 5726 72bd e657 80bd c3f1 1e3e
000000e0: c9b1 073e fcba 1abe 6cb7 b4bd 021b 09bd
000000f0: 54e1 7dbc 1c09 abbd 426f 8b3b 24f9 bc3c
00000100: 0cdc e4bd faa6 593d 5400 bfbd 694e 543d
00000110: 2d2e dbbd f4c4 243e b8fc 09be cc2d 6abd
00000120: f54e 9cbd 52e1 4abe 4782 113d 8200 253e
00000130: 9794 f6bc 62f4 693c 2b77 13be 53bc 523d
00000140: 89cc e2bd 40b6 eebd c023 313d 0bcc a6bc
00000150: ad29 8bbd 409b ee3d 85bc ddbd 3c10 e33b
00000160: 3c94 203a 9e0d 8ebd 52bb d5bd 1321 e4bd
00000170: 09bf 8cbe e3ba cbbc 7ea1 f5bd 12b4 89be
00000180: 90f6 f0bc 6756 7cbe fa1e 133e a48f c2be
00000190: deba af3d c500 6e3e 3d37 e8bd d2a7 bc3c
000001a0: daea 75be 28fe 99bd bae8 993d a23f 63be
000001b0: 223e 453e c972 a4bd d020 a43d 3150 33bd
000001c0: 8e59 56be 3758 e53d b8a2 1bbe c8d5 e83c
000001d0: f98f 98bb 6d75 6ebe 0ce9 e4bd fade 1bbe
000001e0: caab f33d 3a6f dd3d 5cfb 92bd 0467 453e
000001f0: 045c 3bbe c06c 0d3d 4e48 2b3e 9cf8 02be
00000200: e7a3 bcbd d7bb 27be 6ce6 b93d d660 353e
00000210: b80d 35be 6e1a bbbd 0ab6 57bd 1d27 cabd
00000220: d972 913d 713f 71bd dbe9 0e3c a8a9 11be
00000230: 6976 43be 1408 773d 1db5 60bd 5dec 233d
00000240: 970b a53c 19a9 b13d 5119 45bd 55d4 3cbe
00000250: 8849 db3d 6eb8 1cbc 4ac9 073c af22 2b3e
00000260: adcb e2be 768e 743e 85b0 e5be 565f f8bd
00000270: aa64 92bd 3a08 9dbe e37d 633e 96ac b0be
00000280: 9b0a aabd 74ba ef3d b2c8 afbe 7797 cf3d
00000290: f207 e8be f30c f53c 34e7 c33d 1a99 203c
000002a0: 6aec 38bd 642e 963d bdb8 4ebe 39fa 0b3e
000002b0: 25f2 07be a6c3 aabc 312c 6d3d 2910 bb3b
000002c0: 1cb8 5a39 f465 02be 8211 fcbd 54e1 a63d
000002d0: e16d 5ebe debc 75bd 2cdb a6be a2c9 ad3e
000002e0: c29b 9fbe 1c6c 91bd 0fe6 b1bd 4b6b 5ebd
000002f0: 39fa 043f a21f aebe 0efa 1dbd c71d 603c
00000300: 3338 c2bd c796 3f3e 1864 d9be 147f 95be
00000310: 93a2 8abe eb26 1c3e ad26 263d 2411 6ebd
00000320: 11b5 3bbd 79b6 123d f5ab 203d 5e94 f7bd
00000330: 4176 5a3c 37a2 883d ec85 d7bd 9935 da3d
00000340: 3ca8 88be e467 713e bcbe 85bd 019c 14be
00000350: ff5a 30be e4db 953e b822 35be 6274 bebd
00000360: 6019 76bd 7ddc d2bd 621c b8bd de9f d2bd
00000370: e0b5 c9bc e902 5e3e 3621 36bc 4fbe 02be
00000380: 21ab a0bd 2b16 9ebb d0cb 153e b405 efbc
00000390: 6e81 f63d 4fe8 12be c343 02be 602f 74bd
000003a0: a018 16bd 5ae9 64be 9d9b 6cbe 969c 503e
000003b0: a35c ee3d 8f24 a43d eb82 cabd 940a a6bd
000003c0: 58b2 04be 4c35 743c 3b5c 02be 21a4 7abe
000003d0: 1684 9c3d eb09 03be 0208 29be 7fb0 91bd
000003e0: 1f08 72be 4ccb 0a3e c580 86bd fbdd 48bd
000003f0: dcff 323d a4e0 bebd fb3f 053e cec3 0cbe

rnn.weight_hh_l0 f4 [192, 64]
0.18591611 -0.017561113 0.14887618 0.008087443 -0.11410829 0.2173418 -0.14517476 -0.08408324
0.048141904 -0.114816494 -0.19005229 -0.012621517 -0.05484558 0.06374201 -0.048396803 0.1076874
-0.21498175 -0.10590562 0.030384414 -0.11963462 -0.028094966 0.15886936 0.09078836 -0.17237292
0.17199616 -0.142389 0.021903455 0.018740466 0.048572894 0.081695564 -0.0743304 0.1061711
-0.23763946 -0.114182666 -0.101634726 0.07365809 0.07196633 -0.005790546 0.043294575 -0.050285988
-0.025650708 0.13400097 0.17833522 -0.0056150644 0.13521092 -0.113513835 -0.01813947 0.09981744
-0.050412357 0.16400547 -0.004104236 -0.03127668 0.22296044 0.005206715 0.06851434 0.020942869
0.21616171 0.011931967 -0.089816004 -0.12388704 -0.11348482 -0.029430216 -0.055833615 -0.015913976
0.122267716 -0.08922952 -0.021528022 -0.078754626 0.100452304 0.059182927 -0.080343045 0.09021449
0.0023572424 0.0258322 -0.0043403916 -0.026583813 0.084905975 -0.015567906 0.04035875 -0.11960832
-0.08806043 0.061053563 0.014437596 -0.029877821 -0.06318872 -0.0053627864 0.008920666 0.046019983
-0.09316237 -0.029067952 0.021298205 -0.12717642 0.062192716 -0.05650199 0.008501979 -0.045199707
-0.010637902 -0.15012452 0.06806363 0.018587207 0.032731432 0.013079055 0.15138887 0.06779443
-0.019063236 -0.059693195 -0.065368764 0.079905935 -0.03104546 0.10293694 -0.023184376 0.1460418
0.11996668 0.019524353 -0.05942162 -0.036856454 -0.048356332 0.02731267 0.0688889 -0.1273122
-0.026177492 0.042616524 0.124925226 0.08795047 0.12328341 0.061764825 0.07182067 0.13413824
0.019428097 -0.0044020796 -0.05587555 0.0062243934 0.07147995 -0.044148795 0.053260557 -0.0038518128
0.06714452 -0.07233498 -0.17808303 0.0019716008 -0.12385542 -0.11132847 0.0045466283 -0.025962751
-0.039038923 0.112951726 0.07368107 0.009539389 0.099927105 0.11744967 0.042643625 -0.13746664
0.10183732 0.009754124 -0.020847566 0.04358773 -0.11184802 -0.03661664 -0.015322908 0.117979184
-0.09247457 -0.049468197 0.09418395 0.024194691 -0.022620428 -0.1321838 -0.058823064 -0.0072897663
-0.078684635 -0.082605936 0.036227975 -0.07384308 0.014364777 -0.025519777 0.06750991 0.008609526
-0.12168155 -0.019756118 -0.093154974 -0.03174809 0.08207071 -0.017378075 -0.019738993 -0.004003612
0.062369607 -0.07160856 -0.12799622 -0.021913696 0.074579105 0.05063384 0.05417969 0.08167814
-0.1019259 -0.058656532 0.23674652 0.09474531 -0.12185614 0.09015264 -0.0702864 -0.14405526
-0.09948402 -0.11193453 -0.0049635335 0.079971455 -0.07516287 -0.023409897 0.021431318 -0.017980471
-0.20492235 -0.07112997 -0.12373817 -0.06698497 -0.09577209 -0.0149294045 0.24558373 -0.02838049
-0.18071792 0.22161515 -0.035560213 -0.026148818 -0.016419621 -0.026782691 0.07824505 0.06511164
0.13844971 -0.11359955 -0.010283403 -0.14047275 -0.019336576 -0.15094768 -0.005806266 -0.06317556
0.037288383 0.1432444 -0.106089585 -0.09508559 0.047942463 -0.003982125 -0.28489792 0.075812496
-0.09871403 0.035482366 0.120489165 -0.12132471 0.039174907 -0.046506718 -0.06883607 -0.021159234
0.029290825 -0.076036826 -0.16075864 -0.05531883 0.008763391 -0.00056715164 0.051570166 0.05985798
00000000: cb60 3e3e 53dc 8fbc ff72 183e 3281 043c
00000010: 9bb1 e9bd d98e 5e3e b1a8 14be d533 acbd
00000020: 7230 453d e924 ebbd 119d 42be 7bca 4ebc
00000030: c2a5 60bd 2c8b 823d ba3b 46bd 368b dc3d
00000040: 2d24 5cbe 0ce5 d8bd bce8 f83c ff02 f5bd
00000050: 6a27 e6bc a6ae 223e 3fef b93d 8782 30be
00000060: c31f 303e 6cce 11be e06e b33c 9b85 993c
00000070: 5ff4 463d 0150 a73d 893a 98bd 3c70 d93d
00000080: c257 73be 9ad8 e9bd de25 d0bd 0dda 963d
00000090: 1563 933d 9fbe bdbb a755 313d aef8 4dbd
000000a0: 6f21 d2bc 8d37 093e 829d 363e 93fe b7bb
000000b0: bb74 0a3e f179 e8bd 3a99 94bc 166d cc3d
000000c0: 307d 4ebd 0df1 273e d47c 86bb fa1b 00bd
000000d0: be4f 643e 179d aa3b 3f51 8c3d 6190 ab3c
000000e0: 7f59 5d3e 4c7e 433c 74f1 b7bd 7db8 fdbd
000000f0: bb6a e8bd a317 f1bc cab1 64bd 075e 82bc
00000100: 7f67 fa3d f7bd b6bd 895b b0bc 1b4a a1bd
00000110: f0b9 cd3d cc69 723d e58a a4bd 60c2 b83d
00000120: f77b 1a3b 0d9e d33c d839 8ebb 4cc6 d9bc
00000130: 2fe3 ad3d 8810 7fbc 374f 253d 35f5 f4bd
00000140: 0759 b4bd 4d13 7a3d ab8b 6c3c 55c2 f4bc
00000150: 1669 81bd 50ba afbb fc27 123c 737f 3c3d
00000160: eacb bebd ea1f eebc 9379 ae3c 893a 02be
00000170: cabd 7e3d a16e 67bd e24b 0b3c 5423 39bd
00000180: 984a 2ebc 3eba 19be f264 8b3d 3344 983c
00000190: 6511 063d 8849 563c af05 1b3e ced7 8a3d
000001a0: 812a 9cbc da80 74bd 0fe0 85bd b9a5 a33d
000001b0: 0c53 febc 9ad0 d23d 29ed bdbc fb8b 153e
000001c0: 17b1 f53d 89f1 9f3c 1664 73bd cbf6 16bd
000001d0: 4a11 46bd d2be df3c a015 8d3d 215e 02be
000001e0: 2e72 d6bc aa8e 2e3d ccd8 ff3d 601f b43d
000001f0: 037c fc3d 1dfd 7c3d b716 933d 895b 093e
00000200: ac27 9f3c 523f 90bb c3dd 64bd fff5 cb3b
00000210: 1464 923d 5ed5 34bd be27 5a3d b26e 7cbb
00000220: 1183 893d 5d24 94bd 665b 36be f935 013b
00000230: e9a7 fdbd 2e00 e4bd e2fb 943b d6af d4bc
00000240: 47e7 1fbd 3c53 e73d 1ae6 963d 194b 1c3c
00000250: 95a6 cc3d 7489 f03d 15ab 2e3d 0ec4 0cbe
00000260: 1690 d03d c3cf 1f3c 84c8 aabc 0c89 323d
00000270: 9310 e5bd 54fb 15bd ef0c 7bbc 129f f13d
00000280: 4f63 bdbd 2a9f 4abd 84e3 c03d f233 c63c
00000290: 7a4e b9bc 315b 07be 74f0 70bd fede eebb
000002a0: 6925 a1bd 4d2d a9bd c963 143d 0a3b 97bd
000002b0: 3e5a 6b3c da0e d1bc a342 8a3d f80e 0d3c
000002c0: 2d34 f9bd 95d7 a1bc 09c8 bebd 490a 02bd
000002d0: b014 a83d 775c 8ebc abb3 a1bc bb30 83bb
000002e0: 4677 7f3d 82a7 92bd 7111 03be 5a84 b3bc
000002f0: eebc 983d 6e65 4f3d 86eb 5d3d de46 a73d
00000300: 87be d0bd d541 70bd ae6d 723e d409 c23d
00000310: b68f f9bd f3a1 b83d 51f2 8fbd 3983 13be
00000320: 47be cbbd ee3d e5bd 23a5 a2bb 13c8 a33d
00000330: feee 99bd 1dc6 bfbc bb90 af3c c84b 93bc
00000340: 2ad7 51be 97ac 91bd 706a fdbd 6a2f 89bd
00000350: 2824 c4bd 769a 74bc 4d7a 7b3e 347e e8bc
00000360: 1e0e 39be 15ef 623e 96a7 11bd 0c36 d6bc
00000370: 7182 86bc 6067 dbbc f13e a03d 4059 853d
00000380: c3c5 0d3e e2a6 e8bd b87b 28bc 17d8 0fbe
00000390: bd67 9ebc 0792 1abe 7d42 bebb 3062 81bd
000003a0: b4bb 183d a9ae 123e 7f45 d9bd 3cbc c2bd
000003b0: 515f 443d 7c7c 82bb 24de 91be 9543 9b3d
000003c0: 952a cabd f555 113d 06c3 f63d 1779 f8bd
000003d0: de75 203d d47d 3ebd edf9 8cbd 2156 adbc
000003e0: 50f3 ef3c 32b9 9bbd ea9d 24be ff95 62bd
000003f0: 5394 0f3c e7ac 14ba 3d3b 533d a42d 753d

rnn.bias_ih_l0 f4 [192]
0.02737327 -0.09652418 0.040720727 0.011504612 -0.07906894 0.09373806 -0.016273305 0.0005232125
-0.022295354 0.1810976 -0.02571155 0.05314108 0.33055446 -0.026077516 -0.06323218 0.07506492
0.057814747 0.03072486 -0.049173035 0.053802997 0.03849241 0.089487396 -0.098528296 0.067447394
0.15703362 0.2027642 0.08577555 0.089084946 -0.035311684 -0.0020424612 0.115760595 0.11339101
0.012806783 0.07283417 -0.08713011 0.028351 -0.081767045 -0.07140746 0.07414524 0.058048155
0.06508669 -0.06213331 0.07804645 -0.018235834 -0.044131316 0.0426277 -0.13623579 0.095360756
0.016198745 -0.014948662 0.0077623837 0.06720748 0.15679131 0.086610265 -0.049244184 0.038101595
0.046431478 0.07564951 -0.027171504 -0.018153008 0.008304601 -0.056521505 0.054068055 0.02347177
-0.21946591 0.02076212 -0.0218437 0.041887593 -0.13366556 -0.09245126 -0.06600552 -0.08802304
-0.08555497 -0.51015335 -0.22131695 -0.019539239 -0.27316076 -0.15198539 -0.09489246 -0.047616713
-0.17114136 -0.25537327 -0.028272428 -0.16406797 -0.22922945 -0.29639184 -0.036231276 -0.15396413
-0.3188905 -0.15807334 -0.06414656 -0.29743338 -0.13662228 -0.21997428 0.07644865 -0.007284953
-0.2503095 0.08512569 -0.12570128 -0.19233377 0.15945984 -0.1808668 -0.06362708 -0.10596026
-0.18787546 0.017870823 -0.16068521 -0.02326009 0.07315985 0.0037224898 -0.0024534652 0.096811384
0.056173295 -0.08151657 -0.06000656 -0.14777108 -0.09536716 -0.13561068 -0.12302653 -0.12806489
-0.06309692 -0.21566473 -0.010627501 -0.02994656 0.072542734 -0.3390714 -0.16953021 -0.23682737
0.1025446 -0.0059525953 0.09735477 -0.0421038 -0.0661192 -0.0055107474 -0.07904563 -0.1129405
0.0084000295 0.03340716 -0.034969233 -0.01583911 -0.076367944 0.056330655 -0.03055668 -0.028043702
-0.071072236 -0.044405717 -0.019704586 -0.09234899 0.08409482 -0.008086659 0.0031786666 0.042116974
-0.017940633 -0.0057729417 0.07605429 0.041425344 -0.026208114 -0.015040705 0.07550705 0.023578085
-0.021424977 0.031895775 -0.08798436 0.059302006 0.082026556 -0.022231266 0.0021820457 0.043249447
0.03849753 0.086505 0.067213245 -0.05407673 0.02549624 -0.023275236 0.036361545 -0.073163725
0.022590667 0.00042796606 0.051548738 -0.038790774 -0.011224044 -0.07675069 -0.028461915 0.037722927
0.0754036 0.0075375256 -0.0063334974 0.02930831 -0.08671398 0.007350504 0.064687036 0.0038250273
00000000: e83d e03c 78ae c5bd c7ca 263d d77d 3c3c
00000010: e5ee a1bd bdf9 bf3d 984f 85bc 3228 093a
00000020: bfa4 b6bc a671 393e 07a1 d2bc 76aa 593d
00000030: 6f3e a93e 84a0 d5bc e07f 81bd a3bb 993d
00000040: 28cf 6c3d b4b2 fb3c aa69 49bd 8860 5c3d
00000050: 38aa 1d3d 2b45 b73d 34c9 c9bd dc21 8a3d
00000060: 6ccd 203e 6ba1 4f3e 17ab af3d 2b72 b63d
00000070: fca2 10bd d0da 05bb e413 ed3d 8c39 e83d
00000080: 8bd3 513c 152a 953d 4571 b2bd 5b40 e83c
00000090: 7b75 a7bd 133e 92bd 76d9 973d e7c3 6d3d
000000a0: 2c4c 853d 7f7f 7ebd d1d6 9f3d 5163 95bc
000000b0: 0ac3 34bd 629a 2e3d 6581 0bbe 804c c33d
000000c0: 3bb3 843c 3ceb 74bc 985b fe3b 13a4 893d
000000d0: e78d 203e b960 b13d 45b4 49bd 6b10 1c3d
000000e0: ef2e 3e3d 21ee 9a3d c696 debc 9eb5 94bc
000000f0: 0510 083c 1883 67bd 7776 5d3d df47 c03c
00000100: acbb 60be 5215 aa3c 8ff1 b2bc 5392 2b3d
00000110: a0df 08be 1657 bdbd e72d 87bd 6c45 b4bd
00000120: 7237 afbd 6999 02bf e9a0 62be c110 a0bc
00000130: badb 8bbe 0fa2 1bbe fa56 c2bd be09 43bd
00000140: ae3f 2fbe 49c0 82be 949b e7bc 6f01 28be
00000150: 20bb 6abe acc0 97be 3f67 14bd c6a8 1dbe
00000160: 9e45 a3be fadd 21be 465f 83bd 3049 98be
00000170: b6e6 0bbe f040 61be 1c91 9c3d 9db6 eebb
00000180: 9128 80be 6156 ae3d d6b7 00be 25f3 44be
00000190: 7149 233e 2535 39be ea4e 82bd b101 d9bd
000001a0: 6d62 40be d565 923c aa8a 24be f28b bebc
000001b0: d5d4 953d 04f5 733b 51ca 20bb 0c45 c63d
000001c0: f815 663d 29f2 a6bd 70c9 75bd 4d51 17be
000001d0: dc4f c3bd 87dd 0abe 55f5 fbbd 7123 03be
000001e0: f538 81bd 37d7 5cbe f81e 2ebc 7d52 f5bc
000001f0: 4991 943d c49a adbe 5499 2dbe e082 72be
00000200: e702 d23d fd0d c3bb f061 c73d 0975 2cbd
00000210: 8169 87bd 8093 b4bb ade2 a1bd 594d e7bd
00000220: 47a0 093c f2d5 083d e63b 0fbd 05c1 81bc
00000230: cc66 9cbd f9ba 663d 0152 fabc e8bb e5bc
00000240: 528e 91bd c5e2 35bd 836b a1bc 7821 bdbd
00000250: e839 ac3d e87d 04bc 2d51 503b d982 2c3d
00000260: 3cf8 92bc f22a bdbb 5ac2 9b3d 9fad 293d
00000270: 66b2 d6bc 4a6d 76bc 71a3 9a3d d426 c13c
00000280: 6f83 afbc 25a5 023d 2531 b4bd a9e6 723d
00000290: 8afd a73d 581e b6bc a700 0f3b 5526 313d
000002a0: 96af 1d3d 8929 b13d 19a7 893d 907f 5dbd
000002b0: 7edd d03c b5ab bebc d8ef 143d ddd6 95bd
000002c0: 1010 b93c a260 e039 c524 533d 13e3 1ebd
000002d0: 0de5 37bc 772f 9dbd f628 e9bc 5b83 1a3d
000002e0: 346d 9a3d 59fd f63b 3a89 cfbb fb17 f03c
000002f0: 1997 b1bd 7fdc f03b a37a 843d 4fad 7a3b

rnn.bias_hh_l0 f4 [192]
0.1030928 0.028008442 -0.114208564 -0.04365235 -0.12760219 0.022625132 -0.018836454 0.09429202
0.091832384 0.07196863 0.16552426 -0.013509518 0.17243527 0.045270327 0.13218057 0.09391882
0.06995486 -0.059275165 0.03695468 -0.033220075 0.07667436 -0.10095783 -0.019971063 0.0023253805
0.17293431 0.103702255 -0.06456793 -0.10065805 -0.042516936 0.023735976 -0.023069086 0.002240681
0.17488922 0.13061103 -0.048035823 -0.08787963 0.060303513 0.0014483003 0.115092024 -0.0043026065
-0.065836854 -0.10096142 -0.101860575 -0.102523394 -0.10166653 0.061719093 -0.12414902 0.08594254
-0.0045565837 -0.059293903 0.018879687 0.07779266 0.13065848 -0.09688976 -0.09885085 -0.035372995
-0.08642133 0.014589995 0.045533516 -0.07962364 -0.06765058 -0.050383165 -0.08591015 -0.08029866
-0.23610315 -0.037855893 0.08786362 0.054330323 0.04202658 -0.095592946 -0.01468804 0.008925115
-0.19267647 -0.36385202 -0.24514548 -0.155835 -0.27330232 -0.31475174 -0.16558123 -0.0117176715
-0.12064341 -0.047074348 0.06949397 -0.18209882 -0.07617056 -0.14956339 -0.036079336 -0.20692809
-0.34886956 -0.17613539 -0.11066359 -0.08840158 -0.23630133 -0.041685052 0.04271362 -0.03644414
-0.16361596 0.036495917 -0.08190578 -0.21755697 0.01694668 -0.22395398 -0.09514065 -0.121583015
-0.10083406 -0.025322651 -0.13160902 -0.09462114 0.02132694 -0.04833979 0.035071775 -0.042732477
0.06255932 -0.18959177 -0.096326396 -0.2379406 -0.05869397 -0.06737402 -0.20295845 -0.118811585
0.092125304 -0.30327335 0.056080066 -0.1988354 -0.064644106 -0.3915641 -0.17109346 -0.056112997
-0.11875091 -0.046526857 -0.093920834 -0.03902326 -0.0968148 -0.009109836 0.014330929 0.024550227
-0.07827724 -0.08304384 -0.019875929 0.09818209 0.015967749 -0.06004743 -0.021741547 0.065759204
-0.03342755 0.09116275 -0.0515212 0.0070341253 -0.09377966 0.09822298 -0.099564925 -0.007701718
0.034929313 0.07060372 -0.11816555 -0.00052065344 0.076664105 0.10994514 -0.12047393 0.067345016
-0.0035223449 -0.029011738 -0.040321797 -0.1092082 0.08812539 0.06715613 0.091456145 -0.10504728
-0.016340263 0.10240949 -0.02605855 0.014120022 0.041728977 0.026778786 -0.10556455 0.019213626
-0.09030831 0.0061930926 0.0486342 -0.0002001839 0.0068690926 0.090987794 -0.061507273 0.04957737
-0.10684519 -0.051045325 -0.025276767 -0.097332336 -0.007441742 -0.048633467 -0.12086364 0.0028394233
00000000: 5122 d33d f671 e53c 2ee6 e9bd cecc 32bd
00000010: 26aa 02be 5758 b93c e84e 9abc 2d1c c13d
00000020: 9e12 bc3d 4a64 933d 317f 293e 0657 5dbc
00000030: df92 303e 616d 393d 585a 073e 8358 c03d
00000040: 7e44 8f3d 84ca 72bd ca5d 173d c611 08bd
00000050: 7207 9d3d fbc2 cebd 5b9a a3bc 6965 183b
00000060: b115 313e d961 d43d 313c 84bd cf25 cebd
00000070: 3d26 2ebd f371 c23c 61fb bcbc 64d8 123b
00000080: 2916 333e e6be 053e 36c1 44bd 3cfa b3bd
00000090: d100 773d e5d4 bd3a 5eb5 eb3d e1fc 8cbb
000000a0: 79d5 86bd dcc4 cebd 479c d0bd c9f7 d1bd
000000b0: 8b36 d0bd 29cd 7c3d d741 febd a402 b03d
000000c0: 654f 95bb 2ade 72bd 93a9 9a3c c251 9f3d
000000d0: 56cb 053e 236e c6bd 5072 cabd 46e3 10bd
000000e0: abfd b0bd e00a 6f3c 5a81 3a3d b811 a3bd
000000f0: 638c 8abd 945e 4ebd a9f1 afbd a073 a4bd
00000100: 06c5 71be c80e 1bbd d7f1 b33d 7989 5e3d
00000110: 1024 2c3d 3cc6 c3bd 1ba6 70bc a53a 123c
00000120: fb4c 45be d04a babe 6b07 7bbe 3693 1fbe
00000130: 48ee 8bbe 2427 a1be 208e 29be 7afb 3fbc
00000140: e413 f7bd 08d1 40bd db52 8e3d 1d78 3abe
00000150: 50ff 9bbd 2527 19be edc7 13bd f5e4 53be
00000160: 089f b2be d65c 34be 98a3 e2bd e30b b5bd
00000170: faf8 71be f2bd 2abd 7af4 2e3d 7346 15bd
00000180: f18a 27be be7c 153d 38be a7bd 41c7 5ebe
00000190: c4d3 8a3c 3154 65be 1ad9 c2bd 8400 f9bd
000001a0: 1682 cebd 7371 cfbc 84c4 06be bac8 c1bd
000001b0: d6b5 ae3c f2ff 45bd 6ca7 0f3d 4008 2fbd
000001c0: 1a1f 803d 5824 42be c646 c5bd b3a6 73be
000001d0: 1769 70bd 64fb 89bd 57d4 4fbe 7d53 f3bd
000001e0: 31ac bc3d a546 9bbe 36b4 653d 829b 4bbe
000001f0: 2164 84bd 177b c8be 2033 2fbe bed6 65bd
00000200: ad33 f3bd f292 3ebd 9159 c0bd dbd6 1fbd
00000210: d646 c6bd 6c41 15bc 46cc 6a3c 8f1d c93c
00000220: d14f a0bd e412 aabd d8d2 a2bc b113 c93d
00000230: ccce 823c 4bf4 75bd 541b b2bc c3ac 863d
00000240: 54eb 08bd 89b3 ba3d e507 53bd 857e e63b
00000250: 8d0f c0bd 2129 c93d b2e8 cbbd b15e fcbb
00000260: 0a12 0f3d af98 903d c800 f2bd 767c 08ba
00000270: 1202 9d3d eb2a e13d 09bb f6bd 2fec 893d
00000280: 24d7 66bb 06aa edbc 7828 25bd 8ca8 dfbd
00000290: 167b b43d 2789 893d 5c4d bb3d 0723 d7bd
000002a0: 04dc 85bc 11bc d13d be78 d5bc aa57 673c
000002b0: 01ec 2a3d 2f5f db3c 3a32 d8bd e565 9d3c
000002c0: 90f3 b8bd 6def ca3b a834 473d 75e8 51b9
000002d0: 2016 e13b cf57 ba3d 0def 7bbd a411 4b3d
000002e0: a7d1 dabd e714 51bd 3911 cfbc 2d56 c7bd
000002f0: dbd9 f3bb e333 47bd 5b87 f7bd 9e15 3a3b

rnn.weight_ih_l1 f4 [192, 64]
-0.031075433 0.04902615 0.21545462 -0.035110556 -0.42579952 -0.10271371 0.09489583 -0.26751542
-0.010248529 -0.24454369 -0.060578845 -0.026058655 -0.13497953 0.050059468 -0.03200049 0.13249116
-0.441932 -0.01858227 -0.08513877 -0.27940875 0.2454563 0.3474574 -0.10789513 0.13091685
0.07013811 0.19047476 0.28847694 0.24568757 -0.013032903 0.12884954 0.15552105 -0.19575845
-0.09635048 0.107836254 -0.28697413 -0.20675051 0.21829833 -0.2497883 0.20259242 0.05061424
-0.0003476272 0.2597954 0.15782091 -0.09020745 -0.049359526 0.19365667 -0.059724633 -0.14679015
0.27508807 -0.30177197 0.19470078 -0.09088417 0.2472499 -0.2537172 -0.08835381 0.11776703
-0.13749218 0.030896025 -0.38214126 0.015553268 -0.17057161 0.21088184 0.053119723 0.114704914
0.06635633 0.023955591 0.07374556 -0.015228277 0.0418781 0.05985051 0.11202184 0.034711096
-0.033982567 0.063207515 -0.07686754 -0.11118102 0.11504713 -0.06530095 0.03152371 0.09165501
-0.11881105 -0.021573182 -0.060512785 -0.030886201 0.103823595 -0.08241151 -0.0018680937 -0.05615506
0.0073089134 0.027675057 0.02290023 0.04227477 0.07949927 -0.0068918574 -0.05459692 -0.108349845
-0.03318765 0.027999172 -0.107054874 -0.09810263 0.08486833 -0.043650378 0.04180923 0.020727703
0.050949603 0.025176791 -0.030869521 -0.04512742 -0.1042242 0.022683859 0.12384754 -0.10989758
0.13904807 -0.119131245 0.115566745 -0.11587623 -0.007099316 -0.05586311 0.1273763 0.1483581
0.08677763 0.029182432 0.06947328 -0.05396116 -0.10659218 0.14460093 0.0866354 -0.04527451
-0.10334406 -0.03284931 -0.007977707 -0.057963204 -0.18192458 -0.09174012 -0.12714587 -0.08096169
-0.09373823 -0.04289035 -0.036300246 -0.091767654 -0.023435757 -0.046734713 -0.096429005 -0.02176433
-0.01392836 0.07452482 0.074843176 -0.1031971 0.06367534 -0.07293012 -0.055922836 0.07927895
-0.13871767 0.13429335 0.10847699 0.121625416 -0.008593654 0.050645333 -0.103159375 0.11705306
-0.05634213 -0.15045768 -0.10751923 0.07207193 0.07425728 0.05115017 0.04340651 -0.005191188
0.10344806 0.17902876 0.08817624 -0.03572879 0.11625481 -0.058042675 -0.14152354 -0.11009436
-0.06180632 -0.07009544 0.018033491 -0.019778185 0.11658491 0.041789662 0.056610182 -0.08458855
0.013174598 -0.14034463 -0.050989028 -0.10100861 -0.077859506 -0.06650468 0.045579445 0.09510307
-0.13053177 0.065883674 -0.015469017 -0.20545748 -0.11703405 0.0020603966 -0.026390148 -0.00020419303
0.029666483 -0.34554484 -0.04237965 0.065439045 0.084505096 0.06669984 -0.18449482 0.14938842
-0.19698346 -0.21738142 -0.08643039 -0.1920975 -0.005175265 0.030381849 0.112083755 -0.04657554
-0.06960421 0.16456261 -0.022827044 0.11682722 0.116270185 0.02706839 0.2130306 -0.13956626
-0.1312539 0.12055956 -0.21005018 -0.20528997 0.092685975 -0.23716399 0.088306546 -0.10120833
0.09428602 0.17769551 0.034168478 -0.08297846 -0.129994 0.18007839 0.10565426 0.06971918
0.10255937 -0.23121384 0.18128552 -0.12165681 -0.033761963 0.04423745 0.040850542 0.114493966
-0.1909702 -0.04088519 -0.27451682 -0.156769 -0.06513791 0.052317694 0.08496851 -0.08020057
00000000: e891 febc a5cf 483d 23a0 5c3e 16d0 0fbd
00000010: 6502 dabe 915b d2bd bf58 c23d c8f7 88be
00000020: 72e9 27bc a969 7abe 8621 78bd f678 d5bc
00000030: 1338 0abe 280b 4d3d f212 03bd c3ab 073e
00000040: e944 e2be d839 98bc 3c5d aebd aa0e 8fbe
00000050: e558 7b3e f0e5 b13e 1ff8 dcbd 110f 063e
00000060: 92a4 8f3d d10b 433e 40b3 933e 8695 7b3e
00000070: f587 55bc 22f1 033e e940 1f3e e774 48be
00000080: 6753 c5bd 41d9 dc3d 46ee 92be 68b6 53be
00000090: 9989 5f3e 81c8 7fbe 6374 4f3e e150 4f3d
000000a0: bc41 b6b9 e703 853e ce9b 213e afbe b8bd
000000b0: 372d 4abd ef4d 463e d1a1 74bd 2850 16be
000000c0: 58d8 8c3e db81 9abe a45f 473e 7b21 babd
000000d0: 142f 7d3e 39e7 81be d8f2 b4bd d72f f13d
000000e0: c0ca 0cbe a919 fd3c 05a8 c3be 22d3 7e3c
000000f0: 53aa 2ebe 69f1 573e 1194 593d 69ea ea3d
00000100: d4e5 873d 843e c43c ea07 973d 0680 79bc
00000110: 5f88 2b3d cf25 753d b56b e53d 392d 0e3d
00000120: 4e31 0bbd f172 813d bb6c 9dbd e0b2 e3bd
00000130: d49d eb3d 81bc 85bd 011f 013d 9fb5 bb3d
00000140: 3553 f3bd 3eba b0bc 41dc 77bd 0f05 fdbc
00000150: 77a1 d43d 5ec7 a8bd d3da f4ba d902 66bd
00000160: 9c7f ef3b cdb6 e23c 4399 bb3c 4f28 2d3d
00000170: 83d0 a23d 17d5 e1bb 05a1 5fbd 86e6 ddbd
00000180: c6ef 07bd 855e e53c 963f dbbd 08ea c8bd
00000190: 72cf ad3d bdca 32bd 2840 2b3d 25cd a93c
000001a0: 88b0 503d 8f3f ce3c 14e2 fcbc 88d7 38bd
000001b0: 7f73 d5bd 80d3 b93c c7a3 fd3d fc11 e1bd
000001c0: 9e62 0e3e 15fb f3bd 42ae ec3d 8450 edbd
000001d0: 61a1 e8bb b7d0 64bd ef6e 023e 30eb 173e
000001e0: 78b8 b13d ff0f ef3c 0248 8e3d 6106 5dbd
000001f0: 004d dabd 4412 143e e76d b13d c471 39bd
00000200: 0da6 d3bd 008d 06bd eeb4 02bc d36a 6dbd
00000210: 704a 3abe 3ee2 bbbd 8732 02be 3ecf a5bd
00000220: d4f9 bfbd cbad 2fbd 91af 14bd aef0 bbbd
00000230: 58fc bfbc e66c 3fbd 927c c5bd 1c4b b2bc
00000240: c733 64bc 78a0 983d 6147 993d 0059 d3bd
00000250: 3768 823d 635c 95bd 580f 65bd 015d a23d
00000260: 010c 0ebe 3284 093e 2f29 de3d bf16 f93d
00000270: 66cc 0cbc 7b71 4f3d 3945 d3bd 84b9 ef3d
00000280: 01c7 66bd 9411 1abe 0b33 dcbd 739a 933d
00000290: 3314 983d d782 513d 06cb 313d d71a aabb
000002a0: 94dc d33d 5153 373e bf95 b43d 5a58 12bd
000002b0: 0017 ee3d 28be 6dbd 8ceb 10be 2779 e1bd
000002c0: a028 7dbd 338e 8fbd f9ba 933c dc05 a2bc
000002d0: 12c4 ee3d a32b 2b3d 14e0 673d c33c adbd
000002e0: 45da 573c 81b6 0fbe dfd9 50bd 9add cebd
000002f0: ce74 9fbd 9b33 88bd 83b1 3a3d 66c5 c23d
00000300: 1faa 05be 05ee 863d c371 7dbc 7263 52be
00000310: 8caf efbd b807 073b 2730 d8bc a61c 56b9
00000320: 2007 f33c 41eb b0be 4996 2dbd e804 863d
00000330: 0211 ad3d ed99 883d 36ec 3cbe 47f9 183e
00000340: 08b6 49be 3c99 5ebe 6b02 b1bd 35b5 44be
00000350: 4595 a9bb 5be3 f83c 2b8c e53d fec5 3ebd
00000360: a78c 8ebd 1a83 283e c8ff babc 1c43 ef3d
00000370: 101f ee3d 87be dd3c b224 5a3e 75ea 0ebe
00000380: 6c67 06be eee7 f63d 6517 57be 8937 52be
00000390: 25d2 bd3d 1edb 72be 10da b43d 5046 cfbd
000003a0: 0719 c13d d0f5 353e 3ff4 0b3d 9cf0 a9bd
000003b0: 261d 05be 7866 383e 4361 d83d eec8 8e3d
000003c0: a60a d23d 52c3 6cbe e9a2 393e 3527 f9bd
000003d0: fc49 0abd 5432 353d e652 273d d07b ea3d
000003e0: b18d 43be 3b77 27bd 788d 8cbe 0e88 20be
000003f0: 0667 85bd 144b 563d f803 ae3d 3240 a4bd

rnn.weight_hh_l1 f4 [192, 64]
-0.02893867 -0.047159094 0.05561028 -0.1619665 -0.131679 -0.25171638 0.15122512 0.20794591
-0.1495432 0.108826615 0.010288868 0.09640916 -0.08542324 0.1322619 0.3224669 0.033906866
-0.029969739 -0.3066012 -0.29166132 -0.38833874 0.07775703 0.01257021 -0.19294034 -0.2285865
0.031096809 -0.014709499 -0.096821435 0.12973498 -0.07413449 -0.018108351 0.1393506 0.16294126
0.078536116 -0.30685222 -0.40541974 0.09138209 -0.2655124 0.09967207 0.20966849 0.029497737
0.20648031 -0.009847582 0.118460834 -0.29152787 0.24159029 0.23841548 -0.04437444 -0.02078317
0.17065392 0.24768482 -0.05076413 -0.15335117 0.16444318 -0.08591374 0.26577842 0.025366683
0.21607806 0.08129307 0.19909768 0.0123946285 0.16192469 -0.10319104 -0.17499581 0.011839938
-0.15394962 -0.066243544 0.09999537 0.057980638 0.035221163 0.032851756 -0.048807826 0.10305765
0.064761415 0.08759593 -0.057803903 0.05550858 0.10073792 0.0038191243 0.0004007903 0.03882031
0.042052045 -0.050950542 0.07201983 -0.09678572 0.12851004 0.1277602 -0.0907045 0.047338177
0.07942634 -0.00288906 -0.017047305 -0.036779724 0.0861178 0.06426343 -0.0074510807 0.02182916
-0.03908103 -0.05207223 0.0960487 -0.07691674 -0.12429917 0.0932209 0.08237228 0.08101574
-0.099920094 0.07381513 -0.08228923 -0.06858303 0.06689257 0.038369514 -0.10822946 0.0047272663
0.0025472431 -0.05974356 -0.103048615 -0.12287747 -0.04791695 -0.09247429 0.011392608 0.041951086
-0.11982093 -0.13221756 -0.07649939 -0.055613846 -0.05274234 0.009923772 0.021668702 -0.111868545
-0.011721266 0.05759478 0.105125204 -0.08982105 -0.06345612 -0.13107224 -0.13973562 0.12874237
0.06511514 0.018378077 0.16736476 0.0484138 -0.10980173 0.083552234 0.11597806 -0.062339008
0.07670022 -0.13610797 0.0022188772 -0.13362123 0.061004788 0.06947237 -0.037984427 -0.17084672
-0.053932734 0.071123526 -0.09212209 0.033585675 -0.04361529 0.042266637 -0.056368276 -0.0768602
0.056507476 -0.14925212 0.061180703 0.0076730927 -0.03504926 0.0007245618 -0.028309993 -0.02972776
-0.03792044 -0.028321108 -0.06700511 0.047932148 0.09121173 0.07112553 0.09199133 -0.06264027
-0.12623657 -0.06531604 0.07715357 0.035980448 0.043874796 0.010295064 0.12917644 0.08153342
0.11650718 -0.06110492 0.15194456 -0.035488237 -0.16990042 0.03243231 -0.012345449 -0.088702604
-0.04031317 -0.008725574 0.026462413 -0.036110975 -0.0427763 0.024310412 -0.084817246 -0.06373683
0.04018491 0.056385297 -0.097366974 0.12956104 -0.029981613 -0.107444495 0.12545219 -0.003139639
0.10815242 -0.056760896 0.15282167 -0.14416273 0.13870832 -0.039930176 -0.06117533 -0.023734432
-0.040021684 0.013825772 -0.08486596 0.16120566 -0.08105391 -0.09225312 0.048929814 0.11272778
0.11853061 -0.051305905 -0.066212386 -0.110466965 -0.035056915 0.059614416 -0.0022146888 0.022370731
0.20741224 -0.16894698 -0.08927517 -0.012258274 0.11647782 0.012294995 -0.10372651 -0.07927894
-0.18533489 0.23250787 0.08579643 0.044509802 0.049967688 -0.09802231 0.08253124 -0.094188176
0.04167498 -0.05433537 0.12297616 -0.0073447055 -0.11051894 -0.19217843 -0.08836633 -0.09277184
00000000: ca10 edbc e529 41bd 9bc7 633d 8cda 25be
00000010: dcd6 06be f8e0 80be c2da 1a3e c6ef 543e
00000020: da21 19be 7de0 de3d a492 283c 2a72 c53d
00000030: 61f2 aebd aa6f 073e 621a a53e ede1 0a3d
00000040: 1983 f5bc d5fa 9cbe a254 95be 56d4 c6be
00000050: 143f 9f3d 48f3 4d3c 2792 45be 9412 6abe
00000060: bcbe fe3c 1c00 71bc 514a c6bd 3fd9 043e
00000070: d3d3 97bd f757 94bc ecb1 0e3e 13da 263e
00000080: 8bd7 a03d bc1b 9dbe 2d93 cfbe 8826 bb3d
00000090: 3ef1 87be df20 cc3d 56b3 563e 3da5 f13c
000000a0: 936f 533e c157 21bc 989b f23d 2443 95be
000000b0: 7263 773e 3023 743e f9c1 35bd 7741 aabc
000000c0: e7bf 2e3e 17a1 7d3e 0cee 4fbd 1708 1dbe
000000d0: cb63 283e 8bf3 afbd 1c14 883e cacd cf3c
000000e0: 9143 5d3e fb7c a63d 43e0 4b3e d712 4b3c
000000f0: 96cf 253e d355 d3bd 1a32 33be 4dfc 413c
00000100: f8a4 1dbe b2aa 87bd 5fca cc3d 1b7d 6d3d
00000110: 1144 103d 908f 063d b7ea 47bd e40f d33d
00000120: a2a1 843d 7f65 b33d c9c3 6cbd f75c 633d
00000130: af4f ce3d 464a 7a3b 2a21 d239 0c02 1f3d
00000140: c43e 2c3d 84b1 50bd 227f 933d 9737 c6bd
00000150: 2398 033e 92d3 023e 48c3 b9bd ade5 413d
00000160: 47aa a23d 6256 3dbb caa6 8bbc 56a6 16bd
00000170: 875e b03d 8c9c 833d 3228 f4bb 11d3 b23c
00000180: 6e13 20bd b149 55bd 2eb5 c43d 8686 9dbd
00000190: 9090 febd 99ea be3d ccb2 a83d 95eb a53d
000001a0: e8a2 ccbd 632c 973d 4187 a8bd 4275 8cbd
000001b0: f9fe 883d 5a29 1d3d 68a7 ddbd 2fe7 9a3b
000001c0: a6ef 263b aab5 74bd 270b d3bd 2fa7 fbbd
000001d0: 9044 44bd 2963 bdbd 10a8 3a3c e7d4 2b3d
000001e0: ad64 f5bd 0a64 07be b6ab 9cbd 58cb 63bd
000001f0: 5a08 58bd 5197 223c 9082 b13c 561b e5bd
00000200: 8e0a 40bc 81e8 6b3d e24b d73d 19f4 b7bd
00000210: 48f5 81bd cd37 06be db16 0fbe 0ad5 033e
00000220: 165b 853d 9f8d 963c ab61 2b3e 8c4d 463d
00000230: bbdf e0bd 6f1d ab3d e885 ed3d 3057 7fbd
00000240: 0115 9d3d e35f 0bbe 956a 113b 01d4 08be
00000250: 28e0 793d 8847 8e3d 8f95 1bbd 71f2 2ebe
00000260: 92e8 5cbd 36a9 913d 82aa bcbd 2291 093d
00000270: f2a5 32bd c81f 2d3d 6ce2 66bd e168 9dbd
00000280: 6274 673d 8cd5 18be 9e98 7a3d 916e fb3b
00000290: d08f 0fbd 85f0 3d3a 5cea e7bc a287 f3bc
000002a0: 7752 1bbd ab01 e8bc fa39 89bd 8054 443d
000002b0: 37cd ba3d 43aa 913d f365 bc3d 8b49 80bd
000002c0: 2944 01be 6ac4 85bd b102 9e3d 3c60 133d
000002d0: 0fb6 333d a1ac 283c d446 043e fefa a63d
000002e0: 519b ee3d 2749 7abd 5b97 1b3e 1d5c 11bd
000002f0: 60fa 2dbe bed7 043d 9144 4abc b6a9 b5bd
00000300: 6c1f 25bd b6f5 0ebc b4c7 d83c 1ae9 13bd
00000310: 3436 2fbd a126 c73c aab4 adbd 7588 82bd
00000320: ef98 243d 45f4 663d 5668 c7bd a6ab 043e
00000330: 009c f5bc dc0b dcbd 8a76 003e 67c2 4dbb
00000340: 047f dd3d 1d7e 68bd 497d 1c3e 659f 13be
00000350: 8e09 0e3e d38d 23bd fc92 7abd b66e c2bc
00000360: c7ed 23bd 7e85 623c 34ce adbd 1913 253e
00000370: 98ff a5bd 34ef bcbd a16a 483d d3dd e63d
00000380: 2dc0 f23d 2426 52bd 5c9a 87bd 813c e2bd
00000390: d797 0fbd 3f2e 743d 5024 11bb d342 b73c
000003a0: e063 543e 7000 2dbe e6d5 b6bd edd6 48bc
000003b0: ec8b ee3d f270 493c 916e d4bd ff5c a2bd
000003c0: 6ec8 3dbe 8b16 6e3e 0ab6 af3d e94f 363d
000003d0: ebaa 4c3d ecbf c8bd 2406 a93d bbe5 c0bd
000003e0: 62b3 2a3d c48e 5ebd edda fb3d dbab f0bb
000003f0: c157 e2bd 6cca 44be 68f9 b4bd 2aff bdbd

rnn.bias_ih_l1 f4 [192]
0.3255543 -0.0336203 0.14507785 0.087193556 -0.034361605 0.19155583 0.09897657 -0.023874285
0.046546075 0.027070966 0.06561416 0.13796853 0.10558002 -0.10475514 0.096028894 0.086836696
0.12264542 0.01686497 0.034276873 -0.032434106 0.13248743 0.15099972 0.023133226 0.0751521
-0.14246768 0.010495678 0.048130114 -0.11026828 0.1035357 0.030399317 -0.019991595 -0.07462831
-0.017324513 0.12820782 0.051276192 0.11139274 0.051491678 0.11042289 0.11843988 -0.084866844
-0.12910987 0.049962014 -0.03625063 0.08569434 -0.08932428 0.095964186 0.11773126 0.123555414
-0.02673189 0.108316675 -0.04025667 -0.0033699232 0.11194992 0.10279327 -0.10605388 0.045293346
-0.040697888 0.1458957 -0.079175755 -0.026734611 -0.005196182 0.008210503 -0.013379879 0.05527712
-0.47904697 -0.10823775 0.17976509 -0.23160006 -0.095878445 -0.18342336 -0.17869668 0.04142735
0.09224953 0.01895551 0.014794186 -0.1494475 -0.2727247 -0.019493392 -0.3830144 0.011819152
-0.27833614 0.048585206 -0.18589506 -0.29611397 -0.2078492 0.09140326 -0.017047357 -0.12275415
0.00069230155 -0.1527723 -0.054152522 0.24115673 -0.124616615 -0.017651461 0.13133201 0.1776718
-0.1796745 -0.07305599 -0.040674057 -0.07588995 -0.38639832 -0.11419675 -0.2429487 -0.063167475
0.081791684 -0.07664069 -0.099130966 -0.13705225 0.007118712 -0.046410345 -0.13833989 -0.43039733
-0.31746432 -0.13100262 0.06735277 -0.1707691 -0.050815113 -0.07548672 -0.077042796 -0.21671082
-0.07400918 0.089713514 -0.21964198 0.062569305 -0.2436589 -0.045104675 -0.105598435 -0.031596996
0.0020898161 0.02128209 0.06130671 -0.026842937 -0.015187818 -0.06796406 -0.073583215 0.012352161
-0.06701608 0.057460815 0.049760044 0.0981545 0.020361893 0.051144835 0.11265379 0.10425984
0.032938562 -0.023747664 -0.099781364 -0.068157956 -0.080845274 -0.0516035 -0.07672542 0.021110598
-0.066064596 0.05537738 -0.10767403 -0.029654123 -0.11257364 -0.015396345 0.024662454 0.04419452
0.06857509 -0.05227324 -0.0055171754 0.0055228653 -0.063629515 -0.030046003 0.06077595 0.04991902
0.071697466 0.06632134 0.035647508 -0.09394654 0.018454283 0.071682855 -0.0153212715 0.068617746
0.046778277 0.1093956 -0.025016569 -0.035838373 -0.011968895 0.025575664 0.078829765 0.103538655
0.02898135 -0.026287386 0.06807884 0.018758977 0.01490588 -0.10281824 -0.11240179 -0.07522012
00000000: 0eaf a63e 71b5 09bd 4a8f 143e 8992 b23d
00000010: c1be 0cbd 3627 443e 3ab4 ca3d 0194 c3bc
00000020: 19a7 3e3d eec3 dd3c b760 863d 9f47 0d3e
00000030: 563a d83d dd89 d6bd ccaa c43d 70d7 b13d
00000040: 862d fb3d 6828 8a3c e865 0c3d a0d9 04bd
00000050: c9aa 073e ac9f 1a3e e481 bd3c 58e9 993d
00000060: 0ce3 11be 10f6 2b3c 1524 453d 56d4 e1bd
00000070: 860a d43d fd07 f93c 6ac5 a3bc bad6 98bd
00000080: 23ec 8dbc e948 033e fc06 523d e021 e43d
00000090: f0e8 523d 6525 e23d 9c90 f23d abce adbd
000000a0: 6135 04be f8a4 4c3d 8a7b 14bd 8480 af3d
000000b0: a6ef b6bd df88 c43d 161d f13d 9f0a fd3d
000000c0: d6fc dabc 22d5 dd3d 2ee4 24bd eed9 5cbb
000000d0: 0046 e53d 4785 d23d c732 d9bd 8485 393d
000000e0: d4b2 26bd af65 153e e626 a2bd 8b02 dbbc
000000f0: bc44 aabb 5885 063c 4837 5bbc 436a 623d
00000100: a545 f5be c1ab ddbd 5714 383e 9128 6dbe
00000110: eb5b c4bd 55d3 3bbe 43fc 36be baaf 293d
00000120: 52ed bc3d 9648 9b3c 5063 723c c408 19be
00000130: 92a2 8bbe 9bb0 9fbc 771a c4be 1ea5 413c
00000140: 1382 8ebe 4801 473d 465b 3ebe 409c 97be
00000150: 6cd6 54be a231 bb3d e6a6 8bbc 8766 fbbd
00000160: 927b 353a 5870 1cbe 09cf 5dbd caf1 763e
00000170: ff36 ffbd cc99 90bc e67b 063e 99ef 353e
00000180: 98fc 37be 619e 95bd d799 26bd 316c 9bbd
00000190: 00d6 c5be fcdf e9bd 8bc7 78be f35d 81bd
000001a0: 6682 a73d cbf5 9cbd 2d05 cbbd 6d57 0cbe
000001b0: 1644 e93b c618 3ebd f9a8 0dbe 0a5d dcbe
000001c0: af8a a2be 8d25 06be 40f0 893d 18de 2ebe
000001d0: 8223 50bd c898 9abd 9dc8 9dbd 71e9 5dbe
000001e0: 2092 97bd b8bb b73d d4e9 60be 5624 803d
000001f0: b881 79be aebf 38bd fe43 d8bd da6b 01bd
00000200: 4cf5 083b c757 ae3c bf1c 7b3d b8e5 dbbc
00000210: 53d6 78bc be30 8bbd ccb2 96bd b860 4a3c
00000220: ba3f 89bd 085c 6b3d 30d1 4b3d 3a05 c93d
00000230: fccd a63c 3f7d 513d 08b7 e63d 2f86 d53d
00000240: 96ea 063d 768a c2bc 2c5a ccbd 6696 8bbd
00000250: 3592 a5bd 315e 53bd 3822 9dbd 22f0 ac3c
00000260: e04c 87bd 64d3 623d 3484 dcbd 34ed f2bc
00000270: 028d e6bd f440 7cbc ea08 ca3c 5005 353d
00000280: 1971 8c3d 771c 56bd 6cc9 b4bb 27f9 b43b
00000290: 3150 82bd 0923 f6bc 34f0 783d e377 4c3d
000002a0: 1fd6 923d 7cd3 873d 1f03 123d 0b67 c0bd
000002b0: 702d 973c 76ce 923d 1206 7bbc 7687 8c3d
000002c0: 949a 3f3d cd0a e03d 8cef ccbc 42cb 12bd
000002d0: 2f19 44bc 0e84 d13c 8071 a13d 130c d43d
000002e0: 4c6a ed3c a558 d7bc eb6c 8b3d 6dac 993c
000002f0: cb37 743c 5f92 d2bd e932 e6bd 020d 9abd

rnn.bias_hh_l1 f4 [192]
0.44240868 0.05023084 0.06330705 0.072139576 -0.10030545 0.08783337 0.015242975 -0.14739154
0.011054709 0.015324255 -0.052057676 0.083722316 0.16240667 -0.047304813 0.026564835 0.1421777
-0.02459866 -0.0326318 0.04909949 0.020581938 0.061904408 -0.035117228 -0.05871208 0.042455673
0.065517254 -0.026061561 -0.008955414 0.06048057 -0.076237634 -0.02950755 0.09814835 0.0701538
0.1204528 0.011641113 -0.109201044 0.05168069 0.2564531 -0.013094936 0.107451245 0.063466154
-0.094359346 -0.07233783 0.045435227 0.00628454 0.031802114 0.12593734 -0.07565667 0.16275653
-0.08487784 -0.013043217 -0.02384485 0.121527165 0.13807745 0.08046561 0.02101743 0.046574593
-0.047418177 0.013448097 0.024538836 0.024145907 0.09063922 -0.04743029 -0.11427163 -0.09042611
-0.49944988 -0.13879287 0.13985793 -0.20542146 -0.24948157 -0.1695171 -0.25903276 -0.10842943
0.14917013 0.06531765 -0.009547051 -0.27186954 -0.08135308 0.13609968 -0.42471525 -0.029311217
-0.092116565 0.010121983 -0.052350476 -0.14408097 -0.08570593 0.1464141 -0.05399591 -0.20992291
-0.13426015 -0.065729566 0.025061123 0.19711873 -0.11284182 0.12809512 0.25303745 0.036574736
-0.20155457 -0.08196259 0.061732057 0.009032277 -0.37869194 -0.17066242 -0.22059183 -0.07596845
0.014778975 -0.13715878 -0.2254999 0.047427632 -0.1756887 -0.12543204 -0.15629314 -0.36863637
-0.3054954 -0.0788589 0.08068949 -0.06475391 0.08373373 -0.11980535 -0.078790106 -0.21929388
0.014191292 0.0034745561 -0.1681997 0.05928726 -0.059211418 -0.11721509 0.0026538975 -0.037111074
-0.033906862 0.015978014 0.06316943 -0.0028039943 -0.040505853 -0.02666036 0.031040853 0.074332625
0.050419092 0.044946004 0.009956861 0.004046013 0.06654553 -0.12752083 0.096360415 -0.016593145
-0.032800734 -0.07490074 0.033182155 -0.051541712 0.00072982523 -0.088359006 0.0767214 -0.08159749
-0.09244429 -0.11150545 0.05084134 0.05570058 0.071642965 0.11089442 0.0803912 0.018908981
-0.09720802 -0.07438196 -0.047974207 0.017518412 0.016080353 0.017357279 0.035401862 -0.031025803
-0.040799953 -0.09669888 0.07615282 -0.10860692 -0.008747061 0.099345 0.07217012 -0.1205252
-0.10588151 -0.04446634 -0.10148939 -0.06754457 0.01781978 -0.0795518 0.06282599 -0.06725603
0.09518345 0.05193891 -0.068691 -0.014597962 -0.07875809 -0.01977542 -0.11324498 -0.08985858
00000000: 6483 e23e dabe 4d3d 20a7 813d eabd 933d
00000010: f26c cdbd fbe1 b33d acbd 793c cfed 16be
00000020: cf1e 353c 9612 7b3c 6e3a 55bd 9b76 ab3d
00000030: ef4d 263e b1c2 41bd 7f9e d93c 0897 113e
00000040: 2183 c9bc eca8 05bd 8c1c 493d 749b a83c
00000050: 7a8f 7d3d 15d7 0fbd 147c 70bd 00e6 2d3d
00000060: e92d 863d 0e7f d5bc bbb9 12bc 79ba 773d
00000070: 7a22 9cbd d1b9 f1bc 0102 c93d ccac 8f3d
00000080: f5af f63d 5eba 3e3c cca4 dfbd 22af 533d
00000090: d24d 833e 248c 56bc 660f dc3d 8bfa 813d
000000a0: 793f c1bd db25 94bd 4a1a 3a3d 8bee cd3b
000000b0: ef42 023d b8f5 003e e2f1 9abd a6a9 263e
000000c0: 6fd4 adbd 38b3 55bc 4656 c3bc 3ce3 f83d
000000d0: 2d64 0d3e 27cb a43d bf2c ac3c 00c5 3e3d
000000e0: 9039 42bd 6855 5c3c ab05 c93c a3cd c53c
000000f0: 0ea1 b93d 4446 42bd 3f07 eabd 5331 b9bd
00000100: e5b7 ffbe b81f 0ebe eb36 0f3e 015a 52be
00000110: 1978 7fbe e495 2dbe f19f 84be 4010 debd
00000120: 0ec0 183e 43c5 853d 3c6b 1cbc 7c32 8bbe
00000130: 729c a6bd b75d 0b3e 4774 d9be 141e f0bc
00000140: 9ca7 bcbd acd6 253c 746d 56bd f689 13be
00000150: 9786 afbd 94ed 153e d12a 5dbd 08f6 56be
00000160: 7e7b 09be 399d 86bd fc4c cd3c 7ed9 493e
00000170: 9d19 e7bd 5e2b 033e 208e 813e 64cf 153d
00000180: 5264 4ebe 01dc a7bd c1da 7c3d 1efc 133c
00000190: e9e3 c1be 21c2 2ebe d3e2 61be 5995 9bbd
000001a0: 8423 723c 5a73 0cbe 72e9 66be 7a43 423d
000001b0: bde7 33be 4271 00be 4f0b 20be e8bd bcbe
000001c0: e569 9cbe c680 a1bd 8840 a53d b39d 84bd
000001d0: 977c ab3d 825c f5bd b55c a1bd 938e 60be
000001e0: 9882 683c 61b5 633b 8b3c 2cbe 33d7 723d
000001f0: ac87 72bd 770e f0bd 03ed 2d3b c801 18bd
00000200: ece1 0abd 53e4 823c f95e 813d 38c3 37bb
00000210: 77e9 25bd d466 dabc 6349 fe3c b43b 983d
00000220: 4084 4e3d 4d19 383d 1a22 233c 6b94 843b
00000230: 0649 883d d294 02be 9c58 c53d 59ee 87bc
00000240: 105a 06bd 8f65 99bd 03ea 073d 671d 53bd
00000250: be51 3f3a 91f5 b4bd 1c20 9d3d 961c a7bd
00000260: 6f53 bdbd f85c e4bd 023f 503d 4b26 643d
00000270: 8cb9 923d 9d1c e33d 24a4 a43d 02e7 9a3c
00000280: 0015 c7bd 9255 98bd 9a80 44bd c682 8f3c
00000290: f2ba 833c da30 8e3c 8b01 113d d329 febc
000002a0: da1d 27bd 100a c6bd 02f6 9b3d 4e6d debd
000002b0: d54f 0fbc 6475 cb3d eecd 933d ebd5 f6bd
000002c0: 68d8 d8bd 5622 36bd abd9 cfbd cf54 8abd
000002d0: cafa 913c 0eec a2bd eaaa 803d 88bd 89bd
000002e0: 8aef c23d e5bd 543d dead 8cbd 4a2c 6fbc
000002f0: ec4b a1bd 1000 a2bc fcec e7bd c607 b8bd

fc.weight f4 [1, 64]
0.025240814 0.031108698 0.0337692 -0.001832909 -0.091005765 -0.11564649 0.0038994502 0.039395384
-0.02887268 0.023314478 0.071703754 0.057720598 0.027644413 -0.073465414 0.090447776 0.0723944
0.09417499 0.09472042 -0.04865765 -0.04510789 0.081168495 -0.041374993 -0.05226919 0.113771215
0.061703533 -0.05026245 -0.09610967 -0.024902679 0.0996487 0.07590628 0.07606353 -0.030987943
-0.13925527 0.09391537 0.033439927 0.09883327 -0.032418337 0.07378084 -0.076475486 -0.09193684
0.026680298 0.057185475 -0.13187921 -0.11281049 0.09543097 0.10924151 -0.15159024 0.10486013
0.02164468 0.09507331 0.0357919 0.030475207 0.02304425 0.05912773 0.032911617 0.09461607
0.027306482 0.060887218 0.11217035 0.015300247 0.036951687 -0.10952157 -0.06330867 0.08575579
00000000: d3c5 ce3c abd7 fe3c 9351 0a3d 383e f0ba
00000010: 3b61 babd 11d8 ecbd eb8d 7f3b 0e5d 213d
00000020: 6686 ecbc 01fe be3c 6bd9 923d 6f6c 6c3d
00000030: 8976 e23c 0975 96bd af3c b93d 8443 943d
00000040: d1de c03d c8fc c13d 3e4d 47bd 0dc3 38bd
00000050: ab3b a63d d378 29bd 3818 56bd e200 e93d
00000060: d8bc 7c3d 00e0 4dbd 26d5 c4bd b400 ccbc
00000070: 9e14 cc3d c074 9b3d 32c7 9b3d 6dda fdbc
00000080: ef98 0ebe b456 c03d 4ef8 083d 1969 ca3d
00000090: 17c9 04bd 691a 973d 2e9f 9cbd 6249 bcbd
000000a0: a490 da3c 513b 6a3d 580b 07be 3009 e7bd
000000b0: 5071 c33d 03ba df3d 793a 1bbe e8c0 d63d
000000c0: 2f50 b13c ccb5 c23d 879a 123d 24a7 f93c
000000d0: 4cc7 bc3c eb2f 723d 55ce 063d 12c6 c13d
000000e0: d8b1 df3c e064 793d 92b9 e53d e3ad 7a3c
000000f0: a75a 173d d84c e0bd faa7 81bd bba0 af3d
