data/results/gru_baseline_DXY_r5d.pt (torch, 166549 bytes, 9 tensors)

rnn.weight_ih_l0 f4 [192, 15]
0	0x3dbe2331	0.09284056
1	0xbd73d4e7	-0.05952921
2	0x3d28432d	0.04107969
3	0x390c6907	0.00013390566
4	0x3cbac225	0.022797653
5	0xbd5895c1	-0.05287719
6	0xbda4d91a	-0.08049221
7	0x3d26ea87	0.040751006
8	0xbc80938a	-0.015695352
9	0x3c8a493b	0.016880622
10	0x3c91005d	0.017700369
11	0x3d10575d	0.035239566
12	0x3d8c0118	0.06836146
13	0xbd7855c8	-0.060628682
14	0x3dd08acd	0.10182724
15	0x3d218015	0.03942879
16	0x3daa9de4	0.083308965
17	0x3d1577ac	0.03649108
18	0xbd6d69c3	-0.05796219
19	0xbd8566f4	-0.065137774
20	0x3de6c51c	0.112680644
21	0x3d392635	0.045202453
22	0xbd592a95	-0.053019125
23	0xbb8028d5	-0.0039111176
24	0x3dc1004a	0.09423883
25	0x3d3037d1	0.04302198
26	0x3dabea79	0.083943315
27	0xbd8de677	-0.06928723
28	0x3deb8489	0.114998884
29	0xbd9566b1	-0.072949775
30	0x3d60a351	0.05484325
31	0x3e196786	0.14980897
32	0x3d9c6198	0.07635802
33	0x3e1ed088	0.15509236
34	0xbe094554	-0.13405353
35	0x3d6cc494	0.05780466
36	0x3cc7cec6	0.02439059
37	0xbd2adc67	-0.0417141
38	0x3cfe06cf	0.031009106
39	0x3dbabae9	0.091176815
40	0x3e091c27	0.13389646
41	0xbd8e054e	-0.069346055
42	0xbb254a5d	-0.0025221326
43	0xbd3d07c0	-0.04614997
44	0xbd9fab07	-0.07796293
45	0x3da8be07	0.0823937
46	0xbdecdcc5	-0.11565546
47	0x3dcb86c4	0.09937814
48	0x3dea36dd	0.114362456
49	0xbec4ecce	-0.38461918
50	0x3e14500f	0.14483665
51	0xbd9e5a91	-0.07732118
52	0x3e60fd86	0.21971712
53	0x3e75d986	0.2400876
54	0xbe057638	-0.13033378
55	0x3d5424aa	0.051792778
56	0xbcfb4ef1	-0.03067729
57	0x3df956ef	0.121747844
58	0xbae54f60	-0.0017494969
59	0xbe59b764	-0.21261364
60	0xbd81d0b7	-0.06338637
61	0x3de90173	0.113772295
62	0x3dfa9024	0.12234524
63	0x3d5e5c3f	0.05428719
64	0xbe858510	-0.2607808
65	0x3d0f4a80	0.034983158
66	0x3da69fc8	0.081359446
67	0x3d9f424a	0.077763155
68	0x3dcc2805	0.099685706
69	0xbc2a44b9	-0.010392361
70	0xbd801307	-0.06253629
71	0x39c3579c	0.00037258572
72	0x3de3e1d6	0.11127059
73	0x3d94a9cc	0.07258949
74	0xbd34dd87	-0.044156577
75	0xbdd0ab94	-0.10188976
76	0x3d098c8d	0.033581305
77	0xbd3b060b	-0.04566006
78	0xbda6e7bb	-0.08149668
79	0xbeaae806	-0.33380145
80	0x3db396d4	0.087690026
81	0x386e8a60	5.6872494e-05
82	0xbdbbb62e	-0.091656074
83	0x3d85ef32	0.065397635
84	0x3c2a01a4	0.010376368
85	0x3db4201b	0.08795186
86	0xbdb6ed4b	-0.08931979
87	0x3d5c586c	0.053795263
88	0x3db4850d	0.0881444
89	0xbd8d18f6	-0.068895265
90	0x3d531dec	0.051542208
91	0xbd28f93c	-0.041253313
92	0x3d3d9695	0.046286184
93	0x3d9b7cb0	0.07592142
94	0x3e5d7694	0.21627265
95	0x3e09db90	0.13462663
96	0x3ddedc00	0.108818054
97	0x3e0d6349	0.13807406
98	0x3e1b9502	0.1519356
99	0x3d63331a	0.055468656
100	0xbcf476dd	-0.029841835
101	0x3d03ace5	0.032147307
102	0x3e227511	0.1586497
103	0x3ccb8c88	0.024847284
104	0xbd77c4ae	-0.060490303
105	0xbdc63801	-0.09678651
106	0xbb2ba1ac	-0.0026188893
107	0x3d0eb930	0.034844577
108	0xbcce9c98	-0.025221154
109	0xbdfa4827	-0.12220793
110	0x3ddc4f11	0.10757268
111	0xbc7ea37d	-0.015541908
112	0xbd5166ba	-0.05112336
113	0xbe0e1e93	-0.1387885
114	0xbd4180c2	-0.047241934
115	0xbdd3a7a5	-0.1033471
116	0x3c151e33	0.009101438
117	0xbe4143ab	-0.1887347
118	0xbd8709e2	-0.06593682
119	0xbe05a492	-0.1305106
120	0xbd657045	-0.05601527
121	0xbdea9ef6	-0.11456101
122	0xbda5be69	-0.080929585
123	0x3d3a0dda	0.045423366
124	0xbdbd4181	-0.092410095
125	0x3d231ccf	0.039822396
126	0x3e03656e	0.12831661
127	0x3d463de5	0.04839887
128	0xbca64aeb	-0.020299396
129	0xbe100269	-0.1406342
130	0x3cd407a5	0.025882551
131	0xbc1ea8ac	-0.009683769
132	0xbd914ab7	-0.07094329
133	0xbd9afd68	-0.07567865
134	0xbdcfeb65	-0.1015232
135	0x3e0c8fc0	0.13726711
136	0x3dd125dd	0.102123
137	0x3d00da4e	0.03145819
138	0x3db4089e	0.08790706
139	0xbe7074a3	-0.23481993
140	0xbdd57de6	-0.10424404
141	0xbdd77e35	-0.10522119
142	0xbd6f6c65	-0.058452982
143	0x3d1d5e61	0.038420085
144	0x3d86cd31	0.06582106
145	0xbdc12146	-0.094301745
146	0x3da0f0f0	0.07858455
147	0x3dbcfab2	0.09227504
148	0xbd8741ff	-0.06604385
149	0x3cf350ee	0.029701676
150	0xbcbb53e1	-0.022867145
151	0x3dee44bf	0.11634206
152	0xbdc4bbb8	-0.09606117
153	0xbcd11a18	-0.025525138
154	0xbe2ae0fd	-0.16687389
155	0xbc9b65d8	-0.018969461
156	0x3cab5d03	0.020918375
157	0xbd81b38d	-0.06333075
158	0x3d250134	0.04028435
159	0x3c1e79c0	0.009672582
160	0xbd2a7deb	-0.04162399
161	0x3cb3d6e3	0.021953052
162	0x3d3310cf	0.0437172
163	0xbd40235f	-0.046908733
164	0x3d5b10f4	0.053482965
165	0xbe0ca5b3	-0.13735084
166	0x3dbd1cfb	0.09234043
167	0xbccc1825	-0.024913857
168	0x3d02cde4	0.031934634
169	0xbe98875d	-0.29790774
170	0xbc43bbe3	-0.011946651
171	0xbd49ce55	-0.04926904
172	0xbda6b2fd	-0.08139608
173	0xbc8ad4c1	-0.016947152
174	0xbd55969d	-0.05214559
175	0xbdd98d99	-0.10622711
176	0x3d9e3287	0.07724481
177	0x3e0bdaac	0.13657635
178	0xbd069fd1	-0.032867257
179	0xbcd069ae	-0.025441017
180	0x3cf3cc73	0.029760575
181	0xbab24418	-0.0013600616
182	0x3d0b93fb	0.034076672
183	0xbda935d4	-0.0826222
184	0x3d975887	0.07389932
185	0xbd2d5377	-0.042315926
186	0x3d83f0ad	0.0644239
187	0x3e13231b	0.1436886
188	0x3d93e3a7	0.072211556
189	0x3e1d533e	0.15363786
190	0x3dceafbd	0.10092113
191	0xbdad55db	-0.08463641
192	0x3dc5aaa6	0.09651689
193	0xba8d4e33	-0.0010780751
194	0x3d2a28af	0.041542705
195	0xbd55f399	-0.052234266
196	0xbdd071c6	-0.101779506
197	0x3d7f9e23	0.06240667
198	0x3e18b9eb	0.14914672
199	0xbd8a0df9	-0.06740946
200	0xbe03276f	-0.12808011
201	0xbdca2dbc	-0.098720044
202	0x3da28487	0.07935434
203	0x3e253e21	0.16136982
204	0xbd80513f	-0.062654965
205	0x3d1a3521	0.037648324
206	0x3d02ce8b	0.031935256
207	0x3dfe0a24	0.12404278
208	0x3ddfbe0c	0.109249204
209	0x3c81c355	0.015840212
210	0x3db3b8a9	0.087754555
211	0xbc929ac1	-0.017896058
212	0xbd353546	-0.04424026
213	0xbdf6784e	-0.12034665
214	0x3ec878cc	0.3915466
215	0xbc9a409e	-0.01882964
216	0x3da3eb8e	0.08003913
217	0x3d08fd57	0.03344473
218	0xbd54ffd7	-0.0520018
219	0x3e828690	0.25493288
220	0x3dead1e1	0.114658125
221	0x3ddd0688	0.10792261
222	0xbda6d6c3	-0.08146431
223	0x3c3088a9	0.01077477
224	0x3e1ded12	0.15422466
225	0xbe47e9fb	-0.1952285
226	0x3c9ba375	0.01899884
227	0xbce16681	-0.027514698
228	0xbde6f119	-0.112764545
229	0xbd43b97d	-0.047784317
230	0x3dbe4621	0.0929072
231	0x3d6cbb08	0.057795554
232	0xbd1f5fa0	-0.038909554
233	0xbc89e952	-0.016834889
234	0xbd7289a0	-0.05921328
235	0x3cc970bb	0.024589887
236	0xbbdc3d42	-0.0067211697
237	0xbe00e3b0	-0.12586856
238	0xbc2278c9	-0.009916493
239	0xbdd9c50d	-0.106332876
240	0x3dd4da33	0.10393181
241	0xbcb0a239	-0.021561729
242	0xbdc3241e	-0.09528373
243	0x3da3c31d	0.07996199
244	0x3dcbe3ec	0.09955582
245	0x3dee4983	0.11635115
246	0x3cbc8a50	0.023015171
247	0x3bd191bd	0.006395547
248	0xbd836d92	-0.06417383
249	0x3d9da728	0.07697898
250	0xbc67b3cb	-0.014141987
251	0x3beb98e0	0.007189855
252	0x3dcd47d8	0.10023469
253	0x3d7dbfa8	0.061950356
254	0xbd174497	-0.036930647
255	0xbdf3cdf5	-0.119045176

rnn.weight_hh_l0 f4 [192, 64]
0	0xbd8b0b73	-0.06789293
1	0xbd940e8d	-0.07229338
2	0xbd4d30ae	-0.050095253
3	0x3df2e788	0.11860567
4	0xbcbc6b70	-0.023000449
5	0xbdac2242	-0.08404972
6	0xbdade62e	-0.08491169
7	0x3e045d17	0.12926136
8	0x3cf39dba	0.029738296
9	0xbddba931	-0.1072563
10	0x3dd88e10	0.10573971
11	0x3de624d2	0.11237492
12	0x3dec0fe9	0.11526472
13	0xba6407b9	-0.00086986605
14	0xbd87e574	-0.066355616
15	0x3d8f4c41	0.06996966
16	0xbcd87f02	-0.02642775
17	0xbd687f01	-0.056761745
18	0x3de86705	0.113477744
19	0x3c831778	0.016002402
20	0x3c5fca53	0.013659078
21	0x3952bd11	0.00020097593
22	0xbe03e228	-0.1287924
23	0xbd8571a9	-0.065158196
24	0x3d807b0d	0.0627347
25	0x3d76a2e6	0.060213946
26	0x3d1df1c4	0.038560644
27	0x3d0f535c	0.034991607
28	0x3d6eba5b	0.05828319
29	0x3d73c9a0	0.059518456
30	0x3d8d7f41	0.069090374
31	0xbdf437cf	-0.11924707
32	0x3da4bff1	0.080444224
33	0xbd6577d0	-0.056022465
34	0xbde39889	-0.11113078
35	0x3d602a8f	0.054728087
36	0xbc2aeef5	-0.010432948
37	0x3d8e943f	0.069618694
38	0x3ce9bcb4	0.028532363
39	0xbddf0669	-0.108898945
40	0x3ddab70f	0.10679447
41	0x3d6e5d3a	0.058194377
42	0xbd916262	-0.07098843
43	0xbdbdd25c	-0.092686385
44	0x3d825bbf	0.063651554
45	0x3ccdca63	0.02512092
46	0x3db7a079	0.089661546
47	0x3c543941	0.0129531035
48	0xbda7498f	-0.08168327
49	0x3cc0514c	0.023476265
50	0x3d59a664	0.053137198
51	0xbce11de2	-0.02748007
52	0x3b8d7769	0.0043172133
53	0xbd924144	-0.07141355
54	0xbdaf12f2	-0.085485354
55	0x3d077023	0.033065926
56	0xbbdbe547	-0.0067106816
57	0xbdd86344	-0.105658084
58	0x3ccd3b2d	0.025052631
59	0xbd525ea7	-0.0513598
60	0xbda515f3	-0.08060827
61	0x3d983722	0.07432391
62	0x3d423230	0.047411144
63	0x3dd658d5	0.10466162
64	0xbdec4533	-0.11536636
65	0x3ac5d590	0.0015093554
66	0xbdb5fb8a	-0.08885868
67	0x3cd4cdca	0.025977034
68	0x3d461497	0.04835948
69	0x3d9f2622	0.07770945
70	0x3dc78c66	0.09743576
71	0xbd0550bf	-0.03254771
72	0xbda4f317	-0.08054178
73	0xbb7ed0fe	-0.0038881893
74	0x3dc027c0	0.09382582
75	0x3d354643	0.04425646
76	0xbd3a9684	-0.0455537
77	0x3ddfbdc5	0.109248675
78	0xbd388cf0	-0.045056283
79	0xbce0fdc8	-0.027464762
80	0x3d7c737e	0.06163358
81	0x3d901e07	0.07036977
82	0xbda233fc	-0.079200715
83	0xbd9c59c6	-0.076343104
84	0x3deba4e8	0.11506063
85	0x3b0a9e61	0.002115153
86	0x3dc57a5a	0.09642477
87	0xba9e7acf	-0.0012091043
88	0xbde6cf66	-0.11270027
89	0xbda259ca	-0.07927282
90	0xbd600a06	-0.05469706
91	0x3d6e5d6a	0.058194555
92	0xbd835606	-0.06412892
93	0xbdd37700	-0.10325432
94	0x3de482d9	0.1115777
95	0xbe04d9cf	-0.12973712
96	0xbd29c833	-0.04145069
97	0x3d74af24	0.05973734
98	0xbde698b4	-0.112595946
99	0x3debcf44	0.11514142
100	0x3d72c5c2	0.059270628
101	0xbce882d3	-0.028382694
102	0xbdd34287	-0.103154235
103	0xbd339898	-0.043846697
104	0x3c7f3287	0.0155760115
105	0x3d007aed	0.03136723
106	0x3d472ad0	0.048624814
107	0xbce51473	-0.027963853
108	0xbc2d59f5	-0.010580529
109	0x3b48148a	0.003052982
110	0xbd6fbd7e	-0.058530323
111	0xbde98e1c	-0.11404058
112	0x3dc65385	0.09683899
113	0xbd9b6c1d	-0.0758898
114	0xbd1be8f5	-0.038063962
115	0x3c83beae	0.016082134
116	0x3da6c084	0.08142188
117	0xbdba32cd	-0.09091721
118	0x3c2c0239	0.010498577
119	0xbd32d67c	-0.04366158
120	0x3ac1f126	0.0014796599
121	0xbd471389	-0.048602615
122	0xbdd54e24	-0.10415295
123	0xbae1b081	-0.001721874
124	0xbdf1e2fd	-0.11810873
125	0xbcce6588	-0.025194898
126	0x3d87bb8e	0.0662757
127	0x3de22eb0	0.11044061
128	0xbd11d522	-0.03560365
129	0x3dce03ce	0.100593194
130	0xbca30a7a	-0.019902457
131	0xbd32d83a	-0.04366324
132	0x3db069ef	0.08613955
133	0x3d6ebe92	0.05828721
134	0x3c234846	0.009965962
135	0x3dc63da0	0.09679723
136	0x3d92c6b9	0.071668096
137	0xbdc2e437	-0.09516185
138	0xbdd1a22c	-0.1023601
139	0xbd5317a6	-0.051536225
140	0xbce9927d	-0.028512234
141	0xbde00d54	-0.10940042
142	0x3d9878b9	0.07444901
143	0x3de5e564	0.112253934
144	0xbcbd97c0	-0.02314365
145	0x3e05a584	0.1305142
146	0xbd65136c	-0.055926725
147	0x3d93957c	0.07206246
148	0x3d01cd17	0.03168973
149	0x3d90868f	0.07056915
150	0x3d87f851	0.066391595
151	0x3d7c46e6	0.06159105
152	0xbdc6b562	-0.09702565
153	0xbd7b8e9c	-0.0614153
154	0xbc3452c4	-0.011006061
155	0xbd702736	-0.058631144
156	0x3cd32b54	0.025777496
157	0xbda2ba8d	-0.07945738
158	0xbd88dc54	-0.06682649
159	0x3db18f40	0.08669901
160	0xbd2a09ac	-0.04151313
161	0xbc8500fa	-0.016235817
162	0xbda7c45b	-0.08191749
163	0xbdc2b1c3	-0.095065616
164	0x3d2d624a	0.042330064
165	0x3d7becfd	0.061505307
166	0x3d9bbea6	0.07604723
167	0x3dac4abb	0.08412691
168	0x3cf394af	0.029733984
169	0x3d446949	0.04795197
170	0xbdc4cbdd	-0.09609196
171	0xbdd066ec	-0.10175881
172	0x3cefa0b4	0.029251434
173	0x3dad3c8a	0.084588125
174	0x3cc39665	0.023875425
175	0xbc251be3	-0.0100774495
176	0xbda21f16	-0.079160854
177	0xbdc15a43	-0.09441044
178	0xbc02d5c6	-0.007985538
179	0x3c0d7e5e	0.008636085
180	0xbd8dff8b	-0.069335066
181	0xbdebcf64	-0.11514166
182	0x3d6a8e77	0.05726477
183	0xbdc9d06c	-0.098542064
184	0xbda1aa9a	-0.07893868
185	0x3d880812	0.06642164
186	0x3c853427	0.01626022
187	0xbd90fb7e	-0.07079218
188	0xbdf45a0c	-0.119312376
189	0xbd74dafe	-0.05977916
190	0xbcff2e76	-0.031150084
191	0x3b657afd	0.0035015934
192	0xbe207d3f	-0.15672778
193	0xbd37eb2f	-0.044902023
194	0xbd99472c	-0.07484278
195	0x3db9b143	0.09067013
196	0xbd6fa04e	-0.058502488
197	0x3df89845	0.12138418
198	0xbd61360d	-0.054983187
199	0xbd1c4aaf	-0.03815716
200	0xbdae93fa	-0.08524318
201	0xbd039698	-0.03212604
202	0x3de29a2a	0.11064561
203	0x3d420ac1	0.047373537
204	0x3cf9c046	0.030487191
205	0x3e2886a8	0.16457617
206	0xbe120a1e	-0.14261672
207	0xbd63ea38	-0.05564329
208	0x3d986eef	0.07443034
209	0x3b7d545b	0.0038655016
210	0x3bd1430b	0.006386166
211	0x3d3553db	0.044269424
212	0xbe1819e4	-0.14853626
213	0x3d79362a	0.06084267
214	0xbb06c441	-0.0020563754
215	0xbdc0b61d	-0.09409735
216	0x3e09e847	0.13467513
217	0x3d419c70	0.04726833
218	0x3cff6b6d	0.031179154
219	0x3e0184d5	0.12648328
220	0x3dbe78e3	0.09300401
221	0xbd9d2138	-0.076723516
222	0x3c058484	0.00814927
223	0x3d80bdba	0.062861875
224	0x3cfe364b	0.031031748
225	0x3e0ea1d9	0.13928927
226	0xbd93e042	-0.07220508
227	0x3c9f9974	0.019482352
228	0x3db255be	0.0870776
229	0x3d8e9693	0.069623135
230	0x3c84359a	0.01613884
231	0x3da11151	0.07864631
232	0xbd6f5f34	-0.058440402
233	0x3dd8911a	0.10574551
234	0x3dccea35	0.10005609
235	0x3d9e3f3f	0.07726907
236	0xbbb7d1ad	-0.005609712
237	0x3d9e72dd	0.07736752
238	0x3da36a91	0.0797931
239	0x3e0c548c	0.13704127
240	0xbd8d638c	-0.06903753
241	0x3d60ce43	0.054884207
242	0xbca98f2f	-0.020698158
243	0xbd313b8a	-0.04326967
244	0xbd008485	-0.03137638
245	0x3d7d7a81	0.061884407
246	0x3db5a07d	0.08868501
247	0x3bff161f	0.0077846195
248	0x3d2213e9	0.03956977
249	0x3d055491	0.032551352
250	0xbca62984	-0.020283468
251	0xbd084f13	-0.033278536
252	0xbdfd209b	-0.123597346
253	0xbc94f9fb	-0.018185606
254	0xbc3a12a1	-0.011356981
255	0xbd97996c	-0.0740231

rnn.bias_ih_l0 f4 [192]
0	0x3d55f995	0.052239973
1	0xbe055be3	-0.13023333
2	0xbbe4bc01	-0.0069804196
3	0xbe1c29ee	-0.1525037
4	0xbd44acbe	-0.048016302
5	0xbce5a4dd	-0.028032715
6	0x3de01d7d	0.109431244
7	0xbd74a826	-0.05973067
8	0x3c6f51d4	0.014606912
9	0x3d7df62d	0.06200235
10	0x3d90e1d5	0.07074324
11	0xbd1c5942	-0.03817106
12	0x3de2e0a6	0.110780045
13	0x3cd7c0e1	0.026337089
14	0xbd81317d	-0.06308267
15	0x3cb576a1	0.022151293
16	0xbd48dcd3	-0.04903872
17	0xbcfbf4db	-0.030756405
18	0xbca75866	-0.020427894
19	0xbdf061f5	-0.11737434
20	0xbd46a723	-0.048499238
21	0x3b9ac035	0.00472262
22	0xbcb41317	-0.021981759
23	0x3db0a4a6	0.08625154
24	0x3d5f0590	0.054448664
25	0xbd90ef75	-0.07076923
26	0x3d4379e6	0.047723673
27	0x3d0374bd	0.032093752
28	0xbdd56706	-0.10420041
29	0x3dde4cff	0.108545296
30	0xbd849cb9	-0.06475205
31	0x3d0b1367	0.03395405
32	0x3c5bf7ae	0.013425751
33	0x3ce2bff7	0.027679427
34	0xbac95139	-0.0015359289
35	0xbd93f6cf	-0.072248094
36	0xbdc9f84d	-0.09861813
37	0x3daa9cc0	0.08330679
38	0xbddba15d	-0.10724137
39	0x3de67ed6	0.11254661
40	0x3d9b04a1	0.07569242
41	0xbc287f80	-0.010284305
42	0xbd901d7e	-0.07036875
43	0x3c858f28	0.016303614
44	0x3d757d9c	0.059934244
45	0xbd4a88cc	-0.049446866
46	0xbdb2960b	-0.08720025
47	0x3dd9cc7e	0.10634707
48	0x3c8e261e	0.01735216
49	0x3dfa68e9	0.12227041
50	0x3d6e38e0	0.05815971
51	0x3d8e5ee6	0.06951694
52	0x3d35b49c	0.044361696
53	0x3c8917a4	0.016734906
54	0xbd307738	-0.043082446
55	0xbd0067bb	-0.031348925
56	0x3de6a703	0.11262324
57	0x3d90efc7	0.07076984
58	0xbcb19ab6	-0.021680217
59	0x3d91aa76	0.07112591
60	0xbd34917f	-0.04408407
61	0xbc683625	-0.014173065
62	0x3deec4b4	0.11658612
63	0x3d851871	0.064988025
64	0xbd1b6530	-0.037938297
65	0xbd711dbe	-0.058866255
66	0xbe5b4aa7	-0.21415196
67	0xbe821f0f	-0.2541432
68	0x3d399fb6	0.045318328
69	0xbdf8f4e0	-0.12156081
70	0xbca360fe	-0.01994371
71	0xbe356ee2	-0.1771808
72	0xbaea32d6	-0.0017867933
73	0x3cf797dd	0.030223781
74	0xbd8cc40d	-0.06873331
75	0x3d7540d7	0.05987629
76	0x3d49c114	0.0492564
77	0x3dda4e6a	0.106594875
78	0xbe555471	-0.20832993
79	0x3deb43b9	0.114875264
80	0xbda19a16	-0.07890718
81	0x3d8c5848	0.06852776
82	0x3de05100	0.109529495
83	0xbdd93f6e	-0.106078014
84	0x3d02636d	0.0318331
85	0xbd438fc0	-0.047744513
86	0xbdf640f7	-0.1202411
87	0xbe3c0fb5	-0.18365367
88	0x3cb4da92	0.022076879
89	0x3d554130	0.05206412
90	0xbe33bfb4	-0.17553598
91	0xbde56c12	-0.112022534
92	0x3cae72bd	0.021294946
93	0xbe270103	-0.1630898
94	0xbccea796	-0.025226396
95	0x3cbf6337	0.023362739
96	0xbc81e656	-0.015856903
97	0xbdf18384	-0.11792663
98	0x3e08fa2c	0.13376683
99	0xbe3c19e2	-0.18369249
100	0x3df2caf4	0.118551165
101	0xbd7ed7b4	-0.06221743
102	0x3df07c36	0.11742441
103	0xbdc136c7	-0.09434276
104	0xbcc85032	-0.024452303
105	0xbd9a08b8	-0.07521194
106	0xbdc37b8e	-0.095450506
107	0xbcb6bb3a	-0.022306073
108	0xbca1d58d	-0.01975515
109	0x3b6d52a5	0.003621259
110	0x3d04f52f	0.032460388
111	0x3d9812fc	0.07425496
112	0x3de90ee7	0.113797955
113	0x3d162332	0.03665466
114	0xbe1d1542	-0.1534014
115	0xbc9f3983	-0.019436603
116	0xbd92c2d7	-0.07166069
117	0xbe07df9c	-0.13268894
118	0x3d9b98a9	0.07597477
119	0x3df14707	0.117811255
120	0xbe162edc	-0.14666313
121	0xbe5c4099	-0.21509017
122	0x3d23129d	0.039812673
123	0x3dc50d3b	0.09621664
124	0xbd22fcbf	-0.03979182
125	0x3b759896	0.0037474982
126	0x3da49476	0.08036129
127	0xbd23171f	-0.039816972
128	0x3d25f721	0.040518884
129	0xbde6f058	-0.11276311
130	0x3c228f54	0.009921867
131	0xbbbadf26	-0.005702871
132	0x3da70bd8	0.08156556
133	0xbca582e0	-0.020204008
134	0xbdd4db51	-0.10393394
135	0xbd95bb0d	-0.07311068
136	0xbdbfb586	-0.09360795
137	0xbdf1d9a2	-0.11809088
138	0x3d8c2820	0.06843591
139	0xbde3c74c	-0.11121997
140	0x3cf77b75	0.030210236
141	0xbdcd1c6f	-0.10015189
142	0x3d9ec95e	0.077532515
143	0xbdea238e	-0.11432563
144	0xbc36329d	-0.011120466
145	0xbd088ff8	-0.033340424
146	0xbd7f4644	-0.06232287
147	0x3bab4262	0.0052264193
148	0x3df569dd	0.119830824
149	0xbdbf5c1b	-0.093437396
150	0x3d13ac65	0.03605308
151	0x3bae1431	0.0053124656
152	0xbc496372	-0.012291776
153	0xbda9dc5d	-0.08293984
154	0x3dbabfec	0.091186374
155	0x3c869a86	0.016431104
156	0xbdc4563b	-0.0958676
157	0xbdfa5c39	-0.12224621
158	0xbdb9c44b	-0.09070643
159	0x3d92ac13	0.07161727
160	0xbde46bdc	-0.11153385
161	0xbcfcc9b0	-0.03085789
162	0xbbfabe73	-0.007652098
163	0xbd928820	-0.0715487
164	0x3d2bcedd	0.041945327
165	0x3dd378ca	0.10325773
166	0x3dcb658f	0.0993148
167	0xbd40333b	-0.046923857
168	0x3dc7cb38	0.09755558
169	0xbd3d729a	-0.04625187
170	0xbdc3caa4	-0.09560135
171	0xbd50d967	-0.05098858
172	0xbd8c2a39	-0.06843991
173	0x3df59b18	0.119924724
174	0x3d27cff2	0.040969796
175	0xbda84dc5	-0.08217958
176	0xbd97ae88	-0.07406336
177	0x3db41c27	0.08794432
178	0xbddd27f5	-0.10798637
179	0xbd6d2476	-0.0578961
180	0x3dd41966	0.10356407
181	0xbd027c47	-0.0318568
182	0xbc8fbc5b	-0.01754587
183	0xbdd96094	-0.10614124
184	0x3cb2255f	0.021746336
185	0xbd8a30be	-0.06747578
186	0x3dba1d65	0.09087638
187	0xbd491d31	-0.049100105
188	0x3dd86dca	0.105678156
189	0x3da4d765	0.08048896
190	0x3dd9ca91	0.106343396
191	0xbd2cdc41	-0.042202238

rnn.bias_hh_l0 f4 [192]
0	0x3d99d692	0.07511629
1	0x3d03061e	0.031988256
2	0x3cc6ffe4	0.02429194
3	0xbd030816	-0.031990133
4	0x3dbfacc9	0.09359128
5	0xbde53e2d	-0.111935
6	0xbd7029a9	-0.05863348
7	0x3dbde102	0.092714325
8	0x3ca8e3ba	0.020616401
9	0x3d2bf027	0.041977074
10	0x3c4811e9	0.012211301
11	0x3b435567	0.0029805542
12	0x3cae6ab9	0.021291124
13	0x3df0d4f8	0.117593706
14	0xbd88234d	-0.06647358
15	0xbd7dc689	-0.061956916
16	0xbd51208f	-0.05105644
17	0x3d390bd3	0.045177292
18	0xbda0fbf5	-0.07860557
19	0xbd8dcb4b	-0.06923541
20	0xbd88b255	-0.06674639
21	0x3d2a3046	0.041549943
22	0xbdf224eb	-0.11823448
23	0xbda52610	-0.080639005
24	0x3dc54996	0.09633176
25	0xbd491a3e	-0.049097292
26	0xbb98bfb8	-0.0046615265
27	0xbdab7173	-0.08371248
28	0x3b73e2e3	0.0037214092
29	0x3dcf19c1	0.10112334
30	0xbd77a289	-0.06045774
31	0xbe0302be	-0.12794015
32	0x3d183975	0.03716417
33	0x3c8f4bb7	0.017492158
34	0xbd815ec5	-0.06316904
35	0x3d80aea3	0.06283309
36	0x3dc5e045	0.09661917
37	0x3de8587a	0.113450006
38	0x3db48b3f	0.088156216
39	0x3de3209e	0.110902056
40	0xbe0da98e	-0.13834211
41	0xbcc65140	-0.024208665
42	0xbdd29bbe	-0.10283612
43	0xbe004ffa	-0.12530509
44	0xbdb65048	-0.08902031
45	0xbc9b4c13	-0.018957173
46	0xbc8990ef	-0.016792743
47	0x3d9cd586	0.07657914
48	0x3d8d3d5f	0.06896471
49	0x3df8787f	0.12132358
50	0xbdb52d28	-0.088465035
51	0xbdfbdeb2	-0.12298335
52	0x3bd836ee	0.006598345
53	0xbc4c8b63	-0.012484404
54	0x3d745042	0.059646852
55	0x3dd1f548	0.10251862
56	0x3d27de3e	0.04098343
57	0x3e05d8dc	0.13071007
58	0x3d3da95c	0.04630409
59	0x3da78fdc	0.08181736
60	0xbd87c0db	-0.06628581
61	0x3d980019	0.074218936
62	0xbd2f6c2e	-0.042827778
63	0x3bc22103	0.0059243455
64	0x3dc0535f	0.09390902
65	0x3c0c30fd	0.008556602
66	0xbe2061ed	-0.15662356
67	0xbef58972	-0.47956425
68	0x3cea2b9a	0.028585244
69	0x3ca2cac3	0.019872075
70	0x3ca4784a	0.02007689
71	0xbe0664fe	-0.13124463
72	0x3c904f4f	0.017615942
73	0xbe0360c0	-0.12829876
74	0xbb91b3df	-0.004446491
75	0x3d0c6aaf	0.03428143
76	0xbdb425ab	-0.08796247
77	0xbba68612	-0.0050819004
78	0xbdd4557b	-0.103678666
79	0x3d1bedb4	0.03806849
80	0x3d84f681	0.064923294
81	0x3d4f5d3e	0.050626032
82	0xbb1df21c	-0.0024100607
83	0xbcb3c19c	-0.021942906
84	0x3d1afa90	0.03783661
85	0x3d2b8456	0.041874252
86	0x3d227a77	0.039667573
87	0xbe07b44a	-0.13252369
88	0xbde310f8	-0.11087221
89	0xbdaa2100	-0.083070755
90	0xbe206588	-0.15663731
91	0x3d0367c3	0.032081377
92	0xbde4c830	-0.11170995
93	0xbd92256b	-0.07136043
94	0x3d97dbfa	0.07415004
95	0xbd8c6757	-0.06855648
96	0x3d002d26	0.031293057
97	0xbe833216	-0.2562415
98	0x3dd507c3	0.10401871
99	0xbe704720	-0.23464632
100	0xbd910da2	-0.070826784
101	0xbd2ce728	-0.042212635
102	0xbc09834b	-0.008393119
103	0x3c6458a7	0.013937152
104	0xbbae6e6f	-0.0053232233
105	0xbdb39c60	-0.087700605
106	0xbd78f4c9	-0.06078032
107	0xbc9a92d9	-0.01886885
108	0xbc6b3132	-0.014354991
109	0xbcdcbaa4	-0.026944466
110	0xbe1fae99	-0.15593947
111	0xbca1e542	-0.019762639
112	0xbd8e2439	-0.06940503
113	0xbd861d31	-0.065485366
114	0xbe2133c2	-0.157424
115	0xbdef4b87	-0.116843276
116	0xbe3ab261	-0.18232109
117	0xbd3acb4e	-0.045604043
118	0xbcda7c88	-0.02667071
119	0x3d99b529	0.07505257
120	0xbca3a5b4	-0.019976474
121	0xbe1969b9	-0.14981736
122	0xbbd1106b	-0.006380131
123	0x3d3384fb	0.043827992
124	0xbe2c0bd0	-0.16801381
125	0xbe236f28	-0.15960371
126	0x3d029220	0.031877637
127	0xbcbdaa92	-0.023152623
128	0x3d584339	0.052798484
129	0x3d00f628	0.031484753
130	0x3bb210e6	0.0054341434
131	0xbd83f9b8	-0.064441144
132	0xbda1adf3	-0.07894506
133	0xbdd6a1b0	-0.10480058
134	0x3c954d94	0.018225469
135	0x3ceffe5e	0.029296096
136	0xbd6c1dce	-0.05764561
137	0x3be4552b	0.0069681606
138	0xbc9b7c62	-0.018980209
139	0x3c16829f	0.009186416
140	0x3db66c3a	0.08907361
141	0x3da609b0	0.081073165
142	0x3def0ccc	0.11672363
143	0xba5bb2ee	-0.00083808496
144	0x3d35426f	0.04425281
145	0x3c431442	0.011906685
146	0x3df4026f	0.11914527
147	0xbde8ef1c	-0.113737315
148	0xbde19bfb	-0.11016079
149	0x3de631c8	0.11239964
150	0xbd9a9861	-0.07548595
151	0xbd8a1f24	-0.06744221
152	0xbd79900d	-0.060928393
153	0x3d3eda54	0.046594933
154	0xbd54c060	-0.051941276
155	0xbde20c44	-0.11037496
156	0xbb0e0f7f	-0.0021676717
157	0x3debd509	0.115152426
158	0x3da396a3	0.07987716
159	0x3d0ddd88	0.034635097
160	0x3dc21992	0.094775334
161	0xbd14d4b9	-0.03633568
162	0x3d3a59a8	0.04549566
163	0x3df217e7	0.11820965
164	0x3de3d8d2	0.111253396
165	0xbc9c9eb2	-0.01911864
166	0x3d754f88	0.0598903
167	0xbd26567f	-0.040609833
168	0x3cfd503d	0.03092205
169	0xbdcfb8ec	-0.10142693
170	0xbd3bea5b	-0.045877796
171	0xbc83fe7a	-0.016112555
172	0xbc4e8647	-0.012605256
173	0x3c3e0b97	0.011599443
174	0xbdc11fdd	-0.094299056
175	0x3dbcec0e	0.09224711
176	0x3dc4d376	0.096106455
177	0xbd0a7592	-0.03380353
178	0x3e061ee8	0.13097727
179	0xbd1c9df9	-0.038236592
180	0x3d6223c0	0.055209875
181	0xbc947359	-0.018121408
182	0xbd9854dd	-0.074380614
183	0x3dc8e436	0.09809153
184	0xbc5684f9	-0.013093227
185	0xbd6c5b77	-0.057704415
186	0xbda76aa6	-0.081746385
187	0x3d8fafaa	0.07015927
188	0xbbffe57e	-0.00780934
189	0x3daf9184	0.08572677
190	0x3d016bbf	0.031596895
191	0x3d651575	0.055928666

rnn.weight_ih_l1 f4 [192, 64]
0	0xbd9af42c	-0.07566103
1	0x3d4ca713	0.049964022
2	0xbdcb3969	-0.099230595
3	0x3e3faffe	0.1871948
4	0x3deca484	0.11554816
5	0xbddaa11a	-0.10675259
6	0x3d1b6ae0	0.03794372
7	0xbc617e26	-0.013762986
8	0xbdcdadf6	-0.10042946
9	0xbdf56279	-0.11981673
10	0x3cccb6e9	0.024989562
11	0x3d8b2e90	0.067959905
12	0xbdc92faa	-0.09823544
13	0x3d8b55d0	0.06803477
14	0xbda10753	-0.07862725
15	0x3dfd3051	0.12362731
16	0xbdf597f7	-0.119918756
17	0xbdb2d5f4	-0.087322146
18	0x3dfca505	0.123361625
19	0x3c64e295	0.013970037
20	0xbdcfa2ef	-0.10138499
21	0x3d59c971	0.053170625
22	0xbdc9dc5d	-0.09856484
23	0x3d6ae782	0.05734969
24	0xbd1ea41a	-0.03873072
25	0x3d997b51	0.07494224
26	0xbd52f642	-0.05150438
27	0x3dc2722a	0.09494431
28	0x3d38397c	0.044976696
29	0xbdea55d8	-0.11442155
30	0x3d417cc1	0.047238115
31	0xbda8fd61	-0.08251453
32	0x3df01156	0.117220566
33	0x3db3f513	0.087869786
34	0xbda49e34	-0.08037987
35	0xbdfbce83	-0.12295248
36	0x3c6f7c1d	0.014616993
37	0x3cd63cac	0.026151977
38	0xbab49ae3	-0.001377907
39	0x3d85b589	0.06528766
40	0xbd852a12	-0.06502165
41	0xbcd88935	-0.026432613
42	0x3daeaa7d	0.08528612
43	0xbc35b848	-0.011091299
44	0x3dbb14a7	0.091347985
45	0xbbd9aadb	-0.006642682
46	0xbd584643	-0.05280138
47	0x3d7009c9	0.05860308
48	0xbdc38a36	-0.09547846
49	0x3b09d2c0	0.0021030158
50	0xbd627f54	-0.05529721
51	0x3dff7709	0.12473876
52	0xbdc1b950	-0.09459174
53	0x3d373c50	0.044735253
54	0xbcfbd8fa	-0.03074311
55	0x3dc0000b	0.09375008
56	0xbe0b4da8	-0.13603842
57	0x3d4d3582	0.050099857
58	0x3d667610	0.056264937
59	0xbcc175a0	-0.023615658
60	0xbc1349a7	-0.008989728
61	0xbc282670	-0.01026307
62	0xbd03147b	-0.032001954
63	0xbc9ac95b	-0.018894842
64	0x3d0ca4e2	0.034336932
65	0x3d3d287d	0.04618119
66	0x3e129dd4	0.14318019
67	0x3e1c0fdc	0.15240425
68	0x3d39e498	0.04538402
69	0xbc3b3ba6	-0.0114277955
70	0xbde10b51	-0.109884866
71	0x3dfc4a48	0.123188555
72	0x3db42e8f	0.08797943
73	0xbd19f8f8	-0.03759095
74	0x3c381e18	0.011237644
75	0xbdc7214e	-0.09723149
76	0xbdf27ed1	-0.118405946
77	0x3d214740	0.03937459
78	0x3dcd0b53	0.100119255
79	0xbaca1069	-0.0015416268
80	0xbd5606af	-0.052252468
81	0x3da1d2b0	0.079015136
82	0xbd996b11	-0.074911244
83	0x3e03ef2e	0.12884209
84	0x3cad4502	0.02115107
85	0x3db358da	0.087571815
86	0xbdc4dbcf	-0.09612238
87	0xbce31c1f	-0.02772337
88	0xbdcfcdc8	-0.101466715
89	0x3d878776	0.06617634
90	0x3cc9e312	0.024644408
91	0xbdc07fd7	-0.093993835
92	0x3d972a69	0.07381136
93	0xbc0288bd	-0.007967171
94	0xbca932b1	-0.020654054
95	0x3de057d6	0.109542534
96	0x3dbea98b	0.093096815
97	0xbd290d35	-0.04127236
98	0xbdd1f2b5	-0.10251371
99	0xbda8eefe	-0.08248709
100	0x3d142b58	0.03617415
101	0xbcb26607	-0.021777166
102	0x3dff723f	0.124729626
103	0x3db695d9	0.089153
104	0xbd8e59e4	-0.06950739
105	0xbddf91c1	-0.10916472
106	0xbd55b501	-0.052174572
107	0x3e0403b0	0.12892032
108	0x3d9cf5d6	0.07664077
109	0xbd012869	-0.03153268
110	0x3bef1098	0.0072956793
111	0x3ccac146	0.024750363
112	0xbdcc129e	-0.099644884
113	0xbde6f8dd	-0.11277936
114	0xbdf65245	-0.120274104
115	0xbcfcb599	-0.030848311
116	0x3cc4d018	0.024025008
117	0x3abf8e13	0.0014614485
118	0x3db2bc1e	0.08727287
119	0xbd1f0241	-0.03882051
120	0xbda16216	-0.078800365
121	0xbc79f5cf	-0.015256359
122	0xbde6e03c	-0.11273238
123	0x3d44ce8a	0.048048533
124	0x3dfc5e9d	0.123227336
125	0x3db94c98	0.09047812
126	0x3dedbcdd	0.116082884
127	0x3d6bf6df	0.05760848
128	0x3dc49483	0.09598639
129	0xbc8d392a	-0.017239172
130	0x3d0343fc	0.032047257
131	0xbcc95ad2	-0.02457944
132	0xbccde996	-0.025135797
133	0xbc09451e	-0.008378295
134	0x3d301f91	0.042998854
135	0x3c4842b0	0.012222931
136	0xbd7bd38e	-0.06148105
137	0x3dd5cf97	0.10439985
138	0xbe039826	-0.12851009
139	0x3d80be82	0.062863365
140	0x3c6f7b2d	0.01461677
141	0xbdda8b84	-0.10671142
142	0xbdd29eb2	-0.10284175
143	0x3d427a9f	0.04748022
144	0x3d2036fd	0.03911494
145	0xbd81c2bb	-0.0633597
146	0x3d3a58c3	0.045494806
147	0x3de1ce22	0.11025645
148	0xbde3a87e	-0.11116122
149	0x3da82d5a	0.08211775
150	0x3dca5d08	0.098810256
151	0xbd8cae20	-0.06869149
152	0xbcb47f27	-0.022033287
153	0x3deee5a7	0.116648965
154	0xbd87c1bd	-0.066287495
155	0x3e11cff6	0.14239487
156	0x3de5bc10	0.11217511
157	0xbd5259f8	-0.051355332
158	0x3d83ef2e	0.06442104
159	0x3c81054b	0.015749594
160	0x3d841555	0.06449381
161	0xbd1e4e47	-0.03864887
162	0x3d9d1b16	0.07671182
163	0xbd7aecbb	-0.06126092
164	0xbd66164f	-0.05617362
165	0x3d94e7e2	0.07270791
166	0xbde55c57	-0.11199253
167	0x3de48663	0.11158445
168	0xbdf95cf7	-0.12175935
169	0xbb732164	-0.003709876
170	0x3bbea5e3	0.005818115
171	0xbd17073b	-0.03687213
172	0xbd3a86dc	-0.04553877
173	0xbdb384c9	-0.08765561
174	0xbda8ff58	-0.08251828
175	0xbd08f01d	-0.033432115
176	0xbd40ee36	-0.047102176
177	0x3cdfd33b	0.027322402
178	0x3e0ab358	0.13544977
179	0x3e0e182d	0.1387641
180	0xbcebecde	-0.02879947
181	0x3dfcdcba	0.12346788
182	0x3e0f5b4f	0.13999675
183	0xbda5fc43	-0.08104756
184	0xbda3beb9	-0.07995362
185	0xbdcd0b7b	-0.10011955
186	0xbc42e233	-0.01189475
187	0xbde1f86c	-0.11033711
188	0xbe147976	-0.14499459
189	0xbdc31f11	-0.0952741
190	0xbe0a6a38	-0.13517082
191	0x3e036952	0.12833145
192	0x3d388e49	0.04505757
193	0xbd5efb0f	-0.054438647
194	0x3d97962c	0.0740169
195	0xbc5c202e	-0.013435407
196	0x3dc2d31a	0.09512921
197	0x3c3e5a0f	0.011618151
198	0xbdb12b78	-0.08650869
199	0xbd9e6dbd	-0.07735775
200	0xbd42cca2	-0.047558434
201	0x3db1eac0	0.08687353
202	0x3db1c06b	0.08679279
203	0xbd17eb01	-0.03708935
204	0x3de15f21	0.110044725
205	0xbb11f8f1	-0.0022273625
206	0x3cbc8a26	0.023015093
207	0x3dc55153	0.09634652
208	0x3df1c78c	0.11805639
209	0x3d47d98a	0.048791446
210	0xbd97bcac	-0.07409033
211	0xbd7f1427	-0.06227508
212	0xbb0e17ab	-0.0021681588
213	0x3e002a4d	0.12516136
214	0xbdf17750	-0.11790335
215	0x3b8d9715	0.004320989
216	0xbdd6952e	-0.104776725
217	0x3cae3a4f	0.021268038
218	0x3d8a6508	0.067575514
219	0x3df9987c	0.12187287
220	0xbdb91906	-0.09037976
221	0x3df121dc	0.11774036
222	0xbae63791	-0.0017564168
223	0x3cb20cdd	0.02173465
224	0xbd4a1bd7	-0.049342956
225	0x3dd83448	0.10556847
226	0xbd9fe9e5	-0.07808284
227	0x3b1e2132	0.0024128673
228	0xbc74b338	-0.014935307
229	0xbcd75931	-0.026287647
230	0xbd79e0b8	-0.061005324
231	0x3d3af23b	0.045641165
232	0xbd8230f1	-0.06356991
233	0x3dff1170	0.12454498
234	0xbcb172e0	-0.021661222
235	0xbde29214	-0.110630184
236	0x3cf32b58	0.029683754
237	0xbda1a0a4	-0.07891968
238	0x3c04dfa7	0.0081099635
239	0xba45999c	-0.0007537843
240	0xbd11b57e	-0.035573475
241	0x3d21af40	0.039473772
242	0x3a1c1daa	0.0005955348
243	0xbd960bec	-0.07326493
244	0x3d616344	0.055026308
245	0x3bf55241	0.007486612
246	0xbd9b7164	-0.07589987
247	0x3cc9bf19	0.024627255
248	0x3d86525d	0.06558678
249	0xba31b6c8	-0.00067792507
250	0x3d7dd7aa	0.06197325
251	0xbab903ba	-0.001411549
252	0x3d0048ad	0.03131931
253	0x3d209607	0.039205577
254	0xbd12c4f8	-0.035832375
255	0xbde85c86	-0.113457724

rnn.weight_hh_l1 f4 [192, 64]
0	0x3ce92dbb	0.028464189
1	0xbdc7ec45	-0.09761862
2	0xbce8899d	-0.028385932
3	0xbdd75363	-0.10513952
4	0x3dd46472	0.10370721
5	0x3d650952	0.05591709
6	0xbd3f8e0f	-0.046766337
7	0x3dbe32fd	0.09287069
8	0xbdd9c913	-0.10634055
9	0xbd9c2163	-0.076235555
10	0xbcc27974	-0.023739554
11	0xbda72761	-0.08161808
12	0xbdb0e072	-0.086365595
13	0xbccc36ac	-0.024928413
14	0x3d9965dc	0.07490131
15	0xbddfd70c	-0.10929689
16	0x3dc2a06d	0.09503255
17	0xbdfb2ebe	-0.12264775
18	0x3d1b0c7c	0.037853703
19	0x3dc85792	0.09782328
20	0xbd870697	-0.06593054
21	0xbd0a92c3	-0.03383137
22	0xbd9bfb7a	-0.07616325
23	0xbdd57153	-0.104220055
24	0x3d90dd57	0.07073467
25	0x3dadff6f	0.08495986
26	0xbd931275	-0.07181255
27	0x3dc2926c	0.09500584
28	0xbc1837d2	-0.009290652
29	0xbd092cbf	-0.03348994
30	0x3d1116ad	0.035422016
31	0x3d7db543	0.061940443
32	0xbde591bb	-0.112094365
33	0x3db9bc2e	0.090690956
34	0xbd66fc99	-0.05639324
35	0x3c31ebcb	0.01085944
36	0x3dd3ce74	0.10342112
37	0xbdc64824	-0.096817285
38	0x3dadffa1	0.08496023
39	0x3c709e7d	0.014686224
40	0x3ddad26f	0.10684668
41	0x3c6d2c4d	0.014475894
42	0x3cd829ed	0.02638718
43	0xbd83fccd	-0.06444702
44	0xbc87d904	-0.016582973
45	0xbd70a2e2	-0.058749087
46	0x3dbd8699	0.09254188
47	0xbda69722	-0.08134295
48	0xbcbef840	-0.023311734
49	0xbdab5b4f	-0.08367025
50	0x3d7efe46	0.062254213
51	0x3d6cedab	0.057843845
52	0xbba18018	-0.0049286
53	0xbde006ee	-0.10938822
54	0x3dd5d7da	0.10441561
55	0x3dfb0e96	0.122586414
56	0x3dc2400d	0.09484873
57	0x3dbb859d	0.09156344
58	0xbd04b78c	-0.032401606
59	0x3dcfc34e	0.10144673
60	0xbd8d86ad	-0.06910453
61	0x3da30a63	0.079609655
62	0x3c29bee6	0.010360455
63	0x3bbc0d0a	0.005738859
64	0x3d1f3dfb	0.03887747
65	0x3c66fef5	0.014098872
66	0xbd1646ff	-0.0366888
67	0x3c45924b	0.012058805
68	0xbc33dfa9	-0.010978618
69	0xbd465aef	-0.048426565
70	0xbd0f0cb4	-0.034924224
71	0xbd95d221	-0.073154695
72	0x3dc36efe	0.095426545
73	0xbdce32dd	-0.10068295
74	0xbd2e4f57	-0.042556133
75	0x3dee16bc	0.1162543
76	0x3dc03477	0.09385007
77	0x3c1404e2	0.009034367
78	0xbd98ef09	-0.07467467
79	0x3c19d010	0.009387985
80	0xbb1635ab	-0.0022920172
81	0xbdf4f3e2	-0.119605795
82	0x3d447354	0.047961548
83	0x3d917459	0.0710227
84	0xbde51cd3	-0.111871384
85	0xbd62ae71	-0.05534214
86	0xbd92e0d0	-0.07171786
87	0x3cd2bc2e	0.025724497
88	0x3da48711	0.080335744
89	0xbdc13ce0	-0.09435439
90	0x3ce12db1	0.027487608
91	0x3d87cbe2	0.066306844
92	0xbd901e1e	-0.070369944
93	0xbd4bbdf1	-0.04974169
94	0x3cd78c1d	0.026311928
95	0xbd02d621	-0.03194249
96	0xbd404576	-0.046941243
97	0x3dbac8ae	0.09120308
98	0x3b9c5434	0.00477078
99	0x3cb73121	0.022362294
100	0xbcc6d59e	-0.024271782
101	0x3dd03d62	0.10167958
102	0xbd190f0a	-0.037367858
103	0x3afe7396	0.0019413109
104	0xbdeff5df	-0.11716818
105	0x3ddebc5d	0.10875771
106	0x3d38da8f	0.04513031
107	0xbddb350d	-0.10703478
108	0x3d1e20d7	0.038605537
109	0xbd33d66a	-0.043905653
110	0x3dc20345	0.0947328
111	0xbdeb086f	-0.11476218
112	0x3d39a569	0.045323763
113	0xbc8e3902	-0.017361168
114	0xbdbfad98	-0.09359282
115	0x3bc77719	0.0060871956
116	0xbdbce585	-0.09223465
117	0xbd25ec6f	-0.040508684
118	0x3d99a9c2	0.07503082
119	0xbd4f42ee	-0.05060094
120	0x3c39e749	0.011346647
121	0xbda62f33	-0.08114471
122	0xbc011478	-0.007878415
123	0xbd5e4234	-0.054262355
124	0xbca784cc	-0.020449065
125	0x3d1f0963	0.03882731
126	0xbda19a74	-0.07890788
127	0xbdc4c6fb	-0.09608265
128	0xbd5bb535	-0.05363961
129	0x3b80aea1	0.0039270674
130	0x3dad2940	0.084551334
131	0xbddb4a30	-0.107075095
132	0x3c5b4215	0.013382454
133	0x3d7716ff	0.060324665
134	0x3d0cd618	0.034383863
135	0x3cfe3431	0.031030746
136	0xbb3080bc	-0.00269322
137	0x3c6a6343	0.014305892
138	0x3dba9328	0.09110099
139	0x3e03743e	0.12837312
140	0xbdefcd5b	-0.1170909
141	0x3d943940	0.07237482
142	0xbca475c3	-0.020075684
143	0x3df49d3a	0.11944051
144	0x3dd2bcb4	0.102898985
145	0x3d9a241c	0.075264186
146	0x3e13fe43	0.14452462
147	0xbd474bcf	-0.04865628
148	0x3d311f70	0.04324287
149	0x3da5c032	0.08093299
150	0x3dbc1bff	0.09185027
151	0xbe0273d7	-0.12739502
152	0x3dc7766c	0.09739384
153	0xbc80c275	-0.015717724
154	0x3d607bca	0.054805554
155	0xbd8281d9	-0.06372423
156	0x3dea7926	0.114488885
157	0xbd8a08ba	-0.06739946
158	0xbe0503bb	-0.12989704
159	0x3d5de1c0	0.05417037
160	0xbe02f433	-0.12788467
161	0x3dfa5ee8	0.12225133
162	0x3d97cf42	0.07412578
163	0xbdc2b32e	-0.09506832
164	0xbe042ea1	-0.12908413
165	0xbc25b5c2	-0.010114135
166	0xbe1481f6	-0.14502701
167	0x3ca74e34	0.020423032
168	0x3d97f608	0.074199736
169	0xbe12a073	-0.14319019
170	0x3dd27024	0.102752954
171	0xbd91b166	-0.07113914
172	0x3c7ca40d	0.015419972
173	0x3ccc8cf0	0.024969548
174	0xbd777ed5	-0.06042369
175	0xbdec8a01	-0.1154976
176	0x3dc27a8b	0.094960295
177	0x3e16d6d0	0.14730382
178	0x3d4e2863	0.050331485
179	0x3dfb2188	0.12262255
180	0x3d4964f2	0.049168535
181	0x3d400ad2	0.04688532
182	0xbdea4b68	-0.11440164
183	0xbce7fad8	-0.028317854
184	0xbdac817f	-0.08423137
185	0xbce10fbd	-0.027473325
186	0x3cfe9ba6	0.031080078
187	0xbd190385	-0.037356872
188	0x3d37f93d	0.044915427
189	0xbcd14852	-0.02554718
190	0xbdb1c61f	-0.08680367
191	0xbd53f2a2	-0.051745065
192	0xbb0f6987	-0.0021882968
193	0x3b1612e8	0.0022899453
194	0xbd7eb7f4	-0.06218715
195	0x3dd5545c	0.10416481
196	0x3dc8d30e	0.098058805
197	0xbdf0eb2b	-0.11763605
198	0x3d8d70e5	0.069062985
199	0x3d88ee2e	0.06686054
200	0x3c3a0e09	0.011355885
201	0xbcdff9bb	-0.02734076
202	0x3cdaa40b	0.02668955
203	0xbde4e97d	-0.11177347
204	0xbd98e29f	-0.074650995
205	0x3dad56b0	0.084638
206	0x3d27f59a	0.04100571
207	0x3dc964d6	0.09833686
208	0xbda7ab49	-0.08186967
209	0x3dabc022	0.08386256
210	0xbd385be0	-0.045009494
211	0x3de846aa	0.11341603
212	0xbcbb47a0	-0.022861302
213	0xbdf012b1	-0.11722315
214	0xbd968bdd	-0.073508956
215	0x3de9c141	0.114138134
216	0xbdf6bc00	-0.12047577
217	0x3dc0ac0b	0.094078146
218	0x3db0958a	0.08622272
219	0xbdf9985d	-0.12187264
220	0x3dc74f0d	0.097318746
221	0x3da75668	0.081707776
222	0x3be1179b	0.006869269
223	0xbc2535be	-0.010083614
224	0xbcc9cf69	-0.024635034
225	0xbdd1ad4e	-0.10238133
226	0x3c8f8603	0.017519956
227	0x3dfbb6ae	0.12290703
228	0x3b1a1cfa	0.0023515807
229	0xbc6d894d	-0.014498067
230	0x3d703b2f	0.058650192
231	0xbd2b486b	-0.04181711
232	0x3d914350	0.07092917
233	0xba8d4779	-0.0010778747
234	0x3def9892	0.11699022
235	0x3cbbccd3	0.022924816
236	0x3dcf0535	0.10108415
237	0xbdcea4d6	-0.10090034
238	0x3d99ed18	0.07515925
239	0x3deaf34d	0.11472187
240	0xbdef6aa8	-0.11690265
241	0x3d3a5e97	0.045500364
242	0x3dc434f0	0.095804095
243	0x3db440ff	0.088014595
244	0x3d81959a	0.06327362
245	0xbde55ecf	-0.11199724
246	0x3dd0e246	0.10199408
247	0x3dc389e5	0.09547786
248	0x3ddd1a6f	0.107960574
249	0xbdd1820e	-0.10229884
250	0xbd6c0e82	-0.057631023
251	0x3ca67b6b	0.020322522
252	0xbdb25075	-0.08706752
253	0xbbee0d51	-0.007264771
254	0xbd4e832d	-0.050418068
255	0x3df59b6e	0.119925365

rnn.bias_ih_l1 f4 [192]
0	0x3d248214	0.040163115
1	0x3d8bb58d	0.068217374
2	0xbdf839a4	-0.12120369
3	0x3b6e7d18	0.003639048
4	0xbd505896	-0.050865732
5	0x3d7b8e1e	0.06141483
6	0x3df74af1	0.12074841
7	0x3d94e4d1	0.07270206
8	0xbda70d27	-0.081568055
9	0xbdf33571	-0.118754275
10	0xbdc4a9f9	-0.09602732
11	0xbd85a4a3	-0.065255426
12	0x3d425ac8	0.047449857
13	0x3debf124	0.11520603
14	0xbc34f78b	-0.011045347
15	0xbdfad3fc	-0.12247464
16	0x3e10379c	0.14083713
17	0x3db0a0dc	0.086244315
18	0xbdfdc828	-0.123916924
19	0xbd83f508	-0.064432204
20	0xbd55dcc8	-0.052212507
21	0xbdf578bc	-0.11985919
22	0xbd8b98f4	-0.06816283
23	0xbda000d4	-0.07812658
24	0xbd87547c	-0.06607911
25	0xbd243459	-0.040088985
26	0xbd793325	-0.06083979
27	0xbd216d38	-0.0394108
28	0xbdcf2eb1	-0.101163276
29	0xbd838fe8	-0.06423932
30	0xbdde0e29	-0.108425446
31	0x3bf7c00a	0.0075607346
32	0xbdc1bff9	-0.09460444
33	0x3d5273d3	0.05137999
34	0x3c8396ef	0.016063182
35	0x3dc3361e	0.095318064
36	0xbda57fd4	-0.08081022
37	0xbc720401	-0.014771462
38	0x3df4421a	0.1192667
39	0xbda89a56	-0.08232562
40	0x3db1b7a6	0.08677606
41	0x3d4e5c3d	0.050380934
42	0x3ddf1d6d	0.108942844
43	0x3dbce493	0.092232846
44	0x3dadf513	0.0849401
45	0x3cd7535e	0.02628487
46	0xbd62afb4	-0.055343345
47	0xbc8eb427	-0.017419888
48	0xbdc13019	-0.09433002
49	0x3d4d274e	0.050086312
50	0xbd6d1791	-0.057883803
51	0x3d5798d2	0.052635975
52	0xbd49830e	-0.04919725
53	0x3d503f76	0.05084177
54	0xbc9c27ef	-0.01906201
55	0xbc3df777	-0.011594645
56	0x3b0bbf99	0.0021323918
57	0x3dc94740	0.09828043
58	0x3bea8322	0.0071567455
59	0x3c86b510	0.01644376
60	0x3d7289fc	0.059213623
61	0x3d7df989	0.062005553
62	0x3da52971	0.08064545
63	0xbde4a93c	-0.111650914
64	0xbe459113	-0.19293623
65	0xbe2e0bb6	-0.16996655
66	0x3e0db73b	0.13839428
67	0x3d877c95	0.06615559
68	0x3d0d95b5	0.0345666
69	0x3cb33381	0.021875145
70	0xbdd0571e	-0.10172866
71	0xbd06fd2f	-0.0329563
72	0x3d8fd69d	0.07023356
73	0xbd9d92ea	-0.07694037
74	0x3d15e5af	0.036595996
75	0xbdaded4a	-0.08492525
76	0x3d8afce2	0.06786515
77	0x3d855de7	0.06512051
78	0x3c6afc83	0.01434243
79	0xbd92d12e	-0.07168804
80	0xbe00706e	-0.12542889
81	0xbb0eb188	-0.0021773297
82	0x3db933c7	0.09043079
83	0xbd6a694e	-0.057229333
84	0xbe6d8c06	-0.23197946
85	0x3c291d34	0.010321904
86	0x3b40e20a	0.0029431605
87	0x3d9c5319	0.07633037
88	0x3bd169fa	0.006390807
89	0x3d2b5bf0	0.041835725
90	0xbc35502e	-0.01106648
91	0xbdac31b0	-0.08407915
92	0x3e6cebb6	0.23136792
93	0xbc88ecd3	-0.01671449
94	0x3d0a88ea	0.033821978
95	0xbe0f024c	-0.1396572
96	0xbdeea080	-0.11651707
97	0xbd9fb55a	-0.07798262
98	0x3c230efd	0.009952304
99	0xbd96954b	-0.07352694
100	0x3cdf856d	0.027285302
101	0xbb9820ba	-0.004642573
102	0x3dce0b3e	0.10060738
103	0xbe149718	-0.14510763
104	0xbd9392cd	-0.072057344
105	0xbdbc23d9	-0.09186525
106	0xbdf03e4a	-0.11730631
107	0xbe8145ec	-0.2524866
108	0x3e0d6808	0.13809216
109	0xbda6eeac	-0.08150992
110	0xbd03e290	-0.03219849
111	0x3c84d6ee	0.016215768
112	0xbd0f80c0	-0.035034895
113	0xbda08f86	-0.07839875
114	0xbd5f3698	-0.054495424
115	0xbe3d2a1f	-0.18473099
116	0xbe323e6e	-0.17406628
117	0x3d89674e	0.06709157
118	0x3b3c488f	0.0028729772
119	0xbcc1a991	-0.023640426
120	0xbacd9469	-0.0015684488
121	0x3d58558a	0.05281595
122	0xbd7808a8	-0.06055513
123	0xbdae45e3	-0.085094236
124	0xbded3bba	-0.115836576
125	0x3ae2e70e	0.0017311291
126	0xbdbb036a	-0.091315106
127	0x3dc6e98d	0.09712515
128	0x3adeca6f	0.0016997586
129	0xbd2e8b67	-0.042613413
130	0xbd6a1f50	-0.05715877
131	0xbc8d2aef	-0.017232386
132	0x3d2de827	0.042457726
133	0x3d914d79	0.07094855
134	0xbd1ca8cd	-0.03824692
135	0xbd7f126e	-0.062273435
136	0xbcf2ce36	-0.029639345
137	0xbdd1d250	-0.10245192
138	0xbdc4ff9d	-0.09619067
139	0xbc8858fc	-0.016643994
140	0x3d6e6e9a	0.058210947
141	0x3d98d1fa	0.07461925
142	0x3cfc0909	0.030766027
143	0x3c29de09	0.010367879
144	0x3d7ea07f	0.06216478
145	0x3d504f74	0.050857022
146	0xbd6ea2c9	-0.058260713
147	0xbd6be0b2	-0.057587333
148	0x3cf09e73	0.02937243
149	0xbd680aa4	-0.056650773
150	0x3bcf9363	0.0063347085
151	0x3da87d33	0.08227005
152	0xbdb1a0e0	-0.086732626
153	0x3d93ab01	0.07210351
154	0xbc3631e3	-0.011120292
155	0xbddd4a5d	-0.10805199
156	0xbd97fc32	-0.07421149
157	0xbc208709	-0.00979782
158	0x3d925d1e	0.07146667
159	0xbd4cb4c6	-0.049977086
160	0xbdab7537	-0.08371966
161	0xbd0182f4	-0.031619027
162	0xbdd923e2	-0.10602547
163	0x3d7594c7	0.05995634
164	0x3dcbd031	0.09951819
165	0x3d51fb9a	0.051265337
166	0x3d00ff4f	0.03149348
167	0xbdb91a9d	-0.09038279
168	0x3d2e0dfd	0.04249381
169	0x3c8a0468	0.016847804
170	0xbaae880e	-0.0013315694
171	0x3d8cf717	0.06883066
172	0x3dd95188	0.10611254
173	0x3bafea0b	0.0053684763
174	0x3d94bcab	0.07262548
175	0x3de86b76	0.113486215
176	0xbd4fe977	-0.05075976
177	0xbde1c437	-0.11023753
178	0x3d859d1a	0.06524105
179	0xbd48fc13	-0.04906852
180	0x3ca75780	0.020427465
181	0xbdcd1eb2	-0.1001562
182	0x3d094be6	0.033519648
183	0xbc863368	-0.016381934
184	0x3dce7fae	0.10082947
185	0x3d6200da	0.055176593
186	0xbd9a389f	-0.07530331
187	0x3d3c589c	0.045982942
188	0x3db6b69a	0.08921547
189	0xbd20b995	-0.039239485
190	0xbd0666ee	-0.032813005
191	0x3da1815d	0.07886002

rnn.bias_hh_l1 f4 [192]
0	0xbd9b45e5	-0.07581691
1	0xb9144acc	-0.00014142244
2	0xbdae9c94	-0.08525959
3	0x3bf00687	0.007324997
4	0x3d84aab2	0.0647787
5	0xbcd45673	-0.025920128
6	0xbdfa78f7	-0.122301035
7	0x3d49af86	0.049239658
8	0x3cdd187d	0.026989216
9	0x3dafab9f	0.08577656
10	0xbd541e70	-0.05178684
11	0x3dc1cc3b	0.09462782
12	0xbdef50ff	-0.11685371
13	0xbd4473cc	-0.047961995
14	0x3dce8b6b	0.100851856
15	0xbdf84526	-0.12122564
16	0x3c4dd7a1	0.012563617
17	0x3cf4430c	0.029817127
18	0xbdf10956	-0.11769359
19	0xbde72496	-0.11286275
20	0x3d093638	0.033498973
21	0xbc08156d	-0.00830589
22	0x3d980d30	0.0742439
23	0xbc9fc204	-0.019501694
24	0x3c0b7286	0.008511191
25	0xbd83967b	-0.06425186
26	0x3d882dd4	0.06649366
27	0xbe042c85	-0.12907608
28	0x3dc476ab	0.095929466
29	0x3d41ab14	0.047282293
30	0xbdec4a79	-0.11537642
31	0xbd21cc58	-0.039501518
32	0x3baa8c2c	0.005204698
33	0xbde47b79	-0.11156363
34	0xbd455840	-0.048179865
35	0xbe05b499	-0.13057174
36	0x3dc2d944	0.095140964
37	0x3cca931c	0.02472835
38	0xbd18e5d7	-0.037328567
39	0x3d8cbbe2	0.06871773
40	0xbcd5153b	-0.0260111
41	0xbcc994ac	-0.024607025
42	0x3cb796f9	0.022410857
43	0xbd1e156f	-0.03859466
44	0x3d33eac6	0.04392507
45	0xbcfa3dea	-0.030547101
46	0x3da174e6	0.07883625
47	0x3d4f3773	0.05058999
48	0xbdae1557	-0.08500164
49	0xbda2080a	-0.079116896
50	0xbcb2e386	-0.021837007
51	0xbdd9f7d9	-0.10642976
52	0xbdb2de4a	-0.087338045
53	0x3d49cf9a	0.04927025
54	0x3d5c5d59	0.05379996
55	0x3d70ad6f	0.05875915
56	0xbdf443a9	-0.11926968
57	0x3d04a777	0.03238627
58	0x3c4186aa	0.011811892
59	0x3cc5b708	0.024135128
60	0xbc6da570	-0.014504775
61	0xbbbe4a7c	-0.005807219
62	0xbda86f13	-0.08224311
63	0xbe0d38a5	-0.1379114
64	0xbdac78d1	-0.084214814
65	0xbe62b672	-0.2213991
66	0x3d651fef	0.055938657
67	0x3dee929a	0.11649056
68	0xbd759b97	-0.059962835
69	0x3d8872f1	0.06662548
70	0x3db117e9	0.086471386
71	0x3d0cdf9d	0.03439294
72	0x3c598394	0.013276
73	0xbdaac623	-0.08338573
74	0x3d0434a7	0.032276776
75	0xbd9a91bc	-0.07547328
76	0xbd679769	-0.05654088
77	0x3e24620f	0.16053031
78	0x3e256f73	0.16155796
79	0xbe06a395	-0.13148339
80	0xbdb196dd	-0.08671353
81	0xbdd5e960	-0.104449034
82	0x3dab407d	0.083619095
83	0xbad808d2	-0.0016482121
84	0xbd01628e	-0.03158813
85	0xbd60d847	-0.05489376
86	0xbd95a22f	-0.07306325
87	0x3d3f62db	0.046725135
88	0xbdc37e05	-0.09545521
89	0xbe23a876	-0.15982231
90	0xbddd8246	-0.10815863
91	0xbd91c29a	-0.071171954
92	0x3e8ee3bf	0.2790813
93	0x3e0d1024	0.13775688
94	0xbd9f1b9c	-0.07768938
95	0xbdfce563	-0.123484395
96	0xbdc6c2a7	-0.09705096
97	0xbe72d7f0	-0.23715186
98	0x3d342e3c	0.043989405
99	0x3db639eb	0.08897766
100	0x3ca94fcd	0.020667935
101	0x3e0d37b7	0.13790785
102	0xbda4a600	-0.080394745
103	0xbe6ca1b1	-0.23108555
104	0x3dd40737	0.103529386
105	0x3d068df4	0.03285022
106	0xbd9bebe8	-0.07613355
107	0xbe01e859	-0.1268629
108	0x3e00e661	0.12587883
109	0xbbc229f5	-0.005925412
110	0xbc5a5038	-0.01332479
111	0xbd35bb29	-0.044367943
112	0x3d0031df	0.03129756
113	0xbd97d6ec	-0.0741404
114	0xbc9c9980	-0.019116163
115	0xbc76b1f2	-0.015057074
116	0xbda9c985	-0.0829039
117	0xbdba35cf	-0.090922944
118	0x3dc7800e	0.09741221
119	0xbdf1e184	-0.11810592
120	0x3b1ddfb7	0.0024089643
121	0x3e45ecba	0.19328585
122	0xbdff296e	-0.12459074
123	0xbda22650	-0.07917464
124	0xbc9bab09	-0.019002454
125	0x3d3ddc87	0.04635289
126	0xbdc5296c	-0.09627041
127	0xbc93bbd0	-0.018033892
128	0xbdc9e6af	-0.098584525
129	0xbd0fd867	-0.035118487
130	0xbdbc0788	-0.09181124
131	0x3c953f75	0.018218735
132	0xbc187c3e	-0.009306965
133	0x3ccc843e	0.024965402
134	0x3c9d3c1f	0.019193707
135	0x3dd1f8d0	0.10252535
136	0x3d8bef6a	0.06832774
137	0x3d8829d5	0.06648604
138	0xbdf427ec	-0.11921677
139	0xbda31ec9	-0.07964856
140	0x3d2c6bc1	0.04209495
141	0x3d4f3312	0.050585814
142	0xbdd762ec	-0.10516915
143	0xbda91f8e	-0.08257972
144	0xbd134a90	-0.03595978
145	0x3917b8c8	0.00014469319
146	0xbd987f78	-0.07446188
147	0xbde8e358	-0.113714874
148	0xbd9733c3	-0.0738292
149	0x3dd1b85e	0.102402434
150	0x3e019018	0.12652624
151	0x3dd9b1a7	0.106295876
152	0xbdc17330	-0.094457984
153	0x3d747f5d	0.059691776
154	0x3dcc7c9e	0.09984706
155	0xbde112f1	-0.10989941
156	0xbd4989c9	-0.049203668
157	0x3dc804a1	0.09766508
158	0xbbf2b36c	-0.0074066427
159	0xbe011d4b	-0.1260883
160	0x3dddc1fc	0.10828015
161	0xbc161060	-0.009159178
162	0x3d7990a2	0.06092895
163	0x3cb7ca39	0.022435294
164	0xbdb3d105	-0.08780102
165	0xbd4df3e1	-0.05028141
166	0x3d10d536	0.035359584
167	0xbdae6f4f	-0.08517324
168	0x3d8a2927	0.067461304
169	0x3db06451	0.08612884
170	0xbddcd24c	-0.107822984
171	0xbd870f68	-0.065947354
172	0x3d7468c8	0.05967024
173	0x3d858791	0.06519998
174	0x3d68e5ff	0.056859966
175	0x3d797abc	0.060908064
176	0xbd69deef	-0.05709737
177	0xbccea709	-0.025226133
178	0x3d017513	0.03160579
179	0x3c9a0838	0.018802747
180	0xbd165f41	-0.036711935
181	0x3da78b97	0.081809215
182	0x3d184c56	0.037182175
183	0x3ca97d92	0.02068976
184	0xbdabac56	-0.0838248
185	0xbca97017	-0.020683331
186	0x3d3e0245	0.046388883
187	0xbd9352e7	-0.07193547
188	0x3c52f7af	0.012876435
189	0xbc968a39	-0.018376457
190	0x3b25d780	0.002530545
191	0x3d8dfa1a	0.06932469

fc.weight f4 [1, 64]
0	0x3d1ddbde	0.03853976
1	0xbd49e6db	-0.049292427
2	0x3d26592e	0.040612392
3	0x3dcfcb27	0.1014617
4	0xbd22e754	-0.039771393
5	0x3daa5742	0.08317424
6	0xbda2b497	-0.07944601
7	0xbd7c5e3e	-0.061613314
8	0x3da2deb6	0.07952635
9	0xbcb36d83	-0.021902805
10	0xbdce4ebe	-0.10073613
11	0x3decf4e2	0.11570145
12	0x3be11fc5	0.0068702423
13	0x3d60a49a	0.054844476
14	0x3d8a9bca	0.06767996
15	0xbd5bb1e5	-0.05363645
16	0xbd8033f3	-0.062599085
17	0xbd9550ac	-0.072907776
18	0xbd88e82c	-0.06684908
19	0x3da5f7c4	0.08103898
20	0xbdfbe035	-0.122986235
21	0x3de50dd9	0.11184282
22	0x3d957232	0.07297172
23	0x3da890b8	0.08230728
24	0xbd909bcb	-0.07060965
25	0x3dcfe30b	0.10150727
26	0xbd3b1cc1	-0.04568172
27	0x3d14ad7d	0.036298264
28	0xbd0cf832	-0.034416385
29	0x39989748	0.00029104413
30	0x3d953d2e	0.0728706
31	0xbd982546	-0.07428984
32	0x3d974223	0.073856615
33	0xbda60938	-0.08107227
34	0xbde3d910	-0.11125386
35	0xbde8685d	-0.11348031
36	0x3cac1a17	0.021008534
37	0x3d07dd30	0.033169925
38	0x3de32a5a	0.11092062
39	0x3ce13c01	0.027494432
40	0x3cd7dc72	0.026350234
41	0x3c253878	0.010084264
42	0xbd6bfe36	-0.05761548
43	0x3d91a3cc	0.0711132
44	0x3dc07f0b	0.093992315
45	0xbdda9701	-0.10673333
46	0x3dbf2743	0.093336605
47	0xbd9cd00e	-0.07656871
48	0x3b133977	0.0022464672
49	0xbddbe08e	-0.1073619
50	0xbd291012	-0.04127509
51	0xbdd5a40d	-0.10431681
52	0xbdcc4ba3	-0.09975364
53	0x3d371d57	0.044705715
54	0xbd391fa6	-0.045196198
55	0xbdcc65c6	-0.09980349
56	0xbdb701f4	-0.089359194
57	0xbd1fd2c2	-0.039019354
58	0xbb368974	-0.0027852925
59	0x3da8dc29	0.08245117
60	0xbdae81ee	-0.08520876
61	0x3d8e5eae	0.069516525
62	0xbb3bbf9c	-0.0028648144
63	0xbdc51be0	-0.09624457
