data/results/gru_baseline_DXY_r15d.pt (torch, 166565 bytes, 9 tensors)

rnn.weight_ih_l0 f4 [192, 15]
00000000: b086 7dba b6b5 103d 8989 c9ba e65d a8bc
00000010: 1e40 d03d 4c4d 37bc ff04 06be 2e30 bd3c
00000020: b321 c8bd 33b1 db3d 7994 d5bd aaad f5bb
00000030: b9f5 a93c 5905 ad3c 97d6 ba3c 31cd 103d
00000040: 725d 29bd a9f5 97bd caef 2cbd 045b 2dbe
00000050: 5be0 143e 9d90 c03a da6b 453d 1505 81bc
00000060: 5c26 0dbe 8647 05bd fe0f b4bd e3a0 9f3d
00000070: f5b3 453d 6dcf 9dbe a0dc 8e3d ef58 243d
00000080: 6bf5 a0bc da42 183b e6af 393a bba3 dbbd
00000090: b083 cfbd 46b7 7c3c f37c 043c 7ba4 213d
000000a0: c897 0dbe 1049 1dbd 13a1 f7bd 68d0 413c
000000b0: 0208 0ebd 67dc 553d 0aef 82bd 5adc b23d
000000c0: aba4 3d3d c28b b0bc 58b2 213c f689 5bbd
000000d0: b376 163d 98f2 d7bd 49d8 24be 9fc0 16bd
000000e0: 3dbd ce3b a21c bc3d 6bad b43d 4345 3bbe
000000f0: ffce f4bd 0b85 02be e225 5fbb d2a4 0bbd
00000100: 464a d03c 941e 803d 30d7 bbbd 81fa cabb
00000110: 3a62 a53d 5db3 933d e597 563d 783a cd3d
00000120: c2ef 523d 39b5 113c 5ad6 c83d 298a 953d
00000130: 6624 17bd f9ba ebbd 3416 023e 21a3 6bbc
00000140: 7f47 013e 23af 20bc 1ccc e83c d4c3 fcbd
00000150: 1cc8 02be 8c71 22bd 6fba b63d bc0a 8bbc
00000160: 8409 ea3d 494e 2ebe d094 a23d dbac 003e
00000170: 6ba7 babc 492c 21bd eeec b53d 8e6c 023d
00000180: 92ff bdbd 8bc2 41bd 0568 2e3d 1ac0 873e
00000190: 8d9c b53d 0914 c63b ada8 373d cf5f b13d
000001a0: 44d8 de3d 5f3c 013e 7c90 b2bd b180 c0bd
000001b0: a602 a6bb 4830 f53d a421 4dbd e56d da3d
000001c0: 97cf e9bb f050 f5bd 4073 f939 2b44 ed3c
000001d0: 798b 9d3c 3e6f 123d 64ae 3e3d 28c8 f53d
000001e0: ac26 c93c 86b0 45bd 772d 983d 85c2 c2bc
000001f0: d742 cabd f299 ffbd d645 963d db0a 5b3d
00000200: 4c2a bcbd 95b0 173e 0760 adbd f742 983d
00000210: 8379 9f3c 0d1d cc3b cc7e d43d 2528 d8bd
00000220: 5337 f2bc fbaf 8c3d 8296 a7bd a2a4 2a3e
00000230: 89e7 1fbd dd4d b1bd 10f4 e1bb f4bc bebc
00000240: b4a3 313e 1200 683a 92f7 24bc d2ce 2dbd
00000250: 149b bdbd 4308 5e3e 02b4 7dbd 6667 5fbd
00000260: d0f3 533d 0ba0 b13d 18c2 eebd c05d 21bd
00000270: 3a60 603c 944b febd 7f19 553d ccc6 f7bd
00000280: 19ae 97bd 8e43 e83d 0281 a5bd 32c9 033e
00000290: b1b7 aebe 0894 1d3e 73ae 17bd b473 283c
000002a0: 0c62 5d3e b838 36be 224c 4e3c c5be 14bd
000002b0: 8dae cebd c472 80bc 77f9 68bd b6a3 4bbe
000002c0: 7b4e 4cbc 56af 23be 710e 03be 064c 42bd
000002d0: 39a1 a9bb 874f 133d faf8 303c 0d5b d53d
000002e0: c9c2 90bd 1de7 393d 3963 00be 0733 c53c
000002f0: d4da 8fbd 66ca 39be f6c2 e93d 49f6 13bd
00000300: 5dd5 523c ea29 923c 026a 97be 0c03 00bd
00000310: 249e 3b3c 4b5b dbbd 35c7 5dbd 44ec 09be
00000320: 51ff a9bd d60f af3d 6bd7 c5bc 8ab6 99bd
00000330: 3211 adbd cfd5 fabc 9c20 bb3d a987 553d
00000340: 3eb3 7c3d 3ff1 85be ef46 0cbd 369d 5f3c
00000350: 220a e63d 931d b5bd ea7f 25bb 29a3 c03c
00000360: 4843 b33d aee0 d6bb 117c 103d 6ca2 00be
00000370: 9706 793d 390a 01bc 1fe5 d63d d8ac 01bd
00000380: 6f6c 52bd ae13 ca3d 3602 b2bc 5a09 943d
00000390: 6be7 c43d fa2a 94bd 201b d0bd 5021 af3d
000003a0: 80d5 193e 2aae 9abd f245 303e 3e04 c93d
000003b0: 7c5a 223d 57f5 acbd a561 193e f339 bb3d
000003c0: dbb1 63bd a91c c23c 01f7 6a3d 2bee c13d
000003d0: d27f 02bd 09c4 be3c f90a b8bd ddeb dabb
000003e0: 295d 443c 898c ed3d 666a 473c 3b21 e4bd
000003f0: ca72 07be 9e15 a93d 91dd 323d 58bb de3d
-0.0009671254 0.035329543 -0.0015376072 -0.020552587 0.101684794 -0.011187863 -0.13087843 0.023094263
-0.097720526 0.107271574 -0.104287095 -0.007497509 0.020747053 0.021120714 0.022807403 0.035351936
-0.041348882 -0.07419903 -0.04222087 -0.16929251 0.1453871 0.0014691536 0.04819856 -0.015749494
-0.13784164 -0.032538913 -0.08792113 0.077943586 0.048267324 -0.30822316 0.06975675 0.040123876
-0.019648274 0.0023233206 0.0007083401 -0.107245885 -0.10132539 0.015424555 0.008086431 0.0394635
-0.13827431 -0.038399756 -0.12091269 0.011829473 -0.034675606 0.052212145 -0.06393249 0.08733435
0.046299618 -0.021551017 0.009869181 -0.053598367 0.036734294 -0.10544318 -0.16098131 -0.03680479
0.00630918 0.09185149 0.08822139 -0.1828814 -0.11953544 -0.12746064 -0.003404968 -0.03409273
0.025426041 0.06255832 -0.09171903 -0.006194413 0.08075376 0.07211945 0.05239095 0.10020918
0.051498182 0.0088933045 0.09806509 0.073017426 -0.036899947 -0.115102716 0.12703782 -0.014382155
0.1262493 -0.009807381 0.02841764 -0.12342039 -0.12771648 -0.039659068 0.08922278 -0.016972892
0.11427596 -0.17022051 0.0793854 0.12565939 -0.02278491 -0.039348874 0.088830814 0.031841807
-0.09277262 -0.04730467 0.04257967 0.2651375 0.0886775 0.006044869 0.044838596 0.08660852
0.10881093 0.12620686 -0.087189645 -0.09399546 -0.0050662337 0.119720995 -0.05008091 0.10665492
-0.0071353423 -0.11978328 0.0004757885 0.02896317 0.019231545 0.03575062 0.04655303 0.120010674
0.024554573 -0.04826405 0.07430547 -0.023774395 -0.0987603 -0.124805346 0.07337539 0.05347715
-0.09187755 0.14813454 -0.084655814 0.074346475 0.019467121 0.006229049 0.10375747 -0.10554532
-0.029567396 0.06869503 -0.08183004 0.16664365 -0.03903917 -0.08657429 -0.0068955496 -0.02328346
0.17347604 0.0008850108 -0.010068791 -0.042433567 -0.092580944 0.21682839 -0.061939247 -0.054541968
0.05174619 0.08673104 -0.11658114 -0.039396048 0.013694817 -0.12416759 0.052026268 -0.12098464
-0.07406253 0.1134101 -0.08081247 0.12869719 -0.3412452 0.153885 -0.037031602 0.010281492
0.21619433 -0.17795074 0.012591394 -0.036314745 -0.10091887 -0.015679725 -0.056878533 -0.1988667
-0.012469883 -0.15984854 -0.12798478 -0.047435783 -0.00517669 0.035964515 0.010801548 0.10417757
-0.07068402 0.045386422 -0.1253785 0.024072183 -0.0702416 -0.18143615 0.11414139 -0.036123548
0.012868253 0.017842252 -0.29573065 -0.031252906 0.011451278 -0.10710772 -0.054145057 -0.13469034
-0.08300651 0.08547942 -0.02415057 -0.0750552 -0.08450545 -0.03061953 0.09137079 0.05213133
0.061694376 -0.2616062 -0.034247335 0.013648322 0.112324014 -0.088435315 -0.0025253245 0.0235153
0.08753067 -0.0065575456 0.03527457 -0.12561959 0.0607973 -0.007875972 0.1049292 -0.031658977
-0.05137294 0.09867035 -0.02172957 0.07228346 0.09614452 -0.0723476 -0.10161424 0.08551276
0.1502285 -0.075527504 0.17214182 0.09815262 0.039637074 -0.08445232 0.14978655 0.09141912
-0.055589538 0.023695307 0.057364468 0.09469255 -0.03186018 0.023286836 -0.08986468 -0.006680949
0.011985102 0.115990706 0.012171363 -0.11139151 -0.13227382 0.08256076 0.043668333 0.10875577

rnn.weight_hh_l0 f4 [192, 64]
00000000: c7d2 353d 1a6a 083d dc83 efbc 927d 8a3d
00000010: 4228 4fbc 5a96 2bbd b06f 8fbd 635c 49bd
00000020: 4df4 c83d f73b 2bbd 3906 6cbc 1550 82bd
00000030: 5f41 5cbc dcc8 943d db3e 523d e004 61bd
00000040: 8747 1bbd 71c1 29bd 316b d33d 9a58 be3c
00000050: d207 0aba 7a5c b7bd 2259 933c 3293 82bb
00000060: da5a d73b fca8 f83d 1cfa afbd 77b0 843d
00000070: 3064 ccbd f8e9 b8bd e837 4ebd 65ab 82bd
00000080: a8eb 9a3d 656a 97bd f035 d2bb c3ff 143d
00000090: f38e cbbd 1743 3b3d c796 263d f476 b43d
000000a0: 1b2b 023c 46a0 343d 5ac0 b9bd aad1 9f3c
000000b0: 3352 ee3d 82c4 af3d fbb0 de3d abc1 ea3d
000000c0: 4cb8 a23c 2965 a9bd b94d 1ebc 18f4 aebd
000000d0: 9995 d93d 995b 86bc 8e72 11bd 2ee4 e7bd
000000e0: 536d f33b 5a58 8ebd f564 aebd ff23 063c
000000f0: 5e88 e3bd 2bc8 70bc a0c2 bdbd 4639 453d
00000100: 2d89 f73d 7279 853d f78c ad3d a178 95bd
00000110: 0fd4 dc3c 5b41 be3b f83f be3d bc11 2f3d
00000120: c747 d139 52cf eb3d d17b f43d 9c8b f43c
00000130: 5e72 91bc c0d3 29bd e549 dcbb 378c e43d
00000140: 2c49 7bbc 710e d23d f4dd 9fbd 4637 123e
00000150: 952b ccbc 6555 c23d 8ded 473d d167 44bd
00000160: 2f79 863d 5c05 04bd 61bb 6f3b cd46 b33d
00000170: e26b f9bd bc2b 3f3c 828d 8d3b bb30 19bd
00000180: a76e d63d 618b 68bc 00d3 9e3d 0f28 36bd
00000190: 3c40 d23d cbfb 5e3c 9692 06bd 6c6f 043d
000001a0: 9cd8 b1bc 4baf 4cbd 85ff f4bd 86fe 1ebe
000001b0: b0a2 b73d d0b0 84bd 8ae7 8c3d bacb f7bd
000001c0: 1ab1 8b3d c4a6 a3bb 6a20 d63a 5b77 aabd
000001d0: 8877 323d 50e1 08bd f98b cabd f800 a73d
000001e0: 8b56 03bd a3c9 1b3e 14ae cd3b 9d5e e83d
000001f0: 9d85 7c3d 3586 b1bd 6899 653a 7bdc 9f3d
00000200: fc2c 1f3b d425 0a3d b966 77bd 063d 78bc
00000210: ce7f be3d e42e 83bd c147 b13d 9c15 7cbb
00000220: d3c3 0ebe a2fd 5cbd 317b 10be f0a4 48bd
00000230: f78d a2bd fc18 e7bc e1d7 81bd 931a e53c
00000240: 388a bebc 0c66 d2bd 28a9 093e f9cd ac3d
00000250: 5dca ab3c 6ada c4bd 3ca5 dcbd 9903 8fbd
00000260: 4755 c63d d9a8 a93d 0388 ac3c ee83 333d
00000270: 7c8b 8cbd f855 5dbd 507e a5bd 6f2d f2bd
00000280: 6fdd cf3d 8f20 7e3d ba56 323d 7585 2bbd
00000290: 4868 99bc e709 ce3d 1f4e 1d3d ad9b 43bd
000002a0: 435d 2dbc d5e9 68bd 3d8f b3bd 5e03 b73d
000002b0: 5f42 75bd b07e fabc 29f3 bc3c fd6c cd3d
000002c0: fc3e 2ebd 2255 a33c 2893 333d 8c91 cfbd
000002d0: 5c03 423d 1345 98bd dc75 823d 8020 86bd
000002e0: ce4c 923d 6ab4 e6bd 4aed 4f3d 1f71 693c
000002f0: f0ef a3bd 90fa 89bd 0753 1d3d 5936 4ebd
00000300: 02b8 a6bd 8963 01be f3f6 f33d 9e06 a0bb
00000310: a8c2 a23b 764b f43d cc17 d83d 5333 ef3d
00000320: f840 e0bd 5da8 ddbc b980 9f3d 6f3e 59bd
00000330: 226c 07bd 109a ec3d 46c2 023e 0033 86bd
00000340: d3a7 883a ac70 06be 80e8 f13d 9c72 fe3c
00000350: 3348 9e3d 9df9 cabc bdd0 02be ddd3 953d
00000360: 4596 1f3d f420 8c3d fcd9 f93d 7ee5 88bd
00000370: 1a41 b1bc 8ac5 393d 536b 6b3c 6d15 c83d
00000380: 981f be3c f945 afbd 9512 993b abe2 08bd
00000390: d9c9 9a3d 5c98 b53d f9a0 153d 1427 45bd
000003a0: 45ef eb3d 8289 19bd 141d 5dbd 9eea b83d
000003b0: 46bd b33d 62c2 c1bd 38fe 85bb 093f f7bd
000003c0: 9493 e23d edaf 23bd a6d6 c73d 48ac dbbd
000003d0: 80eb ab3c 536a 183d 4dc8 4fbc ede4 67bd
000003e0: 4114 61bb 3020 cb3d c911 67bd fcc7 eebd
000003f0: b304 e93c c7ca 5dbd 91f6 e53d f348 3c3d
0.044390466 0.03330431 -0.02923768 0.06762232 -0.012643876 -0.041891433 -0.070037246 -0.049160372
0.09812222 -0.041805234 -0.0144057805 -0.06362931 -0.01344332 0.072648734 0.051329475 -0.05493629
-0.03791001 -0.041444246 0.103231795 0.023235608 -0.00052654475 -0.089531854 0.017986838 -0.003984832
0.0065721096 0.12141606 -0.085926265 0.064789705 -0.09980047 -0.09029001 -0.050346285 -0.06380347
0.07564479 -0.0739334 -0.0064151213 0.036376726 -0.09939375 0.04571828 0.040671136 0.08811751
0.007944847 0.04409816 -0.09069891 0.019509155 0.11636772 0.08582403 0.108736 0.114627205
0.01986327 -0.08271248 -0.009662085 -0.08542651 0.106242366 -0.016401099 -0.03550964 -0.11322819
0.007428804 -0.069504455 -0.0851535 0.008187293 -0.11109994 -0.014696161 -0.092656374 0.048150323
0.12086711 0.065173045 0.084741525 -0.07298399 0.026956586 0.005806131 0.09289545 0.042741522
0.00039917065 0.115141526 0.119376786 0.029851727 -0.01775473 -0.041461706 -0.006722676 0.11159556
-0.01533727 0.10256661 -0.07806006 0.14278898 -0.024923125 0.09488944 0.04881053 -0.04795057
0.06566083 -0.032231674 0.0036580192 0.087537386 -0.1217878 0.011668142 0.0043198476 -0.03739999
0.10470324 -0.014193387 0.07755089 -0.044471797 0.10266158 0.013609837 -0.03285464 0.032332823
-0.021709733 -0.04997186 -0.11962799 -0.1552678 0.08966577 -0.06479037 0.068801 -0.12099405
0.06820889 -0.0049942452 0.0016336564 -0.083235465 0.043571025 -0.033418 -0.09889979 0.08154482
-0.032064956 0.15213637 0.0062768552 0.11346171 0.06165086 -0.08668176 0.0008758516 0.07805725
0.0024288287 0.033727482 -0.0604007 -0.015151268 0.093017206 -0.06405428 0.08656264 -0.0038465029
-0.13941889 -0.05395282 -0.14109494 -0.04898542 -0.07937234 -0.028210156 -0.06340004 0.027966773
-0.023259267 -0.1027337 0.13443434 0.08437724 0.020970518 -0.09611972 -0.107737035 -0.06983108
0.09684234 0.08284158 0.02106095 0.04382699 -0.06862542 -0.054037064 -0.08080733 -0.11825072
0.10149657 0.06204277 0.04353974 -0.04187532 -0.018726483 0.100604825 0.03840458 -0.047755886
-0.010581317 -0.056863625 -0.08767555 0.08936189 -0.05987775 -0.030577987 0.023065167 0.100305535
-0.042540535 0.019938055 0.04384151 -0.10135183 0.047366485 -0.0743505 0.06370136 -0.06549168
0.071435556 -0.1126488 0.050763406 0.014248162 -0.08004749 -0.06737244 0.03840926 -0.0503448
-0.081405655 -0.12635626 0.11912336 -0.0048836013 0.0049670525 0.119284555 0.10551414 0.11679711
-0.10949892 -0.02705782 0.07788224 -0.053038057 -0.033062108 0.115528226 0.12769422 -0.06552696
0.0010425992 -0.13128918 0.11811924 0.03106051 0.07728615 -0.024777228 -0.1277494 0.073158
0.038961668 0.06842223 0.1219978 -0.06684397 -0.021637488 0.045354404 0.01436885 0.09769712
0.023208424 -0.08558268 0.0046714046 -0.033419292 0.07558031 0.08866951 0.03653047 -0.04813297
0.115202464 -0.037484653 -0.05398281 0.09029125 0.087763354 -0.09460904 -0.004089143 -0.1207257
0.110633045 -0.039962698 0.09757738 -0.107262194 0.020986319 0.037210774 -0.012682033 -0.056614805
-0.0034344348 0.09918249 -0.056413446 -0.11659238 0.028444624 -0.05414846 0.112286694 0.045968007

rnn.bias_ih_l0 f4 [192]
00000000: 85dc b3bb 7768 07bd 3d3d ebbd d75a 38bd
00000010: 4db7 d9bd 9dfc 6a3c 8106 a9bc ff01 cdbc
00000020: bd6b 92bd 2771 153d eaa5 2d3d 71ac bbbb
00000030: 28fc 543d 4618 e73d df46 553d 3b9b 09be
00000040: 7c72 e23d 9642 0f3d d39e be3d 3084 863d
00000050: 6080 0fbd b39a eabd 6797 07bd aa96 ca3d
00000060: 0850 df3d 7d54 b23d f9f8 3abd 3ef3 bfbd
00000070: fa88 563d c70b 27bc c666 9c3d b1e3 9abd
00000080: cce7 92bd fcd3 cebd 7304 8dbd 2da2 a83d
00000090: a12c 873d 0da6 dabd 18cb 093d 941b c13d
000000a0: bcad c73d 567c cdbd 017e e73d 4ffd ca3d
000000b0: add7 b9bd b16e b23d 25a1 ed3d 16b7 e73d
000000c0: 32a1 913d 972c febd 819f 7c3c 4052 f9bd
000000d0: 8b28 473d 9af6 803d c084 f2bc d34a 9c3d
000000e0: 0244 113d e1c2 5ebd 9b9d ed3d aec6 78bd
000000f0: 01e0 163c 5f29 ebbd 0244 523d 6391 ee3d
00000100: 4795 e43c a975 7abd 6679 88bd ba50 e03d
00000110: d4f2 38be dfa5 16be 66f6 ed3c 2d26 73bd
00000120: 73c2 d83d d0d7 41be d66b 0c3d 32be 503d
00000130: 7570 fcbd 6a57 f8bd c553 413d 6aa1 963d
00000140: 22f3 b3bd 0cf6 a7bd 5849 f6bd 22b5 53be
00000150: 971b 163e 17af b3bd c750 f03d 83bb b4be
00000160: f62a 64bd e689 a7bc 9801 04be d0af d3bd
00000170: 8176 f63d 8ca8 23be f6b6 a4bd e682 293d
00000180: eb6c bdbc 58d1 6dbe a22a 6d3c 1e8d 7ebd
00000190: 1a47 ec3d f559 fe3b 37b5 e53d 876a 743d
000001a0: b8c0 07be 1f14 393d 0bd5 76bc 2c03 dd3b
000001b0: bb1c 153d ee90 1cbe 4f5a c5bb 2a1f be3d
000001c0: c80d a93d 2adf a6bd 7089 91bc 71dd 00bd
000001d0: 427c c23d 67ad c13d 09ef b43a 1427 f83d
000001e0: bc12 4e3c ccda 70bd 3996 3bbe 9151 a6bd
000001f0: e5d8 13bd dc03 e13d 35d4 a0be c1d7 65be
00000200: 4951 3a3d 9706 783c 5e57 cdbc 6be6 babd
00000210: 45cc 9a3d 7850 733c 71a6 b6bd fbf8 e03d
00000220: 52e1 ef3c bee1 23bc 45c8 5a3d 362b 37bb
00000230: bbe4 f53c 8371 a13d 051a 34bd 1c87 513d
00000240: d897 0ebc 7a7e 623d 6921 08bd 11bb 55bd
00000250: 8e5e d9bd 95c7 aebd 6470 893c f663 a53a
00000260: 8193 ec3c 63a1 f4bd 2652 3a3c fd25 c2bd
00000270: 3c28 5cbd 6d07 d5b9 426c ac3d b529 a83d
00000280: c8e6 803b 2f6c d33d 284b 5ebd ea2d d0bd
00000290: 23a3 15bd c02b a9bc 14a6 f73d ce83 e4bd
000002a0: af15 9bbd 9c2b cb3d 558f 63bd 5b39 f9bc
000002b0: cbd1 84bd 5a47 03bd 2d9e 203c 53a8 d73d
000002c0: e584 883d 85c4 5c3d 0cb9 9cbd 4757 a53d
000002d0: 4314 15bd e4f7 863d 9942 5f3c 9a2a e3bd
000002e0: fc26 afbd a53e 5e3d 87d5 a63b 78d7 3dbd
000002f0: 2da2 a2bd 4495 bf3d e1b4 cebc 47bb 6e3c
-0.0054889345 -0.03305861 -0.1148629 -0.045008507 -0.10630665 0.014342454 -0.020632984 -0.025025366
-0.07149456 0.036484864 0.042394556 -0.0057273437 0.051998287 0.11283927 0.05206954 -0.13438122
0.110569924 0.03497561 0.09307637 0.065681815 -0.035034537 -0.11455288 -0.033103373 0.09892018
0.109039366 0.08707521 -0.045647595 -0.09372567 0.052376725 -0.010195679 0.0763679 -0.0756296
-0.07173118 -0.100990266 -0.06885614 0.082340576 0.06600309 -0.10676203 0.03364095 0.09429088
0.09749934 -0.10033481 0.1130333 0.09911596 -0.0907434 0.08712519 0.116030015 0.11314218
0.07110824 -0.124108486 0.015418888 -0.12173891 0.04862265 0.062970355 -0.029604316 0.07631459
0.035465248 -0.05438507 0.116023265 -0.06073635 0.00920868 -0.114825 0.05133439 0.11648824
0.027903212 -0.061147366 -0.0666378 0.10952897 -0.18061382 -0.14711712 0.029048156 -0.05936258
0.10583963 -0.18929982 0.034282528 0.050962634 -0.12326137 -0.12126048 0.04719903 0.07355006
-0.08786608 -0.082012266 -0.12025708 -0.20674565 0.14658962 -0.0877363 0.11734157 -0.3529931
-0.055705033 -0.020451497 -0.12891233 -0.10336268 0.120343216 -0.15982264 -0.080427095 0.0413846
-0.023123225 -0.2322439 0.0144754965 -0.0621463 0.11536999 0.0077621886 0.112162046 0.059671905
-0.1325711 0.045185205 -0.015065442 0.006744763 0.036404353 -0.15289661 -0.0060227285 0.09283288
0.08254582 -0.08148034 -0.01776573 -0.031461183 0.094963565 0.09456902 0.0013804148 0.121168286
0.012577709 -0.05880241 -0.18319024 -0.08121026 -0.03609552 0.10987064 -0.314119 -0.22445585
0.045487676 0.01513829 -0.025066074 -0.0912598 0.075584926 0.014850728 -0.08918465 0.10984989
0.029282246 -0.010002552 0.05341365 -0.002794934 0.030016294 0.07882979 -0.043970127 0.05115424
-0.008703195 0.0552964 -0.033234987 -0.052180354 -0.10613738 -0.08534161 0.016777225 0.0012618292
0.02887893 -0.119448446 0.011372125 -0.09479902 -0.053749308 -0.00040632059 0.08419086 0.0821108
0.0039337613 0.10323369 -0.054270893 -0.101650074 -0.036532532 -0.020650744 0.12092224 -0.11157952
-0.07572495 0.09920427 -0.055556614 -0.030422857 -0.06485327 -0.032050468 0.009803337 0.10530152
0.066659726 0.053898353 -0.076524824 0.080732875 -0.036396276 0.0659025 0.013626718 -0.1109211
-0.085523576 0.05425896 0.0050913724 -0.046348065 -0.07941089 0.09354642 -0.025232734 0.014571018

rnn.bias_hh_l0 f4 [192]
00000000: 422f d93c 13c3 dd3c 2375 d7bd 5a84 943d
00000010: fbe1 22bd ddf1 e1bd 910c a1bc cef2 323c
00000020: 495b a4bd 53f6 2f3d ce46 36bd 35dc 333d
00000030: 3606 02bd faea e9bc 035b 76bc 3512 cf3d
00000040: 6746 9b3c 16dd 28bd 5fc8 993d c8a1 4bbd
00000050: f066 46bd 1328 febd 15b4 a6bc bf93 79bc
00000060: 3170 80bd d97a 00be 8869 b13d 0532 463d
00000070: 7154 1fbd 4f22 da3d dc10 f8bd 924a 7e3d
00000080: fe38 d1bd 8e35 b13d 7d96 0dbc 4b6f 8a3d
00000090: 17dc a43d 7437 71bd 619a 9ebd 5091 043e
000000a0: 6bbf c9bb c42a 8d3d 7a4e 4e3d a538 a3bd
000000b0: 5955 e23d b3b0 e03d b773 e53c 0a1f 8fbd
000000c0: 5872 c3bd d46e 6a3d b2bc c3bd 64a1 b53d
000000d0: c1d0 cb3d ccc0 793d 15b4 aabd 738f a9bd
000000e0: 3231 a5bc 8cde dcbd 6b8f e23d 87a6 c13a
000000f0: f3f2 a4bd 2f17 c43d 7d81 fe3d 3736 8c3d
00000100: 5026 0abb ce3f 54be cbc6 6ebe f6e7 93bd
00000110: bdee 82be bf95 1ebe 6827 e83c 84be a83d
00000120: 35cd fe3d a257 1fbe 4312 e2bd cd80 f43b
00000130: b3a7 22be 7e88 3d3d 3546 db3d c273 a2bd
00000140: 4015 fa3d 7d10 e7bc 3090 003e 7442 43be
00000150: 61bd 8c3d 4e80 493c f553 b33d cbde fdbe
00000160: 6d47 6cbd 6a0d b63c 38a3 933d 3f00 e23b
00000170: f28e 1fbd cfca ce3b 61c3 d9bc 3c33 d7bd
00000180: ff6e 67be 775e 9bbe de07 b9bc 1834 973d
00000190: 66dc d13d faaf 9bbc a58a 6bbd 61bb 40bd
000001a0: 9880 92bc fad8 ab3d 4c72 ee3d cba6 45be
000001b0: 81a1 05be c9cf 1b3d b2b9 3b3d 2f3b 80bd
000001c0: 48b4 083d 41dc 703d 111e a9bd e112 8fbd
000001d0: 4e2c 193d 549e b4bc cd16 a3bd 4cc9 f73d
000001e0: f9aa 0dbe 74f4 fbbb 0330 8a3c 8ac3 d93c
000001f0: 7d35 7dbd f4af e2bd 2e0a d2be 604c 88be
00000200: 8674 713d b6ce 923c 61e4 97bd d4ae 7bbd
00000210: 06d9 9bbd 422b dcbd 8164 323d 338f 943d
00000220: 2144 2cbd bd40 b83d 3388 afbd 1dab 29bd
00000230: 475c 8e3d b5b5 9abc fd2d acbd d272 d73d
00000240: bc05 c13d ab7b 213c ad7b f03d 7c74 ae3d
00000250: 6620 f83d d565 6ebb fea8 bf3d 92c8 acbd
00000260: 8558 783d f7cd 803d 3094 c3bd e393 8abd
00000270: 8f8a 8cbd 6439 8ebd 49eb 993d 4086 bcbd
00000280: 685b c8bd fb62 91bd 5fcc a4bd 0877 da3d
00000290: 64b9 e0bd 5c00 b93d 2196 d0bd f3b4 373d
000002a0: f029 9fbc 76e3 cb3d 40a4 cd3d 07e1 5a3d
000002b0: 01ef 9b3d 66b4 7b3d 0854 ab3c abdc debd
000002c0: 14ac 983a 6204 d93d 9942 be3d 2c65 05bd
000002d0: 3c01 16bd 491f 953c 58bc ddbd 5d8d eebd
000002e0: a184 923d 92cc bebd df2c fabc adcc 2d3d
000002f0: 8fd8 5a3d 4f56 a43d 8edc 39bc 12db bbbd
0.026511792 0.027070558 -0.10520389 0.072518066 -0.039766293 -0.1103246 -0.019659312 0.010922147
-0.08025224 0.042959522 -0.04450112 0.043911178 -0.031744204 -0.028554428 -0.015036347 0.101108946
0.018954469 -0.04122647 0.07508921 -0.049714833 -0.048438013 -0.12409987 -0.020349542 -0.015232979
-0.06271399 -0.12546863 0.086627066 0.048387546 -0.03889889 0.10651075 -0.12112591 0.062082835
-0.102159485 0.08652793 -0.008641836 0.06759509 0.08049791 -0.058890775 -0.07744289 0.12946057
-0.006156852 0.068929225 0.05036781 -0.079697885 0.11051435 0.10971203 0.028009279 -0.06988342
-0.09543294 0.0572346 -0.09557475 0.088686734 0.09951926 0.06097488 -0.08335129 -0.08279314
-0.02016506 -0.10784635 0.11062511 0.001477436 -0.080541514 0.095747344 0.12427042 0.06846278
-0.0021079965 -0.20727465 -0.23318021 -0.072219774 -0.25572768 -0.15486811 0.028339103 0.08239463
0.12441484 -0.15560773 -0.110386394 0.0074616433 -0.15884285 0.046272747 0.1070675 -0.07932235
0.12211084 -0.028206104 0.12555003 -0.19068319 0.06872059 0.012298657 0.08756248 -0.4958404
-0.057685304 0.022223193 0.07208866 0.006897002 -0.038954683 0.0063107978 -0.026582422 -0.10507819
-0.22600935 -0.30345508 -0.02258676 0.07382983 0.10247116 -0.01900481 -0.05750527 -0.0470537
-0.017883584 0.08390994 0.11642894 -0.19301908 -0.1304989 0.038039956 0.04583139 -0.062612884
0.033375055 0.0588038 -0.08257688 -0.06986023 0.037395768 -0.022048153 -0.07963333 0.12098941
-0.13834752 -0.007689053 0.016868597 0.026582498 -0.06181859 -0.11068717 -0.4102339 -0.2662077
0.058949016 0.017920833 -0.07416607 -0.061446026 -0.07609753 -0.10750438 0.04355288 0.072538756
-0.04205716 0.08996723 -0.085709 -0.041422952 0.06951194 -0.018885473 -0.08407209 0.10519947
0.09424922 0.009856145 0.11742339 0.085183114 0.121155545 -0.0036376615 0.093584046 -0.08436693
0.060631294 0.06289285 -0.09549749 -0.067664884 -0.068623655 -0.0694454 0.0751558 -0.09205294
-0.09783059 -0.07098957 -0.08046793 0.10667235 -0.109728605 0.09033272 -0.10184885 0.0448503
-0.019429177 0.09955494 0.10041094 0.05343726 0.07613946 0.06145134 0.020914093 -0.10881933
0.0011647963 0.10596539 0.09290046 -0.03256719 -0.03662227 0.018203394 -0.10826939 -0.11648057
0.07154203 -0.093163624 -0.030538974 0.042431522 0.053429183 0.080242746 -0.011344088 -0.09172644

rnn.weight_ih_l1 f4 [192, 64]
00000000: feee f0bd 7937 adbd 7e26 9f3d d54d d0bd
00000010: 3530 b93d 29a1 f63c e88e 1e3d c3a5 72bd
00000020: 0731 973b eb7a 283d ad40 10bd d264 53bd
00000030: ec64 b43d 9087 7d3c 0a79 c9bd c64f f1bd
00000040: 2f98 ae3d 41a5 bfbc fe89 8cbc 66cd 03bd
00000050: d02b d23d 00bf ecbd b570 96bd e636 1d3e
00000060: b32b 013e 1c9b c83b 99d3 87bd 90a4 483d
00000070: 8123 3a3c 12ee 9bbd 8722 2b3c 9dac f43c
00000080: c733 283d 2ec1 4dbd 9277 c73b 0fd3 24bd
00000090: d8aa 913c 8d90 cfbd 5fb7 8b3c 3af5 1b3c
000000a0: 121a 84bd 0fbf 33bd a834 f03d 4433 01be
000000b0: 25c3 af3c 98d6 f6bd d98c d33d 64cd b63d
000000c0: 23a1 f23a 86a8 3a3d 341e e2bd c682 e33d
000000d0: dc8d 823d 0659 1fbd b522 61bd 7412 f13d
000000e0: cd85 24bd b95b fdbd df01 ebbd cc36 d2bc
000000f0: 2625 17bc 93e4 d6bd 6a40 a1bc 3350 c23d
00000100: 4b15 693d 3d4f f5bd c600 7a3d 829e 92bc
00000110: dcfe 05bd e8f4 93bd ed57 843d 835d a8bd
00000120: 9df9 2b3d 3f9d 583d 0960 ee3c 7d4e f03c
00000130: a635 cd3d cf2d e03d 0d81 d7bd f114 bd3d
00000140: 87ac 97bd 0ae8 04be a146 b8bb da57 383b
00000150: a564 9f3d a36d bdbc b628 633d 52b9 16bb
00000160: f5f3 eebd 1072 b23d 89c1 b2bd f38e cebd
00000170: 63a5 e53d bcab 86ba 2b2d cabc d496 8cbd
00000180: b716 df3c 7326 debd ed91 6f3d 0400 903d
00000190: f122 a63d cff0 cb3b 6a8a e33d 92d8 3e3b
000001a0: a2ba 17bc 4bb9 c83c a001 10be 4131 46bd
000001b0: 6c1c ca3c 3500 c4bc dea8 a9bd 55fd 9fbd
000001c0: 7dfa 813d b138 12bd fb7d 253d ff8f 40bb
000001d0: 1b7b be3d f51d e1bd 5c8a 9d3d 1c5b 903c
000001e0: 2093 a83d 6749 28bd 11dd cfbd dd5d 843d
000001f0: 4fc7 803d 7592 8e3d d16c 1ebd 442b 0c3d
00000200: afcf 953d 25ea 96bd d81e 8d3d 81c8 a8bd
00000210: 5bb3 05be 300d bfbd 6571 883d 1253 913d
00000220: f218 d93d 9e1a 21bd 8c49 07bd 4e58 193d
00000230: 59c8 b53b d74d 9f3d 5678 033e 5a49 0c3b
00000240: 02e3 ca3c cd8e 5bbd 9be0 8fbc 913a 51bc
00000250: 23af 28bc c75c b8bd 28f3 cb3d 72ff dabd
00000260: d626 53bd 61c6 9ebd 71b6 82bd ea01 8d3b
00000270: 77f3 c0bc e5f3 dc3d 34aa dabc 2d5e e7bd
00000280: 56c2 1e3b 724b fb3d e17b 133d de3e 533d
00000290: 406b 01bd 24e7 6abd 19f2 403d c906 8dbd
000002a0: 5f0d d7bd ea79 c1bc 874d 153d 27f6 5e3c
000002b0: d79f 5b3c de06 d63d 8b3c 78bc 3f91 5f3d
000002c0: 6895 0b3d 698b ba3d 6d8c 0ebd 9e1d e13d
000002d0: a6f8 4fbd 125b a2bd 3841 0ebe 1c4d de3d
000002e0: 9b0e e63d 0584 023e 0b3a 43bd d428 8bbd
000002f0: ed97 3dbd d951 79bd f0e8 03ba 392e fabd
00000300: 5dd0 42bc 978a b93c 5b22 733d d9e4 a03b
00000310: aaf4 753d 38bf 273c 1cbb 95bd 5f58 f2bd
00000320: eb04 9fbd c3ac a9bd b9e5 0dbd 90e3 173d
00000330: ef98 b4bd ff08 a1bd 723c 4c3c ed35 aabd
00000340: 8450 063d d8d1 33bd ef8e 62bd d699 783b
00000350: 3f74 a8bd c6c1 57bb 42c7 ad3d 48c0 63be
00000360: b6dd f8bc c3bd 773d f370 a4bd 6617 4b3d
00000370: 7bec e73b 0426 d2bc fd23 803d b618 883d
00000380: 8547 84bd 5925 0a3d 2704 2ebd 515b 3e3c
00000390: 2127 a93c ce21 a1bd b717 a2bd a9be 22bd
000003a0: f641 523d 9912 633d cdbd b53d be2f 9e3c
000003b0: 4135 9a3d d86f 04bc d75e 8ebd deda d7bd
000003c0: 983f c6bd 8ca7 a03d e7dc edbd f48e e8bd
000003d0: 5a3d fcbd b7cb cfbd ee2e d2bd 585d 623c
000003e0: d1dc 273d 59fc b93d 9b15 d3bd 52a8 fabd
000003f0: 23aa 413d afc8 f03d 9ed3 14be 868e 08be
-0.11764334 -0.08457846 0.07771014 -0.10171095 0.09042398 0.030106144 0.038710505 -0.059240114
0.004613999 0.04113285 -0.03521793 -0.05160982 0.08808312 0.015474215 -0.098375395 -0.11782794
0.085251205 -0.023394229 -0.017155644 -0.032178305 0.10262263 -0.11559868 -0.07345716 0.15352973
0.12614326 0.006122006 -0.06632156 0.048985064 0.011361004 -0.07613768 0.010445244 0.029867465
0.041065004 -0.05023306 0.006087252 -0.040240344 0.01778166 -0.10134993 0.017055212 0.009518916
-0.06450285 -0.04388338 0.117287934 -0.12617213 0.021455357 -0.12052649 0.10329599 0.08925894
0.0018511157 0.045570873 -0.11040917 0.111089274 0.06374714 -0.03890326 -0.05496474 0.11771098
-0.040166665 -0.1237101 -0.11474966 -0.025660895 -0.0092251655 -0.10492816 -0.019684035 0.09487953
0.056905072 -0.11978004 0.061035894 -0.017897848 -0.032713756 -0.072244465 0.06462083 -0.08220961
0.041986097 0.052884337 0.029098528 0.029334301 0.10019998 0.10946237 -0.10522661 0.0923251
-0.07405954 -0.12979141 -0.005623654 0.0028128535 0.07782868 -0.023123568 0.055458747 -0.0022998643
-0.11667625 0.08713162 -0.0872832 -0.10085859 0.11213186 -0.001027457 -0.02467974 -0.06864706
0.027232511 -0.10847177 0.058488775 0.07031253 0.08112133 0.006223775 0.11110385 0.0029120785
-0.009260805 0.024502417 -0.1406312 -0.048386816 0.024671756 -0.02392588 -0.08284162 -0.07811991
0.06346605 -0.035698596 0.040403347 -0.0029382703 0.09300824 -0.10992042 0.076924056 0.01762157
0.08231187 -0.041085627 -0.10149587 0.064632155 0.06288015 0.06961528 -0.038677994 0.03422095
0.07315003 -0.07368878 0.068906486 -0.08241368 -0.130567 -0.09328687 0.06662253 0.070959225
0.10600461 -0.039332025 -0.033029124 0.03743773 0.005547565 0.07778519 0.12838873 0.0021406026
0.024766449 -0.053602982 -0.017563155 -0.012770311 -0.010295662 -0.09002071 0.09958488 -0.106932536
-0.05155071 -0.077526815 -0.06382454 0.0043032067 -0.023553593 0.10788707 -0.026692487 -0.112972595
0.002422472 0.122702494 0.036006812 0.051573627 -0.031596422 -0.05734934 0.047105882 -0.0688606
-0.10500597 -0.023617703 0.03645089 0.013608492 0.013404808 0.104505286 -0.015151153 0.054581877
0.03407803 0.091086216 -0.03480189 0.10991977 -0.05077424 -0.079275265 -0.13892066 0.10854551
0.112332545 0.12745674 -0.047662776 -0.06794897 -0.046287466 -0.06086907 -0.0005031964 -0.122158475
-0.011890498 0.022649093 0.059358936 0.0049100933 0.060047783 0.010238461 -0.07311079 -0.11833262
-0.0776461 -0.08284905 -0.03464291 0.037082255 -0.08818232 -0.07863044 0.012465583 -0.08311067
0.03279163 -0.043901294 -0.055312093 0.003793349 -0.08225297 -0.0032921894 0.08485271 -0.22241318
-0.030379158 0.060483705 -0.08029356 0.04958286 0.007077751 -0.025652893 0.06256864 0.06645338
-0.06458954 0.033727024 -0.04248443 0.011618451 0.02064854 -0.07867776 -0.079146795 -0.03973261
0.051332437 0.055437658 0.08874092 0.019309875 0.075296886 -0.008083306 -0.06951683 -0.105397925
-0.09680098 0.07844457 -0.116143994 -0.11355391 -0.123163894 -0.101462774 -0.102628574 0.0138162
0.04098207 0.090813346 -0.10306855 -0.12239136 0.047281396 0.11757027 -0.1453385 -0.13335618

rnn.weight_hh_l1 f4 [192, 64]
00000000: 0c2a 813c c450 d6bd 350d c93b 26c3 f5bb
00000010: e89d 97bb 8d4d d33d 4f38 8bbd efc0 db3d
00000020: 0deb f43d d443 02bd cb2d cb3d 4e48 fbbd
00000030: 423f 4e3b 12a7 99bd 9df0 01bd 1344 1e3d
00000040: 3d3e 9c3d abad 64bb 60ac a83d 6fe7 b33d
00000050: 8595 e1bd f60c 6abc 1374 f13d 0ba9 b33d
00000060: 0bd8 dfbc f460 bcbd 547e 3d3d ef4d 65bb
00000070: 12c7 59bc c066 e1bd e30d 2cbd 8b55 b33d
00000080: fc89 b03d a94f 873d d3cc 693d 1eac 36bb
00000090: 3611 c2bd 4041 e13d 66c5 e23c 84a8 03bc
000000a0: 0b8e b33d 99b5 6d3d 3d02 c33d e05a 7bbd
000000b0: d374 4fbd 6c86 d1bb fa08 83bd 6cdc 723b
000000c0: 1f57 03be a724 06be 67bb c23d ec8f 50bd
000000d0: bef7 ee3c db1c 9c3d 20c1 f7bc b28d a5bd
000000e0: 801c dc3d c1d2 ccbd 19c2 753d 1689 20bc
000000f0: 73ad c9bd 9d6c 4dbd 8f58 fb3c 5e59 d6bd
00000100: c491 0bbd 3ced a63d a694 eb3d 6f8b 89bc
00000110: 60d8 c13d 753c 9cbc 999a 123d 7fd2 203d
00000120: 477b 9a3d 314a c1bd 9fd8 89bd 9bef 503d
00000130: 7ba1 56bd e3fd 593d d648 21bd 0079 493d
00000140: 2978 9dbd 8d62 d83d 596e 80bd 647d 59bb
00000150: 2474 323d 6e1e b93a 4219 ffba 56c9 173d
00000160: 1aea e1bd d277 cebd ef5e c93d 863d 22bd
00000170: bf65 803d cbfc d53c bfdd 943d 7af8 dabd
00000180: f88d 82bd 48ad 853d 24eb afbd 0514 473d
00000190: 9199 c23d 9989 d4bd b7f3 71bd 4d92 d3bd
000001a0: a95f 513d adf3 be3d 3360 d73b 7c06 6abc
000001b0: 7e5c ed3b f3b8 7c3d 1efa 83bd e72f fbbd
000001c0: cb6b b4bc 4e62 44bb 6cfc 7f3c 1b14 76bd
000001d0: 13d9 8ebd 94f8 5a3b b08b 423d a466 8d3d
000001e0: 6acb 6b3c 0890 56bd c471 8fbd 450c 863d
000001f0: 4ac2 80bd 9a0f 86bd 1ec1 ee3d a718 5bbd
00000200: 6939 533d 5daf f53c 9be3 873d c527 64bd
00000210: 0aad 523d c0e0 963d 587c df3d 346d 99bd
00000220: 3fff 573d 132a e8bd baf1 a93d d0b3 f7bd
00000230: 5e9d 84bd 3e0b bfbd 569b 203c c9ad bbbd
00000240: 783a 063e 2191 e6bd 128c 08bd a8ec 923d
00000250: f0ca 07be 1b31 5f3d fd65 6e3d bcbb ca3b
00000260: 3584 8abd 9cb2 cfbc 064a 04bd aa54 cabd
00000270: 3d12 3f3d 079b e93d 9c8f edbd a45b f2bc
00000280: c624 833d 8c92 98bd 60e9 d43a 3d2a 90bd
00000290: 7655 c0bd 5fdf f3bd 5e28 013e a2b2 263d
000002a0: 65b8 3ebd a46f aabd ad29 81bd 0bbb c3bd
000002b0: 6c75 bf3d e159 26bd 9267 9e3d fc81 6bbd
000002c0: f22b 813d 6f93 e2bd 08a7 a8bd 5f4d cfbd
000002d0: 88a2 2e3d aa77 61bc 4d9e 463d 5886 4bbc
000002e0: c031 babc c4f1 943a 1e9e 203d cbdb 6dbd
000002f0: 9e14 8c3b 7736 dfbc 94d2 c7bb 3ca0 06be
00000300: 63c8 c43c 9f93 72bd 305b 45bd d114 10be
00000310: 6e39 7b3d a4c3 353d 7cf7 d73b 08cc 5c3d
00000320: 53f3 c2bd ace5 dbbd fa55 90bd 527e 873d
00000330: a06b 413d 30d9 6f3d fb9c 453c b48e 1c3d
00000340: 4fee b93d eaf2 a53d 9eb7 95bd fb3c aebd
00000350: bfdb d2bd a158 12bd d775 d0bd 6fb0 683c
00000360: edcb 8cbc 9eaa 033d 983b 513b cf53 52bd
00000370: 02f1 8ebd 705c e93c 296b 6dbc 11d3 da3d
00000380: 80a0 c33d 3306 adbc 0b4f 9bbb ec83 e3bd
00000390: edde f8bd fa6a 3cbd 4054 5e3d 7132 36bd
000003a0: 1c00 8abd a521 28bd 320a adbd 55ac 3e3d
000003b0: 08c8 eb3d ff14 de3d 9e71 abbd ed99 5dbc
000003c0: 10bf ff3d ce22 d9bd 524a 983d fd12 753d
000003d0: b4b5 babd c68f 823b 08e1 45bd 7c61 d63d
000003e0: 1914 8a3c 584f 113d a0dc 67bd 387f d53d
000003f0: d8a7 cebd 29fe 1c3d 3d4d a9ba b2be 78bd
0.01576712 -0.104646236 0.0061356076 -0.00750007 -0.004626978 0.10317526 -0.067978494 0.107301585
0.11958895 -0.031802967 0.09920844 -0.122696504 0.003147081 -0.07502569 -0.031723607 0.03863914
0.076290585 -0.0034893553 0.08236003 0.08784377 -0.11014847 -0.014285317 0.117897175 0.08772477
-0.027324697 -0.0919818 0.046263054 -0.003498908 -0.013292091 -0.11005926 -0.04200543 0.087565504
0.086200684 0.06606991 0.0570801 -0.0027873586 -0.09475939 0.109987736 0.027682018 -0.008035783
0.08767327 0.058034513 0.09521911 -0.061365962 -0.05064852 -0.006394198 -0.063981965 0.0037057651
-0.12826203 -0.1309992 0.095084004 -0.050918505 0.029170867 0.07622691 -0.030243456 -0.08083667
0.107476234 -0.100011356 0.05999956 -0.009798309 -0.09847536 -0.05015241 0.030681876 -0.10466264
-0.03407456 0.081507176 0.11502962 -0.01679012 0.094650984 -0.019071797 0.035791967 0.039263245
0.075430445 -0.09437979 -0.0673077 0.051009756 -0.052400094 0.05322064 -0.039376102 0.04918766
-0.07688934 0.10565672 -0.06271047 -0.003318631 0.04356779 0.0014123449 -0.0019462483 0.037057243
-0.110309795 -0.10081448 0.0983256 -0.039609455 0.062694065 0.026121518 0.07268857 -0.106919244
-0.06374735 0.065271914 -0.085897714 0.048603076 0.09501947 -0.10377807 -0.059070315 -0.10330639
0.05111662 0.09323821 0.006572747 -0.014283773 0.007243692 0.06169982 -0.064441904 -0.12264996
-0.022024056 -0.002996582 0.015624147 -0.060077768 -0.06974997 0.0033412324 0.047496498 0.06904343
0.014391759 -0.052383453 -0.07004121 0.06545309 -0.06287058 -0.065459445 0.11657928 -0.053490307
0.051568422 0.029990846 0.06635209 -0.05570199 0.051434554 0.073670864 0.109123886 -0.07491532
0.052733656 -0.1133615 0.08298059 -0.120948434 -0.06475328 -0.09328316 0.00980266 -0.09164006
0.13108242 -0.1125815 -0.033336706 0.07174045 -0.13261008 0.05449019 0.058202732 0.0061869305
-0.06763498 -0.025353722 -0.032297157 -0.0987943 0.046648253 0.11406522 -0.11599657 -0.029584713
0.06403498 -0.074498266 0.0016243868 -0.07039306 -0.093913004 -0.11907839 0.12613055 0.0406977
-0.04656257 -0.08322075 -0.06306777 -0.0955716 0.09348568 -0.04061306 0.07734598 -0.05749701
0.0630721 -0.11063277 -0.08234984 -0.10122179 0.04263547 -0.01376144 0.04849081 -0.012422167
-0.0227288 0.0011363556 0.039213292 -0.05807094 0.0042749187 -0.02724765 -0.006098101 -0.13147062
0.024021333 -0.059222814 -0.048182666 -0.14070441 0.061334066 0.04437603 0.0065907817 0.053905517
-0.09519067 -0.10737166 -0.07047649 0.066158906 0.04722178 0.058556736 0.012061353 0.03822203
0.09078657 0.08102973 -0.07310413 -0.08507725 -0.102958195 -0.035729054 -0.10178726 0.014202221
-0.017187083 0.032145135 0.003192639 -0.051349457 -0.06979562 0.02848646 -0.014490881 0.10684789
0.09552097 -0.02112112 -0.0047396473 -0.111091465 -0.12151895 -0.04600046 0.054279566 -0.0444817
-0.06738302 -0.04104771 -0.0844921 0.046551067 0.11512762 0.108438484 -0.0837128 -0.013525468
0.12487614 -0.106023416 0.074360505 0.05983256 -0.09116688 0.0039844243 -0.04831031 0.104678124
0.016855286 0.03547606 -0.05660689 0.10424656 -0.100906074 0.038328324 -0.0012916696 -0.060728736

rnn.bias_ih_l1 f4 [192]
00000000: c6e3 6abd 9f86 e53d f76e 97bc 1d22 973d
00000010: 4069 9ebc 2477 a13d 2735 823d e498 38bc
00000020: f7f4 31bd 5524 703d a0cc ba3d 7fe2 eb3d
00000030: 879a 923d 77c6 f3bd 6993 f5bd 7778 d23d
00000040: ebb4 00be ae8d a8bd babc cfbd c17a dcbd
00000050: 626a 943d 2c99 f43d 9dc4 1abc 2efb cbbd
00000060: 1d2a 45bd 1723 febd 0ea6 a4bd 33dc 9dbd
00000070: 0474 d13d 1e3c 7cbc 0249 2a3d ba2b 20bd
00000080: 4d90 063d 5e0a b8bd 95bf c23d c27c 8ebd
00000090: 1252 113d 7181 d43c 84ce 323b 4804 de3c
000000a0: 6404 a9bc c2ab b43d 7c0b e43d 7dc8 233d
000000b0: 36df 533d 96c2 2dbd 4f27 753d f189 ea3d
000000c0: b673 8fbd dfb6 89bd 06dd 943c 5c88 ecbd
000000d0: aa02 e3bd d2b6 9e3c 2fe6 01be cd30 953c
000000e0: d7ba b23d 6511 cfbd dac0 29bd 47d4 04be
000000f0: 26e2 d33d d59e c23d bc8a 1bbd 5244 ddbd
00000100: 9c9f 9cbc 87a4 e03d 3046 cabd 5dd8 02be
00000110: 6bbf db3d 57d1 ea3d 3267 6c3d d470 a1bd
00000120: e019 aebd 8e6c 47bc 0fea bd3d 6c3c 17be
00000130: 2776 d4bd 821f 93bd 3269 8dbe 01c7 653d
00000140: 0937 273d 62ab b9bd 9ec2 9fbd 4b95 01be
00000150: 6967 0abd b672 f13b 6cb2 49be 745e 713d
00000160: b4cf dabd d307 e73d 433e debe 51a3 b93d
00000170: a292 9b3d 1bfe d53d f928 8a3c 3808 93be
00000180: ac4b 49bd 8a11 4abe 26a3 61bd 7de6 37be
00000190: c42d 7fbd 6608 86be f311 2d3d 90e5 0dbe
000001a0: b3ee 403d f0bc cf3d f8fc 5abe 04f4 e7bc
000001b0: 7fa8 0ebe 4def 453c e4f4 d63d e99f 013e
000001c0: 82cc dd3d f47e 1f3e 2c75 1c3d 64d9 8d3d
000001d0: 6dcd 08be e8d9 043c b207 c9bd b14b e4bd
000001e0: cff6 6a3d c4cf dfbd bd9d 8e3d 6ef3 543d
000001f0: e88e e9bd 9650 863c 0b61 56bd 4064 7d3d
00000200: a1d2 c5bc e1d4 953d 89d5 26bc b8c3 7dbd
00000210: 5067 843d eb74 1abb de82 a43d f321 b7bb
00000220: 40cb f1bd 220d bd3d 9b5b 83bc ab9d 993d
00000230: 36c0 e0bd 3664 193c 8f88 eebd 54ad ea3c
00000240: d534 6dbd 2c5c ae3d 536a b83d 292d 58bc
00000250: 5b22 903d 8804 40bd 31ac 43bd e238 d0bd
00000260: 7693 f1bd d411 cebd 17e7 f23c ec57 e83c
00000270: 9869 113d 8efd 22bd ae87 9c3d 74eb d43d
00000280: 640d c53c 7b62 4b3d 3da1 bd3d 8d98 f03d
00000290: 10a6 3ebc 81c5 4a3d e4a9 16bd 4e42 1b3d
000002a0: d777 893d ac6d 04bd 1a32 b73d b531 e03d
000002b0: 1564 d33d 1067 bb3d a2a5 b4bd c7e5 b0bc
000002c0: 70c7 cfbc d6e1 94bd 387a 6d3d 6425 c9bd
000002d0: 607a b93d 4d31 f43d d07f 7b3d 6e0d 6ebc
000002e0: cf60 993d 80dd c5bd 72ec 6abd ebde 8cbd
000002f0: 8170 68bd c390 d7bd f1e4 14bb 52bf 643d
-0.057346128 0.112073176 -0.01848553 0.073795535 -0.019337296 0.078840524 0.06357794 -0.011266921
-0.043446507 0.0586284 0.0912106 0.1151781 0.0715838 -0.119030885 -0.11991007 0.10276883
-0.12569015 -0.08230148 -0.101434186 -0.10765601 0.072468534 0.11943278 -0.00944629 -0.09960018
-0.048135865 -0.124090366 -0.08039485 -0.07708015 0.10227206 -0.015395192 0.041573532 -0.0391042
0.03285246 -0.089863524 0.095091976 -0.069573894 0.03547866 0.025940629 0.0027283737 0.02710165
-0.020631976 0.08821823 0.11135003 0.039986122 0.051726542 -0.0424219 0.05985194 0.114520915
-0.07004492 -0.06724333 0.018171798 -0.11549446 -0.110844925 0.019374285 -0.12685464 0.018211747
0.08727043 -0.101107396 -0.041443683 -0.12971602 0.10345869 0.09502951 -0.037974104 -0.10804047
-0.019119076 0.10968881 -0.098766685 -0.12777849 0.107298695 0.1146571 0.057715602 -0.078828484
-0.08501029 -0.012171878 0.09273159 -0.14769143 -0.10374098 -0.07183744 -0.2761932 0.056097988
0.04082397 -0.09065892 -0.07800792 -0.12654607 -0.033790026 0.007368411 -0.19696969 0.05892797
-0.106841475 0.11280789 -0.43406877 0.09064353 0.07596327 0.104488574 0.01686524 -0.28717208
-0.049144432 -0.19733253 -0.05508723 -0.17959018 -0.062299505 -0.26178282 0.042253446 -0.13857102
0.04710264 0.10143459 -0.21385562 -0.028314598 -0.13931464 0.0120809795 0.10495928 0.12658657
0.108300224 0.15575773 0.03819768 0.069262296 -0.13359614 0.0081085935 -0.09815921 -0.111472495
0.05736428 -0.109283 0.0696368 0.051989965 -0.1140421 0.016395848 -0.05233864 0.061863184
-0.024148287 0.07315994 -0.010182747 -0.06195423 0.06465018 -0.0023568224 0.080327734 -0.005588764
-0.11806345 0.092310205 -0.016034892 0.07500776 -0.10974161 0.009362271 -0.1164714 0.028647102
-0.057911713 0.08513674 0.09004655 -0.013194361 0.07037803 -0.04687932 -0.047771636 -0.101670995
-0.11795704 -0.10061994 0.029651208 0.028362237 0.035501093 -0.03979259 0.07643066 0.103964716
0.024054237 0.049654465 0.092592694 0.11747847 -0.011636272 0.04950476 -0.036783114 0.03790503
0.06712311 -0.032331154 0.08945103 0.10946981 0.103218235 0.09150517 -0.088206545 -0.021593941
-0.025363654 -0.07269637 0.057977885 -0.09821585 0.09056544 0.11923466 0.06140119 -0.014529569
0.07489168 -0.096613884 -0.057354398 -0.06878456 -0.056747917 -0.10525658 -0.0022719468 0.05584652

rnn.bias_hh_l1 f4 [192]
00000000: 42d4 c6bd 4742 2fbd 43a8 5ebd d766 88bd
00000010: 4caf 1a3c 6441 6b3d e93c 353d b926 e73d
00000020: 16a1 e4bd 0399 a23d b73f 6c3d eac7 85bd
00000030: e31f b0bd 1b83 d0bd ef34 ff3d 4f84 ddbd
00000040: 1784 e6bd d89b a33d ac29 503d adcd 583d
00000050: 3c47 d63d cab2 b7bd 7c53 0dbd 22d9 a83d
00000060: 5d8f f63b 5ae9 46bd f664 d3bd f920 d33d
00000070: 70c5 fcbd b7ff 84bd f92b 90bc 5abc 2b3d
00000080: 3ff3 a33d 53bc 6dbd d87c 6ebd 2721 ea3c
00000090: cb19 e33d 29f6 813c 48bc cb3d 4186 d63d
000000a0: e00f 0437 8b7c 42bd 1abd f93d 7140 00bd
000000b0: 31a3 d5bd 6ec1 ae3c fd85 97bd bb69 c33d
000000c0: 5ec7 98bd 8558 5d3a 38d9 cabd 62cd bcbd
000000d0: 506a f7bd 4294 923c 5f65 eabd 7830 9cbd
000000e0: f350 dd3d 4f40 c63d c9a5 8cbd e491 ec3c
000000f0: 22dd 6ebd 6f7e 5fbc 7b5f acbd 1c47 a237
00000100: dbd6 fb3c 6b55 ac3d 1559 75be 04f3 92bd
00000110: 7249 723d 0f2d 1dbd 0e68 3c3d 8eb5 3bbd
00000120: 8035 91bd 61f7 f03a ba99 d3bc 29ec 1ebe
00000130: b331 923b 5088 e03d 9c16 9ebe bbf9 b43c
00000140: e5c6 96bd 3068 c53d 7ede 273d b02e c8bd
00000150: 8893 003e 9fd6 32be 67d6 40be 370c 5c3c
00000160: 207d 50be 150c 8b3d db02 d8be fa97 a8bd
00000170: f0ed da3d bf12 513c 39b7 c33d 2d2a 3abe
00000180: 9f25 61bc d99d c1bd 759d 013d 4a63 babc
00000190: cbd6 fabd 64c2 8abe a65d f5bb bdd8 963d
000001a0: e0c0 0bbe e45b fbbd a9b2 c9bd 96ff d13c
000001b0: 071a c9bd 6f98 99bc f497 ecbc 2b35 a33d
000001c0: b042 5a3c 3840 cf3d 45a3 a0bd a579 4cbd
000001d0: 121e 4cbd e86c c0bd 7d78 273d 32c2 80bc
000001e0: 133e c0bd 56aa bdbd 7dd3 dc3d b563 f73c
000001f0: be69 fabc 4e5f be3a 7507 0e3c 40f0 06bd
00000200: 38a3 e43d e8da 0abd b1f7 283d 8e69 a03d
00000210: 9829 df3c 4fc6 fabc 12d3 3cbd 512f f3bc
00000220: 32f2 b6bd e017 803d 54ed d4bd ac56 b8bd
00000230: c5c2 313c 6443 8dbd 5130 ff3b fad8 babd
00000240: 935e 34bd 1dd1 a6bd 947a 953d 844d d93c
00000250: 929d f93c da43 edbd 9d1a d33d fc71 f93d
00000260: bb48 4d3d fe01 933b 5bf3 12bc 8f91 5d3d
00000270: 0875 9ebd 3b47 17bd 375e 473d a6c2 dfbd
00000280: 8fac a63d f474 83bd 1be5 e63d 572a 3dbd
00000290: 924d d5bc 162f e0bd c2f9 fdbb 48e1 033d
000002a0: 3454 3d3c c994 07bd b97a 92bd a430 b8bd
000002b0: 5b88 b53c 5004 a63d 0d52 423d 196c 01bd
000002c0: 94e8 9d3c d184 95bc e7a8 913d e715 f1bc
000002d0: 0c2f 853d 8587 503d eab8 69bd 9680 f33d
000002e0: 9266 cb3c 2373 56bd 6255 e73d 9728 123d
000002f0: e110 6c3d d82e bf3c d5e0 723d 1ef2 d83d
-0.09708454 -0.042787816 -0.054359686 -0.0666024 0.009441208 0.05743541 0.04424754 0.11286683
-0.11163537 0.07939341 0.05767795 -0.06532271 -0.08599832 -0.101812564 0.12461268 -0.108162515
-0.11255663 0.07988709 0.05082099 0.052930523 0.10462806 -0.08969648 -0.034503445 0.0824454
0.0075244145 -0.048562385 -0.10321991 0.103090234 -0.12342346 -0.06494086 -0.017599093 0.041927673
0.0800538 -0.058040928 -0.05822453 0.028580261 0.11088904 0.015864449 0.09948021 0.10474826
7.871509e-06 -0.047482055 0.121942714 -0.031311456 -0.10431517 0.021332469 -0.07398603 0.09541651
-0.07459901 0.00084436714 -0.099047124 -0.09218861 -0.120808244 0.01789296 -0.11445116 -0.07626432
0.108064555 0.09680235 -0.068675585 0.02887816 -0.058316357 -0.013640984 -0.08416649 1.9345018e-05
0.0307421 0.0841473 -0.23959763 -0.07175258 0.059152074 -0.03837305 0.04599767 -0.04582744
-0.070902824 0.0018384272 -0.025830138 -0.15519775 0.004461491 0.109634995 -0.30876625 0.022091737
-0.07362155 0.09639013 0.04098367 -0.0977453 0.12556279 -0.17464684 -0.18831788 0.013430647
-0.20360231 0.06789414 -0.4218968 -0.08232112 0.10689914 0.012760817 0.09556431 -0.18180151
-0.01374188 -0.09453935 0.031644303 -0.022752423 -0.12248 -0.27101433 -0.0074879704 0.07365558
-0.13647795 -0.12273386 -0.0984853 0.025634568 -0.098194174 -0.018749444 -0.02888105 0.07969125
0.013321564 0.10119671 -0.07843641 -0.049920697 -0.049833365 -0.09395772 0.04088639 -0.0157176
-0.0938684 -0.092610046 0.10782526 0.030198911 -0.030568 0.0014524253 0.00866877 -0.032943964
0.11163944 -0.03390017 0.041251842 0.07832633 0.027241513 -0.030612139 -0.04609973 -0.029685648
-0.08932914 0.06254554 -0.10396829 -0.09000906 0.010849659 -0.06897619 0.007787742 -0.09123416
-0.044035506 -0.08145354 0.072987705 0.02652622 0.030470643 -0.11585207 0.103078105 0.12179944
0.05011819 0.0044863215 -0.008969153 0.054093894 -0.07737166 -0.036933165 0.048673835 -0.10925798
0.08138382 -0.064187914 0.11274167 -0.046182957 -0.026037965 -0.10946481 -0.0077507207 0.032197267
0.01155572 -0.033100877 -0.07152314 -0.089936525 0.022159746 0.08106291 0.04744153 -0.03159723
0.019275941 -0.018251808 0.07112294 -0.02942939 0.06503114 0.05091049 -0.057061113 0.1188976
0.024829183 -0.052355897 0.11295582 0.03568324 0.057633284 0.023337767 0.059296448 0.10593055

fc.weight f4 [1, 64]
00000000: d95b 8c3d a209 afbd ac7d 95bd 138c 00bd
00000010: 71fa cebd b3e1 f0bd 81da a43d 675c a93c
00000020: 4628 1abd 76b3 bd3d e9f4 a33b 3b83 f23d
00000030: 44c5 4cbc a161 8b3d cb8b 13bd e1ac 213d
00000040: 1367 cebc 7051 863c d1b8 7abd c24f 9b3d
00000050: 74a9 983d 2c6c d7bd 75ed e2bd 1246 e53d
00000060: 01c4 85bd 4037 6c3c 17e0 4f3d 5392 0abd
00000070: c9d2 463d 2190 883d ea19 d1bc 41c3 d93d
00000080: e71e a63d f92e 1dbd a04b c4bd 1332 273d
00000090: deb5 8b3b 58d4 f8bd ce3e a639 c0ee 523c
000000a0: d10e 353c 4a81 a6bc e3fc f3bd e86b d33d
000000b0: d930 83bd 69b3 003e 78ba 84bd 3f11 993d
000000c0: 079e 303c aab6 973d 3e8d d63d 5e5d 523c
000000d0: cb59 10bd 079a 49bd ef1f 7d3d c9a2 273c
000000e0: 9401 df3d 8bcc 4f3d 1822 96bd 8b6b c6bd
000000f0: d9f2 473d f9d5 b53d bcd2 91bd a0c0 4f3c
0.06853456 -0.08546759 -0.07299361 -0.031383585 -0.10106362 -0.11761799 0.08049489 0.020673944
-0.037636064 0.09262745 0.005003561 0.118414365 -0.012498204 0.068057306 -0.03602199 0.03947151
-0.025195634 0.016396254 -0.06121141 0.07583572 0.074541956 -0.10518679 -0.110804476 0.111950055
-0.065315254 0.0144174695 0.050750818 -0.033830952 0.048540864 0.066681154 -0.025525052 0.10632945
0.08111363 -0.038374875 -0.09584737 0.04081924 0.0042636236 -0.12149876 0.0003170878 0.012874305
0.011050896 -0.020325322 -0.11913469 0.10323316 -0.06405801 0.1256844 -0.064808786 0.074739926
0.010779864 0.07407887 0.104761586 0.012839643 -0.035241883 -0.049219158 0.061798032 0.010231682
0.10888973 0.050732177 -0.073307216 -0.09688481 0.048815582 0.08878703 -0.071202725 0.012680203
