data/results/gru_regime_GOLD_r5d_r6_wNone.pt (torch, 167509 bytes, 9 tensors)

rnn.weight_ih_l0 f4 [192, 16]
000000 61 40 c7 bb 5d d5 0d be 76 84 fb bc 87 48 db bd
       -0.0060806726 -0.13850923 -0.03070281 -0.10707193
000010 03 cc e5 ba 09 39 a4 bd bf 70 40 bc b7 42 97 bd
       -0.0017532114 -0.08018691 -0.011745631 -0.07385772
000020 dd 27 46 bd ce 8d 4e 3c ed 0a 1a bc f9 33 e0 bd
       -0.04837786 0.012607051 -0.009402019 -0.10947413
000030 dd ac a0 3d b5 12 b2 bd 4a c6 fa bd 9e fb 53 3d
       0.07845471 -0.08694974 -0.12244852 0.051753633
000040 3a 20 d3 3d 96 7e 4b bd fb e9 94 bd 1d cd c8 3e
       0.10308881 -0.04968127 -0.07271191 0.3921899
000050 54 d3 05 bc 35 cb a8 3d 9e 03 85 bd 5f f5 be 3c
       -0.00816806 0.08241884 -0.064948305 0.023310361
000060 3d 65 04 3e 1b 0b 42 3d 24 eb 40 3c e8 34 e3 bd
       0.12929244 0.047373872 0.011774812 -0.110940754
000070 26 d5 1b 3e 57 f2 c2 3c 0d 90 aa 3d b8 53 a7 3d
       0.15218028 0.023797197 0.08328257 0.08170265
000080 8e f2 e9 bc 92 11 e5 3d cb 06 81 bd ba d2 05 3f
       -0.028558042 0.11184992 -0.06300124 0.5227467
000090 53 c6 09 3d 94 a2 92 bc 7e 20 e3 3d b1 4f 06 3d
       0.033636402 -0.017899789 0.11090182 0.032790843
0000a0 dd dc b7 3e cd cb cf bd 4b df 3b bd e2 1a 1d 3e
       0.35910693 -0.10146294 -0.045867246 0.15342286
0000b0 6b 52 78 3d ef 15 e6 3e 3a 77 12 be 15 60 61 bd
       0.060625475 0.4493861 -0.14303294 -0.05502327
0000c0 2b 09 2b 3d f1 ad 8f bd 56 26 9a bd ff 49 76 3e
       0.04175679 -0.070155986 -0.07526843 0.24051665
0000d0 4f 7e 2b 3e a8 f7 2b bd a4 ce 2d be 63 81 08 3c
       0.16747402 -0.04198423 -0.16973358 0.008331629
0000e0 a7 09 5c 3e d2 25 09 3e 14 96 73 bd 5a 7e e4 3c
       0.21488057 0.13393334 -0.059469298 0.02789228
0000f0 a1 5f 78 3d f8 a2 2a 3e af 5e 04 bd 16 90 bb 3d
       0.060638074 0.1666373 -0.03231686 0.091583416
000100 18 31 32 3d a8 44 cb bd 7e a8 a7 3d fb cf 1d be
       0.04350385 -0.099252045 0.08186434 -0.1541137
000110 dd b8 02 3d f6 e5 3d 3d 8d 93 37 3c 26 67 85 bd
       0.03191458 0.046361886 0.011204612 -0.06513815
000120 fd 66 59 3d 51 fb 1c be a9 aa 13 ba af 2f a3 bd
       0.053076733 -0.15330245 -0.00056330353 -0.07968079
000130 28 85 09 be 27 80 f8 bc 90 3e ac 3d 95 89 d9 3d
       -0.13429701 -0.030334545 0.0841037 0.10621945
000140 59 8e 50 3d 07 5c 1c 3d ff a9 e2 3d 84 84 ad 3e
       0.050917003 0.0381737 0.110675804 0.33890164
000150 eb 3e 67 be 51 44 a9 3b 5a 60 a5 3d 7e 65 c7 3d
       -0.22582595 0.0051656147 0.08075018 0.09736155
000160 95 a1 40 3d 00 c7 14 3d 61 2d d7 bc 33 9a ff bc
       0.047029097 0.036322594 -0.026266756 -0.031201458
000170 1a 4d 60 bd 90 14 56 3e 5b ac 57 3d 3d 64 8e 3d
       -0.05476103 0.20906281 0.052654605 0.06952713
000180 14 87 9f 3c cd f6 e4 3d 55 41 f6 3c 0b be 38 3e
       0.01947359 0.11179886 0.03006045 0.18041246
000190 de 39 57 bd a8 0d 6d bd 80 06 91 bd 07 5d 0e 3d
       -0.05254542 -0.05787435 -0.07081318 0.034756687
0001a0 dc fd 85 3d a0 cc d5 bd 22 5b 18 bd 0e e3 0b 3e
       0.065425605 -0.1043942 -0.037196286 0.13660833
0001b0 86 a8 0b 3e 36 2b 04 3e 85 da 9e 3d 5f b2 b1 3d
       0.13638505 0.12907109 0.07756523 0.086766
0001c0 9e 45 e3 3d 98 23 03 3e 41 4b d2 bc c8 f6 6f 3e
       0.11097263 0.12806547 -0.02567065 0.23433983
0001d0 0f 18 c6 bb be 22 be 3d 98 b0 36 bd 56 6f 1a bd
       -0.0060453485 0.0928397 -0.044602007 -0.037703834
0001e0 4d 4c 48 3c eb 3c 88 bd 1a 44 35 bc f9 ec 1b bd
       0.012225223 -0.06652244 -0.0110636 -0.03806779
0001f0 a1 7f b8 bd 9f a1 2f 3e d8 16 b1 3c c1 fd 76 3d
       -0.09008718 0.17151497 0.021617338 0.060300592
000200 c3 f1 6a bd 90 ec f0 bd 45 23 5f bd 70 1e 46 be
       -0.05735947 -0.11763871 -0.054476995 -0.19347548
000210 51 dc a4 3c 57 28 02 be 90 e9 1a be a0 2e 38 be
       0.020124586 -0.12710701 -0.1512816 -0.17986536
000220 eb f0 a4 bd f1 45 e9 bd c1 39 51 bd 7e 8b e9 bd
       -0.08053764 -0.113902934 -0.05108047 -0.11403559
000230 4c e7 42 be a4 3d 37 bd bf e8 ad bd fa 79 5b bd
       -0.19033545 -0.04473652 -0.084916584 -0.053583123
000240 c0 44 81 3d e8 75 be 3d 5c 37 3b 3d dd 78 66 3d
       0.06311941 0.092998326 0.04570709 0.056267608
000250 92 c6 67 3d 68 25 e7 3c eb e8 a0 bd f1 51 12 3e
       0.056585856 0.028216079 -0.078569256 0.1428907
000260 5f cf 2d bd de 8b 6c bd d6 c8 98 bc 55 47 7f bc
       -0.042434093 -0.057750575 -0.018650454 -0.015580972
000270 97 cf 99 bc ae 7e 77 bd 97 26 69 3d f6 e3 8a ba
       -0.018775744 -0.060423546 0.056921568 -0.0010596502
000280 52 fc f7 3d 6d be 1f 3c 02 a8 c3 bd 7c d4 d5 3d
       0.12108673 0.009749991 -0.09553529 0.10440919
000290 85 61 9d 3d cf 78 e6 bd da 7a 88 bd 83 d1 9e bd
       0.07684616 -0.11253511 -0.06664057 -0.07754805
0002a0 31 7e 2f 3d ef 24 5d 3a 03 7e a7 3d 7b 9c c5 3d
       0.042844955 0.00084359845 0.08178332 0.09648987
0002b0 8a d2 86 bc c6 da 9c 3d 91 fa 15 3e cc a7 d1 bd
       -0.016457815 0.07658915 0.14646365 -0.10237083
0002c0 c3 49 9d bc 35 ab 99 bd 95 d9 52 3d 75 4b 22 3d
       -0.019200211 -0.07503358 0.051477034 0.039622743
0002d0 5f 48 ca bd 38 ec 27 3e 3e 3e d0 3c 75 65 8a bc
       -0.09877085 0.16398704 0.025420304 -0.016894082
0002e0 bc 1f 3f 3d 99 bd e9 3c e9 17 fc 3d 88 80 3e 3c
       0.046661124 0.02853279 0.12309248 0.011627324
0002f0 2c 94 d2 bd 83 ee 96 bd 81 d0 da 3c 5e 0c 03 bd
       -0.10282168 -0.07369711 0.02671075 -0.031994216
000300 9b 1a c7 3d 92 bf 40 bd a6 89 53 bd 31 c1 55 3d
       0.097218715 -0.047057696 -0.051644944 0.052186195
000310 ba 9e be bd de fc 84 bd 3d da 9d 3d a2 b0 e5 3d
       -0.093076184 -0.06493543 0.07707641 0.11215331
000320 b8 01 5a bc 9d d6 8d bd c9 e5 9b 3d c3 72 3b 3c
       -0.013306074 -0.069257 0.076121874 0.011440936
000330 fb 80 9b bc 83 b3 66 bd 1c cd a0 bb 6a e0 c9 bc
       -0.018982401 -0.05632354 -0.0049072634 -0.024643142
000340 9a 3f 35 3e 0b ce a8 3d b4 26 e7 bc ea 1c a2 3a
       0.17700043 0.082424246 -0.028216697 0.0012368236
000350 1b a1 c4 3d 60 08 18 3d 19 37 70 3d 80 dc 18 bd
       0.09601041 0.037117362 0.058646295 -0.03731966
000360 12 04 a1 bd 13 54 3a bd 56 3b 9e bd 99 cb 8d 3d
       -0.078621045 -0.045490336 -0.07726161 0.06923599
000370 d3 56 df bc 7b 35 86 bd bc f7 93 bc 49 97 1a 3d
       -0.02726308 -0.06553169 -0.018062465 0.037741933
000380 a8 20 bc 3d df 8f eb bd 9b 99 a1 3d 40 cb e1 3d
       0.09185916 -0.115020506 0.07890626 0.11025095
000390 ef fd 2a bd 88 a7 75 bd b4 46 95 3d ac e6 b1 3d
       -0.041746076 -0.059974223 0.07288876 0.08686575
0003a0 28 72 c4 3d d9 d6 1f 3e 7c 63 8b 3c ed 9f 0b 3d
       0.09592086 0.15609302 0.017015211 0.034088064
0003b0 a6 85 e0 3d 13 04 c6 bd f4 b3 15 3e b1 9c 83 bc
       0.109629914 -0.09668746 0.14619428 -0.016065927
0003c0 73 b2 c7 3d 85 e0 a5 bd e1 59 0d bb f2 25 3d bd
       0.09750833 -0.08099464 -0.0021568465 -0.046178766
0003d0 c4 02 f6 3d cb 8e b6 3d 96 e0 71 3d 60 0e ee 3b
       0.12012246 0.08913954 0.059052072 0.007264897
0003e0 66 97 8e bd c1 3d 1a bd ba d0 93 bd 34 66 b6 bd
       -0.06962471 -0.03765655 -0.07217546 -0.089062124
0003f0 43 cd 0a be 21 8d d8 3c 57 d4 89 3d 4e 80 cf 3c
       -0.13554864 0.026434483 0.06729954 0.025329735

rnn.weight_hh_l0 f4 [192, 64]
000000 73 f8 d1 bc 7b e9 24 ba c6 52 8e 3d 75 43 ba 3d
       -0.025631165 -0.0006290895 0.069493815 0.09094898
000010 bf 38 05 be c9 f2 21 3c e0 d3 f7 bd a3 98 68 bd
       -0.13009928 0.009884545 -0.12100959 -0.05678619
000020 c3 9f ec 3d 8f d2 63 bd a9 90 fe bd 09 25 21 3d
       0.1155391 -0.055620726 -0.124299355 0.03934196
000030 2c cb d3 3d e2 44 9a 3c 0b 64 dd 3b 0c 11 ef bd
       0.10341486 0.018831674 0.006756311 -0.11673173
000040 c4 63 51 bd d1 e0 7e bd c7 ce 0d 3d a6 75 b8 3d
       -0.051120535 -0.06222612 0.034621026 0.09006815
000050 c9 59 93 3b 0e c0 d1 bb 5d ef 8e 3d 39 4a 77 bc
       0.004496787 -0.0064010685 0.06979249 -0.01509338
000060 e1 1b d8 3d 0f 41 cf bd 47 ca f0 3d 97 b1 a7 3d
       0.105521925 -0.10119831 0.11757331 0.081881694
000070 f4 c5 c9 bb e7 7e b8 bb 10 54 ae bd 36 bc 77 bc
       -0.006157631 -0.0056303623 -0.085121274 -0.015120557
000080 2b 87 f1 3c 62 28 88 bd 39 fd 2c 3d c4 2a cd 3d
       0.029483398 -0.066483274 0.04223368 0.100179225
000090 68 81 7d 3c ca ae 20 3d c8 9f bb 3d 5d a3 d4 3c
       0.015472747 0.03922919 0.09161335 0.025956804
0000a0 a5 7e d7 bd 1d b9 b9 bd 83 71 f6 bd ab 6d a5 bd
       -0.105222024 -0.09068511 -0.120333694 -0.08077558
0000b0 80 38 bf bd 30 01 6b 3d a8 f4 85 3d 2d c2 5a bd
       -0.093369484 0.05737418 0.06540805 -0.053407837
0000c0 c6 fb fb 3d 30 4b 43 3c c2 a7 50 3d 39 a7 d8 bd
       0.12303881 0.011919782 0.050941236 -0.1057877
0000d0 83 0c 3a bd 25 59 aa 3c 32 57 d3 3d 77 dc a7 3d
       -0.04542209 0.02079446 0.103193656 0.08196347
0000e0 ab 9f 8d bc 3c 94 e1 bc 87 9b e4 bd 8f 5f 8d 3d
       -0.01728805 -0.027536504 -0.11162477 0.06902992
0000f0 99 65 77 3c 86 9e cc 3d c2 13 ab bd 0b 83 da bd
       0.015099906 0.099911734 -0.08353378 -0.10669526
000100 5f de c1 bb 0e 99 4a bd a6 b7 e7 3d c3 3f ad 3d
       -0.0059164013 -0.04946237 0.11314325 0.08459427
000110 e8 ab 98 3d cc 05 d7 bd 5b eb e4 3b f0 6e 8f bc
       0.074546635 -0.104991525 0.0069860644 -0.017508954
000120 e2 e4 dd 3d df fe e4 3c 47 ed f3 3d ff 4e 6c bd
       0.108346716 0.027953563 0.119104914 -0.057692524
000130 19 54 b2 bd 0b a7 ad 3b b0 eb a5 3c 7c 1f 05 3e
       -0.087074466 0.005299454 0.020253986 0.13000292
000140 ee e8 fc 3d e1 2d 77 bd 29 5d 62 3c 5e de 04 bd
       0.12349115 -0.060346488 0.013816156 -0.03243863
000150 27 95 b6 3d 15 ac 80 3c cb 42 cd bd da 2a 0d 3c
       0.08915167 0.015707055 -0.100225054 0.008616174
000160 ed 51 01 3d ce ed 3b 3c c0 fb bf 3d f5 b1 1f 3d
       0.03157227 0.011470271 0.093741894 0.038988072
000170 e2 19 83 3d 43 20 fe bc cf 6d df bc 0a 5a b2 bd
       0.06401421 -0.031021243 -0.02727404 -0.0870858
000180 ca b6 1c 3d 94 0c 04 3d 6d 54 66 3d 1f 17 ac 3d
       0.03826026 0.032238558 0.05623286 0.084028475
000190 22 37 8c bc f8 12 7a 3d 6c b8 b3 bd 59 e9 d7 3c
       -0.017116133 0.061053246 -0.0877541 0.026356386
0001a0 54 7c 24 3d 33 4e 8d bd 3a 41 95 bc 6d e7 a8 3d
       0.04015763 -0.06899681 -0.018219579 0.08247266
0001b0 8c ea d6 3d 5b 9b ef 3d a6 e0 91 3d 78 6d eb 3d
       0.10493955 0.116995536 0.071229264 0.11495489
0001c0 64 44 fd bd 26 1a 20 3d a4 4b 9f 3d 0f 34 94 bd
       -0.1236656 0.039087437 0.07778099 -0.07236492
0001d0 b0 a5 3d bd 15 64 5b 3d b6 0b e9 bc 98 d3 6e 3d
       -0.04630059 0.053562243 -0.028447967 0.05830726
0001e0 ad 2c fd bc 7d 9e ca bc 46 88 34 bc f6 8d 06 bd
       -0.030905092 -0.024733776 -0.011018818 -0.03285023
0001f0 76 c7 61 3d ee 67 11 ba c2 d6 f9 3d 98 10 cb bd
       0.05512186 -0.0005546798 0.12199165 -0.099152744
000200 e2 62 6b bd 1c cd 9f bd 83 03 10 be 36 05 2c 3e
       -0.05746735 -0.078027934 -0.1406384 0.16798863
000210 58 10 ae 3d b0 c5 df bb d4 d3 d8 bd 33 b3 a7 bd
       0.08499211 -0.006828986 -0.10587278 -0.081884764
000220 5f 3e 01 be 69 bd 81 3d b1 66 37 3c 91 8e cc 3d
       -0.12621449 0.06334955 0.011193917 0.0998813
000230 44 b3 d1 bc a1 2a e3 3c c8 8e 16 bd 12 b4 12 bc
       -0.025598176 0.027730288 -0.03675726 -0.008954065
000240 f2 14 c4 3d 59 a8 a5 39 30 8d 68 bd 63 cb 6f 3d
       0.095743075 0.0003159668 -0.056775272 0.058543574
000250 a1 1f 8a 3d 74 c1 b6 3d d3 7b a0 bd 29 e3 f9 bd
       0.06744314 0.08923617 -0.078361176 -0.122015305
000260 f2 72 bc 3c 50 7e 1b 3e 19 c6 2f bd e5 99 ed bd
       0.023004029 0.15184903 -0.04291353 -0.11601619
000270 cb 22 08 be de 06 c3 bd 26 35 e6 bd c9 13 1f 3d
       -0.13294522 -0.09522794 -0.11240606 0.038837228
000280 90 9a 9c 3c f1 17 3e 3d 50 1c 4b 3d 79 9e 9f bd
       0.01911667 0.04640955 0.049587548 -0.07793898
000290 e5 3d 34 3d 29 47 ef 3c 5b 3d d7 3d f9 dc 38 bd
       0.04400434 0.029208736 0.105097495 -0.04513261
0002a0 db ac 9d bd 66 e5 e9 3b 37 4a b1 3d 26 96 98 3d
       -0.07698985 0.007137942 0.086567335 0.074505135
0002b0 38 61 81 bd f2 83 06 3e 78 0d 9f 3d b8 22 a8 ba
       -0.06317371 0.1313627 0.07766241 -0.001282773
0002c0 60 49 80 ba cb cf ba bd 71 c4 f1 bd 5f 24 d2 bd
       -0.0009787492 -0.091216646 -0.11805046 -0.102608435
0002d0 f2 be 44 be 11 86 95 3d bf 19 3e 3d a8 ca 5b bd
       -0.19213465 0.07300962 0.046411272 -0.053660065
0002e0 2b 78 82 3d 70 94 af 3b 7a 74 e9 bd e3 42 48 bd
       0.063705765 0.0053582713 -0.11399169 -0.048891913
0002f0 30 39 a9 3d 61 fd bd 3d 6b ce 57 bb 67 ac ce 3d
       0.08262861 0.09276844 -0.0032929431 0.10091477
000300 e6 53 a4 3d b6 fa 91 bd 42 59 ac bd 27 5d f1 3b
       0.08023815 -0.071278974 -0.08415462 0.007365841
000310 ee 7b ed bc 9a 9e 47 bd ea a1 03 be 92 a7 98 bd
       -0.028989758 -0.04873524 -0.12854734 -0.074538365
000320 76 66 6e bd 69 03 1f bd fb f8 db 3d 8b 04 e0 bd
       -0.058203183 -0.03882161 0.10740849 -0.109383665
000330 8c 80 a6 3c 6a 51 49 bd 26 a3 3f 3d b5 75 96 bc
       0.020324968 -0.049149908 0.04678645 -0.018366674
000340 e2 96 6b 3d 8d e7 92 3d 62 f0 d4 3c 3f ce f8 3c
       0.05751694 0.07173071 0.02599353 0.030371783
000350 6f ab 09 3d b2 87 b7 bd 2a 4e 62 3c 95 87 98 bd
       0.033610757 -0.08961429 0.013812581 -0.07447735
000360 15 a8 8b 3d 41 b3 ed bd d0 b0 19 3d 74 50 8f 3d
       0.068191685 -0.116064556 0.037522137 0.06997767
000370 8f 00 81 3d 20 96 38 3d 9f de e3 3c 34 65 dc bd
       0.06298935 0.045065045 0.027816115 -0.107614905
000380 6d 70 90 bd 89 78 93 bd f7 82 59 bc df dd cd bc
       -0.070526935 -0.07200725 -0.013275853 -0.02513021
000390 41 aa 90 bd c2 dd ea bd ff 8d bf 3d 40 ba 56 bd
       -0.07063723 -0.11468078 0.093532555 -0.052423716
0003a0 04 16 90 bd c8 fd 51 3d d0 56 e3 bd 4c 5d 92 3d
       -0.07035449 0.051267415 -0.111005425 0.07146701
0003b0 3d 39 d8 bd cc 25 eb bd 87 4b c1 bd 91 ed f3 bd
       -0.10557792 -0.114818186 -0.09438234 -0.119105466
0003c0 2c 6e cb 3c 67 6e a1 3d dc fb 29 bd fd dc 4f 3d
       0.024832807 0.07882386 -0.041499957 0.05074786
0003d0 c8 84 13 be a5 e1 87 3d 80 ac fc 3c b7 3f 39 bd
       -0.14406121 0.06634835 0.030843973 -0.04522678
0003e0 fd 80 a1 3d 79 e3 2f 3d 53 c0 01 be e6 41 d2 3d
       0.07885931 0.042941544 -0.12671022 0.102664754
0003f0 c3 d8 2b bd 8a bc 19 3d fb 36 c2 bd 73 95 b2 3d
       -0.041954767 0.03753332 -0.09483143 0.087199114

rnn.bias_ih_l0 f4 [192]
000000 a4 5a 83 3b 2f 91 68 bd 92 68 d4 bd 55 56 c4 bd
       0.004008608 -0.056779083 -0.10371508 -0.09586779
000010 08 ef a9 bd 4e 6a 09 3d 0d 6a 0d be 87 32 02 3c
       -0.08297545 0.033548646 -0.13809986 0.007946617
000020 36 4e a7 3d 51 22 b8 bb b9 49 db 3d 1e 11 a3 bd
       0.081692144 -0.005619325 0.10707421 -0.07962249
000030 45 cf 2d bc 30 54 a2 3c 18 4e 4b 3d 26 19 2d 3c
       -0.010608499 0.019815534 0.049635023 0.010565078
000040 87 30 cd bd 65 4b 0f 3e 45 ee 26 bd 0a 44 95 3d
       -0.100190215 0.13993604 -0.040754575 0.07288368
000050 71 28 75 bc 7a 58 24 3c e5 7c f1 bc 7f 81 c7 bd
       -0.014963255 0.01003086 -0.0294785 -0.09741496
000060 f0 93 b4 3d a1 bd 19 bc 81 17 86 bd 6d 96 93 bd
       0.08817279 -0.00938359 -0.06547452 -0.07206426
000070 db 74 fb bd 15 53 a7 3d 8a 72 a1 bd 57 77 d3 3b
       -0.12278148 0.081701435 -0.07883175 0.0064534354
000080 14 d5 90 bb c7 11 74 bd 44 bc 9c 3d 71 bd ac bd
       -0.004419932 -0.059587266 0.07653096 -0.084345706
000090 26 00 51 3c 99 9d 98 bd 28 43 51 bd c4 96 07 3d
       0.012756383 -0.07451934 -0.051089436 0.033102766
0000a0 f2 4d 87 3d f4 ca c9 3c 27 27 42 3d 76 65 0f bb
       0.06606664 0.024632908 0.04740062 -0.0021880544
0000b0 c1 f1 ec 3d 3a 8a ce 3c 29 c0 9c bd 48 a7 0c bd
       0.115695484 0.025212396 -0.07653839 -0.03433922
0000c0 fd 8d e2 3c cd ce a3 3d 62 0c d3 bd 8f 65 cd bd
       0.027655596 0.079984285 -0.10305096 -0.100291364
0000d0 26 46 65 bd 9e d3 12 be b9 4f 38 bd 0f 0a c1 3d
       -0.055975102 -0.14338538 -0.044997904 0.09425747
0000e0 3b 46 8a 3c 88 bf 2c 3d a3 0f e6 bd 7f 17 c9 bd
       0.016879192 0.042174846 -0.11233451 -0.09818935
0000f0 0e 04 73 3d 09 28 df 3d 1c 18 95 3d 9d 83 39 bd
       0.05933004 0.10896308 0.07279989 -0.04529153
000100 8e c0 46 bd 1a 2f 4c be 89 2a 69 be 96 98 56 be
       -0.04852348 -0.19939843 -0.22770132 -0.20956644
000110 dd 86 27 3d 22 f2 d8 bd 5d 34 e8 bd c2 89 4a bc
       0.0409001 -0.10593058 -0.113381125 -0.012361946
000120 05 b8 25 be cb 29 9b 3d 20 1f e5 bd 89 75 41 be
       -0.16183479 0.07576331 -0.11187577 -0.18892492
000130 65 c2 62 3c 33 2f c5 3d 89 cb c2 3d 81 ba 62 bd
       0.013840293 0.09628143 0.095114775 -0.055353645
000140 d6 bc 83 bc 8d b1 39 3d 74 50 e4 bb 60 1b 39 3d
       -0.016081255 0.04533534 -0.0069675986 0.045192122
000150 b3 01 de 3d 56 85 ef 3c 6d 5f db bd 34 8a 2d be
       0.10840168 0.029238384 -0.107115604 -0.16947252
000160 da 61 7d bd 6b 44 4c be ab 6c b9 3c e7 85 74 bd
       -0.061860897 -0.19947974 0.022634825 -0.05969801
000170 1f 08 cb 3c d3 c7 03 bd f2 64 32 3d 95 94 bc bd
       0.024784146 -0.03217299 0.0435533 -0.09208027
000180 8c 81 b6 bd a5 c9 1b bd f1 ef ed bc 98 03 93 bd
       -0.08911428 -0.0380341 -0.029045077 -0.0717842
000190 9f d5 b6 bd de cd 94 bd 3e 50 be 3b c6 6e 0f bd
       -0.08927464 -0.072658285 0.0058079055 -0.03501775
0001a0 f5 9a 7c be 8e 2b 97 bd fe eb 86 bd d9 36 82 3d
       -0.24668486 -0.07381354 -0.06587981 0.063581176
0001b0 41 57 18 be 4a 4e b3 bd c2 20 96 bc e3 7b 88 bd
       -0.14877035 -0.08755167 -0.018326167 -0.066642545
0001c0 3d b4 b1 bd b1 88 6e 3c ca f4 cf 3d 18 1a 2c 3d
       -0.08676956 0.014558957 0.10154112 0.042017072
0001d0 0b 69 c0 bd c4 0f c8 bd 36 2d 2e bd c2 72 92 3d
       -0.09395035 -0.09768632 -0.042523585 0.071507946
0001e0 25 01 06 be 2f 46 05 bd 04 cb e2 bd 34 5b 9a bd
       -0.13086374 -0.032537635 -0.110738784 -0.07536927
0001f0 36 6c 75 bd 70 34 86 3d 68 95 4f be 63 af e5 3d
       -0.05991765 0.065529704 -0.20271838 0.11215093
000200 3b 8c 3d bd 0e da b9 bc 4e 6d 0c 3d 53 39 2a 3d
       -0.046276312 -0.022686984 0.03428393 0.041558575
000210 0a 60 6d 3b 63 27 47 bd 43 a3 cb bd 04 e1 ba bd
       0.0036220574 -0.048621546 -0.09943249 -0.091249496
000220 e9 d9 b3 bd dd b0 87 3d bb e9 58 bb 4a af 07 3d
       -0.087817974 0.06625531 -0.0033098299 0.033126153
000230 89 fd d1 bd ee 67 28 bd 52 58 a4 bd f3 b0 f4 bd
       -0.10253436 -0.04111474 -0.08024658 -0.11947813
000240 0a d4 cf bd 96 d1 67 bd 41 60 c0 3c 9d f1 af bd
       -0.10147865 -0.05659636 0.023483397 -0.08591006
000250 6a 34 a7 bd 44 15 14 bd c4 7d 94 3d b1 89 c1 bc
       -0.08164294 -0.036153093 0.072505504 -0.023625227
000260 b8 e2 29 3c 52 b7 d1 3d a8 35 92 3d 0e 2c e4 bd
       0.010368995 0.10240044 0.0713914 -0.11141215
000270 d4 18 4d 3d 42 61 ad bd 00 53 2f 3d 7a 53 8b 3d
       0.050072506 -0.08465816 0.042803764 0.06803031
000280 64 40 00 3d 13 f2 9f 3d c8 13 54 bd 6b 96 31 bd
       0.031311408 0.07809844 -0.051776677 -0.04335634
000290 42 ed 3d 3d 44 97 29 bd 3a c1 77 bd 07 fd 8f 3d
       0.046368845 -0.041404024 -0.06048701 0.07030683
0002a0 ee 08 e2 bd d8 a1 a9 bd 2c 6c 71 bd 24 f0 60 bd
       -0.110368595 -0.08282822 -0.05894105 -0.054916516
0002b0 ff c5 0f 3d 9e ff b1 bc d7 be 9d bd b9 3e b8 3d
       0.035100933 -0.021728333 -0.077024154 0.089963384
0002c0 23 32 2c bd a8 3f a6 3d 9f e8 eb 3d 86 a6 a2 bc
       -0.04204 0.0811761 0.11518978 -0.019854795
0002d0 e7 47 c8 3d 42 13 f9 3d eb 64 80 bc 97 c3 81 bd
       0.09779339 0.12161876 -0.015673121 -0.06336134
0002e0 6b fd 81 bd 34 cd 8d bc 38 41 b2 3d a2 1f d3 3d
       -0.06347164 -0.017309763 0.08703846 0.10308768
0002f0 be 33 db bd 30 fa ad bc cc ed a4 bd e5 7e 30 bd
       -0.107032284 -0.021237463 -0.08053169 -0.043089766

rnn.bias_hh_l0 f4 [192]
000000 a6 5c 92 3b 28 96 bc bc 82 87 ea 3d dc 4e 01 bc
       0.004466611 -0.023020819 0.11451627 -0.007892337
000010 f2 44 2d 3d d9 dc ee bc 8c 0d 00 bd 19 11 b1 3a
       0.04230208 -0.029158043 -0.03126292 0.0013509124
000020 c2 52 ec 3d 1e 34 b4 bc f8 48 49 bd 32 ab 02 bd
       0.11539222 -0.021997508 -0.049141854 -0.031901546
000030 0a ca 74 3d 22 2b ac bd 7b 4f fc bc 42 d0 c2 3d
       0.059762992 -0.084066644 -0.030799618 0.09512378
000040 e9 e3 91 bd 23 ac 02 3d 45 7f 03 3e 84 bf 8d 3d
       -0.071235485 0.031902444 0.12841518 0.06921294
000050 9d cf 78 3d 59 ff 86 bd 69 95 89 bd b7 50 c3 3d
       0.06074487 -0.065916725 -0.06717951 0.095368795
000060 05 33 00 3d 18 9a fb 3b a4 76 ce 3c 5f 70 8e 3b
       0.031298656 0.0076782815 0.025203057 0.004346892
000070 d5 ac 8a 3d 70 a3 03 bb e2 53 7b 3d e3 3d 41 3d
       0.06771246 -0.002008643 0.061359294 0.04717816
000080 49 16 72 bd da 01 f2 3d 00 d1 8f 3d c8 5c 31 bc
       -0.059103284 0.118167594 0.070222855 -0.010825343
000090 bc 9c 00 3e 6b 2d c2 bd a3 61 07 3b e4 92 f4 bc
       0.1255979 -0.09481319 0.0020657561 -0.0298552
0000a0 d6 cd dd bd be 7f 72 3b 83 d7 5b bd 7e fc 85 3d
       -0.10830276 0.003700241 -0.053672325 0.065423
0000b0 ed 92 8b bd 15 68 d9 3d bd 20 97 3d 4d 39 e6 3c
       -0.06815133 0.10615555 0.07379291 0.028103495
0000c0 ae ca 6e 3c a6 f9 36 bd e8 c3 b0 3d 62 b6 56 3d
       0.01457469 -0.044671677 0.08631116 0.052420028
0000d0 20 7c 14 3c e0 79 03 be 71 2b 7e 3d 47 95 d4 bd
       0.009062797 -0.1283946 0.062053148 -0.10380035
0000e0 ad 7d 2e 3d 6b 4d d9 bd 26 c6 4c 3d 77 08 df bd
       0.042600323 -0.106104694 0.049993657 -0.108902864
0000f0 da 6e 10 be 15 ed c1 3d 0e 53 54 3a 82 20 81 3d
       -0.14104787 0.09469048 0.00080995343 0.063050285
000100 04 2c b9 3c b2 22 73 bd 37 ee 88 3b 3c 4c 23 be
       0.022603996 -0.05935926 0.004178788 -0.1594705
000110 53 e1 30 bd 56 43 1e be cd cb d4 bc fa 39 b1 bd
       -0.043183636 -0.15455374 -0.025976086 -0.08653636
000120 47 41 3d 3d a1 6f 04 bd 6d 07 04 bd 58 51 20 3d
       0.04620483 -0.03233302 -0.032233644 0.039140075
000130 0b b2 25 3c 5d 79 aa 3d 65 e6 d2 3d d4 c6 be 3c
       0.0101132495 0.083239295 0.102978505 0.023288168
000140 9d a0 0d be 5a b9 3c bc ef 9e 5f 3c 30 9f 82 3d
       -0.138308 -0.011518801 0.013648733 0.06378019
000150 ce 2c b4 3b 69 f4 90 bd bf b7 b4 bd 19 1e a5 3b
       0.005498505 -0.070778675 -0.08824109 0.0050389883
000160 ac c8 fe bd 2c fb af bd 6e 08 8f 3b e1 59 3d bd
       -0.12440619 -0.08592829 0.0043650186 -0.046228293
000170 a4 45 31 be 78 58 d7 bd d2 54 ba 3c 1d 14 95 bd
       -0.17311722 -0.10514921 0.022745524 -0.07279227
000180 da d9 de bd cf 75 d9 3d 12 72 72 bb 88 62 68 bd
       -0.10881396 0.10618173 -0.003699426 -0.05673459
000190 d9 42 07 be 4f 33 99 bc 48 ad 88 bd 29 83 eb bc
       -0.13209094 -0.018701224 -0.06673676 -0.028749065
0001a0 7d 5b 9a be d1 40 6b 3d e5 9b 03 3d ed eb c5 3c
       -0.30147925 0.05743486 0.032131094 0.02416035
0001b0 44 c1 fe bd db fc 08 be ae 76 e6 3c 8a ed 0c be
       -0.12439206 -0.13377707 0.028132763 -0.13762489
0001c0 c7 96 85 3b 53 9d 87 3d 9c d7 1f bd 8e 16 d8 bc
       0.004076812 0.06621804 -0.03902398 -0.026377942
0001d0 46 0c a0 be 01 51 11 be d8 50 28 be 74 36 96 3b
       -0.31259364 -0.14191057 -0.1643709 0.004584128
0001e0 7d a5 bf 3c 05 f5 91 bd c8 ad 04 be 0e 3b 42 bd
       0.02339434 -0.07126812 -0.12956917 -0.0474196
0001f0 d2 91 cd bd 44 5a 22 bc 23 a8 04 be 0f 8a c7 bd
       -0.10037579 -0.009909216 -0.12954764 -0.097431295
000200 a1 f0 3f 3d cf 38 07 bd 3d 61 c7 3d b8 25 91 bc
       0.04686034 -0.03301316 0.097353436 -0.017718181
000210 55 a6 88 bb 56 fe 9d 3d ef 7c cc 3c 0e c6 e6 3d
       -0.004170219 0.07714526 0.024961917 0.11268245
000220 ef e8 87 3c 6a 3f 2c bd 57 16 1b bd 8b 05 cc 3d
       0.016590564 -0.042052664 -0.0378631 0.09961995
000230 16 fd e9 bd 08 5e 8d 3d d1 b3 70 bc 16 74 de 3c
       -0.114252254 0.06902701 -0.014691309 0.027154963
000240 7c de ed 3d e3 2a 11 3d 75 37 35 bd 4b cb b8 3d
       0.11614701 0.03544129 -0.04424234 0.0902315
000250 9c 17 3e bc 3f 70 73 3d 35 13 c2 3d d4 c0 c5 bc
       -0.011602309 0.059433218 0.0947632 -0.0241398
000260 bc 45 90 3d 00 2d c9 bd f0 19 30 3d bd a4 f5 3c
       0.07044551 -0.09823036 0.042993486 0.02998578
000270 b2 0c d8 3d f6 bf dd bd e0 9a 82 3c 7c 1b 77 3c
       0.105492964 -0.10827629 0.01594299 0.015082236
000280 6a df 20 bc d4 c7 c6 bd f1 e8 be bc 31 27 89 bd
       -0.009818891 -0.09706083 -0.023304434 -0.06696928
000290 78 b9 43 bc c0 27 71 bd 09 91 4d bd 52 58 aa bd
       -0.011946075 -0.0588758 -0.050187144 -0.08317627
0002a0 6c 69 3e 3d 73 21 c2 3c 37 14 a4 3d 1c 1b 86 b9
       0.046487257 0.02369759 0.08011668 -0.0002557867
0002b0 bb c5 c6 bd 33 ea c4 3d 08 7c 95 3c 35 87 72 bc
       -0.09705683 0.096149825 0.01824762 -0.014802744
0002c0 76 51 03 bb 0b d4 49 bd 08 14 fd 3c 1a c6 33 3d
       -0.0020037568 -0.049274486 0.03089334 0.043890096
0002d0 d8 0c e0 bc 5e 6a 7a bc d1 91 bf 3d 5c a3 2a 3c
       -0.027349874 -0.015284149 0.09353984 0.0104149245
0002e0 b5 56 42 bd 81 68 c5 bd 32 4d f7 bb e9 1d fc 3d
       -0.04744597 -0.09639073 -0.007547044 0.123103924
0002f0 3a 12 c8 bc 2c 61 05 bd 8c d5 d5 bc 22 b3 24 3d
       -0.024422754 -0.032563373 -0.026102804 0.040209897

rnn.weight_ih_l1 f4 [192, 64]
000000 ce 72 cd bd 80 91 e8 bc b3 bb 7c bd d1 db bd 3d
       -0.10031663 -0.028389692 -0.06170244 0.09270442
000010 a7 48 11 bd f2 06 e7 bd a3 89 5b 3d 31 0a d4 bd
       -0.035469677 -0.112806216 0.053598057 -0.10353506
000020 77 65 c1 3d 20 d0 9e 3d b7 03 14 bd 79 60 a3 3b
       0.09443181 0.077545404 -0.036136355 0.0049858657
000030 50 9a d5 3d f4 77 35 3d 46 53 08 bd b9 59 0b 3d
       0.104298234 0.04430385 -0.03328254 0.034021113
000040 a4 d0 e0 bc 52 bc f4 3b 98 86 e1 bd a9 ca 3e bd
       -0.027443238 0.0074687386 -0.11012 -0.04657999
000050 66 7a b4 bd 78 82 ba 3d 4a 90 b6 bc 97 d9 93 3c
       -0.08812408 0.09106916 -0.0222856 0.01804809
000060 59 e4 bd bd aa 17 8d 3d c4 59 97 bd e2 d9 a0 bc
       -0.092720695 0.06889279 -0.07390168 -0.019635145
000070 21 27 60 bd 03 33 92 3c eb 9d 30 3d fb 5f a8 3d
       -0.054724816 0.01784659 0.043119352 0.08221432
000080 23 b2 5a 3d 0d 3c 94 3d 1a 59 ab bd e0 4e 8c bd
       0.05339254 0.07238016 -0.08366604 -0.06850982
000090 2b 22 65 bd 5c 26 d8 bd 9c 0c 75 3d e7 94 f3 3d
       -0.05594079 -0.105541915 0.05982648 0.11893635
0000a0 db e5 9d 3d 6e 22 69 3d 31 66 76 3b 6e d2 ca 3d
       0.07709857 0.0569176 0.0037597532 0.099034175
0000b0 84 81 a6 3c 34 f8 16 bd 8b f2 91 3d 1a 5d 4e bd
       0.02032543 -0.0368578 0.071263395 -0.050381757
0000c0 67 5d 63 bd 46 1a 60 bc 21 aa a3 3d f8 1d 3d 3d
       -0.055508997 -0.013678139 0.07991434 0.04617116
0000d0 6f df 78 bc 9a bc b0 bd 00 b8 30 bd 03 84 db bd
       -0.0151899895 -0.08629723 -0.043144226 -0.107185386
0000e0 e8 8e 27 bd 9a f3 04 bd fb 1f 40 3d 70 ab 51 3d
       -0.04090777 -0.03245888 0.0469055 0.051188886
0000f0 19 ce 9b 3d 0a 1b 8a bd 64 f3 f9 bd a1 93 9f 3d
       0.076076694 -0.067434385 -0.12204626 0.0779183
000100 76 63 af bd 24 42 05 bd 63 f0 07 3c b7 56 d7 3c
       -0.085638925 -0.03253378 0.008297059 0.026286466
000110 0d 30 89 bc 31 9c 64 3d 4e a7 ab bd 31 f9 b1 3c
       -0.016746545 0.05581302 -0.0838152 0.021725269
000120 f7 f5 bc bd ae e1 68 3d 30 76 28 3d b1 e8 3d bd
       -0.092266016 0.05685585 0.041128337 -0.04636449
000130 3d 3d 89 bd ce f1 09 3d a6 2c e8 bc 5b 1f 58 3d
       -0.067011334 0.03367787 -0.028341603 0.052764278
000140 c8 39 4b 3d b3 25 f2 3c 93 7c 8d bd 55 bb ab bd
       0.04961565 0.029558992 -0.06908526 -0.0838534
000150 51 7e db bd 3c af 12 bd 20 15 85 3d 7f 19 4d 3d
       -0.10717452 -0.035811648 0.0649817 0.050073143
000160 ea b8 d5 3d 7a 1e 43 3c 7c 19 f8 bb 16 18 88 bd
       0.1043566 0.011909122 -0.0075713973 -0.06645219
000170 aa 5b de 3d ef 71 e2 bd 9b bf b1 bd c3 ee 4f bd
       0.10857327 -0.11056887 -0.08679124 -0.05076481
000180 66 4e ac bd f5 5f 25 bd 9c ab b4 bc 9d 56 89 3d
       -0.08413391 -0.040374715 -0.022054486 0.06705973
000190 27 83 dc 3d 69 e4 dd bb c8 a1 b0 3d c1 c4 b0 3d
       0.10767203 -0.0067716134 0.08624607 0.08631278
0001a0 0c fe 04 be de a1 ad 3d b1 58 ca bd 12 33 44 3c
       -0.12987536 0.08478139 -0.09880198 0.011975067
0001b0 79 27 fd 3d 43 7b 02 3c e5 b8 49 3d 8b bc 07 bd
       0.123610444 0.007963958 0.049248595 -0.033138793
0001c0 4d 58 98 3a 07 e8 14 3b 91 58 81 3d 2e dc cb bd
       0.0011622995 0.0022721307 0.06315721 -0.09954105
0001d0 5e 6e 51 bd 0e c2 cc bc 74 82 f0 bc 9c 15 bd bd
       -0.051130645 -0.024994876 -0.02935908 -0.09232637
0001e0 68 9d 31 3d b7 e7 dc 3d 86 b6 70 3c 49 9e bc 3d
       0.043363005 0.107863836 0.0146919545 0.09209878
0001f0 b9 7b 96 bc 1b d3 7a bd 0d 67 33 3d 8f 78 e4 bd
       -0.018369542 -0.061236482 0.04379945 -0.11155807
000200 f3 fd 9a bd 70 9a 12 3d 50 b5 c9 3a be 0f e7 3d
       -0.07567968 0.035791814 0.0015389118 0.112822995
000210 88 f6 b9 3b 70 53 e2 3c 55 60 8a bd 3c 5a 72 3d
       0.005675141 0.027627677 -0.06756655 0.059168085
000220 6a 8a 90 3c e0 09 8a bd 5e c7 88 bd be a4 c8 bd
       0.017644126 -0.06740165 -0.06678651 -0.09797047
000230 96 99 5c bd 33 ed 8a 3c 56 3f 69 bd 5b 41 83 3d
       -0.05385741 0.016958809 -0.056945167 0.0640895
000240 0e d9 fe 3d eb 7e d8 3d 8f f4 e8 bd 58 fb 53 bd
       0.12443744 0.10571083 -0.11374771 -0.051753372
000250 12 64 ea 3d 8b b8 92 3d f6 4d 03 be c2 34 17 3b
       0.11444868 0.07164105 -0.12822708 0.0023072218
000260 98 8b 44 bd a8 b8 d8 3c e0 b9 a5 bc af b6 b1 3d
       -0.04798469 0.026455238 -0.020230234 0.08677422
000270 fd 24 6d 3d 1e c1 a8 3d 4a ec 31 3d bc bc 8b bd
       0.057896603 0.08239959 0.043438233 -0.068231076
000280 9e a1 e2 3d bf b5 86 3d db f1 d0 3d 72 1a a2 bd
       0.11065982 0.06577634 0.1020238 -0.079152
000290 06 1e ff bd 9f a9 15 3c 57 63 9b bd d8 48 92 3c
       -0.124568984 0.009134679 -0.07587307 0.017857
0002a0 aa a5 94 3d 50 b7 f8 bd d6 4c a5 3c ed b0 bb bc
       0.072581604 -0.12144339 0.02017824 -0.022911513
0002b0 b6 79 6b 3d 32 d9 95 3d 6a 4d 29 bd 4c 41 e5 bd
       0.05748912 0.07316817 -0.041333593 -0.11194095
0002c0 f6 11 9e 3d 22 47 81 bd 98 26 79 3d 08 e4 0b 3b
       0.077182695 -0.06312396 0.06082782 0.0021345634
0002d0 02 28 65 3d f6 2f 35 3d 73 21 f2 bd 0d d4 c4 bd
       0.055946358 0.044235192 -0.11822786 -0.09610758
0002e0 8d 43 f2 3c 65 2b bd bd bc 54 92 bd 9b 4c 1c bd
       0.029573226 -0.092367925 -0.07145068 -0.038158994
0002f0 16 b2 b9 bd c2 a7 90 bd ba e6 50 3d 34 a3 f2 bc
       -0.0906717 -0.07063247 0.051001288 -0.029618837
000300 f5 74 50 3c 4f 24 bf bd 98 45 91 3c 78 2b 74 bd
       0.012723197 -0.09333097 0.01773338 -0.059611768
000310 e3 36 4b 3c ff d5 7a bd b9 9b de 3d 90 8a 84 bc
       0.012403223 -0.06123924 0.108695455 -0.016179353
000320 ae 2c bc bd a8 ae e5 3d ec ee 1e bd 83 85 3b 3d
       -0.091882095 0.11214954 -0.038802072 0.045781624
000330 42 1d 3f 3d 50 d5 a1 3d 57 e9 8e 3d ce 9e a3 bd
       0.04665876 0.07902014 0.069781 -0.07989274
000340 1a b6 fc bd 06 7f b7 bd 55 b2 84 bb 8b 8d bd 3c
       -0.123394206 -0.08959775 -0.004049579 0.023138782
000350 af 2b 90 bd 4d b3 9c 3d ac 2f 8c 3d 34 54 ab 3d
       -0.07039582 0.076513864 0.0684503 0.0836567
000360 27 99 b2 3d 17 f9 19 3d 41 48 34 bd 6e 8b 6d 3a
       0.08720618 0.037591066 -0.04401422 0.0009061609
000370 70 da cb bd 2a f4 f5 3b f2 2a e1 bd 04 10 ea bd
       -0.09953773 0.0075059133 -0.10994519 -0.11428836
000380 62 73 56 bd cd 40 48 3d 9b 24 62 3d 9f d1 d2 3d
       -0.05235613 0.048889924 0.05521069 0.10293888
000390 d2 01 c4 3c a1 fa 07 3d c9 67 01 be 9b c5 df 3c
       0.02392665 0.033198003 -0.12637247 0.027315905
0003a0 24 ee 92 bc 09 e3 a7 bd a2 88 3a bb 57 2a 1e bc
       -0.01793582 -0.081976004 -0.0028462787 -0.009653649
0003b0 09 04 d5 bd 7f b4 8a bc 51 18 51 3d 60 00 93 bd
       -0.1040116 -0.01693177 0.05104858 -0.07177806
0003c0 64 91 db bd 6b 15 6c 3d 00 8e 86 3c 76 a0 5b bd
       -0.107210904 0.057637613 0.016425133 -0.053619824
0003d0 98 d0 8c bd 9b cb ce bd 4b 8f 3c 3d 28 93 9b bb
       -0.068757236 -0.100974284 0.046035092 -0.004747767
0003e0 92 9d 01 be 6c 00 f3 bc c4 49 e2 bd 3b 38 06 bd
       -0.12657765 -0.029663287 -0.11049226 -0.03276847
0003f0 b9 55 56 3d f7 c6 a4 bd e9 1b 62 3c c3 ec 50 bd
       0.052327845 -0.08045762 0.0138006 -0.051007044

rnn.weight_hh_l1 f4 [192, 64]
000000 0d 97 74 3d db da 27 3d 8e 19 be bd 04 12 06 bd
       0.059714366 0.0409802 -0.09282218 -0.032732025
000010 3c e3 27 bd 5c ea cd 3d aa 7b e9 bd 91 53 32 3d
       -0.040988192 0.10054466 -0.1140054 0.043536726
000020 dd a8 cd 3c e2 9c dd 3c b6 7b 18 3c 4d ed a3 bd
       0.025104934 0.027052347 0.009306839 -0.08004246
000030 e7 f4 ce 3d 70 3b b7 bd 4b 69 d5 3d 73 64 82 bd
       0.10105305 -0.08946884 0.10420474 -0.063668154
000040 6f ba f9 bc bc ef bb 3d 2e 2e 09 3e 9c ba b3 bd
       -0.030484406 0.09176585 0.13396522 -0.08775827
000050 f4 05 c2 bb 58 66 83 3d 60 ac 53 3d b8 59 8e bd
       -0.00592112 0.06416005 0.05167806 -0.06950706
000060 fe 5f c2 bb c3 11 ab 3c 3e 02 1f 3c 5d a8 8e 3d
       -0.0059318533 0.020882493 0.009705124 0.069657065
000070 ea ec d0 3b b2 50 8f 3d bd 9d 2c 3d ff 88 e3 3d
       0.0063758986 0.06997813 0.04214262 0.11110114
000080 e1 e0 84 3c 2a e6 e6 bd f2 54 cc bd 2a 17 0f bc
       0.016220512 -0.11274369 -0.099771395 -0.00873355
000090 39 96 3c 3d e0 51 95 bd d5 74 30 3d 34 67 7c 3c
       0.0460417 -0.07291007 0.04308017 0.015405465
0000a0 93 ed c0 3d f9 6a d4 3d 04 97 db 3d 3d c7 ee 3d
       0.09420314 0.10371966 0.10722163 0.116590954
0000b0 1f ff d3 3c 24 51 91 bd 21 db a2 3c 79 43 1f 3d
       0.025878487 -0.070955545 0.01987988 0.038882706
0000c0 e4 ad e6 3d 12 b7 dc 3d bc 11 b1 bc 56 f0 02 be
       0.11263636 0.107771054 -0.021614902 -0.12786993
0000d0 85 39 db bd a8 b5 ad bd 15 b0 ea bc 21 e7 45 bc
       -0.1070433 -0.08481914 -0.028648416 -0.012079031
0000e0 d0 03 a7 3c 72 21 d3 bd 3d 03 81 3d 26 60 ca bd
       0.02038756 -0.103091136 0.06299446 -0.0988162
0000f0 12 5c 24 bd f0 67 05 3c 51 3f e9 3d 95 ee a8 bd
       -0.040126868 0.008142456 0.1138903 -0.08248631
000100 75 2c 9f bd 14 2f 50 3c bc f2 52 bd e9 9d 28 bd
       -0.077721514 0.012706537 -0.05150102 -0.04116622
000110 dc 9f b0 3a 87 80 84 3d dc 29 c0 bc f1 c2 4d bd
       0.0013475376 0.06469827 -0.02345746 -0.05023474
000120 3a 6f cb bc 20 bb fc bc 9e 1b 89 3d 1c 59 3b 3d
       -0.02483331 -0.030850947 0.06694721 0.04573928
000130 8d bf d8 bd 16 43 3d 3d 0a 72 5f bd bf 88 97 bd
       -0.105834104 0.046206556 -0.054552115 -0.07399129
000140 a7 69 6b 3d 37 6f 26 3d 9d b9 07 3d bd ef 8e bd
       0.057473805 0.040633406 0.033136 -0.0697932
000150 a8 c5 5c 3d 09 95 bf bd 98 a5 e7 bd dc a9 04 3c
       0.053899437 -0.09354598 -0.113108814 0.008097138
000160 df f8 7c 3d 15 c2 95 3d 57 20 df bd 5a 19 aa 3d
       0.06176078 0.07312409 -0.1089484 0.08305617
000170 32 8b b5 3c 3e 54 50 bc 7a bf 41 3d c9 24 46 bd
       0.0221611 -0.012715397 0.047301747 -0.048374925
000180 e7 71 8a 3c 96 f8 e7 3d d4 91 3f bc f8 d2 81 bd
       0.016900016 0.11326711 -0.011692483 -0.06339067
000190 53 ae c5 bd 31 ff 67 bd bb 58 92 bd b6 db e8 bd
       -0.0965239 -0.056639854 -0.0714583 -0.113700315
0001a0 db c1 e7 bd db 1f fd bd ae 0a 9e 3d 6e 1c 2b bc
       -0.11316272 -0.123595916 0.07716881 -0.01044379
0001b0 fd 17 6a bc b7 02 9f 3b 7a 42 24 3d 3d 5d f0 3d
       -0.014287946 0.0048526186 0.04010246 0.11736534
0001c0 1b 51 89 3d 4b e5 d9 bd 73 4b e1 3d e1 45 a9 bd
       0.06704923 -0.10639437 0.11000719 -0.082652815
0001d0 34 3c 9e bd 12 9b 9c bc 48 95 bc 3c 23 d3 10 3d
       -0.077263266 -0.019116912 0.023020402 0.035357606
0001e0 44 5a 01 3d b6 83 56 bd 35 60 89 bd 6f 5c e0 3b
       0.031580225 -0.052371703 -0.06707803 0.0068469564
0001f0 d1 f8 87 bc ee 5b 0e 3d 6b b5 58 3d 81 84 fc bd
       -0.016598137 0.03475564 0.05290739 -0.123299606
000200 8c 08 96 3c 8b 57 4a bb 2b 2b 99 3d 53 e8 08 be
       0.018314622 -0.0030874934 0.07478937 -0.13369875
000210 c1 25 86 bd ea 2e 25 bb cd 7f dc 3c b5 f3 81 3d
       -0.0655017 -0.0025204965 0.026916409 0.063453116
000220 d5 11 90 3d 62 40 ee bd 9e 42 bf 3d 6a 55 bc 3d
       0.07034651 -0.11633374 0.09338878 0.09195979
000230 3e 89 39 3c 29 1a d2 bd ba e1 d9 bd fc 1d 9b 3d
       0.011324225 -0.10258896 -0.10638757 0.075740784
000240 88 b5 93 3d 23 82 4b 3d ff 12 da 3d a0 66 58 3d
       0.07212359 0.049684655 0.106481545 0.052832246
000250 13 9c 3e 3d 8d d5 39 bc 00 74 83 3c c0 f3 c8 bd
       0.046535563 -0.011342418 0.016046524 -0.098121166
000260 50 48 ac 3d bb db 08 bd 21 3a bb bd 3e c0 d1 3d
       0.0841223 -0.033412676 -0.091419466 0.102417454
000270 fb 15 81 3c 3b 8d a0 bd 35 77 11 bc 8d 25 e8 3c
       0.015757551 -0.078394376 -0.008878519 0.028338218
000280 c4 0f e8 bd 07 7d 6d 3d 66 5f 27 bd db ae cb 3d
       -0.11331132 0.057980563 -0.040862463 0.099454604
000290 db 6b 00 be e3 83 eb 3d 47 c0 80 3d 31 a9 9d bc
       -0.12541144 0.11499765 0.06286674 -0.019245716
0002a0 4a 72 f5 3d 53 6c eb bd e0 90 da bd b0 f8 5e bd
       0.119846895 -0.114952706 -0.10672164 -0.054436386
0002b0 94 ec ec 3d be f8 fc 3d c8 cb 09 3d 56 57 35 3d
       0.11568561 0.12352131 0.033641607 0.044272743
0002c0 08 d2 09 bc b4 9e de bd 17 e2 02 3e 43 4d 31 bd
       -0.008411892 -0.10870114 0.12781559 -0.043286573
0002d0 3b a8 7e bc b9 41 a0 bd 0b c5 21 3d b1 6c cf bd
       -0.015543039 -0.078250356 0.039494555 -0.10128153
0002e0 65 f4 9b 3a 2c bd 3d 3d 4e 3b e5 bd 60 84 28 3d
       0.0011898397 0.046322986 -0.11192952 0.041141868
0002f0 74 c3 a4 bd d0 76 5f bd 50 ec c2 3c d4 1a da bd
       -0.08045092 -0.054556668 0.023794323 -0.10649648
000300 62 69 94 bc ee 43 cc bd e2 f7 93 bd a5 7c e6 bc
       -0.018116657 -0.09973894 -0.07225014 -0.028135607
000310 f8 ec c6 bd a5 b6 da 3d 10 bd 3b 3d b8 bc 3a bc
       -0.09713167 0.10679368 0.0458346 -0.011397533
000320 f2 b8 eb bd 4c 46 b4 bd ef 26 e1 bd 7b 09 33 3d
       -0.11509885 -0.088024706 -0.10993754 0.043710213
000330 82 fa 2d 3d bd e9 e0 3d da 7d cc bd 4b 54 da 3d
       0.04247523 0.10982082 -0.09984942 0.10660609
000340 3a f1 e1 bd a1 df 1f 3d 6c 86 39 bd ff 29 bf bd
       -0.110323384 0.03903163 -0.04529421 -0.09334182
000350 a0 af 8d bd 65 e8 6b 3d dd be cf 3d 61 ed 31 3d
       -0.069182634 0.057594676 0.10143826 0.043439273
000360 67 08 d1 3d 34 b5 86 3d c2 97 41 bd 49 27 7e bd
       0.10206681 0.065775305 -0.04726387 -0.062049184
000370 29 b3 dc 3d 01 98 80 3c d1 07 c4 bc 90 e8 ad bd
       0.107763596 0.015697481 -0.023929508 -0.084916234
000380 ba 84 46 bd d5 00 9d 3d 96 98 dc bd 76 3e 06 be
       -0.04846642 0.07666174 -0.10771291 -0.13109764
000390 bb ce 03 be da 27 ad bd 8a 8a 99 3b cb c0 c9 bd
       -0.1287183 -0.08454867 0.0046857046 -0.098512255
0003a0 2e 3c bc 3d 77 c8 ab bd 7e 64 a1 bd 89 9b a8 3d
       0.09191166 -0.08387845 -0.078804955 0.08232791
0003b0 8d 64 ea bd 16 cf a5 3c b2 a9 c3 bd c5 1e 78 bd
       -0.1144496 0.020240348 -0.09553851 -0.06057622
0003c0 0f 2f cd bd d5 c9 9d 3d cb 8d ed bd 52 f4 bf bd
       -0.10018741 0.07704512 -0.115993105 -0.09372772
0003d0 f1 36 92 3d a6 a9 f7 3c a8 41 08 bd 12 58 d3 bd
       0.071393855 0.030232262 -0.03326574 -0.103195325
0003e0 5d d3 39 bc a2 89 90 3d 27 6a b8 3d bd 55 79 3d
       -0.011341897 0.070575014 0.09004622 0.060872782
0003f0 56 4a ba bd 3b 9b 1c bd cb bb 3c 3d 49 e7 86 3d
       -0.0909621 -0.038233977 0.04607753 0.06587083

rnn.bias_ih_l1 f4 [192]
000000 bd 05 74 3d c1 db 93 bd f0 51 07 3d c6 eb 67 3d
       0.059575785 -0.07219649 0.033037126 0.056621335
000010 54 14 70 bd 37 93 ca 3b c5 89 ad bd 7b 46 c0 bd
       -0.058613136 0.0061821 -0.08473543 -0.09388443
000020 7c cd b6 3c f7 0e e6 bd 7d a0 b8 3d 78 dc 93 bd
       0.02231478 -0.11233323 0.09014986 -0.072197855
000030 4c 22 da 3d 8f ed 84 bc a3 de b4 bd a0 cb 83 bd
       0.10651073 -0.016226558 -0.08831527 -0.06435323
000040 8b f8 63 3c ab 5a 85 bd b6 17 b4 bd 0b cd d4 bd
       0.013914238 -0.06511434 -0.08793585 -0.10390671
000050 c5 17 6a bc e2 f9 ab 3d 2c cb 10 bd 6a b5 e3 3d
       -0.014287894 0.08397271 -0.03535001 0.11118586
000060 67 46 96 3d 78 ae 02 be d6 af bf 3c cd 21 b3 bd
       0.07337647 -0.12761867 0.023399275 -0.08746681
000070 e2 25 cb 3c 5f ad 54 bd 3b 28 f5 bd c0 9e 99 3d
       0.024798337 -0.051923152 -0.11970564 0.07500982
000080 64 6a 92 bd 99 c2 6c bd 2e 5c d4 bd ed 33 94 3d
       -0.07149199 -0.05780277 -0.103691444 0.072364666
000090 94 c6 73 3c 7c 3e 86 bd f4 4e ed 3d cc e3 9b bb
       0.014878888 -0.06554887 0.11587325 -0.00475738
0000a0 17 f7 ca 3d 4d 46 61 bd e9 50 3c 3d 94 61 c9 bd
       0.0991041 -0.054998685 0.0459756 -0.09833065
0000b0 ea 98 df 3c 99 93 d5 3d 0f 3c bd bd 09 29 b4 3d
       0.027294595 0.10428543 -0.09239971 0.08796889
0000c0 52 0b bf bd cd 94 20 3d 1b 29 4a bd d2 8e db bd
       -0.09328331 0.039204407 -0.049355607 -0.107206
0000d0 2f 75 be 3d 24 8e 4d 3c d1 c2 b1 bd 3a 11 81 3d
       0.09299695 0.012546096 -0.086797364 0.06302114
0000e0 e2 ec b3 bd 5b 4c a8 3d a8 97 0b 3d ab 60 b7 3d
       -0.08785416 0.08217689 0.034080178 0.08953985
0000f0 45 d4 3b bc 9e 33 d3 3d cb f2 86 bd 60 bf 4b 3d
       -0.011464183 0.103125796 -0.06589278 0.049743056
000100 7a 91 32 be 24 d3 a5 3b 34 1b 46 3c b9 5c 41 be
       -0.17438307 0.0050605703 0.012091447 -0.18883027
000110 c5 d6 dd bd 78 99 cd 3c f1 e8 d8 bd c5 7f 01 3d
       -0.1083198 0.025097594 -0.10591305 0.03161599
000120 1c 89 3b 3d f7 b6 91 be 7b d4 94 bd 42 f3 b7 bd
       0.045785055 -0.28459904 -0.0726709 -0.089819446
000130 c6 56 6c 3b d1 4b 36 bd 97 e1 e5 bc 78 8d cf 3d
       0.0036062463 -0.044505898 -0.028061671 0.10134405
000140 11 96 a4 bc 23 50 a0 3c 6a 3d c8 bd 8c a1 49 3d
       -0.020091088 0.019569462 -0.09777339 0.04922633
000150 b8 6e ef bb 56 8e da bd 67 50 4d 3d 6b 46 d2 bd
       -0.0073069 -0.1067168 0.050125506 -0.102673374
000160 68 0a 10 3d 39 aa 58 3c f9 93 2f be 88 88 61 3c
       0.035166174 0.013224178 -0.17146291 0.013765462
000170 3e dc c7 bd f1 ce 06 3d 36 f1 a0 be bb 34 27 be
       -0.09758805 0.0329122 -0.3143403 -0.16328709
000180 65 6e 8e 3d ae fe eb 3d a2 0a 2a 3d 3b ce d1 bd
       0.0695465 0.11523186 0.041514046 -0.102444135
000190 d9 85 a9 3c 60 96 8f bd e3 e7 98 bd ca 9c c2 b9
       0.020693706 -0.07011104 -0.07466104 -0.0003711938
0001a0 34 83 9a 3d 5e 62 87 bc f7 20 e1 3c 90 89 53 3d
       0.07544556 -0.016526397 0.02748154 0.05164486
0001b0 32 a8 89 3d 47 75 85 3d 57 2f 96 bc 18 8f f0 3d
       0.06721534 0.065165095 -0.01833312 0.11746043
0001c0 51 bc fd 3d c7 e1 6c be 1f a5 05 be 20 65 50 bd
       0.12389434 -0.23133002 -0.1305127 -0.05087769
0001d0 37 f9 d4 3d 6b 8d 90 bd b9 84 da bc ce 30 05 bd
       0.103990965 -0.07058223 -0.026674615 -0.032517247
0001e0 aa eb b4 bd 1d 0b 9e 3d bf 79 dd 3d 78 e0 44 3a
       -0.08834012 0.077169634 0.10814237 0.0007510255
0001f0 37 68 d5 3c 08 f4 cd bd dc d9 c9 bc d9 00 2f bd
       0.02605067 -0.10056311 -0.024640016 -0.042725418
000200 07 ad e6 bd 48 80 55 3d fa 4f c9 3d 81 2f dd 3d
       -0.11263471 0.05212429 0.098297074 0.10800076
000210 4a 71 45 bb 27 07 8c bc ee 71 61 3c 7a 49 c1 bc
       -0.003012734 -0.017093254 0.013760073 -0.023594607
000220 02 5e fe 3d 4a c6 0a bd f5 93 c7 bd 7a 4a f5 bd
       0.12420274 -0.03388051 -0.097450174 -0.11977096
000230 b3 df 41 3d be 72 4c bd ba fd d8 bd db af 89 bd
       0.047332477 -0.049914114 -0.105952695 -0.06722995
000240 7a cb fb bd 9d 23 98 3d 34 14 65 bd ac e2 37 bd
       -0.122946694 0.07428668 -0.05592747 -0.044893906
000250 e8 b9 f2 3d f8 8b df bd 7a c6 36 3d 79 c5 89 bd
       0.11851865 -0.10915369 0.044622876 -0.06727118
000260 a3 0b 76 bd 1c 7d 8a bd d0 ba c0 3d 12 4a ba 3d
       -0.06006969 -0.06762144 0.09410632 0.09096159
000270 be a1 0f bd 02 79 b0 bd c3 61 1a bd dc bc c4 3c
       -0.03506636 -0.086168304 -0.03769089 0.024015836
000280 48 60 41 bc 97 14 94 bd c2 07 9a 3c 9d 43 92 bd
       -0.01180274 -0.0723049 0.018802527 -0.071418025
000290 5c 76 ab 3c 91 45 05 bd f7 1c cf bd 4e 72 ab 3d
       0.020930462 -0.032537047 -0.101129465 0.08371411
0002a0 58 30 45 bd b1 ab df bd 7a 9f 6d 3d a0 9d a7 bb
       -0.048141807 -0.109214194 0.058013417 -0.005115226
0002b0 6a c1 e6 3d 01 5a f5 bd 51 f6 c9 3d 15 74 ea bd
       0.112673596 -0.119800575 0.09861434 -0.11447922
0002c0 fd 1c f0 3d 9a 36 d5 bd 4e d3 d6 bd 01 3b ed 3d
       0.11724279 -0.10410805 -0.10489522 0.1158352
0002d0 d7 b9 8a 3d ee 89 d6 3d 93 f6 7d 3d 6b cd 87 bd
       0.067737274 0.10475527 0.06200273 -0.06630977
0002e0 55 37 b0 bd 5d f7 f3 3c c5 7f 7c 3c 17 74 d1 3c
       -0.08604304 0.029781038 0.015411322 0.025568051
0002f0 84 cb c0 bd b6 5e bc 3d a8 3f 43 3c 3f e2 b1 bd
       -0.094138175 0.09197752 0.011917032 -0.08685731

rnn.bias_hh_l1 f4 [192]
000000 49 51 13 bd 20 2a 41 bd bc 2d 51 3d a9 5d 95 bd
       -0.03596619 -0.047159314 0.051069006 -0.07293255
000010 31 a5 84 bd 42 fa d9 3d d8 4d 97 bc 2f cb bb bc
       -0.0647682 0.10643436 -0.018469736 -0.022924034
000020 5a 9a b2 bd 5f 56 33 3d 93 9b 6a 3c fe a4 87 bd
       -0.087208465 0.04378354 0.014319318 -0.06623267
000030 67 6c 01 3e e8 21 d1 3c 27 76 d5 3d 77 b3 a0 3d
       0.12639008 0.025528863 0.104229264 0.0784673
000040 6c d8 3c bd c9 4e 38 3d c4 ad b0 bd 2e b8 9c 3d
       -0.046104833 0.04499701 -0.08626893 0.07652317
000050 59 ab 10 3c 73 0a b2 bc 9c 57 96 3d 5f 32 1d bc
       0.008829915 -0.021733498 0.07340929 -0.009594529
000060 75 e6 79 bd 61 d8 7f 3d f4 b4 fa 3d 6e 24 08 3c
       -0.061010797 0.062462214 0.12241545 0.008309467
000070 41 92 97 3d d9 a8 ca bd 4f 3d cc 3d ad dc 19 bd
       0.074009426 -0.098954864 0.09972631 -0.03756397
000080 f0 39 bc bd ea a4 ab 3d fc ef 0c bd e3 06 88 bd
       -0.09190738 0.08381064 -0.034408554 -0.066419385
000090 70 0c 8c bd 92 78 c3 3d a0 48 fa 3d b2 de c7 bc
       -0.0683831 0.09544481 0.12220883 -0.024398182
0000a0 f3 24 e8 bd 1b e9 05 bd d8 26 b0 3c 86 32 69 3d
       -0.113351725 -0.03269301 0.021502897 0.05693295
0000b0 78 dc c1 bd e3 0a e7 bd d9 be 82 3d ad fb 15 3c
       -0.09465879 -0.11281373 0.063840576 0.009154242
0000c0 0c dc 70 bd aa 05 bc bd 1a 3b b8 3d d6 ca d6 3d
       -0.058803603 -0.09180768 0.08995648 0.10487907
0000d0 71 4e 95 3d 34 c5 ec 3d 1d 40 b7 bd a1 55 b7 3c
       0.07290352 0.11561051 -0.089477755 0.022379698
0000e0 e0 d3 81 3d 00 a9 91 3d c1 cc aa 3d 51 97 82 3d
       0.0633924 0.07112312 0.08339835 0.063765176
0000f0 1a 90 54 bd d8 69 c6 bd bc 07 11 3d a8 2f 4b bd
       -0.05189524 -0.09688157 0.035407767 -0.049605995
000100 a6 69 dc bd 2f 6f 8a bd 2e dc ed bc 55 52 98 be
       -0.10762338 -0.06759488 -0.029035654 -0.29750314
000110 b0 72 a1 bd 5a 68 ae 3c 9d fb ce 3d 88 bf c0 3d
       -0.07883203 0.021289993 0.10106585 0.09411532
000120 38 a4 09 be 6c fb 0c be e9 63 d2 3d f0 d6 1e 3c
       -0.1344155 -0.13767785 0.102729626 0.0096948
000130 e5 63 0a bd b4 37 da 3d 98 38 d0 3d 62 f8 eb 3d
       -0.033786673 0.10655156 0.101670444 0.11521985
000140 28 2f 80 bd 05 2f b0 3d c3 ef 13 be 86 b7 5e 3d
       -0.06258994 0.08602718 -0.1444693 0.05437424
000150 04 ab eb bd 75 9c 04 be 46 19 27 be 6b e6 6b 3d
       -0.11507228 -0.12950309 -0.16318235 0.05759279
000160 2a df 1b be ff 21 1a 3c 21 00 48 be db aa 66 3d
       -0.15221849 0.009407519 -0.19531299 0.056315284
000170 5d aa 29 be 86 55 a0 bd c3 f6 01 be 92 32 83 be
       -0.16568895 -0.07828812 -0.12691788 -0.2562452
000180 a6 5b 8a bd 3f e7 70 3d cf d1 1d 3e 62 eb a8 bd
       -0.06755762 0.058814283 0.15412067 -0.08248021
000190 4a 9a 59 bc 2b 90 41 bd 39 5d d8 3d a9 9d d6 3c
       -0.013281414 -0.04725663 0.10564656 0.026198225
0001a0 6c 0a b3 3d 7c 9c 5c bc f4 1a db bd 78 b2 b1 3c
       0.08742222 -0.013465043 -0.106985 0.021691546
0001b0 f8 fa 9b bc d1 74 c9 bd fc c6 08 3d 60 63 83 3b
       -0.01904057 -0.09836734 0.03339289 0.004009649
0001c0 64 00 0f bd 93 ee 35 be af a8 90 bd 8d ca bb 3d
       -0.034912482 -0.1776679 -0.07063424 0.09169493
0001d0 e0 7b c9 3c 4d ea fd bd ab a6 dc bd 82 74 64 3b
       0.024595201 -0.12398205 -0.10773977 0.0034859483
0001e0 10 c5 9c 3c 2f 2f a0 bd af 33 b9 3d 2b 32 85 bd
       0.019136935 -0.078214996 0.09043061 -0.065037094
0001f0 94 a0 49 bc 34 b2 e0 bd fb c8 84 3d cb 38 cc bd
       -0.012306351 -0.109714895 0.064836465 -0.0997177
000200 19 df a2 3d c5 12 35 bd 29 be be 3d 55 e7 f6 bc
       0.07952709 -0.044207353 0.09313614 -0.030139605
000210 b7 1a f8 3d 92 bf c1 bc 6f 78 2d 3d 9f 98 d8 bc
       0.121144705 -0.023650918 0.042351183 -0.026439963
000220 51 9b ba bd f8 18 9d 3d 60 ad 0c 3d 67 38 c9 3d
       -0.091116555 0.07670778 0.03434503 0.09825211
000230 b9 dc f4 bd ba 74 c8 3d fa e5 26 3d ca 5b 4c bd
       -0.11956162 0.09787889 0.040746666 -0.049892224
000240 85 0e 84 3c 3f 37 2d bd fd 2c 5d 3d 6c 76 b6 3b
       0.016120205 -0.042289015 0.053997982 0.005568316
000250 43 51 84 bd ff c9 e5 3d 5a 08 be bd ca ed 1b bd
       -0.06460812 0.11220168 -0.09278937 -0.03806857
000260 71 aa 1a 3c fc da 55 3b 1f b1 c9 bd 72 c6 84 bd
       0.00944005 0.0032631746 -0.09848236 -0.06483163
000270 6a 44 dc bd cf ec e7 bc 68 11 61 bc 85 a7 69 bd
       -0.107552364 -0.028311161 -0.01373706 -0.057044525
000280 dd bb 6a bc 6f 5a 7a 3d 78 ea 81 3d 0d 3c 04 bd
       -0.014327017 0.0611214 0.063435495 -0.03228383
000290 b7 f0 14 3d 4e 49 a2 bd be 58 6c 3d 9e 1a 21 bd
       0.036362376 -0.07924138 0.05770182 -0.039332025
0002a0 6c 85 a2 bd e5 84 a2 3c 43 b0 d0 bd 76 14 77 bd
       -0.079356045 0.01983876 -0.10189869 -0.060322247
0002b0 1a 58 ec bd 71 e0 a1 3c 98 1d 1c 3d be 17 57 3d
       -0.115402415 0.019760342 0.03811416 0.052512877
0002c0 45 b2 d2 3d 0a fd 99 bb 2d 04 9b 3c 84 21 73 3d
       0.102879085 -0.004699354 0.01892289 0.059358135
0002d0 7d f7 8f bd a1 2e 5b bd 39 ce a5 bd 82 58 3f bd
       -0.070296265 -0.053511266 -0.080959745 -0.046715267
0002e0 44 91 a0 bd e8 46 00 bd ee 69 84 bd c7 bb 66 3d
       -0.07840207 -0.03131762 -0.06465517 0.056331422
0002f0 c1 44 90 3b 3d 0e 60 3d 45 94 92 bd ee 9d cd 3d
       0.0044027274 0.05470108 -0.071571864 0.10039888
