data/results/gru_baseline_BTC_r15d.pt (torch, 166565 bytes, 9 tensors)

rnn.weight_ih_l0 f4 [192, 15]
0	0x3dc8762e	0.09788166
1	0xbc84f9d3	-0.016232407
2	0x3d206e2f	0.03916758
3	0x3dd7f45f	0.10544657
4	0x3d428154	0.04748662
5	0x3ca702ef	0.020387141
6	0xbb8cc7ae	-0.0042962646
7	0xbc2a576e	-0.010396821
8	0x3cff97c6	0.0312003
9	0xbcd98a7a	-0.026555289
10	0xbcf44b62	-0.029821102
11	0x3db93c4c	0.09044704
12	0x3d6cacd2	0.057782
13	0xbcdc2964	-0.026875205
14	0xbafa3448	-0.0019089067
15	0x3dde5895	0.108567394
16	0xbdc8282e	-0.09773289
17	0x3e2f8536	0.1714066
18	0x3c5cabec	0.013468724
19	0xbc607e2e	-0.013701959
20	0x3e0d31ca	0.13788524
21	0xbd08855b	-0.033330303
22	0xbbfcea45	-0.007718357
23	0xbd6cdd25	-0.057828087
24	0xbe1da58b	-0.15395181
25	0x38c8e124	9.578679e-05
26	0xbdbed058	-0.09317082
27	0xbdec6487	-0.115426116
28	0x3e5c2e2f	0.21501993
29	0x3d129e81	0.035795692
30	0x3e589a52	0.21152619
31	0x3db47477	0.088112764
32	0x3e69ee4d	0.22844811
33	0x3d82577f	0.06364345
34	0x3e4f0be2	0.20219377
35	0x3da261a2	0.07928778
36	0xbe1655a3	-0.14681105
37	0xbe20257c	-0.15639299
38	0x3cd0b784	0.025478132
39	0xbb246226	-0.0025082915
40	0x3d9d535b	0.076819144
41	0x3e07f12b	0.13275592
42	0x3e4c729c	0.19965595
43	0x3dd40603	0.10352709
44	0x3d3bb6e7	0.045828726
45	0xbba0bda8	-0.0049054213
46	0xbe00c2ff	-0.12574385
47	0xbba8f854	-0.005156556
48	0xbd0da7e9	-0.03458396
49	0x3eacf8ec	0.33783662
50	0xbc522249	-0.012825557
51	0xbe23667e	-0.15957066
52	0x3d0bef92	0.03416402
53	0xbe0f7038	-0.14007652
54	0x3d8e176b	0.069380604
55	0xbe06a6ca	-0.13149562
56	0x3d437686	0.047720455
57	0x3dd10e9a	0.10207863
58	0xbe3f3891	-0.18673922
59	0x3dc9e756	0.09858577
60	0xbd19569d	-0.037436116
61	0x3d199c77	0.037502732
62	0x3d4f3fac	0.05059783
63	0x3d546ec5	0.05186345
64	0x3e260789	0.16213812
65	0x3dbd1956	0.09233348
66	0x3df1e73c	0.118116826
67	0xbdb03bbd	-0.08605144
68	0x3b193f80	0.0023383796
69	0xbd0069a6	-0.031350754
70	0xbccb0317	-0.024781747
71	0x3dd80e13	0.105495594
72	0x3d0bf56f	0.03416961
73	0xbe1c753c	-0.15279096
74	0xbdd8256e	-0.10554014
75	0x3d350b72	0.04420037
76	0xbd1f205c	-0.03884922
77	0xbcf3fe50	-0.029784352
78	0x3d9dab8f	0.07698738
79	0xbda0a849	-0.07844598
80	0x3c8906b0	0.016726822
81	0xbc38468b	-0.0112472875
82	0xbc998491	-0.01873997
83	0x3d5aa4db	0.053379875
84	0xbca65943	-0.020306235
85	0x3dac47b7	0.08412116
86	0xbe17cf73	-0.1482523
87	0x3d3ad8da	0.045616962
88	0xbd0c91a8	-0.034318596
89	0x3c89578b	0.016765377
90	0xbe0bcbcf	-0.13651966
91	0x3dc6a086	0.09698586
92	0x3c7304a5	0.01483265
93	0xbda90ff6	-0.082549974
94	0x3e4d184b	0.20028798
95	0xbe067682	-0.13131145
96	0xbb60a48a	-0.003427776
97	0x3cadb6ad	0.02120527
98	0xbdc1e64b	-0.09467753
99	0xbd9aa01e	-0.07550071
100	0x3cb13e13	0.021636045
101	0xbd99317c	-0.074801415
102	0x3c05372f	0.008130833
103	0x3d4bf9e8	0.049798876
104	0x3d72cbbe	0.059276335
105	0x3eb38591	0.3506284
106	0xbd6412df	-0.05568206
107	0x3d5fc18e	0.054627948
108	0x3da45973	0.080248736
109	0x3e2bb1f0	0.16767097
110	0x3e327289	0.17426504
111	0xbdfe42b3	-0.124150656
112	0xbdfbbb9e	-0.122916445
113	0xbd9657e3	-0.07340982
114	0x3d7de39c	0.061984643
115	0x3e1645cd	0.14675064
116	0x3dd3ff87	0.10351472
117	0x3d49af97	0.04923972
118	0x3dd6c9cc	0.104877084
119	0x3e452ef0	0.19256186
120	0x3de5154f	0.11185705
121	0xbde1fe4b	-0.11034831
122	0xbd64559a	-0.0557457
123	0x3d2f7048	0.04283169
124	0xbd25d89d	-0.04048978
125	0xbd108433	-0.035282325
126	0xbdf74eda	-0.120755866
127	0x3cdf4898	0.027256295
128	0xbdf6c8fd	-0.12050054
129	0x3ca4bea9	0.020110445
130	0xbcd6d3c2	-0.02622402
131	0xbd2e321f	-0.042528268
132	0x3d7e4381	0.062076095
133	0xbc8d2910	-0.017231494
134	0xbd1bebd8	-0.038066715
135	0xbd8880d3	-0.06665196
136	0x3d0f59bd	0.03499769
137	0xbd9f782c	-0.07786593
138	0x3d89fd7e	0.06737803
139	0x3d892d8e	0.06698142
140	0xbdbc6f59	-0.092009254
141	0xbc4f7993	-0.012663263
142	0xbdc24176	-0.09485142
143	0x3df07595	0.11741177
144	0x3e07ec36	0.13273701
145	0xbd6e03c6	-0.058109067
146	0x3ca11f95	0.01966838
147	0x3de9ef5f	0.114226095
148	0x3db8c468	0.090218365
149	0x3d95aafc	0.07308003
150	0xbc4b59c1	-0.012411536
151	0xbe84e341	-0.2595463
152	0xbd90e859	-0.07075567
153	0x3e3bcbfc	0.18339533
154	0x3cb3b40e	0.021936443
155	0xbb7304cb	-0.0037081714
156	0xbc606268	-0.013695337
157	0x3b86a4e9	0.0041090143
158	0xbd8460e3	-0.06463792
159	0xbdae04cf	-0.08497011
160	0xbdad13e7	-0.08451062
161	0x3d800bf3	0.06252279
162	0xbd5708ef	-0.052498754
163	0x3e8a7039	0.27038744
164	0xbd3a3c24	-0.04546751
165	0xbdc22ac3	-0.094808124
166	0x3b97cb94	0.0046324227
167	0xbe170224	-0.1474691
168	0xbca2b2a6	-0.019860577
169	0x3d2f646a	0.04282037
170	0xbddbeef9	-0.1073894
171	0xbdb301bd	-0.08740566
172	0x3dfd4779	0.12367148
173	0x3d6fe42e	0.05856722
174	0x3da9f641	0.08298922
175	0xbde8d339	-0.113684125
176	0x3e03199f	0.12802742
177	0xbcfeca3c	-0.031102292
178	0x3d165ac4	0.036707655
179	0xbcb4d7fd	-0.022075647
180	0xbe29c96c	-0.16580743
181	0x3c3a3818	0.011365913
182	0xbe06d36f	-0.13166593
183	0xbe265645	-0.16243847
184	0x3cdd27fc	0.026996605
185	0x3d8217cb	0.063521944
186	0x3d16070f	0.036627825
187	0xbe20567a	-0.15657988
188	0x3d41e29c	0.047335252
189	0x3cec96af	0.028880445
190	0xbc7825af	-0.015145703
191	0xbda44cbb	-0.08022448
192	0xbe419bbd	-0.18907066
193	0xbca9f1c2	-0.020745162
194	0xbdfbf625	-0.12302808
195	0x3e12b4e0	0.14326811
196	0x3e82b433	0.25528106
197	0x3c78c19b	0.015182878
198	0x3dfac8a8	0.122453034
199	0xbc916711	-0.017749341
200	0x3e0342c8	0.12818444
201	0x3dc3942f	0.09549748
202	0x3c0c122e	0.008549256
203	0x3e443913	0.19162397
204	0xbeb02da3	-0.34409818
205	0x3dca5d02	0.09881021
206	0x3e276f53	0.1635106
207	0x3d8422e1	0.06451965
208	0x3e0a2045	0.13488872
209	0xbdec0cbe	-0.11525868
210	0x3dcb62c1	0.09930945
211	0x3e108c18	0.14115942
212	0x3e50a703	0.2037621
213	0x3da7d6eb	0.08195289
214	0xbdb69e2b	-0.08916887
215	0x3dbc7d9d	0.09203646
216	0x3c79db56	0.015250048
217	0xbd3b8ae0	-0.04578674
218	0x3c99995b	0.018749883
219	0xbdc3ef48	-0.09567124
220	0xbd49d2e8	-0.0492734
221	0x3de01fe9	0.109435864
222	0x3e5c9140	0.21539783
223	0xbdd4d01c	-0.10391256
224	0x3e360e15	0.1777881
225	0x3dd43bf7	0.10363
226	0x3e20c4fc	0.15700144
227	0xbd884979	-0.06654639
228	0x3cb5cd9f	0.022192774
229	0x3cfb7fa0	0.030700505
230	0xbe1398f7	-0.1441382
231	0x3d4238bd	0.04741739
232	0x3d59f86c	0.05321543
233	0xbe1a47e0	-0.1506648
234	0x3d633702	0.05547238
235	0x3d4d354a	0.05009965
236	0x38dd2baa	0.00010546234
237	0x3e392549	0.1808063
238	0x3d832490	0.06403458
239	0xbd99f01b	-0.075164996
240	0x3d4960ed	0.0491647
241	0x3d95a8ca	0.073075846
242	0x3e7b695f	0.24551915
243	0x3d7280fb	0.059205037
244	0xbeb08a66	-0.3448059
245	0x3dbc19cc	0.09184608
246	0x3d0cf771	0.034415666
247	0x3cdcbe73	0.026946282
248	0x3e5e1abc	0.21689886
249	0xbe0ed870	-0.13949752
250	0xbd285a51	-0.041101757
251	0x3c731a51	0.014837817
252	0x3d0156d4	0.031576946
253	0x3e3d993d	0.18515487
254	0xbcd55ccb	-0.026045224
255	0x3d8f793a	0.07005544

rnn.weight_hh_l0 f4 [192, 64]
0	0x3d4a5fbb	0.049407702
1	0x3dfc3e37	0.12316554
2	0xbdb7f0e0	-0.0898149
3	0xbd16b4ce	-0.036793523
4	0xbd02a3d2	-0.031894512
5	0x3da7b964	0.08189657
6	0xbe3d8859	-0.18509044
7	0x3d8979e5	0.06712703
8	0x3d8bef47	0.06832748
9	0x3dad4eaf	0.08462273
10	0xbdde53ce	-0.10855828
11	0x3bd2079b	0.006409598
12	0x3c972495	0.01845006
13	0x3e5da050	0.21643186
14	0x3e028a5e	0.12748095
15	0x3d802818	0.06257647
16	0x3d3e61c1	0.046479944
17	0x3d2fedab	0.042951267
18	0x3d7e12a7	0.062029507
19	0xbc4553e4	-0.012043927
20	0x3e601d44	0.21886164
21	0x3b9c4b64	0.0047697295
22	0xbc6dae07	-0.014506823
23	0x3e27c9e7	0.16385613
24	0xbe1e4976	-0.1545771
25	0x3a24a95e	0.0006281341
26	0xbdd4203e	-0.10357712
27	0xbdcc8a89	-0.09987361
28	0x3e757845	0.2397166
29	0xbde00fdd	-0.10940526
30	0x3db2085e	0.08693002
31	0x3e08e4d0	0.13368535
32	0x3dfc68c3	0.12324669
33	0x3df888cc	0.12135467
34	0x3de57d78	0.11205572
35	0xbd84b0ba	-0.064790204
36	0xbdc3d868	-0.095627606
37	0xbd99fa61	-0.07518459
38	0xbe243bf5	-0.16038497
39	0xbd8c16f1	-0.06840313
40	0x3db30d05	0.08742718
41	0xbd8cfc64	-0.06884077
42	0xbbbb9ef9	-0.005725738
43	0x3d308d32	0.043103404
44	0x3e699a2c	0.22812718
45	0xbe0a2800	-0.13491821
46	0x3e4f236a	0.20228353
47	0xbe17871e	-0.14797637
48	0xbe00a797	-0.1256393
49	0x3e067e3d	0.13134094
50	0x3d5afdd7	0.053464737
51	0x3c4ca86b	0.012491326
52	0xbca269e1	-0.019825878
53	0xbd05b2ef	-0.032641347
54	0x3ccc6cce	0.024954226
55	0x3d7b0295	0.06128176
56	0xbce323be	-0.027727004
57	0x3d9e390f	0.07725727
58	0xbd936f8e	-0.07199012
59	0x3d93c0b6	0.07214491
60	0x3d78a2fa	0.0607023
61	0xbb804669	-0.0039146435
62	0x3e37f21b	0.1796345
63	0x3e4b935d	0.19880433
64	0x3db48792	0.088149205
65	0x3cd4a252	0.025956307
66	0x3d8cbae1	0.06871582
67	0xbd5e5f42	-0.054290064
68	0x3c39381b	0.0113048805
69	0x3e028572	0.12746218
70	0xbd568408	-0.05237201
71	0x3e2a46e6	0.16628608
72	0x3d2e62f5	0.04257484
73	0xbda6ffcd	-0.08154259
74	0xbd81775d	-0.06321595
75	0x3db18ef6	0.08669846
76	0x3da1b074	0.07894984
77	0x3e27efa0	0.16400003
78	0x3d08abbb	0.0333669
79	0x3ca3c964	0.019993491
80	0x3dbde13f	0.09271478
81	0xbde329e3	-0.11091974
82	0x3ccd06e4	0.0250277
83	0xbda5500f	-0.080719106
84	0x3e289120	0.16461611
85	0xbce6e10d	-0.028183484
86	0xbe378147	-0.17920409
87	0x3d87e32a	0.06635125
88	0x3cb443d9	0.022005009
89	0xbe2e3a77	-0.1701449
90	0xbe07f50a	-0.13277069
91	0xbdc52f5e	-0.09628175
92	0xbd8510c8	-0.064973414
93	0xbc350fc6	-0.011051124
94	0xbdbccabd	-0.09218357
95	0x3dbae5af	0.0912584
96	0x3e35842c	0.17726201
97	0x3d299917	0.041405763
98	0x3e183aa0	0.14866114
99	0xbdaebb52	-0.08531822
100	0xbdb6d25f	-0.08926844
101	0x3d6c3bf6	0.05767437
102	0x3c6a26eb	0.014291505
103	0xbd80cdaa	-0.06289227
104	0xbcdeb2b0	-0.027184814
105	0xbe27c7c7	-0.16384803
106	0xbd432635	-0.04764386
107	0xbd788fb6	-0.06068393
108	0x3e216f8a	0.15765205
109	0x3e07fdff	0.13280486
110	0xbddacb44	-0.10683301
111	0x3d125eb6	0.035734855
112	0x3d686ad3	0.0567425
113	0xbd9fefaa	-0.07809384
114	0xbdb9231a	-0.09039898
115	0xbe270672	-0.16311052
116	0x3e7bf2ca	0.24604335
117	0xbdb63b25	-0.08898
118	0x3d4b495c	0.049630508
119	0x3da6428c	0.081181616
120	0xbe2ed3c9	-0.17072977
121	0x3d319294	0.04335268
122	0xbd06be52	-0.032896347
123	0x3afc53d6	0.0019251059
124	0x3dcc6606	0.09980397
125	0x3c4a2ce0	0.012339801
126	0x3e4c718a	0.19965187
127	0xbd8e8126	-0.06958227
128	0xbd1c9c35	-0.038234908
129	0x3d2a91e5	0.041643042
130	0x3dca3647	0.09873634
131	0x3d548878	0.05188796
132	0xbdf853da	-0.121253684
133	0x3d2d7948	0.04235199
134	0xbdfac84c	-0.12245235
135	0x3d988287	0.07446771
136	0xbd1bf15f	-0.038071986
137	0xbcbda6a6	-0.023150753
138	0xbdb5d194	-0.088778645
139	0x3dc4f812	0.09617628
140	0x3e1313dd	0.14363046
141	0x3de1b0f5	0.1102008
142	0xbded5bc2	-0.11589767
143	0xbdcc7e8e	-0.09985076
144	0xbcfd0820	-0.030887663
145	0xbe2a7474	-0.16645986
146	0x3dd9cb0b	0.106344305
147	0xbd4dbccb	-0.050228875
148	0x3e5d364c	0.21602744
149	0x3e3dd3dd	0.1853785
150	0xbe087d74	-0.13329107
151	0x3e1ff706	0.15621576
152	0xbc9f934e	-0.01947942
153	0xbe948d8e	-0.29014248
154	0xbe12e47a	-0.1434497
155	0xbe1a569b	-0.150721
156	0x3d72de03	0.059293758
157	0xbde9c881	-0.11415196
158	0xbcd4d008	-0.025978103
159	0x3dc82ed4	0.09774557
160	0x3dcbcfab	0.09951719
161	0x3e26cc32	0.16288832
162	0xbd06d006	-0.03291323
163	0xbe7a71ed	-0.24457522
164	0xbd8e5ed1	-0.069516785
165	0xbdb04bd2	-0.086082116
166	0xbdae6093	-0.08514514
167	0xbdc8afa0	-0.09799123
168	0xbcb4e275	-0.02208064
169	0xbdca952f	-0.09891736
170	0x3d3a5c35	0.04549809
171	0xbcfc6745	-0.030810961
172	0x3dacb318	0.08432597
173	0x3d07652e	0.033055477
174	0xbd3f2d6e	-0.046674185
175	0xbe6dbdf0	-0.23216987
176	0xbdb11023	-0.08645656
177	0xbe07b79e	-0.13253638
178	0xbd51bced	-0.051205564
179	0xbe71fbe0	-0.23631239
180	0x3e726543	0.23671441
181	0xbdf8f1ca	-0.121554926
182	0xba116c56	-0.00055474543
183	0xbe431d8e	-0.19054243
184	0xbe684e91	-0.2268622
185	0xbdf65bb2	-0.12029208
186	0xbd37b810	-0.04485327
187	0x3da07ef2	0.07836713
188	0x3d6f6bf9	0.05845258
189	0x3e7a7f4a	0.2446262
190	0x3e13a518	0.14418447
191	0x3c03a71c	0.008035447
192	0x3d321e67	0.043486025
193	0x3d988849	0.07447869
194	0x3dec43eb	0.11536392
195	0x3e3017ea	0.17196622
196	0xbd052ad4	-0.032511547
197	0xbdac6ab3	-0.08418789
198	0xbe417a31	-0.18894269
199	0x3c81b338	0.015832528
200	0x3d93138e	0.07181464
201	0x3dcf2f27	0.101164155
202	0xbd402d4e	-0.046918206
203	0xbc383773	-0.011243689
204	0x3d0a8505	0.033818264
205	0xbcdcd06e	-0.026954856
206	0x3d85c808	0.065322936
207	0x3d89de1f	0.06731819
208	0x3d71187c	0.05886124
209	0xbd9ea961	-0.0774715
210	0x3bf9a180	0.0076181293
211	0xbdd4d444	-0.10392049
212	0x3e177903	0.14792256
213	0xbd954c99	-0.072900005
214	0xbe08fc93	-0.133776
215	0x3e092bc3	0.133956
216	0xbe0f1cec	-0.13975877
217	0x3c0fea70	0.008783922
218	0x3d1ee165	0.03878917
219	0xbd10874c	-0.03528528
220	0x3dab8dad	0.08376632
221	0xbdecd452	-0.115639344
222	0xbd9c22ed	-0.07623849
223	0x3d1ace51	0.037794415
224	0xbd821fa8	-0.06353694
225	0x3e5fabeb	0.21842925
226	0x3d257a45	0.04039981
227	0xbd8b94bb	-0.068154775
228	0xbd8cd75a	-0.068770126
229	0x3dad8f84	0.08474639
230	0xbd5ec3d1	-0.054385964
231	0x3d4eb616	0.05046662
232	0xbe37ff23	-0.1796842
233	0x3e3550f3	0.17706661
234	0xbde889dc	-0.113544196
235	0xbca10551	-0.019655855
236	0x3d24d8fd	0.040246
237	0xbdf3fb55	-0.11913172
238	0xbb827a54	-0.003981868
239	0x3d0f673c	0.03501056
240	0xbded5224	-0.11587933
241	0x3dc5fb6e	0.09667097
242	0x3dd104ce	0.102059945
243	0x3d9bc6df	0.07606291
244	0xbcc0581f	-0.02347952
245	0xbe021263	-0.12702326
246	0x3e0448c7	0.12918387
247	0xbd97ba7f	-0.07408618
248	0xbd5d036f	-0.053958353
249	0x3d88bf37	0.06677096
250	0xbd50edaa	-0.051007904
251	0x3e0db5a7	0.13838826
252	0xbdc56f27	-0.09640341
253	0x3da61828	0.08110076
254	0xbb7be05c	-0.003843329
255	0x3cde51de	0.027138647

rnn.bias_ih_l0 f4 [192]
0	0x3daa34b3	0.08310833
1	0x3e10c145	0.14136226
2	0x3db6dc15	0.08928696
3	0x3d8e9c39	0.06963391
4	0xbdbfeaac	-0.09370932
5	0x3de590a3	0.11209228
6	0xbd974812	-0.07386793
7	0x3d3f78ba	0.046745993
8	0xbdacb3ca	-0.084327295
9	0xbd8264bd	-0.063668706
10	0x3e699e05	0.22814186
11	0x3d11a73d	0.03555988
12	0x3de8ee09	0.113735266
13	0xbd31f771	-0.04344887
14	0xbd86e1d1	-0.0658604
15	0xbe220b87	-0.1582471
16	0x3df2b7c4	0.11851457
17	0xbdb805f9	-0.08985514
18	0x3e7bd511	0.24592997
19	0xbd69df7d	-0.0570979
20	0xbd96da70	-0.073658824
21	0x3d8ad681	0.067791946
22	0xbd9e04b3	-0.0771574
23	0xbdb55e81	-0.08855916
24	0x3d8b3dc6	0.06798892
25	0xbd2cac31	-0.042156402
26	0xbdf4ad57	-0.119471245
27	0xbe0824d7	-0.13295303
28	0x3d576cb9	0.05259392
29	0xbdd6deba	-0.104917005
30	0xbda62436	-0.081123754
31	0xbd88a9af	-0.066729896
32	0x3df88867	0.12135392
33	0x3dc64cba	0.09682603
34	0xbd5f3749	-0.054496083
35	0x3d630ac8	0.055430204
36	0xbe096194	-0.1341613
37	0x3dfc3e4d	0.123165704
38	0xbda431ea	-0.08017333
39	0x3dce94e3	0.10086992
40	0x3d8a689f	0.06758236
41	0x3d75aa58	0.059976906
42	0x3dc92d4f	0.09823095
43	0x3c1312a3	0.008976611
44	0x3d0b1a0b	0.033960383
45	0x3d5c42fb	0.053774815
46	0x3d94adfb	0.07259747
47	0x3c2d1395	0.010563751
48	0x3d6ae609	0.057348285
49	0x3df2ef24	0.11862019
50	0xbdfb0e30	-0.122585654
51	0xbd3aefd7	-0.045638885
52	0x3db0404e	0.08606015
53	0x3d52b206	0.051439308
54	0xbe248311	-0.16065623
55	0xbb79a408	-0.0038092155
56	0x3daa1470	0.083046794
57	0x3c93e10f	0.018051652
58	0x3c9f4481	0.019441845
59	0x3b49db03	0.0030800707
60	0xbd61e13c	-0.05514644
61	0x3cbed2fc	0.023293965
62	0xbe001e7a	-0.12511626
63	0xbdb82e63	-0.089932226
64	0xbd419d36	-0.04726907
65	0xbe8cea58	-0.2752254
66	0xbe05253c	-0.13002485
67	0xbe9acc32	-0.30233914
68	0xbcf6495b	-0.030064275
69	0xbdddf538	-0.108377874
70	0xbe74a693	-0.23891668
71	0xbe19ac67	-0.15007173
72	0xbcded176	-0.027199488
73	0x3dbfd318	0.09366435
74	0xbe99225a	-0.2990902
75	0xbe364f71	-0.17803742
76	0xbd8dfaac	-0.069325775
77	0xbd63ae3c	-0.055586085
78	0xbe2cfcb9	-0.16893281
79	0xbe11c289	-0.14234366
80	0xbd33efa3	-0.043929707
81	0xbdf8dcae	-0.12151466
82	0xbe2ad9ad	-0.16684599
83	0xbe1a73c9	-0.15083231
84	0x3dcb4797	0.09925764
85	0x3da4cd39	0.080469556
86	0xbdd35928	-0.103197396
87	0x3c319413	0.010838526
88	0xbdb0b7ed	-0.08628831
89	0xbdab7219	-0.08371372
90	0x3d77869b	0.060431104
91	0xbe5f808a	-0.21826378
92	0xbda0ed08	-0.0785771
93	0xbca15f6c	-0.019698821
94	0xbe629406	-0.22126779
95	0x3cd7ce38	0.02634345
96	0x3d81ee22	0.06344248
97	0xbd797a08	-0.060907394
98	0x3dfc9406	0.12332921
99	0x3d06ea42	0.03293825
100	0xbcbc2299	-0.022965716
101	0x3c01c3d7	0.007920227
102	0xbe130059	-0.14355601
103	0xbe2c4f5d	-0.1682715
104	0xbe77caf8	-0.2419852
105	0xbd43e1ea	-0.04782287
106	0xbdf7546f	-0.12076651
107	0xbe572137	-0.21008764
108	0xbd3191de	-0.043352
109	0xbd594a63	-0.053049456
110	0xbd459d4f	-0.048245724
111	0xbd2e8e75	-0.042616326
112	0xbd4a75aa	-0.04942862
113	0xbe5860b0	-0.21130633
114	0xbdb82e8f	-0.08993255
115	0xbe274212	-0.16333798
116	0x3dd31797	0.10307234
117	0x3b87b200	0.0041410923
118	0x3d976a5f	0.073933356
119	0x3cb4325b	0.021996668
120	0x3dd5ec81	0.104455
121	0xbc99961f	-0.018748341
122	0xbe052c5d	-0.13005204
123	0xbeb4b3f1	-0.35293534
124	0xbcf87d37	-0.030333145
125	0xbde75afc	-0.11296651
126	0xbda5f0e2	-0.081025854
127	0xbd98019a	-0.074221805
128	0x3d70b8c8	0.05876997
129	0x3cd094b7	0.025461538
130	0x3cca94c5	0.024729142
131	0x3ca8c138	0.020599946
132	0xbd89ff3f	-0.067381375
133	0x3cfe7dfe	0.031065937
134	0xbd8e1fdc	-0.069396704
135	0x3dbf497a	0.093401864
136	0xbcccb71b	-0.024989655
137	0xbdb4e8f1	-0.088334925
138	0xbd89d921	-0.06730867
139	0xbce92941	-0.028462054
140	0x3d227d64	0.039670363
141	0x3d17d2b0	0.03706616
142	0x3d4d888f	0.05017906
143	0xbdd626df	-0.10456633
144	0xba21b83f	-0.00061691174
145	0xbdb45ee7	-0.08807164
146	0x3d233e64	0.039854422
147	0xbdf402de	-0.119146094
148	0x3d21084c	0.039314553
149	0x3d78b2ff	0.06071758
150	0xbc0f6e4b	-0.008754323
151	0x3da58eab	0.080838524
152	0xbde061c1	-0.10956145
153	0xbd321712	-0.043479033
154	0xbd50e02b	-0.050995033
155	0xbddc1824	-0.10746792
156	0xbc6128af	-0.01374261
157	0xba0c04c6	-0.00053412875
158	0x3c9e184f	0.0192987
159	0x3d108761	0.035285357
160	0x3c86ceac	0.01645597
161	0x3d9b86a9	0.07594044
162	0x3a858c36	0.0010188881
163	0xbdc98e07	-0.09841543
164	0xbdb98552	-0.09058632
165	0xbce3591d	-0.027752453
166	0x3d49746c	0.049183294
167	0xbc88d6df	-0.016704021
168	0xbc7941bb	-0.015213425
169	0xbdcf5983	-0.10124495
170	0xbd009278	-0.031389683
171	0xbd0db5fd	-0.034597386
172	0x3d7a95cc	0.061178014
173	0x3d4c0034	0.04980488
174	0xbd359800	-0.04433441
175	0xbddeb326	-0.108740136
176	0xbd159da1	-0.03652728
177	0xbd8e4fca	-0.06948812
178	0xbb1d5657	-0.0024007761
179	0xbdc0a4b0	-0.09406412
180	0xbd239545	-0.039937276
181	0xbdbc7105	-0.09201244
182	0xbde4e44e	-0.11176358
183	0xbd5954ea	-0.053059496
184	0xbda291a1	-0.07937933
185	0xbc74b87c	-0.014936563
186	0xbdcc5d2f	-0.09978711
187	0xbc59e2c6	-0.013298696
188	0x3d971d0e	0.073785886
189	0x3d05d196	0.03267058
190	0x3cb2d984	0.021832235
191	0x3ce11c21	0.027479233

rnn.bias_hh_l0 f4 [192]
0	0x3c87eb8c	0.01659181
1	0x3dbacde5	0.091213025
2	0x3e063cc2	0.13109115
3	0xbd9143bb	-0.07092997
4	0xbd15ee4f	-0.036604222
5	0xbce4a783	-0.027911907
6	0x3c3c014b	0.011474918
7	0x3e8a35cd	0.26994172
8	0xbda5dbe2	-0.0809858
9	0x3d58c600	0.052923203
10	0x3eb7477b	0.35796723
11	0x3d997de7	0.07494717
12	0x3e1296d5	0.1431535
13	0x3d1f780f	0.038932856
14	0xbc339407	-0.010960585
15	0x3d871757	0.065962486
16	0xbc2a7904	-0.010404829
17	0xbdd1a34b	-0.10236224
18	0x3e893503	0.26798257
19	0xbd8715dd	-0.06595967
20	0xbc9ea2d4	-0.019364752
21	0xbcbe1036	-0.02320109
22	0x3daca92f	0.08430707
23	0xbd96241d	-0.07331107
24	0xbbdeedb8	-0.0068032406
25	0x3d139bb9	0.03603718
26	0x3d901d19	0.070368
27	0xbe5d0679	-0.215845
28	0x3d3018e5	0.04299249
29	0xbdc230ce	-0.09481965
30	0xbe054c88	-0.13017476
31	0xbd7d13b5	-0.061786372
32	0xbd25359b	-0.040334325
33	0x3d8faeac	0.07015738
34	0x3c82bbc1	0.015958669
35	0x3b1a615e	0.002355657
36	0xbdb230d6	-0.08700721
37	0x3d9ca91b	0.07649442
38	0x3d909d1a	0.07061215
39	0x3c870329	0.016480999
40	0xbd817581	-0.0632124
41	0x3d7066d3	0.05869181
42	0xbda400c1	-0.08007956
43	0x3e43d4e9	0.19124188
44	0xbd74eab9	-0.05979416
45	0x3d2da44b	0.04239301
46	0x3d18ddca	0.03732089
47	0xbd3bedd0	-0.045881093
48	0xbdfe747a	-0.1242456
49	0x3d46ef40	0.04856801
50	0xbd9256dc	-0.07145473
51	0x3ba339ec	0.00498127
52	0x3d5423de	0.051792018
53	0xbe054fd3	-0.13018732
54	0x3c08a16f	0.00833927
55	0x3d95440d	0.0728837
56	0x3c63b169	0.013897278
57	0xb9daf03b	-0.00041759186
58	0x3d8f61a9	0.07001049
59	0xbde31e6c	-0.11089787
60	0xbdb30d88	-0.08742815
61	0xbd4207ce	-0.047370724
62	0x3d02e76e	0.03195899
63	0x3d89ccd5	0.06728522
64	0xbe37f5eb	-0.17964904
65	0xbe46b795	-0.19405968
66	0xbe380ae7	-0.17972909
67	0xbe9251ce	-0.28578037
68	0x3e1d02f9	0.15333165
69	0xbdfda0bd	-0.12384174
70	0xbe3530f3	-0.17694454
71	0xbeba4185	-0.36378112
72	0xbd9cd44a	-0.076576784
73	0xbd45f952	-0.048333474
74	0xbe11fed7	-0.1425737
75	0xbe024e6a	-0.12725225
76	0xbdb3c220	-0.08777261
77	0x3d1253da	0.0357245
78	0xbc2d55c1	-0.010579527
79	0x3d23eab4	0.040018752
80	0xbd18b05f	-0.037277576
81	0xbc961c96	-0.018324178
82	0xbe8e238e	-0.277615
83	0xbe195d5d	-0.14977022
84	0x3da3f693	0.08006015
85	0xbbbb2250	-0.0057108775
86	0xbe7d61f7	-0.24744402
87	0xbe3284ed	-0.1743352
88	0xbe176bfe	-0.1478729
89	0xbe49c81d	-0.19705243
90	0x3e2a3fba	0.16625872
91	0xbe0874c4	-0.13325793
92	0xbce7d993	-0.02830199
93	0x3db14f30	0.08657682
94	0xbe1302a0	-0.1435647
95	0xbd381dc3	-0.044950258
96	0xbdab7be0	-0.08373237
97	0xbe770149	-0.24121584
98	0x3e208d5b	0.15678923
99	0x3df9d9c1	0.121997364
100	0x3c867911	0.01641515
101	0xbe1e65d0	-0.15468526
102	0xbe6a4db3	-0.22881202
103	0xbe0fab09	-0.14030088
104	0xbe0ea2f2	-0.13929346
105	0xbda7d38a	-0.08194645
106	0xbdc6b2f4	-0.09702101
107	0xbc4a2257	-0.012337289
108	0xbd33662a	-0.043798603
109	0xbe3be0da	-0.18347493
110	0x3dba464f	0.090954416
111	0xbe344f88	-0.17608464
112	0xbe402374	-0.18763524
113	0xbb008d43	-0.0019615449
114	0xbd8c5333	-0.068518065
115	0xbe588b9c	-0.21147007
116	0x3d182292	0.037142344
117	0xbe01dec9	-0.12682642
118	0xbe03b2a8	-0.1286112
119	0xbc4074f3	-0.011746633
120	0xbb6ba9ff	-0.003595948
121	0xbe77a51a	-0.24184075
122	0xbe2021a1	-0.15637828
123	0xbe66981d	-0.22518964
124	0xbcc43050	-0.023948818
125	0xbd67babf	-0.05657458
126	0xbdaf8fde	-0.08572362
127	0xbddf83b0	-0.10913789
128	0xbc29355d	-0.010327664
129	0x3d5faa64	0.054605857
130	0x3ccc4e41	0.024939658
131	0xbd5b3d41	-0.053525213
132	0x3ab91570	0.0014120769
133	0xbd9684f9	-0.07349581
134	0x3d70f6d0	0.05882913
135	0xbd9eb44a	-0.07749231
136	0x3d14080c	0.036140487
137	0x3d224d6c	0.039624617
138	0xbd8b52f5	-0.06802932
139	0x3dc03824	0.09385708
140	0xbd6d9460	-0.05800283
141	0xbd032b20	-0.03202355
142	0x3d534422	0.05157865
143	0xbb854896	-0.004067491
144	0xbd6f805b	-0.05847202
145	0x3dff6ee3	0.12472322
146	0x3d43a486	0.047764324
147	0x3da9f699	0.08298988
148	0x3d24cc3c	0.040233836
149	0xbc17c02f	-0.009262129
150	0xbda4de5f	-0.080502264
151	0xbabfc0af	-0.0014629568
152	0x3ca5a633	0.020220852
153	0xbae32e3d	-0.0017332506
154	0xbdc396c1	-0.095502384
155	0xbc5ae436	-0.013360074
156	0xbc98575b	-0.018596342
157	0xbdd649cf	-0.104632966
158	0x3cb1fee6	0.02172799
159	0x3d39ef94	0.045394495
160	0x3c0764df	0.008263796
161	0x3ceb3e9d	0.02871638
162	0xbd7ff1d9	-0.062486503
163	0x3d250920	0.040291905
164	0x3d227b56	0.039668404
165	0x3c6b7a2c	0.01437239
166	0xbc94d9ac	-0.0181702
167	0xbcbdd8eb	-0.023174724
168	0x3db7386d	0.08946309
169	0x3dc979ec	0.09837708
170	0x3dc25715	0.09489266
171	0x3dba2e53	0.09090867
172	0xbc8cabcf	-0.017171768
173	0xbd077d47	-0.03307846
174	0xbd944a60	-0.072407484
175	0xbd8cfcc8	-0.06884152
176	0xbd5fef87	-0.05467179
177	0xbda99d15	-0.08281914
178	0xbda678c4	-0.08128503
179	0x3d933279	0.07187361
180	0x3d5c5b0a	0.05379776
181	0xbd1cb1ab	-0.038255375
182	0xbdd2b72d	-0.10288844
183	0xbcbd95d6	-0.023142736
184	0xbc64053f	-0.013917266
185	0xbbb50397	-0.0055241096
186	0x3dbe9400	0.093055725
187	0xbc8f6428	-0.017503813
188	0x3cb7e8f3	0.022449946
189	0x3c86b0b7	0.016441686
190	0x3d451172	0.04811234
191	0xbda05171	-0.07828034

rnn.weight_ih_l1 f4 [192, 64]
0	0xbdb12da4	-0.086512834
1	0x3d36e4f7	0.04465195
2	0x3d158c01	0.03651047
3	0x3cc4304d	0.023948813
4	0xbd9ca2e0	-0.076482534
5	0xbc8e4039	-0.017364608
6	0x3dbed6fe	0.0931835
7	0x3d8216d9	0.06352014
8	0x3d67f102	0.056626327
9	0xba70c440	-0.0009184517
10	0xbde00e9e	-0.10940288
11	0xbdb2ade7	-0.087245755
12	0x3a360c26	0.0006944559
13	0xbda70915	-0.08156029
14	0xba1eea26	-0.00060621125
15	0x3ca96c1b	0.020681432
16	0x3dbdddc3	0.09270813
17	0x3d9c5b0f	0.076345555
18	0xbceb8213	-0.028748548
19	0xbd3b6dee	-0.045759134
20	0xbd924ccb	-0.07143553
21	0xbddf44a8	-0.10901767
22	0xbe07ed77	-0.1327418
23	0x3ddd775e	0.10813783
24	0x3d77856a	0.060429968
25	0xbd144023	-0.036193978
26	0x3c91c2ad	0.017793024
27	0xbd1b42f2	-0.03790564
28	0xbdde43f0	-0.10852802
29	0xbdcc83ff	-0.09986114
30	0xbd303733	-0.043021392
31	0xbd938c17	-0.072044544
32	0x3dc6fd25	0.09716252
33	0xbc0dde8b	-0.008659015
34	0x3d9e3bb3	0.077262305
35	0xbdc659df	-0.0968511
36	0xbc869e51	-0.016432913
37	0xbd4b0ab5	-0.049570758
38	0xbcaa99cc	-0.02082529
39	0xbddd50d6	-0.10806434
40	0xbcb157ed	-0.021648372
41	0xbe112682	-0.14174846
42	0x3ca8b822	0.020595614
43	0xbd72ad74	-0.05924745
44	0x3cb082de	0.021546777
45	0xbdde3b2b	-0.10851129
46	0x3dd4440d	0.10364542
47	0x3dbbd7ca	0.09172018
48	0xbe01be83	-0.1267033
49	0xbdade5c1	-0.08491088
50	0x3d57d782	0.05269576
51	0xbca22f16	-0.019797843
52	0xbbeaad5f	-0.0071617807
53	0xbd82b6d0	-0.06382525
54	0x3db05c65	0.08611373
55	0xbcb2a85e	-0.0218088
56	0xbdd33767	-0.103133015
57	0x3e02fc96	0.12791666
58	0xbde569db	-0.11201831
59	0xbc131f41	-0.0089796195
60	0x3e0246a8	0.12722266
61	0x3e171f18	0.14757955
62	0xbd8de924	-0.06929234
63	0x3c5497a0	0.012975603
64	0xbc790b57	-0.015200458
65	0xbd80eaf2	-0.06294812
66	0x3e08951b	0.13338129
67	0x3d45c785	0.04828598
68	0xbc8e9474	-0.017404772
69	0xbe003235	-0.12519152
70	0xbd944e41	-0.07241488
71	0xbc47f96c	-0.012205463
72	0x3d83de8e	0.06438933
73	0x3aca34e9	0.0015427145
74	0x3cb88bfb	0.022527685
75	0xbd0a7739	-0.033805106
76	0x3d3a5481	0.045490745
77	0xbd66a334	-0.056307986
78	0xbdf75fec	-0.120788425
79	0xbdced661	-0.10099483
80	0x3e0f7cad	0.14012404
81	0xbcb96f41	-0.022636058
82	0xbd2a1f1f	-0.041533586
83	0xbde643fc	-0.11243436
84	0x3df44234	0.1192669
85	0x3e09bbef	0.13450597
86	0x3d84cee1	0.064847715
87	0x3d836f3f	0.06417703
88	0x3c1b9754	0.009496529
89	0xbc685c6b	-0.01418219
90	0x3e069ccd	0.13145752
91	0xbc198607	-0.0093703335
92	0xbc6b00ef	-0.014343484
93	0xbe0cd293	-0.13752203
94	0xbcaabab6	-0.020840984
95	0x3d8896e8	0.06669408
96	0xbb0edd9a	-0.0021799565
97	0xbcccee54	-0.025015987
98	0x3d9e9852	0.077438965
99	0xbdfbbe1f	-0.12292122
100	0xbc93ae57	-0.018027468
101	0xbc8f89f9	-0.017521845
102	0x3e0aa00c	0.13537616
103	0x3d151304	0.036395088
104	0x3d3c81cd	0.046022225
105	0x3d9734eb	0.0738314
106	0x3d13a905	0.03604986
107	0x3ccba21b	0.024857571
108	0x3c13afee	0.009014113
109	0xbd6cf4eb	-0.05785076
110	0xbcbc9f1a	-0.023025084
111	0xbcb5354f	-0.022120146
112	0x3d674813	0.05646522
113	0xbd9a2290	-0.075261235
114	0x3dc2b33a	0.09506841
115	0xbe13f42e	-0.14448616
116	0x3e18d964	0.14926678
117	0x3d203d75	0.03912111
118	0xbd50f19c	-0.051011667
119	0x3c4e129b	0.012577678
120	0xbc07c9aa	-0.008287827
121	0x3e0a7605	0.13521583
122	0xbdd79f90	-0.10528481
123	0x3c907e7f	0.017638443
124	0x3dc898ec	0.097947925
125	0x3e0c56ec	0.13705033
126	0x3e0a6c0f	0.13517784
127	0x3e19e35d	0.15028138
128	0xbc47d74f	-0.01219733
129	0x3d802d58	0.06258649
130	0xbdd70f5e	-0.10500978
131	0xbe0b4628	-0.13600981
132	0xbddac69e	-0.106824145
133	0x3df60adf	0.12013792
134	0x3d808b68	0.0627659
135	0xbc75660c	-0.014977943
136	0xbd3ac97e	-0.045602314
137	0x3d56f40e	0.052478842
138	0xbcac29c1	-0.021016004
139	0x3d2cf7b2	0.04222841
140	0xbdb31c3d	-0.087456204
141	0x3cc96a66	0.024586868
142	0xbd3543e5	-0.044254202
143	0xbe056943	-0.13028435
144	0xbdfb8ec7	-0.12283092
145	0xbd0c4f0b	-0.03425507
146	0x3c969e20	0.018385947
147	0xbd9dc6f0	-0.0770396
148	0xbdc5a9b6	-0.096515104
149	0xbdf0fef6	-0.1176738
150	0xbd63fb68	-0.05565968
151	0xbda06b65	-0.07832984
152	0x3dd52b06	0.10408597
153	0xbdde8ff7	-0.10867303
154	0x3dc01c69	0.09380419
155	0x3e05f788	0.13082707
156	0xbdd3b1c4	-0.103366405
157	0x3d2982a7	0.041384365
158	0x3bdc3b98	0.0067209713
159	0xbc35e559	-0.011102044
160	0xbd02d4a1	-0.03194106
161	0xbbf8f1a1	-0.007597164
162	0xbdc7cc39	-0.09755749
163	0xbdb8011e	-0.08984588
164	0x3d70505b	0.058670383
165	0x3e0578b1	0.13034321
166	0x3de470be	0.11154316
167	0x3e11a7cc	0.14224166
168	0xbd8656d3	-0.06559529
169	0xbd2d0f7d	-0.0422511
170	0x3df766d4	0.1208016
171	0x3c7b4200	0.01533556
172	0xbe13dc6b	-0.14439552
173	0xbd5c828b	-0.053835433
174	0xbdb6e683	-0.08930685
175	0xbdba354a	-0.09092195
176	0x3dd460f7	0.10370057
177	0x3d9d8114	0.07690635
178	0x3d9c15fe	0.07621382
179	0x3e02bf48	0.1276828
180	0x395e7383	0.00021214601
181	0xbd3fe9ba	-0.04685376
182	0x3dc69611	0.09696592
183	0xbdab6ab8	-0.08369964
184	0xbd2fbaf4	-0.0429029
185	0x3cbe970d	0.023265386
186	0xbdb8981f	-0.0901339
187	0x3ba43ef4	0.0050123874
188	0x3d17f23a	0.03709624
189	0xbdc26e78	-0.094937265
190	0xbd428ca1	-0.047497395
191	0xbd6edf6b	-0.058318537
192	0x3dcac23f	0.09900331
193	0x3dc28790	0.09498513
194	0xbe22a7e4	-0.15884358
195	0xbd1ba598	-0.03799972
196	0xbc0679fd	-0.008207795
197	0x3df25a77	0.11833661
198	0x3ccddfae	0.025131073
199	0xbd3924cd	-0.04520111
200	0xbc4a351c	-0.012341764
201	0x3c557395	0.013028045
202	0xbddd9eb4	-0.10821286
203	0x3e188360	0.14893866
204	0x373b6b00	1.1170981e-05
205	0x3dd7e271	0.10541237
206	0xbddcfeca	-0.10790785
207	0x3dbc9b5e	0.092093214
208	0x3d7c104d	0.061538983
209	0x3d84ff64	0.064940244
210	0x3c69c816	0.014268896
211	0x3dc8bfaa	0.09802182
212	0xbcae3ee0	-0.021270216
213	0x3cf371f8	0.02971743
214	0xbd2de32c	-0.042452976
215	0xbcd02ea0	-0.025412858
216	0x3bf72137	0.0075418013
217	0xbd36fbb8	-0.04467365
218	0xbcf5f7a7	-0.030025316
219	0xbd878f16	-0.06619088
220	0x3d891887	0.06694131
221	0xbdce38cf	-0.10069429
222	0xbd7dd249	-0.06196812
223	0xbc322353	-0.01087268
224	0xbdf16a1a	-0.117878154
225	0xbde004f1	-0.109384425
226	0x3e07e1ac	0.1326968
227	0x3d913500	0.07090187
228	0x3e059f88	0.13049138
229	0x3d1cb157	0.038255062
230	0x3d843b57	0.06456631
231	0xbdd6d6e5	-0.10490207
232	0xbd84008f	-0.06445419
233	0x3d9fc06b	0.07800373
234	0x3da5146f	0.08060538
235	0xbce4d88a	-0.027935285
236	0xbc9f41aa	-0.01944049
237	0x3cf5766e	0.029963698
238	0xbd6f59f4	-0.058435395
239	0x3dfb7b96	0.122794315
240	0x3dcd6a42	0.10030033
241	0x3cb88568	0.02252455
242	0xbca93b9a	-0.020658303
243	0x3ccf2242	0.02528489
244	0x3c94f00a	0.018180866
245	0xbcf5a6e7	-0.029986812
246	0xbcea5a62	-0.028607551
247	0xbde65662	-0.11246945
248	0xbe067285	-0.13129623
249	0x3db36570	0.08759582
250	0xbc921728	-0.017833307
251	0x3ce1b5fd	0.0275526
252	0xbd378fbe	-0.044814818
253	0x3e078c50	0.13237119
254	0x3d990872	0.07472314
255	0x3d93c2ba	0.072148755

rnn.weight_hh_l1 f4 [192, 64]
0	0x3db04fb9	0.08608956
1	0xbdb5ccf0	-0.08876979
2	0x3d4f5454	0.05061753
3	0x3d60b323	0.054858338
4	0xbdff0b41	-0.124533184
5	0xbdacfb36	-0.08446352
6	0x3d2f237d	0.042758454
7	0x3c509146	0.012729948
8	0xbddc68b7	-0.1076216
9	0x3d950826	0.07276945
10	0x3cac1786	0.02100731
11	0xbe0fa03e	-0.14025971
12	0x3dcbbc76	0.099480554
13	0x3dc353ae	0.09537445
14	0x3da50384	0.08057311
15	0xbdfed312	-0.12442602
16	0x3db065c5	0.08613161
17	0xbcb3c49d	-0.021944338
18	0x3d3f1237	0.04664823
19	0xbda5f497	-0.081032924
20	0x3da7d03f	0.08194017
21	0x3de11fed	0.109924175
22	0x3d938fc8	0.072051585
23	0x3c995365	0.018716523
24	0x3cf2d5fa	0.029643048
25	0x3d8ddc38	0.06926769
26	0xbdf318ab	-0.118699394
27	0x3cc2b76a	0.0237691
28	0xbd851e49	-0.06499917
29	0xbd83b5cd	-0.0643116
30	0xba20b392	-0.00061302737
31	0x3d50276a	0.05081884
32	0xbcc966c0	-0.024585128
33	0xbd8e66f9	-0.06953234
34	0xbbd79d49	-0.006580029
35	0x3d2402b1	0.04004163
36	0xbcbb20ba	-0.022842754
37	0x3dad63e8	0.08466321
38	0x3c5259dd	0.012838808
39	0xbd3e344d	-0.046436597
40	0x3d220eaa	0.039564766
41	0x3d5264e9	0.051365767
42	0x3cc19b28	0.023633555
43	0x3d937e8e	0.07201873
44	0x3e10de29	0.14147247
45	0xbd145835	-0.036216933
46	0x3dd29a2a	0.10283311
47	0x3ce661e2	0.028122846
48	0x3c9c69ef	0.019093482
49	0xbd86f33c	-0.06589362
50	0x3e096123	0.13415961
51	0xbd9faf9c	-0.07797167
52	0x3e0ff1f3	0.1405714
53	0xbdcb41f4	-0.09924689
54	0xbd54236a	-0.051791586
55	0xbca14dcc	-0.019690417
56	0x3bc63dbf	0.006049841
57	0x3cc21fa1	0.023696722
58	0x3d9e6d77	0.077357225
59	0x3cf0b781	0.029384376
60	0xbe1e1195	-0.15436395
61	0xbd00a34b	-0.03140573
62	0xbe135e70	-0.14391494
63	0x3d1b9be0	0.03799045
64	0xbb0e8bb6	-0.0021750755
65	0xbca5fa26	-0.020260882
66	0xbd6b96f4	-0.057517007
67	0xbe0d015b	-0.13770048
68	0xbd7fbd4a	-0.06243638
69	0x3d1ec93c	0.03876613
70	0xbcf9e183	-0.03050304
71	0x3bea1d98	0.007144641
72	0x3c0259ad	0.007955951
73	0xbe04b903	-0.12961201
74	0x3da0af21	0.07845903
75	0xbd7df84a	-0.062004365
76	0xbc73fd1d	-0.01489189
77	0x3e2a266a	0.16616216
78	0x3dce9028	0.100860894
79	0x3dc8c287	0.09802728
80	0x3d1b68f8	0.037941903
81	0x3de9c461	0.114144094
82	0x3d85f2c9	0.06540448
83	0x3db027e5	0.08601359
84	0xbe0895ec	-0.1333844
85	0x3cb7c411	0.022432359
86	0x3ccdfbd5	0.025144497
87	0x3dc7dc4a	0.09758814
88	0x3d621c24	0.05520262
89	0xbbb5eef9	-0.0055521694
90	0xbcfb885a	-0.030704666
91	0x3ded87a9	0.11598141
92	0xbdb56184	-0.0885649
93	0x3d5f64be	0.054539435
94	0xbc9b6032	-0.018966768
95	0x3dc0dca4	0.09417084
96	0xbd3a5542	-0.045491464
97	0xbdc9fb62	-0.098624006
98	0x3b0c8101	0.0021439197
99	0x3d506a71	0.05088276
100	0xbdf0cdb6	-0.11757986
101	0x3cc65aa9	0.024213152
102	0x3db6803f	0.0891118
103	0x3dbfa4f3	0.093576334
104	0x3cb1f980	0.021725416
105	0x3d594256	0.05304178
106	0xbd1b3443	-0.037891638
107	0xbd90b14a	-0.07065065
108	0x3d0a31cf	0.033738907
109	0x3cc37f97	0.02386455
110	0x3d3470d4	0.044052914
111	0xbce9ca1e	-0.02853876
112	0xbce20ba4	-0.027593441
113	0xbe016929	-0.12637772
114	0x3d31dffb	0.043426495
115	0xbd70927c	-0.05873345
116	0xbd74a175	-0.05972429
117	0x3dc0041f	0.09375786
118	0xbdce1dfa	-0.10064311
119	0x3de1557b	0.11002632
120	0xbd5bedc7	-0.05369356
121	0x3e015170	0.12628722
122	0xbdce312a	-0.10067971
123	0xbdbf0ffb	-0.0932922
124	0x3d8410f3	0.06448545
125	0x3cc56896	0.024097722
126	0xbdd35ea4	-0.10320786
127	0xbcec2a28	-0.028828695
128	0xbd8d3f63	-0.06896856
129	0x3d3bedf6	0.045881234
130	0xbd3bd66a	-0.045858778
131	0x3dc49efd	0.09600637
132	0xbc6f8ea0	-0.014621407
133	0xbcb65c39	-0.022260772
134	0x3db92cc1	0.09041739
135	0xbd40fa11	-0.047113482
136	0x3dbb2cb5	0.091393866
137	0x3d2db24c	0.042406365
138	0xbd9ea7f0	-0.07746875
139	0x3db77aa4	0.08958939
140	0x3dbc93cb	0.09207877
141	0x3d00c5ad	0.03143852
142	0x3d72e202	0.05929757
143	0x3db15db6	0.08660452
144	0x3dcb8761	0.09937931
145	0xbd3432b4	-0.043993667
146	0xbd48355d	-0.048879016
147	0xbbe4c9aa	-0.006982048
148	0x3dc400d7	0.09570473
149	0xbe06f929	-0.13180985
150	0xbc6ccde8	-0.014453389
151	0x3d3ca689	0.046057258
152	0x3dde60ae	0.10858284
153	0xbe28c324	-0.1648069
154	0xbdf8d74b	-0.12150439
155	0x3da0b93b	0.0784783
156	0x3dd07050	0.10177672
157	0x3e095c12	0.13414028
158	0x3e0a59fc	0.13510889
159	0xbd862d9f	-0.0655167
160	0x3db49cdd	0.08818982
161	0xbdaf1d36	-0.085504934
162	0x3ded2814	0.1157991
163	0x3d0e9cbe	0.03481745
164	0xbdfe452a	-0.12415536
165	0xbdd778c0	-0.10521078
166	0x3de6092d	0.11232219
167	0xbd3ab1c1	-0.045579676
168	0xbdd8805c	-0.105713576
169	0xbc8282ad	-0.015931452
170	0x3b8f6226	0.004375714
171	0x3d9ce067	0.07659989
172	0x3c39e391	0.01134576
173	0x3d32b817	0.043632593
174	0xbdc4d04a	-0.096100405
175	0x3d9e7ef2	0.07739057
176	0xbda5be9f	-0.08092999
177	0xbcd736a6	-0.026271176
178	0x3dcf3f35	0.10119478
179	0x3d11687e	0.035500042
180	0x3d23ebb1	0.040019695
181	0xbdc9938d	-0.09842596
182	0x3d770bb8	0.06031391
183	0x3de255b6	0.11051504
184	0x3dd560f9	0.10418887
185	0x3d7b0334	0.06128235
186	0x3dc81157	0.09768932
187	0xbd8f1800	-0.069869995
188	0x3dcbbd16	0.09948175
189	0xbe0b84ed	-0.13624926
190	0x3c2e7fe0	0.010650605
191	0x3d61441e	0.054996602
192	0x3c01bd01	0.007918597
193	0x3db59796	0.08866803
194	0x3b471093	0.003037487
195	0xbdcf9a0e	-0.101368055
196	0xbdab3f58	-0.08361691
197	0x3ba03d05	0.0048900866
198	0x3d908b10	0.07057774
199	0xbd1a38d7	-0.037651863
200	0xbdd9f605	-0.106426276
201	0x3ddce86a	0.10786517
202	0xbdca5640	-0.09879732
203	0xbd06dace	-0.032923512
204	0x3e0fe7a5	0.14053209
205	0xbe120fc4	-0.14263827
206	0xbc695e10	-0.014243618
207	0xbe252c43	-0.16130166
208	0x3dbd4bde	0.09242986
209	0xbdab1559	-0.08353681
210	0xbd6d1aed	-0.057887007
211	0xbd7c8342	-0.061648615
212	0x3d872522	0.065988794
213	0xbab0f9f9	-0.0013502232
214	0xbc194f5b	-0.009357299
215	0x3e1a60a3	0.15075926
216	0x3df39a81	0.11894704
217	0xbc55c032	-0.013046311
218	0x3d8051d1	0.06265605
219	0x3d47cbbe	0.048778288
220	0xbda9b5a0	-0.08286595
221	0x3df1713b	0.11789175
222	0xbd792160	-0.060822845
223	0x3d23e00c	0.04000859
224	0xbc245429	-0.010029831
225	0x3dfb994a	0.12285097
226	0x3bdb0b93	0.0066847294
227	0x3dd96fa1	0.10616995
228	0x3dfc3916	0.12315576
229	0xbdd9dcf7	-0.10637849
230	0xbd644168	-0.05572644
231	0xbd289724	-0.041159764
232	0xbd86d709	-0.065839835
233	0x3cd9340a	0.026514072
234	0xbd6d0434	-0.057865337
235	0x3d87c5da	0.06629534
236	0xbdcf517c	-0.10122964
237	0xbe07ed96	-0.13274226
238	0x3cab8fe4	0.020942636
239	0xbc0b5b8c	-0.008505713
240	0x3daa1d65	0.08306388
241	0xbe033825	-0.12814386
242	0xbdc4d244	-0.096104175
243	0xbcdf1350	-0.027230889
244	0x3d380588	0.04492715
245	0x3d4c3414	0.049854353
246	0x3c9ac2e2	0.018891755
247	0xbe0e3799	-0.13888396
248	0x3d21196d	0.03933089
249	0x3d8e42b2	0.06946315
250	0x3bc4691d	0.005993976
251	0x3b9d096a	0.004792382
252	0xbe0d0f4f	-0.13775371
253	0x3d82ab13	0.06380286
254	0x3d5aff87	0.053466346
255	0x3d628c98	0.055309862

rnn.bias_ih_l1 f4 [192]
0	0x3df3c8a9	0.11903507
1	0x3dacf1bc	0.08444545
2	0x3db59588	0.088664114
3	0x3a801037	0.0009770457
4	0x3e30cb51	0.17265059
5	0x3d955b99	0.072928615
6	0x3da0ee08	0.07857901
7	0xbdd7f804	-0.10545352
8	0x3c542710	0.012948766
9	0xbdfadecd	-0.12249527
10	0xbd56c601	-0.052434925
11	0x3e146258	0.1449064
12	0x3d12c3f5	0.03583141
13	0x3d7b23a2	0.06131328
14	0x3dfc00a1	0.123048075
15	0xbc63d553	-0.013905841
16	0x3c9851b5	0.018593648
17	0xbd711eb6	-0.05886718
18	0xbd3299e9	-0.04360381
19	0xbda9d906	-0.08293347
20	0x3d6cc397	0.057803717
21	0xbd7be906	-0.061501525
22	0xbd1aab2c	-0.0377609
23	0xbc654ba7	-0.013995088
24	0x3df3db1c	0.11907026
25	0xbbc1823a	-0.005905417
26	0xbd47d116	-0.048783384
27	0x3d076971	0.03305954
28	0xbd854fce	-0.06509362
29	0xbaff6a27	-0.0019486592
30	0xbd07ca41	-0.03315187
31	0xbdd72896	-0.10505788
32	0x3e886ec1	0.26647
33	0xbddaa3a7	-0.106757455
34	0x3dc6ba22	0.09703471
35	0xbdc3f052	-0.09567322
36	0x3d826d41	0.06368495
37	0x3dcb24c6	0.09919123
38	0x3d68e712	0.05686099
39	0x3c8a783a	0.016903032
40	0x3c9368d1	0.017994316
41	0x3c066287	0.008202202
42	0xbc04e826	-0.008111989
43	0x3b9d26cb	0.0047958842
44	0x3cd874cb	0.026422879
45	0x3da8d929	0.08244545
46	0x3dac4cb3	0.08413067
47	0x3cad8981	0.021183731
48	0xbdd42d5f	-0.10360216
49	0xbdb41357	-0.08792751
50	0x3c5ea604	0.013589386
51	0xbdbf44c4	-0.09339288
52	0x3d843ddb	0.064571105
53	0x3ce7994c	0.02827134
54	0x3c7ef984	0.015562419
55	0x3dc9ca06	0.09852986
56	0x3dcf64a9	0.10126621
57	0xbcbbb876	-0.022915106
58	0xbc7d7175	-0.015468945
59	0xbd98b1a9	-0.07455761
60	0xbd7b702c	-0.061386272
61	0x3de1ae53	0.11019578
62	0x3df34400	0.11878204
63	0xbdb9f50c	-0.09079942
64	0xbe129d04	-0.14317709
65	0xbeaad8b5	-0.3336846
66	0xbb8eaff3	-0.004354471
67	0xbe09fc14	-0.13475066
68	0xbe8e6893	-0.2781416
69	0x3c73ba01	0.01487589
70	0xbe0dedc1	-0.13860227
71	0xbe2c9100	-0.16852188
72	0xbde009e6	-0.10939388
73	0xbdf9e0d6	-0.12201087
74	0xbe38a421	-0.1803136
75	0xba80faa6	-0.0009840324
76	0x3cc2620e	0.023728397
77	0xbe7b28fb	-0.24527352
78	0xbe089a69	-0.13340153
79	0xbe12d3ae	-0.14338562
80	0xbd8ebbe1	-0.06969429
81	0xbe004727	-0.12527142
82	0xbda70a7a	-0.08156295
83	0x3c70f1ed	0.014706117
84	0xbc214a12	-0.00984432
85	0xbd35f757	-0.044425335
86	0xbd5b1618	-0.053487867
87	0xbe07c651	-0.13259245
88	0x3e114599	0.14186706
89	0xbe366736	-0.1781281
90	0xbc2bbcb7	-0.010482005
91	0xbcb8bee2	-0.022551958
92	0x3b90b070	0.0044155642
93	0xbe09341c	-0.13398784
94	0xbd846d37	-0.064661436
95	0x3baef3a2	0.005339102
96	0xbed4fe5b	-0.41600308
97	0xbdb3a67e	-0.0877199
98	0xbc3c9f92	-0.011512654
99	0xbd8e55f8	-0.06949991
100	0xbe06403f	-0.13110445
101	0xbe074072	-0.13208178
102	0xbdf63f62	-0.12023808
103	0xbd926c79	-0.07149596
104	0xbe592adc	-0.21207756
105	0xbda4a8a1	-0.08039976
106	0xbe70afc5	-0.23504551
107	0xbe898324	-0.26857865
108	0xbd2db3a4	-0.042407647
109	0x3c453b2e	0.012038035
110	0x3d311fae	0.043243103
111	0xbe13404b	-0.14379995
112	0xbdcc8113	-0.099855565
113	0xbe042b68	-0.12907183
114	0xbcb07f15	-0.021544972
115	0xbe1e9f61	-0.15490486
116	0xbd541cfd	-0.051785458
117	0xbe52b90d	-0.20578404
118	0xbdef1d87	-0.11675554
119	0xbd5fd2b9	-0.05464432
120	0x3cf252e0	0.029580534
121	0xbe2f23e1	-0.1710353
122	0xbcb91804	-0.02259446
123	0xbc6ecda6	-0.014575398
124	0x3dd772d4	0.105199486
125	0xbe491942	-0.19638541
126	0xbd9872d3	-0.07443776
127	0xbe15891f	-0.14603089
128	0x3dd82942	0.10554744
129	0x3db5f6bb	0.08884951
130	0xbdfa0d02	-0.12209512
131	0xbde743f4	-0.11292258
132	0xbc02e87d	-0.00799
133	0xbdebd63e	-0.11515473
134	0xbd82b22e	-0.06381641
135	0xbd2725f0	-0.040807664
136	0x3dd54182	0.10412885
137	0x3c8bec15	0.017080346
138	0xbd9c9184	-0.076449424
139	0xbc1e934b	-0.009678672
140	0x3d93ae45	0.07210974
141	0xbdc9613d	-0.09833
142	0x3def0c37	0.11672252
143	0xbd4f66db	-0.0506352
144	0xbdb5f0bf	-0.08883809
145	0x3da2741e	0.07932304
146	0xbde5b713	-0.11216559
147	0x3d983a0b	0.07432946
148	0x3d4d442e	0.05011385
149	0x3dea4d10	0.1144048
150	0x3d8f3030	0.06991613
151	0x3d3c77fc	0.046012864
152	0x3db87fe1	0.09008766
153	0x3d96b85a	0.07359381
154	0xbddaa6fa	-0.106763795
155	0x3d8bbf06	0.06823544
156	0x3db895c8	0.090129435
157	0xbdefb11a	-0.11703701
158	0x3dc5ac81	0.09652043
159	0x3da6145b	0.08109351
160	0x3d13fed5	0.0361317
161	0x3dcaa1dc	0.098941535
162	0xbd1d095a	-0.038338996
163	0xbcae2f98	-0.021262929
164	0x3d186e3b	0.0372145
165	0xbd84dc60	-0.06487346
166	0xbb0bfd57	-0.002136072
167	0xbdb297e6	-0.087203786
168	0xbccfac87	-0.025350822
169	0xbcd29d4e	-0.025709774
170	0xbd5a19dc	-0.053247318
171	0xbad6926a	-0.0016370539
172	0x3dcd4f3c	0.100248784
173	0x3cd24652	0.025668297
174	0x3c943333	0.01809082
175	0xbd9aa70c	-0.07551393
176	0x3dd27901	0.10276986
177	0xbdd26a6f	-0.10274207
178	0x3d470025	0.048584122
179	0x3ccc8c4d	0.024969244
180	0x3db89d3c	0.09014365
181	0xbce19191	-0.027535232
182	0xbd3db175	-0.046311814
183	0x3db31c7b	0.087456666
184	0x3de6cd9d	0.11269686
185	0x3d782f52	0.060592003
186	0xbd500037	-0.050781455
187	0x3daa22a0	0.083073854
188	0xbdcb1727	-0.09916525
189	0x3cd2bd5b	0.025725057
190	0xbdb1cda5	-0.08681802
191	0x3da29560	0.07938647

rnn.bias_hh_l1 f4 [192]
0	0xbd5e3e0f	-0.054258402
1	0xbd354e31	-0.044264022
2	0x3c399d83	0.011329058
3	0xbd480a1f	-0.048837777
4	0x3e7752bb	0.24152653
5	0x3d865e41	0.06560946
6	0x3d3be4da	0.045872547
7	0xbdda2260	-0.10651088
8	0x3d8b7cb1	0.068108924
9	0xbd410e12	-0.04713256
10	0x3e0d6d9d	0.13811345
11	0x3dece381	0.115668304
12	0x3dab145e	0.08353494
13	0x3dc20b4e	0.094748124
14	0x3dbfdbb9	0.09368081
15	0xbd1812cf	-0.037127312
16	0xbd2f1e01	-0.042753223
17	0xbe02af8f	-0.12762283
18	0xbdc5f19e	-0.096652254
19	0xbc901668	-0.01758881
20	0x3dad8f26	0.08474569
21	0x3cbc9815	0.023021737
22	0xbd554788	-0.05207017
23	0xbb0255ae	-0.0019887495
24	0xbd9d0c6e	-0.076683864
25	0xbd01a6ee	-0.031653337
26	0xbdd50c6d	-0.10402761
27	0xbd146469	-0.03622857
28	0x3dbd779d	0.0925133
29	0xbdb5e96e	-0.08882414
30	0xbdb166b6	-0.08662169
31	0x3dd65a42	0.10466434
32	0x3e8dcfd7	0.27697632
33	0xbc1d2210	-0.009590641
34	0xbd7f6662	-0.0623535
35	0xbdef483c	-0.116836995
36	0x3d5c3125	0.053757805
37	0xbe07bc5e	-0.1325545
38	0x3d486238	0.048921794
39	0xbddd8fb6	-0.10818426
40	0xbdd2eaeb	-0.10298713
41	0x3d462ace	0.048380665
42	0xbc946d18	-0.018118426
43	0x3e27f7c7	0.16403113
44	0x3d9e26d9	0.07722253
45	0xbd5e55ec	-0.05428116
46	0xbbcea7fe	-0.0063066473
47	0xb9247953	-0.00015685456
48	0xbdb51d09	-0.08843429
49	0xbda9e7d5	-0.082961716
50	0xbcf3aea4	-0.029746361
51	0xbdcdfdde	-0.10058187
52	0x3c0600dd	0.008178917
53	0xbda9c1f5	-0.082889475
54	0xbdb6e8e5	-0.0893114
55	0xbc8fabc0	-0.017537951
56	0x3d821a67	0.06352692
57	0xbe0687ee	-0.1313779
58	0x3ad7d1c9	0.0016465719
59	0x3da78ee7	0.08181553
60	0xbe256834	-0.16153032
61	0xbc5fb5a4	-0.013654146
62	0xbd909fec	-0.07061753
63	0xbd82b3bc	-0.06381938
64	0xbe620e7b	-0.22075836
65	0xbe0b8692	-0.13625553
66	0xbdf9698a	-0.12178333
67	0xbd72812a	-0.05920521
68	0xbe79b36f	-0.24384855
69	0xbe3134e3	-0.17305331
70	0xbe4dc377	-0.20094095
71	0xbe43d12a	-0.19122759
72	0x3cf6ed17	0.03014235
73	0xbe5e5cfd	-0.2171516
74	0xbe386fb8	-0.18011367
75	0xbe562efb	-0.20916359
76	0xbde2bdca	-0.11071356
77	0xbea4234f	-0.32058188
78	0xbdf44f58	-0.11929196
79	0xbd9b367c	-0.075787514
80	0xbcd00cba	-0.025396693
81	0xbd50bbd9	-0.050960395
82	0xbdeba3ad	-0.11505828
83	0xbe3d4a1f	-0.18485306
84	0x3c24ee22	0.010066541
85	0xbd588329	-0.05285946
86	0xbc5381c0	-0.012909353
87	0xbdfb4669	-0.12269289
88	0xbd5428b5	-0.051796634
89	0xbd5d3599	-0.054006193
90	0xbc50c8cb	-0.012743185
91	0xbdfde8ac	-0.12397894
92	0xbc3290c2	-0.010898771
93	0xbda6559f	-0.081218
94	0xbe2feb64	-0.17179638
95	0xbe2ef2a0	-0.17084742
96	0xbeb1cbd5	-0.34725824
97	0x3d6f7dbf	0.05846953
98	0xbdcf25eb	-0.10114654
99	0xbce4d07d	-0.027931446
100	0xbbf4553a	-0.007456449
101	0xbe813940	-0.2523899
102	0xbe3b9576	-0.18318734
103	0xbe1511ae	-0.14557526
104	0xbe613cad	-0.21995802
105	0xbe854260	-0.26027203
106	0xbdaf6d27	-0.08565741
107	0xbebcb2c6	-0.36855143
108	0xbda899b4	-0.082324415
109	0xbd894e02	-0.06704332
110	0xbdfac312	-0.12244238
111	0x3d0978fe	0.033562653
112	0x3de33253	0.11093583
113	0xbd3cf23d	-0.046129454
114	0x3d2eed22	0.042706616
115	0xbdd41737	-0.103559904
116	0xbdff74ba	-0.12473436
117	0xbe026d71	-0.12737061
118	0xbdaafa5d	-0.08348534
119	0xbe31d98c	-0.17368144
120	0xbd115e5b	-0.035490375
121	0xbe10562f	-0.14095376
122	0xbd63a57a	-0.055577733
123	0xbd25e81d	-0.040504564
124	0x3d22acfa	0.039715745
125	0xbe3d9b42	-0.18516257
126	0xbcb1575e	-0.021648105
127	0xbe01a167	-0.12659226
128	0xbb081066	-0.0020761727
129	0xbdd57eba	-0.10424562
130	0xbdd8334f	-0.10556661
131	0xbc81ee09	-0.015860574
132	0xbd029a3a	-0.031885363
133	0xbdbfbd5a	-0.09362288
134	0x3cf642dc	0.030061178
135	0x3db12648	0.0864988
136	0x3d3327b0	0.04373902
137	0xbddfccde	-0.10927747
138	0x3da92f30	0.082609534
139	0xbb8d58de	-0.0043135723
140	0xbda9c9a4	-0.08290413
141	0x3de9ab56	0.11409633
142	0xbde3fa4a	-0.11131723
143	0x3df72d27	0.12069159
144	0x3d5e6133	0.054291915
145	0x3d044f8d	0.032302428
146	0xbab4e5e4	-0.0013801423
147	0x3d90f1e7	0.07077389
148	0xbda341d2	-0.079715386
149	0x3d843ad0	0.0645653
150	0xbdc14f62	-0.09438969
151	0xbd8cad2a	-0.06868966
152	0x3c98393c	0.018581979
153	0xbcd132fb	-0.025537005
154	0xbcce53b9	-0.025186406
155	0xbda7452f	-0.081674926
156	0x3db273e3	0.0871351
157	0x3d988f6f	0.07449233
158	0x3d92ed4f	0.07174169
159	0x3dc3ad36	0.09554522
160	0x3d9ce0bb	0.076600514
161	0x3d80adb4	0.06283131
162	0x3d2d3813	0.042289805
163	0xbb51d1cf	-0.0032015925
164	0xbd8f177f	-0.069869034
165	0xbd823ad8	-0.0635888
166	0x3d6e7fdf	0.058227416
167	0x3dffc4d8	0.12488717
168	0xbd4359f8	-0.047693223
169	0x3db2fdeb	0.08739837
170	0xbd54c9a2	-0.051950105
171	0x3d2e2d41	0.042523626
172	0xbdaeaf4b	-0.08529528
173	0xbccb9585	-0.02485157
174	0x3dda86ba	0.10670228
175	0x3dbc28fe	0.09187506
176	0x3d61b0af	0.05510014
177	0xbd292cde	-0.041302554
178	0xbcfcb84c	-0.030849598
179	0xbc3e1c27	-0.011603392
180	0x3c4302b1	0.011902497
181	0xbd729926	-0.059228085
182	0x3d0781d3	0.033082794
183	0xbdc7f94d	-0.09764347
184	0x3c9ba639	0.01900016
185	0x3c9c65af	0.019091455
186	0xbd6c4633	-0.057684135
187	0x3c5751a7	0.013142026
188	0xbc46d918	-0.01213672
189	0x3b20b87e	0.0024524028
190	0x3d662c51	0.056194607
191	0x3dea5c31	0.11443365

fc.weight f4 [1, 64]
0	0x3ca75e85	0.020430813
1	0xbdb6b396	-0.08920972
2	0x3db1db54	0.08684412
3	0xbdd545fe	-0.104137406
4	0x3d9e8030	0.077392936
5	0x3d4367fd	0.047706593
6	0x3d529bb9	0.05141804
7	0x3dbde9c0	0.092731
8	0xbd2ca678	-0.042150944
9	0x3d188379	0.037234757
10	0xbe035666	-0.12825927
11	0xbdd9b266	-0.1062973
12	0x3c3322fc	0.010933634
13	0xbda37855	-0.07981936
14	0x3da1960a	0.07889946
15	0xbd177ab1	-0.036982242
16	0x3df4920c	0.11941919
17	0x3d88deea	0.066831425
18	0xbd996aaa	-0.07491048
19	0xbca5fd82	-0.020262484
20	0x3d7cd5bd	0.061727274
21	0x3e0441a9	0.12915672
22	0x3ddb3c83	0.10704901
23	0x3dfc37b3	0.12315311
24	0xbd2d334c	-0.04228525
25	0xbddf0548	-0.10889679
26	0xbd94e4fa	-0.07270236
27	0x3da89adc	0.08232662
28	0xbda09b9a	-0.07842179
29	0x3dad7157	0.084688835
30	0x3d0dcf6e	0.03462165
31	0xbdbd6296	-0.092473194
32	0x3d2fd3ca	0.042926587
33	0x3dd11144	0.10208371
34	0x3dccd5ba	0.100017026
35	0x3dfbd6c3	0.12296822
36	0xbd0976c6	-0.033560537
37	0xbce914e6	-0.028452348
38	0x3d84e569	0.06489069
39	0x3dc70f6b	0.097197376
40	0xbd15a508	-0.03653434
41	0xbd81b947	-0.06334167
42	0xbddb65f5	-0.10712806
43	0x3d934952	0.07191719
44	0x3dc59b36	0.09648745
45	0xbd812dc7	-0.063075595
46	0x3de937ac	0.11387572
47	0x3cdd372b	0.027003845
48	0x3d7e0b4f	0.062022503
49	0x3d890133	0.06689682
50	0xbd93e27e	-0.07220934
51	0x3e013121	0.12616397
52	0x3dcb719e	0.0993378
53	0x3d374f1d	0.044753183
54	0xbcd4af54	-0.02596251
55	0xbdc57ec9	-0.09643323
56	0x3dc23deb	0.09484466
57	0x3d95191b	0.07280179
58	0x3b4ac210	0.0030938424
59	0xbdea2162	-0.114321485
60	0xbd96e881	-0.07368565
61	0xbdafbfed	-0.08581529
62	0xbcb71b60	-0.02235192
63	0xbd41187d	-0.047142494
