data/results/gru_regime_GOLD_r15d_r6_wNone.pt (torch, 167525 bytes, 9 tensors)

rnn.weight_ih_l0 f4 [192, 16]
0.11123226 0.12011556 -0.00095800223 0.17703307 -0.012131279 0.1405512 -0.08115198 0.06370271
0.04607916 0.049242653 0.20199442 -0.037514288 0.11007711 0.1039439 -0.0021469807 0.060432453
0.011006325 -0.034955934 -0.06155362 -0.026760228 -0.08114466 0.10361909 -0.08206351 -0.07835602
-0.12088288 0.23264787 -0.03180111 0.106624186 0.04141106 -0.039390583 -0.0015177686 -0.05043786
0.07542687 0.12783797 0.009000182 0.15741995 -0.12548244 0.097315386 0.007326685 -0.024830118
0.24545234 -0.2376423 -0.028791765 -0.042768937 -0.12280103 -0.04314645 -0.17720546 -0.028812842
0.108002596 -0.06812322 -0.09832004 -0.0013563659 0.17594582 -0.024977887 -0.09591662 -0.044056877
0.18745705 -0.02175862 0.03912224 0.03073704 -0.0076751253 0.23409966 -0.090191215 -0.111089624
0.12637568 -0.07749305 -0.12673365 -0.19871677 0.004928374 0.045180008 -0.013543284 0.13292937
0.029978823 0.19494791 0.1091962 0.0427634 0.12853459 -0.21688084 0.19089882 0.0024972265
-0.20347148 0.031328704 -0.027100706 -0.21795706 0.04098267 -0.081371665 0.07227731 0.09091
-0.15100814 -0.097867586 -0.13184717 0.004439802 -0.005130898 -0.25708136 0.16652809 0.04424022
-0.049127087 -0.049459744 0.0037905653 0.20434964 -0.16005169 0.11450979 -0.053681917 0.12342601
0.091455564 0.050185192 0.18461168 0.09255802 0.13328756 -0.07638918 -0.009396684 -0.0851507
-0.025564589 -0.06782531 -0.039487835 -0.14005806 0.051864948 -0.053386346 -0.11196813 -0.08885002
-0.22162892 0.19059539 -0.13470806 -0.02488199 -0.09529832 -0.12426133 0.15206958 -0.012628137
-0.10851283 -0.16866006 0.027572494 0.012382223 -0.1353977 0.06365593 0.0119441515 -0.0023282967
-0.046752203 0.1368495 -0.010298288 0.014660606 -0.10671203 -0.0934312 0.011273789 -0.07300692
0.07764662 -0.0012711503 -0.09574073 -0.1903738 0.071065985 -0.11831004 0.084135875 -0.027750282
-0.03259704 0.06504748 0.0037310687 0.082533166 0.112216495 -0.32730794 0.1763681 0.13793027
0.050231997 0.023171786 -0.013809257 -0.26442382 -0.14870761 0.11448756 0.023683826 0.15985075
-0.32715988 0.009578135 0.15250672 0.16019817 0.08030761 -0.47375083 0.13735715 0.11031833
-0.0736021 0.017261893 0.11659455 -0.2615429 0.15373424 -0.10415055 -0.0027952192 0.13080753
-0.11555932 0.29004723 0.006315863 -0.08754355 0.05413344 0.03649532 0.081221655 0.05165262
-0.05182111 -0.101597115 0.2539003 0.13394813 0.035089064 0.035118893 -0.0037423917 0.104857184
-0.2511999 0.093907684 -0.069621205 0.019718222 0.123691745 -0.14845844 -0.04801567 0.115933254
0.18108182 0.023949794 0.024372032 0.12496979 -0.13940276 0.12285533 0.09288546 -0.08608133
0.031552732 -0.03870549 0.13479204 0.105467334 0.011469658 0.012917258 -0.13677634 -0.027207358
0.21733093 -0.010584797 -0.047975488 -0.03593894 -0.05445819 0.046493895 0.05502137 0.12173933
0.16177611 -0.04249991 -0.039982393 0.12851119 0.08636763 -0.023823643 0.2079035 -0.061101902
0.10264049 0.16169392 -0.10857285 0.025430892 -0.115909755 0.18370919 0.16953646 -0.06304138
0.0015492443 -0.0038936937 0.18716267 0.19764318 -0.079516895 0.10725194 0.015190582 -0.18359195
00000000: bdcd e33d 26ff f53d 7122 7bba 2848 353e
00000010: 46c2 46bc a7ec 0f3e 0233 a6bd 9176 823d
00000020: 80bd 3c3d aab2 493d a0d7 4e3e 95a8 19bd
00000030: 1c70 e13d 8ae0 d43d 5cb4 0cbb 0588 773d
00000040: df53 343c f42d 0fbd a61f 7cbd 4438 dbbc
00000050: 2c2f a6bd 3f36 d43d ea10 a8bd 1f79 a0bd
00000060: 7291 f7bd 3e3b 6e3e e141 02bd c85d da3d
00000070: a59e 293d 0558 21bd ddef c6ba ee97 4ebd
00000080: 6779 9a3d f5e7 023e 8075 133c b232 213e
00000090: 787e 00be 4a4d c73d b014 f03b 8868 cbbc
000000a0: dc57 7b3e 8158 73be b5dc ebbc 7b2e 2fbd
000000b0: 1b7f fbbd 55ba 30bd 5975 35be e908 ecbc
000000c0: 7730 dd3d 3084 8bbd 045c c9bd 16c8 b1ba
000000d0: 242b 343e 6d9e ccbc ef6f c4bd fc74 34bd
000000e0: bef4 3f3e 223f b2bc a43e 203d 3fcc fb3c
000000f0: 9e7f fbbb d2b7 6f3e 2cb6 b8bd f582 e3bd
00000100: a068 013e adb4 9ebd 77c6 01be 697c 4bbe
00000110: 337e a13b ac0e 393d a6e4 5dbc a31e 083e
00000120: 2696 f53c 6da0 473e 42a2 df3d ad28 2f3d
00000130: 929e 033e 0316 5ebe fb7a 433e 82a8 233b
00000140: d45a 50be 8752 003d 4d02 debc 2330 5fbe
00000150: 72dd 273d 30a6 a6bd 2006 943d 062f ba3d
00000160: e1a1 1abe cd6e c8bd f202 07be c27b 913b
00000170: 1821 a8bb 2ba0 83be 5786 2a3e 3c35 353d
00000180: 7c39 49bd 4d96 4abd 226b 783b 0841 513e
00000190: 97e4 23be 1c84 ea3d 92e1 5bbd c7c6 fc3d
000001a0: 0e4d bb3d fd8e 4d3d d80a 3d3e 0f8f bd3d
000001b0: 897c 083e ee71 9cbd 8df4 19bc 7d63 aebd
000001c0: d46c d1bc ffe7 8abd ffbd 21bd 616b 0fbe
000001d0: 5770 543d a4ab 5abd 8c4f e5bd 00f7 b5bd
000001e0: b1f2 62be 702b 433e e9f0 09be 51d5 cbbc
000001f0: c42b c3bd b97c febd 21b8 1b3e 3fe6 4ebc
00000200: fa3b debd 39b5 2cbe b6df e13c cfde 4a3c
00000210: b2a5 0abe 0a5e 823d 67b1 433c 5696 18bb
00000220: 3d7f 3fbd 4622 0c3e 27ba 28bc 0a33 703c
00000230: d68b dabd db58 bfbd b3b5 383c a784 95bd
00000240: 3105 9f3d ba9c a6ba b713 c4bd 59f1 42be
00000250: 0b8b 913d 894c f2bd 6e4f ac3d 8f54 e3bc
00000260: 7984 05bd 9d37 853d f284 743b 2607 a93d
00000270: c3d1 e53d e894 a7be d799 343e 983d 0d3e
00000280: 11c0 4d3d c2d2 bd3c 3940 62bc 8f62 87be
00000290: cf46 18be 7478 ea3d 9504 c23c eaaf 233e
000002a0: 8081 a7be 9ced 1c3c b92a 1c3e fd0a 243e
000002b0: 5178 a43d 788f f2be 5aa7 0c3e 94ee e13d
000002c0: b3bc 96bd d068 8d3c 20c9 ee3d f3e8 85be
000002d0: 826c 1d3e e24c d5bd ff2f 37bb 69f2 053e
000002e0: 5daa ecbd 1281 943e 4df5 ce3b 084a b3bd
000002f0: 07bb 5d3d 1e7c 153d 8a57 a63d b391 533d
00000300: 5f42 54bd 2612 d0bd 38ff 813e b329 093e
00000310: 8db9 0f3d d4d8 0f3d ea42 75bb 5dbf d63d
00000320: 469d 80be ac52 c03d 9095 8ebd 1c88 a13c
00000330: 1952 fd3d 7d05 18be 14ac 44bd 6a6e ed3d
00000340: 836d 393e 5c32 c43c dba7 c73c 29f0 ff3d
00000350: 99bf 0ebe 939b fb3d bb3a be3d 694b b0bd
00000360: 703d 013d a689 1ebd ed06 0a3e 42ff d73d
00000370: 3ceb 3b3c e8a2 533c 190f 0cbe f7e1 debc
00000380: 008c 5e3e db6b 2dbc f281 44bd b634 13bd
00000390: 8d0f 5fbd 6270 3e3d 175e 613d 7852 f93d
000003a0: a3a8 253e 6314 2ebd 94c4 23bd 7098 033e
000003b0: 83e1 b03d cd29 c3bc a8e4 543e fd45 7abd
000003c0: 2d35 d23d 1793 253e 715b debd 7254 d03c
000003d0: 1862 edbd 431e 3c3e f79a 2d3e d71b 81bd
000003e0: 0310 cb3a 572d 7fbb 92a7 3f3e f962 4a3e
000003f0: c1d9 a2bd e8a6 db3d ebe1 783c 87ff 3bbe

rnn.weight_hh_l0 f4 [192, 64]
0.09172138 0.034333624 0.016517486 -0.014859639 0.0067632515 0.11079592 -0.018337412 -0.03230778
0.03238236 -0.038742702 -0.10583593 0.00048252053 0.08463018 -0.0788724 -0.010522134 -0.0938475
0.092970766 -0.04267967 0.0044134506 -0.0062591764 -0.0026019514 -0.0978481 0.021165494 -0.018403877
-0.08835275 0.025122311 0.09689331 -0.06390693 0.09858208 0.043808132 -0.014751573 0.042954847
-0.17476344 -0.083716914 0.11876525 -0.12658766 0.109969825 -0.014723325 0.10714422 -0.096632026
0.14428486 -0.07890904 0.11815504 -0.12106323 0.10427734 -0.03765239 0.0113097 -0.078271195
-0.007899805 0.12758593 0.0678455 -0.09509191 -0.08705933 -0.020236962 -0.1890443 0.030736992
0.117148265 0.06401563 -0.044917677 -0.05210241 -0.06261297 -0.06756117 0.046093293 -0.04933974
0.03765671 -0.017535381 0.027666233 -0.08407882 -0.059833482 0.028349344 -0.071205705 -0.06009942
0.004142715 0.01679262 -0.047917064 0.07665906 -0.045639243 0.026598504 0.023244325 0.017528368
-0.020554967 0.050385125 -0.00496622 -0.015240821 -0.10697724 -0.014801326 -0.13114105 0.12969396
-0.06742923 0.033114705 0.046596814 -0.027072279 -0.008958026 0.12922221 -0.034142453 -0.03867832
-0.1220382 0.10732106 0.03507388 0.053967457 0.05286018 -0.08679865 -0.091353126 0.10550823
0.09171246 0.008303491 0.06640871 0.12967914 -0.11150221 -0.027575944 -0.09114844 0.041255012
0.07217227 0.0046186927 -0.029209226 0.030657435 0.060726132 -0.047425654 0.06467368 -0.065597475
-0.050616585 0.017329149 -0.08530267 0.007882389 0.0054886467 -0.07405816 0.06112989 0.100681655
0.10881878 0.08844042 0.104234375 0.065613545 0.06331921 0.076717675 0.016741354 -0.09171638
-0.0086213155 0.017873706 0.03324926 -0.09296738 -0.058998063 -0.05041491 0.08272725 -0.078837246
0.07930469 0.028115941 0.09744499 -0.010531154 0.10321167 -0.042793483 -0.012071584 -0.018953234
-0.013186618 -0.08690618 -0.0907889 -0.0056860712 0.00907718 0.058888912 -0.019069923 -0.048330612
-0.0855918 0.116780944 -0.06501493 -0.068472505 -0.06499932 0.08124805 0.050181605 -0.024024034
-0.10925062 0.12154548 -0.055246543 -0.051043767 0.119532265 0.104981035 -0.02065081 -0.1219798
-0.022471823 -0.103739746 -0.002579672 0.001143341 -0.017844599 0.10610429 0.015916834 0.03964269
0.02051866 -0.118663505 -0.10055212 -0.051899627 -0.014900545 -0.07985453 -0.0027609714 0.007959337
-0.12102348 0.08931036 0.09031729 -0.0717348 -0.08667068 0.06158173 0.079602286 -0.033268888
-0.04151856 -0.105840705 -0.088052414 -0.059529662 0.06202554 0.013168304 -0.112741336 -0.037176114
0.039890572 0.016606206 -0.03389906 -0.026065249 0.03270576 -0.06124707 0.04223849 0.10889319
-0.047136944 -0.07989514 -0.10930534 -0.052722044 -0.120589405 -0.0639027 -0.06362463 -0.050990675
0.045188792 -0.097452454 -0.09579635 0.04939039 0.041293815 0.06928558 0.065292135 -0.04275099
-0.025955878 -0.09231765 0.060450878 -0.035547767 0.11007251 0.0364078 0.056076717 0.021279616
0.087122366 0.12217449 -0.038504865 0.057466395 0.11279749 0.07149582 -0.054794755 0.105111375
-0.046635956 -0.12016112 -0.08877855 0.13318492 0.05821069 0.050423484 0.12435632 -0.04694628
00000000: 6bd8 bb3d 6aa1 0c3d ae4f 873c d875 73bc
00000010: 449e dd3b f9e8 e23d 5738 96bc 2a55 04bd
00000020: 5ea3 043d abb0 1ebd 82c0 d8bd cffa fc39
00000030: 9652 ad3d da87 a1bd 0765 2cbc 1e33 c0bd
00000040: 7567 be3d e1d0 2ebd b59e 903b c719 cdbb
00000050: 8085 2abb 9664 c8bd 4263 ad3c bac3 96bc
00000060: 49f2 b4bd 4ecd cd3c 0070 c63d a3e1 82bd
00000070: 67e5 c93d 2870 333d 95b0 71bc 6cf1 2f3d
00000080: 30f5 32be c673 abbd 323b f33d 32a0 01be
00000090: dc37 e13d 1a3a 71bc 6e6e db3d 03e7 c5bd
000000a0: 69bf 133e 109b a1bd 45fb f13d 00f0 f7bd
000000b0: 5c8f d53d 6439 1abd 524c 393c a64c a0bd
000000c0: 2f6e 01bc e3a5 023e 95f2 8a3d 8cbf c2bd
000000d0: 294c b2bd fcc7 a5bc d494 41be 25cc fb3c
000000e0: 6eeb ef3d a01a 833d 99fb 37bd 5669 55bd
000000f0: 3b3b 80bd 835d 8abd 52cc 3c3d 7818 4abd
00000100: ec3d 1a3d 5ca6 8fbc 4ca4 e23c 8431 acbd
00000110: f413 75bd e23c e83c 4cd4 91bd cf2a 76bd
00000120: 9dbf 873b ad90 893c af44 44bd 6dff 9c3d
00000130: 37f0 3abd 1be5 d93c e26a be3c a797 8f3c
00000140: e462 a8bc a260 4e3d acbb a2bb a3b4 79bc
00000150: e216 dbbd 4381 72bc d749 06be 7ece 043e
00000160: 5618 8abd 49a3 073d 4ddc 3e3d afc6 ddbc
00000170: afc4 12bc d452 043e f5d8 0bbd 286d 1ebd
00000180: 2aef f9bd 25cb db3d a1a9 0f3d fb0c 5d3d
00000190: eb83 583d 7ec3 b1bd 5917 bbbd b314 d83d
000001a0: bed3 bb3d 5e0b 083c 4a01 883d 9cca 043e
000001b0: 455b e4bd f2e6 e1bc 09ac babd 04fb 283d
000001c0: 0ecf 933d 6758 973b 3048 efbc 4d25 fb3c
000001d0: f7bb 783d 6741 42bd a273 843d f857 86bd
000001e0: 5653 4fbd dcf5 8d3c 2bb3 aebd 2325 013c
000001f0: 1bda b33b ceab 97bd 5663 7a3d 2f32 ce3d
00000200: 61dc de3d 4020 b53d d578 d53d 6560 863d
00000210: 81ad 813d 281e 9d3d 2a25 893c ccd5 bbbd
00000220: 6b40 0dbc e16b 923c 6030 083d af65 bebd
00000230: f4a7 71bd dd7f 4ebd e86c a93d 6c75 a1bd
00000240: 7f6a a23d 6753 e63c 3d91 c73d dd8a 2cbc
00000250: a460 d33d 3848 2fbd e5c7 45bc d043 9bbc
00000260: af0c 58bc defb b1bd 88ef b9bd 3952 babb
00000270: 74b8 143c 8035 713d 8738 9cbc 52f6 45bd
00000280: c14a afbd d92a ef3d 8c26 85bd 503b 8cbd
00000290: 5d1e 85bd 6165 a63d 3a8b 4d3d 0dce c4bc
000002a0: cabe dfbd d6ec f83d 334a 62bd 4513 51bd
000002b0: 55cd f43d 4c00 d73d e32b a9bc 8cd0 f9bd
000002c0: d416 b8bc 8175 d4bd b70f 29bb 28dc 953a
000002d0: d62e 92bc 354d d93d 0564 823c 6060 223d
000002e0: c016 a83c da05 f3bd 45ee cdbd b494 54bd
000002f0: 6a21 74bc c68a a3bd 6af1 34bb e167 023c
00000300: 29db f7bd 5ae8 b63d 45f8 b83d b2e9 92bd
00000310: 6680 b1bd 203d 7c3d 8606 a33d f544 08bd
00000320: 5e0f 2abd 03c3 d8bd d354 b4bd 60d5 73bd
00000330: 7e0e 7e3d dfbf 573c eee4 e6bd fb45 18bd
00000340: 4c64 233d bd09 883c bed9 0abd ca86 d5bc
00000350: 7af6 053d 35de 7abd 4402 2d3d 6503 df3d
00000360: ab12 41bd 10a0 a3bd 7adb dfbd 12f3 57bd
00000370: 94f7 f6bd 6bdf 82bd a14d 82bd 99db 50bd
00000380: e217 393d 2795 c7bd e030 c4bd 944d 4a3d
00000390: b423 293d 99e5 8d3d e2b7 853d a91b 2fbd
000003a0: 6ca1 d4bc 0911 bdbd 579b 773d 899a 11bd
000003b0: b26d e13d 5820 153d b3b0 653d 9752 ae3c
000003c0: 366d b23d 9e36 fa3d 47b7 1dbd e261 6b3d
000003d0: 5f02 e73d 676c 923d 7770 60bd a244 d73d
000003e0: 5805 3fbd 0917 f6bd 87d1 b5bd a161 083e
000003f0: 556e 6e3d db88 4e3d 87ae fe3d be4a 40bd

rnn.bias_ih_l0 f4 [192]
-0.13297376 -0.11530502 -0.0122301355 0.024816442 -0.034693684 0.06949918 -0.03835455 0.023944885
0.02672165 -0.06864862 -0.08922761 -0.10563046 -0.108250685 -0.014910859 -0.107953556 -0.03482273
0.03118692 -0.09557888 0.052350115 0.00049128995 -0.032019846 -0.07153397 0.04789489 -0.09290041
-0.058325913 0.050549403 0.04055565 -0.08929565 -0.12405141 -0.0674917 -0.051049955 0.015737023
-0.14959535 -0.049513683 -0.042832363 0.053789612 0.039027642 -0.09898321 -0.05418207 -0.071278274
-0.027715277 -0.011183581 0.02139684 0.13432023 0.08134566 0.07982614 -0.071297176 -0.09617733
-0.014932486 0.0020628406 0.08655973 0.0679125 0.037595455 -0.094822474 0.072771005 0.015351509
0.025415737 -0.014142521 0.09755256 -0.116911076 -0.11426937 -0.024067327 -0.02207533 0.016395053
0.07859621 -0.1156519 0.11138327 -0.09386393 -0.09974806 -0.13014683 0.091956295 0.0064396807
0.09798811 -0.16401918 -0.13324724 0.010688806 -0.06373818 0.09255469 0.049809933 -0.1018553
-0.16156514 -0.259019 -0.081976004 -0.13903598 -0.21516907 0.064509064 0.09310214 -0.26451343
0.16308492 0.12220034 -0.12963131 0.056550786 0.06748979 -0.24459012 -0.059548765 0.0018311639
-0.02903713 -0.01243612 -0.023094362 -0.03888933 0.116814986 -0.058781292 0.0637408 -0.28611034
-0.17867146 0.030741805 -0.052527294 -0.12765351 0.032521408 -0.05784016 0.11955817 0.007525658
-0.075540714 -0.17733885 0.020288892 -0.11631769 -0.09659969 -0.058400366 -0.27809134 -0.031619493
-0.10319261 0.05542692 -0.16331726 0.06064913 0.040457517 0.041123066 -0.002178787 -0.077617824
-0.030014545 0.058237985 -0.11464685 0.10289452 -0.010083407 0.084234826 0.049704105 0.086
0.11797383 -0.09751766 -0.012288628 0.1101345 -0.07151541 -0.016975371 -0.055882525 -0.011404273
0.04884826 0.075283125 -0.0038000843 0.02596259 -0.02298378 -0.06667335 0.07560413 -0.015828071
0.109409444 0.100495495 0.082910955 0.03456484 -0.055421665 -0.060672205 -0.071181886 -0.046162155
-0.015164456 0.1034597 -0.10858129 -0.002950562 0.0636872 0.06076116 -0.06877271 0.10963531
-0.004313383 0.12055833 0.07893288 0.036567852 0.033101197 -0.08475657 0.10137455 -0.065372795
0.07683328 0.03286066 -0.016987957 -0.03811977 -0.087356895 0.0486669 0.030937435 -0.0901041
-0.05793294 -0.037247997 0.023397973 -0.108205475 0.110803455 0.11568695 0.022682713 -0.030304616
00000000: 462a 08be 0a25 ecbd e860 48bc da4b cb3c
00000010: f71a 0ebd 9655 8e3d a919 1dbd 1028 c43c
00000020: 5de7 da3c a697 8cbd f7bc b6bd c854 d8bd
00000030: 89b2 ddbd ad4c 74bc c116 ddbd 47a2 0ebd
00000040: b67b ff3c dcbe c3bd 136d 563d e9c9 003a
00000050: 3e27 03bd 6780 92bd 6f2d 443d 9242 bebd
00000060: 27e7 6ebd e40c 4f3d ae1d 263d a3e0 b6bd
00000070: aa0e febd 1739 8abd c219 51bd eeea 803c
00000080: 862f 19be dcce 4abd fd70 2fbd 7f52 5c3d
00000090: 73db 1f3d b6b7 cabd 05ee 5dbd 58fa 91bd
000000a0: 260b e3bc 573b 37bc 6d48 af3c 3e8b 093e
000000b0: 8e98 a63d e37b a33d 4104 92bd 9ff8 c4bd
000000c0: 63a7 74bc b930 073b 3a46 b13d b515 8b3d
000000d0: b1fd 193d 4932 c2bd f708 953d e584 7b3c
000000e0: aa34 d03c 08b6 67bc a3c9 c73d 136f efbd
000000f0: 0f06 eabd d828 c5bc 53d7 b4bc eb4e 863c
00000100: 0df7 a03d e7da ecbd e91c e43d bb3b c0bd
00000110: b648 ccbd 3645 05be 9553 bc3d f503 d33b
00000120: fdad c83d a5f4 27be f771 08be 1a20 2f3c
00000130: 2a89 82bd 508d bd3d 8005 4c3d 8399 d0bd
00000140: 5571 25be 239e 84be 09e3 a7bd 735f 0ebe
00000150: 4855 5cbe 541d 843d 56ac be3d 4e6e 87be
00000160: bcff 263e 2c44 fa3d 12be 04be cca1 673d
00000170: 1638 8a3d d575 7abe 68e9 73bd aa03 f03a
00000180: 46df edbc dec0 4bbc 6330 bdbc 6b4a 1fbd
00000190: b23c ef3d a7c4 70bd 898a 823d 0e7d 92be
000001a0: a7f5 36be 3dd6 fb3c dc26 57bd 9ab7 02be
000001b0: 2b35 053d cee9 6cbd eada f43d cb99 f63b
000001c0: 17b5 9abd 5198 35be e434 a63c f837 eebd
000001d0: 0fd6 c5bd 3935 6fbd fd61 8ebe 7183 01bd
000001e0: a656 d3bd 5707 633d a43c 27be 396b 783d
000001f0: c8b6 253d a970 283d fbc9 0ebb 18f6 9ebd
00000200: 10e1 f5bc f48a 6e3d f8cb eabd 5dba d23d
00000210: e034 25bc 4f83 ac3d 8896 4b3d c520 b03d
00000220: 439c f13d 57b7 c7bd 3e56 49bc 328e e13d
00000230: ac76 92bd ef0f 8bbc 13e5 64bd fdd8 3abc
00000240: 1d15 483d 0a2e 9a3d d60a 79bb 7faf d43c
00000250: 7b48 bcbc 0a8c 88bd 57d6 9a3d dfa9 81bc
00000260: 0f12 e03d 95d0 cd3d 38cd a93d dd93 0d3d
00000270: d401 63bd 6b83 78bd cfc7 91bd 8714 3dbd
00000280: 5774 78bc aee2 d33d de5f debd 375e 41bb
00000290: 6f6e 823d b2e0 783d b5d8 8cbd 7a88 e03d
000002a0: 4757 8dbb 49e7 f63d 90a7 a13d 2cc8 153d
000002b0: 1f95 073d da94 adbd 769d cf3d 2ce2 85bd
000002c0: c45a 9d3d e698 063d 542a 8bbc 7a23 1cbd
000002d0: 2ce8 b2bd f156 473d 8170 fd3c 8088 b8bd
000002e0: 174b 6dbd 5b91 18bd 1bad bf3c d59a ddbd
000002f0: ecec e23d 48ed ec3d 19d1 b93c 6341 f8bc

rnn.bias_hh_l0 f4 [192]
0.025087617 -0.028241903 -0.014022395 0.034171447 0.09363857 -0.057630416 0.059190746 0.11560638
0.06325168 -0.025091771 0.035170216 -0.12972482 0.05992433 -0.07344778 -0.089124165 -0.10172669
-0.119241275 -0.050792072 0.07400927 0.036777616 -0.11161773 -0.12863599 -0.006710919 -0.10052881
-0.08909248 -0.13902284 -0.017774144 0.06720457 -0.07133244 -0.12641448 0.08178499 -0.042973787
-0.043897085 0.035421327 -0.050836314 -0.041350145 -0.12071403 -0.11145598 -0.12148688 0.120205596
0.047776755 -0.03483782 0.009876589 -0.03932206 0.092618555 0.1195235 -0.0069193603 0.046033103
0.020886948 0.077913284 0.09859431 0.11303767 -0.03488825 -0.024510143 0.016891638 -0.09048242
0.041485265 -0.052336674 -0.046176802 -0.05284688 0.021003647 -0.05081599 -0.036629707 -0.07485846
-0.08884994 -0.038553048 0.17700097 0.04487714 -0.16233374 -0.22438511 0.10076321 0.11126521
0.048157282 0.000418909 -0.35633636 0.038345683 -0.019973852 0.058328006 -0.016054194 0.04953018
-0.058078516 -0.17003852 -0.0117890835 -0.14484623 -0.11356922 -0.1094279 -0.06493381 -0.098767646
0.052368924 0.08620883 -0.14149685 0.08816092 0.0004247847 -0.026782198 -0.016877765 -0.043086167
0.08308178 0.004873297 -0.08134733 0.082304254 0.0932367 0.0077719036 -0.032726716 -0.1301559
-0.0014199822 -0.037540615 -0.09352279 -0.15447329 0.06115316 0.0065133166 0.10193071 -0.053698406
0.039418075 0.0019177764 0.0025465263 0.012030274 -0.07239688 -0.04850303 -0.14584854 -0.07181013
0.027479842 0.03431292 -0.15645798 0.044904698 -0.048247535 0.11008391 0.1174342 -0.002762468
-0.064441524 0.1047274 0.119834125 -0.07513897 0.13166502 -0.028318062 -0.040229928 0.10422158
-0.0014204663 -0.027070632 0.06678299 0.059215136 0.05269958 0.030226473 -0.03787333 -0.015312989
-0.030168891 -0.03381808 0.038416903 -0.028875493 -0.11035022 -0.09769613 0.07358768 0.097836375
0.05717149 -0.113896675 -0.08536671 0.009634348 -0.0706777 0.073634595 -0.052677978 0.051754903
0.035949 0.090331085 -0.007265322 -0.05170165 -0.047137737 -0.036041 -0.057294972 -0.109925
-0.09147173 0.048741274 0.029676424 -0.002636395 -0.0037483936 0.059142992 -0.105317615 0.026564332
0.09783356 -0.036872722 0.0588652 -0.04975253 -0.07035668 0.025443066 -0.04346152 -0.016071038
0.0780139 0.03142533 -0.04691341 -0.061014824 0.09898296 -0.008862447 -0.049884703 -0.023822466
00000000: 8c84 cd3c 905b e7bc 30be 65bc 5cf7 0b3d
00000010: 94c5 bf3d df0d 6cbd ff71 723d 0ac3 ec3d
00000020: 198a 813d 428d cdbc a50e 103d 95d6 04be
00000030: 3773 753d ca6b 96bd bb86 b6bd 1556 d0bd
00000040: c534 f4bd 590b 50bd 2c92 973d 20a4 163d
00000050: d697 e4bd 27b9 03be 45e7 dbbb 0ce2 cdbd
00000060: 1e76 b6bd 015c 0ebe 159b 91bc 8da2 893d
00000070: be16 92bd cc72 01be e47e a73d 4805 30bd
00000080: 6ecd 33bd f415 113d bd39 50bd c55e 29bd
00000090: eb38 f7bd 0843 e4bd 1dce f8bd 5a2e f63d
000000a0: 8fb1 433d 1ab2 0ebd 6bd1 213c 2b10 21bd
000000b0: ccae bd3d bdc8 f43d cdbb e2bb 358d 3c3d
000000c0: 1b1b ab3c 0091 9f3d d0eb c93d 4b80 e73d
000000d0: fbe6 0ebd 7fc9 c8bc 5560 8a3c d94e b9bd
000000e0: 74ec 293d fb5e 56bd e323 3dbd f875 58bd
000000f0: d70f ac3c 6d24 50bd 0809 16bd 644f 99bd
00000100: f5f6 b5bd cde9 1dbd be3f 353e 18d1 373d
00000110: d13a 26be 36c5 65be f15c ce3d 04df e33d
00000120: 9240 453d 04a1 db39 b871 b6be 5d10 1d3d
00000130: 34a0 a3bc 59e9 6e3d 1684 83bc 28e0 4a3d
00000140: bde3 6dbd 941e 2ebe 0027 41bc 9252 14be
00000150: fb96 e8bd bc1b e0bd 04fc 84bd b146 cabd
00000160: cc80 563d 418e b03d 8de4 10be b68d b43d
00000170: a3b5 de39 5766 dbbc 3d43 8abc 1f7b 30bd
00000180: c826 aa3d 2eb0 9f3b 6e99 a6bd 228f a83d
00000190: e2f2 be3d 74ab fe3b 730c 06bd 9747 05be
000001a0: b21e baba 30c4 19bd e088 bfbd 3f2e 1ebe
000001b0: bc7b 7a3d a96d d53b 0cc1 d03d dcf2 5bbd
000001c0: d974 213d e65d fb3a 9fe3 263b a01a 453c
000001d0: d144 94bd 1dab 46bd 5259 15be 3011 93bd
000001e0: 681d e13c b48b 0c3d 8536 20be fded 373d
000001f0: 359f 45bd ac73 e13d 5881 f03d 860a 35bb
00000200: ebf9 83bd 527b d63d 986b f53d 76e2 99bd
00000210: 32d3 063e 48fb e7bc 23c8 24bd 2072 d53d
00000220: f12e baba 3bc3 ddbc 85c5 883d 928b 723d
00000230: 84db 573d 829d f73c 1121 1bbd 55e3 7abc
00000240: c024 f7bc d484 0abd 0b5b 1d3d 4c8c ecbc
00000250: 4cff e1bd e914 c8bd 23b5 963d 705e c83d
00000260: a72c 6a3d a942 e9bd bed4 aebd 62d9 1d3c
00000270: 78bf 90bd bccd 963d ddc4 57bd f3fc 533d
00000280: 423f 133d 81ff b83d f011 eebb 1cc5 53bd
00000290: 8013 41bd ba9f 13bd 22ae 6abd 5c20 e1bd
000002a0: 8855 bbbd eea4 473d f91b f33c 5ec7 2cbb
000002b0: 9ca7 75bb ec3f 723d c3b0 d7bd 719d d93c
000002c0: f65c c83d da07 17bd a31c 713d 4fc9 4bbd
000002d0: 2a17 90bd fa6d d03c b504 32bd 69a7 83bc
000002e0: c0c5 9f3d d9b7 003d 4728 40bd aeea 79bd
000002f0: 94b7 ca3d cc33 11bc e753 4cbd 5527 c3bc

rnn.weight_ih_l1 f4 [192, 64]
0.04315339 0.058444332 0.00065627246 0.015621499 0.08358259 -0.056457255 -0.1074018 0.0089274235
-0.0071493536 0.024525676 0.07504679 0.08596402 -0.0567058 -0.00039601172 0.08648518 0.11887542
0.08647675 -0.069756724 -0.052161098 0.008485234 -0.0037508872 0.033523533 -0.0044947565 -0.04902076
-0.10506783 0.036412943 -0.054962635 0.029979717 -0.12150095 -0.080250196 -0.12686144 0.0015253855
-0.11830815 -0.08078726 -0.122026905 -0.076539695 0.03790909 0.07158148 -0.07296326 0.075314716
0.07821016 0.10574384 0.10274774 0.03221641 -0.038682554 0.049306653 0.07074834 0.03901441
0.1076905 0.0154287685 0.018873537 0.10673607 -0.030000184 0.0009605772 0.08795754 -0.10079353
0.053776998 -0.08272419 0.009332609 -0.0283269 -0.12187474 -0.00020584295 -0.021644317 -0.12574615
0.12462438 0.06805639 0.0086734295 0.032821137 0.09277156 0.10326168 -0.088461645 -0.018189413
0.05179184 -0.0021317152 0.09147455 -0.07833982 -0.09134638 0.01073714 -0.08161615 -0.023572687
-0.077526145 0.05459977 0.04335558 -0.07389245 0.087908596 0.05852658 0.07878078 0.13754621
-0.11667274 -0.044310264 0.053340785 0.09143605 -0.10365447 0.09049867 0.03970642 -0.04846171
-0.044175345 -0.009726224 -0.111683324 -0.046572234 0.07848188 0.08438839 0.09692364 -0.04117398
0.108017184 -0.094977394 -0.028726552 -0.106931254 0.050692 0.037439097 0.02570807 0.12367779
0.011247224 0.024065703 -0.04210572 -0.04241619 0.060483437 -0.025278281 0.053573698 0.0040429933
0.075820915 -0.08469626 -0.08324097 -0.12796085 0.012073954 0.018871611 0.097017206 0.026634824
-0.09755718 0.10375439 -0.03630455 -0.12943602 0.033799246 -0.044099167 0.07382352 -0.1418728
0.021848409 0.093062915 -0.09453667 0.037669003 0.059497055 0.0076443246 -0.0990118 -0.035740834
-0.0069617783 0.031738963 0.0015474872 0.044632144 0.059130017 -0.10708938 -0.09535011 -0.026782455
0.089755915 -0.077880144 -0.02425621 -0.07856401 -0.0923921 -0.06102035 0.07972143 0.039669823
-0.14136738 0.017350672 -0.0010945977 -0.030227862 0.10944813 -0.0979576 0.009055746 0.052626103
0.04854042 0.093199834 -0.12757245 -0.04515848 -0.1387621 -0.067037314 -0.12793092 -0.0118476655
-0.006575712 0.10946498 -6.401968e-05 -0.08785277 -0.072721384 0.10037875 -0.017686054 -0.06067073
0.028408626 -0.09094987 -0.118056804 0.0881859 0.113894105 0.09201675 0.09933729 0.11320465
-0.09503072 0.0004032256 -0.092382096 -0.049127616 -0.109259956 -0.11721543 -0.045369826 -0.009471163
0.065452196 0.0344935 0.068009704 -0.055378143 0.019591618 0.06311776 -0.033987295 -0.003087362
-0.10631868 -0.0050343038 -0.12393529 0.07009914 -0.044103593 0.063381046 0.039792195 -0.08721941
-0.046783276 0.019664804 -0.0048447484 0.11573934 0.008312653 -0.041047353 -0.035745416 -0.040050633
-0.037777614 0.00030196898 0.068467304 0.12602694 -0.08757367 0.029456217 -0.08956482 0.10831724
-0.010774748 0.07869906 -0.076291054 -0.07040975 -0.04610316 0.09822423 -0.08909951 0.065151945
-0.1097065 -0.11748358 -0.014113974 0.09000905 -0.12585665 0.0046591656 0.052891675 -0.057181798
-0.065462545 0.12142885 -0.06509845 -0.0019901558 -0.07953988 -0.10913785 0.06332646 0.008579687
00000000: 9cc1 303d 5363 6f3d b309 2c3a 51f1 7f3c
00000010: 592d ab3d b93f 67bd 7af5 dbbd 5444 123c
00000020: 2045 eabb 12ea c83c 22b2 993d e70d b03d
00000030: 5744 68bd cb9f cfb9 241f b13d f574 f33d
00000040: b91a b13d 9ddc 8ebd e0a6 55bd a705 0b3c
00000050: 72d1 75bb f94f 093d c048 93bb fec9 48bd
00000060: cd2d d7bd bd25 153d 8020 61bd 0698 f53c
00000070: 7dd5 f8bd 375a a4bd f7e7 01be 72ef c73a
00000080: 8b4b f2bd ca73 a5bd 3ee9 f9bd d8c0 9cbd
00000090: 9046 1b3d 5099 923d c36d 95bd 9a3e 9a3d
000000a0: a62c a03d 3a90 d83d 686d d23d 5bf5 033d
000000b0: 9971 1ebd c6f5 493d 81e4 903d 93cd 1f3d
000000c0: d68c dc3d f2c8 7c3c ad9c 9a3c 7198 da3d
000000d0: f2c2 f5bc 3fcf 7b3a 1523 b43d d76c cebd
000000e0: 4545 5c3d 4d6b a9bd cde7 183c d10d e8bc
000000f0: 7799 f9bd 8cd7 57b9 6c4f b1bc 99c3 00be
00000100: 113b ff3d 2661 8b3d 001b 0e3c 756f 063d
00000110: 04ff bd3d dc7a d33d 612b b5bd f701 95bc
00000120: ae23 543d 3fb4 0bbb 0257 bb3d a170 a0bd
00000130: d013 bbbd d4ea 2f3c 5e26 a7bd 821b c1bc
00000140: 07c6 9ebd 02a4 5f3d 9f95 313d ed54 97bd
00000150: 6c09 b43d 91b9 6f3d d157 a13d ead8 0c3e
00000160: 1ef2 eebd ae7e 35bd de7b 5a3d d342 bb3d
00000170: cb48 d4bd 5e57 b93d 33a3 223d c97f 46bd
00000180: 35f1 34bd bd5a 1fbc 3aba e4bd 87c2 3ebd
00000190: 1cbb a03d d2d3 ac3d e77f c63d 0ca6 28bd
000001a0: 1d38 dd3d 8283 c2bd f253 ebbc c6fe dabd
000001b0: 6aa2 4f3d bd59 193d bb99 d23c c84a fd3d
000001c0: 4746 383c 7025 c53c 0c77 2cbd 99bc 2dbd
000001d0: 7bbd 773d 6614 cfbc 1870 5b3d 167b 843b
000001e0: ff47 9b3d 3c75 adbd 3e7a aabd 2b08 03be
000001f0: d5d1 453c a398 9a3c f5b0 c63d 4631 da3c
00000200: 0fcc c7bd 2e7d d43d 14b4 14bd e08a 04be
00000210: 1471 0a3d 54a1 34bd c930 973d 1a47 11be
00000220: 6ffb b23c c597 be3d 719c c1bd d04a 1a3d
00000230: 2fb3 733d 3e7d fa3b b3c6 cabd fb64 12bd
00000240: a11f e4bb b700 023d 0ed5 ca3a 32d0 363d
00000250: 5132 723d ad51 dbbd eb46 c3bd e166 dbbc
00000260: f3d1 b73d a07f 9fbd f6b4 c6bc 2be6 a0bd
00000270: 1238 bdbd 79f0 79bd fd44 a33d d37c 223d
00000280: 9cc2 10be ff22 8e3c 9b78 8fba 6ca0 f7bc
00000290: 5726 e03d ff9d c8bd 8d5e 143c 788e 573d
000002a0: 52d2 463d 8edf be3d 5aa2 02be 19f8 38bd
000002b0: a717 0ebe dc4a 89bd 5300 03be b61c 42bc
000002c0: 1279 d7bb 2d2f e03d 4e42 86b8 27ec b3bd
000002d0: f3ee 94bd 6093 cd3d 58e2 90bc df81 78bd
000002e0: 35b9 e83c ed43 babd c4c7 f1bd cf9a b43d
000002f0: 5041 e93d 4773 bc3d 5971 cb3d d7d7 e73d
00000300: 779f c2bd 0668 d339 d332 bdbd 0a3a 49bd
00000310: afc3 dfbd a50e f0bd b6d5 39bd f02c 1bbc
00000320: cd0b 863d 0e49 0d3d ac48 8b3d 31d4 62bd
00000330: 9a7e a03c e243 813d 4336 0bbd 5755 4abb
00000340: 9cbd d9bd cdf6 a4bb c9d1 fdbd 2390 8f3d
00000350: f8a5 34bd eccd 813d 24fd 223d 17a0 b2bd
00000360: d29f 3fbd 1518 a13c b2c0 9ebb bf08 ed3d
00000370: cb31 083c 4521 28bd c969 12bd 220c 24bd
00000380: b3bc 1abd 9751 9e39 9638 8c3d 350d 013e
00000390: d359 b3bd 2a4e f13c c36d b7bd 6ed5 dd3d
000003a0: 9288 30bc f92c a13d 7c3e 9cbd fd32 90bd
000003b0: abd6 3cbd c929 c93d ce79 b6bd 626e 853d
000003c0: cdad e0bd 3b9b f0bd 4c3e 67bc aa56 b83d
000003d0: 91e0 00be eaab 983b f1a4 583d 7637 6abd
000003e0: 3a11 86bd b0af f83d 5652 85bd 466d 02bb
000003f0: cee5 a2bd aa83 dfbd 4eb1 813d d191 0c3c

rnn.weight_hh_l1 f4 [192, 64]
-0.10041308 -0.06693648 0.08851342 0.047410134 -0.031896703 0.014024634 0.028521562 -0.007187118
-0.121996514 0.11096078 0.005512974 -0.007907159 -0.013880768 0.015333404 -0.11211317 0.021303969
-0.064914376 0.09789071 -0.08778405 -0.08605564 -0.009564278 -0.06678872 0.056783546 0.052614927
0.04695385 -0.09218196 0.08497762 0.0519676 0.0428788 -0.009513825 -0.1081106 -0.07972249
-0.037718344 0.085513934 -0.017399738 -0.1137895 -0.078402676 0.0033824302 0.06644338 0.07461595
0.040228955 0.026419744 0.10054504 -0.057074983 -0.109777965 -0.10755746 -0.067492634 0.11760043
-0.025615903 0.049143456 -0.08436876 0.10954806 -0.01438926 -0.03764119 0.101731665 0.12047884
-0.024274504 0.12750855 -0.0751928 -0.011614256 0.09935941 -0.04751882 0.077635616 0.08924628
0.025181893 0.03621327 -0.037630696 -0.13672404 0.113281354 0.1223517 -0.009298781 -0.08224511
-0.01395366 -0.08035053 0.011170369 0.09309683 -0.12575305 -0.04295725 0.10940717 0.044695675
-0.06891419 -0.06566552 -0.093562104 -0.025746806 -0.09073033 -0.07209305 0.11411998 0.12332885
-0.0721792 -0.039948072 0.11152456 0.1291506 0.06862317 0.11955629 0.0051255594 0.10567731
-0.032345623 0.013892934 0.06037021 0.07074299 0.12855984 -0.05363061 -0.041132867 -0.06039579
0.0827384 -0.008614004 0.07773133 0.12746277 0.11180539 -0.13323434 0.08652206 -0.103047766
-0.10201489 0.0865751 -0.09034374 -0.037039854 -0.0239985 0.106684 0.14026676 -0.09523496
0.09447327 -0.08713397 -0.079693966 -0.030650161 -0.08475225 0.021910312 0.0065566306 -0.12406349
0.02845032 -0.07889638 0.034675818 -0.024505362 0.04267675 0.013694964 -0.031066855 -0.040859472
-0.0544621 -0.00835455 -0.08474258 -0.058955558 -0.038616672 0.10464409 0.08562754 -0.009725913
0.034941416 0.047171984 0.08732929 0.12906896 -0.06617557 0.083034016 -0.120800294 -0.0033164662
-0.08400517 -0.11092464 -0.0695109 0.065520436 -0.058659945 -0.0219793 -0.05045625 0.08139935
-0.12565853 -0.073869154 0.069907434 -0.005426411 -0.03628744 0.09490343 0.11674629 -0.06620886
-0.03712795 -0.06542907 0.0022957276 0.03618412 0.083314925 0.016894132 -0.110820524 0.031650674
0.029284563 -0.09410609 -0.008741608 -0.036773507 -0.013559408 0.027372211 0.11328183 -0.032389063
-0.08734561 -0.032757457 -0.115702726 -0.096565515 0.009873319 0.0180324 0.066632405 0.0467764
0.0838435 -0.097193144 -0.039975516 0.04549575 -0.051196568 0.0994947 -0.034996003 0.13016126
0.032025523 0.07665355 -0.10604682 -0.04191224 -0.08594904 0.059957843 0.10767157 0.0031941917
-0.056168336 -0.08295647 -0.046637297 -0.065514565 0.06610164 -0.06626492 -0.024082284 -0.07591382
-0.0029149272 0.09175903 -0.05883971 0.07672442 0.024749532 0.09592542 -0.01808205 -0.021943152
-0.102933586 0.04740729 -0.11072375 -0.116671026 -0.03489727 0.09953664 0.1294118 0.014910729
-0.039310776 -0.02628233 -0.03582613 0.04566507 0.08758604 0.10783921 0.023102123 -0.07973264
0.033594172 -0.014874797 -0.06451111 0.012066448 0.084275424 -0.10800265 0.049054276 0.037309233
0.13719639 0.016498897 -0.13313481 0.025351437 0.02993875 -0.01526125 0.075872935 -0.024551807
00000000: 5fa5 cdbd fe15 89bd 8646 b53d 2131 423d
00000010: 1ea6 02bd 94c7 653c 0da6 e93c ea81 ebbb
00000020: 4fd9 f9bd 683f e33d 2ea6 b43b 078d 01bc
00000030: 296c 63bc f538 7b3c 979b e5bd a985 ae3c
00000040: d4f1 84bd ed7a c83d 20c8 b3bd f03d b0bd
00000050: 7db3 1cbc 86c8 88bd dd95 683d c082 573d
00000060: ae52 403d e5c9 bcbd bf08 ae3d fadb 543d
00000070: aea1 2f3d e0df 1bbc 1769 ddbd 8b45 a3bd
00000080: 8d7e 1abd ee21 af3d e589 8ebc 780a e9bd
00000090: 9591 a0bd c3ab 5d3b 7813 883d 3fd0 983d
000000a0: 1ec7 243d 386e d83c 8fea cd3d 75c7 69bd
000000b0: 45d3 e0bd 1647 dcbd 9439 8abd 7fd8 f03d
000000c0: 71d8 d1bc a64a 493d 87c9 acbd bc5a e03d
000000d0: eec0 6bbc a62d 1abd b158 d03d 9cbd f63d
000000e0: 53db c6bc 9a91 023e affe 99bd b849 3ebc
000000f0: f27c cb3d 18a3 42bd 6cff 9e3d c1c6 b63d
00000100: 424a ce3c 5e54 143d a522 1abd 6301 0cbe
00000110: 0e00 e83d 8793 fa3d ea59 18bc 2070 a8bd
00000120: e49d 64bc d28e a4bd ec03 373c 8da9 be3d
00000130: 68c5 00be f1f3 2fbd de10 e03d d012 373d
00000140: e222 8dbd a57b 86bd 7d9d bfbd f7ea d2bc
00000150: d3d0 b9bd 85a5 93bd bcb7 e93d d693 fc3d
00000160: b0d2 93bd 97a0 23bd fd66 e43d 0e40 043e
00000170: 4e8a 8c3d eed9 f43d 4ff4 a73b 586d d83d
00000180: d87c 04bd 309f 633c c146 773d b3e1 903d
00000190: 31a5 033e c5ab 5bbd f07a 28bd 9361 77bd
000001a0: c072 a93d c021 0dbc 9b31 9f3d 9a85 023e
000001b0: 39fa e43d 956e 08be 7a32 b13d b50a d3bd
000001c0: 2fed d0bd 494e b13d 2406 b9bd 1ab7 17bd
000001d0: 8198 c4bc 247d da3d 17a2 0f3e 8c0a c3bd
000001e0: 347b c13d 4b73 b2bd 9736 a3bd 0c16 fbbc
000001f0: 9692 adbd 417d b33c 01d9 d63b 0015 febd
00000200: a510 e93c 6d94 a1bd 3b08 0e3d 78bf c8bc
00000210: d1cd 2e3d d860 603c eb7f febc 435c 27bd
00000220: a713 5fbd 86e1 08bc 858d adbd 627b 71bd
00000230: 842c 1ebd a44f d63d 7e5d af3d 7059 1fbc
00000240: bb1e 0f3d 6937 413d b3d9 b23d a72a 043e
00000250: 0f87 87bd bd0d aa3d 2566 f7bd 1259 59bb
00000260: e70a acbd 752c e3bd bb5b 8ebd 942f 863d
00000270: 6945 70bd ef0d b4bc 36ab 4ebd b4b4 a63d
00000280: a1ac 00be b648 97bd a12b 8f3d 09d0 b1bb
00000290: 24a2 14bd bb5c c23d ae18 ef3d 8398 87bd
000002a0: 7a13 18bd adff 85bd eb73 163b cd35 143d
000002b0: 04a1 aa3d 9065 8a3c dff5 e2bd 23a4 013d
000002c0: 2ee6 ef3c b2ba c0bd f638 0fbc d19f 16bd
000002d0: 4728 5ebc b03b e03c 4e00 e83d 65aa 04bd
000002e0: 41e2 b2bd af2c 06bd 8df5 ecbd 24c4 c5bd
000002f0: b4c3 213c afb8 933c 9276 883d 9c98 3f3d
00000300: 24b6 ab3d 330d c7bd 5ebd 23bd c059 3a3d
00000310: 7eb3 51bd e1c3 cb3d f857 0fbd fe48 053e
00000320: 322d 033d 89fc 9c3d 132f d9bd 2bac 2bbd
00000330: 0d06 b0bd 5b96 753d e982 dc3d a555 513b
00000340: c510 66bd 15e5 a9bd c006 3fbd 802c 86bd
00000350: 4c60 873d e7b5 87bd 3648 c5bc b478 9bbd
00000360: 5d08 3fbb 29ec bb3d e801 71bd b121 9d3d
00000370: 88bf ca3c 8c74 c43d cf20 94bc 20c2 b3bc
00000380: d8ce d2bd 262e 423d 22c3 e2bd 38f1 eebd
00000390: 71f0 0ebd ded9 cb3d 8784 043e 214c 743c
000003a0: 5604 21bd 0a4e d7bc 6cbe 12bd 4c0b 3b3d
000003b0: 4f60 b33d ceda dc3d aa40 bd3c de4a a3bd
000003c0: 0b9a 093d 6cb5 73bc 671e 84bd 5ab2 453c
000003d0: 9898 ac3d 7e30 ddbd 23ed 483d 91d1 183d
000003e0: 367d 0c3e b228 873c 7e54 08be d1ad cf3c
000003f0: 1c42 f53c 520a 7abc 4563 9b3d df20 c9bc

rnn.bias_ih_l1 f4 [192]
0.06879108 0.016180255 0.028474303 0.035378534 -0.06353179 -0.038602035 0.07198268 -0.050417665
-0.10361887 0.038147304 0.104396746 0.1268298 0.09317336 0.05540435 0.03493665 0.0023574566
0.010504443 0.049329493 -0.12053488 0.021564158 0.04066927 -0.080069445 0.010342263 -0.082035385
0.03543816 -0.11110563 0.08962042 -0.08813931 0.111949064 0.04740285 0.008146147 -0.07199129
-0.0054951627 0.098824635 0.091951266 0.03878018 0.089657165 0.05971152 0.015250742 -0.013606142
-0.08506276 0.055220395 -0.11097461 -0.06525119 0.097858615 0.09444004 0.050948527 0.10432698
-0.041888297 -0.016628692 0.12633434 0.091061786 0.09660422 -0.079596564 0.12135282 0.06879504
-0.06850613 0.02428466 0.08863719 -0.03053886 -0.05668199 0.037859168 -0.08316004 -0.04571669
0.04023588 0.009994432 0.088091634 -0.076625265 0.09331713 -0.07941451 -0.038995046 -0.11396145
-0.13539891 0.025240978 -0.29657513 -0.2787445 0.11349151 0.06111861 -0.14484593 -0.21231666
-0.06251186 -0.24372059 -0.05190018 -0.03644089 -0.101454414 -0.010408496 -0.20537049 -0.03317743
-0.039859653 -0.09482918 -0.083679035 0.056136705 0.0837676 -0.011064539 -0.015137995 -0.02463626
0.004443368 -0.0056161718 0.03697887 0.044310022 -0.090131775 -0.030388772 0.09381685 0.11099141
0.0018036065 0.048104994 -0.11539128 -0.035701506 -0.11727575 -0.015556744 -0.14091974 0.114123546
-0.1798058 -0.23020934 0.07051513 0.029533574 -0.14791104 0.07954775 -0.018853968 -0.018224759
-0.032518417 -0.13770702 0.08441122 -0.17539361 -0.051176343 -0.0006474206 0.10202187 -0.07553569
0.047845114 -0.07954976 0.01470423 -0.005074865 0.10914297 -0.06835012 0.085448 0.09065197
-0.100842796 0.043630697 -0.07617967 -0.04113938 -0.030606292 0.051773235 -0.071546465 -0.016502876
-0.0002951973 0.057124943 0.08769554 0.039796837 0.047173396 0.09261135 -0.014351305 0.1229189
-0.06323136 0.018806273 -0.09532932 -0.013904037 0.118727155 -0.015574393 -0.020258177 0.098765224
0.0075802505 0.108971305 0.06752072 0.029428393 -0.07542358 -0.075465456 -0.07483615 -0.0057254178
0.060325 0.025411341 -0.051231593 -0.09637391 0.10590654 0.0351836 -0.10903061 -0.022465449
0.022187069 0.06369377 0.07181785 -0.12249195 -0.028870486 0.023922043 0.026120327 -0.04029138
-0.030868325 0.00870534 -0.0015031302 0.047342595 -0.028168444 -0.016264034 -0.008475955 -0.06461137
00000000: 56e2 8c3d 748c 843c f142 e93c 15e9 103d
00000010: f51c 82bd 2b1d 1ebd a86b 933d c182 4ebd
00000020: 2136 d4bd 5940 1c3d f6cd d53d acdf 013e
00000030: add1 be3d acef 623d bc19 0f3d 8f7f 1a3b
00000040: d41a 2c3c b90d 4a3d feda f6bd 51a7 b03c
00000050: d294 263d 73fb a3bd 9872 293c 2b02 a8bd
00000060: 9b27 113d 598b e3bd e98a b73d 6282 b4bd
00000070: 8d45 e53d 7e29 423d 6b77 053c 2b70 93bd
00000080: c410 b4bb 9264 ca3d f250 bc3d f7d7 1e3d
00000090: 2d9e b73d 1194 743d 40de 793c 4cec 5ebc
000000a0: 6235 aebd c82e 623d a846 e3bd 6aa2 85bd
000000b0: 196a c83d c869 c13d 67af 503d 62a9 d53d
000000c0: 1093 2bbd e538 88bc ca5d 013e 9a7e ba3d
000000d0: 6fd8 c53d 8603 a3bd d487 f83d 6ae4 8c3d
000000e0: f14c 8cbd a0f0 c63c 6a87 b53d a22c fabc
000000f0: 602b 68bd 3712 1b3d d04f aabd 6d41 3bbd
00000100: 61ce 243d b0bf 233c 6369 b43d b5ed 9cbd
00000110: 0d1d bf3d 13a4 a2bd 45b9 1fbd 9f64 e9bd
00000120: 03a6 0abe 2bc6 ce3c b2d8 97be 99b7 8ebe
00000130: 3d6e e83d 8257 7a3d 7e52 14be 8a69 59be
00000140: 3806 80bd e491 79be 4895 54bd 0b43 15bd
00000150: 55c7 cfbd 6588 2abc a44c 52be 0fe5 07bd
00000160: e043 23bd cd35 c2bd ea5f abbd 9aef 653d
00000170: 598e ab3d 0a48 35bc 5a05 78bc fbd1 c9bc
00000180: ac99 913b dd07 b8bb 2877 173d 6d7e 353d
00000190: 0297 b8bd e0f1 f8bc 0c23 c03d 774f e33d
000001a0: fe66 ec3a be09 453d 4352 ecbd be3b 12bd
000001b0: 452e f0bd b7e1 7ebc 444d 10be 9bb9 e93d
000001c0: 031f 38be ffbb 6bbe 3d6a 903d 65f0 f13c
000001d0: fe75 17be eee9 a23d a373 9abc 174c 95bc
000001e0: 0832 05bd 1203 0dbe cadf ac3d 629a 33be
000001f0: 499e 51bd a9b7 29ba d8f0 d03d 75b2 9abd
00000200: 3df9 433d fcea a2bd 03ea 703c 0e4b a6bb
00000210: 5986 df3d 26fb 8bbd 5cff ae3d bda7 b93d
00000220: ab86 cebd 1ab6 323d 1604 9cbd c481 28bd
00000230: 0cba fabc 2c10 543d f486 92bd 0a31 87bc
00000240: b6c4 9ab9 d8fb 693d b899 b33d 0202 233d
00000250: e438 413d 05ab bd3d bc21 6bbc e7bc fb3d
00000260: 717f 81bd 9d0f 9a3c 053c c3bd c2cd 63bc
00000270: 3927 f33d bd2b 7fbc 7af4 a5bc 6c45 ca3d
00000280: c063 f83b 592c df3d 4e48 8a3d d013 f13c
00000290: ae77 9abd a28d 9abd b243 99bd 499c bbbb
000002a0: 5917 773d 722b d03c 38d8 51bd af5f c5bd
000002b0: 87e5 d83d ae1c 103d 714b dfbd 7609 b8bc
000002c0: a8c1 b53c e171 823d 3d15 933d 0fdd fabd
000002d0: cc81 ecbc 29f8 c33c 4cfa d53c 9308 25bd
000002e0: 92df fcbc d8a0 0e3c ae04 c5ba 4fea 413d
000002f0: 82c1 e6bc 273c 85bc bbde 0abc f752 84bd

rnn.bias_hh_l1 f4 [192]
0.012354346 -0.11032035 0.012111056 -0.047556814 0.115418576 -0.041126084 0.08037792 0.03045831
-0.07755827 0.08665401 -0.09592974 0.06714872 -0.09120736 -0.01082605 -0.030827377 0.06738221
-0.08209969 0.095075056 0.064343065 -0.1047994 -0.117707185 -0.03161838 0.038412716 0.040885463
0.009141193 -0.09047382 -0.009745154 0.057339683 0.09958925 -0.0030189527 0.08486644 0.03322895
0.106761634 -0.03554867 -0.026953578 0.0703864 0.10522992 -0.12593694 -0.018990822 0.005097095
0.08291358 0.0306525 0.10990858 -0.07296447 -0.017793052 -0.064078435 0.08154968 -0.04173579
0.0038981095 -0.09818755 0.10672622 0.1242986 -0.11409644 -0.018487925 0.09683195 -0.055822134
-0.07414248 -0.045159064 0.074074656 -0.085848935 -0.0030863367 0.02583042 -0.07834555 0.096802786
0.115559235 0.05039814 0.019087587 0.022224367 0.096461095 0.11658684 -0.18238156 -0.22275688
0.07311279 -0.060620505 -0.14814533 -0.29897323 -0.07670135 -0.01002647 0.094227076 -0.113437936
0.056223813 -0.14466828 -0.12238477 -0.025924735 -0.20444143 -0.06811925 -0.2023868 0.038808245
0.10219459 0.098247446 -0.024981625 0.07107256 0.0061131692 -0.19553003 0.14488363 -0.10521872
0.14108324 -0.037829768 -0.02136232 -0.045089763 0.010465306 -0.055091284 0.11356822 0.002113363
-0.16718082 0.10618613 -0.17676976 0.041461647 -0.18670681 0.013880334 -0.0085479645 -0.0032515284
-0.14486766 -0.22373922 -0.102605306 -0.05787233 -0.0068793716 -0.104518995 0.027099881 0.013318177
-0.17882875 -0.0069051175 0.06467965 -0.19163044 -0.0053627333 0.020004004 -0.029748552 -0.13920508
-0.03691446 -0.042834997 0.10498073 -0.059986535 0.0019593856 0.0006407558 -0.10353234 0.05000359
-0.08447301 0.065387204 -0.09618774 -0.086954206 0.037455697 0.00042391394 0.039579764 -0.05653144
-0.08161623 0.030364126 0.01858925 -0.011616277 -0.05417628 -0.108925514 -0.09374587 0.059633866
0.047838315 -0.08968295 0.020464154 -0.05951387 0.007915231 0.044592563 0.1195064 0.019973041
0.11893937 0.107147366 -0.12513599 0.048358627 0.08849746 -0.07006523 0.02751716 -0.04665811
-0.05297184 -0.0066800416 0.12551229 0.015195259 -0.018810995 0.10181336 -0.035838235 -0.066650935
0.05289026 0.004456326 -0.032285172 -0.08569498 0.06428025 0.09158128 0.06353595 0.048300467
-0.08550235 0.025495877 0.0018340795 0.113799036 -0.0010578543 0.023860386 0.11723587 -0.009674382
00000000: e269 4a3c a3ef e1bd 736d 463c efca 42bd
00000010: 9360 ec3d d373 28bd 2e9d a43d b583 f93c
00000020: dfd6 9ebd a877 b13d d076 c4bd 4585 893d
00000030: edca babd bf5f 31bc b289 fcbc afff 893d
00000040: e223 a8bd b6b6 c23d 4cc6 833d 11a1 d6bd
00000050: 7710 f1bd 4682 01bd a756 1d3d 8477 273d
00000060: f1c4 153c 574a b9bd 23aa 1fbc 04dd 6a3d
00000070: 73f5 cb3d 9fd9 45bb 75ce ad3d 141b 083d
00000080: d8a5 da3d 7b9b 11bd c0cd dcbc bf26 903d
00000090: c982 d73d 9df5 00be a492 9bbc 8805 a73b
000000a0: 98ce a93d f41a fb3c c017 e13d 656e 95bd
000000b0: bcc2 91bc 8e3b 83bd 8503 a73d 26f3 2abd
000000c0: 6d77 7f3b 8e16 c9bd 4793 da3d 4490 fe3d
000000d0: 65ab e9bd fd73 97bc d44f c63d c0a5 64bd
000000e0: 03d8 97bd b6f8 38bd 74b4 973d 91d1 afbd
000000f0: 2344 4abb 519a d33c a273 a0bd 8a40 c63d
00000100: 52aa ec3d 486e 4e3d 925d 9c3c e00f b63c
00000110: 658d c53d 15c5 ee3d 3bc2 3abe 611a 64be
00000120: 29bc 953d 354d 78bd 69b3 17be 0513 99be
00000130: 9915 9dbd 1046 24bc 20fa c03d 2652 e8bd
00000140: f14a 663d ec23 14be dea4 fabd 1c60 d4bc
00000150: 1859 51be 1b82 8bbd 7c3e 4fbe 65f5 1e3d
00000160: 664b d13d f535 c93d 44a6 ccbc 7e8e 913d
00000170: fb50 c83b 0639 48be 605c 143e ea7c d7bd
00000180: 2078 103e 63f3 1abd 0800 afbc 0bb0 38bd
00000190: ad76 2b3c 66a7 61bd 7496 e83d 5980 0a3b
000001a0: 7331 2bbe 1d78 d93d 2203 35be b0d3 293d
000001b0: 1230 3fbe 576a 633c c30c 0cbc 9817 55bb
000001c0: 3058 14be e51b 65be bb22 d2bd 890b 6dbd
000001d0: 5a6c e1bb 0e0e d6bd 9200 de3c 7c34 5a3c
000001e0: e21e 37be 5344 e2bb c476 843d c53a 44be
000001f0: deb9 afbb 70df a33c 3cb3 f3bc c78b 0ebe
00000200: 9e33 17bd c073 2fbd 2300 d73d 71b4 75bd
00000210: 0969 003b 65f8 273a c308 d4bd 90d0 4c3d
00000220: 2f00 adbd bae9 853d 14fe c4bd 0c15 b2bd
00000230: 256b 193d c440 de39 641e 223d 838d 67bd
00000240: 6926 a7bd 30be f83c 7c48 983c 3252 3ebc
00000250: f2e7 5dbd 5714 dfbd d6fd bfbd a442 743d
00000260: 1cf2 433d b2ab b7bd 71a4 a73c d1c4 73bd
00000270: e3ae 013c b1a6 363d c5bf f43d 819e a33c
00000280: 7c96 f33d 1470 db3d a623 00be b213 463d
00000290: 283e b53d 5c7e 8fbd ab6b e13c 931c 3fbd
000002a0: 00f9 58bd 40e4 dabb 4b86 003e 89f5 783c
000002b0: 8419 9abc 8683 d03d 1dcb 12bd 4980 88bd
000002c0: 75a3 583d 5f06 923b 753d 04bd da80 afbd
000002d0: 5da5 833d f78e bb3d 231f 823d b6d6 453d
000002e0: db1b afbd bbdc d03c 7f65 f03a 780f e93d
000002f0: b3a7 8aba db76 c33c 5c19 f03d 4d81 1ebc

fc.weight f4 [1, 64]
0.061485525 0.049892243 -0.10250451 -0.0851571 -0.026922269 0.00097134453 0.06924293 -0.07853783
0.11033512 -0.023851575 0.027905336 -0.12838934 -0.05074895 0.10065887 0.00397846 -0.07281566
0.020722177 -0.08804388 0.10429663 0.08709761 -0.103296526 0.023689339 0.05659546 0.11068859
0.013352394 0.08671813 -0.07893319 -0.10169346 0.0024488051 0.06252104 0.08018065 0.02249247
0.023391653 0.02448191 -0.06649157 -0.008817843 0.10277564 -0.06529637 -0.038418736 -0.012262304
-0.05859625 0.03598229 0.04706171 0.016249444 0.09977436 -0.03999341 -0.095141105 0.09249409
-0.056973517 0.097211674 -0.011896917 -0.030101977 0.12314487 0.06846924 0.044077836 -0.011504742
-0.0628104 -0.08627799 0.09533885 -0.016282277 0.048075415 0.091483966 0.017085794 0.028716128
00000000: 3fd8 7b3d cf5b 4c3d e2ed d1bd d866 aebd
00000010: 178c dcbc d4a1 7e3a 3dcf 8d3d 71d8 a0bd
00000020: 61f7 e13d 6164 c3bc bb99 e43c 7f78 03be
00000030: 22de 4fbd 3d26 ce3d be5d 823b 6020 95bd
00000040: 8ec1 a93c 5a50 b4bd 7999 d53d 3b60 b23d
00000050: 218d d3bd 2510 c23c a4d0 673d b3b0 e23d
00000060: 00c4 5a3c 4699 b13d b9a7 a1bd a944 d0bd
00000070: 227c 203b 080b 803d c135 a43d 2142 b83c
00000080: da9f bf3c 498e c83c bb2c 88bd b778 10bc
00000090: 097c d23d 1aba 85bd f75c 1dbd d5e7 48bc
000000a0: 9f02 70bd 2a62 133d c8c3 403d 8e1d 853c
000000b0: 8056 cc3d 21d0 23bd 57d9 c2bd 8b6d bd3d
000000c0: 105d 69bd ea16 c73d 49eb 42bc 6c98 f6bc
000000d0: 6133 fc3d 9a39 8c3d f68a 343d 637e 3cbc
000000e0: bda2 80bd 84b2 b0bd 0441 c33d 6962 85bc
000000f0: baea 443d f25b bb3d 82f7 8b3c 163e eb3c
