data/results/gru_baseline_SPX_r15d.pt (torch, 166565 bytes, 9 tensors)

rnn.weight_ih_l0 f4 [192, 15]
00000000: d208 bc3c 1dac afbd a467 41bd bad9 823d
00000010: 8a6b f53c 6d29 393d c859 b23d eb1c 1c3e
00000020: d1e0 e13d 43e3 29be a4a3 6a3d 852c cabd
00000030: 9f9d 693e 5b08 103e 9083 0c3d 9dfa 4a3d
00000040: c955 50be 1923 edbd 7dcf ad3d 835b 0b3e
00000050: 258e cd3c dd87 a4bd 658e fd3d 6ca9 cbbd
00000060: 2920 383e 13c0 84bb 85c8 fc3c 6eef 973d
00000070: 0733 51bd 991c 823e 61cc 02bd 70c8 40be
00000080: f796 8fbe 867e 0abe 33e9 a03d 044b 08be
00000090: 21ad e3bc 814d ed3b 8e5a acbd bba9 7abd
000000a0: 97a1 8dbd e703 fc3c 1a22 81bd 8121 f23d
000000b0: 07a8 ab3c b12a c7bd 6459 8c3d 5a94 82bd
000000c0: a851 2a3e 79bf 06be 1d3a d43c af0b bcbd
000000d0: d47a a63e 0c89 7d3e a760 87be c026 c43d
000000e0: b29b 733c b3fa 3dbe 1115 883e 3eb4 a43c
000000f0: c234 843d 5d72 e03d bf91 9b3d 2222 fa3d
00000100: a7ad c7bc 54e7 88bd 7d7b fc3d 57b0 b73c
00000110: c0b0 523d 1020 98bd 2f8c 123c b32e 9cbc
00000120: cc36 983a 7c8d 88bd 3395 8fbd 7401 6dbd
00000130: 09c7 0cbc 46c1 0c3d fe3e 1dbd 8d9b 3bbe
00000140: ac2a 67bd 2987 bfbd 46e9 3dbe eac8 b3bd
00000150: ef55 05be ec40 0f3c b932 02be 2827 42be
00000160: 3564 d33c ce23 33be 6b41 13bd 1b36 eb3c
00000170: d385 59bb c3f6 2cbd d5f9 f93d 7d06 0e3e
00000180: 114c 3ebd f452 2fbd eeda 8b3c 6c20 073d
00000190: 4adf 83bd d61f 8c3c d848 083b 219d 98bc
000001a0: f0e4 1d3e 5827 403d 6588 dbbd a747 0e3d
000001b0: 03ee 3e3d 06cb 26be b509 97bc a9c0 253d
000001c0: 28f0 393e 9450 723d e9d8 e7be f664 8e3d
000001d0: a910 bd3c 168a 5b3d bfd4 0c3e 63aa 2abe
000001e0: b9ae 69bd 6798 43bd 056d e63d 6b57 1d3d
000001f0: 30ed 78bd 5dbd 6f3d cc16 e2bd 4b13 c53e
00000200: ba2d 243e ef71 a0be bdd0 afbd 8542 b63d
00000210: 2590 14bd 2fb6 8b3c a04e 9ebd 4167 2bbd
00000220: dc40 a0bd 3c62 3e3e 9616 b6bd 5de8 a7bd
00000230: 709a ce3b 9155 0fbe 174c 7a3e 6093 afbc
00000240: 386e 4abe a950 b6bd d2e7 5e3d 6201 283e
00000250: 4a44 29bd 209b 2fbe 2b36 72bd b1d4 83bd
00000260: f642 6e3d c3ce a1bc 46ef 193c a9a7 d2bd
00000270: e195 55bd 306a 0b3d 4ce5 283d feb5 1abe
00000280: a55b 6ebd 6b89 95bd e2ca 023e 3728 0e3e
00000290: 020e 2bbd 74ed 073d c488 933c b9fd 04bd
000002a0: a9c7 e0bd 538e c33c 0745 a6bd 0c9b ca3d
000002b0: f46e d7bc b7e7 973b 02c6 97bd 2be9 183d
000002c0: 4fad ccbb 525f 3bbe 480d b33d ca5c 42be
000002d0: 7066 1c3d ceff 07bd a3b9 5a3e 4ecd 52bd
000002e0: e857 113e d4b2 983b 36d5 4b3d 2e20 e13d
000002f0: a144 bfbd 9139 4cbd d7a2 993d 54a3 c6bd
00000300: 131c 8a3e fbdf 983d 8881 58bd 75ca 373e
00000310: ad95 193e 90e0 653e 0452 043e c24e dbbd
00000320: 98cb f03c a1f1 53bd 3f84 eb3d f608 403e
00000330: 340e b1bd 29f3 103e cde8 a33d 15f5 c93c
00000340: 6a16 2c3e cc97 a6bc c3cf cabd 9891 d1bd
00000350: ad95 9b3d 06f5 5cbc 6136 323c 209e a1bc
00000360: 7f07 c4bb 9b64 d43d d702 de3c c77f d23c
00000370: 06c5 1ebd b94f cd3d dfe1 f63c 63b6 40bd
00000380: 8df8 0dbe 6056 c4bd 1c7f 42bd 811a 2fba
00000390: 34f7 4abd 076b dcbd 004a e33d 8aca b7bd
000003a0: 9694 99bd 0067 ccbd 7e09 02be 2a84 bbbd
000003b0: 7edb 823d 9240 66be dbc8 75bd 6247 6e3d
000003c0: 3b14 693d 5fc5 acbd 24b0 03be 62e5 87bd
000003d0: 824d 9b3d fb5d 23ba 91a1 503d c498 66be
000003e0: 1394 d43c 444d 7abd 0265 733d 8a63 113d
000003f0: cb8d b2bc 26e9 e93d b9de 80bd 88c3 38bd
0.022953425 -0.0857775 -0.04721798 0.06389184 0.029958505 0.045205522 0.08708531 0.15245406
0.110292085 -0.165906 0.057284966 -0.09871773 0.22814034 0.14065687 0.034305155 0.04955541
-0.20345224 -0.1157896 0.08486841 0.13609128 0.025092194 -0.08033726 0.12380675 -0.09944424
0.17981018 -0.0040512173 0.030857334 0.074187145 -0.051074054 0.25412443 -0.031933192 -0.18826461
-0.28044865 -0.13524827 0.07856979 -0.13309866 -0.027792515 0.007241905 -0.084157094 -0.061197024
-0.069155864 0.03076358 -0.063053325 0.118227966 0.020954145 -0.097249396 0.068529874 -0.06375952
0.16632712 -0.13158979 0.025906617 -0.09181916 0.32515585 0.2475931 -0.26440927 0.095777035
0.014868664 -0.18552665 0.26578572 0.020105477 0.06455375 0.10959313 0.07596158 0.122135416
-0.024374796 -0.06684747 0.12328241 0.022422953 0.051438093 -0.074279904 0.008944555 -0.019065237
0.001161301 -0.06667611 -0.07010879 -0.057862714 -0.008592376 0.034364007 -0.038390152 -0.18321057
-0.05643718 -0.09351952 -0.18546018 -0.08778556 -0.13021062 0.008743506 -0.12714662 -0.1896025
0.025804618 -0.17494127 -0.03595106 0.028712323 -0.0033191338 -0.042227518 0.12205855 0.13869663
-0.04645926 -0.04280372 0.017072167 0.032989904 -0.064390734 0.017105024 0.0020795371 -0.018629612
0.15419364 0.04691252 -0.107193746 0.0347363 0.046613704 -0.16288385 -0.018437246 0.04046694
0.18158019 0.059158877 -0.45282677 0.069528505 0.023079233 0.053598486 0.13753031 -0.1666656
-0.057051394 -0.047752764 0.112512626 0.038413446 -0.060773075 0.0585302 -0.110395044 0.38491282
0.16033068 -0.31336924 -0.085847355 0.08899406 -0.03627028 0.017054645 -0.0772984 -0.041846517
-0.07824871 0.18592161 -0.08891027 -0.08198617 0.0063050315 -0.13997485 0.24443088 -0.021432579
-0.19768608 -0.089021035 0.0544203 0.16406778 -0.04132489 -0.17149019 -0.05913369 -0.06437052
0.058169328 -0.019751912 0.009395426 -0.10285885 -0.05214489 0.034036815 0.0412343 -0.15108487
-0.058192868 -0.07301601 0.12772706 0.13882528 -0.041761406 0.033185437 0.01800955 -0.03246853
-0.10975582 0.023871576 -0.08118635 0.09892854 -0.026298024 0.004635777 -0.07410814 0.03733174
-0.006246246 -0.1829808 0.087427676 -0.18980709 0.03818363 -0.03320294 0.21359877 -0.051465325
0.1419369 0.00465999 0.04976388 0.10992466 -0.09339262 -0.049859587 0.07501762 -0.09699121
0.26974544 0.07464596 -0.052857906 0.17948325 0.14998503 0.22448945 0.12921911 -0.10708381
0.029393956 -0.051744107 0.11499833 0.18753418 -0.08645287 0.14155258 0.080033876 0.024652997
0.16805425 -0.020336054 -0.09902909 -0.10232848 0.07596908 -0.0134861525 0.010877223 -0.01972872
-0.005982339 0.103707515 0.027100964 0.025695695 -0.038762115 0.100249715 0.030137 -0.047048938
-0.13864346 -0.09586787 -0.047484502 -0.00066796696 -0.049552158 -0.10762601 0.11098099 -0.08974178
-0.07499044 -0.09980583 -0.12698933 -0.09156068 0.06389521 -0.22485569 -0.060006004 0.058173545
0.05690406 -0.08436083 -0.12860161 -0.06635548 0.07583143 -0.0006231961 0.05093533 -0.22519213
0.025949514 -0.061108842 0.0594225 0.03549532 -0.021796128 0.11421423 -0.06292481 -0.045108348

rnn.weight_hh_l0 f4 [192, 64]
00000000: 8517 c9bd d4e0 bbbd ee36 e03d 957b b1bd
00000010: dba0 cdbd 636a e23c 48aa b63d 6b92 8cbd
00000020: 09e0 b0bd 624a 393c 539a 9c3d 1704 7d3d
00000030: b840 81bd c7fa cbbc 4310 703d 4311 77bd
00000040: 8b11 81bd 5af4 2c3d ac0c f53d b4b6 88bc
00000050: 5c86 a0bd 6134 173d 008e 243d 17f4 de3d
00000060: 4c0b a3bd a4b6 93bd 0d64 e7bd 30c7 5d3d
00000070: 4494 6fbd 1d8b d53d 8465 08bd 69f2 a9bc
00000080: 56db a8bd da9e 89bd 1e1a 573d 9853 5e3d
00000090: 9ea9 373d a8f1 50bd 5719 cebd 10a3 0a3e
000000a0: 051d cc3c ee0a e0bb 1e35 003e 2d01 ca3d
000000b0: 46a0 b73d 85ca ea3b fc49 eb3d d382 f93d
000000c0: 1865 273c 8a17 60bd db49 793d 73d7 14bd
000000d0: d79a 703c 3e5a 97bd e7b9 b63b 905b 25bd
000000e0: caef acbd 073a 72bd 7267 c0bd d768 673b
000000f0: 09e6 f8bd e0db f33d a9ec 9abd eefc fb3c
00000100: cd19 893d 5f7b aa3d 4d4e c6bd 98fa cabd
00000110: f7cc 1f3b 4b42 383c 3530 05bc a310 b1bd
00000120: 2c66 1abe a166 403d 8fd3 80bd c9e3 e9bc
00000130: 5bc3 093d cce3 12bd e3ea bcbd 9629 b33b
00000140: afd1 fdbc 369b c53b fd29 943d 17b6 03bd
00000150: ce99 8d3c 0bbb 1ebd 1cef 3d3d c914 203c
00000160: e917 e6bd c137 a73d b6a1 5dbd b0b5 f9bd
00000170: 367f 78bc 542a cfbd c760 c93d 14b8 19be
00000180: 7f03 e1bc 7ae1 b5bd fcb8 4dbd e6de 0dbe
00000190: 4d06 bb3d 4ce3 50bd 8a39 913d 516a 613d
000001a0: f361 d73c 28cb f23d 32b7 0a3e 83b2 a93d
000001b0: 8f2b f9bd 792b 7b3d 9bef 073d 5e42 353e
000001c0: 95af acbd 792e eabd f337 333d 5c59 8fbd
000001d0: 7022 143d 8bfd 9abd 1c23 083e 1312 293d
000001e0: 4d5d b1bc 1b4a 2b3d e821 0a3d e82a 88bd
000001f0: ed5a ac3c 355e b03b de65 623c df6b 30be
00000200: 3eb4 d93d 062c 9a3d 0556 093e 826a eabd
00000210: 59ec 843d 5fd9 753d d28e 21bd cec0 0fbe
00000220: 6eca c3bc 35b4 bc3d 27c2 0d3c 66ea b1bd
00000230: 4f69 78bd 9c53 e7bd 1d98 0a3d c862 c2bc
00000240: fb20 ca3d 3e5e 93bb 6c8a ea3d 0e74 d8bb
00000250: 84d8 9d3d ec09 1fbc 3cfb e2bd bb1e 8ebd
00000260: 8e40 e2bd 6a03 993c 04ee 33bd 37d7 c43d
00000270: dac1 abbc 0902 81bd 1356 8bbd 447b a9bd
00000280: 1295 85bd 0df4 52bd b97d d83d 2502 253d
00000290: d5d9 13bd 497c 483d a35d 3c3d e124 08bb
000002a0: 77d2 6abe b66a d53c fa99 0c3e f1fc ccbd
000002b0: 2fa9 2fbd 540a 093e 1f3a 883d abe6 2b3c
000002c0: b0b9 da3b e504 013e 592a 88bd eab9 97bd
000002d0: b99e 7abd 6f5e b43d 89c8 20bd 4e9a 9f3d
000002e0: 6bf4 c1bd 3ce4 5c3d 04e2 983d 7bd7 babd
000002f0: 8604 75bd 3bd2 62bd f6d8 63bc f646 af3d
00000300: 89dd c6bb e077 44bd 01e3 153d 6ce4 4cbd
00000310: 8fd7 553c e81c 4abc 6986 943c 96e3 603d
00000320: 3c45 2cbc 54e8 303c d856 933c 40e2 59bc
00000330: 8803 ec3c 4bc6 153d 0c12 b83c 73dd 9fbd
00000340: a072 ec3d cd29 95bd a3f1 5dbc 5712 a83d
00000350: eeab cabc f41c 07bd 4ea1 a63d d6d0 a9bd
00000360: ed43 3fbd 4efd f53d bfa9 613e 54de ab3d
00000370: 83cc d03d dbcf 6e3e a511 f33c d995 4dbd
00000380: 8b3c 8dbd 3fd5 153d c56d 03bd 6131 99bd
00000390: fbe1 ecbd 4cad 5f3d 9ff1 283c d8dc 893d
000003a0: 9b36 a8be d350 81bd 1899 293c 14e5 193e
000003b0: c6a5 323d 09f8 b63d 36d9 8bbc 70e0 5ebd
000003c0: 5969 253d ee42 a7bd 3286 273d 3da2 603d
000003d0: 92e8 ca3c ca4b 64bd 6e54 b7bc b366 143e
000003e0: 1297 db3d d083 e5bd ff8c 17bd 1d37 2e3e
000003f0: 1bed eb3c e1c2 d2bb e084 46bd 0671 27bc
-0.09818939 -0.09173742 0.10947977 -0.086661495 -0.10040446 0.02763862 0.08919197 -0.068638645
-0.08636481 0.011309238 0.076466225 0.06177148 -0.06311172 -0.024899853 0.05860926 -0.060319196
-0.06302174 0.04222522 0.119653076 -0.016688682 -0.07838127 0.036915187 0.040174484 0.108864
-0.07961139 -0.0721257 -0.1129838 0.054145038 -0.058491006 0.104269244 -0.033299938 -0.020745473
-0.0824496 -0.06719752 0.05251514 0.05427894 0.044839494 -0.05101171 -0.10063427 0.13538766
0.024916181 -0.0068372404 0.12520263 0.098635055 0.089661166 0.0071652555 0.11488721 0.12183156
0.010216974 -0.05470995 0.06086145 -0.03633828 0.014685354 -0.07390259 0.0055763605 -0.040370524
-0.08444174 -0.05913737 -0.09394731 0.0035310292 -0.12153251 0.11907172 -0.075646706 0.030760255
0.06694374 0.083243124 -0.096829034 -0.09911078 0.0024383643 0.011246274 -0.008129169 -0.08645751
-0.15078038 0.046972875 -0.062903516 -0.028551 0.03363357 -0.035861775 -0.092244886 0.005467604
-0.030983774 0.0060304655 0.07234571 -0.032156076 0.017285254 -0.038752597 0.04637061 0.009770581
-0.11235029 0.08164931 -0.054109298 -0.12192857 -0.015167048 -0.10115495 0.09832912 -0.15011626
-0.027467487 -0.08880897 -0.050225243 -0.1385456 0.09132061 -0.050998017 0.07091053 0.05503303
0.026291823 0.11855155 0.13546446 0.082860015 -0.12166511 0.061320756 0.03318749 0.17701098
-0.08431927 -0.11434645 0.04375453 -0.06999466 0.036165655 -0.07567891 0.13294643 0.041277003
-0.021650935 0.04181872 0.03372374 -0.06648809 0.02103945 0.005382324 0.013818232 -0.1722865
0.106300816 0.07527928 0.1341172 -0.11446096 0.06490392 0.060021754 -0.039442845 -0.14038393
-0.023900237 0.09214059 0.008652247 -0.08687286 -0.060647305 -0.11295244 0.033836473 -0.023728743
0.09869572 -0.0044973185 0.11452183 -0.0066056317 0.07707313 -0.009706955 -0.110830754 -0.06939455
-0.11047469 0.018678386 -0.04392816 0.096113615 -0.020966459 -0.06299216 -0.06803527 -0.08275464
-0.065225735 -0.051502276 0.10570855 0.04028525 -0.036096413 0.048946653 0.045987736 -0.0020773935
-0.22931848 0.02605186 0.13730612 -0.10009182 -0.042885955 0.13382846 0.06651711 0.010492007
0.0066749677 0.12599523 -0.06648702 -0.07408507 -0.061186526 0.08807074 -0.039253745 0.07793103
-0.09470447 0.0539286 0.07464984 -0.09123131 -0.059818767 -0.055376273 -0.013906708 0.085584566
-0.0060688895 -0.047965884 0.03659344 -0.050022528 0.013051881 -0.012335993 0.018130498 0.054904543
-0.010514554 0.010797579 0.017985746 -0.013298571 0.028810278 0.03656606 0.022469543 -0.0780591
0.115453005 -0.072833635 -0.01354638 0.08206623 -0.024740186 -0.032986596 0.08136235 -0.082917854
-0.04669564 0.12011205 0.22037409 0.08392015 0.101952575 0.23321478 0.0296715 -0.050191734
-0.06896313 0.03658032 -0.032087106 -0.074801214 -0.1156654 0.05460863 0.010311513 0.06731576
-0.3285416 -0.06314244 0.010351442 0.15028793 0.043615125 0.08934028 -0.017071348 -0.05441326
0.04038367 -0.08167063 0.040899463 0.054842222 0.024769101 -0.05573634 -0.022379126 0.14492302
0.10722174 -0.11206782 -0.0369997 0.17013212 0.028799584 -0.006431923 -0.048466563 -0.010219818

rnn.bias_ih_l0 f4 [192]
00000000: f797 3f3d 3b28 7abd df83 9b3d cdd1 a73c
00000010: 3b29 a33c 3739 94bd 065e a8bd 7f0c 6dbd
00000020: 1239 38bd 2385 473d 31ce 89bc a547 763d
00000030: 4d04 6b3d 68bc 9a3d bdce f7bd b20a b13c
00000040: dfcb 843d 9e40 86bd 5b8c 7dba 14c6 193d
00000050: aeb6 06be dbdf 9ebd 986a 663d 52b7 95bd
00000060: 76fa a8bd 2464 c93d 0060 99bd b57c e33d
00000070: aa8a c53d c7c5 63bd 4d60 1dbd 15be eebc
00000080: d2ea 66bd 0d0d 9dbd 7a0c ba3d fbdc c23d
00000090: a33f 123d 9e0e 06bd fcb3 4dbd 2118 13bd
000000a0: cf73 6abd 6b73 d53d 4fe7 dbbc da5b 32bd
000000b0: 6c3a d0bd e7c2 d33d be22 d03c 8b21 c4bc
000000c0: 59a7 19be 31b3 50bd 4cbd 2abc 26d1 66bd
000000d0: 5486 91bc bd62 acbd 2efe c53d 432c 2a3d
000000e0: 7db8 103c a06f a73d 4f23 043d 2a12 4a3d
000000f0: b191 01be d7a6 4dbd a844 c5bc 80e4 24bd
00000100: bf6c 60bd e7f1 85be 6ebf 0cbe cf95 a1bd
00000110: fc3b 0cbd 48a2 19bc fe5a bebc fffb b93d
00000120: 960e fa3d 1217 933c fad5 83bd 2743 3dbd
00000130: a873 24be 332c bcbe 783c f83d e1b3 ae3c
00000140: 2915 de3c 46f0 8ebc ce0e 42be 1f33 d6bb
00000150: 94da 74bd 782a 2abe 4df0 60be 78f5 153e
00000160: ed15 8bbd 5f39 2fbe 0935 42be 1137 cc3d
00000170: f31d 7ebe 07d2 15be a564 c9bd afa9 9abe
00000180: 25fc 453c 3699 b43c 330f 753d 09c0 8f3b
00000190: 2ec2 d13d a5f2 b0bd 2f19 013e 9679 7dbe
000001a0: e459 37be e059 c23c 4063 fcbd d1d9 9ebe
000001b0: c714 7ebc 1bfb acbe bc49 9ebd 2604 4abe
000001c0: 35eb 3c3d f85e a7bd 136b 49bd ffc4 93bd
000001d0: 68e6 eebd 305f 18bb 4add eebd e2fd 80bd
000001e0: 4773 a43c 2323 bfbc 0cb3 4abe 5ffe 223d
000001f0: 2904 8e3d c4b7 18be 01bb 57bd 78ff 4a3d
00000200: 7dcb df3d b676 30bd 420a 043d c932 093d
00000210: 0a78 6b3b 8b18 1fbd 52d4 a1bd fd59 25bd
00000220: 4e41 863d 2323 64bd 6c06 a43d c20c b13c
00000230: f36e 893d f500 2cbd 7854 83bd 7a08 c2bd
00000240: 6b18 d7bc 6c77 673c a651 89bd d0f3 47bc
00000250: 6fc0 5c3c fe2e 653d d68c ea3d c7ea db3d
00000260: 3e41 6e3d da57 bfbd 6d5c 80b7 0c01 31bd
00000270: 1665 413d eb97 1e3b 620e d4bc 7406 5d3d
00000280: c75d ea3d c1c2 c63c e0ca 49bd 4e14 c33d
00000290: ef70 b5bd d280 3439 d7c4 b8bd c949 9bbd
000002a0: aefc b1bc d3ab d4bd e639 c0bd b4a8 42bd
000002b0: 10bf 8d3d 9b40 9abd 6e4f c1bc a1e1 d4bd
000002c0: 1188 923d a665 ad3d 7f52 fd3c 942b babd
000002d0: 883c 23bd 987c bb3c 82f6 a2bc c8bf 99bd
000002e0: 91ad c6bd d1ec 0bbc 0b48 ccbd 0153 783b
000002f0: 81b2 6fbd ea40 ef39 bf97 78bd 5d9d 873b
0.046775784 -0.061073523 0.07593512 0.020485783 0.019917121 -0.07237475 -0.082210585 -0.057873245
-0.0449763 0.048710953 -0.016821953 0.06012692 0.05737715 0.07555467 -0.12099979 0.021611545
0.06484198 -0.065552935 -0.00096720987 0.037542418 -0.13155624 -0.07757541 0.056254 -0.07310356
-0.08250897 0.098335534 -0.07489014 0.1110777 0.09645589 -0.055608537 -0.038421918 -0.029143373
-0.056376286 -0.07668505 0.09084411 0.09514805 0.03570522 -0.032728784 -0.050220475 -0.035911683
-0.05723935 0.10422405 -0.026843695 -0.043544628 -0.10167393 0.10339909 0.025407191 -0.023941776
-0.15005244 -0.05095214 -0.010421108 -0.056351803 -0.017764248 -0.0841727 0.096676216 0.041546118
0.008833048 0.08175588 0.032260235 0.04933373 -0.12653233 -0.05020794 -0.02408059 -0.040256977
-0.05479121 -0.2616112 -0.137449 -0.07889902 -0.034236893 -0.00937707 -0.023236748 0.090812676
0.12209813 0.017955337 -0.06437297 -0.04620662 -0.16059744 -0.3675247 0.121209085 0.021326007
0.0271097 -0.017448556 -0.1895096 -0.006536856 -0.059778765 -0.16617763 -0.21966667 0.1464442
-0.067912914 -0.17111729 -0.18965544 0.099714406 -0.24816112 -0.146309 -0.098336495 -0.30207583
0.012084042 0.022045713 0.05982895 0.004386906 0.10242115 -0.08640031 0.12607263 -0.24753413
-0.17905384 0.023724496 -0.12323618 -0.31025556 -0.015507883 -0.33785328 -0.077289075 -0.19728145
0.04612275 -0.08172411 -0.04917438 -0.072153084 -0.1166504 -0.0023250096 -0.11663301 -0.06298424
0.0200745 -0.023332184 -0.19794863 0.03979337 0.06934387 -0.14913851 -0.052668575 0.04956004
0.10927484 -0.04308196 0.032236345 0.033495698 0.0035929703 -0.038841765 -0.07901825 -0.040369023
0.06555425 -0.05569757 0.080090374 0.021612529 0.06710615 -0.0419931 -0.064125955 -0.09474273
-0.02625676 0.0141275935 -0.06705026 -0.0122041255 0.013473614 0.05595302 0.114526436 0.107381396
0.05816769 -0.09342928 -1.5301828e-05 -0.04321389 0.047215544 0.0024199437 -0.025885765 0.053961232
0.11443668 0.024262788 -0.049265742 0.09525357 -0.08859431 0.00017214127 -0.09021919 -0.07582433
-0.021726932 -0.10384335 -0.09386043 -0.04752417 0.06921208 -0.07531854 -0.023597445 -0.10394598
0.07154859 0.084666535 0.030923126 -0.09090343 -0.03985265 0.02288656 -0.019892935 -0.075072825
-0.09701074 -0.008540348 -0.099746786 0.003789127 -0.058519844 0.00045633997 -0.06069159 0.004138632

rnn.bias_hh_l0 f4 [192]
00000000: 0c05 f4bc 5585 1fbd 791e 0abd c5b4 aabd
00000010: 86dc da3d d645 493d dc62 64bd eb9c 8cbd
00000020: 3b9c a7bd ed00 ebbd c80a f0bd ba78 49bb
00000030: f72d cc3d 6357 8dbb c480 ffbb 3c9a 7b3b
00000040: c92a 8fbd 069b e0bd 647e 08be 500e 5a3d
00000050: ee96 2c3d 2def e0bd 28cb 00bd 0695 f1bd
00000060: 4239 b93d 729f d53d 0bb9 993a a251 343d
00000070: 2099 913c 40ef 13bc c0eb c93d 1ae3 a0bc
00000080: ec17 12bd 98bc 893c 12e9 debd 690a fabc
00000090: 1769 05be fa9d d1bd b801 d93c 7011 e13d
000000a0: 7a30 2dbd 6b64 b8bd 9bb5 963d 5c9e d83c
000000b0: b22b c73d 2ddc f53c 8431 57bd 09e2 66bd
000000c0: 8845 9e3c 2903 ae3d 78dc 80bd 1f92 a3bd
000000d0: e1a2 1a3d 7e72 18bc 7c2f 4a3d 758b 7cbb
000000e0: 05e9 d3bd 3a77 073d e31b d53d 9dd4 e93c
000000f0: 5793 f4bd 6cae 54bd d645 c23d ac87 daba
00000100: a146 e43d a246 52be 174b 35be 2796 efbd
00000110: 7aba 91bd ddb4 c2bd c56e 42bb ac3b 8f3d
00000120: 2477 763d f0a0 ddbc c6f0 82be 5294 abbd
00000130: 287b bbbe 63ad bcbe f618 d63d 25fc a83c
00000140: b613 073d 6faa f7bd 0699 19be d911 c1ba
00000150: aaa3 8bbd b413 88be dfb1 a8be 608d 14bd
00000160: 57e6 ef3c 372a 54bd 8efe 1abd 6f05 e73d
00000170: 1545 9dbd 61c6 e6bd 1d7c aebd 75b9 d9be
00000180: 3129 a53d ef78 8dbd 012b 12be 2406 da3d
00000190: effa 913d 5374 383c 67a0 3fbd ed83 6fbd
000001a0: 6815 19be 2684 123d 7eaf 4dbe 5ab4 b0bd
000001b0: 36d2 7bbc 24bc 3fbe 3223 34be d67b d939
000001c0: 22e1 82bd f874 5cbe c3f9 ee3c 1be5 79bd
000001d0: 208d adbc 924c f83c f42d 8d3c d618 98bd
000001e0: 0485 053e 9f55 ae3d 2740 c8bd 43ac 553d
000001f0: 64b2 f43d 444e 0fbe 0884 a6bb da56 8d3d
00000200: 4bf8 253d b879 543a 77ae 0dbd da28 25bd
00000210: 459a 883d 5ef5 a0bd 4abd 873a 250a cebc
00000220: 7b4a 89bd cdab 91bd a53b c0bd 1747 2dbd
00000230: 3ab2 78bd 242b 66bd 9279 4cbd 3a7c 8e3d
00000240: c1ce b5bd 33e0 ad3d 594d 26bd 26d3 a33d
00000250: ad69 d2bc d54a 6c3d 8728 ecbd 4a54 393c
00000260: f605 69bc 00df 273d 04bd 4cbd 2517 ab3d
00000270: cc7f 81bc a395 1bbd 2cfe e83c ba76 213c
00000280: e406 e33d 3dee 70bd afd7 a33d 15a5 7e3d
00000290: 5dd3 083b 671c bb3d 1222 c13d 0ef7 db3d
000002a0: 5099 8f3d a141 dbbd 5e1a c13d c19a 553c
000002b0: 79ae 56bd b80e 893d 3b72 443d 4e21 c9bc
000002c0: 934e 70bd bcd6 a53c 463c 523d 93fe 44bd
000002d0: 6437 8dbd 9257 e63d be03 9b3d 3e79 64bd
000002e0: f7a5 da3c b514 db3d ccc9 3abd 8ff5 85bd
000002f0: c6bf 2f3d 7d60 6a3c 09b2 d63d b2db e13b
-0.029787563 -0.038945515 -0.033720467 -0.0833526 0.10686593 0.049138866 -0.055758342 -0.06865867
-0.081840955 -0.11474786 -0.11720806 -0.0030742125 0.099697046 -0.004313396 -0.0077973325 0.0038391491
-0.069905825 -0.109670684 -0.13329464 0.053236306 0.042136125 -0.10983119 -0.031443745 -0.11796002
0.09044124 0.104308024 0.0011728121 0.044023164 0.017773211 -0.00902921 0.09859419 -0.01963954
-0.035667345 0.016813561 -0.108842984 -0.030522542 -0.1302837 -0.1023521 0.026490077 0.10989654
-0.04228256 -0.09003528 0.07358857 0.0264427 0.09725131 0.030012215 -0.052537456 -0.056367908
0.019320264 0.084966965 -0.06292051 -0.07986855 0.03775299 -0.009304641 0.04936169 -0.0038535271
-0.10347179 0.033072688 0.104057096 0.028543765 -0.11942165 -0.051924154 0.094859764 -0.0016672513
0.11146284 -0.20534757 -0.17704426 -0.11698561 -0.07115646 -0.09507153 -0.0029668075 0.069938034
0.060172215 -0.02705428 -0.2557432 -0.08377899 -0.36617398 -0.36851034 0.1045398 0.020628044
0.032977782 -0.120930545 -0.1499978 -0.001473005 -0.06818326 -0.26577532 -0.32948205 -0.03626764
0.02928464 -0.05179807 -0.03784042 0.11280333 -0.07679192 -0.112683065 -0.085197665 -0.42524305
0.08064497 -0.06907832 -0.14274217 0.106457025 0.0712794 0.011258203 -0.04678383 -0.058475424
-0.14949572 0.035770558 -0.20086476 -0.08628149 -0.015369942 -0.18724114 -0.17591551 0.0004148173
-0.06390597 -0.21528995 0.02917183 -0.061009508 -0.021185458 0.03030995 0.017233826 -0.07426612
0.13039023 0.08512425 -0.09777861 0.052166235 0.11948088 -0.139947 -0.0050816573 0.06901331
0.040519994 0.0008105296 -0.03459021 -0.040322162 0.066700496 -0.078593 0.0010356095 -0.025151322
-0.06703659 -0.071128465 -0.09386376 -0.042304125 -0.060716845 -0.056193486 -0.049920626 0.06957288
-0.08877326 0.08490028 -0.04060111 0.07999258 -0.025685156 0.057688553 -0.115311675 0.0113116
-0.014222613 0.040984154 -0.049984947 0.08354024 -0.015808009 -0.0379845 0.028441511 0.009854967
0.11085299 -0.05882095 0.08000123 0.062169153 0.0020877935 0.09136277 0.094303265 0.10740481
0.07011664 -0.10705877 0.09428857 0.0130373845 -0.052412484 0.066922605 0.0479605 -0.024552014
-0.058668684 0.020243995 0.051327012 -0.048094343 -0.068953305 0.112471715 0.07569073 -0.055779688
0.026690466 0.10697309 -0.045602605 -0.06540977 0.0429075 0.014305231 0.10483176 0.006892645

rnn.weight_ih_l1 f4 [192, 64]
00000000: f866 b6bd a777 8e3d 55c8 81bd fad2 3a3d
00000010: da4f 8abd 87a7 463d 774f 823d 050a 903d
00000020: 331b ad3d c002 973d 0925 1abd bb32 91bb
00000030: d50c fb3d e825 ecbd d9ca b0bd 5580 513b
00000040: 0d14 c5bc 4bf7 543c 7ad1 cbbd cde5 853d
00000050: 0536 0cbd 4b82 e8bd 5913 7dbc 1ced dc3d
00000060: a8ec 243d 48b6 5e3d 9db3 7dbc e294 8ebd
00000070: 0033 dd3c 2107 5dbd 01ab 433d aee1 99bd
00000080: 3f4c 9c3d c500 b43d 8d2f 993d 71d7 c8bb
00000090: fda7 c33c 9584 2abd 84a7 d8bd 56fb dc3d
000000a0: ce3c f13c 4845 7fbd 4994 ee3d a767 92bd
000000b0: fc58 ce3d e9d5 d5bd 105c b23d 46ac d83d
000000c0: c0ee 5f3d 5c9b 873d 2dd0 9ebd 422e 343d
000000d0: 3032 2a3d 3607 2e3d 5fb4 92bc 0836 1e3d
000000e0: a4c1 c3bc c1f6 ca3c 16e8 d9bd f91e 87bd
000000f0: f9ed a8bc 802d a93c 9a2a 90bc 1a5a 6b3d
00000100: 0c98 ab3d 0d0b 33bd 53e8 393d aecf b83d
00000110: bee0 65bd d741 ed3d a608 e53d 9f78 293d
00000120: 687b 99bd c420 f33b 23f8 e13d 1bc3 fbbd
00000130: 6086 b53c 5886 e4bd 8ee3 723d 9d9f ac3d
00000140: 3f59 cabd be5e 503d 886c 8abd fa28 ad3c
00000150: 5f91 9a3d c01f 13bd 204e d1bc fb79 f0bd
00000160: 53ca e43d a04f e23c 117a d33c 2a8f 16bd
00000170: 5d46 a9bd 6356 d8bb 0b14 dbbd 888d 01be
00000180: 28f2 e2bd d42e b1bc 4cfb f2bd d9ad a33d
00000190: 611d 1b3d 12cd 89bd cbec 90bd 3f0b ec3d
000001a0: 02e7 bebd 550f 213d 3790 4ebd bfb2 b8bd
000001b0: 7cbc 08be 1687 7cbd 2f88 1ebd b46f 3b3d
000001c0: e7af e5bd 624e b5bd bd2a f6bd d107 89bd
000001d0: 8a6a 5bbd ba3e 363d 12ad 63bc 7319 9ebc
000001e0: cd8f 9b3d e59e 6f3d f7b0 f03d a639 70bd
000001f0: 2b38 f23d c5f1 0ebe 4dd6 ac3d fe8e 29bb
00000200: 28ac 66bc ff5c 8f3d 0b65 e83c 8d14 2c3d
00000210: 8ecd 0b3d 09e1 603d 09c1 3a3d d599 e43c
00000220: bed0 113d cdf9 043e 2e02 f63b 04cd 523c
00000230: 161b e8bd 247c 95bd fd16 033d 9c93 593d
00000240: d7f2 263d 3600 fabd 7d0f e4bd 0864 a5bd
00000250: e312 febc 52b7 9abd 96d6 913d 9335 dbbd
00000260: 94c5 9cbd 9c4d a83d 11ec f43d feed f93d
00000270: 7f6c cfbd 85e4 de3d 0713 ccbd 96d4 bebc
00000280: 6053 92bd 0bee 01be 5c10 0fbe 46c9 08bd
00000290: c884 503d d6d0 833d 7739 d0bd cc5e 87bd
000002a0: 9157 e7bd 6bb9 7e3d cfb0 263d 173e 463d
000002b0: 976d 42bd b015 093e 56cb dc3c f6a3 07bc
000002c0: 9cd9 b23c d846 aa3d 9d44 98bd 5549 9abd
000002d0: 4669 c63d 0c8d 1abd 72b0 bdbd 1bde dbbc
000002e0: 9944 483d b85a 813c 7327 b23d 9dcc 6bbc
000002f0: 5186 823d 87bd a8bd e1f9 703c 4db6 ea3d
00000300: f331 cdbd 0018 7f3d 5fed 15be 40ae 30bd
00000310: 279f 14be db0e f03d ef04 a0bd 17b9 273e
00000320: 0aaa a33d 1473 4ebd 3e9d 383c d0a6 d43d
00000330: 2298 ba3d 04a8 d2bd 0650 38bd 59c1 303e
00000340: fe8b cbbd 2337 503c 8e43 a6bd 8d05 4abc
00000350: 5734 df3c deea 313d 9e4b b7bd 7522 85bd
00000360: 0053 dabc ce5f bbbd 875b 5abd 0602 d7bd
00000370: 1b2d 02be 4a0a 773d 0f0b 99bd 2f44 b83d
00000380: 0b6a dcbc 257d 3d3d 7261 5cbd 759b aebd
00000390: 4d3b e83d 8e20 3bbd 010b ad3d d0e7 6a3d
000003a0: f293 cc3b 9d08 133e acdc bb3d 371a 293d
000003b0: 45a8 92bd 4ff7 6b3d 71a0 a3bd 4972 56bd
000003c0: 8913 2abc 0315 a63c 0b9d 8c3d 66ae 8ebd
000003d0: fdbd 8b3d e0ff 6ebd db8f c6bd 47bc 933c
000003e0: b74a 513d 6510 36be dec0 d93d d0ef db3d
000003f0: a073 853d 0867 24bd f877 b7bd 89d8 5d3d
-0.089063585 0.069564156 -0.063370384 0.04561136 -0.06753512 0.04849961 0.06362813 0.07033161
0.084524535 0.073735714 -0.037632976 -0.0044310964 0.12258307 -0.115306675 -0.0863244 0.003196736
-0.024057413 0.012998412 -0.09952064 0.06537972 -0.034231205 -0.113529764 -0.015446507 0.107874125
0.040264755 0.054373056 -0.015484718 -0.06961991 0.027001858 -0.053961877 0.047770504 -0.07513748
0.0763173 0.08789209 0.07479773 -0.0061291982 0.023883814 -0.041630346 -0.10578826 0.10790126
0.02944794 -0.06232193 0.11649377 -0.07148676 0.10075566 -0.10441191 0.08708966 0.105797336
0.05467105 0.06621429 -0.0775455 0.043989427 0.04155177 0.042487346 -0.017908273 0.038625747
-0.023896046 0.024775865 -0.1063997 -0.065977044 -0.020621287 0.020651579 -0.017598439 0.057458974
0.0837861 -0.04371171 0.045387577 0.09023987 -0.056122534 0.115848236 0.1118329 0.0413748
-0.07494241 0.0074196775 0.110336564 -0.12293073 0.022158802 -0.111584365 0.059299044 0.08428881
-0.098803036 0.050871603 -0.06758982 0.021137703 0.075472586 -0.03591895 -0.025549948 -0.11742016
0.11171403 0.027625859 0.025815042 -0.036757626 -0.08265374 -0.006602095 -0.10697182 -0.12651646
-0.11081344 -0.021628775 -0.11864337 0.07992143 0.037869815 -0.06728567 -0.07076415 0.115255825
-0.09321405 0.039321262 -0.050430503 -0.09018468 -0.13353151 -0.061652265 -0.038704094 0.045760825
-0.11215191 -0.08852841 -0.120198704 -0.06690944 -0.0535684 0.044493414 -0.013896244 -0.019299245
0.07595787 0.058501143 0.11752503 -0.058648728 0.118271194 -0.13959415 0.08439312 -0.0025872584
-0.014079131 0.070001595 0.028368494 0.042011786 0.03413158 0.05490211 0.04559425 0.027905384
0.035599463 0.12985916 0.007507584 0.012866262 -0.11333291 -0.072990686 0.032004345 0.053119287
0.040758934 -0.122070715 -0.11135767 -0.0807572 -0.031014865 -0.07554497 0.07121007 -0.10703578
-0.076548725 0.08217928 0.119590886 0.122035965 -0.10128116 0.108834304 -0.09964567 -0.023294728
-0.07144809 -0.12688462 -0.13971084 -0.033395074 0.05090788 0.06436317 -0.101672105 -0.06609878
-0.11295999 0.062188547 0.04069596 0.048399057 -0.047467794 0.1338718 0.026952427 -0.008278837
0.02183228 0.083142936 -0.07434962 -0.07533518 0.09688048 -0.03773217 -0.0926217 -0.026839307
0.048893545 0.015790328 0.086989306 -0.014392045 0.06373275 -0.082392745 0.014708013 0.11460552
-0.10019293 0.062278748 -0.14641331 -0.043134928 -0.14513837 0.117215835 -0.07813441 0.163792
0.07991417 -0.050402716 0.011267958 0.103833795 0.09111048 -0.10285953 -0.04499819 0.17261256
-0.09938811 0.012708458 -0.08118354 -0.012330425 0.027246637 0.043436877 -0.0894997 -0.06500713
-0.026650906 -0.09149133 -0.053309944 -0.10498433 -0.12712519 0.060312547 -0.074728124 0.0899738
-0.026906034 0.046261925 -0.05380387 -0.08525745 0.11339436 -0.045685343 0.084493645 0.05734998
0.0062432224 0.14358754 0.09172949 0.041284766 -0.07161001 0.0576089 -0.07989586 -0.052355085
-0.010380634 0.020273691 0.06865891 -0.069668576 0.06823347 -0.05834949 -0.09695407 0.018034114
0.051096644 -0.17779692 0.106324896 0.107391 0.06516194 -0.04013732 -0.08958429 0.054161582

rnn.weight_hh_l1 f4 [192, 64]
00000000: fb12 123e bff3 acbd 4fe1 e4bd 4d5a 6f3d
00000010: 476b 833b 2cc8 96bd 2926 15bd 59ec 93bd
00000020: d8ab 0c3d 5ae8 523d 9b4b 83bd 87cc b33d
00000030: 254e 983d 717f c2bd 800c 573c 79cf e4bd
00000040: b2a5 613d 679e 503c 8399 403d e76f 303d
00000050: 8620 af3c 6098 c13d 2fa8 02bd 9a73 eebd
00000060: ed18 90bc b363 f0bd a981 bebd debd 133d
00000070: b525 fe3c 5e5e cfbd 1883 e43d d65d 69bd
00000080: 2cdc d43b b575 d5bd 5958 8cbd 1a41 40bd
00000090: a673 9b3b 2bee 243d 4c6c 283d dbf3 c6bd
000000a0: 5a8b 8abd 725e 3e3c 2032 b0bd 2e5c 18bc
000000b0: c722 843c 5b1d 093c abba 483d a27c 093d
000000c0: a7b0 563d a74c 263d 0a4e c23d 104b 10be
000000d0: 4ca0 323d 6ea1 993d fc2e 87bd f7a8 783c
000000e0: 8397 933d b019 ffbd db66 e63d 0e44 8dbc
000000f0: 35b5 03be 0a9c 943d 5a42 e43c 5134 dabb
00000100: 0290 b43c 343a f63c aec6 063e 97b9 17bd
00000110: a225 f3bc badc 24bc a706 1a3e e514 073e
00000120: e165 7fbd efee bf3d d62e 433d 5473 9dbd
00000130: 54d1 bc3b e9df e63d 606b d63d 269e 8cbd
00000140: 7b88 56bd e673 4e3c 9def 073d 3101 a7bc
00000150: 8ec2 1cbc 5ca6 46bd 7b64 e7bd 030e 68bd
00000160: cda1 8f3d 71de f23d 97b8 af3d 9be3 c2bc
00000170: bb09 9ebb 61bb e5bd 83fb b13c b00a 7c3c
00000180: 8036 7bbd 55c6 c7bd daa3 93bc 589c 0abe
00000190: 00e1 a33d 76c8 90bd 8433 f83d 4190 ad3c
000001a0: 24dd adbb 69e7 febc 9c8f 6dba 1189 f6bc
000001b0: bfea 903c e695 323c 7987 a23d 0886 6f3d
000001c0: 51d6 7dba 05d4 c63b 4124 b63d 6c32 e83d
000001d0: 408c 8cbd 84fe bfbd 9b0d e93d 01e2 b7bd
000001e0: 0152 97bd 30fb da3d 700c c73c ff8b 17bd
000001f0: 4a6f 8b3c 6df7 963d 14b7 863d dafc bd3d
00000200: 1307 c2bd b98f 533c 8d69 3b3c 7ee9 63bb
00000210: 4d6a afbd 23db 5e3d 936b 61bd f935 0f3d
00000220: d727 9dbd 25ef e93d abd2 b4bc f65d b6bd
00000230: 3248 033e d7b6 98bd 6535 9dbd d93a a1bd
00000240: 4715 41bd 76e8 19bc bd58 3b3c 8b70 d73d
00000250: e18b ea3b 4d21 45bd 0936 80bc f1f4 8ebd
00000260: 849b 8d3d aa8e a53d 170f 04bd d288 2dbd
00000270: 1774 9ebd dc81 6fbd 52ac d33c 38e0 cebd
00000280: 977b b4bd a1f8 f43c 08ad 7bbd 0de2 f2bd
00000290: 4e29 e4bd a6e9 30bd d620 eb3d b675 673d
000002a0: df0e 75bd d264 443d 8cb4 9a3d 6eec c6bb
000002b0: 4e54 883d 788c 2fbd 73eb 9cbd 566e 953d
000002c0: 3017 223d 9cef f43d 5d38 47bd e492 f13d
000002d0: 6b12 08be 5145 083b 4465 e53c 2d1f 573d
000002e0: 2437 103c 5850 85bd 907e 083d af90 dc3c
000002f0: d901 8fbd 3b9f c13c 603e 593d 1756 bb3b
00000300: f8ef b53d ad3d 09be 1374 5fbd 0a56 e93c
00000310: 90eb 7f3d 40e8 683d 50b3 823d 3654 143d
00000320: 6f7c b73c 3d23 e3bd 5123 d13d 9426 ca3d
00000330: 1dfc ba3d db46 abbb b422 ec3b c2ac 0bbe
00000340: 642a 19bd 80dc f5bc 188a e6bc 9e90 7ebd
00000350: 2f5b 10bd c9bf 903c 98ef cc3d 68d3 f0bd
00000360: 071a afbd 0e69 a23b 9d30 ca3c a654 d9bb
00000370: 3d37 3ebd ac7a b53d 2205 a5bd 860e 17bd
00000380: ca6e 973d 80dc 70bd 7a7b 8bbd 39ed fa3d
00000390: 7252 2e3c 270c c83d a3dc a03d 32fc c93b
000003a0: 4af7 103e 3178 9ebd 25bf 05bd ef95 c23d
000003b0: 07d5 72bb 4e17 613d b8bc 92bb ff4d 59bd
000003c0: 5e94 603d 9f84 66bd 1de6 883d 8758 8abc
000003d0: 50bf bbbc cdbb 92bc 4f36 4e3b a050 3b3d
000003e0: 2a66 b6bd 4504 853d 2712 0a3d 2940 893d
000003f0: 188a 72bd c070 883c eaf4 18be 3aae 503c
0.14265053 -0.084449284 -0.11175787 0.058435727 0.004010591 -0.073623985 -0.036413345 -0.07222814
0.03434357 0.05149112 -0.06410905 0.08779245 0.0743678 -0.09496964 0.013125539 -0.11172385
0.05508966 0.012733079 0.0470214 0.04307547 0.021377813 0.09452891 -0.031898674 -0.11643143
-0.01759001 -0.11737766 -0.093020745 0.036069743 0.03102384 -0.10125421 0.11157817 -0.056974255
0.006495973 -0.104228415 -0.068527885 -0.046937086 0.004744011 0.040266197 0.041118905 -0.097144805
-0.067648605 0.011619197 -0.086033106 -0.009299321 0.016129864 0.008368815 0.049006145 0.033566125
0.052414563 0.040600445 0.09487541 -0.14091134 0.043609902 0.075014934 -0.066007584 0.015177003
0.07206633 -0.124560714 0.11250087 -0.017244365 -0.12862094 0.072563246 0.02786367 -0.0066590686
0.022041325 0.03005705 0.13161728 -0.037042227 -0.02968103 -0.010062391 0.150416 0.13191564
-0.06235302 0.09371745 0.047652088 -0.07688013 0.0057622585 0.11273176 0.10469699 -0.06866102
-0.05237625 0.0126008745 0.033187497 -0.02038631 -0.00956787 -0.048498496 -0.11298462 -0.056653988
0.07013283 0.118588336 0.085801296 -0.023790171 -0.0048229373 -0.1121738 0.021726375 0.0153834075
-0.061331272 -0.09754626 -0.018022466 -0.13536203 0.080019 -0.07069485 0.12119201 0.02118695
-0.005305903 -0.031116204 -0.0009062232 -0.030094655 0.01769006 0.010899996 0.079359956 0.05847743
-0.000968312 0.006067755 0.08893634 0.11337742 -0.06862688 -0.09374717 0.11379548 -0.08978654
-0.07388688 0.106924415 0.024297923 -0.036998745 0.01702084 0.073714115 0.06577888 0.09276743
-0.094740056 0.012912684 0.0114387395 -0.0034776623 -0.08565197 0.054408204 -0.05503423 0.03496358
-0.076736145 0.11422566 -0.02207311 -0.089046404 0.12820509 -0.07456749 -0.076762 -0.078725524
-0.047139432 -0.009393802 0.011434731 0.10519513 0.007157788 -0.04812746 -0.015650766 -0.069803126
0.06914428 0.08083852 -0.032240953 -0.04236681 -0.07736986 -0.058473453 0.025839005 -0.1010136
-0.088126354 0.029903712 -0.061444312 -0.11859522 -0.11140691 -0.043191575 0.11480872 0.056508742
-0.059828635 0.047947712 0.07553968 -0.006070665 0.06656705 -0.04285857 -0.07662096 0.072964355
0.039572895 0.11959764 -0.048637737 0.11795595 -0.13288276 0.002079327 0.028002389 0.052519966
0.008802209 -0.06509465 0.033323824 0.02692446 -0.06982774 0.023635497 0.053038 0.00571705
0.08883661 -0.13402434 -0.054554056 0.02848341 0.06248051 0.056862116 0.063818574 0.036213122
0.022398202 -0.110907055 0.10211814 0.098706394 0.09130118 -0.0052269525 0.0072062854 -0.1364012
-0.037393942 -0.03001237 -0.02814202 -0.062149636 -0.03524321 0.017669575 0.100066364 -0.117590725
-0.08549886 0.004956371 0.024681384 -0.0066324053 -0.046439398 0.088612884 -0.0805762 -0.036879085
0.07394178 -0.058804035 -0.06810661 0.12252278 0.010639774 0.09767943 0.07854583 0.006164097
0.14156833 -0.077377684 -0.032652993 0.09501254 -0.0037053244 0.054953866 -0.0044780634 -0.0530529
0.054828994 -0.05627882 0.066845156 -0.016887916 -0.022918373 -0.017911816 0.0031465476 0.045731187
-0.08906205 0.06494955 0.033708718 0.06701691 -0.059213728 0.016655326 -0.14937177 0.012736851

rnn.bias_ih_l1 f4 [192]
00000000: 4991 55bd 1a1e c4bd 65e7 b7bd a4c5 4dbc
00000010: b627 f6bd fd54 2ebd 55b8 9bbd 01cc d7bb
00000020: db38 e33a 69d4 c43d d4a1 4e3d 5628 92bd
00000030: f0bc 07be ecea 113c 58d7 ffbc 2759 49bd
00000040: b29d 7abd 51d8 1cbd a3d6 babc 0c53 a03c
00000050: ba2c 07bd 2fa9 2a3d 7310 5e3d c942 f2bc
00000060: ffcc de3c a2aa d73d 9040 cfbd 43ae 8cbd
00000070: 1f15 51bd 227a 54bd fd39 fdbc fdd1 b53d
00000080: 9cc9 e9bd 27fc 373e 6082 cbbd b426 0dbe
00000090: ceea 32bd 2452 283d 3a6d c8bd 4fb1 c03d
000000a0: 310a 883d a626 66bd 4654 023e 7293 093e
000000b0: e8e0 9fbb a991 3eba 6d80 623d 03d4 993d
000000c0: 933b bc3d 88b9 e73c 4019 853d c086 6bbb
000000d0: 39cb dabd eebf d1bd cf4a 703d f467 bbbc
000000e0: fba6 a83d 7ef6 7a3d 982e 34bd 20f0 c93d
000000f0: 8d0a f73c befd 1abd fdaf 833d 170e bb3d
00000100: 08aa 293c 579a 9fbd 7944 583d d0ee c93c
00000110: 611a d1bc a620 65be 68a2 0dbe ee2f 13be
00000120: e441 f93c eaa0 04bd 91bb 82be 8e73 f1bd
00000130: 4a45 07bc 4a55 f33d de07 06bd afce 76be
00000140: b8ab fabc 11b1 cfbd 99af 773d 76be 95bc
00000150: c97d 3bbe 0597 a03e ccd6 b53d 0038 723c
00000160: 0760 6dbe 70e9 64bd 1706 5ebe 7818 56be
00000170: 19e0 88be 41fa 343e dfb8 91be 3ea0 16be
00000180: c1ed 903d e97d 68be 3b1e 6fbe 02fc 04be
00000190: 4285 65be 9fc9 bbbd 06cc 223d 1a52 88be
000001a0: bc14 91bd f9b3 ab3d 3fe6 b2be 21f1 8abe
000001b0: 56cb ecbd cf6a 043e 9720 0abe 32b9 b33d
000001c0: b935 823b a84e 6bbe 52fa a0bd d7d1 fcbd
000001d0: 69d0 80bd 559c 91bd 26ff 98bc f772 98bd
000001e0: db66 98bd 00ba ddbd 54e6 ecbc 531d 0fbe
000001f0: c505 913d 648f 2bbc a827 26bd 5e0c 7cbb
00000200: b254 e53d 48c6 3bbd 11c7 d5bd ed20 8b3d
00000210: 082e 7d3d cd2c dc3d 3995 d6bc 20a0 b83c
00000220: 52fb bdbd 821a af3d 306c 293c 7d15 623d
00000230: 8270 a5bd 5b25 fd3d f13c a7bd d643 80bd
00000240: 9550 373d b338 89bd 2137 d83d ff03 843d
00000250: 03ad 60bd 4535 a5bd 65d0 84bd ef15 963d
00000260: 12e5 0abc 7913 aabc f06b afbd 0d7d acbc
00000270: 0f92 e4bc aa72 8dbd 3e72 2ebd 67e0 d43c
00000280: 5956 ed3d 5ee3 06bd 7c63 0d3d 005e 7dbd
00000290: a96c 0a3d c191 c63d d380 93bd 2df8 493d
000002a0: 411b dcbd 2667 b33d 7d70 50bd 992b 713d
000002b0: 02e2 9ebd 95e8 843c 4d1c 1dbb 2c49 283d
000002c0: 8a4f 8b3d d674 b4bd 0ec9 c1bb 9fe7 76bc
000002d0: d4d4 573c 8a1a 83bd 72c6 8a3d e6f9 533d
000002e0: 96d0 a5bd 0a0f 46bc b08a d43d 6e55 113d
000002f0: 956b 823c 43eb 043d 4c5e dc3d fc8f 9bbd
-0.052140508 -0.09576054 -0.08979682 -0.012559328 -0.12019293 -0.04256152 -0.07603518 -0.0065855985
0.001733567 0.096108265 0.0504473 -0.071366 -0.13255668 0.008906107 -0.031230614 -0.049157288
-0.061185546 -0.038292233 -0.022807425 0.01957085 -0.03300164 0.041665252 0.054214906 -0.029572861
0.02719736 0.105305925 -0.10119736 -0.06869175 -0.051045533 -0.051874287 -0.03091144 0.08877943
-0.11415407 0.17967282 -0.099369764 -0.13784295 -0.04368096 0.04109396 -0.09786458 0.09408819
0.06642569 -0.0561892 0.1272746 0.13435152 -0.004879106 -0.000726963 0.055298258 0.07511141
0.091910504 0.02828671 0.06498957 -0.0035938472 -0.10683293 -0.10241686 0.058665093 -0.022876717
0.08234974 0.06127023 -0.043989748 0.09860253 0.030156398 -0.037839644 0.064300515 0.09133547
0.01035548 -0.0779311 0.052799676 0.024650007 -0.025525274 -0.22375736 -0.13831484 -0.14373752
0.030426927 -0.032380022 -0.25533727 -0.117896184 -0.008256266 0.11881502 -0.032722346 -0.24102281
-0.03059946 -0.101411946 0.060470197 -0.018279295 -0.18309702 0.3136522 0.0887886 0.014783859
-0.23181163 -0.055886686 -0.2168201 -0.20907772 -0.26733473 0.1767359 -0.28461358 -0.14709565
0.07076598 -0.22704281 -0.23351376 -0.12986758 -0.22414115 -0.091693155 0.039745353 -0.2662514
-0.07084033 0.083839364 -0.3494129 -0.27137092 -0.11562221 0.12931369 -0.13488995 0.087755576
0.0039736894 -0.22979224 -0.07860245 -0.12344711 -0.06289751 -0.07109896 -0.018676352 -0.07443803
-0.07441493 -0.10826492 -0.028918423 -0.1397603 0.070811786 -0.010471199 -0.040565163 -0.003845952
0.11197795 -0.045843393 -0.104383595 0.067933895 0.061811477 0.107507326 -0.026194202 0.022537291
-0.09276451 0.08549978 0.010340735 0.055196274 -0.080781 0.123606406 -0.081659205 -0.06262939
0.044754583 -0.06700268 0.1055739 0.06446075 -0.054852497 -0.08066801 -0.064850606 0.07328402
-0.008477466 -0.020761238 -0.08565509 -0.021055723 -0.027901677 -0.06906636 -0.04258942 0.02598591
0.11588735 -0.032931678 0.034518704 -0.061857224 0.033795033 0.09695769 -0.07202306 0.049308944
-0.10747386 0.087599084 -0.050888527 0.05887947 -0.07757951 0.016224185 -0.0023973167 0.041085407
0.0680228 -0.08811347 -0.00591386 -0.015069871 0.013173301 -0.06401546 0.06776132 0.051751994
-0.08096425 -0.0120885465 0.10378015 0.035481863 0.01592044 0.032450926 0.10760173 -0.07595822

rnn.bias_hh_l1 f4 [192]
00000000: e28f a6bd 28ab a73d 06ae 4d3d 8f1a 13be
00000010: dc56 7cbd 2651 9c3d f117 04be 669a ddbd
00000020: 4670 4cbc e986 b33d 0896 093d 4f9b d6bc
00000030: 8c2f 90bd 4ba9 a5bd 1fa9 9cbd 7f40 2bbd
00000040: 5718 083b 394c a7bc b1a9 86bd b9b4 41bd
00000050: fda2 2dbd fd98 56bd 1bdd 783d 663f f9bd
00000060: bde4 103d 5f14 87bc 4ef9 08be 3340 9abd
00000070: d0d1 cb3d e0ff f2bd 58b5 cb3d ffb2 a63d
00000080: 2287 b83d 060e 1f3d 704f 91bd b1b6 48b9
00000090: 46c3 623d 646d 10be 661e 8cbd 79fc af3d
000000a0: 8490 633d dd9b 14be adfb 603d 72db 913d
000000b0: 7633 b2bd 800b 213c fcfd dabd 855c b9bd
000000c0: e499 27bd 92a8 c5bd 2680 393d 85bc 97bd
000000d0: cdd3 b7bd 6fd9 7abc 52ae 05be 2f4c 693b
000000e0: 573d c13d 3c74 cd3d c1d0 da3d 3012 fabd
000000f0: 8c0c 5d3c 9f27 bd3c 29a4 863d 51d3 e7bd
00000100: 2adb 36bc 8088 a43c 5013 5fbc d70b 37bc
00000110: 64dd f9bd a117 e8bd 6dfa 96bd 5b10 2ebd
00000120: 5281 e1bc 0350 c4bd 1d82 86be 99cd 8bbb
00000130: 6624 043d 78f2 2e3d fd91 cc3a 2fe8 46be
00000140: 4725 aebc 3713 18be 00d5 aabd 8b15 093d
00000150: 772f 1bbe a3a9 093e e27e 36bc 45ba 08be
00000160: fd67 5abd c0b3 043d fee8 fbbd c810 91bd
00000170: 5c3e 64be 0db0 083e d300 39be 0057 05be
00000180: eb4b 983c 5df3 16be 8a8a 91be d429 8bbe
00000190: d490 40be 17b0 f4bc 3e47 893d b9e3 85be
000001a0: c1d2 c53c 4638 153e 1993 95be 2645 63be
000001b0: 3b79 6dbd 8f9f d33d f771 0cbe 15fc 8dbd
000001c0: 0105 4b3c 8874 81be 9518 6dbd 9852 f0bd
000001d0: 3dac 133d 8559 8abe e6f4 133e f7cc bdbd
000001e0: f96f fa3b 59d4 a9be 4c7b 923b 3ac8 503d
000001f0: df09 1bbe fa31 49be bd45 8abd cf08 063d
00000200: bbcd 29bd e03e cf3d e728 7fbd 2b9a 80bd
00000210: 0f3f c43d ad12 1bbc 9c1f ef3b e19c c7bd
00000220: ed76 21bc 05a4 b73d 16b0 bdbd 9a09 a6bd
00000230: 0d26 57bc c147 6b3d c8fa 7dbd 378a cd3d
00000240: 1030 dcbc 73af 913d a64a 71bd 8827 4dbd
00000250: f181 3c3d 110a a53d 766d 52bc 4ea0 a6bb
00000260: c819 31bd 31a2 e63d 8278 dfbd 8841 1d3c
00000270: 5aa0 dbbd 20c3 5c3d c643 7b3c b6af 193c
00000280: 76ef 8bbd 1955 2b3d 91dd a63d 6736 f73d
00000290: 0b3b 56bc 60c6 743a 8ec0 723d cb6c d93d
000002a0: 5ddd d6bd 39a8 973c 059a b33d fb49 20bd
000002b0: b8f4 98bd d1da 67bd b0bf 5cbb d1ca 23bd
000002c0: 87c1 a73d 0c31 9b3d 9615 6bbc 9ae8 7dbd
000002d0: 706b 843d 465b c2bd cd71 763d af1f babd
000002e0: 889a 9c3b 9b05 19bd 8c0b 8abd 008e 953d
000002f0: f762 07bc 3e85 80bd ffed 1f3d 8a05 d9bc
-0.08132912 0.08186942 0.05021479 -0.143656 -0.061606273 0.07632665 -0.12899758 -0.10820465
-0.01247794 0.087659664 0.033590347 -0.026197104 -0.07040319 -0.08088931 -0.07649445 -0.041809555
0.002076646 -0.020422088 -0.06575335 -0.04729149 -0.042391766 -0.052391995 0.060757738 -0.121702954
0.03537439 -0.016489206 -0.13376352 -0.07531776 0.09952128 -0.118652105 0.09946698 0.081396095
0.090101495 0.038831733 -0.070952296 -0.00019141544 0.05536201 -0.14104229 -0.068417355 0.08593077
0.055557743 -0.14512582 0.054927517 0.07121934 -0.08701222 0.009829402 -0.10692975 -0.0905085
-0.040918246 -0.09651293 0.045288227 -0.07409004 -0.08975945 -0.015310629 -0.13054779 0.0035598387
0.09435528 0.100319356 0.10684348 -0.122105 0.013491761 0.023090182 0.0657428 -0.11319602
-0.011160651 0.02008462 -0.013615444 -0.011172256 -0.1220043 -0.11332632 -0.07371984 -0.042496067
-0.027527485 -0.095855735 -0.26271144 -0.0042664525 0.032261275 0.042711705 0.0015607473 -0.19424509
-0.02125801 -0.1485108 -0.08341408 0.03346781 -0.15154825 0.13443618 -0.01113865 -0.13352306
-0.053321827 0.032397985 -0.12300299 -0.07083279 -0.22289413 0.13348408 -0.1806672 -0.13021469
0.018590888 -0.14741273 -0.2842601 -0.2718035 -0.18805248 -0.029869122 0.067030415 -0.261503
0.024148347 0.14572248 -0.2921379 -0.22194347 -0.057976943 0.10333168 -0.13715349 -0.069328465
0.01239133 -0.2528422 -0.05788477 -0.117345035 0.03605293 -0.27021423 0.1444889 -0.092676096
0.0076427427 -0.3316982 0.0044702645 0.0509722 -0.15140484 -0.19647971 -0.06751583 0.032723244
-0.041455965 0.10119414 -0.062294867 -0.06279405 0.0958234 -0.009464902 0.0072974693 -0.09746719
-0.009855014 0.08966831 -0.09262101 -0.081073 -0.013131631 0.057441477 -0.06200674 0.10036128
-0.026878387 0.071135424 -0.05890908 -0.050086528 0.04602236 0.08058561 -0.01284348 -0.005085028
-0.043237478 0.11261404 -0.10911657 0.009598143 -0.10723944 0.053897023 0.015335983 0.009380272
-0.06832783 0.041829202 0.08147729 0.12070923 -0.0130756 0.00093374215 0.059265666 0.10616454
-0.104914404 0.018512832 0.08769611 -0.039133053 -0.074685514 -0.056605164 -0.003368359 -0.039988343
0.08191209 0.07577714 -0.014348408 -0.061989404 0.064658046 -0.09490065 0.060167123 -0.090880744
0.0047791637 -0.03735886 -0.06740484 0.07302475 -0.008263341 -0.06275414 0.03904533 -0.026491899

fc.weight f4 [1, 64]
00000000: 0345 68bd 31d7 cbbd be5b ee3c a608 bc3d
00000010: b2b4 57bd 9b4e 1b3d 6534 8b3d 1845 be3c
00000020: 9aae 9e3c ec0f cf3c cb76 cbbc a7dc 82bc
00000030: d8db 0c3d 5f33 933d d7d2 e93c a985 9d3d
00000040: d938 a6bd 5f23 143d bd2d 403c 0a8f c0bd
00000050: 4aad 71bd 52e4 243d 98c7 40bb 604f d33d
00000060: 0f45 743d f9f2 8dbc 46de 983d a4c7 d5bd
00000070: d552 4fbd 767e 653d c995 8dbd 9626 e1bd
00000080: 8a1f e83d 14e4 f63d 378e 633d 7716 eebd
00000090: 0c6f 8e3d 397f 2b3d 0a79 b8bd 048c a9bc
000000a0: a055 bcbd b573 93bd 34e4 80bd 0b2e 50bc
000000b0: fe54 d0bd 80ce a13d dee5 3bbd da13 ae39
000000c0: 8005 683c f51d 963d 7f6a 81bb f621 973d
000000d0: f75e a13d c59c c5bc a4d6 3ebc cbc3 54bd
000000e0: 77e1 12bc ec04 2f3d 3396 753b 1a33 bcbd
000000f0: 51c4 f13d 928a f53d 682d f9bc 7431 1abd
-0.05670644 -0.09953154 0.02909648 0.09181337 -0.05266256 0.03791676 0.06797103 0.023226306
0.019370366 0.025276147 -0.024836918 -0.015974356 0.034389347 0.07187533 0.02854292 0.07691509
-0.081163116 0.036166545 0.011729655 -0.094022825 -0.059003152 0.040256806 -0.0029415842 0.10317874
0.059636172 -0.017327772 0.0746427 -0.10438469 -0.050616104 0.056028806 -0.06913335 -0.10993688
0.113341406 0.12055221 0.05555555 -0.116253786 0.06954774 0.041869376 -0.09007461 -0.020696647
-0.09196019 -0.07199804 -0.06293526 -0.01270629 -0.10172461 0.07900715 -0.045873515 0.00033202657
0.014161468 0.073299326 -0.003949463 0.073795244 0.07879441 -0.024122605 -0.011647854 -0.051944535
-0.008964888 0.042729303 0.003747356 -0.09189434 0.118050225 0.11989321 -0.03041716 -0.03764482
