data/results/gru_regime_DXY_r10d_r6_wNone.pt (torch, 167509 bytes, 9 tensors)

rnn.weight_ih_l0 f4 [192, 16]
00000000: a462 92bc c2c1 83bc f47e 6c3d 1917 82bd
00000010: e240 8b3d 03cf c1bd d5e5 c8bd e0cc d1bc
00000020: c379 9cbd 39a0 8d3e 4ab4 ad3d a423 d73d
00000030: 22a5 8eba a43a 613d d5eb 703e 3587 18bc
00000040: afc4 f6bc bea8 0cbe ce30 27bc cf52 67be
00000050: 447d 613e 3bf0 0d3e 93b4 863d ff8c 90bd
00000060: c193 88be fa85 953e 993b 27bc 5475 abbd
00000070: bceb f33c 5487 53be 2c65 963e df21 cb3d
00000080: a6d0 40bd c4e7 cc3d f434 a2bd 79e1 7dbe
00000090: d3e1 423e 30f3 b43c cdf2 253c 85ac b6ba
000000a0: 6d08 99be e4f1 f73d 32b0 d23d dfa1 4bbd
000000b0: f579 573d f4b5 86bd c8a9 9d3e 58d3 e63d
000000c0: 4816 223d bb78 03be c361 a33d 612e 75be
000000d0: 1b80 663e 7634 dfbc 74b9 c1bc 9944 cf3a
000000e0: 1d80 2dbe 8308 a83d 1088 863d cf79 f53d
000000f0: 5afc 12be b701 a9bd 188d aa3e ed61 923b
00000100: c413 103e 6eef 6dbd efbd b13d 3528 9e3d
00000110: bc17 a5bd 937a c9bd 587e 5abd 885d c03c
00000120: 8cf3 a3bd 9c1e 87be 593c fc3d c27a 83bc
00000130: dc40 01be d891 1abe 7cfc 1cbe 2011 63bc
00000140: 369e cd3d ebae 2cbc de56 a1ba a589 f7bb
00000150: 324f 2fbe 7c5a 133e 91d7 d3bd 5932 0f3d
00000160: 449c 8c3d aedc 3abe 8068 dabc 566f f5bc
00000170: fdf8 e43d d02c aa3d 3592 8cbd 9a46 abbd
00000180: 6fe2 ae3d 1163 e2bd 7a61 d23d 3a01 5ebd
00000190: b6c2 c23d 493b a2bd 17d4 e0bc 3bd4 753d
000001a0: 07fb fcbd b635 8d3e 9b29 643d af0c 8e3c
000001b0: 115e 9cbd 3d05 8ebc 2011 913e 9fad edbd
000001c0: 8837 b23d d2eb c5bd 7846 88bc c2b6 2abd
000001d0: 92cc 053e 3e88 adbd dfc5 ca3d 23f6 223d
000001e0: 528b 6b3d 6e95 913e 6564 afbc a399 843d
000001f0: 9df3 cfbd dd42 523d 5749 393c 781f 40bd
00000200: a3f1 1a3d 8a87 96bd ecda f6bd 0fb4 023e
00000210: e4a3 053d 694b 923c 6ca2 983d 6a9e b6bd
00000220: 5eb4 41bc be30 43bd eb5f a13c 15e1 953b
00000230: 3305 b1bd bfac 103e 6ed1 6bbe b2bc 6a3d
00000240: 37bd 2cbd 13f7 913b d4c8 70bc 4b49 5e3d
00000250: c189 c4bd c46d e3bc e75f bdbd 60b7 bd3d
00000260: 4459 8e3d 0730 3ebd cea2 e83b f334 02be
00000270: 3e0f cdbd 83da c2bb ff0a a4bd 2f64 0dbc
00000280: d070 c83d bd70 5ebd 24d5 0abd 09ed a2bc
00000290: fad2 893e 5d54 443d 7bdf bfbd e032 bebd
000002a0: 1e0a 3bbd c7eb 743e 2af9 a73d 05d6 343b
000002b0: 32c0 a53d 33ce 1bbe 93f0 383e 6276 713c
000002c0: 5fc5 85bd 75f2 8c3d 9424 9c3c 912a 53bd
000002d0: 18c2 bebe 3d89 e6bb cca2 4d3c c600 3dba
000002e0: 1aaf 553e 8c82 dabe bbec 35be 63a2 0bbe
000002f0: bf21 c8bd 7f61 693d 440b 9fbe 5dcb cf3d
00000300: 8b32 c83d 2526 eabd 3e2e c53d 9a18 903d
00000310: 939c 49bd ec79 513d 473a 4abd 9684 d53c
00000320: f899 3ebd d209 b7bb 755f 373d ece2 33bd
00000330: 68df 53bd 1222 2fbd 72fb 443d ec22 d6bd
00000340: 3b78 b43d 295c 423d aba8 2ebd 1b6c 8d3d
00000350: 893e ba3d 2bed 343d 317c d63b 5cbc e33d
00000360: dcce 323d ee64 3d3e 010d 803d dd04 9fbd
00000370: 0c14 b239 aa73 97bd 8946 ceba a848 853d
00000380: d86e 1cbd 58e1 813c e69e 963d f39a 303e
00000390: 0979 21bd 27ff fabd 69bb ac3d 2ae2 84bd
000003a0: 6420 c73d a08b b8bd efb6 393d 4841 bb3d
000003b0: 3c14 ab3d 20d8 2d3e 3c1b 57be 2f3c c63b
000003c0: 6e44 c53d 7d9b 0dbd 2ed2 26bc edad 113e
000003d0: 556c 06be f2a1 3f3d 6630 853d 9d86 df3d
000003e0: 3c04 d73d f6b2 96be 3cf3 073d d6b9 953d
000003f0: 3eac f63d aa27 e73c 81ca fcbd 83e2 893d
-0.017869301 -0.016083602 0.05773826 -0.06352062 0.06799485 -0.094633125 -0.09809462 -0.025610387
-0.07640412 0.27661303 0.08481653 0.10504845 -0.0010882954 0.054987565 0.23527463 -0.00930958
-0.030123083 -0.13736245 -0.010204507 -0.22590183 0.22020441 0.13861172 0.065774105 -0.07058143
-0.26675227 0.29203779 -0.01020708 -0.08371988 0.029775493 -0.20657092 0.29374063 0.0991857
-0.047073983 0.10005143 -0.07920256 -0.24793042 0.19031458 0.022088617 0.010128689 -0.0013936913
-0.2988924 0.12106684 0.10287513 -0.04971492 0.05260654 -0.065776736 0.30793595 0.11270779
0.03957203 -0.12839024 0.07977631 -0.23943473 0.22509806 -0.027246695 -0.023648001 0.001581329
-0.16943403 0.082047485 0.065689206 0.11986124 -0.14354077 -0.0825228 0.3331077 0.00446724
0.1407004 -0.058089666 0.08678805 0.07722513 -0.080611676 -0.09837832 -0.053343147 0.0234821
-0.08005437 -0.2639054 0.12316198 -0.016049746 -0.12622398 -0.15094697 -0.1533069 -0.013859063
0.10039942 -0.010539751 -0.0012309214 -0.0075542503 -0.17120054 0.14389986 -0.103438504 0.034960125
0.06865743 -0.18248245 -0.026661158 -0.029960316 0.11180303 0.083093286 -0.06863824 -0.083630756
0.085392825 -0.11054052 0.102724984 -0.05420039 0.095097944 -0.07921464 -0.027444882 0.060016852
-0.12352567 0.2758004 0.05570374 0.017340032 -0.07635129 -0.017336482 0.28333378 -0.11605381
0.08701998 -0.0966412 -0.016635165 -0.041678198 0.13066319 -0.08473252 0.09901022 0.039785516
0.057505913 0.28434318 -0.021410177 0.064746164 -0.101538874 0.051333297 0.0113089895 -0.04690501
0.0378281 -0.07350071 -0.12053475 0.12764 0.032627 0.017858224 0.074528545 -0.08916934
-0.011822788 -0.047653906 0.019699058 0.004573951 -0.0864357 0.14128397 -0.2302911 0.05730886
-0.042172637 0.0044545024 -0.014696319 0.054269116 -0.09596587 -0.027762301 -0.092468075 0.09263492
0.0695062 -0.04643252 0.007099486 -0.12715511 -0.10012673 -0.005946459 -0.0800991 -0.008629843
0.09787142 -0.054306734 -0.033894673 -0.019888418 0.26918775 0.047932018 -0.093687974 -0.092870474
-0.045663945 0.23918067 0.08201821 0.0027593386 0.08093299 -0.15215378 0.18060522 0.014737697
-0.06531786 0.068821825 0.01906041 -0.051554266 -0.37257457 -0.007035403 0.012551021 -0.0007209893
0.20867577 -0.42677724 -0.17766087 -0.13636164 -0.097720616 0.056977745 -0.31063282 0.1014621
0.09775265 -0.11433057 0.096279606 0.070359424 -0.049221586 0.051141664 -0.049371984 0.026064198
-0.046533555 -0.0055858875 0.04476877 -0.04391758 -0.05172673 -0.0427571 0.04809136 -0.104558796
0.08811995 0.047451172 -0.042641323 0.06905385 0.09093959 0.044171494 0.0065455665 0.11119911
0.043654308 0.18495533 0.0625248 -0.077645995 0.00033965742 -0.07395108 -0.0015737574 0.06507999
-0.038191646 0.015854523 0.07354526 0.17246608 -0.03942207 -0.12255698 0.08434183 -0.0648845
0.09722975 -0.09011006 0.045340475 0.09143311 0.08353469 0.16976976 -0.21006483 0.006049655
0.096321926 -0.034572113 -0.010181947 0.14226504 -0.13127263 0.046785302 0.06503372 0.10914347
0.104988545 -0.2943341 0.03319095 0.07310836 0.12044571 0.028217155 -0.12343312 0.06732657

rnn.weight_hh_l0 f4 [192, 64]
00000000: d064 be3c d730 8cbd cddc 56bd 0aa8 c4bd
00000010: af99 c4bc b383 de3d 3c11 6dbd f0ef f7bd
00000020: 3176 30bc 0f1b f33d d7cf a63d 0bf8 e1bd
00000030: 7051 65bd a3ab ec3d 5e41 8b3b 40a9 9abd
00000040: afd4 e8bd a416 c93d 79db 75bd b034 d8bd
00000050: 1457 78bc f1f7 adbd 0bd6 bdbd a80b 023c
00000060: aacc 743c c30c 373d 37c8 e43d 17ce 5d3d
00000070: e19f 58ba dffc b43d 9719 b03c 6d47 df3d
00000080: 544e 573d af43 f1bd c9ce 90bc 437a 5f3d
00000090: 8420 47bd e4c8 c8bb 0181 ab3d 3f5c 96bd
000000a0: 6b14 833d dc65 b33d b912 83bc caa0 413d
000000b0: d118 84bd e820 5abb 5da3 7d3c 060b 56bd
000000c0: 170b ab3d aff8 84bc 9eed c4bb 5131 a0bd
000000d0: af13 4cbd ea76 403d abf7 f2bd aa0f 75bd
000000e0: 62d5 6e3d 174f 6e3d 41a3 02be a10c 2e3d
000000f0: c33e f73d 9ee8 abbb a991 2f3c 9ed0 c8bd
00000100: e7c3 8d3d ce01 e9bb d3c5 95bd 2008 00be
00000110: 520f 13bd c607 f1bd 102e a23c 908a fd3c
00000120: 329e 24bc db93 a93d 587b abbb f4cb cabd
00000130: 5ad4 99bd 9149 073d 3c03 95bd 64b8 6ebd
00000140: 020a a9bd 2d2f 583d edde 9ebd a536 71bd
00000150: 930d 66bd 77b7 6b3b d9cb 10bc e513 3fbd
00000160: 3508 063d 3c10 12bb 437e 82bd a921 55bd
00000170: bb79 413c 2ce5 073e 0a3c bc3c fb1c b7bd
00000180: 20db d33d 596d 6abd ceea ddbc baa7 81bd
00000190: 167e cbbd cdc9 cabd ff17 a8bd 6756 0cbb
000001a0: b14d 02be 3621 f83d 385c adbd dc6b 263d
000001b0: ad05 853c c4b4 963d 0812 bbbc 800e 75bd
000001c0: c3b8 e4bb 3588 8bbc 6456 5bbd 3e38 2fbd
000001d0: 38c4 a93d d27f b63b e856 8d3d 16c4 c63d
000001e0: f03a a63c ddbc c23d 9ebe e9bd 8e9d d9bd
000001f0: 0562 02be 61a6 8fbd 2da4 993d cdca e13a
00000200: 44fe 843d 8f92 1bbd d146 debd 9dbc de3d
00000210: aaae 6d3c 83d3 34bd c946 81bd 3246 d8bd
00000220: d09f f83d 22c9 9ebd 4917 353c d5c5 163a
00000230: 2de9 98bd fd18 c53c 6619 13bd 2de1 d7bd
00000240: aa8b aabd 3513 6bbd fdc4 e2bd b22d b4bd
00000250: 2d69 b13c e912 d83d 7d96 bc3d 3156 b4bd
00000260: 4dab f0bd 892b 2a3d 47eb aabd ec89 9f3d
00000270: ddcf 4d3d 451b 89bd 9758 273d b298 783d
00000280: 34a6 bd3c b989 de3d 643b 9dbd e9dd e4bd
00000290: 82c5 8ebc 0108 e7bd f66d fe3d fe92 89bd
000002a0: 12e9 92bd 1e30 70bd e4bb 163d 29c0 473d
000002b0: e2d0 cbbd 1656 c93d d0bd aabd a1ca c7bc
000002c0: ddcf 253d 2ded 8f3d 17bc 9bbd 9292 bdbd
000002d0: d7b4 a7bc f413 29bd a2fe b03a 0171 88bc
000002e0: 5009 843d 2aa3 b4bc d775 153d cd67 bf3d
000002f0: f42b 483d b6db fcbd 2029 b73d bbe3 e9bd
00000300: cd2f d7bd 1016 5d3d 8e33 39bd 9ec0 663a
00000310: 3f05 ac3c b606 98bd 64ee 033e 0d90 483d
00000320: bfc7 e93d 2ccd 9dbd 337c 0c3e 582a 073d
00000330: 20e7 083e e453 ff3d 0645 babd 6bc7 7b3d
00000340: 78f3 63bc 940c f0bd b5f7 4b3d 248b d1bd
00000350: 16c5 303e c193 f3bd d67f 9abd d090 83bd
00000360: 572b fc3b c1d6 b63d 28fc d43d 3d98 c1bd
00000370: 1c2a fd3b 404a 0a3e c42c c7bd 6e1b 2dbd
00000380: 2b03 a23d b20a e03c 2035 dfbd 46bc 9bbc
00000390: 4c06 94bd 9fbb 77bd 8612 be3b ace1 7ebd
000003a0: 25be bb3d e658 b13b f191 9b3c 077c 623d
000003b0: 7854 4f39 7147 96bd b45e f43d 139c c2bd
000003c0: a733 6abd aec5 f9bd 3b1e 7cbd 72b3 cebd
000003d0: 2825 aabd 8aa9 62bd 2586 853d db80 dbbc
000003e0: eaa5 3bba 7462 b63d 002e 01be 7b02 c8bc
000003f0: b616 b4bd 96b2 423d eab0 063d b8ce 123d
0.02324143 -0.06845253 -0.052456666 -0.096023634 -0.023999063 0.108649634 -0.057877764 -0.12106311
-0.0107703665 0.118703954 0.08145111 -0.110336386 -0.055985868 0.115561746 0.0042497357 -0.07551813
-0.11368691 0.098187715 -0.06002376 -0.10556924 -0.01515748 -0.08494557 -0.09269341 0.007937349
0.014941374 0.044689905 0.111710005 0.05415162 -0.000826357 0.08837294 0.021496577 0.10902295
0.052564934 -0.11780488 -0.017676728 0.054559957 -0.048614994 -0.0061274637 0.08374215 -0.07341813
0.06400379 0.087596625 -0.016000139 0.04727248 -0.06450046 -0.0033283774 0.015480843 -0.052256607
0.083517246 -0.016231863 -0.0060097715 -0.07821906 -0.04982346 0.046988405 -0.11863645 -0.05982939
0.058308966 0.058180895 -0.12757589 0.042492513 0.12072518 -0.005246236 0.01071588 -0.098054156
0.06922131 -0.007110811 -0.073131226 -0.125031 -0.035903282 -0.11769061 0.019797355 0.03094986
-0.010047482 0.08280154 -0.0052332096 -0.09902182 -0.07511206 0.033029143 -0.072760075 -0.058281317
-0.08253862 0.052779365 -0.077573635 -0.058890004 -0.05616529 0.0035967508 -0.008837664 -0.046649832
0.03272267 -0.0022287508 -0.06371739 -0.052034054 0.011808808 0.13271016 0.022977848 -0.089410745
0.10344529 -0.05723319 -0.027089503 -0.063308194 -0.09936158 -0.09901772 -0.08207702 -0.0021413804
-0.1272495 0.121157095 -0.08464855 0.040630206 0.016238058 0.07358697 -0.022835746 -0.05982828
-0.006980033 -0.017032722 -0.053549185 -0.042778246 0.08289379 0.0055694366 0.06901342 0.09705369
0.020291775 0.09508679 -0.114133105 -0.10625754 -0.12732704 -0.07014156 0.07502017 0.0017226577
0.0649381 -0.037981566 -0.10853351 0.10875819 0.014506975 -0.044147026 -0.06312329 -0.10560264
0.12139857 -0.07753207 0.011052915 0.0005751525 -0.0746635 0.024059767 -0.035912894 -0.10540996
-0.0832742 -0.057391364 -0.11072729 -0.08797778 0.021656597 0.10550482 0.09208391 -0.08805502
-0.11751423 0.041545425 -0.08345657 0.077899784 0.050247062 -0.066946544 0.04085597 0.060692497
0.02315054 0.10866112 -0.076773435 -0.111751385 -0.017428163 -0.112808235 0.12423317 -0.0671749
-0.07173361 -0.058639638 0.03680028 0.048767243 -0.099519506 0.09830873 -0.08336985 -0.024388613
0.040481437 0.070276596 -0.07604235 -0.09256472 -0.020471973 -0.041278794 0.0013503621 -0.016655447
0.06447089 -0.022050459 0.036489334 0.0934597 0.048870042 -0.12346594 0.08943391 -0.11420389
-0.10507164 0.05397612 -0.045215182 0.0008802506 0.020998595 -0.07423155 0.12883908 0.048965503
0.11415052 -0.07705149 0.13719253 0.032999367 0.13369417 0.12467173 -0.090951964 0.061469477
-0.013913028 -0.11721149 0.04979678 -0.10231617 0.17262682 -0.11893416 -0.07543914 -0.06424105
0.007695596 0.0892768 0.103996575 -0.09452865 0.007725967 0.13504887 -0.09725335 -0.042262487
0.079107605 0.02734885 -0.10898805 -0.019010674 -0.072277635 -0.060481664 0.005800548 -0.062226936
0.091671266 0.005412209 0.018990489 0.055294063 0.00019772525 -0.07337845 0.11932126 -0.09502425
-0.057178166 -0.121959075 -0.061552268 -0.1009282 -0.08307868 -0.055337466 0.06519727 -0.026794842
-0.0007158207 0.08905497 -0.12615204 -0.024415245 -0.08793394 0.047533594 0.032883562 0.035841674

rnn.bias_ih_l0 f4 [192]
00000000: 80f4 6d3d 0f99 e8bd 60db 91bd a126 d63d
00000010: 8303 c93d 22dc d93d b534 bc3d b430 163c
00000020: 8038 393d 0790 b6bd b125 a5bd 66da 163d
00000030: 49f7 84bd 54a6 cd3d 4251 153d 25c4 d63d
00000040: 9774 dcbd 5fe9 94bd 4c94 e9bb 8488 eebb
00000050: 5dae 93bc 564a 923d 9c7d c2bd 566f e53d
00000060: ba9e 323d 7136 11be d5a0 bfbd 9751 b83d
00000070: 679d c33d 7e51 df3d 6066 803d e2f3 023d
00000080: 8f4c af3d 485d 7ebb 8988 a4bc 806f 203c
00000090: 89b1 23bb abdc b2bd b968 03bd 73cd 9f3c
000000a0: 4315 eabd b37f b63d a92f 913d 156c ca3d
000000b0: 703d 19bd 9aa1 adbc cfb3 88bd d0f7 63bd
000000c0: 8a9a f8bc 272f 9dbd 8171 3a3d 13e9 9bbd
000000d0: 25cd f8bd 621f f5bd fd6e a0bc 9d04 89bd
000000e0: 4aa8 d83d 0a75 c9bd 588f 943d fef7 02bd
000000f0: 48fd 2db9 a9da ec3d ae03 17bd c671 53bd
00000100: 33bf 16b9 5f7d b5bd d5a5 a9bc 80db 00bc
00000110: ee3c 00be eeac 2abd 43d9 e5bd e7fb ac3c
00000120: f6eb c33c 7576 aabd f501 cbbd 3bbd babe
00000130: 299f 923d faf8 79bd 96f5 8dbd 42fd f13c
00000140: 7aa9 7cbc d0a9 5d3d 427e c5bc e6a7 e3bd
00000150: 2c60 81bd 566c 04bd a598 45bd 822c 81bd
00000160: 88dd 2d3c 191d fdbd 1821 39bd ec78 efbd
00000170: ea27 15be 9ffb fcbd 4979 933d bab4 d4ba
00000180: b898 0bbb 0e9a 68bd 63e4 a1bd 3db8 8d3d
00000190: 68c7 1ebe 82b3 16be 22a5 a13c dec8 a33d
000001a0: 1afe 6f3d f60b e3bb 7f27 2abd aaaf 1fbd
000001b0: 66b3 5e3d 0f61 9bbd fef3 31bd bdab 4bbd
000001c0: 4650 f83d d275 a6b7 2e90 e5ba 380e f4bd
000001d0: 1a8d 903d d068 d3bd 2934 a3bd 9441 34be
000001e0: f78e 5a3a ab8f 2b39 d975 15be 0279 dc3d
000001f0: 7374 c5bd 0daa dfbd 36b6 05bd f7ab c0bd
00000200: f49d a1bd 4d0e b8bd 9565 643c 5d94 27bd
00000210: 5211 b9bd 76c2 8c3d db30 853d 23ac 0b3d
00000220: 35ae bbbd e5f3 c23d b1de c13d 6385 59bb
00000230: 453d 843d 45af 90bd 3c40 9cbb 0dbb 12bd
00000240: ad5d d7bd 09fe b63d ef0c 82bd 312d 11bd
00000250: 6943 c33d 3eb5 c1bd 21aa 533d d12d bbbd
00000260: 2268 a73d 9c7e 96bd 3621 c9bd d95f 163d
00000270: e002 63bd 93b2 a4bb aec3 b0bd de77 c93d
00000280: 5b84 af3d b7fe 8dbb c6c4 073d 7d1f 8a3d
00000290: 34b6 b83d ca22 e83d df27 593c 5f3c b1bd
000002a0: b127 93bd 9f90 94bd 3011 69bd ff19 a83d
000002b0: 55f8 2ebd 2c7c a6bd 1eb2 f4bc 46fb b03c
000002c0: c13a 19bd 9f08 c03d 09a1 92bc e0ae f0bd
000002d0: a1b3 14bc 25cc 6bbc 7a79 c3bc 744f e23d
000002e0: 8e47 4e3d 42af e03d d6ac a7bd c10d a7bd
000002f0: c74c 283d 8e48 90bd 5fd1 9639 80b7 e23b
0.0580945 -0.113573186 -0.071219206 0.10456587 0.09815123 0.1063769 0.091897406 0.009166885
0.0452199 -0.0891419 -0.0806383 0.036829375 -0.064924784 0.1004149 0.036454447 0.1048663
-0.10764425 -0.072710745 -0.007128274 -0.0072794575 -0.018027479 0.07143085 -0.09496614 0.11202876
0.043608405 -0.14180924 -0.09356848 0.08999937 0.095515065 0.10904215 0.062695265 0.031970866
0.08559524 -0.0038812924 -0.020084636 0.009792209 -0.0024977645 -0.08733495 -0.032082293 0.019507146
-0.114298366 0.089110754 0.070891686 0.09883896 -0.037412107 -0.021195222 -0.06674921 -0.055656254
-0.030347127 -0.07675009 0.045518402 -0.07612815 -0.12148503 -0.119688764 -0.019584173 -0.06690333
0.105789736 -0.098367766 0.07253903 -0.031974785 -0.0001659292 0.115651436 -0.036868744 -0.051622175
-0.00014376342 -0.08861803 -0.020708958 -0.007864833 -0.12523243 -0.041668825 -0.1122308 0.02111621
0.023916226 -0.08323375 -0.09912483 -0.36472496 0.07159264 -0.06102846 -0.069316074 0.029539708
-0.015421266 0.054117024 -0.024108056 -0.111160085 -0.063171715 -0.03232988 -0.048241276 -0.06307317
0.010611899 -0.123590656 -0.045197576 -0.11692986 -0.14566007 -0.123526804 0.07200868 -0.0016228177
-0.0021300744 -0.056787543 -0.079048894 0.06919906 -0.15505755 -0.14716914 0.019732062 0.07997297
0.05859194 -0.006928916 -0.041541573 -0.038985886 0.054370306 -0.07586872 -0.04344558 -0.04972433
0.12124686 -1.9843606e-05 -0.0017514282 -0.119167745 0.07058163 -0.10322726 -0.07968933 -0.17603141
0.00083373435 0.00016361351 -0.14595737 0.10765268 -0.096413516 -0.109211065 -0.032644473 -0.094078
-0.07891455 -0.08987103 0.013940235 -0.040912975 -0.09036507 0.06873028 0.06503459 0.03409971
-0.09164087 0.095191754 0.09466303 -0.0033191077 0.06456999 -0.0706468 -0.0047683995 -0.035822917
-0.10515914 0.08935172 -0.06350123 -0.03544349 0.09534342 -0.09458397 0.05167592 -0.09139598
0.08174159 -0.073483676 -0.098207876 0.0367125 -0.055422664 -0.0050261705 -0.08631073 0.09837316
0.08570167 -0.004333343 0.033146642 0.06744287 0.090191275 0.113347605 0.013254135 -0.08654093
-0.07185305 -0.07254147 -0.056901157 0.08208083 -0.042717297 -0.08129153 -0.02987009 0.021604192
-0.037409548 0.09376644 -0.017899053 -0.11752105 -0.00907603 -0.014391934 -0.023861635 0.11050311
0.05036121 0.10970928 -0.08187263 -0.0815692 0.041088846 -0.07045089 0.00028766223 0.0069188476

rnn.bias_hh_l0 f4 [192]
00000000: 2501 fabd 9591 e23d 7a9e 91bc a87c 18bd
00000010: e006 33bd f42f b03c b073 16bd bc4f e93d
00000020: 01a0 83bc e4c7 23bd 2dc0 a2bc e43c f2bd
00000030: b423 833c 4487 af3d 82c7 d93d c5bd ca3d
00000040: 83bd 863b ef81 acbd 7482 973b 476e b73d
00000050: b527 183d 9e06 e73d d767 b7bc b73a 0bbb
00000060: 55bf a53c a462 0ebe d512 72bd e55b 1fbc
00000070: 7d86 7fbd c00f d1bd 983c a63d 1a68 09bd
00000080: 83d7 833d f698 b43d aabb e43d 50e0 ce3d
00000090: 2b72 bbbd 812a b3bd 6137 f6bd ac23 29bd
000000a0: 9adc b838 0221 4a3d b37a 77bd a317 e7bd
000000b0: 1fa9 dd3d 8a03 25bb 479b c33d d37b febd
000000c0: 2d40 d7bc 55d5 d7bd 7b42 5dbd 4174 95bd
000000d0: 5b4c 66bb 889d 843d 6c2a fc3d 958f f33d
000000e0: fb92 e23c ca05 8bbc e395 513d 0b16 bb3d
000000f0: 852a 01be d988 903d 09ba a13d 9dac fd3c
00000100: 7754 80bd 31be 163e a3d8 8c3c 90a0 34be
00000110: 9d7d 233d c5a0 063c 8636 b63c 0388 253d
00000120: 166a 81bc 5d4f b0bd 8147 413d adcd c2be
00000130: 539d 973d bb75 04bd bc58 913d a013 ae3c
00000140: e037 6fbe b820 9cbd 9e92 0c3d dff4 9bbd
00000150: 20b3 1fbe 186e e8bd 4613 afbd 5577 d83d
00000160: b62e a13d 984a 6d3d f075 7abc ccad 993d
00000170: b5c9 d4bd 2361 9a3c eb5f cebc 86fc 393c
00000180: 3f84 25bd ba2f 83bd 9102 e2bc 292a bd3d
00000190: 869f 4fbd 4c00 833d 36b6 213d cd1b 0b3e
000001a0: 96e6 0ebd 0f77 543c a2a8 99bc 36c2 b8bd
000001b0: 4d24 873d b982 01bc cd1b 113d dc78 883d
000001c0: 1d3c 903d fab2 cbbd 1f38 d0bd b459 99bd
000001d0: d04a 83bc d8b3 bd3d 67fc 46bd 6efb c1bc
000001e0: cdd1 873c 7f35 72bd a75e 2d3c 18be 63bd
000001f0: b50d e83d f35c d03d be1c 7e3b af51 283d
00000200: 05ad 5abd 2c01 87bc 7a1f a33d 9485 f03d
00000210: 9e36 46bd 39a2 b83d fb56 a03d 1c06 9b3d
00000220: 1447 1c3d 01f8 13bd fb9f 6cbd e9de 99bc
00000230: 7668 3ebd b1a8 ee3d 00ba eebc 0db2 b43c
00000240: f9bd 703d 6af7 bb3d 08e3 d8bd 26a4 363d
00000250: 19fa 39bd 179f c03d 4103 443d a480 67bd
00000260: 3626 78bc 879b 983c d57f 933d bbbd d13d
00000270: 2d23 09bd d203 83bd 9297 c53c 6303 a9bd
00000280: 0651 fabc a009 873c ef6c b4bd 52cc e7bc
00000290: 70f3 96bd 7848 983d dd48 81bd c95c 0e3e
000002a0: 1f77 59bd 3a4a dc3d 2a2b a6bd 4ff1 cfbd
000002b0: 30f2 7c3d 4eb4 573c bd5e 9dbb 80c8 6a3d
000002c0: 776c 2abd 32a9 af3d c2e0 acbd cc07 df3d
000002d0: ab53 b8bd 527d c03d 1aa4 7abc 98cb a23c
000002e0: 2fa4 41bd 184b 383c b63d 703c c050 ad3d
000002f0: 507f 54bb ffd3 68bd 51a7 17bd 327b c33d
-0.122072496 0.11062924 -0.017775763 -0.037228256 -0.04370773 0.02150724 -0.036731422 0.11392161
-0.016067507 -0.039985552 -0.019867027 -0.1182802 0.016008236 0.08570722 0.10633756 0.09899477
0.004111947 -0.0842322 0.0046237055 0.089565806 0.037147243 0.11280559 -0.022388382 -0.0021244714
0.020232836 -0.13904816 -0.05909999 -0.009726499 -0.062384117 -0.10208082 0.08117026 -0.033546545
0.0643759 0.088182375 0.111686066 0.10101378 -0.09152635 -0.08748341 -0.120222814 -0.041293785
8.814894e-05 0.049347885 -0.06041975 -0.11283805 0.10823273 -0.0025179111 0.09551101 -0.12425961
-0.026275719 -0.10538737 -0.05401848 -0.07297564 -0.0035140726 0.06475359 0.12312779 0.118926205
0.027657976 -0.016970534 0.051168334 0.09135064 -0.12613876 0.070573516 0.078968115 0.030966097
-0.062661104 0.1472099 0.017193144 -0.17639375 0.039914716 0.008217041 0.022242796 0.040412914
-0.015797656 -0.08608887 0.047187332 -0.38047543 0.07403054 -0.03233884 0.07097003 0.021249592
-0.23361158 -0.07623428 0.034319513 -0.07615065 -0.15595675 -0.11349124 -0.08548598 0.10569636
0.078702375 0.057932466 -0.015286908 0.07503852 -0.10390035 0.018845147 -0.025192222 0.01135171
-0.040409323 -0.064055875 -0.027589114 0.09236557 -0.050689243 0.06396541 0.03948041 0.13584824
-0.034887873 0.012967839 -0.018757168 -0.09021418 0.06598721 -0.007904702 0.035426904 0.06663677
0.07042716 -0.099462464 -0.10166954 -0.07487813 -0.016026884 0.09262818 -0.048580553 -0.023679461
0.016579533 -0.05913305 0.010581649 -0.05560121 0.113307394 0.10173979 0.0038774456 0.041093525
-0.05338766 -0.016480051 0.07964988 0.11744228 -0.04839193 0.090153165 0.0782909 0.07569525
0.038153723 -0.036125187 -0.057769757 -0.01878305 -0.04648634 0.11653269 -0.029141426 0.022057557
0.058774922 0.0917805 -0.10590178 0.044590138 -0.045404527 0.09405344 0.047854666 -0.056519166
-0.015145829 0.018628849 0.072021164 0.10241266 -0.033480812 -0.06397213 0.024120126 -0.08252599
-0.030556213 0.016484082 -0.0880984 -0.02829567 -0.07370651 0.07435697 -0.06312726 0.13902582
-0.05309212 0.10756345 -0.08113702 -0.10153448 0.061754405 0.013165547 -0.0048025534 0.057320118
-0.041607346 0.08577193 -0.08441307 0.10890159 -0.090003334 0.09398903 -0.015297914 0.019872472
-0.04727572 0.0112483725 0.0146631505 0.084626675 -0.0032424517 -0.0568428 -0.0370248 0.09544982

rnn.weight_ih_l1 f4 [192, 64]
00000000: fba2 dbbd dfd8 dbbd f9b8 2b3d eb0c b83c
00000010: 0a37 a4bc 9854 583d 20f2 07bd 1484 babd
00000020: 7aba a6bd 7f35 57bd 75ef 103d b507 203d
00000030: 8223 ce3d ecb2 23bd 8ea3 323d 2c83 a23c
00000040: cfa4 f5bd 039a 9c3d baa0 76bd f506 e13c
00000050: 0692 6cbd 8a3b a53c a3f3 c73b c688 b23c
00000060: a9ca 55bd 8f31 d73d 90d7 9a3c cc29 9a3d
00000070: 171c b1bd d84c 24bc 4efe 70bd b17b cb3d
00000080: 40ab 88b8 0497 633d b890 e0bd e208 ae3d
00000090: 0302 b83b 41bf e83d 667a 3dbd 40ce 6c3d
000000a0: 3a22 493d 5cac ba3d 870d 8cbd 8327 0abd
000000b0: 5c12 703d b393 bb3d 7d57 11bd 5539 aa3d
000000c0: bbb0 773d 5e87 d9bd 48a0 05bd 50c5 b73d
000000d0: 2585 293d 0e4e 57bd 8497 063d d4f6 513d
000000e0: e58e e6bd 3654 233d 1dc6 c43d 32e0 16bc
000000f0: 186c ed3d 4b5b 29bc bc2f a6bd 9bd8 e83c
00000100: 09ae ac3d b36b a6bd 5ce5 5cbd 03b4 bc3d
00000110: 80b0 14bc 86fc 9e3d 1419 1f3d 47a7 9b3c
00000120: 2b03 383d cb2f 0dbd 2a49 c8bd f115 99bc
00000130: 935e 233d 3b82 c6bd 9cb0 fa3d 9f46 5c3d
00000140: b351 90bc eee9 f2bd bb69 0d3d 0826 8b3d
00000150: 9b01 e1bb 4140 d6bc 505a e53d d102 47bc
00000160: ecb1 833d 9a21 e9bc ffde 873c 4208 1dbd
00000170: 6c51 50bd dd7d 8f3b f2d6 97bd 1fa9 9ebd
00000180: c741 c7bd 5df4 9d3d 85ca ce3d be65 debd
00000190: 67b1 aebd 75b8 a1bd 53dd 76bd 8f8d a1bd
000001a0: 298f 5bbd 94fd 34bd 91cd ec3c 3eaf 353d
000001b0: 2cee ca3c a4e1 c13d b207 2ebd 34c6 fb3c
000001c0: 708f 55bd 0a35 2f3d 0a71 c9bd 870b 813c
000001d0: 1b0d bebd 4064 56bd 9b2e 9eba e6ca e1bc
000001e0: 8286 ae3d eb9f eebc 27d9 863d 6fcd 8dbd
000001f0: 3008 c2bd 3df5 323d 782b efbd 8fcc 0ebc
00000200: e62a a03d 5f6c 0cbe e984 153d 7cfd fbbd
00000210: 611f ad3d 91bd f93d b176 9cbc 7b2c f4bd
00000220: d577 2ebd fb37 2f3d 4bcd b83c 1c6b a93d
00000230: 53ca d53d ff3c d53b 9e41 06bd 5eff dd3d
00000240: fb20 0f3d 6b39 90bd 1c2b b6bd f2ab 883d
00000250: 8ae1 0dbb b77f ff3c 3642 303c 2362 9e3c
00000260: b0c4 843c d49c 2dbd 782f b0bc ea12 993d
00000270: 19e0 6d3d 9a33 983d e52d 6a3d ed08 d93c
00000280: 9349 86bd 71ab 12bd b79e b4bd 9387 913c
00000290: 5dde 99bd c24d 083e 5cc2 aabd 825c a73c
000002a0: 82da f6bd 9cb5 f73d 43eb 48bd 328b ef3d
000002b0: febd 10bd bcfa f0bc 9a76 f1bc 2288 b5bd
000002c0: ae96 26bd 05ca ba3d 9489 893c 75fc 2fbd
000002d0: 50b6 5b3d 652b c43c fb51 c2bd f3c8 003e
000002e0: 33c6 ea3d 0413 52bb fea5 f1bd 2d7d 71bd
000002f0: c52c 513d b122 243d e577 e1bd b8c5 c43d
00000300: 69db ad3d 6bf1 edbd d062 f6bd 7008 813d
00000310: 72fc 23bd 71bf 32bd f983 cfbd ccb2 ae3d
00000320: 2f6d 58bd 2668 283c c1c0 83bd 9de7 a3bd
00000330: 07ee debd d60d f53d 0c5e b2bd cef1 f6ba
00000340: 395f b03d b5d4 e5bd 79aa e0bd c1bc 93bd
00000350: 4c34 7b3d 798e 75bc acdc 0bbd 0411 9f3c
00000360: 1da6 ec3d cc19 73bd b293 b6bc 7a21 a83d
00000370: dbd0 eebd 70b6 79bd 5820 cb3d ce2c 6c3d
00000380: 9131 e3bc 380e 6fbd 24b0 b3bd 1c9c 1b3d
00000390: 06be 7c3d 9f92 3fbd 66c9 b93d 610b 16bd
000003a0: 37fa 6f3d 8698 f13d d0fe 81bd 9980 3b3d
000003b0: 0d6d 96bd 58d3 d83d 6e4a 20bc ea2e 66bd
000003c0: 4573 df3d 6070 de3d 461f 233d 5ad8 d73d
000003d0: 8fb3 5c3d 8c93 e7bd a140 733c 69d3 99bd
000003e0: 2850 ad3d 662e 453d 38ae bebd 0f0d 2b3c
000003f0: 17c0 923a 2e74 c13d 10fd 4e3d c712 c2bd
-0.107244454 -0.10734724 0.04192445 0.022467097 -0.020045776 0.05281505 -0.033189893 -0.09107223
-0.08141036 -0.052541252 0.035384614 0.03906985 0.10065366 -0.039965555 0.04361301 0.019837938
-0.11994325 0.07646563 -0.060211875 0.027469138 -0.057756446 0.020169992 0.006102042 0.021793734
-0.052195225 0.105074994 0.018901616 0.07527503 -0.08647936 -0.010028087 -0.058836274 0.09935702
-6.516883e-05 0.05556394 -0.10965103 0.08497788 0.005615474 0.11364604 -0.046259306 0.057813883
0.049104907 0.09114906 -0.06838518 -0.033729088 0.05861126 0.09159031 -0.035483826 0.083117165
0.060471278 -0.10621522 -0.03262356 0.08973181 0.041386742 -0.052564673 0.03285934 0.051260784
-0.11257724 0.03987523 0.096080996 -0.009208726 0.11592883 -0.010336707 -0.08114573 0.028423598
0.08431632 -0.08126011 -0.05392967 0.09214022 -0.009075284 0.07763009 0.038842276 0.019000662
0.044924896 -0.034469407 -0.0977958 -0.01868722 0.039885115 -0.09692808 0.12240717 0.053778287
-0.017617082 -0.11861025 0.03452466 0.06794363 -0.0068666465 -0.026153686 0.11198866 -0.012146668
0.0643042 -0.028458405 0.016585825 -0.038337953 -0.0508589 0.0043790177 -0.074140444 -0.07747101
-0.09729343 0.07712624 0.10097221 -0.108592495 -0.085299306 -0.078965105 -0.060269665 -0.07888328
-0.053603325 -0.044187143 0.028906615 0.044356577 0.024771772 0.09466866 -0.042487808 0.030734159
-0.052138746 0.04277519 -0.098360136 0.015752567 -0.092798434 -0.0523417 -0.0012068333 -0.02756257
0.08521749 -0.02912899 0.06584387 -0.06923949 -0.09474218 0.04369091 -0.11678213 -0.008715763
0.07820682 -0.13713215 0.036503706 -0.12304208 0.08453251 0.1219436 -0.019099565 -0.119225465
-0.04259475 0.042777997 0.022558829 0.082723826 0.10438981 0.0065075154 -0.03277742 0.10839723
0.034943562 -0.070422016 -0.08894941 0.06673421 -0.0021649324 0.031188829 0.010757973 0.019333905
0.01620707 -0.04238589 -0.02150701 0.07474311 0.058075044 0.07431717 0.057172675 0.026493514
-0.06557002 -0.03580803 -0.08819335 0.017764842 -0.075131156 0.13310912 -0.08337852 0.020429853
-0.12053396 0.12095186 -0.049052488 0.11696471 -0.03533744 -0.029416434 -0.029475499 -0.08863856
-0.040671043 0.091205634 0.016789235 -0.04296537 0.053640664 0.023946473 -0.09488293 0.12576656
0.11463585 -0.0032054791 -0.117992386 -0.058957268 0.051068086 0.040072147 -0.11009196 0.09608024
0.08489115 -0.116183124 -0.12030566 0.063004375 -0.040035672 -0.043639604 -0.10132594 0.085301965
-0.0528385 0.010278737 -0.06433249 -0.08003161 -0.10885244 0.119655296 -0.08709344 -0.0018840374
0.08611912 -0.11222211 -0.10970015 -0.07213736 0.06132917 -0.014987581 -0.034145996 0.019417293
0.11555121 -0.059350774 -0.022287223 0.0820951 -0.1166093 -0.060965 0.099182785 0.057659917
-0.027733596 -0.05836317 -0.087738305 0.037990674 0.061704658 -0.04677069 0.09071617 -0.036631946
0.058588233 0.1179667 -0.0634743 0.045776937 -0.073450185 0.105871856 -0.00978337 -0.056197084
0.10910658 0.108612776 0.039824747 0.10539313 0.053882178 -0.11307439 0.014846952 -0.075110264
0.08462554 0.048139952 -0.09310573 0.010440125 0.0011196163 0.09445988 0.050534308 -0.09476238

rnn.weight_hh_l1 f4 [192, 64]
00000000: 14ba 4d3d 9181 ba3d c9d7 e4bc 4d52 f33d
00000010: 66e5 303d c7ef 0abc 75d9 043d 4309 79bd
00000020: e1ce d1bd 61e9 d63d 0539 9a3c f6f1 95bc
00000030: 0be5 423c 6d95 f13d 3ff6 9c3d 6494 df3d
00000040: 7955 96bc 8013 af3c 7e7e a7bd bc27 a93d
00000050: f10a d4bd 0658 d93d 74a8 623d 2407 cbbd
00000060: 70b6 b1bd 5ded 23bc 16bf 32bd 5c6f 86bd
00000070: 4891 f4bd ac8c 7d3b 9794 9dbc 79d1 d53d
00000080: 0233 f1bc cd61 9fbc d0bf a23d 2ca7 d83d
00000090: a177 f9bd ac74 e63d 1ade a9bc 90bf 71bd
000000a0: fd7a 82bd 7c28 773c 5d06 603d c61a 023d
000000b0: 0408 ab3d 38e1 8d3d d0d9 693d 1bf5 9a3c
000000c0: a66a f3bd 43f7 89bd add1 d63c 8225 d03c
000000d0: 5203 a63d 2f1a 853d e55b 68bc 6a9c d8bd
000000e0: 34c5 6d3d e79b 18bd 7a4b 6d3d 1071 debd
000000f0: a483 aabd 1534 b63d 3b5f edbd 5895 f33d
00000100: b267 973c 22b7 9d3d 86ac 5e3d 1184 23bd
00000110: 0636 8aba 0505 9cbd 36e6 9a3d ce90 703d
00000120: 4915 4b3d ca1e 253b 2177 a33d ea8c b93d
00000130: 87cd eb3a 7678 d83d 20ec 8a3d 077e d63d
00000140: 884b ccbb f868 e73c 02f4 3a3d 4539 b5bd
00000150: da4e d23d 4bec 2ebd 28af 35bd ed46 b7bd
00000160: 4141 323c c6d5 7cbd a9ad bcba 6723 c5bd
00000170: e230 d13d 58d8 cfbd 81d3 bdbd 0251 edbc
00000180: c384 c4bb 1e10 3c3d 1641 14bd 6640 02bd
00000190: 760d 60bd b6ef 613d cce5 e43c 860f f23d
000001a0: 4487 0a3d bf4c 303b cc45 3f3d b4fc 003c
000001b0: 2867 db3d cb7d 713d 2e52 af3d c773 5a3d
000001c0: 6d76 2ebc bb8a e33d 177c c33d 5c93 e1bd
000001d0: 21f0 7abd bd8e 89bd a398 9cbd 2564 b43d
000001e0: 7b6d 92bd 68b6 abbd b65c a2bc 1084 143d
000001f0: 6c5f ca3d 9b7d 3c3d 0a09 ec3d c211 3e3d
00000200: 9ed0 b8bd 6bea 9f3d e4cc ca3d ac10 d23d
00000210: 526a 9a3d 0bc5 87bd 043a 643d 8c42 ad3d
00000220: db34 633d 8411 293d 5e5f c83c 4ca3 f8bd
00000230: 44d7 273d 00c2 f33d d51a e13d 8687 f33b
00000240: f5ca ecbd 896b 98bd d80b b3bb 3d85 e53d
00000250: fece cabd e792 e0bd b2a9 02be 9324 90bd
00000260: 6c79 4dbd 5c87 673d dfe9 e1bd 483e 8b3d
00000270: 304f 883d 213a 08be da87 da3b df2a 5e3d
00000280: 5fcb ebbd 6c57 a43c 88cb c33d 44b5 bdbd
00000290: 19f3 80bc dc22 d8bc b7db f0bc 8d7c 93bc
000002a0: 580b 853d 1412 7fbd 61da c63d 45cf 413c
000002b0: 03b4 adbd 559d 97bd 28a5 223d 00dd 39bd
000002c0: 64b6 883d bbcb 78bc 0c9c d8bc 3dfa cf3d
000002d0: 6529 b9bd 8dc2 e8bd 6951 0a3e d88d 903d
000002e0: f5e1 a0bd dfbf d5bd 6b87 f8bc 167f d3bc
000002f0: efad 113e efd3 f33d e769 d43d 67ee 223d
00000300: 1990 b73d 75d8 c3bc 8131 85bd 53cf b7bd
00000310: 6a35 85bd 8835 99bc 63e6 453d 72dc e53d
00000320: 1ad2 b6bc 4c2c b0bd 20e8 253c 96eb cbbd
00000330: c8c4 0d3d 1b93 ddbd 9ce9 9bbd 4351 9ebd
00000340: 8cce d63d 5875 3f3d d388 1d3d 3175 99bc
00000350: 43f6 c73d 3c89 773d f543 d73d 5278 85bd
00000360: 8740 9fbd 8bd1 33bd cf53 b4bd 5384 7b3a
00000370: 39b4 dcbd a1fc a63c 96db 073c 1f03 e13c
00000380: d79e e6bc 5499 833c 6e40 0e3e 9e75 8e3d
00000390: 3ba4 fa3d 03f9 ec3d d16d 613d 9160 e93d
000003a0: b2bc 873d 8452 ab3d 4a7b ba3d f2fc 003e
000003b0: 6557 bbbd f9e8 25bd c2db 18bd 5cc2 cf3d
000003c0: 0bb5 a1bd 47a8 cf3d 7855 a53d a8f6 82bd
000003d0: d7bd 483d b733 b3bd bbad 7ebd da9a bebd
000003e0: 2713 d13c cf90 d13d 3291 893d 47d4 1b3a
000003f0: cc61 0a3d c0ac a43d 6ead cc3d c408 d4bd
0.050226286 0.09106744 -0.027934926 0.11880932 0.04318752 -0.008480019 0.032433946 -0.06079985
-0.10244537 0.10493732 0.018826017 -0.018303853 0.011895428 0.11796079 0.07664155 0.10916975
-0.018351303 0.021371603 -0.08178423 0.08259532 -0.103536494 0.10612492 0.05533643 -0.09913471
-0.08677375 -0.010005322 -0.043639265 -0.06564209 -0.11941773 0.0038688583 -0.019235892 0.10440344
-0.029443268 -0.019455815 0.079467416 0.105787605 -0.121810205 0.11252722 -0.02073579 -0.05902058
-0.063711144 0.015085336 0.05469357 0.031763814 0.08351138 0.06927723 0.057092488 0.018915704
-0.11885576 -0.067366146 0.026223028 0.02540851 0.08106102 0.06499135 -0.014182066 -0.105767086
0.058049396 -0.037258055 0.05793331 -0.10861409 -0.0832589 0.088966526 -0.115904294 0.118937194
0.018482063 0.077009454 0.05436375 -0.03992087 -0.0010544665 -0.07618145 0.075634405 0.058731847
0.049580846 0.0025195354 0.079817064 0.0906008 0.0017990329 0.10569851 0.067833185 0.104732566
-0.00623459 0.028248295 0.04564286 -0.08848814 0.10268946 -0.042705815 -0.044356495 -0.08949075
0.010879816 -0.061727308 -0.0014395016 -0.09625893 0.10214402 -0.10148686 -0.09268857 -0.028969292
-0.0059972717 0.045913808 -0.036194883 -0.031799696 -0.054700337 0.055160247 0.027941607 0.11819367
0.033820406 0.0026901213 0.046697423 0.007872749 0.10713035 0.058957856 0.085605964 0.05333307
-0.010648352 0.11110445 0.09545153 -0.11014435 -0.06126416 -0.06716678 -0.07646301 0.088081636
-0.07149788 -0.083844006 -0.019819599 0.036258757 0.098814815 0.046018224 0.115251616 0.046403654
-0.090241656 0.078083836 0.09902361 0.10257086 0.0753981 -0.0662938 0.05571939 0.084599584
0.05547033 0.04127647 0.024459537 -0.121405214 0.040976778 0.11902237 0.10991446 0.007431927
-0.115621485 -0.07442386 -0.0054640584 0.11207054 -0.09902762 -0.109655194 -0.12760046 -0.07038226
-0.050164625 0.056525573 -0.110309355 0.067989886 0.06655729 -0.13303424 0.006669027 0.054240104
-0.11513399 0.020061217 0.09560305 -0.09263089 -0.015740918 -0.02638381 -0.029401643 -0.018003726
0.06496304 -0.0622731 0.09709621 0.011829202 -0.084816 -0.074030556 0.039708287 -0.045376778
0.06675413 -0.015185292 -0.026441596 0.10155151 -0.090410985 -0.113652326 0.13507618 0.070583045
-0.07855598 -0.10436987 -0.03033801 -0.025817435 0.14226507 0.119056575 0.10371762 0.03977814
0.08963031 -0.023906926 -0.06503583 -0.08975091 -0.065043285 -0.018702284 0.048315417 0.11223687
-0.022316981 -0.08602199 0.010126144 -0.09957044 0.034611493 -0.10819074 -0.07612917 -0.07730343
0.104886144 0.046742767 0.038460564 -0.018732639 0.097637676 0.06043361 0.10511009 -0.0651709
-0.077759795 -0.043901008 -0.08805048 0.0009594608 -0.10776562 0.020384135 0.008292099 0.027467309
-0.028151913 0.016064323 0.13891765 0.069560274 0.12238356 0.11570933 0.05503637 0.11395372
0.06627788 0.08365348 0.09105547 0.12596491 -0.091475286 -0.040505383 -0.037318952 0.10144493
-0.07895859 0.10139518 0.080729425 -0.06394702 0.04900917 -0.08750098 -0.0621774 -0.09306879
0.025521828 0.10232698 0.06717147 0.00059444126 0.033784673 0.08040762 0.099940166 -0.103532344

rnn.bias_ih_l1 f4 [192]
00000000: b5f9 21bd d85d 8fbc 4d33 e13d b0f5 9bbd
00000010: 8b98 5eba a1b0 bf3d 1d5b 813d ed79 dcbd
00000020: b032 62bd 64fd 023c 6ccc c6bd eb19 2ebd
00000030: 0cd5 203d d58e 8d3d 6074 853d 8def 513d
00000040: 2b84 71bd 479b af3d 992d 2bbd 8ce8 bbbd
00000050: bc0d c23d b0e2 773d b3be dfbc 9837 d13d
00000060: 352a d43d 9db7 633d c0f7 aabd 8a5b 8a3c
00000070: ff9f bbbb cc9f 583c 10ab e3bd 1fe3 7b3d
00000080: 6e3e 093b efa9 f6bc 8fac e7bd 4681 21bd
00000090: 9083 a0bd 0c14 29bd 7d4b 99bd 0f64 993d
000000a0: 3857 873d 78f2 e53d 3ad4 7cbc 33e3 c73d
000000b0: 06a9 813b b699 ccbd ea85 5dbd 9c9e af3c
000000c0: 6a16 133d 1b1c d93d 2ced de3d 748e e3bd
000000d0: c7af 9abd 5f81 f8bd c20a 8f3d 6676 c2bd
000000e0: 0c94 c93d 185e b53d d35d f43d f44f f7bb
000000f0: 4465 a43d fc88 303d b94a e1bd 87b6 dcbd
00000100: 0bbd 053d f7e3 793d ed0a 173e 2865 a0bd
00000110: 4cb7 9a3d d489 d6bd fd90 a03d 1419 86bd
00000120: 6463 83bc f1bb 21be c450 b23c 32ff 48be
00000130: c28f 71bd 8ba2 d8bd bf7d eb3c bdde 25bd
00000140: d577 d93b 7094 eabd d851 50bd 4a1b c0bc
00000150: d602 c7bd db41 4bbd 9453 b13c c163 cb3b
00000160: 8817 d73d 3b73 0d3a 75bb 13bd fa38 153d
00000170: 7f1a 413c 2516 b03d 6410 8d3d d53f eb3d
00000180: 2f4f 8ebd cd3f 8bbc 2ede 5a3d a52b 053e
00000190: b5d6 d5bd 635f c83d 309a bebd 5c15 42bd
000001a0: c33f c23d df03 e83d 4268 a83d 2981 f33d
000001b0: f091 fe3d 1f5a 36bd 7a08 733d 9395 a8bd
000001c0: 6bf1 b8bd 8338 ec3d 91d1 edbd 86da 8bbd
000001d0: fb26 4fbc 5787 d03d ccd3 f3bd ac9e 143c
000001e0: 9927 da3d aefc 703d 015b 24bd ab68 22be
000001f0: a388 7b3d a6c2 8dbd 5301 9b3c 55c0 7dbb
00000200: 9d67 90bd b19c ef3d a757 8abd d102 8b3d
00000210: 341f 6d3d 21b9 093c 3184 7fbc 815b b0bc
00000220: 7802 9a3d b9bd 2b3d 58f5 b43d 9b74 323d
00000230: 6d69 ea3d a2de 91bb b73c 68bd d302 eebd
00000240: f899 a4bd 6046 bcbc acf8 55bd 173f 44bd
00000250: d892 c5bc cc61 603d 8da8 61bd 5d61 d23d
00000260: 92b2 34bd ff1c 7e3d 844b 963c beac 5cbd
00000270: 2a19 943b 083a 9dbc 2199 863d 72b2 02bd
00000280: 8be3 5fbc 7b14 7b3d 5b19 a53d 3a0a 8abb
00000290: ad6d f2bd 9a5a 94bd 97fa 9b3c 8d2a 38bd
000002a0: 0fcf dcbd 0fee dbbd c6cc 3dbd 8f32 58bc
000002b0: 4e2f adbd 7876 80bd 1ec0 bfbd 8002 62bd
000002c0: ba5f 05bd cb89 bfbc de1a 27bd 5811 d0bc
000002d0: 2fba ee3d 2a01 8cbd 2ea7 fb3d a44e eebd
000002e0: 8913 bc3d 8297 f1bc b729 4f3d fafd 85bd
000002f0: 21c9 c4bd f685 c4bd 592f 753d 6f49 ce3d
-0.03954478 -0.017500803 0.10996113 -0.076152205 -0.00084913586 0.09359861 0.063162066 -0.10765443
-0.05522412 0.007994983 -0.09706959 -0.042505186 0.039265677 0.06912009 0.065163374 0.051253844
-0.058963936 0.08574539 -0.041791532 -0.09175214 0.09475276 0.06051892 -0.027312612 0.10215682
0.10359613 0.05559503 -0.08348036 0.016889352 -0.00572586 0.013221692 -0.11116612 0.061495896
0.0020941752 -0.030110328 -0.1131221 -0.039429925 -0.078375936 -0.041278884 -0.07485101 0.07489788
0.066084325 0.11227888 -0.015431458 0.09760132 0.0039569167 -0.099902555 -0.05408279 0.021437936
0.035910048 0.10601064 0.10885081 -0.11111155 -0.07553058 -0.121340506 0.06984474 -0.09495239
0.09842691 0.088558376 0.11931958 -0.007547373 0.080271274 0.04309939 -0.1100058 -0.10777002
0.03265099 0.06100842 0.14750262 -0.07831794 0.07554492 -0.104755074 0.07840154 -0.06547752
-0.016038604 -0.1579435 0.021767028 -0.196286 -0.05897499 -0.105778776 0.028746484 -0.040495623
0.0066365995 -0.114540935 -0.050859302 -0.023450512 -0.09717338 -0.04962335 0.021646298 0.00620696
0.10502535 0.0005395894 -0.036067445 0.03643129 0.011786102 0.08597974 0.06887892 0.11486784
-0.06948697 -0.016998196 0.053434543 0.1300493 -0.10441343 0.097838186 -0.09306753 -0.04738365
0.09484818 0.11328863 0.082230106 0.1188987 0.12430179 -0.04451954 0.059334256 -0.08231654
-0.09030422 0.11534216 -0.11612237 -0.068287894 -0.012643571 0.10182064 -0.119056314 0.009071033
0.10652084 0.058834724 -0.04012585 -0.1586024 0.061409604 -0.06921892 0.01892153 -0.0038719375
-0.07051013 0.116998084 -0.067549996 0.067876466 0.057891086 0.008405955 -0.015595482 -0.021528007
0.07520002 0.04192898 0.08835858 0.043568235 0.114458896 -0.0044515887 -0.056698527 -0.116216324
-0.0803718 -0.022982776 -0.052239105 -0.04791173 -0.024117872 0.054780766 -0.055092383 0.10272477
-0.04411561 0.06203937 0.018346556 -0.053875677 0.0045196014 -0.01919271 0.06572176 -0.03190846
-0.01366509 0.06129883 0.08061477 -0.004212645 -0.11837325 -0.072438434 0.019040389 -0.044962455
-0.10781681 -0.107387654 -0.046337865 -0.013195648 -0.08456288 -0.06272596 -0.09362815 -0.055178165
-0.032561995 -0.023381134 -0.040797107 -0.025398895 0.116566055 -0.068361595 0.12287746 -0.11636093
0.091834135 -0.02949119 0.05057689 -0.06542583 -0.09608675 -0.095958635 0.059859607 0.100726

rnn.bias_hh_l1 f4 [192]
00000000: d9fe 0ebd 0d9a 6d3d 7290 e1bc 661d ecbd
00000010: c728 ecbd 2d12 913c 7c9c a83d 276e 14bd
00000020: a440 2fbd a82c 633d 1ad9 f7bc c356 1abd
00000030: 51cb a83c 5da1 003e ab69 bfba fb66 2cbd
00000040: cf97 cf3d 6d94 ea3d 7f76 e5bd 98c5 45bd
00000050: f01a adbd caa4 b3bd 9ddd 8abb 1054 b7bd
00000060: eb5d b23c 20da 8e3d 9a50 8e3d c697 97bd
00000070: 4b06 4fbd 2e79 ebbd 2afd cebd 3943 80bd
00000080: feab bd3b d108 a53d 9984 7c3d bca7 413d
00000090: 720d 14bd ad1b 93bd abe9 b03b 0d1c 263d
000000a0: 517e 1a3d 00c1 6c3d b32a 8cbd f69a 4dbd
000000b0: be4a d43d e45f fc3d 5423 b1bd 403a 093c
000000c0: adbe c2bd 88ff 453d 7e99 243d 7c1f 243d
000000d0: 3524 92bb 61ec c1bb d39a 20bd 3968 0c3e
000000e0: 9dd6 1ebc 08e9 cd3d 3b0c 9abd c700 f5bc
000000f0: d3e5 0a3d ad0a d33d c362 6c3d 3982 24bd
00000100: 54d4 0d3e ffdb 913d d5f9 143e 2a9f 1b3d
00000110: b9cb 10bd 477d 38bd 818b a5bc cc8d aabd
00000120: 0b2e a53d 533f 7f3c c9cc ae3d 871e e5bd
00000130: fc02 25bc 8404 1d3d 394b 8b3d 0f5d 2fbc
00000140: 9f7e 39bd 0ad6 c23d 2913 a3bd 9e27 613d
00000150: 7156 7cbc 0b0f b7bd 3a66 913c 5d90 f73c
00000160: 3401 023d 4ce1 8fbd 4d91 b7bd bdb9 80bd
00000170: d88f acbc 021a d03d e615 7a3c 1d1a ba3c
00000180: 407f c9bd 3ae5 c43d 8db6 7abc 6ae7 3b3c
00000190: b3d8 dd3d 3689 86bc e829 ecbd 7389 7d3c
000001a0: f650 713d e5fd ddba 8019 b53d e75c b03b
000001b0: f87c ba3c 893b f73d 9c54 93bd baa9 09bd
000001c0: 020d 39be e61f abbc 2949 83bd f0c2 07be
000001d0: a8f7 553d e752 823d 6c51 d6bb d049 d23d
000001e0: 5701 813c e2b7 5ebd 8710 47be f47c 04bd
000001f0: f2f3 b7bc 7cb9 433d 9cbc 9cbd ec3d 87bd
00000200: 4833 61bd bb93 62bb d477 aabd a349 a1bc
00000210: 73ea 62bd 4ea6 dfbd a41c 403d 4d5b 393c
00000220: 592c 553c 2949 b4bd fd72 92bc a725 eb3d
00000230: 302b 45bc 8534 c73d f56c 4abd 5e7b e6bd
00000240: 01e9 a43d 0a2b 503d 76d5 9cbd 3ac2 91bd
00000250: 49bf 02bd aa27 413c 6930 4fbd ca37 d5bb
00000260: c70c 7dbb ff16 d2bd d596 bbbd bd45 03ba
00000270: 4429 093d 6c0d 9b3d c72c 77bd 5069 10bd
00000280: 27d6 79bc b37c edbc 430f cabd e600 80bd
00000290: 71aa e93d d74a 32bd 8daf 063c dd6b 143d
000002a0: aacd efbc 9ec3 e9bd 5e6a f93d 462f f4bd
000002b0: 8b4a 3d3a b8bf d6bd fc52 9f3b 86c2 e7bd
000002c0: 0247 453d d84d 7e3d 9a9f 9d3d ee53 81bc
000002d0: 92ce 903d 9271 3abc a373 efbd 7df5 8f3d
000002e0: 5ebf 62bd e572 d43d a65f 9cbd 2f8f 30bd
000002f0: d425 db3d ad40 e13b 3629 54bd 617b 3d3d
-0.03491101 0.058008242 -0.027534697 -0.11529045 -0.11531215 0.017708862 0.08232972 -0.036237862
-0.042786255 0.05546251 -0.03025489 -0.0376804 0.020604761 0.12561555 -0.0014603635 -0.042090397
0.10136377 0.11454091 -0.11204242 -0.048284143 -0.084524035 -0.087716654 -0.004237844 -0.089515805
0.0217733 0.06975198 0.06948967 -0.07401995 -0.05054311 -0.114977226 -0.10106881 -0.06262822
0.0057883253 0.08058322 0.061649892 0.047279105 -0.036145635 -0.07183013 0.005398949 0.040554095
0.03771812 0.057801247 -0.06844082 -0.05019661 0.103658184 0.12322977 -0.086493164 0.008375704
-0.09509025 0.048339397 0.040185444 0.04006909 -0.0044598826 -0.005918071 -0.039210152 0.13711633
-0.0096947225 0.10054213 -0.07521864 -0.029907597 0.033910584 0.103047706 0.057711374 -0.040163253
0.13850528 0.07122039 0.14548428 0.037993588 -0.035350535 -0.04504135 -0.020208122 -0.08327827
0.080654226 0.0155790625 0.085351534 -0.11187463 -0.010071512 0.038334385 0.06801457 -0.010703339
-0.04528677 0.09513481 -0.07962639 0.054969423 -0.015401469 -0.08938416 0.01774894 0.030220205
0.03173943 -0.07025394 -0.08963261 -0.06285427 -0.021064684 0.101612106 0.01526401 0.02271753
-0.09838724 0.09614034 -0.015302313 0.011468748 0.10832348 -0.01642285 -0.115314305 0.015474665
0.0589151 -0.0016936628 0.08842754 0.0053821686 0.022764668 0.12071902 -0.07193872 -0.03360913
-0.18071368 -0.020889234 -0.064104386 -0.13257957 0.052238137 0.063634686 -0.006540468 0.10267985
0.01574771 -0.054374583 -0.19439898 -0.032345727 -0.02245519 0.047784314 -0.07653162 -0.066036075
-0.054980546 -0.0034572918 -0.08323637 -0.019688433 -0.05539937 -0.10920392 0.046902314 0.011313272
0.013011062 -0.08803017 -0.017877096 0.11481791 -0.0120342225 0.09726814 -0.049420316 -0.11253999
0.080522545 0.050822295 -0.07657902 -0.07117124 -0.031920705 0.011789242 -0.050583277 -0.0065068947
-0.0038612352 -0.102582924 -0.09159628 -0.0005007645 0.03348662 0.075709194 -0.060345437 -0.035256684
-0.015248812 -0.028990125 -0.09866192 -0.06250171 0.11409462 -0.043528404 0.0082205655 0.03623568
-0.029272873 -0.11414264 0.12178491 -0.11923079 0.00072208856 -0.10485786 0.0048621874 -0.11316399
0.04816342 0.062085956 0.07696457 -0.015787091 0.0707065 -0.011379616 -0.11691978 0.07029245
-0.055358283 0.10373477 -0.07635431 -0.0431053 0.107005745 0.006874165 -0.051797114 0.04626024

fc.weight f4 [1, 64]
00000000: 4e1b 803d f015 a0bd 38f7 e43d 8fbe 9c3d
00000010: 585b f23d d711 f83d b3d5 c6bd 2e84 c73c
00000020: acec b73d 191f 54bd a3cf fabd a5bc f2bd
00000030: 8220 95bc e8d3 42bd b01c 73bd 8863 823c
00000040: 90a1 b2bd 680a fcbd c104 aebd 6dd9 7bbd
00000050: e476 693d bd13 2b3b 5959 e6bc 6ad1 a2bc
00000060: 36b1 c6bd bf1e 793d 4d08 54bd 30c7 f13c
00000070: 3f6d a3bd 6e1c 9bbc 8ebe c33d 2b87 3d3d
00000080: 557a 9d3d e7cf d8bc 10a7 89bd 621e e1bc
00000090: f240 3dbd 39ac fb3d fc8b 4b3d b0bf cf3b
000000a0: 0927 b43d b8e0 dabc 4da9 1cbd 0904 76bd
000000b0: 627c 8a3d 49d2 96bd 0ea7 d6bd e4ce c9bd
000000c0: 68eb d5bd 162d dc3c e6a5 e5bd 171b cebd
000000d0: 808c e43d 5fd0 94bd 22b0 cd3c 9b64 0abd
000000e0: 7e40 fe3c ad0e ae3d 38a1 e23c 8dc1 08bd
000000f0: 986e c63d 1b25 94bd 4f3c 9a3d 9bc2 ea3d
0.06255208 -0.07816684 0.11179966 0.07653534 0.11833829 0.12112778 -0.09708729 0.02435502
0.089806885 -0.05178747 -0.12246635 -0.11852387 -0.018203977 -0.04756537 -0.05935353 0.0159166
-0.08722222 -0.12306672 -0.084970005 -0.06148665 0.05699815 0.0026104294 -0.028118776 -0.019875247
-0.09701769 0.060820337 -0.05176573 0.029513925 -0.079798214 -0.018934455 0.0955783 0.046271484
0.076893486 -0.026466323 -0.06721318 -0.027480308 -0.046204515 0.12288708 0.049694046 0.0063399896
0.08796508 -0.026718482 -0.038247395 -0.060062442 0.067620054 -0.073643275 -0.10481082 -0.098539144
-0.10445291 0.026876967 -0.11213283 -0.10063761 0.11159611 -0.07266306 0.0251084 -0.03378735
0.031036612 0.08498893 0.027664766 -0.03338771 0.09689063 -0.0723364 0.07531034 0.11462899
