data/results/gru_baseline_SPX_r10d.pt (torch, 166565 bytes, 9 tensors)

rnn.weight_ih_l0 f4 [192, 15]
0.0125506045 0.12510556 -0.031028157 0.035626233 -0.020764267 0.06261709 0.079123795 -0.052137107
-0.06371865 -0.01536453 0.10002734 -0.0934561 -0.14213319 0.031121466 0.037413884 -0.11681697
-0.0959571 -0.15109724 -0.07424512 0.12528487 0.02170895 -0.06336795 -0.19127564 -0.11717453
0.20122047 -0.0450007 -0.04801881 -0.00043623298 -0.17166272 0.013821671 0.009199891 0.14040975
-0.4006794 0.24307242 0.07766805 0.13424577 0.05542642 0.040997706 -0.006763293 0.053714167
0.1044013 0.06742711 0.04924951 -0.16578877 0.17374183 0.10274836 0.043810893 -0.054355986
-0.12764265 -0.11374098 -0.115776315 -0.13866754 -0.44949943 0.01621037 0.0019458048 -0.079764
0.06282164 -0.18220657 -0.117690496 0.08990187 0.017982554 0.0632104 -0.27829883 -0.16062303
0.1358053 0.18837357 0.06786004 -0.06880926 -0.14630379 -0.040216047 -0.005315914 -0.11418509
-0.055515975 -0.06545818 -0.07298505 -0.11584275 0.049188357 0.20273046 -0.1868022 -0.03508935
0.009743461 0.021244647 0.07239925 0.05573475 -0.23893318 0.060478717 0.0657557 0.0130579695
0.0765534 -0.21973869 -0.0029092361 -0.105589 0.19094668 -0.13908923 0.011603202 0.03447457
0.029128212 0.014416897 -0.16904154 0.05789308 0.05807423 0.094422534 0.15714942 -0.22780277
-0.20249316 0.094732 0.032397415 -0.09493432 -0.09911566 0.016090943 0.093184106 -0.07513083
-0.051331382 -0.06554544 0.060272902 0.037829835 0.1466777 0.009362881 0.13022715 -0.12270721
-0.1883786 -0.0541036 0.315924 -0.29450062 -0.12004467 -0.087964036 -0.025314756 0.056703106
-0.06940242 -0.18785591 -0.0053094467 -0.131668 -0.036149167 0.11785557 -0.21136391 0.00014448856
0.072058685 -0.12709512 0.29414842 0.09778148 -0.02446878 -0.033557385 -0.27645883 -0.021385994
0.28763422 -0.031056842 0.06889684 -0.020627242 -0.022445751 0.23865983 0.13963957 0.05537584
-0.11875007 0.050834093 0.09013361 -0.077270746 -0.16622941 -0.27153814 0.05587444 0.22425324
-0.13835144 0.0017382712 -0.038673244 0.0134208165 0.03807986 0.013010126 -0.15576054 -0.018992495
-0.067848995 0.019475434 0.18470798 0.13620128 -0.23625508 0.17343798 0.08063012 -0.03051954
-0.06166403 -0.11934257 -0.050838996 0.12975872 -0.14614278 -0.15545821 -0.2302294 -0.065368734
0.0468558 0.06871313 -0.1357217 -0.1106243 0.047156293 -0.19186516 -0.003462262 -0.0033963537
0.05129485 0.07925029 -0.06895809 0.12446416 0.0757728 -0.2493623 -0.12219065 0.15267801
0.079646654 -0.13598806 0.048168626 0.100295246 -0.05315162 -0.1009604 -0.038694438 -0.15237305
-0.11445115 0.02298011 0.08244989 -0.100605406 -0.10058203 -0.0071829637 0.0960638 0.097324595
-0.035906628 -0.3707395 -0.1611212 0.20937073 0.07666495 0.11976257 0.025829148 -0.060693912
0.019609911 -0.13911824 -0.1706531 -0.124290794 -0.3038902 0.032230176 0.017474592 0.06729204
-0.18709254 -0.23543397 0.06868532 0.013304459 -0.11067264 0.012981491 0.029899769 -0.058997042
0.1135088 -0.085510515 -0.008533694 0.060932424 0.18329583 0.02442542 0.09080354 -0.12559193
-0.19204481 0.3086756 0.10099222 0.0996632 0.035055898 -0.11803743 0.002041921 0.3811422
00000000: 0da1 4d3c ac1b 003e c32e febc d0ec 113d
00000010: d319 aabc 643d 803d a80b a23d b88d 55bd
00000020: ec7e 82bd 82bb 7bbc 22db cc3d e965 bfbd
00000030: 5d8b 11be 72f2 fe3c 4d3f 193d bc3d efbd
00000040: 2885 c4bd 3cb9 1abe d30d 98bd ad4a 003e
00000050: f8d6 b13c 0ec7 81bd c3dd 43be 33f9 efbd
00000060: bd0c 4e3e a752 38bd 5faf 44bd 33b6 e4b9
00000070: 5ac8 2fbe 4a74 623c 24bb 163c 93c7 0f3e
00000080: da25 cdbe fae7 783e 6d10 9f3d b977 093e
00000090: d006 633d 36ed 273d 9d9e ddbb 6303 5c3d
000000a0: 59d0 d53d 3a17 8a3d dbb9 493d 88c4 29be
000000b0: 61e9 313e bb6d d23d 0d73 333d 62a4 5ebd
000000c0: c1b4 02be 08f1 e8bd 221c edbd ddfe 0dbe
000000d0: ca24 e6be 9ccb 843c 600a ff3a 4f5b a3bd
000000e0: a2a8 803d 5c94 3abe b707 f1bd 791e b83d
000000f0: 2650 933c 7474 813d 2f7d 8ebe 5d7a 24be
00000100: 8b10 0b3e 00e5 403e 34fa 8a3d dfeb 8cbd
00000110: a9d0 15be 95b9 24bd 1e31 aebb dfd9 e9bd
00000120: b864 63bd f00e 86bd 3079 95bd f73e edbd
00000130: bb79 493d 9398 4f3e 1349 3fbe dab9 0fbd
00000140: 0aa3 1f3c 4109 ae3c 0f46 943d 1f4a 643d
00000150: e6aa 74be 88b8 773d edaa 863d 18f1 553c
00000160: 07c8 9c3d 2e03 61be e2a8 3ebb 0c3f d8bd
00000170: 8787 433e 686d 0ebe 5b1b 3e3c 3535 0d3d
00000180: 4a9e ee3c d934 6c3c 3a19 2dbe 4b21 6d3d
00000190: 3edf 6d3d 9a60 c13d c7eb 203e 2145 69be
000001a0: 5e5a 4fbe da02 c23d 27b3 043d ed6c c2bd
000001b0: 27fd cabd 27d1 833c 4fd7 be3d 31de 99bd
000001c0: db40 52bd b03c 86bd b8e0 763d 75f3 1a3d
000001d0: ae32 163e c566 193c 445a 053e eb4d fbbd
000001e0: 52e6 40be bd9b 5dbd cac0 a13e c9c8 96be
000001f0: fbd9 f5bd 7d26 b4bd e460 cfbc 8441 683d
00000200: db22 8ebd 4d5d 40be defa adbb fad3 06be
00000210: 2611 14bd 435e f13d c86f 58be da81 1739
00000220: 8193 933d 3925 02be 9f9a 963e a841 c83d
00000230: c072 c8bc 7873 09bd 038c 8dbe ae31 afbc
00000240: cb44 933e eb6a febc c919 8d3d 76fa a8bc
00000250: 27e0 b7bc 3e63 743e adfd 0e3e c7d1 623d
00000260: 3d33 f3bd 6937 503d f897 b83d 2040 9ebd
00000270: 0b38 2abe 0c07 8bbe 99dc 643d a4a2 653e
00000280: 00ac 0dbe b4d6 e33a d667 1ebd fce2 5b3c
00000290: a1f9 1b3d 6c28 553c b17f 1fbe 2696 9bbc
000002a0: 6af4 8abd f28a 9f3c 1724 3d3e 5978 0b3e
000002b0: daec 71be ba99 313e 6821 a53d 1d04 fabc
000002c0: 6c93 7cbd e169 f4bd 8d3c 50bd 78df 043e
000002d0: 74a6 15be 7030 1fbe 41c1 6bbe 0be0 85bd
000002e0: deeb 3f3d 78b9 8c3d a1fa 0abe fe8e e2bd
000002f0: f526 413d 4d78 44be 1ee7 62bb 5c95 5ebb
00000300: 8c1a 523d fa4d a23d e639 8dbd 11e7 fe3d
00000310: c52e 9b3d d558 7fbe 173f fabd a057 1c3e
00000320: c91d a33d 7440 0bbe 774c 453d 9867 cd3d
00000330: 83b5 59bd 54c4 cebd 0f7e 1ebd ae07 1cbe
00000340: 5d65 eabd c940 bc3c 7ddb a83d 350a cebd
00000350: f4fd cdbd 115f ebbb 19bd c43d 1e52 c73d
00000360: d412 13bd 91d1 bdbe f5fc 24be 4865 563e
00000370: 8302 9d3d 1446 f53d a697 d33c 2e9a 78bd
00000380: f7a4 a03c 0375 0ebe b0bf 2ebe 2c8c febd
00000390: 7f97 9bbe ca03 043d e026 8f3c 69d0 893d
000003a0: 3095 3fbe 9a15 71be e4aa 8c3d f2fa 593c
000003b0: 56a8 e2bd 52b0 543c 5cf0 f43c e2a6 71bd
000003c0: 4d77 e83d 2320 afbd e8d0 0bbc 4794 793d
000003d0: e7b1 3b3e d217 c83c 35f7 b93d 2c9b 00be
000003e0: 65a7 44be ba0a 9e3e 02d5 ce3d 381c cc3d
000003f0: c696 0f3d 9cbd f1bd c0d1 053b 1225 c33e

rnn.weight_hh_l0 f4 [192, 64]
-0.084237896 -0.0075965617 0.035983346 0.08749388 -0.11433768 -0.06476627 0.024211023 0.11087661
0.05527591 0.019743582 0.060533784 0.098530784 0.14441365 -0.0085235685 0.080452695 -0.014695112
-0.0026063414 0.10029533 -0.0005558741 0.08833802 -0.1172003 0.013553509 -0.07433998 0.016969671
0.058188807 -0.024978245 -0.082888685 -0.077138335 0.07255391 -0.11596719 0.006676742 -0.010825781
0.0272676 0.13149484 0.052122865 0.13868797 -0.11979147 -0.0076256106 -0.01219333 0.09527777
-0.011614977 -0.06049034 0.062351476 0.011981717 -0.10161627 0.043663334 -0.07864569 -0.14098865
-0.019438623 0.046078093 0.10831078 -0.058741372 0.1102372 -0.10764925 -0.08263159 -0.009815955
0.024778571 -0.10317714 0.02081788 -0.10503614 -0.011299379 0.15932715 -0.06934592 -0.008050794
0.116860345 0.05121561 -0.0063299686 -0.05714493 0.056952134 0.099239945 0.09026819 0.004435911
-0.001625565 0.040978692 -0.035785202 0.03571139 0.009775998 -0.039653033 0.045771785 -0.07803362
-0.120044366 0.12815228 -0.023079943 -0.044648297 -0.08211261 -0.008441127 -0.0649812 0.011832855
-0.059546567 -0.012236091 0.0075989906 0.015776157 0.12059056 0.09478527 -0.019659517 -0.08364856
0.100966804 -0.08582091 -0.10916508 -0.026390767 0.09659444 -0.09728054 -0.12670156 -0.08560616
-0.051890336 -0.0025577534 -0.012367982 0.01891796 0.10201353 -0.12520477 0.05001218 0.053473715
-0.08063758 0.016649874 -0.039612614 0.122822 -0.02115216 0.115509465 0.08055642 -0.060077984
-0.0065554157 0.10320651 -0.12741373 -0.03513442 0.08529222 -0.073367335 0.019459262 -0.17560254
0.14388056 -0.060159065 -0.082296915 -0.0077976794 0.033578884 -0.0128408875 0.06670483 -0.0672773
-0.095981725 0.08623683 -0.028465554 -0.00244915 0.072493985 0.111492254 0.044859856 0.012267392
-0.007966128 -0.052786317 -0.030275708 0.044950902 0.067745276 -0.11690285 -0.12174806 0.010377778
-0.11413775 0.14124258 -0.06616023 -0.11617236 0.00399302 -0.081125185 -0.19257867 -0.021131527
0.089558676 0.010892122 0.033579666 -0.019163491 -0.14193492 0.014752127 -0.0070110573 -0.028384387
0.027787527 -0.0910386 0.06853115 0.05256474 -0.09940191 -0.0352489 -0.0021326852 -0.05328406
-0.036530863 0.07305556 -0.014551076 -0.1037558 -0.035250627 -0.1444808 0.051424876 0.03776182
0.11426554 0.016461996 -0.07788958 -0.1517637 -0.014392725 0.07506799 0.038304783 -0.07339305
0.06409681 0.07720084 -0.04966234 0.11664622 0.064894736 -0.11775603 0.12815726 0.09589272
0.10108406 0.016179275 -0.18189763 0.029747922 0.18300876 0.056816265 -0.15586168 0.07302138
-0.07258848 -0.04811756 0.035881083 0.008348753 0.027112203 0.16274987 -0.17298427 -0.09985049
0.13418959 0.05578109 0.09294089 0.14565209 -0.09628193 0.024748417 -0.0020465245 -0.0493392
-0.10759216 -0.14504236 0.0133378925 0.098652 0.12210633 0.00446991 -0.014083697 0.15752254
0.10446159 -0.00090237596 -0.1925964 -0.029983576 0.035911176 0.08416508 -0.016294573 -0.046753988
0.072069734 0.14166248 0.08260529 0.022314513 -0.09726908 0.0036907664 -0.032748263 0.055733364
-0.045005724 -0.038185515 0.07853282 0.18217245 0.08448258 0.071188346 -0.12851176 -0.11937036
00000000: eb84 acbd 94ec f8bb 4663 133d fe2f b33d
00000010: e029 eabd 2ea4 84bd 3256 c63c 4713 e33d
00000020: fe68 623d 4bbd a13c 46f2 773d 82ca c93d
00000030: 2ce1 133e 70a6 0bbc 62c4 a43d c4c3 70bc
00000040: 27cf 2abb a367 cd3d 14b8 11ba 90ea b43d
00000050: b606 f0bd 890f 5e3c 8f3f 98bd fb03 8b3c
00000060: 6357 6e3d 2d9f ccbc 8bc1 a9bd b4fa 9dbd
00000070: 2597 943d 3580 edbd 92c8 da3b 9e5e 31bc
00000080: 4d60 df3c 95a6 063e c97e 553d 3804 0e3e
00000090: 3b55 f5bd 42e0 f9bb 88c6 47bc fe20 c33d
000000a0: bf4c 3ebc b8c4 77bd 4364 7f3d f74e 443c
000000b0: 311c d0bd 53d8 323d fe10 a1bd 545f 10be
000000c0: bf3d 9fbc 62bc 3c3d 0bd2 dd3d cb9a 70bd
000000d0: 0bc4 e13d 3677 dcbd c03a a9bd 19d3 20bc
000000e0: 6efc ca3c 894e d3bd 428a aa3c 301d d7bd
000000f0: 0821 39bc a826 233e 3c05 8ebd 7ae7 03bc
00000100: 7a54 ef3d 76c7 513d a06b cfbb cd10 6abd
00000110: a446 693d 503e cb3d 87de b83d 1e5b 913b
00000120: e910 d5ba 46d9 273d 8193 12bd 1b46 123d
00000130: 822b 203c 386b 22bd 327b 3b3d 17d0 9fbd
00000140: d2d9 f5bd 5a3a 033e 2612 bdbc 22e1 36bd
00000150: a82a a8bd a74c 0abc dd14 85bd 97de 413c
00000160: 1ae7 73bd e379 48bc f400 f93b 003d 813c
00000170: 2ff8 f63d c81e c23d ff0c a1bc f04f abbd
00000180: afc7 ce3d e0c2 afbd f191 dfbd 7331 d8bc
00000190: 4ed3 c53d 053b c7bd 0ebe 01be 4852 afbd
000001a0: f68a 54bd fb9f 27bb 14a3 4abc d6f9 9a3c
000001b0: 78ec d03d ae35 00be 92d9 4c3d 4107 5b3d
000001c0: 5125 a5bd 5165 883c d640 22bd 1a8a fb3d
000001d0: 4b47 adbc 3a90 ec3d c4fa a43d 5514 76bd
000001e0: d0ce d6bb ef5d d33d bf78 02be 1ce9 0fbd
000001f0: b0ad ae3d 9d41 96bd 0869 9f3c 27d1 33be
00000200: 6d55 133e 5a69 76bd 498b a8bd ad83 ffbb
00000210: 038a 093d 9662 52bc 8b9c 883d aec8 89bd
00000220: 1192 c4bd ef9c b03d 9830 e9bc eb81 20bb
00000230: ba77 943d 0d56 e43d f8be 373d 2cfd 483c
00000240: 5d84 02bc 7736 58bd c304 f8bc 701e 383d
00000250: 09be 8a3d c36a efbd 0c57 f9bd 8e07 2a3c
00000260: 0dc1 e9bd e5a1 103e 047f 87bd c6eb edbd
00000270: e1d7 823b f624 a6bd 5833 45be 061c adbc
00000280: 8a6a b73d df74 323c d58a 093d c1fc 9cbc
00000290: 6357 11be e8b2 713c 03bd e5bb 6086 e8bc
000002a0: aba2 e33c 7272 babd 0f5a 8c3d 204e 573d
000002b0: 3b93 cbbd 2761 10bd 85c4 0bbb 6340 5abd
000002c0: 63a1 15bd 279e 953d a367 6ebc ec7d d4bd
000002d0: f662 10bd c6f2 13be e4a2 523d 23ac 1a3d
000002e0: 0d04 ea3d 4fdb 863c 9284 9fbd f267 1bbe
000002f0: 77cf 6bbc 3fbd 993d 7ae5 1c3d 184f 96bd
00000300: 3045 833d 791b 9e3d bd6a 4bbd 37e4 ee3d
00000310: 88e7 843d 132a f1bd a83b 033e 6763 c43d
00000320: 2905 cf3d 668a 843c 5f43 3abe eab1 f33c
00000330: a666 3b3e 2cb8 683d 349a 1fbe 3c8c 953d
00000340: 45a9 94bd eb16 45bd 0bf8 123d 35c9 083c
00000350: 691a de3c e7a7 263e ca22 31be 6a7e ccbd
00000360: ff68 093e b67a 643d cb57 be3d d225 153e
00000370: 762f c5bd 31bd ca3c fc1e 06bb e717 4abd
00000380: 4759 dcbd fc85 14be 2d87 5a3c 0f0a ca3d
00000390: e212 fa3d 5378 923b 4fbf 66bc 974d 213e
000003a0: f5ef d53d 6d8d 6cba fe37 45be 1ea0 f5bc
000003b0: 9917 133d be5e ac3d 327c 85bc 1c81 3fbd
000003c0: 4c99 933d f80f 113e f62c a93d edcc b63c
000003d0: 0335 c7bd c9e0 713b 0b23 06bd ab48 643d
000003e0: ec57 38bd 6a68 1cbd d1d5 a03d 6a8b 3a3e
000003f0: 3405 ad3d 32cb 913d 9698 03be 7378 f4bd

rnn.bias_ih_l0 f4 [192]
-0.049785964 -0.05963693 -0.11465998 0.14353764 0.054711226 -0.010161014 -0.045592077 0.008093268
-0.13787231 0.0795588 -0.02276813 -0.10883083 -0.013735883 -0.076956265 0.07104321 -0.08534675
0.08436038 0.0018559321 -0.004446173 -0.056132715 -0.03826395 0.026777077 -0.041759934 -0.066958286
-0.029294813 0.17248043 -0.11973151 -0.06417642 0.19967492 -0.10868419 0.09661007 0.007603439
-0.06124739 0.07967673 0.020100407 -0.09329003 -0.037195146 0.05014439 -0.019564385 0.0010651777
-0.0059161754 -0.066395186 0.09244054 0.13263868 0.03915835 -0.02773679 -0.11964469 0.04485422
-0.0107012 0.041682683 0.110424414 0.12033088 -0.2965176 0.30515495 0.010095681 0.0042012287
-0.014387373 -0.092434764 0.0980555 0.021985259 -0.10088059 -0.08781779 0.10198607 -0.016140467
-0.09942451 0.050324015 -0.056591105 -0.15046659 -0.07830082 -0.10834652 0.03237411 0.026299916
-0.006213307 -0.05947844 -0.10791713 -0.011625817 0.06964116 -0.042128522 -0.033190276 0.056581467
-0.11126998 -0.11583852 0.096314564 -0.043909907 0.02841937 0.01024312 0.12925507 -0.19470745
-0.062065773 -0.29553473 -0.19257711 -0.03302118 -0.28282118 -0.046555575 -0.34310907 0.058247127
-0.07520344 -0.23564446 -0.14554898 -0.16721487 -0.18919155 -0.09522314 -0.11679349 0.091022015
0.0076488354 -0.22391252 -0.08838244 -0.104089305 0.08209472 -0.054417495 0.08655098 -0.19569618
-0.0004294073 -0.035755455 0.050765354 -0.09943662 -0.12547058 -0.17804168 -0.11873318 -0.010602736
-0.18239696 0.12359385 -0.21300866 0.07112351 -0.124995135 -0.010314516 0.024195554 0.100037254
-0.08414061 0.07181887 0.039986152 0.08358323 0.035827488 -0.042886514 0.011565001 0.10169991
0.09678049 0.07561586 -0.09995653 0.029819459 0.07087601 0.013544294 -0.019372292 0.108762555
-0.052101757 0.03734223 -0.010055356 0.095102526 -0.035412945 0.04711153 0.04335578 0.045439325
0.021323547 -0.0041737114 0.04704559 0.075400285 -0.0012259966 0.08295087 -0.05632336 0.036416095
-0.04156412 -0.08776601 -0.029327493 -0.0062737456 0.07536111 -0.09799089 -0.08570691 0.102669865
0.064635456 -0.08823617 -0.07729947 -0.050017454 -0.07131707 -0.054412592 -0.03204277 0.008214503
0.07297436 0.054429825 0.017206157 0.08581129 -0.015710067 -0.04811422 0.059420116 -0.0960383
-0.045583397 0.034276348 0.012457285 0.042091466 -0.010346376 -0.021512736 0.08238024 0.022254782
00000000: 5eec 4bbd da45 74bd dad2 eabd 88fb 123e
00000010: e118 603d 627a 26bc c2be 3abd a099 043c
00000020: 662e 0dbe b9ef a23d 3b84 babc b3e2 debd
00000030: 780c 61bc 3f9b 9dbd 1a7f 913d 47ca aebd
00000040: 23c5 ac3d bf42 f33a 34b1 91bb 6beb 65bd
00000050: a9ba 1cbd 9a5b db3c 770c 2bbd 6d21 89bd
00000060: adfb efbc b69e 303e cb35 f5bd ed6e 83bd
00000070: 9577 4c3e d195 debd 80db c53d 4526 f93b
00000080: 8bde 7abd 8e2d a33d 9ca9 a43c d80e bfbd
00000090: f059 18bd 3464 4d3d 7d45 a0bc 6f9d 8b3a
000000a0: 7adc c1bb 33fa 87bd 7751 bd3d 6fd2 073e
000000b0: 8264 203d 4438 e3bc 4608 f5bd 0fb9 373d
000000c0: 1654 2fbc 76bb 2a3d 3226 e23d 0970 f63d
000000d0: 28d1 97be 453d 9c3e 5b68 253c 76aa 893b
000000e0: 04b9 6bbc 704e bdbd 52d1 c83d 6e1a b43c
000000f0: 7c9a cebd d0d9 b3bd 13de d03d 0339 84bc
00000100: 149f cbbd 8e20 4e3d 13cc 67bd ea13 1abe
00000110: 2e5c a0bd c8e4 ddbd b79a 043d ec72 d73c
00000120: ff98 cbbb aa9f 73bd a803 ddbd 367a 3ebc
00000130: 06a0 8e3d f58e 2cbd 87f2 07bd f8c1 673d
00000140: 84e1 e3bd bf3c edbd 9240 c53d e0da 33bd
00000150: bdcf e83c c2d2 273c 715b 043e 6461 47be
00000160: ae38 7ebd 5450 97be ef32 45be 3841 07bd
00000170: f0cd 90be 0fb1 3ebd feab afbe 8a94 6e3d
00000180: 4304 9abd c84c 71be cb0a 15be 603a 2bbe
00000190: 6ebb 41be 5a04 c3bd 6d31 efbd c069 ba3d
000001a0: 15a3 fa3b 5349 65be da01 b5bd c62c d5bd
000001b0: 4721 a83d e1e4 5ebd a441 b13d 9464 48be
000001c0: 1222 e1b9 5074 12bd 55ef 4f3d 6da5 cbbd
000001d0: 5c7b 00be 8f50 36be 622a f3bd 19b7 2dbc
000001e0: 45c6 3abe c61e fd3d f11e 5abe 34a9 913d
000001f0: 73fd ffbd 37fe 28bc c135 c63c 55e0 cc3d
00000200: ea51 acbd c615 933d 85c8 233d af2d ab3d
00000210: d8bf 123d c5a9 2fbd 217b 3d3c 0b48 d03d
00000220: d934 c63d 7ddc 9a3d 02b6 ccbd f047 f43c
00000230: 7127 913d e3e8 5d3c a4b2 9ebc e7be de3d
00000240: a768 55bd 2bf4 183d 38bf 24bc 1dc5 c23d
00000250: 2a0d 11bd 05f8 403d d595 313d 961e 3a3d
00000260: b8ae ae3c a1c3 88bb e0b2 403d 776b 9a3d
00000270: 9fb1 a0ba 25e2 a93d 53b3 66bd 0b29 153d
00000280: 243f 2abd aabe b3bd 3640 f0bc fe93 cdbb
00000290: ed56 9a3d 73af c8bd 1b87 afbd 9444 d23d
000002a0: 985f 843d 2ab5 b4bd 2f4f 9ebd 1adf 4cbd
000002b0: af0e 92bd bddf 5ebd 483f 03bd 1f96 063c
000002c0: 9573 953d cff1 5e3d edf3 8c3c d4bd af3d
000002d0: 66b2 80bc 6b13 45bd 8262 733d baaf c4bd
000002e0: a8b5 3abd 5b65 0c3d a419 4c3c 1a68 2c3d
000002f0: d983 29bc 7a3b b0bc f9b6 a83d a94f b63c

rnn.bias_hh_l0 f4 [192]
0.09839196 -0.09504305 0.057466704 0.037558146 0.08039343 -0.1169804 0.14387774 -0.111871675
-0.10323078 -0.04373218 0.020715114 -0.11169516 -0.081190236 0.103304185 -0.034022752 0.06706189
0.016709141 0.10441697 -0.040835552 0.1597745 -0.04570047 0.073480345 -0.0068586343 -0.05181296
0.022852218 0.15094243 0.01831094 0.03350129 0.23210706 -0.082291715 0.030014439 0.040328365
0.11530338 0.23466675 -0.07259875 -0.025248507 0.10009164 -0.02957244 0.06470829 -0.09883231
-0.007338506 0.020386128 -0.09403447 -0.058962967 0.12204307 0.11063182 -0.08778888 -0.03650431
0.07085027 0.04588396 0.0012082967 0.16818348 -0.31617233 0.29491314 -0.012174941 0.0321585
0.08317226 -0.062388923 0.09439546 0.024328168 -0.09441583 -0.06773806 -0.0022277867 0.0073176813
-0.11247037 0.011923544 -0.09457988 -0.12905255 -0.06278655 -0.1075789 0.028932257 0.14395574
-0.028932657 0.019437592 -0.0675444 -0.1328542 0.045499638 0.01315179 -0.04332511 -0.022478085
-0.026847927 -0.050713357 0.064931326 -0.081227906 -0.061259244 -0.14045589 -0.05830022 -0.05861097
-0.09707139 -0.34852356 -0.21536914 -0.03685756 -0.29313636 -0.017276753 -0.33055598 0.06851647
0.09946232 -0.3529319 -0.203901 -0.18874314 -0.18919405 0.05490622 -0.16800676 -0.107252195
-0.07760089 -0.058932975 -0.0884815 0.032142464 0.04680737 0.05925342 0.025723258 -0.11459202
-0.03660462 -0.19686952 0.02464664 -0.16617754 -0.170337 -0.11193744 -0.050170522 -0.0020044632
-0.042364724 0.06417389 -0.11951073 0.21388769 -0.18373306 0.15190461 0.026805444 0.07887808
0.051012054 0.08583655 -0.113916636 -0.09781983 -0.045277745 0.066277474 0.0049098856 0.08914558
-0.10544703 0.10610274 -0.022442166 0.09787444 -0.039777335 -0.070774026 -0.104766145 0.030532185
0.10358568 0.0819295 0.008435235 0.014166357 0.050148394 -0.055828653 -0.123744376 -0.109485365
0.07464973 0.07522598 -0.02825127 -0.12944548 -0.0047098193 0.075477354 0.07456369 -0.011848832
0.086814515 -0.035445467 -0.048221603 0.06461699 -0.011912714 -0.02828922 -0.01908699 0.006214973
0.099371016 -0.021059426 -0.09383189 -0.008333314 0.027154947 0.09177264 -0.03991748 -0.08886574
-0.033652548 0.056437712 -0.017401885 -0.0719759 -0.040079255 0.09906623 0.090421304 0.10943195
-0.05497129 0.07051848 0.080298655 -0.021643933 -0.055052754 -0.09815873 -0.038283832 -0.096656434
00000000: b981 c93d eea5 c2bd 3562 6b3d 92d6 193d
00000010: 50a5 a43d 6c93 efbd b054 133e fa1c e5bd
00000020: a96a d3bd 8420 33bd beb2 a93c 6fc0 e4bd
00000030: 1147 a6bd 2591 d33d 715b 0bbd bf57 893d
00000040: 9ce1 883c 90d8 d53d 2e43 27bd ed9b 233e
00000050: 6b30 3bbd dd7c 963d 65be e0bb d439 54bd
00000060: 9334 bb3c a790 1a3e d300 963c a638 093d
00000070: 79ad 6d3e 8f88 a8bd d7e0 f53c 5b2f 253d
00000080: 2e24 ec3d 7b4c 703e a7ae 94bd f5d5 cebc
00000090: d9fc cc3d e741 f2bc c885 843d 9868 cabd
000000a0: da77 f0bb cf00 a73c 2595 c0bd 2783 71bd
000000b0: b8f1 f93d f092 e23d a8ca b3bd 8b85 15bd
000000c0: f219 913d d2f0 3b3d b65f 9e3a 4a38 2c3e
000000d0: 57e1 a1be dbfe 963e 6779 47bc a2b8 033d
000000e0: 3856 aa3d 878b 7fbd 6852 c13d de4b c73c
000000f0: 165d c1bd 41ba 8abd 0f00 12bb 29c9 ef3b
00000100: de56 e6bd f85a 433c 19b3 c1bd 5a26 04be
00000110: 3c96 80bd 5452 dcbd 5703 ed3c 2269 133e
00000120: 2e04 edbc 963b 9f3c b854 8abd ee0a 08be
00000130: d45d 3a3d 9b7a 573c ac75 31bd f623 b8bc
00000140: 2ff0 dbbc cfb8 4fbd b7fa 843d d15a a6bd
00000150: f9ea 7abd abd3 0fbe 36cc 6ebd 0e12 70bd
00000160: 5dcd c6bd ae71 b2be ba89 5cbe f4f7 16bd
00000170: f815 96be fa87 8dbc a23e a9be 5d52 8c3d
00000180: e7b2 cb3d 7db3 b4be 6ccb 50be e245 41be
00000190: 16bc 41be 58e5 603d f709 2cbe 0aa7 dbbd
000001a0: 37ed 9ebd b463 71bd ca35 b5bd d1a7 033d
000001b0: 16b9 3f3d b7b3 723d 95b9 d23c 39af eabd
000001c0: baee 15bd 2a98 49be c0e7 c93c 722a 2abe
000001d0: d36c 2ebe 753f e5bd 9b7f 4dbd 505d 03bb
000001e0: a286 2dbd 9a6d 833d 0bc2 f4bd 6005 5b3e
000001f0: 8524 3cbe e28c 1b3e 1797 db3c d58a a13d
00000200: 04f2 503d 13cb af3d 204d e9bd c355 c8bd
00000210: 2875 39bd 7cbc 873d 1be3 a03b f591 b63d
00000220: 9df4 d7bd 654c d93d a2d8 b7bc 6572 c83d
00000230: 8fed 22bd f9f1 90bd a28f d6bd a21e fa3c
00000240: bb24 d43d a7ca a73d f133 0a3c 021a 683c
00000250: 6768 4d3d 96ac 64bd b16d fdbd dd39 e0bd
00000260: f5e1 983d 1410 9a3d 356f e7bc 5b8d 04be
00000270: d454 9abb df93 9a3d d9b4 983d 9a21 42bc
00000280: cfcb b13d 442f 11bd 0484 45bd ea55 843d
00000290: 8b2d 43bc cbbe e7bc 525c 9cbc f9a6 cb3b
000002a0: 0883 cb3d d184 acbc ef2a c0bd 7488 08bc
000002b0: 0d74 de3c 4bf3 bb3d 8380 23bd 3eff b5bd
000002c0: 41d7 09bd 3b2b 673d 668e 8ebc 1a68 93bd
000002d0: 252a 24bd 3ce3 ca3d ce2e b93d dc1d e03d
000002e0: 9329 61bd fe6b 903d 9f73 a43d 9e4e b1bc
000002f0: ff7e 61bd 7207 c9bd 82cf 1cbd cff3 c5bd

rnn.weight_ih_l1 f4 [192, 64]
-0.03116873 -0.058391146 0.015353837 -0.09624764 0.043969028 0.057747573 -0.048505403 -0.045947578
0.017090462 -0.1035001 -0.08500209 -0.11681963 -0.119553156 -0.009827371 -0.09557896 -0.015652958
0.104716696 0.08248986 0.024668021 0.070150696 0.04118071 0.12680826 -0.08889451 -0.05866872
-0.12728368 0.07843322 -0.050047312 0.07378667 -0.047280394 0.007779952 -0.10824823 0.0722575
-0.096663885 0.012685157 0.05851404 -0.08346346 -0.12895584 0.06338268 0.10127497 0.03602538
-0.06401619 0.07763841 -0.00885953 0.034447853 -0.09178549 -0.13492717 -0.070229806 0.02276808
0.049248192 -0.11124425 -0.09999138 -0.11735133 0.07368964 0.08322273 -0.086052775 -0.06146037
0.03170577 -0.120343946 -0.13296959 -0.103022814 -0.08753186 -0.007435517 -0.041216828 -0.01113366
0.11760532 -0.04207703 0.08875406 -0.06524756 -0.080818556 -0.112568185 -0.081901185 -0.06150925
-0.0569838 0.04871464 0.01045519 0.12744103 -0.052060504 0.065647654 0.10167868 0.08161804
0.061739065 -0.026593698 0.014241331 -0.017801283 -0.039840158 0.11673695 -0.072520815 -0.05591557
0.04086645 0.08245776 0.044446718 -0.08562774 0.060484786 -0.11291549 -0.111390926 -0.05054448
-0.042255916 0.1138845 0.073820226 0.12454323 0.055312984 0.041584756 -0.018758483 -0.07801948
0.021083552 -0.11149749 -0.10779929 0.024754304 0.022579929 0.10824659 0.07723517 -0.017193506
0.049197838 -0.109216645 0.09803744 -0.030823492 -0.034111723 -0.0019044821 -0.05991812 -0.12103014
0.10153536 0.109114945 -0.068498395 -0.09265189 -0.08940912 0.090383485 -0.09565385 0.10395943
0.024226706 -0.070765674 -0.003177452 -0.0070612417 0.22889416 -0.14065851 0.013194834 -0.053335994
0.1252861 -0.03931556 -0.045538742 -0.06127954 0.067401536 0.09168195 0.06590456 -0.09678636
-0.03217374 -0.050209075 0.11929739 0.09588474 -0.05557386 0.03303716 0.00944136 -0.18652734
0.066069074 0.12364265 0.100030825 -0.057641227 0.13685778 0.06840023 0.018771496 0.07195357
0.06377595 -0.061098687 -0.006765817 -0.086124346 0.09468485 0.093854465 -0.018478137 0.10246992
0.028693264 0.046838682 0.09056288 -0.072614715 -0.08970256 -0.13367382 -0.0030207762 -0.026630118
0.13360181 -0.08633643 0.015791558 -0.03686142 0.03416247 -0.15466888 0.057473976 -0.015198619
-0.16769837 -0.041688386 0.09539759 0.045426354 -0.09983434 0.012202928 0.052345186 0.23632373
0.032950167 -0.021636518 -0.041692723 -0.0912863 -0.051908173 -0.03258909 -0.09634651 0.07964868
-0.103055164 0.074478336 -0.04261003 0.08837259 0.10810899 0.0047933925 0.055238746 0.10617959
0.09374728 -0.07216415 -0.044526633 -0.0059504784 0.028372565 0.102495626 -0.097796135 0.038900055
-0.09023733 -0.003914181 -0.041857123 -0.06650942 0.08761201 -0.13409062 -0.026301665 0.05541226
-0.008705741 -0.02799392 0.023552984 0.0588155 0.08744291 0.10613335 -0.05797695 0.11055153
-0.047595955 -0.045454714 0.027467584 -0.07209822 0.049956013 0.11281701 -0.047754303 0.08558876
0.12092626 0.027847143 0.04148716 0.072599106 -0.0005881549 0.10917165 -0.042982023 0.0616161
0.118425936 0.06291688 0.062953845 -0.09392183 -0.017399164 0.066200875 -0.12706406 0.021480603
00000000: 9155 ffbc 8e2b 6fbd a98e 7b3c 7c1d c5bd
00000010: de18 343d b888 6c3d 9aad 46bd 8733 3cbd
00000020: 4c01 8c3c dcf7 d3bd 9315 aebd 213f efbd
00000030: 49d8 f4bd fb02 21bc e7be c3bd a23a 80bc
00000040: b575 d63d 72f0 a83d 9714 ca3c 2bab 8f3d
00000050: 1bad 283d 06da 013e 530e b6bd 9d4e 70bd
00000060: a756 02be 99a1 a03d 69fe 4cbd 771d 973d
00000070: 16a9 41bd f8ee fe3b 3fb1 ddbd bdfb 933d
00000080: b7f7 c5bd 68d5 4f3c 6bac 6f3d e4ee aabd
00000090: 000d 04be c7ce 813d 4069 cf3d 598f 133d
000000a0: ec1a 83bd e300 9f3d 9027 11bc 3119 0d3d
000000b0: 08fa bbbd 592a 0abe a5d4 8fbd 2084 ba3c
000000c0: 79b8 493d 06d4 e3bd 48c8 ccbd e555 f0bd
000000d0: 98ea 963d ae70 aa3d 703c b0bd debd 7bbd
000000e0: e9dd 013d e376 f6bd 2e29 08be a0fd d2bd
000000f0: e743 b3bd a3a5 f3bb fad2 28bd f469 36bc
00000100: 0fdb f03d f758 2cbd b0c4 b53d 83a0 85bd
00000110: 3384 a5bd 268a e6bd cfbb a7bd 20f1 7bbd
00000120: d867 69bd 0189 473d 3f4c 2b3c e77f 023e
00000130: 653d 55bd 4772 863d e93c d03d 5c27 a73d
00000140: 1ae2 7c3d 07db d9bc 7954 693c ffd3 91bc
00000150: 6f2f 23bd c813 ef3d cb85 94bd ba07 65bd
00000160: 9463 273d 9ddf a83d c30d 363d 995d afbd
00000170: e5be 773d 3d40 e7bd ed20 e4bd bb07 4fbd
00000180: 8a14 2dbd 473c e93d 0f2f 973d 8510 ff3d
00000190: de8f 623d c754 2a3d 64ab 99bc adc8 9fbd
000001a0: 6ab7 ac3c cc58 e4bd e0c5 dcbd 8ac9 ca3c
000001b0: 8bf9 b83c 63b0 dd3d 792d 9e3d 65d9 8cbc
000001c0: ac83 493d faac dfbd dac7 c83d 8c81 fcbc
000001d0: bcb8 0bbd d19f f9ba b46c 75bd a6de f7bd
000001e0: c5f1 cf3d a877 df3d e348 8cbd 46c0 bdbd
000001f0: 211c b7bd fa1a b93d 2ae6 c3bd aee8 d43d
00000200: 1677 c63c 98ed 90bd cc3c 50bb fd61 e7bb
00000210: 3b63 6a3e c908 10be 252f 583c d876 5abd
00000220: 004b 003e 5a09 21bd d586 3abd 4100 7bbd
00000230: d109 8a3d bfc3 bb3d f8f8 863d ed37 c6bd
00000240: 9dc8 03bd 08a8 4dbd 3152 f43d 385f c43d
00000250: 6aa1 63bd f951 073d efaf 1a3c 0601 3fbe
00000260: 394f 873d 5c38 fd3d f6dc cc3d 3519 6cbd
00000270: 7224 0c3e 6b15 8c3d aec6 993c 655c 933d
00000280: f79c 823d 9e42 7abd c9b3 ddbb f661 b0bd
00000290: 21ea c13d c536 c03d 765f 97bc c0db d13d
000002a0: 230e eb3c ebd9 3f3d 0879 b93d 06b7 94bd
000002b0: fab5 b7bd cae1 08be 37f8 45bb 6827 dabc
000002c0: eace 083e 27d1 b0bd 4c5d 813c 00fc 16bd
000002d0: f2ed 0b3d 8561 1ebe d569 6b3d a103 79bc
000002e0: 1fb9 2bbe 71c1 2abd d05f c33d fc10 3a3d
000002f0: f275 ccbd caee 473c e867 563d d9fe 713e
00000300: c1f6 063d 113f b1bc fdc5 2abd 50f4 babd
00000310: aa9d 54bd 237c 05bd 5251 c5bd d91e a33d
00000320: 960e d3bd 1988 983d db87 2ebd b0fc b43d
00000330: 3f68 dd3d e411 9d3b 0642 623d af74 d93d
00000340: 93fe bf3d ccca 93bd 8f61 36bd 3bfc c2bb
00000350: 956d e83c 3ae9 d13d 5749 c8bd aa55 1f3d
00000360: 59ce b8bd 8842 80bb 6072 2bbd 1736 88bd
00000370: ed6d b33d 0d4f 09be 9776 d7bc f7f7 623d
00000380: 86a2 0ebc 8153 e5bc 30f2 c03c 86e8 703d
00000390: 4515 b33d 715c d93d 3d79 6dbd d768 e23d
000003a0: faf3 42bd b92e 3abd b303 e13c 3ba8 93bd
000003b0: ad9e 4c3d 9b0c e73d 049a 43bd 2949 af3d
000003c0: 30a8 f73d b11f e43c 71ee 293d d7ae 943d
000003d0: 682e 1aba 6395 df3d eb0d 30bd 2a61 7c3d
000003e0: 4c89 f23d 91da 803d f2ed 803d 175a c0bd
000003f0: b188 8ebc 5394 873d 151d 02be 17f8 af3c

rnn.weight_hh_l1 f4 [192, 64]
-0.034249727 -0.12348494 -0.08823447 0.01084219 0.09871311 -0.06483483 0.050660484 0.05208605
-0.039274678 0.06234385 -0.058999293 0.101540856 -0.124841124 -0.023818754 0.029893233 0.13321708
-0.005164982 -0.05133021 -0.005107802 -0.011761664 0.07323132 -0.080713026 -0.005820357 -0.12285201
0.08984105 0.0059157386 0.012386864 0.009640992 -0.043068532 -0.1011906 0.006220196 -0.053892735
-0.105192155 0.086790934 0.099059746 0.062316548 0.07784232 0.13269942 0.029355638 -0.077482164
0.062099133 -0.029484136 0.066646844 0.027311962 -0.06580297 0.08298323 0.098399356 0.08682388
0.008343447 -0.055742703 0.054368563 0.0037622487 0.030025365 -0.02136548 -0.063889645 0.056774337
0.14291035 0.022119563 -0.09764072 -0.14003398 0.10070702 -0.13321745 0.08297931 -0.065605216
-0.07005454 0.073754065 0.05793395 0.048518017 0.00521081 -0.01835527 0.048011016 -0.047397766
0.10481831 0.07107809 0.09952059 0.1074758 -0.08944823 0.058778267 -0.020918593 0.113656804
-0.03669525 0.08048766 0.109544165 0.018403286 0.11549663 0.071233384 -0.05737169 -0.024768775
0.0315849 0.011822356 -0.003443626 0.070560746 0.11648902 -0.047612917 0.013696619 0.017895091
-0.08326394 -0.09933027 0.093992025 0.026579328 -0.0028783071 0.079439156 0.08583951 -0.034911063
0.10238944 0.00546874 -0.10396117 -0.03649946 0.10819728 0.016002933 -0.10713698 -0.02195994
-0.041030455 -0.09906443 -0.07711933 0.017043905 -0.06139464 -0.037380144 0.12451174 -0.08535331
-0.03561286 0.011146179 -0.05479938 0.08722379 -0.11251527 -0.04423666 0.15241317 -0.09915392
0.102891125 -0.04733266 0.14722243 -0.06779748 -0.018139688 0.060771983 -0.06775925 0.025111942
-0.028366001 0.05441761 -0.06006265 0.11297809 0.030425131 -0.010726508 -0.14320906 -0.101668805
0.054553866 0.008157437 0.1113361 -0.010981526 0.09161031 -0.0066909613 0.12239261 0.024134083
-0.028286777 0.06675023 0.03520527 0.09473324 -0.07544517 0.008950487 0.051952276 0.12674765
0.09255723 0.14444125 0.097702235 0.08199247 0.10675169 -0.05086191 0.020804707 -0.035394557
0.05915016 0.13259411 0.0074722823 0.033285886 8.6535314e-05 0.079968005 0.01724476 -0.061402425
0.060922876 0.08644814 0.058367305 0.111671634 -0.013405753 -0.094626404 0.08045771 0.1201754
-0.11238371 -0.07914596 -0.018011335 -0.052529257 0.04491056 -0.07147284 -0.063345835 0.14665835
-0.068218194 0.07578012 -0.036928352 -0.053658802 0.077799246 0.018418951 0.025202174 -0.047133237
-0.109303035 0.044913754 0.003944544 0.10615915 0.03303576 0.053847983 0.06666561 -0.090597555
0.0618302 0.06380784 -0.058350995 0.10505582 -0.07434857 0.12864994 -0.10807174 0.038896818
0.066957325 -0.0493487 -0.10168031 0.103671625 0.07261614 0.03279662 -0.05989233 -0.06631488
-0.0071058637 0.042701304 0.015881851 0.16015932 0.06321282 0.056699198 -0.011612747 -0.050543338
0.13859421 -0.024475059 -0.0014529917 0.0040282947 0.03409596 0.0628486 -0.06796556 0.06637757
-0.13884573 -0.06821765 0.14523593 -0.027144872 0.032034982 -0.012038978 0.065905325 -0.06747642
-0.17238794 -0.0843223 0.08374882 0.051373295 -0.06940172 -0.035557166 0.010387287 0.10744473
00000000: 7149 0cbd ace5 fcbd 46b4 b4bd 71a3 313c
00000010: 192a ca3d 20c8 84bd 5e81 4f3d 2f58 553d
00000020: 7cde 20bd 445c 7f3d 3ea9 71bd a7f4 cf3d
00000030: b4ac ffbd 8c1f c3bc a7e2 f43c 0f6a 083e
00000040: 023f a9bb a03f 52bd 595f a7bb ffb3 40bc
00000050: 4dfa 953d df4c a5bd b1b8 bebb d699 fbbd
00000060: 96fe b73d d0d8 c13b 46f2 4a3c 40f5 1d3c
00000070: a168 30bd 043d cfbd c9d2 cb3b a1be 5cbd
00000080: fc6e d7bd 72bf b13d d6df ca3d a33f 7f3d
00000090: cb6b 9f3d 5be2 073e 3c7b f03c f8ae 9ebd
000000a0: a95b 7e3d b788 f1bc 247e 883d 56bd df3c
000000b0: b5c3 86bd 1df3 a93d 9a85 c93d b8d0 b13d
000000c0: f4b2 083c 7652 64bd 92b1 5e3d 0f90 763b
000000d0: c1f7 f53c a906 afbc 93d8 82bd 358c 683d
000000e0: 1757 123e 1634 b53c dcf7 c7bd 1165 0fbe
000000f0: 7b3f ce3d 286a 08be 0ef1 a93d 075c 86bd
00000100: c178 8fbd 5f0c 973d 264c 6d3d d4ba 463d
00000110: 71bf aa3b cb5d 96bc 33a7 443d 2924 42bd
00000120: fbaa d63d 6491 913d 73d1 cb3d 461c dc3d
00000130: a230 b7bd 7bc1 703d 785d abbc e6c4 e83d
00000140: c24d 16bd b7d6 a43d b158 e03d 7dc2 963c
00000150: 7f89 ec3d cfe2 913d 94fe 6abd e3e7 cabc
00000160: 2b5f 013d 8eb2 413c 75ae 61bb 2782 903d
00000170: cc91 ee3d c305 43bd c967 603c ba98 923c
00000180: 4986 aabd ab6d cbbd e47e c03d e4bc d93c
00000190: fba1 3cbb ffb0 a23d a0cc af3d e7fe 0ebd
000001a0: 8eb1 d13d 1e33 b33b 98e9 d4bd 7580 15bd
000001b0: 8996 dd3d 9518 833c a26a dbbd 55e5 b3bc
000001c0: 8d0f 28bd 4be2 cabd bdf0 9dbd a99f 8b3c
000001d0: f278 7bbd ec1b 19bd 0300 ff3d b7cd aebd
000001e0: cade 11bd 779e 363c 5175 60bd 63a2 b23d
000001f0: 686e e6bd 8031 35bd 3312 1c3e 3611 cbbd
00000200: 95b8 d23d e4df 41bd 7ac1 163e 68d9 8abd
00000210: af99 94bc 0bec 783d 5dc5 8abd 8fb7 cd3c
00000220: d15f e8bc 00e5 5e3d 4104 76bd 0f61 e73d
00000230: 203e f93c 3cbe 2fbc 65a5 12be bc37 d0bd
00000240: e073 5f3d c5a6 053c 2e04 e43d dceb 33bc
00000250: 309e bb3d da3f dbbb faa8 fa3d d7b4 c53c
00000260: acb9 e7bc 58b4 883d 6733 103d 8003 c23d
00000270: ff82 9abd 10a5 123c e9cb 543d 23ca 013e
00000280: a58e bd3d 68e8 133e 1c18 c83d abeb a73d
00000290: a1a0 da3d 9454 50bd a26e aa3c e2f9 10bd
000002a0: 7047 723d c0c6 073e 0cda f43b c856 083d
000002b0: 4b7a b538 44c6 a33d e244 8d3c 1c81 7bbd
000002c0: 448a 793d b90b b13d 8e12 6f3d 19b4 e43d
000002d0: cea3 5bbc 7dcb c1bd 03c7 a43d 851e f63d
000002e0: 6e29 e6bd 4717 a2bd 828c 93bc eb28 57bd
000002f0: 23f4 373d 5a60 92bd 76bb 81bd 9b2d 163e
00000300: fbb5 8bbd 9c32 9b3d 2f42 17bd 55c9 5bbd
00000310: 3655 9f3d 57e3 963c ca74 ce3c c80e 41bd
00000320: 45da dfbd 7cf7 373d 3c41 813b f869 d93d
00000330: 8150 073d b48f 5c3d fb87 883d 368b b9bd
00000340: aa41 7d3d afad 823d 7401 6fbd 8127 d73d
00000350: 1044 98bd cfbc 033e b754 ddbd 4552 1f3d
00000360: ec20 893d dd21 4abd c43d d0bd ca51 d43d
00000370: c5b7 943d c055 063d a951 75bd 19d0 87bd
00000380: 4ed8 e8bb 90e7 2e3d a81a 823c ce00 243e
00000390: b975 813d 6b3d 683d 6443 3ebc 8806 4fbd
000003a0: a4eb 0d3e eb7f c8bc 5072 beba c9ff 833b
000003b0: 35a8 0b3d c4b6 803d 8731 8bbd f7f0 873d
000003c0: 932d 0ebe b2b5 8bbd bab8 143e ec5e debc
000003d0: 1d37 033d 223f 45bc 5ff9 863d 1431 8abd
000003e0: 7786 30be 2cb1 acbd 8084 ab3d ce6c 523d
000003f0: 7d22 8ebd 64a4 11bd 702f 2a3c fc0b dc3d

rnn.bias_ih_l1 f4 [192]
0.014785687 -0.019818723 -0.08258442 -0.065592974 -0.032022 -0.07418607 0.038581315 0.061467506
0.032941703 0.041375555 -0.12723449 -0.04554229 0.016356247 -0.06709061 0.07305165 -0.055611636
-0.046167154 0.051149998 0.0014930398 -0.08045601 0.015673405 0.10116846 0.1435614 -0.07836017
0.11147232 -0.037144847 0.109679885 0.059113164 0.11302192 -0.024734614 -0.06445605 0.055575076
0.07666172 -0.06029536 0.07582204 0.0896094 0.0016474745 0.041234307 0.06769666 -0.046512734
-0.042776417 -0.11768475 -0.036840096 0.0876438 -0.06333195 -0.09219315 0.05775232 0.06296918
-0.07818465 0.0851241 0.22727397 -0.07984929 0.09440987 -0.077281415 -0.026479315 0.059281737
-0.015603834 0.13039367 -0.09651954 -0.10099755 -0.13676861 -0.05546438 -0.021186398 0.015183958
-0.05122388 -0.11526866 0.29714346 0.0692125 0.06483709 0.14527646 -0.10872217 -0.042216204
-0.05136116 0.01624277 -0.10678735 -0.044587635 0.04633559 0.029468553 0.07484949 -0.18707079
-0.026938897 0.061875187 -0.054174304 -0.15236977 0.11486669 -0.058688156 -0.25921178 0.03702897
-0.33078912 -0.008184885 -0.14742021 0.029037666 -0.17529535 0.13758963 0.05318639 -0.04702048
0.017326957 -0.16871724 -0.09945484 -0.29070455 0.03114405 0.24583626 -0.102333 -0.21924618
0.014283248 0.0324825 -0.12366657 -0.25006977 -0.011792508 -0.106416985 -0.21465239 -0.16592267
-0.14561957 -0.26143092 -0.16786696 0.008605433 -0.25470078 0.0073889834 -0.2306423 -0.1034774
-0.15589976 -0.12446385 0.101422615 0.032993257 0.037534237 0.061369345 0.052952617 -0.12935354
0.11259207 0.056337737 -0.06283613 0.088427305 0.07570235 -0.05685051 -0.05624462 0.080564566
-0.035678975 0.04505926 0.051623516 0.032267626 -0.047526278 0.111935586 -0.057562362 -0.026320161
0.045581862 -0.10442161 0.0833345 0.0026620056 0.036097087 -0.08202177 0.110145725 -0.009354329
-0.07005589 -0.09362951 0.053281825 0.09391381 0.036822934 -0.0030922582 -0.039314505 0.08114897
0.09506125 -0.0050434656 -0.09047236 -0.028725596 -0.03404491 0.003530418 -0.062371224 0.107315734
-0.04441564 0.05965002 -0.02025284 -0.08499419 0.03274047 -0.069774926 0.07944561 0.0759228
0.031258717 0.09190195 -0.08083487 0.07278658 -0.10797424 -0.0100952415 -0.10812226 -0.001224651
0.012617551 0.07690993 0.06960884 0.057861533 0.081725314 0.084571145 -0.017575927 -0.011024961
00000000: ab3f 723c e05a a2bc 0522 a9bd 9c55 86bd
00000010: 8029 03bd deee 97bd 7107 1e3d 5ac5 7b3d
00000020: e1ed 063d 6a79 293d c249 02be 8d8a 3abd
00000030: 89fd 853c cd66 89bd 1a9c 953d 07c9 63bd
00000040: c519 3dbd a982 513d 1ab2 c33a 1fc6 a4bd
00000050: 8365 803c 6931 cf3d c201 133e 4c7b a0bd
00000060: 9a4b e43d 3225 18bd d99f e03d a520 723d
00000070: 0978 e73d 3fa0 cabc 8901 84bd b1a2 633d
00000080: d200 9d3d 44f8 76bd 9648 9b3d 2285 b73d
00000090: 12f0 d73a 4ee5 283d 8ca4 8a3d 2384 3ebd
000000a0: 5336 2fbd b404 f1bd a4e5 16bd 987e b33d
000000b0: 2eb4 81bd c3cf bcbd b28d 6c3d fcf5 803d
000000c0: 461f a0bd 8b55 ae3d 82ba 683e 0688 a3bd
000000d0: f659 c13d b845 9ebd 26eb d8bc 68d1 723d
000000e0: 39a7 7fbc eb85 053e 09ac c5bd ced7 cebd
000000f0: 120d 0cbe 9e2e 63bd 198f adbc 23c6 783c
00000100: 22d0 51bd fa11 ecbd 3023 983e 48bf 8d3d
00000110: 4fc9 843d 5ac3 143e bba9 debd e6ea 2cbd
00000120: 1460 52bd 8f0f 853c 53b3 dabd 86a1 36bd
00000130: 63ca 3d3d 0968 f13c b04a 993d 7c8f 3fbe
00000140: f6ae dcbc d670 7d3d e0e5 5dbd d206 1cbe
00000150: 3a3f eb3d fe62 70bd 68b7 84be b0ab 173d
00000160: 315d a9be e519 06bc 53f5 16be 66e0 ed3c
00000170: a080 33be 4ce4 0c3e f9d9 593d 8c98 40bd
00000180: 43f1 8d3c 36c4 2cbe fbae cbbd 3ad7 94be
00000190: cf21 ff3c 80bc 7b3e f793 d1bd 1282 60be
000001a0: 4904 6a3c 5f0c 053d e644 fdbd 2509 80be
000001b0: 5d35 41bc 26f1 d9bd d6cd 5bbe a2e7 29be
000001c0: 4c1d 15be 46da 85be 51e5 2bbe cdfd 0c3c
000001d0: 2468 82be 491f f23b 7f2d 6cbe f6eb d3bd
000001e0: 30a4 1fbe e7e6 febd a9b6 cf3d f023 073d
000001f0: 80bd 193d 6c5e 7b3d d8e4 583d 4175 04be
00000200: ac96 e63d 66c2 663d 3bb0 80bd 6019 b53d
00000210: d509 9b3d 15dc 68bd c260 66bd 09ff a43d
00000220: 1e24 12bd 0f90 383d 2e73 533d 0f2b 043d
00000230: eaaa 42bd 7c3e e53d 83c6 6bbd 619d d7bc
00000240: 0cb4 3a3d ffda d5bd 47ab aa3d 0b75 2e3b
00000250: 8ada 133d 08fb a7bd 1594 e13d e642 19bc
00000260: 7679 8fbd d4c0 bfbd 0b3e 5a3d e255 c03d
00000270: a5d3 163d 7ca7 4abb 3f08 21bd 6e31 a63d
00000280: 79af c23d a843 a5bb 9349 b9bd f151 ebbc
00000290: ad72 0bbd 965e 673b f878 7fbd 5ac8 db3d
000002a0: 2ded 35bd 9453 743d 49e9 a5bc 6f11 aebd
000002b0: df1a 063d 28e6 8ebd 61b4 a23d 6a7d 9b3d
000002c0: 2409 003d 1737 bc3d c18c a5bd 2111 953d
000002d0: 9921 ddbd 8366 25bc 346f ddbd 7884 a0ba
000002e0: d8b9 4e3c f482 9d3d 148f 8e3d 3700 6d3d
000002f0: 9a5f a73d a333 ad3d 64fb 8fbc 0aa2 34bc

rnn.bias_hh_l1 f4 [192]
-0.008838239 -0.060603704 -0.0897234 -0.0197151 0.10457884 -0.066640586 0.065652065 0.08421874
-0.0022783643 -0.13206899 0.08487465 0.018031092 -0.037261143 0.04569037 0.061903328 0.10596965
-0.044093642 -0.11790576 -0.097269624 -0.07668432 0.033249173 -0.08785116 0.03891596 0.057428766
-0.07621728 -0.11796715 -0.13530143 0.022553079 0.06368483 0.03391567 0.08146737 -0.09726603
0.09884477 0.012409121 0.118447125 0.0046722787 -0.048880745 -0.050694354 0.024059217 0.0060902564
0.07068826 0.011962186 0.10819943 -0.12285788 0.09929777 -0.031990256 0.035008274 -0.02071357
0.051340044 0.02870449 0.20069703 -0.096347034 0.0063179936 -0.022289172 0.11404537 -0.01953945
-0.06501523 -0.018714659 -0.13128293 0.044253923 -0.08687381 0.05985023 -0.0893105 -0.021140333
-0.10270142 -0.00023315065 0.30950606 0.09242883 0.21154135 -0.0061971205 0.03357466 -0.114541076
-0.11173492 0.033661366 -0.057836715 -0.10250165 0.01967861 0.037855584 0.26200268 -0.20130049
-0.023549333 -0.015671909 0.14904736 -0.019472845 0.11129321 -0.036166403 -0.23490724 0.15320107
-0.18192427 0.068440765 -0.13367255 -0.12133796 -0.10479036 0.019331161 -0.08807431 0.11589514
-0.16197847 -0.073949836 -0.19831835 -0.16681679 -0.014342993 0.19892702 -0.15283623 -0.21530154
-0.09285153 -0.011275973 -0.03645352 -0.27385506 0.15386462 0.11284219 -0.25285673 -0.05316112
-0.20481092 -0.29767776 -0.18275383 0.013627202 -0.27966523 -0.10752509 -0.07367635 0.010225767
-0.098621964 -0.03537308 0.01640693 -0.10265733 0.073339805 -0.039872363 0.1981523 -0.12179061
0.0095137665 0.088219084 0.08481038 0.096142404 -0.122504 -0.05128736 0.12861745 -0.019970141
-0.082264334 -0.06884568 -0.08738491 0.08765265 -0.0462354 0.10013456 -0.11354614 0.021302916
0.06478879 -0.07899824 -0.10309959 0.10795947 -0.119611174 0.11122848 -0.0041858237 0.119279474
0.082930416 0.1213404 0.07581671 0.015931303 0.05879952 -0.008674447 0.07159205 -0.040079545
-0.13216326 -0.074939355 0.042864762 0.032283302 -0.07591869 -0.037323304 0.0694874 -0.029628225
0.044421546 0.10912282 -0.011891885 0.101924 0.09920256 0.02418449 0.10587862 0.014152222
-0.016162487 0.09421403 0.088852264 -0.035011027 0.08416724 0.092844784 0.02879117 0.0731719
-0.10094198 0.02746253 -0.006883088 -0.078865014 -0.012839898 0.058370546 0.03337855 0.090801455
00000000: 43ce 10bc 973b 78bd e7c0 b7bd 9081 a1bc
00000010: 6e2d d63d dc7a 88bd 9774 863d e07a ac3d
00000020: 9c50 15bb 183d 07be c3d2 ad3d f1b5 933c
00000030: 249f 18bd d325 3b3d 588e 7d3d 9e06 d93d
00000040: 899b 34bd 9378 f1bd 4c35 c7bd ab0c 9dbd
00000050: 4930 083d 4feb b3bd 5766 1f3d 6d3a 6b3d
00000060: ce17 9cbd c398 f1bd 758c 0abe 3cc1 b83c
00000070: 316d 823d 28eb 0a3d 5dd8 a63d 6a33 c7bd
00000080: 206f ca3d a04f 4b3c 6894 f23d ea19 993b
00000090: 2d37 48bd e2a4 4fbd d617 c53c c690 c73b
000000a0: 02c5 903d 0bfd 433c aa97 dd3d ea9c fbbd
000000b0: a15c cb3d 3708 03bd d664 0f3d 81af a9bc
000000c0: f049 523d ae25 eb3c 8683 4d3e 9851 c5bd
000000d0: 2c07 cf3b c897 b6bc 9e90 e93d 3211 a0bc
000000e0: b426 85bd 7c4f 99bc 086f 06be 9a43 353d
000000f0: e5ea b1bd 8425 753d 6ce8 b6bd 7e2e adbc
00000100: 1f55 d2bd e779 74b9 9477 9e3e 544b bd3d
00000110: 4c9e 583e 3711 cbbb 9585 093d 8394 eabd
00000120: 47d5 e4bd 80e0 093d 31e6 6cbd 63ec d1bd
00000130: 0935 a13c 750e 1b3d 3725 863e b721 4ebe
00000140: 88ea c0bc 6062 80bc df9f 183e 8485 9fbc
00000150: b2ed e33d 3923 14bd 868b 70be bee0 1c3e
00000160: 5b4a 3abe ac2a 8c3d 75e1 08be 0980 f8bd
00000170: 549c d6bd 625c 9e3c 4e60 b4bd 6e5a ed3d
00000180: afdd 25be 0373 97bd f713 4bbe 05d2 2abe
00000190: dffe 6abc 86b3 4b3e 1a81 1cbe 0278 5cbe
000001a0: f128 bebd dcbe 38bc 4950 15bd bb36 8cbe
000001b0: b08e 1d3e ce19 e73d 7076 81be 79bf 59bd
000001c0: f4b9 51be 3869 98be d223 3bbe a144 5f3c
000001d0: 4830 8fbe 1d36 dcbd a0e3 96bd fa89 273c
000001e0: 50fa c9bd 5de3 10bd d367 863c 023e d2bd
000001f0: 2e33 963d 3451 23bd 70e8 4a3e 5b6d f9bd
00000200: a1df 1b3c 35ac b43d 11b1 ad3d 4fe6 c43d
00000210: 61e3 fabd b212 52bd 4bb4 033e 6c98 a3bc
00000220: 347a a8bd f7fe 8cbd dcf6 b2bd 3c83 b33d
00000230: 5561 3dbd 5913 cd3d e18a e8bd 7483 ae3c
00000240: fcaf 843d d4c9 a1bd e125 d3bd db19 dd3d
00000250: b4f6 f4bd c2cb e33d 3c29 89bb cc48 f43d
00000260: 6cd7 a93d 5181 f83d cb45 9b3d 5d82 823c
00000270: c4d7 703d 451f 0ebc da9e 923d 732a 24bd
00000280: ce55 07be ce79 99bd f692 2f3d 7f3b 043d
00000290: 427b 9bbd 52e0 18bd 694f 8e3d e4b6 f2bc
000002a0: 5ef3 353d c97b df3d 2ed6 42bc 88bd d03d
000002b0: b62a cb3d 8d1e c63c e4d6 d83d b9de 673c
000002c0: 3167 84bc 49f3 c03d 2df8 b53d b967 0fbd
000002d0: e05f ac3d 6825 be3d 76db eb3c 26db 953d
000002e0: abba cebd 1af9 e03c 878b e1bb fb83 a1bd
000002f0: 6f5e 52bc f415 6f3d f2b7 083d 1df6 b93d

fc.weight f4 [1, 64]
-0.035831027 -0.09128524 -0.056097243 -0.096045695 0.038720965 0.096433066 -0.026234495 0.0057396432
-0.09197899 -0.09529712 -0.08559966 -0.013958663 0.044780705 0.0867876 0.05443131 -0.115647584
0.06456698 0.05804971 -0.08944764 0.049967244 -0.062119342 0.10554359 -0.08513554 0.013594364
0.084803104 0.048410285 -0.031099016 0.09623428 -0.11844309 0.100699864 -0.053415507 -0.02830979
0.07680051 0.103885956 0.020169143 -0.011917395 -0.034468405 -0.034883905 -0.052812554 0.067880735
0.07232598 -0.05637503 -0.020790258 -0.09845899 0.02560965 0.10655665 -0.09509108 0.03415429
-0.098064594 0.1163341 0.06217015 -0.11901648 -0.062165227 -0.010222231 -0.037554875 0.029474389
-0.09693136 -0.03665331 0.028882287 0.08897337 0.043238543 0.066201985 0.056646172 0.023036519
00000000: 8ec3 12bd c2f3 babd 39c6 65bd 9bb3 c4bd
00000010: e099 1e3d b37e c53d b9e9 d6bc 9e13 bc3b
00000020: 7b5f bcbd 232b c3bd e04e afbd e0b2 64bc
00000030: f96b 373d b2bd b13d 5ef3 5e3d a4d8 ecbd
00000040: b13b 843d 88c5 6d3d 5330 b7bd 74aa 4c3d
00000050: da70 7ebd 3d27 d83d 8b5b aebd e5ba 5e3c
00000060: 40ad ad3d dd49 463d 5dc3 febc 7a16 c53d
00000070: 4a92 f2bd bb3b ce3d 38ca 5abd efe9 e7bc
00000080: 9649 9d3d 29c2 d43d c239 a53c 2d41 43bc
00000090: be2e 0dbd 6de2 0ebd fa51 58bd 0e05 8b3d
000000a0: a51f 943d 81e9 66bd 5550 aabc dea4 c9bd
000000b0: 54cb d13c 5f3a da3d 1dbf c2bd 5ee5 0b3d
000000c0: 17d6 c8bd 9340 ee3d 21a6 7e3d eabe f3bd
000000d0: f7a0 7ebd 257b 27bc 24d3 19bd 4674 f13c
000000e0: f383 c6bd c821 16bd 8c9a ec3c ac37 b63d
000000f0: e61a 313d e894 873d d105 683d 15b7 bc3c
