data/results/gru_regime_GOLD_r10d_r6_wNone.pt (torch, 167525 bytes, 9 tensors)

rnn.weight_ih_l0 f4 [192, 16]
000000 3a a1 8b bc a0 82 7f 37 05 8d d0 3b 16 a9 8a be
       -0.017044652 1.5229598e-05 0.006364467 -0.27082127
000010 c2 a6 75 3d 51 6a 92 3d 5b fc 90 3d 6a 6f 47 3e
       0.059973486 0.071491845 0.07079383 0.19476095
000020 42 5c 48 be 2b 9f 4c 3d 98 07 88 bd de d7 10 bc
       -0.19566444 0.049956482 -0.066420734 -0.008840529
000030 b2 1b 04 3e af 10 02 3c 71 19 96 3d 5b 58 e9 bd
       0.1290119 0.007938548 0.07329071 -0.113938056
000040 9c 6a 90 3d d8 31 12 3d 6a 33 bc 3d 16 6f a3 3e
       0.07051584 0.035692066 0.09189494 0.3192069
000050 c0 1d be 3c 73 dc 1b 3e 4c 31 8b bc ee a9 cf bd
       0.023207545 0.15220813 -0.01699128 -0.101398334
000060 93 ce 68 3e 4a 77 04 be 14 8d 6d 3c 25 fa 9a 3d
       0.22735052 -0.1293613 0.014498968 0.075672425
000070 23 6b 1b 3c 12 56 bb 3c 47 8a d1 3d d3 46 5d bd
       0.009485993 0.02286819 0.102314524 -0.05402262
000080 8a 88 2e 3d b7 7b 38 bd e0 d9 ef 3d fe 79 35 be
       0.042610683 -0.04503986 0.11711478 -0.17722318
000090 92 c2 00 bd 5e 24 a2 3b 76 2c 0f be e8 7a 69 3d
       -0.031435557 0.004948183 -0.13981804 0.05700198
0000a0 b3 6b 1d be ef 8b e5 3c 8e 15 1d 3b 34 62 bd bc
       -0.15373115 0.028020827 0.0023969146 -0.023118116
0000b0 45 e7 f9 3d 93 b8 02 bd 3b 35 6d 3d 80 ea 0e 3c
       0.12202314 -0.031914305 0.057912093 0.008722901
0000c0 5c 8f 35 3c 2b f5 4e 3d 71 d9 2c 3d a3 ee a5 bd
       0.011081543 0.05052678 0.042199556 -0.08102157
0000d0 cc 72 bd 3c 79 f7 17 be 50 76 0d bd 35 ce 1f bd
       0.023126028 -0.14840497 -0.03453666 -0.039015014
0000e0 1c 5c 94 be f8 9c 32 3d ff 27 02 3d 47 f5 a3 bd
       -0.28976524 0.04360673 0.031776424 -0.08005767
0000f0 c6 49 2d 3e df 40 fa bd a7 3d f7 bd cb 83 13 bd
       0.16922674 -0.122194044 -0.12072306 -0.03601436
000100 a5 3f a0 bc ef 6f 81 bd 76 34 b9 3d 38 40 8a be
       -0.019561598 -0.06320178 0.09043209 -0.2700212
000110 8a e0 c2 3d 29 e9 20 3e 2c eb 72 bd c8 73 a9 3d
       0.09515484 0.15713944 -0.05930631 0.08274037
000120 cd a6 ac 3e 4f 3b a4 bd fd a9 cf 3d 7c 1a 52 be
       0.3372101 -0.08019125 0.101398446 -0.20517915
000130 b0 0f 3a 3d b3 b6 62 3c 1c e2 27 3e eb 88 a5 3d
       0.045425117 0.013837504 0.16394848 0.08082756
000140 ea 8b db bc 8e e5 94 3c 18 78 86 3d 29 19 71 3e
       -0.026800115 0.018175866 0.06565875 0.23544754
000150 3f 9a 00 be a8 8f a5 3d f5 d1 73 bd 4d 05 d7 bd
       -0.1255884 0.08084041 -0.059526403 -0.10499058
000160 23 a0 b2 be e0 70 2f 3e 2c 2b 4a 3b 01 99 4d bc
       -0.348878 0.17132902 0.0030848486 -0.012548686
000170 cb c6 8e 3d f8 35 51 be 1e 63 40 bd 58 2b 6a 3c
       0.069715105 -0.20430744 -0.046969526 0.0142925605
000180 c1 83 ea 3c f5 28 c1 3b 7c e8 7a bc 99 99 00 3e
       0.028627278 0.005894775 -0.015314218 0.12558593
000190 9e 3c 3c be 10 ce a3 3c e8 7a eb 3d 2c 5e 44 bc
       -0.18382499 0.01999572 0.11498052 -0.011985343
0001a0 31 71 ea be 00 6c dc 3c 81 f4 1b be 33 19 99 3c
       -0.45789483 0.026906967 -0.1522999 0.018688774
0001b0 89 77 67 bc 53 8e 19 be 4c 5e 64 bd 87 33 42 3c
       -0.0141276205 -0.14995699 -0.05575399 0.011853105
0001c0 d2 a9 2f 3d 88 10 10 3d cd 30 5e be 27 e4 2d 3e
       0.042886563 0.035172015 -0.21698304 0.16981564
0001d0 0e e7 50 3d 81 b3 54 3e 83 78 0d 3e 06 7d 07 be
       0.0510016 0.207716 0.13815503 -0.13231286
0001e0 3a 60 a2 3d a5 0e 01 bd cd 33 44 3d 97 c8 9e 3c
       0.0792851 -0.031508107 0.047900964 0.019382758
0001f0 2b 72 47 be ec ac 50 3e 4c d3 d3 bd 28 c2 1c bc
       -0.19477145 0.20378464 -0.10343036 -0.009567775
000200 92 db aa 3d 34 52 35 be f9 ac 6e be ad fc 83 bc
       0.08342661 -0.17707139 -0.23308171 -0.016111696
000210 58 fd 37 3d ca 2c 3a 3e 5f f3 e5 3d 73 90 7a be
       0.04491934 0.18181148 0.1122806 -0.24469166
000220 0b 2a 16 3e 31 eb 39 3d fe 97 21 3c 8e 50 54 3c
       0.14664476 0.04539031 0.009862898 0.012958659
000230 da 97 0b be 4d d0 1c 3e 26 0d e0 bd f4 3e 6e 3d
       -0.13632146 0.15313835 -0.10940008 0.058165506
000240 96 fb b1 bd cd 83 85 3d 26 5d 25 3d 08 e4 38 3e
       -0.08690564 0.0651928 0.040372036 0.18055737
000250 1e 90 15 bc ae bf 21 3e 9c 78 b9 bd 7c ba 01 3e
       -0.0091285985 0.15795776 -0.090562075 0.12668794
000260 7b 8f ac be f9 90 90 bd 19 d3 9d bd f5 b8 16 bd
       -0.33703217 -0.07058901 -0.07706279 -0.036797483
000270 a7 19 0a be 69 d7 a7 3d ff 0a 82 be bd 2c a9 3d
       -0.13486348 0.08195383 -0.25399014 0.08260486
000280 3d 08 87 3d b8 a5 10 3d d5 91 dc 3d 90 03 17 3e
       0.06593368 0.03531429 0.10770003 0.14747453
000290 06 01 41 bc dd d2 e7 3d 6b 1a b0 bd 06 d4 b6 3d
       -0.011780029 0.11319516 -0.08598789 0.08927159
0002a0 a9 7f 33 3e c1 18 ef bd 37 56 11 bd c1 8e a9 3d
       0.17529167 -0.11674643 -0.03548261 0.08279181
0002b0 87 6f ee bd 86 60 29 3e 6c da c6 bd f7 7f b8 bd
       -0.11642366 0.16540727 -0.097096294 -0.09008782
0002c0 50 d9 00 3e ca 61 05 bd c5 19 63 be 11 8e 43 3e
       0.12582898 -0.032563962 -0.22177799 0.19097163
0002d0 14 ee 60 3e e7 6b 41 3e 8f dd 84 bb b2 d6 0e bc
       0.2196582 0.18888818 -0.004054732 -0.00871818
0002e0 bc fc a6 3e ef 22 52 3d 53 83 0f 3e 37 db 07 bd
       0.32614696 0.051302847 0.1401494 -0.033168044
0002f0 2e 24 30 be 1b f0 e9 3c f7 20 d7 3d cf 85 8d bd
       -0.17201301 0.028556874 0.105043344 -0.069102876
000300 25 ad 1d bc 44 8b df 3d 00 ff 74 3d aa 8d 58 b9
       -0.0096238 0.10915235 0.0598135 -0.00020652139
000310 6b 12 2b bd fb 58 37 3e 30 d5 a8 bc 17 c8 f6 bd
       -0.04176561 0.17905037 -0.020609468 -0.12049883
000320 73 38 f6 3e 35 6a 14 be 46 38 ee bb 55 26 8b 3d
       0.48089942 -0.1449364 -0.007269892 0.06794421
000330 f6 91 3e 3c a0 94 16 3e 29 61 11 3e f3 35 92 3c
       0.0116314795 0.14705133 0.1419722 0.01784799
000340 c2 cb 1e 3d 3f 53 41 bb 58 7c 13 be f0 2a 8f be
       0.038768537 -0.0029499081 -0.14402902 -0.27962446
000350 12 f0 9c 3e 5b 55 0a bc 60 c6 a5 3d 15 5d 2c bb
       0.3065191 -0.008443202 0.08094478 -0.0026300598
000360 4f e5 57 3e 9f ec 52 be 1c 42 3d 3d ea 5e a1 3d
       0.21083568 -0.20598076 0.046205625 0.078794315
000370 87 f3 55 3d ed 73 9d bd f2 c7 62 3e 6d b8 07 bd
       0.0522342 -0.07688127 0.22146586 -0.033134867
000380 80 cc 54 be 99 db a8 3c 2d 56 48 bd d5 fb 17 be
       -0.20781136 0.020612525 -0.04891031 -0.1484216
000390 cc 7e 03 3e 81 bd 35 be 55 97 18 be eb a9 8b 3c
       0.12841338 -0.17748071 -0.14901479 0.017048797
0003a0 96 0a 0b be fa 36 0e 3d 9c d6 9d bc bf e3 bd bd
       -0.13578257 0.0347204 -0.019267373 -0.09271955
0003b0 2e f0 39 3d 2d bf f1 bd 6f e8 5c 3e d9 52 90 bb
       0.04539507 -0.11804042 0.21573041 -0.0044044075
0003c0 4a 13 18 be c8 9d 6d bc 3d 68 53 3b dc 69 96 3d
       -0.14851108 -0.01450295 0.0032258176 0.0734441
0003d0 63 38 07 3d c3 e2 de bd 06 e7 1f 3d c5 d6 a3 3d
       0.03301276 -0.10883095 0.03903868 0.079999484
0003e0 ce 06 c6 3e 8b 8c 40 be 8b 57 a5 3a 18 49 a6 3d
       0.38677067 -0.18803613 0.0012614591 0.0811941
0003f0 f5 d2 73 bd 22 25 40 3e 6d 53 08 3e 2c fe 8a bc
       -0.059527356 0.18764165 0.13313074 -0.016966902

rnn.weight_hh_l0 f4 [192, 64]
000000 d6 60 5b bc b1 e3 cb bd 1c 3c 69 3d a0 27 fe 3c
       -0.013389787 -0.09955538 0.05694209 0.031024754
000010 d5 82 5e 3d 85 ba ac bc 3a 82 b8 bb 0a 0d 42 3d
       0.05432399 -0.021085033 -0.0056307586 0.047375716
000020 83 1a b5 bd ad c9 97 3c 27 a7 d1 3d 09 2f 35 3d
       -0.08842947 0.018528784 0.1023696 0.04423431
000030 c5 13 1d bc 76 37 a1 3b aa fc 69 bb 83 62 e2 3c
       -0.009587233 0.0049199415 -0.0035703578 0.027634865
000040 22 57 5a 3d c1 72 54 bd ff ea f1 3b b5 d3 a3 3d
       0.053305753 -0.05186725 0.00738275 0.07999364
000050 7b ad a1 3d 17 f6 fb 3c 8c a6 ae 3c f5 5b ca bd
       0.07894417 0.030756993 0.02131965 -0.09880821
000060 10 53 a6 bd fc ea 9f bd af 15 3a bc 98 fb 7d bd
       -0.08121312 -0.078084916 -0.011357709 -0.062007517
000070 62 f6 4e 3d 6a 2b 0a 3d 0c df 77 bd 06 5e 02 3e
       0.050527938 0.03373281 -0.06051545 0.1273118
000080 f4 b7 f4 bd ca 9f f8 bc 3b eb fe bc 00 fd 84 bd
       -0.11949149 -0.03034963 -0.031118026 -0.064935684
000090 2f 80 97 3d 46 c2 04 be 97 a2 75 3d c7 36 bc bd
       0.07397496 -0.12964734 0.05996951 -0.091901354
0000a0 60 77 35 3d 10 10 fc bc ef 1f ac bd 68 2b bc bd
       0.044303298 -0.030769378 -0.08404528 -0.091879666
0000b0 d2 4e b9 b8 4f bf b0 3d b1 5d 0c 3d 08 19 b7 3d
       -8.836169e-05 0.08630239 0.03426904 0.08940321
0000c0 c8 72 b5 3d 3c 95 dc 3d 9d 99 bd bd 03 8e 1a 3b
       0.088597834 0.10770652 -0.09257815 0.002358318
0000d0 da 6f c2 bc c7 93 38 bd b6 e8 b2 3d f4 07 05 be
       -0.023734976 -0.045062806 0.08735792 -0.12991315
0000e0 cf a2 0e bd 4a 91 03 3e 86 70 82 bd 3b 2a 3b 3d
       -0.034823235 0.12848392 -0.063691184 0.04569457
0000f0 aa d7 14 bd 77 9a ab 3d 2e e1 f1 bc a8 a5 b4 bd
       -0.036338486 0.08379071 -0.02952632 -0.08820659
000100 8e 12 d0 3c 13 5f 06 bd de 59 91 bd 0c 28 5c bd
       0.025399473 -0.032805514 -0.07097219 -0.05374913
000110 6b 12 d2 3c 46 13 30 3d 05 8b 37 bc d2 c5 cf 3d
       0.025643548 0.04298713 -0.011202578 0.10145153
000120 81 6d 15 3d f0 6b 18 3d 6c a4 d7 3d 94 ca 0e be
       0.036481384 0.037212312 0.10529408 -0.13944465
000130 ef 81 2d bd 09 0c 64 3d 68 8b df bd 57 4c 5b bd
       -0.042360242 0.05567554 -0.109152615 -0.0535396
000140 4e d6 9e bd 3f 60 e9 bd 0c d8 63 3a 82 3b 8c 3d
       -0.07755719 -0.113953106 0.0008691556 0.06847288
000150 f1 1e 87 bc 96 08 ec bd 4c 7f 72 bd 2b 7d f0 bd
       -0.016494246 -0.11525075 -0.05920343 -0.11742624
000160 38 f1 c0 bd 2b 77 c8 3d 96 2d ac bd 5c 94 96 3d
       -0.09421009 0.097883545 -0.08407132 0.07352516
000170 fe e4 65 3d 75 c0 92 bd 7c 54 de bc bc ae b1 3d
       0.056126587 -0.071656145 -0.027139895 0.08675906
000180 ba 2f b0 3c 76 ee 91 3d f5 f2 a7 3d c6 db de bc
       0.021507133 0.07125561 0.08200637 -0.027204406
000190 c6 a6 85 3d 5f f5 ad 3d c9 16 be 3d 0f 3b 6d 3d
       0.0652595 0.084940664 0.0928169 0.05791765
0001a0 18 3b 38 3d b4 b0 53 3d 57 78 48 bd 20 12 8e bd
       0.04497823 0.05168219 -0.04894289 -0.06937051
0001b0 4f 0d d3 bd fb 47 1c bd 5e f9 ae 3d 18 3c 29 bd
       -0.10305273 -0.038154583 0.08543657 -0.041317075
0001c0 41 9f 82 bd 2e e4 3a 3d 08 bc dc 3d e1 9d 94 3d
       -0.063780315 0.045627765 0.107780516 0.072566755
0001d0 6d a0 e6 bc 40 c2 c3 bc a6 28 5f bd fb 74 a6 bb
       -0.028152669 -0.023896337 -0.054482125 -0.005079863
0001e0 90 06 90 3c 60 45 bc bd 78 6d 1a bc 18 39 20 3d
       0.017581254 -0.0919292 -0.009425513 0.03911695
0001f0 c2 8c 43 bd 91 8d 76 bd 5b 57 0d bd e0 fd 59 3d
       -0.04774166 -0.060193602 -0.034507137 0.05322063
000200 68 88 80 3d 1f 93 99 3c 98 ba 30 3d 0e dd 83 bd
       0.062760174 0.01874691 0.0431467 -0.06438647
000210 2d 4a af bb c2 84 df bc 54 e5 37 3d 23 08 57 3d
       -0.0053494186 -0.027284984 0.04489644 0.052497994
000220 5c 98 84 bd d0 0a d4 bc f0 3f d4 bc 83 4c a4 3d
       -0.06474373 -0.025884062 -0.025909394 0.08022406
000230 98 0d a2 bd 56 1e 02 3d c8 43 9b 3d f2 1c fe 3c
       -0.07912749 0.03176721 0.075812876 0.031019662
000240 d0 27 8d 3d 7d 03 0b 3e 0e 57 a1 bd 30 4a 60 3d
       0.06892359 0.1357555 -0.078779325 0.05475825
000250 c2 13 79 bd 67 73 e3 3c aa fe 5f bd 17 a7 f3 bc
       -0.06080986 0.027764989 -0.054686226 -0.02974276
000260 82 cb df 3b 7a 9a b8 3d 7d 2f 0b bc 33 74 f2 bd
       0.00682968 0.09013839 -0.008495209 -0.118385695
000270 b6 62 e3 3c 85 bb 58 3c 19 6e 49 bd 8d c4 d0 bd
       0.02775703 0.013228302 -0.049177263 -0.10193739
000280 d6 1c ca bc 4f 2a 36 3d c2 94 cd 3c 4c a2 64 bd
       -0.024671953 0.044473942 0.025095347 -0.05581884
000290 58 51 00 be bd 7b 24 bd 54 e3 66 bd ef 3c 95 bd
       -0.1253103 -0.04015707 -0.05636914 -0.07287013
0002a0 d2 ce 23 bd 01 6a 04 be 1f be 36 bd af e0 03 be
       -0.03999216 -0.12931062 -0.044614907 -0.12878679
0002b0 8b 9e b1 bd 39 81 f8 3d 28 2e be bc eb 65 04 be
       -0.08672818 0.12134022 -0.023215368 -0.12929504
0002c0 9e 61 2e bd c4 a3 e8 bd c9 9c d9 3c 93 cd cd 3c
       -0.042573564 -0.11359361 0.026564019 0.02512244
0002d0 be 63 3d bd 2c 09 07 3d d9 27 d8 3d b2 81 ba bd
       -0.0462377 0.03296773 0.10554475 -0.09106769
0002e0 a0 3b bf bd 26 bb 74 bd 51 01 6a 3d ae 8b ab bd
       -0.093375444 -0.05974879 0.05713016 -0.08376251
0002f0 8c d8 97 bd be f2 b3 3d 0e d0 a2 3d e2 16 40 bd
       -0.0741435 0.08786534 0.079498395 -0.046896823
000300 82 f6 c7 3c fd 59 b1 bd fd be 8b 3c b9 3f 67 bd
       0.024409536 -0.08659742 0.017058844 -0.056457255
000310 3b d9 10 3d 05 3b 98 3b 37 bf fb bc ff 8b c2 bd
       0.035363417 0.0046457076 -0.030730827 -0.094993584
000320 57 6d f7 bd ff 2e 9b bd 70 cc ae bd 1b 26 ca bc
       -0.12081402 -0.07577323 -0.08535087 -0.024676373
000330 99 fc 42 bd 48 01 96 3d 3c 2a 86 3d 5f b5 7a bd
       -0.047604177 0.07324463 0.06551024 -0.061208125
000340 dd 5b 3b bd 84 13 53 bd 78 aa 55 3c ec 4a d4 bc
       -0.045741905 -0.051532283 0.013041131 -0.025914632
000350 48 bb 68 3d 91 16 8a 3d e8 a2 6b bd 4a 6c c0 bb
       0.05681923 0.067425855 -0.057528406 -0.005872284
000360 a5 28 e1 3d 0c 88 b2 bc 4a 21 b0 3d 96 8b cb bd
       0.109940805 -0.021793388 0.086000994 -0.09938733
000370 a5 90 ba bd 3e 88 ae 3d e9 a2 35 3d d0 3e bb 3d
       -0.0910962 0.0852208 0.044344816 0.0914284
000380 45 2a 2f bd e5 58 e8 bd 19 2a 35 3d d8 eb 25 bd
       -0.04276492 -0.1134508 0.0442296 -0.04050812
000390 44 37 46 bd ac a2 b0 bd a2 2b 01 bd 33 78 be 3d
       -0.04839255 -0.08624777 -0.031535752 0.0930027
0003a0 a8 5d 87 bd 84 4f b9 bd 6a 7d 74 3d d8 fa d2 bc
       -0.066096604 -0.090483695 0.059689917 -0.025754377
0003b0 5c f6 53 3d 43 b5 3f bd 78 b8 1a 3d b5 84 46 be
       0.05174862 -0.046803724 0.03777358 -0.19386561
0003c0 88 09 49 bd cf 26 db 3b 38 e0 2b bd 11 82 19 bd
       -0.049081355 0.006687976 -0.04196188 -0.037477557
0003d0 24 67 11 be a4 cb a6 3d 32 fd 9b bd 5b 3d 8b bd
       -0.14199501 0.0814431 -0.076166525 -0.06798812
0003e0 6a 60 c3 bd 06 fa 62 bd ea c1 e3 bd 6c 2f 18 bc
       -0.09539874 -0.055414222 -0.111209705 -0.00928865
0003f0 e8 39 3c bd 2a 4c 8f bd 95 8f 81 3c 14 4f 3f 3c
       -0.04595366 -0.06996949 0.015815536 0.011676569

rnn.bias_ih_l0 f4 [192]
000000 b2 24 2e 3d 04 c7 de bd 39 43 2a bc 00 00 e6 bd
       0.042515464 -0.10877803 -0.010392004 -0.11230469
000010 77 d8 0c 3d 7e 4d 24 bd 94 a7 9c bd e7 f7 e6 bd
       0.034386124 -0.040112965 -0.076491505 -0.11277752
000020 bf c9 cc 3d 88 cc c2 3d 45 91 76 3d d2 9f 9a 3d
       0.099994175 0.095116675 0.060197134 0.075500146
000030 48 09 49 bd ec 5b ee bc 6a 25 c6 bd 24 de 10 3d
       -0.049081117 -0.029096566 -0.09675105 0.0353681
000040 ae 17 e7 3d f8 6d 40 bd 0f 44 f9 bd aa bf e4 3c
       0.112838134 -0.046979874 -0.12171184 0.027923424
000050 f7 76 9b bd de 81 8c bd 3d d0 12 bd cb 5a 87 ba
       -0.0759105 -0.06860708 -0.035843123 -0.0010326741
000060 bb 76 b7 bd 1e 5d 03 be 17 73 eb 3c 65 f4 5a bd
       -0.08958193 -0.1282849 0.028741403 -0.05345573
000070 77 a6 bb 3c 48 4e e1 bd ae f6 37 bd 2e 12 86 bd
       0.022906525 -0.11001259 -0.044912986 -0.06546436
000080 e9 c8 3b 3d 51 43 02 be 62 07 0b bd 62 78 92 bd
       0.0458459 -0.12720992 -0.033942588 -0.071518674
000090 cb 24 94 3d 44 4c bb bc 4b 24 e4 3d 04 96 d3 bd
       0.0723358 -0.022863515 0.11139735 -0.103313476
0000a0 09 74 00 bc 84 b4 c4 bd ee 8e a6 bd 22 2a 99 bd
       -0.007840165 -0.09604743 -0.081327304 -0.07478739
0000b0 12 56 23 3d 58 d0 ea bd 62 b2 b1 bd 39 31 03 be
       0.039877005 -0.1146552 -0.08676602 -0.12811746
0000c0 a0 89 3e 3d 35 ab 98 bd 1e e2 dc bd a5 80 88 bd
       0.04651797 -0.0745453 -0.10785316 -0.06665162
0000d0 63 04 4d 3c ce 5d 6c 3d 1d f7 18 3d 79 17 4f bc
       0.012513253 0.057706647 0.03734504 -0.012639874
0000e0 83 4d 0e 3d a1 cd 97 bd f4 68 73 bd ec cc 90 bc
       0.03474189 -0.074122675 -0.059426263 -0.01767584
0000f0 d2 0c 3b 3d d8 07 1c bc 23 ff d6 3d 11 5e 4a bd
       0.045666523 -0.0095233545 0.10497882 -0.049406115
000100 5f 5e 14 bc f8 b7 95 bd 89 6f e6 3d 89 c3 95 bd
       -0.009055703 -0.0731048 0.112517424 -0.07312686
000110 be 9d d9 bd 22 ac 7b bc b9 83 ed 3c 2e 86 02 be
       -0.1062579 -0.015360864 0.028993474 -0.12746498
000120 ff 70 1b bd a7 de 1a be 72 1d ad 3d aa 5e a6 bd
       -0.03794956 -0.15123998 0.08452882 -0.081235245
000130 0d 18 ab bd 9f 5e bb bd ae 45 e0 3d 41 ff 20 be
       -0.08354197 -0.09148907 0.1095079 -0.15722372
000140 63 fb a6 3d d1 2a 97 bd 3d 84 2c bd 2e 8e 8b 3d
       0.08153417 -0.073812135 -0.0421183 0.06814228
000150 25 25 76 bc 11 bb ce bc ce 8b 55 3c 86 27 b2 be
       -0.015023504 -0.025235685 0.01303382 -0.3479578
000160 49 4c f1 3c 0e 57 5c 3c 3f 8a 2d be 69 fb 4d be
       0.02945532 0.01344849 -0.16947268 -0.20115437
000170 68 41 79 be 0a f0 fe b9 cd 6d 94 bd f8 fb 61 3d
       -0.24341357 -0.00048625498 -0.07247505 0.055171937
000180 c4 14 2e 3d 98 ad cb 3d a5 2b 2f 3d 2a 35 d2 3d
       0.042500272 0.0994522 0.042766232 0.102640465
000190 82 9f 9c bc 5a 03 23 be b2 9a 0a be ac 98 e3 bd
       -0.019119028 -0.15919247 -0.13535574 -0.11113104
0001a0 b3 d5 4a be 59 96 79 bd 48 16 7b bc d3 da c2 bd
       -0.19808082 -0.0609344 -0.0153251365 -0.09514394
0001b0 4e 8f 89 bd 97 18 85 bd 8d 88 57 3c 61 76 94 bd
       -0.06716786 -0.06498831 0.013155115 -0.072491415
0001c0 1b b3 65 bd cf 4b 67 bc 3c 50 84 3b 75 2b 75 be
       -0.05607901 -0.014117195 0.004037885 -0.23942359
0001d0 3d 37 62 be 95 bd 0b bd 45 65 ec bc 09 5f 6a bd
       -0.22091384 -0.034116346 -0.028856883 -0.05721954
0001e0 7d d4 1b 3e 09 db 73 bc db 56 37 3d 41 2c 52 be
       0.15217777 -0.014883765 0.044760566 -0.20524694
0001f0 6a 51 91 be 57 f8 93 bd 3c 2d 5f bd e6 f7 26 bd
       -0.28382427 -0.072251014 -0.0544865 -0.040763758
000200 f7 3a b9 bd b2 a7 99 3d 46 02 c6 3c ea 36 af 3c
       -0.0904445 0.075026885 0.024171006 0.02138849
000210 1f df 87 bc 3e 39 09 be 05 c4 27 bd b8 94 cf 3d
       -0.016585885 -0.13400742 -0.040958423 0.10135788
000220 8e ad 01 3d 5a d4 22 bd 10 7d 99 3c fb c2 8e 3d
       0.031659655 -0.039753295 0.018736392 0.06970783
000230 56 82 47 3d 80 95 a8 bd 47 26 4d 3d 46 0f ba bc
       0.048708282 -0.0823164 0.050085332 -0.022712361
000240 62 30 11 3c fb b6 50 3d db 8e 38 bd b9 2a 3d 3d
       0.008861633 0.050955754 -0.045058113 0.04618332
000250 9a 36 ea bc fa 74 c3 3d 98 39 f6 bd b1 b6 33 3b
       -0.02859049 0.09543796 -0.12022704 0.0027422125
000260 e1 b4 b2 3c 81 04 e6 3d 19 09 f8 3d c7 af 46 3d
       0.021814765 0.11231328 0.1211111 0.048507478
000270 7c a9 1a 3d e6 7f 28 bc be ff d7 3d 98 42 c2 bd
       0.03775929 -0.0102844 0.10546826 -0.09485358
000280 d2 35 f8 3c 25 f0 3c 3d ff ec a8 3d 57 ae e3 3c
       0.030299101 0.046127457 0.082483284 0.027793093
000290 e7 8e ac 3d 73 90 cc bd d9 95 ca 3d 85 ae d8 bd
       0.08425694 -0.09988489 0.098918624 -0.10580162
0002a0 98 9b 80 3d b6 95 91 3d 63 87 b5 bd fd 36 b5 bd
       0.06279677 0.07108633 -0.088637136 -0.08848379
0002b0 99 6c b5 bd a1 a4 8d 3c db 0d 33 3c 4c 61 4e bd
       -0.08858604 0.017290415 0.010928596 -0.05038576
0002c0 ed 9d f5 3c 33 f1 d9 bd 33 19 e0 3d 74 68 94 bd
       0.029982531 -0.10641708 0.10942306 -0.07246485
0002d0 df 45 8e 3d 16 2f 6f 3c 93 ac b5 bd 5d a0 94 3c
       0.069469206 0.0145986285 -0.088708065 0.018142873
0002e0 69 69 02 3c 90 b7 a5 3c 84 f3 a3 bd 5b 49 bf bd
       0.007959702 0.020229131 -0.08005431 -0.09340163
0002f0 24 d9 93 3d 13 2c b3 bd f1 30 d0 3b 8a 50 00 be
       0.07219151 -0.08748641 0.0063534905 -0.12530723

rnn.bias_hh_l0 f4 [192]
000000 31 e4 91 3d be 1c 26 3d 45 b7 e2 3d d4 81 e7 bd
       0.07123602 0.040554754 0.11070112 -0.113040596
000010 45 84 d9 3d da f4 97 ba fe 59 f9 3d c1 8f b2 3d
       0.106209315 -0.0011593357 0.12175368 0.08718825
000020 4b c0 cc 3d f1 41 81 bd db 2d a5 3d e5 38 6d 3c
       0.099976145 -0.063114055 0.08065387 0.014478897
000030 c4 be 1d 3d 5b 74 5e 3d 7b 99 41 3d 3b 5a ba bd
       0.038512006 0.054310184 0.04726551 -0.09099241
000040 fc 76 9e 3d a2 1c c9 bd 37 81 aa bd aa a7 c0 bc
       0.07737538 -0.098199144 -0.08325427 -0.023517448
000050 3c e0 91 bd c6 1f b0 3c 9c 04 85 bd 0e b7 51 3d
       -0.071228474 0.021499526 -0.0649502 0.051199965
000060 2b 91 a2 3d 5b 08 09 bc 4b 41 fd bd 86 c6 e3 ba
       0.07937845 -0.0083638085 -0.12365969 -0.001737789
000070 73 c4 0a 3e 8e 92 89 bc 7e 15 3e 3d fc 72 5b 3d
       0.13551502 -0.016793516 0.046407215 0.053576455
000080 71 df 2d 3d b6 7e 8b 3c 7e c4 f6 bd 77 f0 ea 3c
       0.04244942 0.017028194 -0.12049197 0.028679116
000090 d3 bf cf bd 85 3a 94 3d cf f0 b9 3d 94 ea 96 bc
       -0.101440094 0.07237724 0.09079134 -0.018422402
0000a0 47 4c 02 3d f0 ca ae 3d f6 d8 b7 bd fb e9 07 bd
       0.031811025 0.08534801 -0.08976929 -0.033182126
0000b0 7d 32 e9 bd 2c ae 90 3c 07 8a a8 3d 28 24 ca bd
       -0.11386583 0.017661177 0.082294516 -0.098701775
0000c0 3f e6 83 3d b7 2f b7 3c a4 7b 07 3d d9 31 9d 3d
       0.064404 0.02236162 0.033076897 0.07675523
0000d0 23 0b 8a bd e8 2f 7a bd 3b 95 96 bd ec 59 65 bd
       -0.067404054 -0.061080843 -0.07352682 -0.05599396
0000e0 4b da f3 3c 31 a9 d0 bd 09 dc fd bd 74 5a 7b bd
       0.029767176 -0.10188521 -0.12395484 -0.06136556
0000f0 c8 a1 a7 3d 86 3a cc 3d 9d 2d d5 3b 49 fc 1d bd
       0.08185154 0.099721 0.0065056817 -0.038570676
000100 05 1f 10 3d bc ba c1 3d ab 8f bd bc ab 36 ba 3d
       0.035185833 0.09459445 -0.023139795 0.09092458
000110 5b 77 bf bc 01 7e d8 bd a2 54 b8 3d 46 c8 f1 bd
       -0.023372343 -0.10570908 0.090005174 -0.11805777
000120 dc 6e 35 be 0c a9 62 bd 30 ff c4 bd 04 5f 9d bb
       -0.17718071 -0.055336997 -0.09618986 -0.0048025865
000130 d3 f7 95 bd ae c8 37 bd 88 96 d3 3c 08 7e 52 bc
       -0.07322659 -0.044869117 0.025828615 -0.012847431
000140 ca b5 8e bd cb 2a 57 3d 66 67 08 be de 87 dc 3d
       -0.06968267 0.052531045 -0.13320693 0.10768102
000150 d3 36 6d 3d d4 4a 63 3d f0 68 ea 3d e2 0f 58 be
       0.057913613 0.055491284 0.114457965 -0.21099809
000160 a2 fb 59 3d 8a 49 3c bc 74 0c 27 bd fc 1e 4b bd
       0.05321849 -0.011492142 -0.04078336 -0.049590096
000170 a9 f5 5b be 4b c9 dc 3d c7 4b ae 3c 3c 60 c7 3b
       -0.2148043 0.10780581 0.021276368 0.00608447
000180 3f 05 55 3d 84 ac 82 bd 8f fa 56 bd 81 ba 23 3c
       0.052006956 -0.06380561 -0.052485045 0.009993196
000190 72 f8 37 3d 90 37 87 bd 5b e6 4e be f8 c5 13 be
       0.04491467 -0.066023946 -0.20205061 -0.14430988
0001a0 b2 e3 77 be 35 b0 74 bd f7 fa dd 3d f3 f4 a7 bc
       -0.24207953 -0.059738357 0.10838883 -0.020502543
0001b0 ec 5c 1b bd bc 00 0b be 78 75 6f bd 85 fd 96 3c
       -0.037930414 -0.13574499 -0.058461636 0.018431434
0001c0 eb 9e 99 3d 23 00 17 3d 40 9c e5 3d d1 30 32 be
       0.07501014 0.036865365 0.11211443 -0.17401434
0001d0 7e aa 1e be 5e d4 38 bc 14 02 8a 3d 5d 25 21 bd
       -0.15494725 -0.011281101 0.067386776 -0.039342273
0001e0 1b 43 18 3e ae c7 03 3e 4c b3 d3 bd 90 c5 8e bd
       0.14869349 0.1286914 -0.103369325 -0.06971276
0001f0 35 92 e3 bd 17 70 2b bd 73 54 d1 bd b2 6a 5c bd
       -0.11111871 -0.041854944 -0.102211855 -0.05381269
000200 61 32 18 bd 20 5c 95 3a 50 29 9a 3d 86 f5 9d 3d
       -0.03715742 0.0011395253 0.07527411 0.077128455
000210 7d 12 62 bc e0 ef eb bd 6c 39 f2 bd 0e 5f 9d bd
       -0.013798353 -0.11520362 -0.118273586 -0.07684146
000220 1d 68 ee 3d 56 bf 64 3d fd d8 7c bd 9e 39 f3 3d
       0.11640952 0.055846535 -0.061730374 0.11876224
000230 34 45 ec 3c 36 7e eb bb 28 40 f0 3d 8b b5 ec 3d
       0.028841592 -0.0071866764 0.11730987 0.11558064
000240 3f f0 34 bd b1 24 16 bc be 9c 92 bd be 32 f2 3d
       -0.04417443 -0.009164021 -0.071588024 0.118260846
000250 a4 c2 93 3d f4 dc 07 bd 38 de c2 3a 10 1d b6 3d
       0.07214859 -0.0331697 0.0014867252 0.08892262
000260 f6 ef a6 bc 39 23 ca bd 1f 62 b4 3c 29 f1 74 bd
       -0.020378094 -0.098699994 0.022019444 -0.0598003
000270 b4 b5 1c bd 62 27 e9 3c 42 b2 8f bc 80 98 cd 3d
       -0.038259223 0.028461162 -0.017541055 0.10038853
000280 4c df 8d 3d 3f b5 28 bd 58 f9 93 3c 39 a0 ed 3d
       0.06927356 -0.041188475 0.018063232 0.11602826
000290 fc 79 c2 3c 47 10 5e 3d 06 d6 bb bd ae 0f d4 bc
       0.023739807 0.054214742 -0.09171681 -0.025886383
0002a0 a5 07 b4 3c 58 f0 c2 3d a7 d1 bd 3d 3a e7 2c 3d
       0.021976301 0.09518498 0.09268504 0.042212702
0002b0 34 31 fe 3d 5a 6e d6 bd a1 7f 83 bd 2a 7c e1 3c
       0.124117285 -0.10470267 -0.06420828 0.027525026
0002c0 ac 45 ca 3d 1a 4a ec 3c 00 cb 89 bd 86 05 8a 3c
       0.0987657 0.028843928 -0.06728172 0.016848337
0002d0 73 ab 4c bb 71 d1 3a 3c db 0b 9e 3d b1 01 0e 3d
       -0.0031230121 0.011402474 0.07717105 0.03466958
0002e0 fe 59 a0 3d aa bb b8 3d 51 bb 78 bc 4c ef 27 3d
       0.07829665 0.09020169 -0.015181378 0.040999696
0002f0 f8 e0 f1 bd 73 d7 f5 3d 51 9f d0 3d 66 26 00 3d
       -0.118104875 0.12003984 0.10186637 0.03128662

rnn.weight_ih_l1 f4 [192, 64]
000000 09 ee 9e bd ef 88 63 bd d8 d2 81 bd 91 c7 84 3d
       -0.07760245 -0.055550512 -0.063390434 0.06483377
000010 ea 01 81 bd 53 03 d8 3d c3 b7 0d bc 9c 50 b4 3d
       -0.06299193 0.10547509 -0.008649769 0.088044375
000020 5c 1a 05 3c 12 9d ba bc ff da df 3d 30 ce 9e 3d
       0.00812396 -0.022779975 0.10930442 0.07754171
000030 f3 69 a1 3d 73 1c d0 bd 17 ea e6 bd 5f 2f 00 3e
       0.07881536 -0.10161676 -0.11275118 0.1251807
000040 a4 aa 28 bd 00 64 fc bb cc aa bb bd 26 d8 cc bd
       -0.04117836 -0.0077023506 -0.09163436 -0.100021645
000050 9c f6 a4 bd 37 86 8c 3c 5f b8 21 bd 99 53 44 3c
       -0.080548495 0.017153842 -0.03948247 0.011982822
000060 45 cd f1 bc 68 3f 9a 3d 8d 44 eb bd 43 7b bc bd
       -0.029516825 0.07531625 -0.114876844 -0.09203198
000070 b9 6a b0 3c e1 c0 8a bd 30 27 71 bd 94 4a d4 3c
       0.021535264 -0.0677507 -0.058875263 0.025914468
000080 02 d1 ea 3d 14 f7 62 3d 3a 5d 10 bd 20 13 cf bd
       0.11465646 0.055411413 -0.035245158 -0.1011107
000090 29 68 6b 3b bf 33 1e 3d 84 2c 73 bc 67 c2 a5 3c
       0.0035920239 0.038623568 -0.014842156 0.0202343
0000a0 d8 50 ea 3c b4 3d e9 3d 95 4b 58 bd 80 e7 fe 3d
       0.028603002 0.11388722 -0.052806456 0.12446499
0000b0 34 16 ca bd 8c aa 25 3d e8 56 3e 3d 2c b6 3c bd
       -0.09867516 0.04044585 0.0464696 -0.04607217
0000c0 1d e2 f7 bd 77 be 8b bc 10 5a dc 3d c3 08 8b 3d
       -0.121036746 -0.017058594 0.107593656 0.067887805
0000d0 4b e3 8a bd 0f 52 7e 3d 6f fd a3 bc 00 a9 77 3d
       -0.06781634 0.062089976 -0.020018307 0.060463905
0000e0 e8 8c 5e bd 23 30 6e 3d aa a0 cf 3d cc 5b bb bd
       -0.054333597 0.058151376 0.10138066 -0.09148368
0000f0 09 f9 a1 bb ba eb dd 3b 30 1c 25 3c 02 f1 b9 bc
       -0.0049430174 0.0067724856 0.010077521 -0.02269793
000100 41 f8 84 bd b7 cf 2d 3d ee 88 48 bd b2 d0 8b 3d
       -0.06492663 0.04243442 -0.04895871 0.06826915
000110 ba 1c 27 bc e6 65 21 bd 8a e4 74 3d 1d f5 dc 3d
       -0.01019972 -0.03940382 0.059788264 0.10788939
000120 03 38 f0 3d c8 bc b0 bd 55 5f 34 3c 62 78 3a 3d
       0.117294334 -0.08629757 0.011009057 0.045524962
000130 53 a4 c5 bd 0d 27 b3 3b 2c 19 e7 bd 94 42 92 3d
       -0.09650483 0.0054673017 -0.11284098 0.07141605
000140 94 f1 9e 3d 7d 13 eb 3c 79 be af 3d 7f c8 ae 3d
       0.07760921 0.028695816 0.08581252 0.08534335
000150 14 25 f2 3c 6c 03 83 3d 26 fa 18 3c 71 c1 94 bb
       0.029558696 0.06397137 0.009336984 -0.0045396616
000160 e6 9d 76 bd 44 54 ed bc 19 a2 15 3c 14 35 28 3c
       -0.060209177 -0.028970845 0.009132885 0.010266561
000170 94 73 8e bc f8 d0 f0 bd f2 9b bf 3d 6d 5b 05 3c
       -0.017389096 -0.117586076 0.09355916 0.008139473
000180 1f cd 1d bd ee e5 0f 3d 21 f5 79 bd 57 cb f9 bd
       -0.038525697 0.035131387 -0.06102479 -0.12196987
000190 96 48 55 3d 1d 6d 8e bd 1d 9f d6 3d 92 8b 29 bd
       0.052071176 -0.069544055 0.10479567 -0.04139287
0001a0 44 bc c5 3d 6f 6d 52 3d 63 0a f7 bc a7 65 ac bd
       0.096550494 0.051373895 -0.03015632 -0.08417826
0001b0 7c 2f c0 3b fc a0 91 bd 4c b4 e4 bd f6 ac 10 3d
       0.0058650356 -0.071107835 -0.111672014 0.0353212
0001c0 ba c7 e9 3d 09 41 c4 bd 4b 5d 97 3c c1 5c 82 bd
       0.11415048 -0.09582717 0.018477103 -0.06365348
0001d0 6b 37 72 bc 6c 6d 23 bd d1 00 3d 3d 98 7d 97 bd
       -0.0147837205 -0.039899275 0.046143357 -0.07397002
0001e0 d1 11 bf 3d 45 72 90 3d 02 6b f3 3d 2f 3f f3 bd
       0.0932957 0.07053045 0.118856445 -0.11877286
0001f0 9d 08 a2 bd 61 e9 d1 3c 8f f7 f9 bd 65 f1 b9 3c
       -0.07911799 0.025623979 -0.12205421 0.022698114
000200 10 65 d0 bc 39 b0 b0 3d 58 2d db 3c 70 48 f8 3c
       -0.025438815 0.08627362 0.02675502 0.030307978
000210 3f 58 0e 3d 9d 5e 58 bd ae 3e 31 3d 46 ae db bd
       0.034752127 -0.052824605 0.043272667 -0.107265994
000220 2b 71 fb bd 1e fc 8a 3d 42 27 7b 3d c9 fe 62 bc
       -0.122774445 0.06786369 0.061316736 -0.013854691
000230 6e 45 72 bd 56 c9 8e bd e3 ff e4 3a 2e a0 35 bd
       -0.059148245 -0.069719955 0.001747128 -0.044342212
000240 98 14 a9 3d fb 83 9c bd 59 bb 00 be 8c 53 a4 bd
       0.08255881 -0.07642361 -0.12571467 -0.08023748
000250 73 7e a6 3d fc 38 aa bd 95 f1 c2 bd 5e 90 95 3d
       0.08129587 -0.0831165 -0.09518734 0.073029265
000260 15 de 8b bc ed 18 a1 bd 23 94 10 3d c3 0f be bd
       -0.01707367 -0.07866082 0.035297524 -0.0928035
000270 ff 02 5b 3d de 03 22 bc 21 a8 f8 bc bd 62 11 3c
       0.053469654 -0.009888617 -0.030353608 0.008873639
000280 6b 4b ae 3d df d0 ec bd 49 8a e7 3d 05 b6 8e 3d
       0.085104786 -0.115632765 0.11305673 0.06968311
000290 f5 c7 13 3d eb 47 cc 3d c9 b6 bc 3d b0 05 aa bd
       0.036079366 0.09974655 0.09214551 -0.08301866
0002a0 0b af e3 bd da ea 0c 3d 86 ac 8b 3d 3e f0 b3 bd
       -0.11117371 0.03440366 0.068200156 -0.08786057
0002b0 41 cc cf bd 43 07 c9 bd 39 a5 09 bd 1d 05 bd bd
       -0.1014638 -0.09815838 -0.033604834 -0.09229491
0002c0 76 2c 69 bd 1e 91 c3 bc c5 e0 de 3d e5 f4 d3 bd
       -0.056927167 -0.023872908 0.10882715 -0.10349444
0002d0 42 f6 eb bd c5 12 2e 3c 43 5a ce bd 9c 9d e3 3d
       -0.11521579 0.010624592 -0.1007581 0.11114046
0002e0 f8 f3 d0 3d 87 7e ee bc 1b c3 05 bc e8 f2 17 3c
       0.10202783 -0.029113067 -0.008164193 0.009274222
0002f0 34 7d dc bd 70 58 26 3d 8d d5 03 be 61 94 cc bd
       -0.10766068 0.040611684 -0.12874432 -0.099892385
000300 07 4d ab bd 3b b5 e0 3d b2 03 9a 3c 75 33 6a 3d
       -0.08364301 0.10972067 0.01880059 0.05717798
000310 05 c4 db bd dd ae 9d bd b2 1a 9b bd 87 68 ac 3d
       -0.10730747 -0.07699368 -0.07573451 0.084183745
000320 1e af c6 3d c1 58 9f 3d 2a e2 80 3c 95 8a b9 bd
       0.0970137 0.077806 0.015732843 -0.090596355
000330 63 22 fa bd 43 57 e9 bd 5f bd 03 3e f2 25 96 bd
       -0.1221359 -0.11393597 0.12865208 -0.07331456
000340 45 57 de bc 8c 6c a9 bb 7e fa 63 bd 39 c8 44 bc
       -0.027141223 -0.0051704105 -0.05565881 -0.012010627
000350 7d 19 15 3e 81 23 31 3d 77 03 ab bd 5a 7d b8 bc
       0.14560504 0.04324675 -0.0835027 -0.02252071
000360 3b b1 dd 3c fa 1b 30 3d a9 03 8e bc 9e 21 9f 3c
       0.02706205 0.04299543 -0.01733573 0.01942521
000370 09 82 7b bd 5f 4e 59 3d 5f 54 14 3e cd a5 02 bd
       -0.061403308 0.053053256 0.1448531 -0.0318964
000380 cc 82 b8 bd fa 28 bb bc 01 85 94 3a 4b 16 92 bc
       -0.090093225 -0.022846688 0.0011331142 -0.017832896
000390 06 04 c1 bd 27 68 d5 3d 77 00 1b 3e 06 38 a4 3d
       -0.094245955 0.10420256 0.15136896 0.08018498
0003a0 72 17 c3 3c d8 1e 87 bd ae fc ff bd cc e1 04 3e
       0.02381489 -0.0659768 -0.12499367 0.1297676
0003b0 d4 51 8e 3d a4 1e 1c 3d df e0 ef bd 2a 88 cb 3d
       0.06949201 0.03811516 -0.11712813 0.099380806
0003c0 50 7c 82 bd d4 49 fb 3d 6f 7a 07 3e 29 95 d7 3c
       -0.06371367 0.12269941 0.13230298 0.026316242
0003d0 4d 12 8d 3a 49 5d a1 3d f1 38 a6 bc 28 39 64 bc
       0.00107629 0.07879121 -0.020290824 -0.013929643
0003e0 1c 22 21 3e 17 c7 91 3c 62 c2 b5 bd 57 0b 0f bc
       0.15735668 0.017795129 -0.08874966 -0.008730731
0003f0 05 9b 08 bd f1 2a c6 bd 12 fe 45 bd 9f 42 68 bd
       -0.033350963 -0.09676159 -0.048338003 -0.05670416

rnn.weight_hh_l1 f4 [192, 64]
000000 63 a4 93 bd 6f 8d da bc a6 b3 9d 3d 07 b0 c6 bd
       -0.07209089 -0.026678769 0.07700281 -0.09701543
000010 f2 da 4f bd b9 41 b6 bd a0 34 97 3d fc cc 68 bc
       -0.050745912 -0.08899254 0.07383084 -0.014209028
000020 cc c8 01 be df b5 5c bd 17 2b db 3d f4 da 6c bd
       -0.12674254 -0.053884383 0.10701578 -0.057825997
000030 50 9c 4a 3d 90 87 a2 bd 69 b6 0e be 1e 4c 99 3c
       0.049465477 -0.07936013 -0.13936771 0.018713053
000040 c6 2a fc bd 8f 6b 63 3d ed 3f 45 3d 14 12 0f 3d
       -0.12312846 0.055522498 0.048156668 0.03492935
000050 51 21 fd 3d 0d 2d 21 bd 98 08 80 3d af ae d4 3d
       0.1235987 -0.039349604 0.06251639 0.10384881
000060 77 63 89 3d 05 8f 9d bd c9 4b 84 3d d1 7b fa bd
       0.067084245 -0.076932944 0.06459767 -0.12230647
000070 d7 78 a4 bd cf a2 73 bd 28 fd 95 3d 05 53 bf bc
       -0.08030861 -0.05948144 0.07323676 -0.023355016
000080 d5 56 e2 bd 70 d9 40 bd 9c d6 cb bd af 01 2d bc
       -0.11051718 -0.047082365 -0.09953043 -0.010559483
000090 9d f3 e5 3d b8 8e c3 bd aa 8a f4 bd de 35 22 bd
       0.11228106 -0.09548706 -0.119405106 -0.039602153
0000a0 47 76 f8 bb 77 48 0b 3d a6 42 05 39 b6 53 ab 39
       -0.007582459 0.034004655 0.00012708697 0.0003267803
0000b0 12 2a 79 bd a4 f9 09 bd 1a 7c 7b 3d bc 0e 5f bc
       -0.060831137 -0.03368534 0.06139765 -0.013614353
0000c0 3b a9 9e 3d b0 64 cb 3c a5 f3 df 3d b8 ac cf bd
       0.07747122 0.024828285 0.109351434 -0.10140365
0000d0 59 3d 8e bd e5 82 c2 bc 0a c2 16 bd 3d 24 a3 3b
       -0.06945295 -0.023744056 -0.036806144 0.004978685
0000e0 58 b6 0b be 3a 0d 12 bd 93 b3 ba 3d f3 ff b9 3d
       -0.13643777 -0.035657145 0.09116282 0.090820216
0000f0 34 a9 8e bc 5b 83 11 3d d2 82 80 bd e3 0e 83 bd
       -0.017414667 0.03552566 -0.06274952 -0.06399324
000100 46 0d b0 3d 15 ae 48 bd f1 78 71 3d e9 80 be bc
       0.08596282 -0.048994143 0.05895323 -0.023254829
000110 53 d2 ae bd 89 9e 84 3d 81 33 16 3d 06 a2 cf bd
       -0.0853621 0.06475551 0.03667021 -0.101383254
000120 0b b4 19 bc c5 6f 41 3b 30 f7 32 bd 9f 27 a1 bd
       -0.0093813045 0.0029516083 -0.043692768 -0.07868885
000130 44 90 49 bc b3 17 89 3d cd f2 b9 3b d3 c6 9f bb
       -0.012302462 0.066939734 0.005674696 -0.0048759966
000140 5a 6b 1a bd 31 66 d2 bd b5 e3 47 3d eb 52 b2 bd
       -0.037700035 -0.10273398 0.048801143 -0.087072216
000150 5a f9 65 bc bd 79 78 3d 4e c2 d5 bc 8a de f4 3d
       -0.014036501 0.060662974 -0.026093628 0.119565085
000160 5c 25 2e bd 48 d8 ee bd 3d 1c 01 be 79 d1 00 be
       -0.042516097 -0.11662346 -0.12608428 -0.12579907
000170 02 e4 d2 3d ea 67 7c 3d 31 6f 39 bd f8 08 ba 3d
       0.10297395 0.061622538 -0.045272056 0.09083742
000180 b7 53 21 bd 75 e8 bc 3d ac ab 0a 3e 32 52 83 3c
       -0.039386477 0.09224025 0.1354205 0.016030405
000190 53 d9 22 bc a2 87 2a 3d c0 51 a6 bd d7 16 0e 3d
       -0.009939509 0.041633256 -0.08121061 0.03468975
0001a0 3a 34 f5 bd 71 76 f2 3d 1d 70 33 3c 79 6b de bd
       -0.11972852 0.11838997 0.010952023 -0.108603425
0001b0 b1 93 de 3d 85 5c c4 bd b2 f9 1c bd 24 b4 7a 3d
       0.10868014 -0.09587959 -0.038324066 0.06120695
0001c0 c5 32 da bd cd 2a e1 3d 89 b4 7c bc 79 fe e8 3d
       -0.10654215 0.10994492 -0.015423902 0.11376662
0001d0 31 b5 aa bd 8e ba 0d 3b 24 1f e5 3d f1 da 66 bd
       -0.08335341 0.0021626088 0.1118758 -0.056361143
0001e0 4c dd 4b bc 37 a6 eb bd a6 c5 ac 3d 3a a6 2c 3d
       -0.012442898 -0.11506312 0.08436136 0.042150714
0001f0 96 b9 04 be 7a 91 98 3d 2d c1 c1 bd a9 6b 90 3b
       -0.1296142 0.074496225 -0.094606735 0.0044073653
000200 a5 d5 03 be ec 93 ad bd af fc a9 bd 74 09 f9 bd
       -0.12874468 -0.084754795 -0.08300149 -0.12160006
000210 c0 cb e3 bb 5c 00 e4 bd a9 ca 92 bd 92 b5 17 bd
       -0.006951779 -0.11132881 -0.071675606 -0.037038393
000220 02 9f 84 bd b6 cd 80 3d 23 bc b5 bd 67 18 93 3d
       -0.06475641 0.06289236 -0.08873775 0.07182389
000230 f4 16 ce 3c c1 62 84 3c b6 1c 34 3c 43 50 a2 3d
       0.02515743 0.01616037 0.010993173 0.07925465
000240 47 13 85 3d db 62 77 bd 82 09 c7 ba 9b d7 b6 bd
       0.064978175 -0.06039701 -0.0015185329 -0.08927842
000250 82 9b 4b 3b 52 f2 b6 bd 8d 68 7d 3b 0a bb bf 3d
       0.0031068032 -0.08932938 0.0038667053 0.09361847
000260 98 5d 69 bd 43 fe db bd d9 f8 27 3d 87 69 e2 3d
       -0.056974024 -0.10741856 0.041008804 0.11055284
000270 79 56 bb bc df 15 85 3d 2e 04 8a bd fb 69 ae bd
       -0.022868382 0.06498312 -0.067390785 -0.08516308
000280 3a c4 ed bd fe fd fe 3d ba 7a 60 bd 55 6e 5a 3d
       -0.11609693 0.12450789 -0.05480454 0.053327877
000290 28 76 ea 3d 8b 1d ae 3b 1d 8d 5b 3d ea c9 03 3e
       0.11448318 0.0053135804 0.053601373 0.12869993
0002a0 61 07 8a bd 93 cb 3d bd 43 92 dd 3d e5 88 00 be
       -0.06739689 -0.04633672 0.10818913 -0.12552221
0002b0 ce ba 04 be 43 fb fb bd 00 a0 ac 3d ab 33 b3 bd
       -0.12961885 -0.12303784 0.08428955 -0.08750089
0002c0 0d 25 fc 3c 0d a3 93 3d 10 c9 ab bd d1 30 ae 3d
       0.030779386 0.07208834 -0.08387959 0.08505405
0002d0 97 9b 8f bd a9 84 79 bd 83 af 9a 3d 8f d0 05 be
       -0.07012098 -0.06091753 0.075530075 -0.1306784
0002e0 ee bb de bd 40 33 0c be 0b 92 4e bd c0 20 01 3e
       -0.108756885 -0.13691425 -0.050432246 0.1261015
0002f0 b7 cf ca bd fe d6 88 bd 97 cc b6 3c e4 b7 9f 3c
       -0.099029 -0.066816315 0.022314353 0.019496866
000300 63 bb cc bc e3 18 0f 3d 7d dc 8d bd 51 23 cf bd
       -0.024991697 0.034935843 -0.069268204 -0.10114158
000310 bb c4 e0 bc f0 40 10 3d bf 89 54 bd cd f9 2d bd
       -0.027437558 0.03521818 -0.051889177 -0.042474557
000320 16 93 42 3d 19 60 34 bb be d9 93 3d e0 f0 da bd
       0.047503553 -0.00275231 0.072192654 -0.106904745
000330 6b 73 00 3d 52 f6 cc 3d c0 2a 96 bd 37 05 2a 3e
       0.03136007 0.10007919 -0.07332373 0.16603552
000340 ba ce 83 bd 0b f0 a0 bd 4a 69 0e 3d 73 4c 41 bd
       -0.06435914 -0.078582846 0.03476838 -0.04719205
000350 9e 7b a3 ba d3 ac 06 be 06 01 1d bd ea 54 26 3c
       -0.0012472754 -0.13151865 -0.038331054 0.010152081
000360 e5 df 5c bd 81 38 9a ba 3a 10 4f bd a0 ac 89 bd
       -0.05392446 -0.0011766107 -0.050552584 -0.06722379
000370 b7 17 9f bd cc a4 7a bd 3f 7a 0a be d7 06 1e 3d
       -0.07768195 -0.06119232 -0.13523196 0.03858074
000380 9b 07 59 bd fa 37 cb bd 20 dd 18 3d a6 bf d1 3d
       -0.05298577 -0.09922786 0.037320256 0.10241632
000390 d0 0e 03 be 83 5e 9b 3d e8 91 aa 3a 03 d5 8d 3d
       -0.1279862 0.07586386 0.0013013454 0.069253944
0003a0 cc 11 d2 3c b3 d3 c4 3d b5 88 50 bd 39 72 b6 bd
       0.025643252 0.09610691 -0.050911624 -0.08908505
0003b0 5b 86 da bc b2 47 03 bd 29 23 61 3d f4 cd 7f bd
       -0.026675394 -0.032050796 0.054965172 -0.06245227
0003c0 cd 81 bd 3d 02 63 60 bd 71 44 63 bc 62 99 b8 bd
       0.09253273 -0.05478192 -0.013871298 -0.090136304
0003d0 ba d0 0b bd 52 11 00 bc 8b 7f 27 3d c1 20 ae bc
       -0.034134604 -0.0078166295 0.04089312 -0.021255853
0003e0 09 4c 08 be d3 ae ff bd a8 72 b5 3d 0f 9d e5 bd
       -0.13310255 -0.12484517 0.088597596 -0.11211597
0003f0 68 ea e0 3d 76 5b 9f bd 75 05 26 bc 30 d2 4f 3c
       0.109822094 -0.07781117 -0.010133137 0.01268439

rnn.bias_ih_l1 f4 [192]
000000 57 a8 b2 bd da b4 99 3b 46 5d 8b bd 2d e6 80 3d
       -0.087235145 0.0046907486 -0.068049 0.062939025
000010 c1 72 b9 bd 1c 42 3b bc 64 10 e9 bd f5 19 6a bd
       -0.09055091 -0.011429336 -0.113800794 -0.05715366
000020 48 90 0e 3d 5f 05 04 bd 8f bc 91 3d ff e9 b2 3d
       0.034805566 -0.032231685 0.07116043 0.087360375
000030 00 ce c3 bd 6b d4 c5 bc 7b b6 a7 bc c3 72 c8 bd
       -0.09560776 -0.02414914 -0.020472756 -0.09787514
000040 f0 74 ee 3c f1 67 8b bd 90 96 ef 3d e2 89 79 bd
       0.029108495 -0.068069346 0.116986394 -0.06092251
000050 34 f9 b7 bd 07 9b 65 3d 3a c9 2b 3d 19 9b f2 3c
       -0.089830786 0.05605605 0.04193995 0.029614972
000060 b5 2a 03 bd 7a 93 81 bd 19 63 03 bd f6 6e ac bd
       -0.03202315 -0.06326957 -0.03207693 -0.084196016
000070 02 70 89 3c 9d 68 92 bd df 0d ee 3d c6 ef ce 3b
       0.016777042 -0.0714886 0.116237395 0.0063152043
000080 de 09 e7 bd 4b 34 8c 3c 66 0c d7 3d 10 5c 8d 3d
       -0.11281179 0.017114779 0.10500412 0.06902325
000090 28 b8 02 3e 4e 79 c0 3d c7 46 03 3d 4f 86 cc 3d
       0.12765563 0.09398137 0.03204992 0.09986555
0000a0 3d c1 ef 3d 9b 77 7a 3d f7 a6 ab 3d 22 3e ad 3d
       0.11706779 0.06114922 0.083814554 0.084591165
0000b0 c9 42 04 3c 77 de 84 bd 79 5e 27 3e 88 9d 4c 3d
       0.008072563 -0.06487744 0.16344632 0.04995492
0000c0 19 7a 92 bd 43 96 9f bd 03 99 b6 bc 21 16 8b bc
       -0.071521945 -0.07792332 -0.022289759 -0.016978325
0000d0 1d cf ef 3d b1 99 10 3c b0 9a 21 3d 05 9d ae 3c
       0.117094256 0.008825705 0.039454162 0.021315107
0000e0 31 fa a2 3d 1c 13 f2 3d b9 91 a7 3c df 4f da 3d
       0.079578765 0.11820051 0.020455228 0.106597655
0000f0 fb 36 4b bd ad 14 b9 3d 5b 0a ea 3d 72 58 db bc
       -0.04961298 0.09037147 0.114277564 -0.026775572
000100 34 25 6b bc 32 f0 9e 3d ec fc d5 3d 10 f3 6e 3d
       -0.014352132 0.07760657 0.10448632 0.05833727
000110 d8 44 a6 3c 7d 5e 81 bb b0 c8 64 bd af 85 ee bd
       0.0202965 -0.0039480315 -0.055855453 -0.11646592
000120 6b 79 4c be 95 b0 cd bc 28 b1 f4 bd 91 ff 94 bb
       -0.19968192 -0.025108615 -0.119478524 -0.0045470675
000130 5b 12 87 3d d7 a1 59 3d fa 66 f0 bd 72 32 95 be
       0.06595298 0.053132858 -0.11738391 -0.2914005
000140 b8 a7 0c be de 56 0a 3d d9 59 a0 bd 45 cd 77 bd
       -0.13735855 0.03377425 -0.07829637 -0.060498495
000150 46 a7 96 bd 2e aa 62 bd 6e c8 aa 3d 85 b7 90 3d
       -0.073561236 -0.055338077 0.0833901 0.070662536
000160 00 c6 08 bd a4 b8 ff bc ab 63 ad 3a 16 dd 01 bc
       -0.033391953 -0.031215973 0.0013228556 -0.007926246
000170 82 12 16 be 73 81 58 be df 8f 8a be 0a 36 11 bd
       -0.14655498 -0.21143131 -0.2706289 -0.035451926
000180 3c 51 88 bd 46 ea 76 bd 1e f0 3e 3c 5d c4 0b be
       -0.06656119 -0.060282014 0.011653928 -0.13649125
000190 07 7c 24 bd d2 0e d7 bd 71 73 49 3d 74 33 23 3e
       -0.040157344 -0.105008736 0.04918236 0.15937597
0001a0 0f ae a6 be 63 b1 f9 bc 3c 44 99 bb be a0 c9 bc
       -0.3255467 -0.030480092 -0.0046773236 -0.02461278
0001b0 6c c9 c1 bd 3d 1d 64 bd 37 2f af 3d 50 fc cd bb
       -0.09462246 -0.055691946 0.085539274 -0.0062861815
0001c0 60 b7 c0 3c df 6e 55 3d 93 99 eb bd 40 43 fa bd
       0.02352494 0.052107688 -0.11503901 -0.12219858
0001d0 68 6b 82 bd ee c1 fa 3b 0e 9f ae bd d2 de 9c bd
       -0.06368142 0.0076525128 -0.08526431 -0.07659687
0001e0 22 b0 b5 3d c4 1c c4 bd ca 6a 16 bc 1d aa 93 be
       0.08871485 -0.09575799 -0.009180734 -0.28840724
0001f0 9b 45 c0 bc 0c 85 dd 3c 48 22 3f be 1a a5 e7 bd
       -0.02347069 0.02704098 -0.18665421 -0.113107875
000200 e1 35 b6 bc 76 00 53 bd a0 aa bc bd 9b d8 b6 3d
       -0.022242488 -0.05151411 -0.09212232 0.08928033
000210 64 65 fe 3d a8 a1 77 bb a4 f8 55 3d 02 a9 37 3c
       0.124216825 -0.0037785564 0.052239075 0.011209728
000220 74 76 33 bd 8e 21 d4 3b d0 d9 02 3d c1 32 c7 3d
       -0.043814138 0.0064737266 0.031946003 0.097264774
000230 05 8e b8 3d 60 98 c7 bc 32 7e 0d 3d 06 30 c7 bd
       0.09011463 -0.02436465 0.034544177 -0.097259566
000240 3c dc 95 3c 64 02 1d 3d b5 ec e2 bd df 62 84 3d
       0.018293492 0.038332358 -0.110803045 0.06464171
000250 ee cd 79 bd 62 72 9e bd da 33 36 bd 22 e3 b4 3d
       -0.060987405 -0.077366605 -0.044483043 0.08832385
000260 24 b6 57 3d a2 99 a6 3d 61 e4 53 3d bb 32 e3 3d
       0.052663937 0.08134772 0.05173147 0.110936604
000270 2f cb a1 bb fe 16 bf 3d a9 d8 88 bd 32 99 85 3d
       -0.0049375514 0.09330557 -0.0668195 0.0652336
000280 c1 b2 b0 bd dd 59 f3 bd e3 e4 83 3d 59 28 b1 bd
       -0.086278446 -0.118823744 0.06440141 -0.08650274
000290 2b cf 90 bd a7 60 53 3b ae 1c 95 3d c2 79 32 3d
       -0.07070764 0.0032253654 0.07280861 0.04357315
0002a0 83 3e 06 3c 33 67 3c 3d 21 86 35 bb 17 28 94 3d
       0.008193615 0.045996856 -0.0027698355 0.07234209
0002b0 6b e9 d1 bc 77 32 32 bb 2d 8b 8f bd 17 83 d2 bc
       -0.025623998 -0.0027190724 -0.070089675 -0.025697274
0002c0 44 90 32 3d 9f 48 83 bd fd 8f c8 bd 67 83 4d 3d
       0.043594614 -0.06410336 -0.097930886 0.050174143
0002d0 8f 05 ea bd 83 84 fb 3d ab 25 a4 3c 2a 14 45 bd
       -0.114268415 0.12281134 0.020037493 -0.048114933
0002e0 b8 58 c6 3d 7d 84 b6 bb c1 77 64 3d fe eb 4e 3b
       0.096848905 -0.005569993 0.05577827 0.0031573768
0002f0 50 e9 6c bb 39 65 86 bd 01 1d dc bd 5f 21 ce bd
       -0.0036149807 -0.065622754 -0.107477196 -0.10064959

rnn.bias_hh_l1 f4 [192]
000000 27 58 f8 3d 2c 6e a8 3d 42 5c ec bd 0f 59 5a 3d
       0.12126189 0.082241386 -0.11541034 0.05330759
000010 36 cb 77 3d dd ca 0d bb bc b7 51 bd 71 d6 9f 3d
       0.06049653 -0.0021635809 -0.051200613 0.07804573
000020 01 d9 eb 3c 3e 98 d8 3d 9b 27 c1 bc 5d 8a 44 bd
       0.028789999 0.10575913 -0.023578456 -0.047983516
000030 16 6a 4c 3d 94 5e 97 3d a8 67 84 3d aa 8c 2a 3d
       0.04990586 0.07391086 0.06465083 0.041638054
000040 64 25 30 3d 67 51 2d 3d 11 35 82 3d b5 7d a9 3d
       0.04300441 0.04231396 0.06357778 0.0827593
000050 70 7c ba bd b4 38 74 3c ae 81 15 bd c6 62 1e bc
       -0.09105766 0.014906097 -0.036500625 -0.009667104
000060 9d 7a 6d bd 82 19 01 be b9 40 78 3d a4 e8 a6 bd
       -0.05797826 -0.12607387 0.0606086 -0.081498414
000070 ff 21 c0 bd 34 c4 32 3d 35 6e f2 ba 14 20 fb 3d
       -0.09381484 0.043644145 -0.0018495979 0.12261978
000080 a2 11 15 bd ca 75 e5 bd 7c 2e ce 3d 37 a1 01 bc
       -0.03639377 -0.11204107 0.1006746 -0.007911972
000090 d9 e8 11 bd ff 54 0d 3d ad f0 80 3b b7 9e 82 bb
       -0.03562245 0.034504887 0.003934941 -0.0039862054
0000a0 ed a2 da bd 80 b1 da 3d a3 43 b3 bd 68 07 65 3d
       -0.10675607 0.10678387 -0.08753135 0.055915266
0000b0 74 4b ba bd 39 5f df 3c 8a df a2 3d 69 83 9e bd
       -0.09096423 0.027267085 0.07952793 -0.07739908
0000c0 66 c2 a7 bc 82 0e c9 3d fc 0b 79 bc ba 96 cd bd
       -0.020478439 0.0981722 -0.015200611 -0.100385144
0000d0 77 1e b9 bd 28 8d f6 bc eb 72 8f bd f9 64 b3 bc
       -0.09039014 -0.030096605 -0.07004341 -0.021898733
0000e0 9b 53 b8 3d 5d ac 10 3e 6a 7a 33 ba ab fc bc 3d
       0.090003215 0.14128251 -0.0006846549 0.0922788
0000f0 31 68 bf 3d d1 7e e6 bd 4d fb eb 3d 75 25 ae bd
       0.09346045 -0.11254657 0.11522541 -0.08503238
000100 fc 75 01 bd d6 bf 5c 3d c5 8e 00 bd 13 68 32 3d
       -0.03160666 0.053893887 -0.031386156 0.043556284
000110 47 e0 15 3e a6 53 02 be e7 fc 20 be c0 74 a0 3b
       0.14636336 -0.12727222 -0.15721475 0.00489673
000120 f8 0f b5 3b 45 19 90 3c d0 a3 bf 3d 4b db 43 be
       0.0055255853 0.017590174 0.09357417 -0.19126622
000130 d4 00 7e bd f3 1f 7e 3d 4b c9 a3 3c 27 1c 2a be
       -0.06201251 0.062042188 0.019993445 -0.16612302
000140 8c ee 64 bc 61 d3 06 be 30 c2 78 be 0e 4e 34 be
       -0.01397289 -0.13166572 -0.24292827 -0.176079
000150 c5 0a b1 bb 81 9d a3 bd fc 25 72 3d e0 da 85 bd
       -0.005402895 -0.07989026 0.059118256 -0.06535888
000160 e4 d1 06 bd a1 6a a7 3d 67 79 f3 3d 08 1f 76 3d
       -0.03291501 0.08174635 0.1188839 0.060088187
000170 95 a1 e2 bd 4b ad 40 be 75 0b b2 be 35 03 64 3c
       -0.110659756 -0.18816106 -0.34774366 0.01391678
000180 bd c0 45 bd c8 05 ad bd d0 b3 3a 3c 5c b1 e8 bd
       -0.048279513 -0.08448368 0.01139541 -0.113619536
000190 e5 87 a0 bd 37 4b 21 be eb aa cb bd 18 25 09 3e
       -0.0783842 -0.15751348 -0.099447094 0.13393056
0001a0 19 43 9d be 29 15 40 bc 01 13 11 3d 04 9a 8f bd
       -0.30715254 -0.011723795 0.035418514 -0.07011798
0001b0 34 39 01 3d d7 49 43 3a f2 5f 82 3d 5c 4d e7 bc
       0.031548694 0.00074496627 0.06365956 -0.02823513
0001c0 cc 18 08 3e 9f 6d 1a bb d7 9c 1d bd be 39 10 be
       0.1329071 -0.0023563874 -0.038479652 -0.14084527
0001d0 05 a4 cc bd 1e 17 0a 3e cf 0e 48 be 18 e9 93 be
       -0.09992222 0.13485381 -0.19536899 -0.28888774
0001e0 88 37 30 3d 22 0a a8 bd fd da f7 bc a2 8e 9d be
       0.04302171 -0.08205058 -0.030255789 -0.30772883
0001f0 75 0e 63 bd 0a cd ce bd cd 3a a8 be 1e 90 b7 3d
       -0.05543371 -0.10097702 -0.3285736 0.08963035
000200 cd db f5 3d 08 c6 aa bb ab 02 23 bc 8e 77 62 3c
       0.12004814 -0.0052115954 -0.009949367 0.013822449
000210 10 1c 5e 3d 60 ee 67 3d ca db dc 3d 81 1d 17 3c
       0.05422598 0.056623816 0.10784109 0.009223343
000220 66 84 f0 bb 15 66 89 3c 71 75 41 3d 17 2a f9 39
       -0.007340002 0.01677231 0.04723114 0.0004752434
000230 ee b0 7e 3d 2e c3 e4 3c 42 ac de 3d 0c e3 89 3d
       0.062180452 0.0279251 0.10872699 0.06732759
000240 fe 8e 98 3b 18 cf a1 bd 13 e7 dd 3c 52 2e 7a bd
       0.004655718 -0.07900828 0.027087724 -0.06107933
000250 62 7c 5a bd 42 5c 70 3d aa d1 f4 3d 01 be a5 3d
       -0.053341277 0.058681734 0.11954053 0.08092881
000260 c4 bd 79 3c d2 78 7f bd f2 4b 5a bd fd 59 e3 3d
       0.015242998 -0.062371083 -0.053295083 0.11101148
000270 10 6e 8f bd bd cd c1 3d 8e a7 a1 3d 48 66 92 bc
       -0.07003415 0.094630696 0.07893287 -0.017871037
000280 7c ce e5 bd 57 93 b7 3c fb c0 ff 3d 6c 4f 37 bd
       -0.112210244 0.022409124 0.1248798 -0.044753477
000290 0d e3 64 3d 5f e6 c0 3d e6 ac c5 3d 9a 6b b1 bd
       0.055880595 0.0941894 0.096521184 -0.086631015
0002a0 78 3d 78 bd 68 3c 9d 3d c4 1e da 3d 8b 34 b2 3d
       -0.060605496 0.07677537 0.10650399 0.08701428
0002b0 b3 70 90 3c a7 89 b9 3d 6f df fe bc 43 02 d9 bd
       0.017631864 0.09059458 -0.0311124 -0.105961345
0002c0 e0 17 29 bc 9a 73 26 bd bd d8 dd 3d 45 ac 4f bd
       -0.010320634 -0.04063759 0.10832355 -0.0507014
0002d0 bd ac 30 bd 9c 33 80 bd bb a3 24 3d 23 86 74 3d
       -0.043133486 -0.06259844 0.040195208 0.059698235
0002e0 92 0b b3 3d a1 e8 a8 3d f8 cf 92 3c b8 f0 ac bd
       0.08742441 0.082474954 0.017921433 -0.08444351
0002f0 62 47 43 bd 7f 96 c8 bd 49 3f 38 bd 5b 92 d0 3c
       -0.047675498 -0.0979433 -0.04498223 0.025460413
