data/results/lstm_regime_GOLD_r10d_r6_wNone.pt (torch, 221877 bytes, 9 tensors)

rnn.weight_ih_l0 f4 [256, 16]
-0.043369453 -0.11735757 -0.21656515 0.18689077 -0.024947207 -0.06481875 0.049250267 -0.014033331
0.40673319 -0.20413806 0.04932519 -0.049892534 -0.08818371 0.030126428 0.015285618 0.06977537
0.057760015 0.0972986 0.08249351 -0.02818733 -0.14223884 0.021023758 0.04220608 0.012670923
0.13205847 -0.06853687 -0.05495462 0.009940967 0.07596109 0.04306039 0.11225619 0.06284193
-0.08332805 -0.04552934 0.058503423 -0.2213107 -0.036163703 -0.11056511 -0.056880467 -0.04161003
-0.45985353 0.29818702 -0.02398066 -0.05003122 -0.035288416 -0.5087096 0.07992381 0.1783746
0.07591896 0.09525504 0.094740264 0.118743725 -0.08597915 0.12737982 0.053059425 0.019232862
-0.12285194 0.19088233 -0.028770404 0.20717636 0.05125747 -0.11434458 0.028588349 -0.015545691
0.012141782 -0.041241743 -0.0539907 0.101223536 0.015959611 -0.06874084 0.01066573 -0.18594474
-0.13713905 0.10457533 -0.05948747 -0.059885874 0.0073562297 -0.19182454 -0.049818415 -0.016388705
-0.08681343 0.03847587 0.18004757 0.05001231 -0.21300119 0.036907695 -0.02799789 0.15884687
0.2571407 -0.021064073 -0.0044031786 0.12182639 0.22960314 -0.04886753 -0.06602076 0.07962081
-0.14349684 -0.09186431 0.09134369 -0.18017168 -0.03514727 -0.12385428 -0.016881255 0.12149503
-0.14703752 0.10170878 0.023847053 0.014266975 0.096481726 -0.20465086 0.07268525 -0.04330574
0.1245317 -0.09109586 -0.13669929 0.30332616 -0.2025634 -0.033661205 0.0014405022 0.014772172
0.21792333 -0.11340308 -0.099116474 -0.016747134 -0.107922345 0.21249221 -0.094488434 0.1519268
-0.048267998 -0.07274189 -0.043638717 0.22173867 0.028432468 0.1522824 0.14558616 -0.050288215
0.29307798 -0.0462123 0.12542203 -0.05256128 0.0031079247 0.055065095 -0.080602944 -0.10037686
0.12480386 0.040482428 -0.03056016 0.20623177 0.004773884 0.14296395 -0.07539756 0.08517403
0.14816906 0.01626674 -0.016680524 -0.05869423 0.104755014 0.09641811 0.045551524 -0.041365746
-0.023799531 0.10140715 0.0057727364 -0.35090446 -0.04548268 -0.012833128 0.1092753 0.0008777148
-0.153539 -0.015753644 -0.12606353 0.12207671 0.1252604 -0.08378597 -0.128421 0.102696806
0.084090814 -0.14379375 0.027952608 -0.14700532 0.12204268 0.05092277 -0.05414316 -0.0015810903
0.33243906 -0.120028175 0.06351778 -0.021658741 -0.14767611 0.045104682 0.11362886 -0.0455893
-0.0132772 -0.10423076 -0.03215756 0.009386881 0.04604833 0.06293414 -0.065318994 -0.05487138
-0.15323079 -0.120059945 -0.056463726 -0.037736095 0.19114608 -0.08399948 0.09044527 0.027750896
-0.014240659 -0.0997608 -0.14742878 -0.12878199 0.11337714 0.0016548599 -0.07789116 -0.0798307
-0.07001605 -0.011732906 -0.009978583 0.07538359 -0.056404416 -0.13366814 -0.16162004 -0.11951348
-0.19160666 0.04907569 -0.020141436 0.34946495 -0.12315488 0.043679535 -0.027188106 0.09696338
0.39327535 -0.045881603 -0.032544438 -0.11312409 0.027142331 0.06489588 -0.020264132 -0.07663955
0.031830244 -0.02334632 -0.060559813 0.43262935 -0.13130604 0.04481739 0.05764227 0.077419296
0.37298906 -0.067135975 0.09595893 -0.035140168 0.06792108 0.1591557 -0.128758 0.04644562
00000000: 2ba4 31bd 2a59 f0bd 41c3 5dbe 4b60 3f3e
00000010: 165e ccbc b1bf 84bd a6ba 493d 0eec 65bc
00000020: 553f d03e 9109 51be 3609 4a3d 1d5c 4cbd
00000030: a999 b4bd b3cb f63c 8770 7a3c 64e6 8e3d
00000040: c495 6c3d 7d44 c73d 5bf2 a83d 1ee9 e6bc
00000050: 0fa7 11be 043a ac3c 48e0 2c3d b499 4f3c
00000060: 563a 073e 0f5d 8cbd 1818 61bd 70df 223c
00000070: 7d91 9b3d 1760 303d 93e6 e53d 45b3 803d
00000080: e6a7 aabd f97c 3abd 49a1 6f3d 469f 62be
00000090: 6420 14bd f66f e2bd 7efb 68bd 476f 2abd
000000a0: ec71 ebbe f8ab 983e 1773 c4bc 89ed 4cbd
000000b0: 968a 10bd cb3a 02bf 18af a33d d5a7 363e
000000c0: 667b 9b3d 1315 c33d 2f07 c23d e92f f33d
000000d0: d615 b0bd db6f 023e d754 593d 3c8e 9d3c
000000e0: cc99 fbbd a876 433e e9af ebbc 0a26 543e
000000f0: 5af3 513d 7e2d eabd 1d32 ea3c 5bb3 7ebc
00000100: 53ee 463c 1aed 28bd 5a25 5dbd 494e cf3d
00000110: bbbd 823c ffc7 8cbd 50bf 2e3c 4c68 3ebe
00000120: 2e6e 0cbe 972b d63d 22a9 73bd e44a 75bd
00000130: 870c f13b a76d 44be 650e 4cbd 9b41 86bc
00000140: 3dcb b1bd e098 1d3d 645e 383e b5d9 4c3d
00000150: fc1c 5abe 862c 173d d55b e5bc c1a8 223e
00000160: f2a7 833e 908e acbc 8a48 90bb 1d80 f93d
00000170: 161d 6b3e 5229 48bd e435 87bd 3c10 a33d
00000180: d6f0 12be 5b23 bcbd 6712 bb3d ed7e 38be
00000190: 95f6 0fbd 50a7 fdbd 8f4a 8abc 63d2 f83d
000001a0: 0191 16be b14c d03d e55a c33c 08c0 693c
000001b0: 3698 c53d ff8f 51be 01dc 943d 5c61 31bd
000001c0: 7a0a ff3d 7790 babd e6fa 0bbe 914d 9b3e
000001d0: c86c 4fbe 55e0 09bd 3ccf bc3a fb06 723c
000001e0: 4b27 5f3e e03f e8bd 94fd cabd 4931 89bc
000001f0: 6406 ddbd 8f97 593e 2783 c1bd b392 1b3e
00000200: aab4 45bd b3f9 94bd 83be 32bd 760f 633e
00000210: 35eb e83c ebef 1b3e 8a14 153e 04fb 4dbd
00000220: 510e 963e 1c49 3dbd a26e 003e 7f4a 57bd
00000230: 53ae 4b3b f08b 613d 2813 a5bd 6292 cdbd
00000240: 2b99 ff3d e7d0 253d 4d59 fabc 6c2e 533e
00000250: 3e6e 9c3b 2465 123e 096a 9abd b96f ae3d
00000260: a1b9 173e d441 853c 98a5 88bc 5c69 70bd
00000270: cc89 d63d dc76 c53d 3c94 3a3d 216f 29bd
00000280: 3cf7 c2bc 8dae cf3d 3929 bd3b c0a9 b3be
00000290: 0c4c 3abd 0a42 52bc bacb df3d 7116 663a
000002a0: 5439 1dbe c90d 81bc cc16 01be 5b03 fa3d
000002b0: 4344 003e fb97 abbd cb80 03be b452 d23d
000002c0: ce37 ac3d ab3e 13be defc e43c 9088 16be
000002d0: 83f1 f93d 6594 503d 38c5 5dbd 963c cfba
000002e0: 7435 aa3e 55d1 f5bd 9c15 823d ac6d b1bc
000002f0: 6838 17be b0bf 383d 3fb6 e83d d9bb 3abd
00000300: 9d88 59bc f076 d5bd a5b7 03bd 6fcb 193c
00000310: 2c9d 3c3d 9de3 803d f7c5 85bd d0c0 60bd
00000320: 88e8 1cbe fde1 f5bd 8246 67bd 2a91 1abd
00000330: ccbb 433e eb07 acbd 5f3b b93d d955 e33c
00000340: a751 69bc 644f ccbd 92f7 16be 6ddf 03be
00000350: 4632 e83d e2e7 d83a 6785 9fbd 477e a3bd
00000360: 9364 8fbd 603b 40bc 367d 23bc b662 9a3d
00000370: 5108 67bd 4de0 08be b97f 25be 7cc3 f4bd
00000380: 8934 44be 9703 493d a7ff a4bc 12ed b23e
00000390: a038 fcbd 50e9 323d 97b9 debc bd94 c63d
000003a0: 635b c93e 59ee 3bbd 514d 05bd 9aad e7bd
000003b0: 9859 de3c 22e8 843d f700 a6bc 32f5 9cbd
000003c0: 6e60 023d c840 bfbc 910d 78bd 9881 dd3e
000003d0: 1775 06be 7192 373d 4d1a 6c3d 028e 9e3d
000003e0: 6cf8 be3e 967e 89bd 1e86 c43d 23ef 0fbd
000003f0: 351a 8b3d b6f9 223e 23d9 03be c33d 3e3d

rnn.weight_hh_l0 f4 [256, 64]
0.08656964 -0.019450566 -0.17619315 0.022415712 0.15139084 -0.10610854 -0.18996069 0.02379324
-0.08710452 -0.023695882 0.121470295 0.14364082 -0.10181591 0.17719729 -0.09561393 -0.049794592
0.04760681 -0.020823125 0.15862581 -0.17016596 -0.15961367 0.037316896 0.074841574 -0.015679335
-0.09000105 -0.13311714 0.16108614 0.022923872 -0.030729892 0.025970783 0.025700293 -0.025697129
-0.016649807 -0.049336154 -0.022595525 -0.036271602 0.017110324 0.05242919 -0.094631456 0.058665145
0.00743163 -0.17371234 0.058748897 -0.049526233 0.09180879 -0.06481547 -0.16035216 0.032939497
-0.007277681 -0.21031 0.01769211 -0.15054402 -0.20084983 -0.011792605 0.10056508 -0.088801034
-0.1065812 -0.008291748 0.022179356 0.028347919 0.1858007 0.100085475 -0.066165745 -0.29104814
-0.11597362 -0.17986849 0.042305358 -0.051950015 -0.021151256 -0.012903764 -0.09561388 0.14168124
-0.103075124 0.070052765 0.021618526 0.10681752 -0.104868405 0.0035279908 0.09462058 0.08131547
-0.084170185 -0.07405234 0.048957113 -0.0025202073 -0.06395737 0.01222453 -0.007801181 -0.26888365
0.07165958 -0.07826975 0.066651076 -0.048815574 0.09565027 0.040318243 0.10013626 -0.01173692
0.12954696 -0.13251431 -0.036969647 0.17668702 -0.044161603 0.007330927 -0.14658844 0.17037518
0.034334883 0.09257524 -0.03681944 0.050792146 -0.103620894 -0.14074609 0.03692362 0.07654299
0.028146347 0.06459816 0.05799653 -0.20223351 -0.12401437 0.034730244 0.06591628 -0.07240163
-0.07947759 -0.0028174748 -0.111570954 -0.03753195 -0.07480868 0.009510921 0.08403143 -0.08735646
-0.113599166 0.15415733 -0.025133116 0.0470401 0.13542858 0.009461785 -0.10730054 0.09245435
-0.18230173 -0.04343641 0.04356943 -0.036277242 -0.18189834 0.19338293 -0.055707816 0.019104017
0.14218952 -0.035229262 0.0044460534 -0.040429313 -0.089892626 -0.14058143 0.058697965 -0.12528414
-0.073759556 -0.2423292 0.16226587 0.03279202 -0.07144345 -0.22288346 -0.054753024 0.14933322
-0.01537807 -0.054548744 0.038829084 -0.0061049694 -0.037337493 -0.035481393 -0.014105407 0.018599058
-0.016167019 -0.19153154 0.22497848 0.025050499 0.10469186 -0.034103606 -0.16261837 0.12996392
-0.104624294 -0.1780118 0.13646625 0.25543633 -0.14351088 -0.19734372 0.05067608 -0.021235446
-0.10808817 0.06582063 0.029166635 -0.1430879 0.18091302 0.13711426 -0.12002148 0.07882371
-0.010294789 -0.14370832 -0.030783767 0.09102948 0.09585884 0.016965518 -0.10952518 0.060529478
-0.12611558 0.038866054 -0.007889443 -0.107287735 0.10919543 -0.08934316 0.06594228 0.11976126
-0.0019040471 -0.07256921 -0.00860455 0.10364857 0.052827843 0.06209187 -0.06981009 -0.1454338
-0.0054898174 0.10736839 -0.1416258 -0.07221513 0.06642225 -0.07823054 0.09729171 0.12164633
-0.039229188 -0.10831088 0.0031814473 -0.09615548 -0.010181509 0.054927506 -0.06286763 -0.05064826
0.045977645 0.069562875 0.1111608 0.09360916 0.03578501 -0.12613502 0.07658832 0.033369057
0.08109252 -0.13998072 0.13861787 -0.036695566 -0.028576897 0.034196105 -0.055155 0.11296457
-0.042559054 -0.061412062 -0.08539576 0.0069453963 -0.031273827 -0.019996736 -0.052537777 0.17995144
00000000: 6c4b b13d cb56 9fbc fa6b 34be 28a1 b73c
00000010: 3306 1b3e 6f4f d9bd 0e85 42be 0aea c23c
00000020: db63 b2bd de1d c2bc 6bc5 f83d 9416 133e
00000030: dc84 d0bd 3573 353e 3cd1 c3bd 6af5 4bbd
00000040: 5cff 423d 4295 aabc ce6e 223e fc3f 2ebe
00000050: c471 23be 9ad9 183d 8a46 993d f371 80bc
00000060: 7852 b8bd dc4f 08be c4f3 243e d8ca bb3c
00000070: 41bd fbbc aec0 d43c 6c89 d23c c982 d2bc
00000080: 2d65 88bc b514 4abd 401a b9bc 8891 14bd
00000090: f32a 8c3c febf 563d 23ce c1bd dd4a 703d
000000a0: 0885 f33b a6e1 31be afa2 703d 05dc 4abd
000000b0: 3f06 bc3d f9bd 84bd 5b33 24be 91eb 063d
000000c0: 9d79 eebb 815b 57be 0bef 903c 3628 1abe
000000d0: 94ab 4dbe c535 41bc 11f5 cd3d 51dd b5bd
000000e0: 3f47 dabd 1dda 07bc 7bb1 b53c e539 e83c
000000f0: 8a42 3e3e 9df9 cc3d e881 87bd 4304 95be
00000100: 9483 edbd 722f 38be 6248 2d3d 8ac9 54bd
00000110: 6645 adbc 4f6a 53bc 36d1 c3bd e314 113e
00000120: 0d19 d3bd d377 8f3d 5619 b13c 25c3 da3d
00000130: 3fc5 d6bd dd35 673b 6fc8 c13d ba88 a63d
00000140: 6b61 acbd c1a8 97bd 4187 483d 102a 25bb
00000150: 15fc 82bd 6549 483c 0da1 ffbb 1eab 89be
00000160: 42c2 923d e44b a0bd 5c80 883d d7f2 47bd
00000170: 4ae4 c33d be24 253d 3d14 cd3d 364c 40bc
00000180: f5a7 043e d5b1 07be 7c6d 17bd 71ed 343e
00000190: cce2 34bd 4638 f03b 481b 16be d576 2e3e
000001a0: bca2 0c3d 1698 bd3d fbcf 16bd 6d0b 503d
000001b0: 3137 d4bd be1f 10be 393d 173d 92c2 9c3d
000001c0: 2b93 e63c 0a4c 843d c58d 6d3d 4d16 4fbe
000001d0: 3ffb fdbd 4d41 0e3d 1dff 863d 4e47 94bd
000001e0: 26c5 a2bd 62a5 38bb 507f e4bd 1abb 19bd
000001f0: 4b35 99bd b2d3 1b3c ac18 ac3d f2e7 b2bd
00000200: aea6 e8bd 6bdb 1d3e f7e3 cdbc 1fad 403d
00000210: caad 0a3e 9a05 1b3c 63c0 dbbd b558 bd3d
00000220: 4ead 3abe 61ea 31bd dc75 323d 7297 14bd
00000230: 8f43 3abe 2d06 463e e12d 64bd 0780 9c3c
00000240: 219a 113e 8f4c 10bd 33b0 913b 3599 25bd
00000250: a019 b8bd 94f4 0fbe 476d 703d 7c4a 00be
00000260: 400f 97bd 2525 78be 0629 263e ed50 063d
00000270: f250 92bd 903b 64be b544 60bd cfea 183e
00000280: 4df4 7bbc 816e 5fbd 3f0b 1f3d 320c c8bb
00000290: 33ef 18bd f054 11bd 5d1a 67bc 0d5d 983c
000002a0: b270 84bc d820 44be c260 663e b436 cd3c
000002b0: b068 d63d 39b0 0bbd 6e85 26be 4315 053e
000002c0: 4345 d6bd ba48 36be cfbd 0b3e 8dc8 823e
000002d0: 84f4 12be 7914 4abe b991 4f3d f5f5 adbc
000002e0: 555d ddbd f7cc 863d deee ee3c a285 12be
000002f0: 4341 393e ae67 0c3e d2cd f5bd 536e a13d
00000300: 7aab 28bc 4628 13be 3d2e fcbc aa6d ba3d
00000310: a451 c43d 45fb 8a3c bd4e e0bd c2ed 773d
00000320: 7124 01be 0332 1f3d b942 01bc acb9 dbbd
00000330: dba1 df3d 8cf9 b6bd bf0c 873d 6445 f53d
00000340: 3891 f9ba 2a9f 94bd 19fa 0cbc b445 d43d
00000350: 0262 583d 0b54 7e3d 98f8 8ebd 99ec 14be
00000360: ede3 b3bb f5e3 db3d 5b06 11be 87e5 93bd
00000370: 6308 883d 5537 a0bd e040 c73d b621 f93d
00000380: c9ae 20bd 18d2 ddbd d47f 503b 2aed c4bd
00000390: 58d0 26bc aafb 603d bec0 80bd 8d74 4fbd
000003a0: 0e53 3c3d fb76 8e3d 46a8 e33d 29b6 bf3d
000003b0: 4d93 123d 8a29 01be 56da 9c3d fead 083d
000003c0: d613 a63d 1b57 0fbe d8f1 0d3e 174e 16bd
000003d0: 191a eabc 3711 0c3d 36ea 61bd f859 e73d
000003e0: 6752 2ebd 378b 7bbd f9e3 aebd 3596 e33b
000003f0: fc18 00bd 32d0 a3bc da31 57bd 3145 383e

rnn.bias_ih_l0 f4 [256]
-0.0064176237 0.01563775 0.23507755 0.019984597 -0.01926357 0.18477534 0.11657882 0.004014013
0.017244589 -0.11067982 -0.120532 -0.05472135 -0.023653757 -0.10388442 0.1158649 -0.06147106
0.1080316 0.0023755105 0.08469909 0.03415929 0.08913183 -0.109647445 -0.016400442 0.0067524244
-0.09763511 -0.010625128 0.020595448 -0.033722054 0.11294826 0.0932069 -0.052342393 0.03703878
-0.0423001 0.07456915 0.21651395 -0.0513132 0.035497595 0.13897642 0.16787711 0.0738811
0.108204745 -0.0018616859 0.12044309 -0.06789201 0.12360223 0.11612838 0.08367346 -0.0054349746
0.0010851003 0.040515725 -0.017379135 0.0023554892 -0.02308115 0.118624836 -0.086069725 0.011965515
0.11003655 -0.09421718 -0.10197331 0.046877503 0.09999096 0.07676761 -0.04422052 0.14167711
0.04430466 -0.017324245 -0.038762525 -0.10352457 0.014465385 -0.1659648 -0.109025516 -0.1001053
-0.042953458 0.075387605 -0.0698237 0.05142359 -0.03498197 -0.00915472 -0.05458347 -0.050741598
0.09573387 0.018604688 0.008422888 0.09514823 0.118248366 0.0017755664 -0.021441368 0.051192526
-0.08952569 0.04994334 0.08217578 -0.02084204 0.032634825 0.00023202394 -0.018795235 0.04899244
-0.00052553235 -0.087792136 0.108713605 -0.08852969 0.017946197 -0.109542996 -0.08553366 -0.015381495
-0.016777774 -0.060722273 -0.11407932 0.07365547 0.0073534953 -0.09408673 0.1311621 0.12795947
-0.10646527 0.113491446 0.033846498 -0.11603668 0.026148247 -0.042813588 -0.048995733 0.06329455
-0.08770947 -0.054473806 0.06391026 -0.08511145 -0.040298536 0.019029953 0.05842842 -0.13414629
-0.022617588 0.050826825 0.02948828 -0.061002873 0.046244413 0.042153057 -0.06278077 -0.09278439
0.016710963 -0.0060009556 -0.02737502 0.06546053 -0.0787617 0.02447598 -0.12439933 0.11252217
0.04742187 -0.07232388 -0.088543795 -0.06275145 0.092751704 -0.018790377 -0.1211426 0.05916584
-0.008934406 0.01380395 0.071065836 0.07757327 -0.13238363 0.03829039 -0.09854393 -0.106655456
0.058417022 0.139703 0.076364204 -0.02673157 -0.079566 0.11299024 0.023474487 -0.12119275
-0.08139874 -0.11343734 0.09441913 -0.011197779 -0.118831664 -0.06889193 0.046905473 0.05848315
-0.042589154 0.036669094 -0.03690688 0.09989177 0.05227768 0.06447816 -0.008157624 0.08267782
0.07876229 0.045681734 0.085059 0.07059055 0.101547666 -0.04006817 -0.060735457 0.11305953
0.105861664 0.047217827 0.17278011 -0.07614362 -0.11525722 0.2062241 -0.08054707 0.035860095
-0.12263657 -0.103057295 0.10652563 -0.07542258 0.019632721 0.054442506 0.057198457 0.008299458
-0.09045723 -0.08741829 0.075178534 0.100565575 -0.008162102 0.064383574 0.038519427 -0.054237094
0.02883893 -0.13349946 0.02923465 0.001494856 -0.07667138 0.08040309 0.085382976 0.041521188
0.09934647 0.11762816 0.18283136 0.004853956 0.038344465 0.3675752 0.2024162 0.078059204
-0.042610265 0.10775143 0.10214365 -0.059824355 -0.004220351 -0.0042494913 0.022680728 -0.09160881
-0.0022187734 0.087796964 -0.01163666 -0.029526627 0.01841794 -0.059977785 -0.10534418 -0.11124982
-0.097584546 -0.028440189 0.012190382 0.13426217 -0.112557136 -0.034382068 -0.03827889 0.09453162
00000000: ee4a d2bb bd1a 803c 2bb8 703e bdb6 a33c
00000010: a2ce 9dbc bf35 3d3e e0c0 ee3d fb87 833b
00000020: 8644 8d3c 1aac e2bd 7bd9 f6bd 7f23 60bd
00000030: 86c5 c1bc 5bc1 d4bd 944a ed3d 14c9 7bbd
00000040: ac3f dd3d 74ae 1b3b b776 ad3d 9dea 0b3d
00000050: c08a b63d d78e e0bd 385a 86bc 7143 dd3b
00000060: ebf4 c7bd 0415 2ebc c9b7 a83c 2320 0abd
00000070: 6b51 e73d 42e3 be3d fa64 56bd fab5 173d
00000080: df42 2dbd b6b7 983d d5b5 5d3e ca2d 52bd
00000090: ed65 113d d64f 0e3e fae7 2b3e f94e 973d
000000a0: 739a dd3d d003 f4ba deaa f63d f70a 8bbd
000000b0: 2a23 fd3d b7d4 ed3d fe5c ab3d df17 b2bb
000000c0: ed39 8e3a d1f3 253d b05e 8ebc 8d5e 1a3b
000000d0: ae14 bdbc 94f1 f23d 5345 b0bd 020b 443c
000000e0: d85a e13d f0f4 c0bd 62d7 d0bd a002 403d
000000f0: 0fc8 cc3d 5638 9d3d 9320 35bd ce13 113e
00000100: ce78 353d 93eb 8dbc 74c5 1ebd b104 d4bd
00000110: 3900 6d3c adf2 29be c548 dfbd 0204 cdbd
00000120: f7ef 2fbd d164 9a3d baff 8ebd 8ba1 523d
00000130: 4149 0fbd aefd 15bc eb92 5fbd 6cd6 4fbd
00000140: 1f10 c43d dc68 983c 2700 0a3c 13dd c23d
00000150: 332c f23d 1fba e83a cfa5 afbc 41af 513d
00000160: 3f59 b7bd 6391 4c3d c64b a83d edbc aabc
00000170: 18ac 053d 744b 7339 77f8 99bc 4cac 483d
00000180: e1c3 09ba 5dcc b3bd 3da5 de3d 0e4f b5bd
00000190: e703 933c 1458 e0bd 462c afbd aa02 7cbc
000001a0: 8b71 89bc ebb7 78bd 6ba2 e9bd aed8 963d
000001b0: 97f5 f03b 8bb0 c0bd 5c4f 063e cf07 033e
000001c0: 770a dabd 346e e83d a0a2 0a3d a4a4 edbd
000001d0: d934 d63c 4d5d 2fbd c0af 48bd 93a0 813d
000001e0: 06a1 b3bd ed1f 5fbd 62e3 823d e94e aebd
000001f0: 1410 25bd b4e4 9b3c a452 6f3d a55d 09be
00000200: 8548 b9bc ca2f 503d 6891 f13c 26de 79bd
00000210: c86a 3d3d afa8 2c3d 3493 80bd be05 bebd
00000220: 6ee5 883c aaa3 c4bb 9441 e0bc 2c10 863d
00000230: d04d a1bd da81 c83c 13c5 febd 0672 e63d
00000240: 6f3d 423d 8b1e 94bd 7356 b5bd d583 80bd
00000250: 9bf4 bd3d 47ee 99bc 9d19 f8bd e157 723d
00000260: 9d61 12bc f629 623c f78a 913d bcde 9e3d
00000270: 938f 07be 62d6 1c3d 66d1 c9bd 2d6e dabd
00000280: b046 6f3d 4e0e 0f3e d664 9c3d 2afc dabc
00000290: 80f3 a2bd 6d67 e73d 914d c03c e833 f8bd
000002a0: 62b4 a6bd d651 e8bd d15e c13d e476 37bc
000002b0: 045e f3bd 3617 8dbd f41f 403d 078c 6f3d
000002c0: f771 2ebd 5532 163d ab2b 17bd 0e94 cc3d
000002d0: 1f21 563d 200d 843d 8ea7 05bc fd52 a93d
000002e0: 204e a13d c51c 3b3d 6a33 ae3d c791 903d
000002f0: 39f8 cf3d 851e 24bd bec5 78bd c18b e73d
00000300: 00ce d83d 7b67 413d 45ed 303e 30f1 9bbd
00000310: fa0b ecbd 692c 533e ddf5 a4bd 09e2 123d
00000320: e228 fbbd b40f d3bd 1c2a da3d 2777 9abd
00000330: cdd4 a03c 1bff 5e3d ee48 6a3d 73fa 073c
00000340: a441 b9bd 5c08 b3bd 34f7 993d 53f5 cd3d
00000350: 56ba 05bc 89db 833d 8cc6 1d3d b727 5ebd
00000360: 9f3f ec3c 15b4 08be 817d ef3c 0bef c33a
00000370: e205 9dbd 60aa a43d 45dd ae3d 1f12 2a3d
00000380: 2976 cb3d 08e7 f03d 2538 3b3e ef0d 9f3b
00000390: 160f 1d3d d132 bc3e 3146 4f3e 81dd 9f3d
000003a0: 1a88 2ebd c8ac dc3d b130 d13d 620a 75bd
000003b0: df4a 8abb 513f 8bbb efcc b93c 669d bbbd
000003c0: d768 11bb e5ce b33d b1a7 3ebc d3e1 f1bc
000003d0: 38e1 963c 44ab 75bd b0be d7bd f2d6 e3bd
000003e0: 68da c7bd 66fb e8bc 2bba 473c 067c 093e
000003f0: 5b84 e6bd 36d4 0cbd 53ca 1cbd cb99 c13d

rnn.bias_hh_l0 f4 [256]
0.07506679 0.049029514 0.091994576 0.009992989 0.108393356 0.15742452 -0.028951224 -0.10188648
-0.097910434 -0.038996916 -0.02996701 0.0506184 0.08631908 0.035141326 0.10341419 0.017945345
-0.061520137 -0.007217184 -0.034383923 -0.05961841 0.084552124 0.047843557 -0.08193457 -0.064121194
0.08123215 -0.07077259 0.12537907 -0.1124668 0.081667446 -0.040079307 -0.09941436 -0.059556223
0.009419065 0.13044435 0.15146336 0.001343337 0.022971045 0.3760731 0.043983757 -0.014278566
-0.041626405 0.042368177 0.12101008 -0.0018297236 0.032538753 -0.123518035 -0.100283474 -0.012774968
-0.068321645 -0.04592849 0.064909354 0.12021046 -0.027341507 -0.091658235 -0.080279864 -0.027104182
-0.03891205 0.09520027 0.098759115 -0.095687725 0.016520659 0.07295337 -0.10281484 0.25001788
0.085730486 -0.09443419 -0.033450965 -0.026862102 0.092328936 -0.14794506 -0.04648283 0.13674495
0.0904195 0.048734013 0.060968686 -0.10322241 0.101427674 -0.09627986 0.08988944 -0.13071203
0.042293455 -0.120655686 -0.08188061 -0.13737182 0.09838096 -0.00052260776 -0.09751508 -0.050792787
-0.069090076 -0.033493634 -0.010490647 -0.13194135 -0.11385144 -0.038916543 -0.014528778 0.043392763
-0.040718503 -0.082866006 0.13379024 0.04948548 0.07965325 -0.022013973 -0.060604174 -0.110424556
0.10625581 -0.0762466 -0.079076014 -0.1355597 -0.010823379 0.0038913079 -0.02637803 0.12171158
0.05389762 0.02705119 -0.036731172 -0.092803866 0.04962076 0.118403494 -0.12047088 0.004812645
0.027593995 0.096636325 0.11094564 -0.086629145 0.024903858 0.04214659 -0.0711156 0.015867993
0.06902862 0.0694442 -0.006504066 0.044870283 -0.060175955 -0.037317697 0.08297464 0.08248341
0.03500654 0.10066086 -0.05100469 -0.0030690467 0.013284017 0.060700674 -0.124091774 -0.0005300101
0.013266665 0.05348363 -0.10768189 0.08539267 0.058476042 0.07126887 0.08789059 0.06538315
-0.10384422 -0.077352926 -0.062415887 0.012121675 -0.09474533 -0.036487736 -0.06722334 0.104842626
0.06877838 0.02090242 0.026534738 -0.09160794 -0.08067232 -0.081839524 -0.09870898 -0.061496075
0.006298879 -0.10227507 0.08300062 0.0625038 0.07911302 0.09896387 0.07211526 0.07283687
0.05685855 -0.03397323 -0.07950483 0.07401171 -0.06552483 -0.08002769 0.020286096 0.063614585
-0.046105772 0.06376269 -0.008033067 -0.09360724 0.026168354 0.07431527 0.02528714 -0.0021313538
0.20066136 0.14778458 0.16151594 -0.029081075 -0.056602288 0.07009844 0.005322205 -0.04491287
-0.03807406 -0.075187415 -0.0034472314 -0.00348215 -0.07501261 0.06797634 -0.035899684 -0.099386856
-0.10220531 -0.11186689 -0.055783167 0.10078152 -0.1235274 0.02910858 0.020437092 0.028560884
0.011601032 0.08500925 0.136208 0.004676265 -0.08507028 0.09176506 -0.017137399 0.002220117
0.020347085 -0.0038847406 0.13755442 0.04848134 0.059542753 0.21373133 0.24241087 0.13535923
0.045719944 -0.03419861 0.095654584 0.060419623 -0.071467645 -0.015222106 -0.01496155 -0.08501795
-0.06645432 0.052585475 0.027194299 -0.07312175 0.07878039 -0.080531865 -0.04006956 0.106760845
-0.092135474 -0.11411278 0.09615817 -0.05617919 0.011318655 -0.01250369 -0.097131714 0.22640269
00000000: 9ebc 993d 2cd3 483d a767 bc3d a2b9 233c
00000010: 56fd dd3d e533 213e 1e2b edbc dca9 d0bd
00000020: 4485 c8bd 3bbb 1fbd 607d f5bc 3d55 4f3d
00000030: 0fc8 b03d 5af0 0f3d d2ca d33d 1e02 933c
00000040: 8afc 7bbd 217e ecbb 28d6 0cbd 6f32 74bd
00000050: aa29 ad3d 9bf7 433d 50cd a7bd f951 83bd
00000060: 0b5d a63d 38f1 90bd 5f63 003e fe54 e6bd
00000070: 4341 a73d 332a 24bd c299 cbbd 3af1 73bd
00000080: 6c52 1a3c 3493 053e 3619 1b3e e912 b03a
00000090: c62d bc3c a78c c03e 5028 343d a6f0 69bc
000000a0: 7380 2abd 418a 2d3d 22d4 f73d 56d3 efba
000000b0: 5b47 053d 06f7 fcbd 6c61 cdbd 194e 51bc
000000c0: 38ec 8bbd 831f 3cbd 32ef 843d e730 f63d
000000d0: 4cfb dfbc 50b7 bbbd c569 a4bd 9709 debc
000000e0: 3e62 1fbd 5cf8 c23d 3842 ca3d edf7 c3bd
000000f0: 5556 873c 9468 953d 9690 d2bd 5802 803e
00000100: 7793 af3d b666 c1bd e103 09bd e90d dcbc
00000110: f416 bd3d e97e 17be c864 3ebd de06 0c3e
00000120: dc2d b93d 519d 473d 4dba 793d 4566 d3bd
00000130: 50b9 cf3d 602e c5bd f417 b83d 60d9 05be
00000140: e73b 2d3d 541a f7bd 05b1 a7bd 33ab 0cbe
00000150: f57b c93d 9dff 08ba fcb5 c7bd 190c 50bd
00000160: 197f 8dbd 9f30 09bd f6e0 2bbc a21b 07be
00000170: f22a e9bd f466 1fbd 1d0a 6ebc 9cbc 313d
00000180: 72c8 26bd a7b5 a9bd 4f00 093e 49b1 4a3d
00000190: 3e21 a33d a656 b4bc 153c 78bd 4526 e2bd
000001a0: a59c d93d 2d27 9cbd 9bf2 a1bd 29d0 0abe
000001b0: 8b54 31bc 5005 7f3b bd16 d8bc ec43 f93d
000001c0: c0c3 5c3d 759a dd3c 6d73 16bd f40f bebd
000001d0: 233f 4b3d 887d f23d 70b9 f6bd 64b3 9d3b
000001e0: cd0c e23c 44e9 c53d 7837 e33d 9f6a b1bd
000001f0: 2d03 cc3c e7a1 2c3d 0ea5 91bd 98fd 813c
00000200: e15e 8d3d c338 8e3d 0f20 d5bb e7c9 373d
00000210: 107b 76bd 71da 18bd 9cee a93d 10ed a83d
00000220: 0563 0f3d 4827 ce3d 4bea 50bd 0f22 49bb
00000230: 35a5 593c 45a1 783d d423 febd 60f0 0aba
00000240: 6d5c 593c a711 5b3d 5388 dcbd 5ae2 ae3d
00000250: 9384 6f3d 6af5 913d fbff b33d 9ae7 853d
00000260: 47ac d4bd 366b 9ebd cda7 7fbd fd99 463c
00000270: d709 c2bd 2a74 15bd 64ac 89bd bbb7 d63d
00000280: aedb 8c3d 8d3b ab3c 615f d93c f29c bbbd
00000290: 8837 a5bd 7b9b a7bd ef27 cabd 4fe3 7bbd
000002a0: d466 ce3b 9875 d1bd 3bfc a93d fe01 803d
000002b0: 0206 a23d 92ad ca3d 2ab1 933d 7f2b 953d
000002c0: 83e4 683d 8327 0bbd 6ed3 a2bd 7493 973d
000002d0: e231 86bd 8fe5 a3bd 072f a63c 5d48 823d
000002e0: 68d9 3cbd 0396 823d 209d 03bc 27b5 bfbd
000002f0: 045f d63c 9b32 983d fa26 cf3c 2fae 0bbb
00000300: 2c7a 4d3e d754 173e 6f64 253e 6f3b eebc
00000310: cdd7 67bd c58f 8f3d e465 ae3b 8ff6 37bd
00000320: 8cf3 1bbd dcfb 99bd f2ea 61bb c834 64bb
00000330: 36a0 99bd 2e37 8b3d 8c0b 13bd 568b cbbd
00000340: 0451 d1bd 781a e5bd e47c 64bd 8b66 ce3d
00000350: effb fcbd 1e75 ee3c b06b a73c 84f8 e93c
00000360: 4112 3e3c 5419 ae3d 1c7a 0b3e 5b3b 993b
00000370: 5439 aebd 52ef bb3d bb63 8cbc 627f 113b
00000380: eeae a63c 2297 7ebb 11db 0c3e 5f94 463d
00000390: 1ae3 733d 63dc 5a3e 8e3a 783e 9c9b 0a3e
000003a0: d644 3b3d d713 0cbd 8de6 c33d 917a 773d
000003b0: a15d 92bd 2466 79bc 4a21 75bc e41d aebd
000003c0: 3419 88bd de63 573d 94c6 de3c dbc0 95bd
000003d0: 9d57 a13d e4ed a4bd fb1f 24bd 6ea5 da3d
000003e0: 86b1 bcbd f6b3 e9bd 93ee c43d 261c 66bd
000003f0: e171 393c 47dc 4cbc feec c6bd 1bd6 673e

rnn.weight_ih_l1 f4 [256, 64]
0.12845986 0.014521018 -0.09901998 -0.08811382 0.013823024 0.0014243292 -0.06886504 -0.060904153
-0.044376787 0.09295586 -0.11763202 0.008166805 0.004191028 0.07263268 0.01833575 -0.06867015
-0.013551822 0.10733911 0.084800825 0.0137169305 0.101751566 -0.10744803 0.09890091 0.11898047
0.05228034 -0.0037394317 -0.08678803 -0.08700862 0.07197998 0.10354348 -0.08103812 0.033783164
0.07025795 -0.03437551 -0.111012444 0.05355953 -0.050715044 -0.07958765 0.1260129 0.021579415
-0.04786866 0.08113127 0.030855397 -0.08393987 -0.12372162 0.066002324 0.051103085 -0.032157853
-0.042897347 -0.09620318 -0.07722695 0.072296314 -0.048633385 -0.039437648 -0.028805293 0.0463198
-0.10378326 -0.018109519 -0.07605098 0.014394577 -0.10220758 -0.0020643359 0.06637422 0.12365656
0.12461948 -0.093678154 0.14069127 -0.086508214 -0.112713955 -0.010107262 0.11061438 0.012213459
0.007928816 0.0041693673 -0.03904322 -0.020782532 0.07091092 -0.045098096 -0.13959037 -0.121464394
0.10345609 0.051574346 -0.016528813 -0.11740243 -0.07797864 0.03292186 -0.04332812 0.11284871
-0.06350406 0.1023516 -0.028243983 -0.10675547 0.07561627 -0.056786306 -0.072768904 0.024105087
-0.025250213 -0.09808478 -0.120928355 0.06000496 0.120098114 0.048485048 0.037730496 0.06355753
0.040111784 -0.031243924 -0.0971647 0.11260145 -0.011064428 0.042246517 0.13891415 -0.0688036
-0.08385319 0.11617776 -0.05757133 0.06583337 -0.1123457 -0.027521683 -0.07027407 0.08054421
0.0347954 -0.11455113 0.056046706 0.02580762 0.03685174 0.11527371 0.07416541 0.056628924
0.06042299 0.0031791264 0.08178515 0.0735204 -0.05513926 -0.029658196 0.0049717966 0.1235806
-0.04092849 -0.111733444 -0.027654158 -0.047808494 -0.07730594 0.03934737 -0.109212525 -0.003595401
0.01323012 0.078745835 0.0045399126 0.07048085 0.02799314 -0.030754656 0.050956354 -0.034695495
0.10904176 -0.061037034 0.0468192 0.10092828 0.11728129 0.026780194 0.063837014 0.028161516
-0.023208098 -0.0026271518 -0.0023302175 0.12895748 -0.11192257 -0.08235089 0.04344718 0.03716234
0.09854929 -0.06072492 0.01021916 0.08418791 0.061106563 -0.082081236 0.041102387 0.035910107
0.016128452 0.015684314 -0.07152297 -0.04226485 0.019430818 -0.11801485 -0.0193536 -0.10621314
-0.09471873 0.11325309 -0.052477088 0.004981299 0.11084193 0.124557145 -0.07651077 -0.08992756
-0.1476411 0.10504276 0.040355187 0.0341399 0.038101584 0.015097317 -0.089793935 -0.13362728
0.13978346 0.12584138 -0.00032548027 0.06254152 -0.09872909 -0.04978409 0.06975544 -0.017952045
-0.049584925 0.0606329 -0.11148823 0.05042102 0.07126256 -0.07582971 -0.043397862 -0.0843451
-0.0022933749 -0.0745659 -0.047729876 -0.0072839125 0.01724088 0.138516 -0.0740908 0.07287758
0.052606896 -0.012593494 -0.10685375 -0.012659105 0.049166955 0.016555317 -0.1518352 0.0018052645
-0.07195506 0.092053965 0.049055196 -0.031675756 -0.060495563 -0.057740208 -0.056615748 -0.12430987
0.09035048 0.10316463 0.0043612374 0.014791235 0.1369451 -0.063463874 -0.050977077 -0.02100638
0.018059643 -0.030202614 -0.11217561 0.10734516 -0.09007924 -0.029251702 -0.08736372 0.112251565
00000000: fb8a 033e 90e9 6d3c fdca cabd 0575 b4bd
00000010: f779 623c 8fb0 ba3a 1d09 8dbd a276 79bd
00000020: 6fc4 35bd a45f be3d 0ee9 f0bd 10ce 053c
00000030: e454 893b 71c0 943d db34 963c f0a2 8cbd
00000040: 7608 5ebc 9bd4 db3d 0eac ad3d fabc 603c
00000050: 2063 d03d b60d dcbd 8f8c ca3d 08ac f33d
00000060: e923 563d 4111 75bb ecbd b1bd 9331 b2bd
00000070: 3d6a 933d 9b0e d43d 50f7 a5bd 3760 0a3d
00000080: 66e3 8f3d 56cd 0cbd 7e5a e3bd 3d61 5b3d
00000090: 94ba 4fbd dafe a2bd 8709 013e 50c7 b03c
000000a0: ee11 44bd 2728 a63d 75c4 fc3c abe8 abbd
000000b0: c361 fdbd 3a2c 873d 7851 513d f4b7 03bd
000000c0: 21b5 2fbd 2c06 c5bd 2a29 9ebd 1710 943d
000000d0: cd33 47bd 5f89 21bd 14f9 ebbc d5b9 3d3d
000000e0: 518c d4bd 6a5a 94bc 9ec0 9bbd 3bd7 6b3c
000000f0: 3552 d1bd cf49 07bb 35ef 873d a73f fd3d
00000100: 7f38 ff3d 55da bfbd 5f11 103e 382b b1bd
00000110: 93d6 e6bd ee98 25bc cb89 e23d f61a 483c
00000120: dde7 013c 309f 883b c9eb 1fbd 2140 aabc
00000130: bf39 913d c8b8 38bd c7f0 0ebe 53c2 f8bd
00000140: c9e0 d33d 9f3f 533d 6f67 87bc af70 f0bd
00000150: 44b3 9fbd 13d9 063d d478 31bd 391d e73d
00000160: 6b0e 82bd b79d d13d ed5f e7bc 9da2 dabd
00000170: b4dc 9a3d c298 68bd dd07 95bd 0878 c53c
00000180: 89d9 cebc ace0 c8bd 49a9 f7bd c3c7 753d
00000190: 00f6 f53d 4298 463d 4b8b 1a3d 732a 823d
000001a0: 414c 243d 42f3 ffbc 49fe c6bd 979b e63d
000001b0: 9347 35bc af0a 2d3d 833f 0e3e e7e8 8cbd
000001c0: 39bb abbd 9bee ed3d eacf 6bbd a5d3 863d
000001d0: 8115 e6bd 2775 e1bc daeb 8fbd 5df4 a43d
000001e0: 9f85 0e3d c899 eabd 3b91 653d 806a d33c
000001f0: daf1 163d 9f14 ec3d 09e4 973d bbf3 673d
00000200: 197e 773d e458 503b f97e a73d dd91 963d
00000210: b4d9 61bd bff5 f2bc 74ea a23b d317 fd3d
00000220: a2a4 27bd 81d4 e4bd f98a e2bc d7d2 43bd
00000230: 9452 9ebd b52a 213d d1aa dfbd d2a0 6bbb
00000240: 25c3 583c 7f45 a13d 8cc3 943b 4458 903d
00000250: df51 e53c 30f1 fbbc 9cb7 503d dd1c 0ebd
00000260: 4951 df3d f801 7abd 7dc5 3f3d 7cb3 ce3d
00000270: 2c31 f03d 2362 db3c fbbc 823d fbb2 e63c
00000280: e91e bebc 4b2c 2cbb 90b6 18bb 6e0d 043e
00000290: a937 e5bd 95a7 a8bd acf5 313d 8a37 183d
000002a0: 36d4 c93d b2ba 78bd 436e 273c b66a ac3d
000002b0: e04a 7a3d 351a a8bd fa5a 283d 7a16 133d
000002c0: d11f 843c 647c 803c a37a 92bd e81d 2dbd
000002d0: 612d 9f3c c5b1 f1bd 718b 9ebc 4686 d9bd
000002e0: e5fb c1bd 3cf1 e73d 37f2 56bd 2a3a a33b
000002f0: 1801 e33d d117 ff3d aeb1 9cbd f12b b8bd
00000300: 3b2f 17be a920 d73d 7b4b 253d 48d6 0b3d
00000310: 6810 1c3d bd5a 773c e2e5 b7bd 97d5 08be
00000320: 6523 0f3e 90dc 003e 39a5 aab9 c515 803d
00000330: 7a32 cabd 67ea 4bbd f1db 8e3d 2b10 93bc
00000340: 9019 4bbd 345a 783d f153 e4bd 4586 4e3d
00000350: 1bf2 913d 9b4c 9bbd f5c1 31bd 20bd acbd
00000360: 724c 16bb 02b6 98bd 6780 43bd e3ad eebb
00000370: bf3c 8d3c 23d7 0d3e ebbc 97bd d740 953d
00000380: 547a 573d f154 4ebc 24d6 dabd 2268 4fbc
00000390: 4a63 493d 049f 873c b07a 1bbe a09e ec3a
000003a0: 2d5d 93bd ca86 bc3d 1aee 483d 70be 01bd
000003b0: 32ca 77bd ff80 6cbd eae5 67bd 2c96 febd
000003c0: ac09 b93d fa47 d33d b6e8 8e3b f056 723c
000003d0: 563b 0c3e 59f9 81bd 57cd 50bd 9215 acbc
000003e0: d1f1 933c 796b f7bc 54bc e5bd c7d7 db3d
000003f0: 777b b8bd 44a1 efbc c0eb b2bd 26e4 e53d

rnn.weight_hh_l1 f4 [256, 64]
-0.088712886 -0.012190218 0.116209865 0.090787284 0.012848444 0.01500914 0.08372033 -0.03654396
-0.035645407 0.045528952 -0.11599535 0.01517482 0.0842129 -0.008756246 0.060144868 -0.11556211
0.012767045 0.12517197 0.15395856 -0.09803383 -0.061752994 -0.032558203 0.097775035 -0.076773115
-0.022266608 -0.026324661 0.033102464 0.101950586 -0.02792081 0.023352835 -0.08476919 -0.07710802
0.13023314 -0.020870866 0.009667472 0.13275261 0.070894994 0.100538455 0.014087565 -0.10894124
-0.027722098 0.038993992 -0.050848026 -0.030250534 0.09496624 -0.11089668 -0.05744539 0.031746913
0.107385196 -0.009273765 -0.09128321 0.031949136 -0.07546649 0.05009463 0.015886854 0.0791406
-0.11652658 -0.02542737 -0.020131297 0.07682119 -0.07521803 -0.0038166174 0.055717766 -0.11535016
0.09917579 0.014131745 -0.057977438 0.01075374 -0.12119042 0.09718981 0.11460573 0.09261205
0.09156094 -0.012667607 -0.12768626 0.091704845 0.016262665 0.051118758 -0.14619242 0.1211981
0.13433476 0.11039446 0.10460212 0.0021754664 0.11920973 -0.006080377 -0.0675618 0.09593071
0.050697792 0.05772087 0.019771267 0.09402305 -0.057443693 -0.008496225 -0.007818417 0.0877878
0.08721248 -0.029905971 -0.13444892 -0.03383651 0.08735438 -0.09279412 0.10050069 0.05225648
0.0974325 -0.026180686 0.09134701 -0.11605854 -0.10803371 -0.010390198 -0.11668471 0.06432032
0.032706395 0.14482099 0.11088468 -0.09473534 0.011293387 0.023324396 0.10151564 0.023625074
0.10762273 -0.036210798 0.04245318 -0.112199634 -0.045861054 -0.035133485 0.10260844 -0.14461215
0.10235612 -0.048381183 0.07262341 -0.08034004 -0.14406647 -0.1255252 -0.016119942 -0.032992154
-0.05613948 -0.016515628 -0.09004089 0.11645832 -0.06463454 0.11623953 -0.12984209 0.097780004
0.13441473 -0.10541273 0.13360785 0.088700004 0.01817138 -0.037572037 -0.050052095 0.013405479
0.06339028 0.09291927 -0.017370703 0.07009993 -0.091841504 0.0010490194 -0.03166621 -0.07854161
-0.090888515 0.037262395 0.030114278 0.022547847 0.01577623 0.08478899 -0.02837943 -0.035216507
0.037697263 0.079763606 0.03497532 -0.12031941 0.0024679892 0.047763404 -0.12812547 -0.01049303
-0.08082739 0.16676788 0.100332595 0.02880878 -0.16443613 -0.073655084 0.047424436 0.05512296
-0.08045214 -0.11840745 0.040077824 0.07744119 -0.067944504 0.04486055 0.09754639 0.012689072
-0.113976054 0.036352538 0.05051333 0.036991667 -0.03428327 0.03145151 0.050807897 0.058465853
-0.13100754 -0.07122113 0.093474485 -0.014094435 0.016036559 0.07498125 0.10346066 -0.061345443
0.05595573 0.05805017 0.009932335 0.041222855 -0.04891765 0.023938047 -0.004901974 0.049228325
0.07020604 0.10652334 -0.09481139 0.0845432 -0.07155947 0.010741491 -0.007427218 -0.074795835
0.0344309 0.010530759 0.15594298 -0.024042435 0.06984662 -0.09854139 -0.012167457 -0.08494576
-0.04131165 -0.07004732 -0.020158883 -0.04144825 0.0070873573 0.04592368 -0.07682801 0.0024000672
-0.06901363 0.0837988 0.042826604 -0.009298015 -0.0110249305 -0.033349752 0.12461584 0.011292852
0.036583975 -0.023913918 0.09495441 -0.0694673 0.011991163 0.09695664 0.033102542 -0.16246061
00000000: 1aaf b5bd 7bb9 47bc 70ff ed3d afee b93d
00000010: 4882 523c e5e8 753c 9075 ab3d 1faf 15bd
00000020: eb00 12bd 917c 3a3d f88e edbd cf9f 783c
00000030: d077 ac3d 5c76 0fbc 775a 763d d4ab ecbd
00000040: de2c 513c 152d 003e 50a7 1d3e f6c5 c8bd
00000050: b5f0 7cbd c05b 05bd 473e c83d 393b 9dbd
00000060: 7668 b6bc d1a6 d7bc 7396 073d 78cb d03d
00000070: 2fba e4bc 724e bf3c 789b adbd cfea 9dbd
00000080: d65b 053e 61f9 aabc 5164 1e3c 4df0 073e
00000090: 6531 913d 1be7 cd3d 88cf 663c 961c dfbd
000000a0: 7419 e3bc 2ab8 1f3d 0546 50bd f8cf f7bc
000000b0: a97d c23d cc1d e3bd db4b 6bbd 0d09 023d
000000c0: c5ec db3d fdf0 17bc b1f2 babd 19dd 023d
000000d0: 2d8e 9abd 0730 4d3d 2625 823c 7814 a23d
000000e0: 7da5 eebd 0f4d d0bc 64ea a4bc 6e54 9d3d
000000f0: e90b 9abd 3720 7abb 5038 643d b43c ecbd
00000100: ad1c cb3d d688 673c c079 6dbd 7430 303c
00000110: af32 f8bd 730b c73d 69b6 ea3d 63ab bd3d
00000120: 4d84 bb3d cb8b 4fbc 30c0 02be c0cf bb3d
00000130: 4839 853c e761 513d 77b3 15be b636 f83d
00000140: 0d8f 093e 7e16 e23d a339 d63d 4592 0e3b
00000150: 3b24 f43d e63d c7bb d75d 8abd 5277 c43d
00000160: 7da8 4f3d b86c 6c3d 5af7 a13c 288f c03d
00000170: 144a 6bbd c033 0bbc d118 00bc 17ca b33d
00000180: 759c b23d 5efd f4bc faac 09be 2798 0abd
00000190: dae6 b23d d80a bebd 4ed3 cd3d e40a 563d
000001a0: b18a c73d e178 d6bc 2414 bb3d 1ab0 edbd
000001b0: c740 ddbd a63b 2abc 65f8 eebd 5fba 833d
000001c0: 24f7 053d f44b 143e 8217 e33d 9a04 c2bd
000001d0: e607 393c ce12 bf3c 6fe7 cf3d 5f89 c13c
000001e0: 4e69 dc3d c651 14bd 63e3 2d3d ecc8 e5bd
000001f0: cdd8 3bbd 21e8 0fbd 6024 d23d 3515 14be
00000200: 16a0 d13d 592b 46bd 95bb 943d 5289 a4bd
00000210: 2986 13be ae89 00be f80d 84bc c822 07bd
00000220: 83f2 65bd c84b 87bc 5c67 b8bd b381 ee3d
00000230: 1d5f 84bd fe0e ee3d 53f5 04be e240 c83d
00000240: 04a4 093e a1e2 d7bd 7fd0 083e 59a8 b53d
00000250: 25dc 943c 23e5 19bd 6d03 4dbd a7a2 5b3c
00000260: c3d2 813d 754c be3d 014d 8ebc 8d90 8f3d
00000270: 6617 bcbd 407f 893a 6eb4 01bd 6cda a0bd
00000280: c223 babd 74a0 183d 38b2 f63c 43b6 b83c
00000290: 273d 813c daa5 ad3d fa7b e8bc 2f3f 10bd
000002a0: 7268 1a3d 1a5b a33d 4842 0f3d 066a f6bd
000002b0: fdbd 213b 8fa3 433d 5333 03be f5ea 2bbc
000002c0: d588 a5bd 33c5 2a3e 2d7b cd3d 6400 ec3c
000002d0: f261 28be 7ad8 96bd 2040 423d 9dc8 613d
000002e0: 17c4 a4bd 9b7f f2bd a528 243d 7d99 9e3d
000002f0: 7d26 8bbd b2bf 373d 67c6 c73d d3e5 4f3c
00000300: 476c e9bd 66e6 143d 11e7 4e3d 9384 173d
00000310: 9d6c 0cbd 4cd3 003d f11b 503d e479 6f3d
00000320: d726 06be 62dc 91bd 8d6f bf3d 58ec 66bc
00000330: 1a5f 833c c58f 993d 2fe3 d33d 5c45 7bbd
00000340: d631 653d 04c6 6d3d 3bbb 223c 4cd9 283d
00000350: e05d 48bd b919 c43c bda0 a0bb a4a3 493d
00000360: 2fc8 8f3d e928 da3d 792c c2bd fc24 ad3d
00000370: c58d 92bd 14fd 2f3c 0560 f3bb 8f2e 99bd
00000380: 6a07 0d3d 3489 2c3c 84af 1f3e a4f4 c4bc
00000390: bf0b 8f3d 11d0 c9bd 035a 47bc 0bf8 adbd
000003a0: 6836 29bd f874 8fbd 3e24 a5bc a4c5 29bd
000003b0: 103d e83b 781a 3c3d 0158 9dbd 724a 1d3b
000003c0: 0557 8dbd b59e ab3d f36a 2f3d b456 18bc
000003d0: e9a1 34bc c099 08bd 9736 ff3d a805 393c
000003e0: 14d9 153d 1fe7 c3bc 7577 c23d df44 8ebd
000003f0: 9576 443c 3491 c63d 8896 073d 135c 26be

rnn.bias_ih_l1 f4 [256]
0.012612452 0.09517627 -0.054065347 0.015862 0.09102619 -0.031286694 0.026055697 -0.09563529
-0.0037187308 0.12085027 -0.009740279 -0.041418 0.062999696 0.08811278 -0.026403744 -0.0724534
-0.09492318 -0.026694596 0.28030726 -0.017667651 0.022269348 -0.02100789 0.076725565 -0.051698714
-0.108154066 0.10636078 0.045829292 -0.102233544 -0.057841584 0.0012421208 0.035493866 -0.07143249
0.006651333 -0.13802682 -0.032912537 0.070742786 0.07085929 -0.07932522 -0.06309442 0.025436604
-0.02541844 -0.014196645 -0.05462908 0.022328949 -0.011644055 -0.114533834 0.03661656 -0.06758406
0.076216385 0.28595862 -0.07981975 0.12273514 0.038843613 -0.086064875 -0.09975577 -0.1199985
-0.08395245 -0.106392205 0.040440746 0.0005163179 0.037247054 -0.070205115 0.10406363 0.009951309
0.057974707 -0.08091575 -0.11733906 -0.06989862 -0.020568019 0.08229626 0.04460292 -0.026520126
-0.08677872 0.020636605 0.08878522 0.037597157 0.06573617 0.014184154 0.017728796 0.11306922
0.08587044 0.103416525 0.18654135 -0.0021178634 -0.0029635986 -0.07836147 0.08076118 -0.028549187
-0.09072096 0.081966 -0.1424253 -0.11667581 0.065619074 -0.09623793 0.033969495 -0.036897894
-0.111677915 0.046008643 -0.090183474 0.059717063 -0.10493183 -0.032280475 0.013739058 -0.13021703
-0.07008706 -0.05871591 0.115111314 0.013529541 -0.025277207 0.023760809 -0.10562597 0.05947606
0.027841503 -0.022579351 -0.11544233 -0.11024545 -0.0028008556 0.028171571 -0.0868216 0.0986513
-0.06854382 0.09688142 -0.0938192 0.014138988 0.103512876 -0.11863392 -0.10362829 0.046457175
0.04458662 -0.05086588 -0.032520875 -0.002062632 0.1157173 0.12730828 -0.008465198 0.07548292
0.012159839 -0.06226681 -0.110765055 0.015488188 -0.029929247 0.015668124 -0.094106674 0.043179132
0.020149712 -0.0017016609 0.09494475 0.12207272 0.059588145 -0.055706017 -0.03622419 -0.08095805
-0.086500935 -0.037523497 -0.037352227 0.0896704 -0.063430764 0.124294944 0.0025518704 -0.036212817
0.10021353 0.03917387 0.014173512 0.11622803 0.04977957 -0.07580259 -0.01601627 0.032306835
0.010503361 -0.011848055 -0.119624555 0.056877583 -0.091979384 0.11457058 -0.101392716 -0.09432959
-0.001549175 0.06362639 -0.08488456 -0.02223668 -0.042188186 0.12081179 -0.08733266 0.0053790933
0.11729451 0.0025880425 0.1046424 -0.11525284 0.026847914 0.101951025 -0.10836084 -0.096418016
0.040448356 -0.079374455 -0.051929805 -0.02826544 0.08463083 -0.066312596 -0.030485537 -0.055476945
-0.06478761 -0.037818577 0.0029529568 -0.052132692 -0.11888052 0.010012223 -0.13423038 -0.13355272
-0.027661836 -0.09491797 0.14957654 0.033610202 -0.10167398 0.016314382 0.022944266 0.110189766
-0.12983847 -0.07928281 0.021447921 -0.054902233 0.05553572 -0.00045045803 -0.012984049 0.07988026
-0.026670069 -0.114498265 0.093296275 -0.02834813 0.116854414 -0.02163439 -0.11054489 0.06099152
-0.07371556 0.03807308 0.06591275 0.021269603 -0.0426059 -0.0982313 -0.041283652 -0.06924686
0.014097816 0.3613942 0.0814503 -0.056930277 -0.06424533 0.09458125 0.08778702 -0.11848997
-0.06920564 -0.07867019 -0.091705196 0.037481442 0.092997685 -0.1037379 -0.052417245 0.10615302
00000000: 75a4 4e3c c7eb c23d a073 5dbd 06f1 813c
00000010: f06b ba3d 7a26 00bd c272 d53c 6fdc c3bd
00000020: f3b5 73bb 5980 f73d b195 1fbc eca5 29bd
00000030: fc05 813d 7974 b43d aa4c d8bc 7362 94bd
00000040: 1667 c2bd a0ae dabc 6f84 8f3e c0bb 90bc
00000050: 356e b63c bd18 acbc 4b22 9d3d 08c2 53bd
00000060: e17f ddbd aed3 d93d 7fb7 3b3d d25f d1bd
00000070: 4ceb 6cbd a8ce a23a 0462 113d 334b 92bd
00000080: 6df3 d93b e756 0dbe 4ccf 06bd 98e1 903d
00000090: ad1e 913d 4375 a2bd a637 81bd 6d60 d03c
000000a0: 553a d0bc 0b99 68bc bec2 5fbd 33eb b63c
000000b0: b5c6 3ebc b790 eabd 3ffb 153d 8369 8abd
000000c0: 5617 9c3d 2b69 923e 8978 a3bd 905c fb3d
000000d0: 7b1a 1f3d c842 b0bd c14c ccbd c6c1 f5bd
000000e0: 43ef abbd 28e4 d9bd 32a5 253d 8259 073a
000000f0: 5e90 183d b3c7 8fbd 501f d53d d10a 233c
00000100: e376 6d3d 28b7 a5bd 764f f0bd 0227 8fbd
00000110: 437e a8bc f18a a83d 8db1 363d bc40 d9bc
00000120: 0bb9 b1bd 190e a93c 07d5 b53d 7aff 193d
00000130: afa0 863d a764 683c fb3b 913c d690 e73d
00000140: d7dc af3d 0bcc d33d b204 3f3e dacb 0abb
00000150: ef38 42bb fa7b a0bd 1e66 a53d fcdf e9bc
00000160: e9cb b9bd cadd a73d f0d7 11be baf3 eebd
00000170: 4b63 863d 6418 c5bd 9923 0b3d 3f22 17bd
00000180: 64b7 e4bd 8f73 3c3d 1db2 b8bd e199 743d
00000190: 80e6 d6bd 8838 04bd c919 613c 9d57 05be
000001a0: ce89 8fbd 1880 70bd 7bbf eb3d 02ab 5d3c
000001b0: 2512 cfbc 07a6 c23c 6e52 d8bd 2b9d 733d
000001c0: dd13 e43c 55f8 b8bc 076d ecbd 5ec8 e1bd
000001d0: 8f8e 37bb 11c8 e63c 86cf b1bd b109 ca3d
000001e0: b460 8cbd c469 c63d 4824 c0bd 37a7 673c
000001f0: 8ffe d33d 57f6 f2bd 123b d4bd e149 3e3d
00000200: 76a0 363d be58 50bd 9c34 05bd 392d 07bb
00000210: 31fd ec3d 1a5d 023e 9db1 0abc ca96 9a3d
00000220: 103a 473c 7c0b 7fbd cad8 e2bd 2bc2 7d3c
00000230: 2e2e f5bc 705a 803c 00bb c0bd 9adc 303d
00000240: 0211 a53c 440a dfba 6572 c23d 4301 fa3d
00000250: b312 743d fe2b 64bd d15f 14bd 56cd a5bd
00000260: 6727 b1bd 3db2 19bd a6fe 18bd 1da5 b73d
00000270: fde7 81bd 598e fe3d 483d 273b e453 14bd
00000280: c03c cd3d c874 203d 0538 683c f608 ee3d
00000290: aae5 4b3d 633e 9bbd 8d34 83bc 2c54 043d
000002a0: 4a16 2c3c 581e 42bc b8fd f4bd 78f8 683d
000002b0: b05f bcbd fba3 ea3d fca6 cfbd df2f c1bd
000002c0: b00d cbba 8e4e 823d f5d7 adbd b329 b6bc
000002d0: 85cd 2cbd 2c6c f73d 77db b2bd 1b43 b03b
000002e0: 1b38 f03d 269c 293b c14e d63d ae09 ecbd
000002f0: 28f0 db3c b3cb d03d 4aec ddbd cf76 c5bd
00000300: 2dad 253d 138f a2bd 59b4 54bd ed8c e7bc
00000310: ee52 ad3d e6ce 87bd cebc f9bc cb3b 63bd
00000320: 5eaf 84bd a7e7 1abd 6586 413b 1789 55bd
00000330: a177 f3bd 4f0a 243c b073 09be 0bc2 08be
00000340: 139b e2bc 5a64 c2bd 982a 193e daaa 093d
00000350: 733a d0bd bda5 853c 9df5 bb3c 2cab e13d
00000360: 60f4 04be 075f a2bd 8db3 af3c 2ae1 60bd
00000370: 6c79 633d 742b ecb9 0cbb 54bc 4398 a33d
00000380: 307b dabc 117e eabd 1e12 bf3d 563a e8bc
00000390: 5e51 ef3d 9b3a b1bc 5c65 e2bd 3ed2 793d
000003a0: 2ff8 96bd 85f2 1b3d 44fd 863d 973d ae3c
000003b0: 8683 2ebd 7e2d c9bd 0c19 29bd 4cd1 8dbd
000003c0: 87fa 663c a908 b93e 6acf a63d b92f 69bd
000003d0: 0e93 83bd d0b3 c13d aec9 b33d dfaa f2bd
000003e0: b0bb 8dbd d61d a1bd efcf bbbd 2486 193d
000003f0: 9275 be3d 8974 d4bd 77b3 56bd c166 d93d
