data/results/lstm_baseline_ETH_r5d.pt (torch, 220581 bytes, 9 tensors)

rnn.weight_ih_l0 f4 [256, 15]
-0.10305226 0.0041897055 -0.2363654 0.18559696 -0.012847312 0.1055486 0.010909772 0.026566582
-0.039613493 0.035333674 0.12134709 -0.0341931 -0.01451234 0.18848681 -0.063755944 0.011740982
0.044671316 0.0662665 -0.048890293 0.10879031 0.012285351 0.01326045 0.02830382 0.036852434
0.15393782 0.0219187 0.12782006 -0.08475006 -0.095565334 0.115090206 -0.0016354619 0.11732225
-0.114040054 -0.026521329 0.021345263 -0.05682066 0.0067174016 0.036555044 -0.11648491 0.047454964
-0.03471449 -0.03914178 -0.009965007 -0.053373322 0.11994276 0.10079069 -0.0533794 -0.23513691
-0.0052136304 -0.11621679 0.020888861 0.052344512 -0.1880105 0.06226166 -0.036670674 0.12405341
0.12372365 -0.07907924 -0.011276788 -0.0767457 0.030550597 0.012858289 -0.092343435 0.031110538
0.04061619 0.06316773 0.1339217 -0.044821683 0.08654701 0.06849692 0.12757759 -0.035206113
-0.090256914 -0.13389744 0.07483821 -0.04393187 0.06358121 -0.19186434 0.07261615 -0.058753118
0.0531182 0.0042638495 0.021492334 0.12590429 -0.07882083 -0.07012821 -0.0782618 -0.014843059
0.040752154 0.048536427 -0.14004077 -0.1250782 -0.12195823 -0.07419214 0.018602489 -0.08208143
-0.12510961 0.01530431 -0.056093145 0.035462394 -0.00878306 0.027157389 -0.043093894 0.13320826
-0.13978283 0.005687554 0.07212333 -0.037274785 0.0070897928 0.0034421454 0.0039041368 0.23575012
-0.14749251 -0.007909905 0.11583548 0.036447726 -0.018639795 0.07972373 0.1265691 0.061346777
-0.08933788 0.048968963 -0.048087794 0.14739273 0.049944248 0.098276876 0.20166346 -0.024968466
0.068424955 -0.023996346 0.09495788 0.09058802 -0.0101640755 0.1657249 0.046073113 0.11710059
0.049066167 -0.123953514 0.1903431 -0.008777644 0.036206454 0.18251207 -0.062272735 0.1292461
-0.12427441 0.13893273 0.17538415 -0.039891522 0.1458268 0.03986716 -0.050222933 -0.04917697
-0.2003379 0.043009493 -0.14838365 -0.08879406 0.06351486 -0.067368515 -0.0682562 -0.04290435
-0.10742649 -0.14089882 -0.16703491 0.019430116 -0.19634658 0.07047898 0.03199305 0.014332429
-0.010672367 -0.10747042 -0.13310681 -7.305818e-06 -0.043856252 0.0055433977 -0.02586958 -0.03639641
0.067115374 0.06242095 0.035628576 0.02629873 -0.01190579 0.029047918 0.05757824 0.15531845
-0.17361645 -0.032237854 -0.08817134 0.057336085 0.09811479 0.052370846 0.08737646 -0.05976265
0.070513055 0.018965278 -0.13393977 -0.03489939 -0.046009768 -0.008947432 -0.102260955 -0.017264798
0.028512213 -0.06693373 -0.11011797 0.0941857 0.073638305 -0.06000155 0.10307529 0.05167726
-0.012349736 -0.12783778 -0.07661795 -0.080470234 -0.22150658 0.13417028 -0.19719021 0.10758397
-0.016922193 0.0026890307 0.14995077 -0.03159826 -0.02451864 -0.072279 0.06052379 0.21203062
-0.11701444 0.013074391 0.16915292 -0.08852795 -0.024927227 -0.020199401 0.09628748 0.1599418
0.03677198 0.1058926 0.027792739 -0.031701304 0.07252233 -0.10072423 0.15106595 -0.03752262
-0.15418488 0.008530181 0.004110053 -0.11152512 0.04022587 -0.08618246 -0.10544715 -0.10225534
0.09634205 0.06896841 0.07138227 -0.06675993 -0.04546276 0.08075807 -0.002893273 -0.0061592474
00000000: 100d d3bd cc49 893b c509 72be 210d 3e3e
00000010: 887d 52bc dd29 d83d e6be 323c 29a2 d93c
00000020: c241 22bd 0bba 103d d384 f83d 100e 0cbd
00000030: 2ac5 6dbc b002 413e 7a92 82bd 3f5d 403c
00000040: 45f9 363d bbb6 873d 3041 48bd 74cd de3d
00000050: 7f48 493c 5c42 593c 6add e73c 94f2 163d
00000060: e0a1 1d3e d88e b33c 43e3 023e 7191 adbd
00000070: c2b7 c3bd 6ab4 eb3d ff5c d6ba a646 f03d
00000080: d58d e9bd 4243 d9bc 43dc ae3c c8bc 68bd
00000090: a61d dc3b beba 153d a48f eebd 2360 423d
000000a0: c830 0ebd 2253 20bd 4544 23bc fc9d 5abd
000000b0: 8da4 f53d 596b ce3d 5ca4 5abd bbc7 70be
000000c0: 1ad7 aabb 1203 eebd 1e1f ab3c 3367 563d
000000d0: d385 40be 1506 7f3d fd33 16bd b70f fe3d
000000e0: d362 fd3d 4cf4 a1bd 47c2 38bc d92c 9dbd
000000f0: 3f45 fa3c 93ab 523c 8e1e bdbd 87db fe3c
00000100: 295d 263d 155e 813d c522 093e f196 37bd
00000110: 8f3f b13d 1d48 8c3d b3a3 023e 4934 10bd
00000120: 9ed8 b8bd 691c 09be c744 993d e8f1 33bd
00000130: de36 823d 1678 44be c7b7 943d 1ca7 70bd
00000140: 7892 593d c3b7 8b3b b110 b03c 0eed 003e
00000150: d16c a1bd 619f 8fbd b947 a0bd 4d30 73bc
00000160: bbeb 263d 22ce 463d d966 0fbe 8014 00be
00000170: 3dc5 f9bd 0cf2 97bd 3f64 983c 4f1a a8bd
00000180: bc1c 00be eebe 7a3c edc1 65bd 0441 113d
00000190: d3e6 0fbc 2c79 de3c 3983 30bd bf67 083e
000001a0: 3b23 0fbe a95e ba3b 65b5 933d 72ad 18bd
000001b0: 7e51 e83b 9e95 613b 8cdc 7f3b 7b68 713e
000001c0: 4708 17be 8c98 01bc 273b ed3d 364a 153d
000001d0: 7cb2 98bc 3246 a33d 559b 013e c246 7b3d
000001e0: c7f6 b6bd ae93 483d b5f7 44bd 1fee 163e
000001f0: 5792 4c3d 6345 c93d de80 4e3e ab8a ccbc
00000200: 6222 8c3d fc93 c4bc 4779 c23d 3686 b93d
00000210: 3987 26bc cab3 293e 29b7 3c3d 6fd2 ef3d
00000220: 9bf9 483d 57db fdbd 4de9 423e 1bd0 0fbc
00000230: 384d 143d 72e4 3a3e b211 7fbd 1759 043e
00000240: 9583 febd 6244 0e3e e797 333e 4b65 23bd
00000250: 9f53 153e bf4b 233d 90b6 4dbd ca6d 49bd
00000260: 6125 4dbe b92a 303d e2f1 17be a9d9 b5bd
00000270: 1414 823d 81f8 89bd e8c9 8bbd 79bc 2fbd
00000280: 6b02 dcbd c847 10be 330b 2bbe e82b 9f3c
00000290: 140f 49be 4957 903d 250b 033d 90d2 6a3c
000002a0: 27db 2ebc 7419 dcbd 274d 08be 8024 f5b6
000002b0: 9da2 33bd 64a5 b53b 71ec d3bc 6714 15bd
000002c0: c973 893d 1cad 7f3d 45ef 113d 6f70 d73c
000002d0: 8110 43bc e6f5 ed3c 29d7 6b3d cd0b 1f3e
000002e0: 83c8 31be d70b 04bd 2d93 b4bd 3ed9 6a3d
000002f0: 68f0 c83d d082 563d 6ef2 b23d aec9 74bd
00000300: 2669 903d 125d 9b3c 8227 09be aaf2 0ebd
00000310: bd74 3cbd 4098 12bc 316e d1bd e86e 8dbc
00000320: 7292 e93c 8d14 89bd 8885 e1bd 6fe4 c03d
00000330: aecf 963d 2fc4 75bd 2319 d33d 89ab 533d
00000340: 8c56 4abc e8e7 02be dfe9 9cbd 94cd a4bd
00000350: 9fd2 62be ef63 093e 3bec 49be fc54 dc3d
00000360: 69a0 8abc 733a 303b b28c 193e 2d6d 01bd
00000370: 51db c8bc 0307 94bd cbe7 773d 8e1e 593e
00000380: 44a5 efbd f835 563c 6c36 2d3e 244e b5bd
00000390: 2f34 ccbc 3779 a5bc 5f32 c53d c9c7 233e
000003a0: 379e 163d 38de d83d 99ad e33c 3ad9 01bd
000003b0: 9686 943d 8148 cebd 08b1 1a3e 52b1 19bd
000003c0: a4e2 1dbe 2cc2 0b3c a0ad 863b 4867 e4bd
000003d0: e2c3 243d 6e80 b0bd adf4 d7bd 3f6b d1bd
000003e0: fb4e c53d 4f3f 8d3d de30 923d 6eb9 88bd
000003f0: 2937 3abd 7d64 a53d 119d 3dbb 83d3 c9bb

rnn.weight_hh_l0 f4 [256, 64]
0.013224612 0.0347879 -0.17080583 -0.034796998 0.0440634 0.16793324 -0.1978368 0.11064355
-0.0563712 0.047919486 -0.0898339 0.05809925 -0.114325926 0.09902157 0.014045499 0.019590309
0.16624123 0.1301986 -0.07322337 -0.1535227 0.13881156 -0.08922789 -0.15614301 -0.05417404
-0.17071058 0.06302543 -0.08186713 -0.1261492 0.048339594 0.1829778 -0.03294426 0.037972644
-0.030403929 -0.016475266 -0.0991725 -0.0057993815 0.021601796 0.020571893 -0.053173516 0.11052016
-0.051268958 -0.031216972 0.04651887 0.029239094 0.00090147567 -0.12560569 0.06265346 -0.036985658
0.16553049 0.053508822 0.056811042 -0.0016335886 -0.037066236 -0.042329915 0.07494282 -0.13960978
-0.09685564 0.05888885 -0.004609883 0.06410014 0.063693106 -0.16853221 0.052581448 -0.07133705
-0.10759463 -0.09022206 0.046645746 -0.08697568 -0.10019928 0.03081345 0.10052129 0.09879169
-0.10253308 0.06287491 0.09668188 -0.055367034 -0.11934499 -0.06029022 0.007803777 -0.052355096
-0.02188305 0.076264784 -0.036260076 0.03466546 0.043951742 0.026748922 -0.06788181 0.08873827
-0.05629923 0.061312243 0.108074926 0.07082553 -0.08999629 0.12700239 -0.14093256 -0.022200663
-0.038015112 0.04473405 -0.06750629 -0.024751138 0.08110178 0.08023512 -0.08314798 0.10588205
-0.013667212 -0.12605236 0.034872197 0.050915655 0.032821562 0.10267479 0.05018041 -0.095902115
0.05391585 -0.07762853 -0.104156144 0.10237245 0.10185945 0.09854832 0.01414143 0.09115311
0.07159027 0.083565824 0.06773306 -0.030913208 -0.015819 0.12304946 0.08705002 0.037187617
0.0032020772 0.19483042 -0.12177297 -0.0093330005 -0.0169755 0.15733978 0.016842108 0.12110113
-0.15863827 0.18405688 0.029689394 0.094092764 -0.03344989 0.005488365 0.0047641452 -0.10566776
0.19431093 0.13049462 0.0025307687 -0.038053077 0.106194355 0.039620142 0.018288784 -0.024039786
-0.15207194 0.0103762215 0.02683895 -0.14642301 0.08176378 0.02451231 -0.075786985 0.0098965345
0.1312831 -0.08155043 -0.07999562 -0.03671595 -0.084822476 -0.07737101 -0.05588143 0.16408697
0.025836494 -0.07229153 -0.07430073 -0.007987544 0.007873234 -0.011925977 -0.0122520765 -0.13470659
0.21954529 -0.028600419 -0.039680474 0.08814566 0.046312522 -0.19311619 0.22046508 -0.20888741
-0.12807341 0.048336104 -0.059742387 -0.11458357 0.028985636 -0.08206775 -0.14133754 -0.14987403
0.004580995 0.05047651 -0.13860865 0.021895569 0.13558288 -0.047527205 -0.12005244 0.02390554
-0.09646095 0.019352406 -0.013575861 -0.00033182534 0.0656189 -0.10948741 0.07135659 -0.15658411
-0.001782996 0.09609369 -0.1365991 -0.0010261894 0.13155888 -0.015384315 0.15580417 0.080391474
-0.091117956 0.006617068 0.08450154 -0.034948878 -0.037497908 -0.034150984 -0.032369412 0.0842608
0.106256485 -0.15586053 -0.11693883 -0.018194212 0.06721418 -0.13506109 0.17824759 -0.047189686
-0.17094988 -0.02563459 -0.18574402 0.08275664 -0.046046726 -0.006123156 0.055213537 -0.12161986
0.1582204 -0.05737498 -0.026404439 0.021806456 0.16357388 -0.027142283 -0.0111710075 -0.16850668
-0.0026149428 0.21077877 0.12103327 -0.114592694 -0.037799068 -0.09114948 0.006861507 -0.10813737
00000000: 0bac 583c c27d 0e3d b9e7 2ebe 4c87 0ebd
00000010: d37b 343d b1f6 2b3e bb95 4abe 1699 e23d
00000020: 7de5 66bd 3947 443d d6fa b7bd 7bf9 6d3d
00000030: b623 eabd d2cb ca3d 181f 663c db7b a03c
00000040: 243b 2a3e c852 053e 22f6 95bd 0e35 1dbe
00000050: 9e24 0e3e 1dbd b6bd f4e3 1fbe 99e5 5dbd
00000060: c1ce 2ebe 7a13 813d f4a9 a7bd 422d 01be
00000070: bdff 453d 885e 3b3e 8ff0 06bd 3489 1b3d
00000080: a911 f9bc 23f7 86bc f41a cbbd bd08 bebb
00000090: 40f6 b03c 6386 a83c 79cc 59bd 6558 e23d
000000a0: 66ff 51bd bcba ffbc 928a 3e3d d386 ef3c
000000b0: 0251 6c3a c79e 00be 7550 803d 467e 17bd
000000c0: d380 293e 112c 5b3d b2b2 683d 231e d6ba
000000d0: c4d2 17bd 2262 2dbd 9f7b 993d def5 0ebe
000000e0: 405c c6bd 6f35 713d 800e 97bb ef46 833d
000000f0: 8871 823d b593 2cbe a55f 573d 2919 92bd
00000100: 935a dcbd 58c6 b8bd 9c0f 3f3d 4e20 b2bd
00000110: 4835 cdbd 7d6c fc3c 1bde cd3d 4c53 ca3d
00000120: ddfc d1bd 90c4 803d 2601 c63d 8bc8 62bd
00000130: 256b f4bd e1f2 76bd d4b6 ff3b 4c72 56bd
00000140: 1544 b3bc b630 9c3d 7285 14bd 5ffd 0d3d
00000150: be06 343d 8e20 db3c 9e05 8bbd 69bc b53d
00000160: 059a 66bd 8c22 7b3d 6356 dd3d fa0c 913d
00000170: fa4f b8bd ea0c 023e a050 10be 2ade b5bc
00000180: bcb5 1bbd 0d3b 373d bd40 8abd e6c2 cabc
00000190: b118 a63d 5052 a43d 7d49 aabd b0d8 d83d
000001a0: 71ec 5fbc df13 01be 26d6 0e3d ef8c 503d
000001b0: e76f 063d 2947 d23d f989 4d3d 5468 c4bd
000001c0: ded6 5c3d b5fb 9ebd d14f d5bd a6a8 d13d
000001d0: b09b d03d b4d3 c93d 75b1 673c 7bae ba3d
000001e0: eb9d 923d 8f24 ab3d a1b7 8a3d b23d fdbc
000001f0: d996 81bc 5b01 fc3d 4847 b23d 0b52 183d
00000200: f1d9 513b a081 473e 1b64 f9bd 71e9 18bc
00000210: 3410 8bbc ae1d 213e 76f8 893c df03 f83d
00000220: 1272 22be 6879 3c3e 2c37 f33c b5b3 c03d
00000230: c002 09bd bed7 b33b 8c1c 9c3b 5768 d8bd
00000240: 72f9 463e 62a0 053e 41db 253b 8bdd 1bbd
00000250: 6d7c d93d bb48 223d 5cd2 953c 16ef c4bc
00000260: bfb8 1bbe 0701 2a3c 5cdd db3c eaef 15be
00000270: c573 a73d 0ace c83c 3536 9bbd 1325 223c
00000280: 146f 063e e903 a7bd bed4 a3bd 7763 16bd
00000290: 68b7 adbd b174 9ebd ede3 64bd 6a06 283e
000002a0: 0ea7 d33c 950d 94bd fb2a 98bd 30de 02bc
000002b0: bdfe 003c 2c65 43bc efbc 48bc 86f0 09be
000002c0: 7bd0 603e 6d4b eabc fe87 22bd b685 b43d
000002d0: 33b2 3d3d 40c0 45be 99c1 613e 95e6 55be
000002e0: ad25 03be 14fc 453d 6fb4 74bd caaa eabd
000002f0: 4973 ed3c 2313 a8bd caba 10be 9478 19be
00000300: 2c1c 963b 75c0 4e3d 6def 0dbe 565e b33c
00000310: 3dd6 0a3e e3ab 42bd 0ede f5bd 8dd5 c33c
00000320: 528d c5bd f088 9e3c 4a6d 5ebc d8f8 adb9
00000330: 3463 863d ef3a e0bd 6723 923d 9657 20be
00000340: 6bb3 e9ba c5cc c43d a2e0 0bbe 3481 86ba
00000350: 5fb7 063e 7e0e 7cbc 218b 1f3e 49a4 a43d
00000360: 0d9c babd fdd3 d83b 250f ad3d 8e26 0fbd
00000370: 6897 19bd e7e1 0bbd ca95 04bd ed90 ac3d
00000380: 009d d93d e799 1fbe a07d efbd 070c 95bc
00000390: 97a7 893d 744d 0abe 8986 363e f949 41bd
000003a0: 7c0d 2fbe a2ff d1bc ae33 3ebe 507c a93d
000003b0: 7e9b 3cbd c1a4 c8bb 9727 623d d513 f9bd
000003c0: 8704 223e 0702 6bbd 1f4e d8bc 74a3 b23c
000003d0: e97f 273e 7e59 debc 9a06 37bc 048d 2cbe
000003e0: 765f 2bbb 64d6 573e 4be0 f73d 93af eabd
000003f0: 32d3 1abd 94ac babd 7ed6 e03b 2077 ddbd

rnn.bias_ih_l0 f4 [256]
0.07427963 -0.041902933 0.11975099 0.13825525 -0.062896475 0.016243787 -0.018346092 0.18895692
0.019701038 0.0030885264 0.17097771 0.114214905 0.15808702 -0.07248485 0.090052046 0.1497091
0.19975822 -0.08205352 -0.045560993 0.15679687 0.14667581 0.11678825 0.12610942 0.060979288
0.041612823 0.113596804 -0.05112394 -0.039084826 -0.03284404 -0.0031308008 0.0662129 0.087385625
0.009786168 -0.008883806 0.10893968 -0.021259563 0.06890679 -0.057176244 0.1837389 0.0981533
0.16950367 0.04292309 -0.031938776 0.049918257 -0.030642368 0.008844548 -0.025483143 -0.07538723
0.13171752 0.20658213 0.23628342 0.14835168 -0.0028617557 0.012683862 0.115565784 0.07839179
-0.10296243 -0.03051703 -0.062387515 0.008738663 0.047918335 0.074626185 0.17272946 0.04946607
0.09509272 -0.01724412 0.13033868 0.06280652 0.02319953 0.0856551 -0.09065838 -0.096487105
-0.0763541 -0.035896458 0.10619544 0.037843976 -0.14195153 0.09045537 -0.021964828 -0.024298897
-0.055695217 0.025515428 0.094816275 -0.117486775 -0.10514496 -0.074672125 0.069359 -0.044914898
0.008057485 -0.048560392 -0.09977154 -0.009040035 0.00088196085 0.040340826 -0.06680919 -0.07672915
-0.11764807 -0.09499465 0.0004717765 0.031223241 0.0006998981 -0.027375186 -0.015071883 0.05314399
-0.10774237 0.0029975914 -0.108916126 -0.110081695 0.0037341905 0.002026983 -0.13960667 0.07439907
0.04827009 -0.110866815 -0.13142219 -0.016393855 -0.032382 0.04049192 0.06038369 -0.048547085
-0.03459103 -0.11994077 -0.111503 -0.0072526257 0.015690675 -0.06607803 -0.081007764 -0.11753153
0.08879861 0.04161862 -0.06366402 0.09439922 -0.10022247 -0.019413693 -0.10501371 0.033026468
-0.09505309 0.088850625 -0.054817136 0.10546178 -0.0508726 -0.049970392 0.060967203 -0.056220304
-0.013508065 0.037804987 -0.103442565 -0.05609149 0.10029194 -0.06287402 -0.0659072 -0.07473377
-0.068412945 0.017059714 0.07273583 -0.030675614 0.063494675 0.04310864 0.04177069 -0.05504319
0.10674754 -0.10312568 -0.086038515 0.10663034 -0.035434216 -0.05425315 0.07539727 0.037076917
-0.016347932 0.0068293307 -0.06609858 0.06825686 0.05972175 0.027823232 -0.06658716 -0.016014555
0.084268324 0.093965694 -0.025074756 -0.004649112 0.06877836 -0.11241778 0.021893961 -0.058997095
-0.06551462 0.063798316 -0.0102774985 -0.050958626 0.0672434 -0.08886716 -0.116746 -0.0041088015
0.04197751 -0.061016776 0.16200316 0.17735036 0.11182109 0.054481596 0.03113904 -0.020601975
-0.024410434 -0.010123225 0.109445915 -0.11143714 0.019516781 0.13626488 -0.0067417542 0.100968294
0.16422608 0.10710865 0.109358706 0.09475955 0.11464065 0.20895396 0.24835429 0.1247266
0.07240481 -0.07320145 -0.01463952 -0.0032469037 0.15608743 0.10857664 0.030132564 0.0057767564
-0.04147134 -0.0059613716 0.084469385 0.10245998 0.06764307 0.076581724 0.13137694 0.026665807
0.050567813 0.024093682 -0.047393747 0.025065554 -0.06984569 0.15497333 0.13270883 -0.052069906
0.07350346 0.13763572 0.14853175 -0.021835988 0.041814722 0.09445456 0.055390198 -0.08464026
0.049465206 -0.021684665 -0.004333684 0.08758833 0.04024 0.11400108 0.052897338 -0.06311174
00000000: eb1f 983d 69a2 2bbd 0240 f53d c992 0d3e
00000010: decf 80bd b111 853c 8b4a 96bc ec7d 413e
00000020: 1264 a13c e068 4a3b c814 2f3e 81e9 e93d
00000030: 90e1 213e f072 94bd 356d b83d 584d 193e
00000040: 6b8d 4c3e ad0b a8bd 2a9e 3abd 5c8f 203e
00000050: 2f32 163e ae2e ef3d d422 013e 6bc5 793d
00000060: 3572 2a3d 71a5 e83d 5667 51bd 6917 20bd
00000070: 7987 06bd 1f2e 4dbb a19a 873d 3cf7 b23d
00000080: 2a56 203c 628d 11bc c41b df3d 8928 aebc
00000090: 011f 8d3d a331 6abd 0d26 3c3e 9904 c93d
000000a0: 5f92 2d3e 1fd0 2f3d 3cd2 02bd 1677 4c3d
000000b0: b405 fbbc b9e8 103c 06c2 d0bc 9f64 9abd
000000c0: f5e0 063e 448a 533e 48f4 713e 81e9 173e
000000d0: 4b8c 3bbb f9cf 4f3c c1ad ec3d e08b a03d
000000e0: f7dd d2bd dafe f9bc 0d8a 7fbd 9c2c 0f3c
000000f0: 0446 443d 9dd5 983d fedf 303e ef9c 4a3d
00000100: f9bf c23d 8a43 8dbc 8177 053e b4a0 803d
00000110: f10c be3c f16b af3d 1aab b9bd 089b c5bd
00000120: 8a5f 9cbd 2a08 13bd ff7c d93d 4902 1b3d
00000130: be5b 11be aa40 b93d 95ef b3bc 7b0e c7bc
00000140: ab20 64bd bb05 d13c 092f c23d e89c f0bd
00000150: 3e56 d7bd b3ed 98bd 170c 8e3d aff8 37bd
00000160: 8b03 043c 43e7 46bd 0555 ccbd a81c 14bc
00000170: 6433 673a 6c3c 253d 42d3 88bd 2c24 9dbd
00000180: 79f1 f0bd 8e8c c2bd c558 f739 e2c7 ff3c
00000190: 5e79 373a ed41 e0bc 0ff0 76bc 83ad 593d
000001a0: 08a8 dcbd 3d73 443b 6b0f dfbd 8372 e1bd
000001b0: 52b9 743b 22d7 043b 0df5 0ebe 8a5e 983d
000001c0: dcb6 453d 240e e3bd 8a93 06be 684c 86bc
000001d0: fda2 04bd dbda 253d e354 773d 4fd9 46bd
000001e0: 53af 0dbd 82a3 f5bd af5b e4bd 6fa7 edbb
000001f0: bb89 803c eb53 87bd 66e7 a5bd 5fb4 f0bd
00000200: 0cdc b53d 4978 2a3d 4862 82bd 6154 c13d
00000210: 7041 cdbd 7709 9fbc 6e11 d7bd c346 073d
00000220: 32ab c2bd 51f7 b53d ef87 60bd 59fc d73d
00000230: ca5f 50bd c1ad 4cbd bfb8 793d 4347 66bd
00000240: ee50 5dbc 67d9 1a3d b2d9 d3bd 31c0 65bd
00000250: dc65 cd3d 18c4 80bd 5bfa 86bd 050e 99bd
00000260: 161c 8cbd d0c0 8b3c 86f6 943d 6d4b fbbc
00000270: 7f09 823d af92 303d be17 2b3d f874 61bd
00000280: 749e da3d 8e33 d3bd f634 b0bd 0261 da3d
00000290: 7823 11bd 8d38 5ebd e269 9a3d f7dd 173d
000002a0: 19ec 85bc 94c8 df3b b15e 87bd 41ca 8b3d
000002b0: cb9e 743d 8ced e33c d95e 88bd f530 83bc
000002c0: df94 ac3d 1671 c03d 9369 cdbc 9457 98bb
000002d0: abdb 8c3d 4b3b e6bd f75a b33c f0a6 71bd
000002e0: 872c 86bd b1a8 823d f462 28bc feb9 50bd
000002f0: e8b6 893d fcff b5bd 8718 efbd 20a3 86bb
00000300: 9cf0 2b3d baec 79bd 28e4 253e 559b 353e
00000310: 7502 e53d 1828 5f3d 4d17 ff3c 79c5 a8bc
00000320: 64f8 c7bc e2db 25bc 2e25 e03d 2839 e4bd
00000330: a8e1 9f3c 0589 0b3e efe9 dcbb 77c8 ce3d
00000340: e22a 283e c85b db3d 75f7 df3d 4c11 c23d
00000350: b8c8 ea3d 07f8 553e 9650 7e3e a970 ff3d
00000360: f948 943d a4ea 95bd 99da 6fbc 01ca 54bb
00000370: 62d5 1f3e 6e5d de3d 91d8 f63c f24a bd3b
00000380: dadd 29bd 9c57 c3bb 49fe ac3d 8ad6 d13d
00000390: 7388 8a3d e1d6 9c3d ad87 063e 4072 da3c
000003a0: 3220 4f3d 1d60 c53c f21f 42bd 4756 cd3c
000003b0: 420b 8fbd 54b1 1e3e d3e4 073e 4147 55bd
000003c0: fb88 963d 61f0 0c3e b518 183e 63e1 b2bc
000003d0: ea45 2b3d 6471 c13d d5e0 623d df57 adbd
000003e0: 079c 4a3d 0aa4 b1bc 9401 8ebb 8361 b33d
000003f0: b3d2 243d 6679 e93d e1aa 583d ba40 81bd

rnn.bias_hh_l0 f4 [256]
0.058346838 0.0769357 0.18702495 -0.0143583 0.0034591581 0.05988125 -0.02206155 0.06389895
-0.038207155 -0.050223153 0.16694102 -0.0013988534 0.10657917 0.036505077 0.028866127 0.11372856
0.022486223 -0.01768431 0.15661168 -0.018408692 0.09584525 0.06295676 0.16356938 -0.07342036
0.12424862 -0.013987586 -0.035882607 0.038805474 0.022253878 -0.03010971 0.057488967 -0.0033526183
0.030904591 0.11769841 0.116033286 0.0071563045 0.120453216 -0.030498425 0.07919904 -0.03983731
0.05008681 0.13588728 -0.007869529 0.0524571 0.12716857 0.05037179 0.056487646 0.01842356
-0.056855228 -0.013003118 0.20750046 0.124335736 0.10925873 -0.036886133 0.016681151 -0.055138968
0.08755738 -0.01604113 0.098619096 0.013612014 0.13658969 -0.08373473 0.19123715 -0.045828167
0.024516877 0.118381836 -0.081426114 0.09148209 -0.09455481 0.0036052477 -0.09707032 0.028916266
-0.05503514 0.029347496 -0.12870465 -0.07476502 0.056130722 0.06353076 -0.058151506 0.05683776
0.049275193 0.0009294976 -0.041215945 -0.11920352 0.032920193 -0.007875376 -0.05473857 0.06337953
0.10990918 -0.08515148 0.045931116 0.09428228 -0.12871625 -0.011723518 -0.12899145 -0.056263033
-0.08428415 0.08362186 0.021818899 -0.0024541928 -0.0836558 0.09027174 -0.008985309 -0.10578931
-0.08834356 -0.08486871 0.12068411 0.050532654 -0.080670014 0.007370559 -0.067950495 0.098876834
0.07223864 0.007820955 0.093759336 -0.040074907 0.061098386 0.0029320258 -0.010082161 -0.04929861
-0.01536182 -0.08432934 -0.070284255 -0.04463989 -0.045541234 -0.030847218 -0.08695671 -0.044820096
-0.0994564 0.0899088 -0.07334732 -0.089906536 0.11856921 0.10064098 -0.0614313 0.061541293
-0.06136867 0.0075335084 0.09164005 0.011207109 -0.004460622 0.024887225 -0.024882704 0.00439984
0.07500346 0.06236591 -0.01315115 0.011422061 -0.088208824 -0.0059350776 0.042617604 0.095809825
-0.089138955 0.10183819 -0.034709707 -0.09840525 0.03886541 0.02667624 -0.08215102 0.08181207
-0.011620439 0.028318252 -0.043738257 -0.108113095 -0.025238138 0.022169484 0.01672234 0.08197407
-0.043174703 -0.08636311 0.018525323 0.07386903 -0.08083557 -0.08462824 0.014743194 -0.102588385
0.015649721 -0.024171267 0.00017524895 0.033304486 0.10248558 -0.054898918 0.115244515 0.022823632
-0.017141938 0.054159876 -0.0038213728 0.021776855 -0.029305909 0.042787597 -0.04606977 -0.063214436
0.15792046 -0.10642025 0.052551452 0.19868205 -0.03542552 -0.0025990335 -0.0013561907 -0.02621063
0.037259366 0.016572697 -0.05603374 0.08005971 0.06858453 -0.07473361 0.12464486 -0.0049041817
-0.0010128757 0.08915776 0.08269218 -0.0140262665 0.14288674 0.081641175 0.11250937 0.10992851
-0.12551835 0.027713848 0.12026245 -0.0015987605 0.13788089 0.094704345 0.0492082 0.094180256
-0.057234913 -0.043983895 -0.060443256 0.012780081 0.011060618 0.012542522 0.00556868 0.07349066
0.062394496 0.19162706 -0.051306613 0.082014024 0.13578756 0.1631031 -0.064714245 -0.06977321
0.11303353 -0.027651988 0.14191215 0.097667865 0.067197815 0.044258922 0.124022745 0.07158094
0.07022958 -0.009630418 -0.055130865 0.058520593 0.18444729 0.055510275 0.12316092 -0.09628034
00000000: 18fd 6e3d 7790 9d3d 7883 3f3e 133f 6bbc
00000010: 0bb3 623b 0b46 753d 6cba b4bc 74dd 823d
00000020: 1b7f 1cbd cbb6 4dbd 96f2 2a3e bb59 b7ba
00000030: 2e46 da3d 5986 153d a878 ec3c 85ea e83d
00000040: 0735 b83c b0de 90bc d05e 203e d3cd 96bc
00000050: 844a c43d 79ef 803d bb7e 273e 6a5d 96bd
00000060: 0f76 fe3d 302c 65bc a4f9 12bd 7df2 1e3d
00000070: c44d b63c a3a8 f6bc 8d79 6b3d 9ab7 5bbb
00000080: a02b fd3c dd0b f13d dca2 ed3d 6f7f ea3b
00000090: 2db0 f63d d5d7 f9bc 1b33 a23d 722c 23bd
000000a0: d427 4d3d 0926 0b3e 32ef 00bc 42dd 563d
000000b0: 7a38 023e a652 4e3d 975f 673d 01ed 963c
000000c0: 07e1 68bd 080b 55bc 007b 543e bca3 fe3d
000000d0: 0bc3 df3d ea15 17bd e9a6 883c 66d9 61bd
000000e0: 4951 b33d b068 83bc cff8 c93d ed04 5f3c
000000f0: 2bde 0b3e 1d7d abbd acd3 433e 51b6 3bbd
00000100: 9ed7 c83c 2d72 f23d bcc2 a6bd f65a bb3d
00000110: f4a5 c1bd 0546 6c3b cecc c6bd cee1 ec3c
00000120: 876c 61bd 296a f03c 27cb 03be 671e 99bd
00000130: 54e9 653d 6a1c 823d 4630 6ebd b6ce 683d
00000140: c9d4 493d 87a9 733a 0dd2 28bd fa20 f4bd
00000150: 53d7 063d b907 01bc 8d35 60bd 21cd 813d
00000160: 1018 e13d e663 aebd 4422 3c3d 1117 c13d
00000170: 31ce 03be 0014 40bc 5616 04be 1174 66bd
00000180: 2b9d acbd f041 ab3d 8cbd b23c 86d6 20bb
00000190: bb53 abbd 64e0 b83d 1e37 13bc 11a8 d8bd
000001a0: 78ed b4bd a5cf adbd 3b29 f73d 54fb 4e3d
000001b0: 5236 a5bd bb84 f13b a129 8bbd f07f ca3d
000001c0: daf1 933d 7623 003c e504 c03d 9625 24bd
000001d0: 4d42 7a3d 3b27 403b a62f 25bc 57ed 49bd
000001e0: 25b0 7bbc dcb4 acbd 31f1 8fbd 51d8 36bd
000001f0: 7289 3abd 4eb3 fcbc 5c16 b2bd 4795 37bd
00000200: ccaf cbbd 1b22 b83d 1f37 96bd eb20 b8bd
00000210: 6ad4 f23d dc1c ce3d 639f 7bbd b912 7c3d
00000220: b75d 7bbd a6db f63b c7ad bb3d 069e 373c
00000230: 692a 92bb 4be0 cb3c d0d6 cbbc 882c 903b
00000240: 6a9b 993d 6573 7f3d ec77 57bc 9923 3b3c
00000250: d4a6 b4bd 0a7b c2bb cc8f 2e3d f137 c43d
00000260: 7c8e b6bd 8a90 d03d c42b 0ebd b188 c9bd
00000270: 5631 1f3d 2188 da3c cb3e a8bd 168d a73d
00000280: a763 3ebc aefb e73c e326 33bd 666a ddbd
00000290: 36c0 cebc c79c b53c 4afd 883c 05e2 a73d
000002a0: f5d7 30bd 24df b0bd 6bc2 973c a548 973d
000002b0: 1f8d a5bd 9251 adbd 708d 713c dc19 d2bd
000002c0: d833 803c d202 c6bc 08c3 3739 496a 083d
000002d0: f6e3 d13d b0dd 60bd 5105 ec3d a0f8 ba3c
000002e0: 406d 8cbc bfd6 5d3d ff6f 7abb 6065 b23c
000002f0: f212 f0bc 0c42 2f3d a8b3 3cbd 9276 81bd
00000300: e7b5 213e dcf2 d9bd 3140 573d 4f73 4b3e
00000310: 5a1a 11bd 8c54 2abb 35c2 b1ba adb7 d6bc
00000320: 479d 183d 77c3 873c a383 65bd 58f6 a33d
00000330: 0c76 8c3d ef0d 99bd ce45 ff3d 42b3 a0bb
00000340: 78c2 84ba 5898 b63d 855a a93d 6dce 65bc
00000350: e750 123e 7d33 a73d 506b e63d 3322 e13d
00000360: e287 00be 2708 e33c 294c f63d 808d d1ba
00000370: a630 0d3e 5af4 c13d 8a8e 493d 94e1 c03d
00000380: 286f 6abd 7528 34bd 5993 77bd 8b63 513c
00000390: 9837 353c 267f 4d3c 7979 b63b 4582 963d
000003a0: 5f91 7f3d e239 443e e226 52bd f8f6 a73d
000003b0: e50b 0b3e 8004 273e e788 84bd 42e5 8ebd
000003c0: 207e e73d 6c86 e2bc 6b51 113e 1706 c83d
000003d0: 029f 893d d848 353d a3ff fd3d 0799 923d
000003e0: 87d4 8f3d e7c8 1dbc e7d0 61bd 4ab3 6f3d
000003f0: c0df 3c3e be5e 633d cb3b fc3d a02e c5bd

rnn.weight_ih_l1 f4 [256, 64]
0.023692781 -0.048751708 -0.12870911 0.08122747 0.1415059 0.097297855 0.07955928 0.120304935
-0.14578137 0.17151195 -0.12966128 0.078910366 -0.09676429 -0.15183124 -0.029063607 -0.121665284
0.046995036 0.12866038 0.079182245 0.10569598 0.022119487 -0.124074645 0.14369869 -0.028593013
-0.08949223 -0.0053201797 0.057697214 -0.04386152 -0.15389268 0.025702223 0.02315258 -0.0062743155
0.055656437 -0.16123007 -0.02747945 0.13071418 0.101480305 0.02798418 0.15939213 -0.056719963
0.08451936 -0.037228294 0.008435753 0.04488494 -0.094193704 0.04786891 -0.008858864 -0.09026579
0.14731796 0.0593722 -0.14067698 0.15568444 0.043740936 -0.1670715 0.0051111365 -0.028793612
-0.07246624 0.078198716 0.10734893 0.059818532 0.020590452 -0.0189148 -0.015074047 0.056270692
-0.015094983 0.05929302 0.13799226 -0.07747198 0.0017221757 -0.04039116 0.059379186 0.11706839
-0.038363542 -0.0150682675 0.09932327 -0.0117739625 0.04790863 -0.11457218 0.13552582 0.09481284
-0.05207471 -0.02359078 0.051324546 0.031316064 -0.09103733 0.1334823 0.033396017 -0.08574329
0.020871295 0.08774889 0.16364658 -0.10320413 -0.029561535 0.16049282 -0.024265772 0.05645135
-0.08676468 0.04512245 -0.0469994 0.0420707 0.08952597 0.0017097928 0.053251825 0.16060038
-0.0034933498 -0.017709952 -0.027099852 -0.032465693 0.014669664 -0.09787853 -0.10582669 0.03471707
0.18157643 -0.07694312 0.09342318 -0.06367937 0.029193537 0.10876459 -0.031180741 -0.047251523
-0.12616254 0.014669463 -0.0947869 0.0333839 0.008047023 -0.09681606 0.060868066 0.04930054
-0.11787687 0.013928855 0.04830099 -0.07161601 0.15854736 -0.07643636 -0.06831521 0.10451246
0.066646226 -0.06403897 0.041925177 -0.092989996 0.0052593127 -0.012053783 -0.08257872 -0.026937224
-0.10849042 0.09260893 0.0637398 0.020751089 0.18325438 -0.08182958 0.15294912 0.038131632
0.07287882 0.040544108 0.082521856 -0.072386235 0.059011858 0.11265176 -0.053606298 0.076784045
0.1339416 -0.0488366 0.029185098 0.086037025 -0.10311328 -0.04484985 0.023773752 -0.05872023
-0.11010278 -0.04523036 -0.08695463 -0.03350656 0.07418244 0.020323599 0.06603634 -0.013646588
-0.054237 0.029917046 -0.07048181 0.14743015 0.048135124 0.08142999 0.049115162 0.085892886
0.11227817 0.034207247 0.10671493 -0.04844199 -0.14670162 -0.10198815 0.03072972 -0.055490073
-0.13688643 0.10128793 0.08919007 0.022250913 0.03223141 -0.028825035 -0.046092547 -0.03899782
0.018045824 0.06720073 0.028338872 -0.047635924 -0.111459 -0.005993555 -0.017192626 0.0037016196
-0.036504548 -0.059447765 0.093927324 -0.09053168 0.05782807 -0.12771428 0.04994804 -0.016045302
0.0023212158 -0.059988726 0.03906514 0.046476033 -0.16748744 0.058545824 -0.06909733 0.0074423566
0.035163533 -0.0342984 0.0688135 0.15921964 -0.080585584 0.019392813 -0.018185265 0.062280837
0.0077695292 -0.059353232 -0.10234194 -0.024718422 0.11777717 0.044154216 -0.0035223702 0.023876999
-0.081375845 -0.018730722 0.024699068 -0.06471159 0.07834474 -0.055931635 0.012352614 -0.08179963
-0.08869145 0.04445818 -0.098218694 -0.027381409 -0.14549494 0.09851284 -0.052093457 0.011775343
00000000: 5d17 c23c dfaf 47bd 52cc 03be 965a a63d
00000010: ece6 103e 1944 c73d faef a23d 6f62 f63d
00000020: b647 15be d4a0 2f3e edc5 04be c29b a13d
00000030: 5b2c c6bd a679 1bbe cd16 eebc a62b f9bd
00000040: de7d 403d 8cbf 033e 4d2a a23d 2277 d83d
00000050: ed33 b53c d91a febd c025 133e e53b eabc
00000060: b447 b7bd e754 aebb ea53 6c3d 23a8 33bd
00000070: 0b96 1dbe 788d d23c 7baa bd3c c698 cdbb
00000080: 01f8 633d 7f19 25be 951c e1bc f0d9 053e
00000090: e8d4 cf3d 143f e53c b137 233e 3153 68bd
000000a0: 7c18 ad3d b27c 18bd 1d36 0a3c 45d9 373d
000000b0: a1e8 c0bd 3112 443d c524 11bc 45dd b8bd
000000c0: 85da 163e 4430 733d a00d 10be be6b 1f3e
000000d0: b229 333d cb14 2bbe 527b a73b 95e0 ebbc
000000e0: 2e69 94bd a626 a03d c1d9 db3d 4704 753d
000000f0: 4fad a83c 36f3 9abc 23f9 76bc 197c 663d
00000100: f350 77bc 3ddd 723d d84d 0d3e a1a9 9ebd
00000110: a1ba e13a 3371 25bd 9737 733d 8dc1 ef3d
00000120: 1723 1dbd e5e0 76bc 006a cb3d 94e7 40bc
00000130: d73b 443d d2a4 eabd 48c7 0a3e 3c2d c23d
00000140: 4b4c 55bd 7441 c1bc b039 523d 4645 003d
00000150: c871 babd 96af 083e 43ca 083d 2e9a afbd
00000160: 47fa aa3c b1b5 b33d f892 273e b05c d3bd
00000170: 082b f2bc 3b58 243e 03c9 c6bc 8839 673d
00000180: aeb1 b1bd 51d2 383d 7182 40bd 5452 2c3d
00000190: 6459 b73d 201b e03a 961e 5a3d 6d74 243e
000001a0: aff0 64bb 7614 91bc 8200 debc bffa 04bd
000001b0: 0859 703c 8a74 c8bd aabb d8bd 7d33 0e3d
000001c0: 2cef 393e 5b94 9dbd a754 bf3d 546a 82bd
000001d0: 4927 ef3c f8bf de3d c16e ffbc d08a 41bd
000001e0: c130 01be 3058 703c a21f c2bd 8ebd 083d
000001f0: a9d7 033c 8047 c6bd cb50 793d 5def 493d
00000200: 6e69 f1bd da35 643c 42d7 453d 6aab 92bd
00000210: 3d5a 223e ab8a 9cbd d8e8 8bbd a10a d63d
00000220: d17d 883d dd26 83bd bcb9 2b3d 8a71 bebd
00000230: 5056 ac3b 3b7d 45bc 081f a9bd 74ab dcbc
00000240: 3a30 debd c0a9 bd3d 038a 823d 30fe a93c
00000250: 09a7 3b3e 4496 a7bd b29e 1c3e ea2f 1c3d
00000260: 7e41 953d 9411 263d 3801 a93d 3c3f 94bd
00000270: 6bb6 713d f7b5 e63d 4792 5bbd f440 9d3d
00000280: fd27 093e e308 48bd 9615 ef3c 2e34 b03d
00000290: 0e2d d3bd 7ab4 37bd 2cc1 c23c a084 70bd
000002a0: 917d e1bd 7843 39bd 4515 b2bd 2d3e 09bd
000002b0: f7ec 973d ad7d a63c 103e 873d f095 5fbc
000002c0: 9e27 5ebd 9814 f53c c458 90bd eef7 163e
000002d0: 5629 453d c4c4 a63d fb2c 493d 9ce8 af3d
000002e0: 19f2 e53d e61c 0c3d 5b8d da3d 1c6b 46bd
000002f0: f338 16be 2adf d0bd e5bc fb3c 8f49 63bd
00000300: f52b 0cbe 0c70 cf3d 49a9 b63d 8c47 b63c
00000310: 1505 043d 7b22 ecbc 8acb 3cbd 2ebc 1fbd
00000320: d6d4 933c 89a0 893d ec26 e83c e31d 43bd
00000330: 9e44 e4bd 9565 c4bb 8dd7 8cbc df96 723b
00000340: cb85 15bd 807f 73bd f85c c03d ac68 b9bd
00000350: 20dd 6c3d 88c7 02be 5196 4c3d 7071 83bc
00000360: 8a1f 183b bdb6 75bd c502 203d a75d 3e3d
00000370: d481 2bbe bfcd 6f3d e782 8dbd 03df f33b
00000380: a307 103d 7b7c 0cbd 18ee 8c3d 790a 233e
00000390: 0e0a a5bd addd 9e3c 44f9 94bc 311a 7f3d
000003a0: 8997 fe3b 601c 73bd a798 d1bd 4a7e cabc
000003b0: 2835 f13d 0ddb 343d 91d7 66bb b299 c33c
000003c0: 61a8 a6bd 2c71 99bc b355 ca3c 8387 84bd
000003d0: 3573 a03d 9218 65bd 9e62 4a3c 9086 a7bd
000003e0: dda3 b5bd c819 363d e226 c9bd fa4e e0bc
000003f0: a0fc 14be 1ac1 c93d f35f 55bd 5eed 403c

rnn.weight_hh_l1 f4 [256, 64]
-0.013701788 0.015008781 0.012087608 0.028676104 -0.05089058 0.011840216 0.16530223 -0.09964859
0.09875462 0.07117327 0.052891724 0.092161074 0.006037712 0.09006254 0.0961524 0.09644011
0.12683696 -0.06661781 -0.09927318 0.010740298 0.015954554 0.10642261 -0.05873313 0.08916354
0.056294244 0.043122217 0.012865331 0.122342914 -0.12372035 0.037115004 -0.06760188 0.13587187
0.0012342687 -0.1505343 0.086753 0.0747986 0.123330906 0.026792865 -0.17781073 0.025619173
-0.20124297 -0.052934207 0.030437935 -0.009607181 -0.010125363 -0.044649296 0.1208965 0.01416275
0.07307755 -0.06554177 -0.1214401 -0.05256936 -0.071704924 -0.03738263 0.1549452 -0.036702357
0.07752078 0.030401401 0.055715933 0.09799672 0.10397017 -0.12018102 -0.014098113 -0.0030013162
-0.11152213 -0.056559842 0.15310228 0.001971643 -0.0361311 -0.10660532 -0.08946516 -0.12641378
-0.02690491 0.08935337 -0.10386527 -0.07402038 0.10588845 -0.05005222 -0.09839305 0.09783149
-0.049934868 -0.06634012 -0.12336151 -0.087124676 -0.07299621 0.07342799 0.11615048 0.05266006
0.057966743 0.11422242 0.051123396 0.06126557 0.02408917 0.112632506 0.11211906 0.085900605
0.017726893 -0.033145983 0.06919107 0.077545315 0.13835827 -0.06454092 -0.001776753 0.095074795
-0.16286837 0.034482162 0.1378428 -0.10250184 -0.04636573 0.10694609 -0.059247628 0.0032931832
-0.04874388 0.0027616664 -0.098608494 -0.103999734 -0.087902375 0.031697102 -0.06785849 0.08523486
-0.09144926 -0.020355582 0.049543355 0.06427454 -0.088510334 0.036362622 0.05570428 -0.01797073
0.057092674 0.09836968 -0.00898551 0.10021724 0.068543695 0.031187125 -0.08045408 -0.111197226
0.054992583 -0.030597474 -0.067759156 -0.018841779 0.0002529053 0.0699545 0.03490447 0.047309615
0.008953937 0.07623214 -0.096049085 -0.1374334 -0.07548929 -0.0034261618 -0.05430002 -0.0006576764
0.0044727554 -0.07079345 -0.034824464 0.07346082 -0.03907086 0.09375672 0.09925482 0.065803215
-0.022046614 -0.054529738 -0.08613011 0.008989634 -0.026427923 -0.03570402 0.09802953 -0.049117286
-0.047971606 0.05745484 0.07850467 -0.0026423386 0.045437247 -0.09197685 -0.007802161 -0.069244795
-0.09502273 -0.0679787 0.014801577 -0.05558342 0.0164592 -0.07567793 -0.05657249 0.023296833
-0.015723696 0.06734241 -0.09435046 0.0007719677 0.072285496 0.083505556 0.099052384 -0.03035827
-0.03030315 0.10796491 0.054768275 -0.0068579596 0.014591801 -0.05993094 -0.11977791 -0.018313276
0.010738234 0.05792552 -0.06615365 -0.029632447 0.058370292 -0.05004091 -0.025458258 0.10106234
0.06074711 -0.010319579 -0.08663721 -0.014767208 -0.18592739 0.05072204 -0.058362417 -0.013909489
0.0968656 0.048212558 -0.043558273 0.1588494 -6.808634e-05 0.07427221 0.15022177 0.07290494
-0.10698094 -0.111794785 -0.12638123 -0.06479747 -0.10672538 -0.015331788 0.03355114 0.031054031
-0.028489884 0.046845935 0.026392387 -0.05949559 0.10155603 0.017284157 -0.119499385 -0.052253094
-0.07833664 0.103094645 0.0798529 0.03608482 0.049979642 -0.037104424 -0.04160113 0.059544977
0.012216336 0.10785532 0.13284278 -0.09979491 0.08079126 0.040409807 -0.12562902 0.044442464
00000000: 777d 60bc 64e7 753c 1a0b 463c 26ea ea3c
00000010: a472 50bd 77fd 413c fd44 293e 8f14 ccbd
00000020: dd3f ca3d 4bc3 913d fea4 583d f2be bc3d
00000030: 00d8 c53b b572 b83d 8deb c43d 6482 c53d
00000040: 8ce1 013e eb6e 88bd bd4f cbbd 13f8 2f3c
00000050: 20b3 823c 19f4 d93d 2792 70bd 609b b63d
00000060: cb94 663d eca0 303d 1cc9 523c ec8e fa3d
00000070: 1861 fdbd e705 183d db72 8abd ff21 0b3e
00000080: 2fc7 a13a aa25 1abe 8fab b13d 0230 993d
00000090: ea94 fc3d b67c db3c 0414 36be 4ddf d13c
000000a0: a312 4ebe 8ad1 58bd fa58 f93c 7067 1dbc
000000b0: dae4 25bc 2ee2 36bd 9698 f73d e10a 683c
000000c0: afa9 953d c33a 86bd 96b5 f8bd f852 57bd
000000d0: 08da 92bd 871e 19bd f4a9 1e3e 3655 16bd
000000e0: 37c3 9e3d 5c0c f93c 6436 643d 81b2 c83d
000000f0: 50ee d43d 7721 f6bd c6fb 66bc bbb1 44bb
00000100: b765 e4bd 4bab 67bd d8c6 1c3e ae36 013b
00000110: 34fe 13bd e453 dabd 8339 b7bd 9d72 01be
00000120: b067 dcbc e6fe b63d 51b7 d4bd ff97 97bd
00000130: 0bdc d83d 8e03 4dbd 4c82 c9bd e05b c83d
00000140: 8188 4cbd 54dd 87bd f6a4 fcbd 6c6e b2bd
00000150: 097f 95bd 6a61 963d 4ee0 ed3d 13b2 573d
00000160: 896e 6d3d 72ed e93d c466 513d 9bf1 7a3d
00000170: a756 c53c dfab e63d ad9e e53d a8ec af3d
00000180: fd37 913c 15c4 07bd 0cb4 8d3d 14d0 9e3d
00000190: caad 0d3e 082e 84bd f0e1 e8ba 93b6 c23d
000001a0: f7c6 26be 2b3d 0d3d aa26 0d3e 7cec d1bd
000001b0: fee9 3dbd 8d06 db3d a4ad 72bd 72d2 573b
000001c0: aaa7 47bd 13fd 343b 40f3 c9bd d0fd d4bd
000001d0: 2906 b4bd d2d4 013d 64f9 8abd 9d8f ae3d
000001e0: c049 bbbd c0c0 a6bc f9ed 4a3d 5fa2 833d
000001f0: e844 b5bd f9f0 143d 2c2a 643d 5a37 93bc
00000200: 02da 693d 0b76 c93d f637 13bc b23e cd3d
00000210: a360 8c3d 247c ff3c 1cc5 a4bd 5fbb e3bd
00000220: e73f 613d 8ea7 fabc 50c5 8abd 135a 9abc
00000230: 6098 8439 4e44 8f3d fdf7 0e3d bac7 413d
00000240: 89b3 123c 991f 9c3d 62b5 c4bd 57bb 0cbe
00000250: 219a 9abd 7589 60bb b369 5ebd eb67 2cba
00000260: 3190 923b 28fc 90bd 19a4 0ebd a072 963d
00000270: c408 20bd 8603 c03d 1c46 cb3d d6c3 863d
00000280: 1a9b b4bc 935a 5fbd fc64 b0bd 4249 133c
00000290: 5f7f d8bc 613e 12bd b5c3 c83d 352f 49bd
000002a0: e07d 44bd c455 6b3d 0ec7 a03d 162b 2dbb
000002b0: 681c 3a3d 5c5e bcbd 45a9 ffbb 37d0 8dbd
000002c0: 479b c2bd 6b38 8bbd 5082 723c 71ab 63bd
000002d0: 72d5 863c 08fd 9abd 8eb8 67bd 00d9 be3c
000002e0: fbce 80bc d1ea 893d d03a c1bd e05d 4a3a
000002f0: 6b0a 943d f604 ab3d fadb ca3d e8b1 f8bc
00000300: 503e f8bc b51c dd3d b354 603d bcb8 e0bb
00000310: 7312 6f3c 257a 75bd 1f4e f5bd b905 96bc
00000320: 6bef 2f3c 4f43 6d3d 917b 87bd bfbf f2bc
00000330: b015 6f3d b2f7 4cbd d68d d0bc c6f9 ce3d
00000340: f6d1 783d 7413 29bc d96e b1bd 29f2 71bc
00000350: c063 3ebe eac1 4f3d 6e0d 6fbd a0e4 63bc
00000360: 7961 c63d 887a 453d 296a 32bd 6ba9 223e
00000370: 93c9 8eb8 071c 983d bcd3 193e 2f4f 953d
00000380: d318 dbbd aaf4 e4bd 156a 01be 89b4 84bd
00000390: d692 dabd 2e32 7bbc ec6c 093d 0665 fe3c
000003a0: 9e63 e9bc 86e1 3f3d d934 d83c a6b1 73bd
000003b0: 9cfc cf3d 8197 8d3c 18bc f4bd 5707 56bd
000003c0: f66e a0bd 4923 d33d eb89 a33d adcd 133d
000003d0: 74b7 4c3d cffa 17bd f265 2abd 6fe5 733d
000003e0: 0727 483c 40e3 dc3d f007 083e 4661 ccbd
000003f0: e375 a53d c184 253d e5a4 00be 4d09 363d

rnn.bias_ih_l1 f4 [256]
0.14629674 -0.01949247 0.14698279 -0.09381197 0.14167862 0.05325801 -0.09140268 0.0330862
-0.0013089668 0.00801071 -0.08886473 0.13674787 0.04993948 0.08146984 0.13871236 0.05057749
0.116182685 -0.03875144 0.03539762 -0.06738962 0.12598372 -0.074121214 0.19377597 0.13206376
0.03157129 0.06432349 -0.051702507 0.024235027 0.21373075 -0.060742475 0.090415485 -0.055332463
-0.079572 -0.0066240197 -0.0070523825 0.0673904 -0.075768985 -0.015142423 0.0067129903 -0.04397615
0.11461444 0.17902935 0.04694734 0.009063739 -0.053271595 0.0074025504 -0.03835909 0.15497003
0.12553708 0.09643576 -0.03412055 0.0026762695 -0.14377898 -0.049408715 -0.034486882 -0.06613319
0.043314647 0.08321576 0.13462625 0.02613323 0.037641283 0.07274879 -0.0907859 0.010356389
-0.15744127 -0.06957403 0.07814719 -0.043619916 -0.054428343 -0.056152392 0.009147125 -0.0764108
0.009841366 0.08058621 0.05335616 -0.083990514 -0.12890497 -0.07190067 -0.087442905 -0.079082444
-0.075297855 -0.100489035 0.05046176 -0.074459076 -0.053735122 -0.09347023 0.0035036753 0.032111857
-0.03964541 -0.12234595 0.08741781 0.031245772 0.024831053 0.025295345 -0.03185021 0.06236785
0.0012323498 0.09966695 -0.11051144 -0.033208773 -0.06442299 -0.10866223 0.08243384 0.10962515
0.046732925 0.06988838 0.016168779 -0.030149238 0.029346995 -0.05509703 0.04335784 -0.047051426
-0.036273487 0.13589282 -0.12699041 0.009878736 -0.1345903 0.10140248 0.03492452 0.015013124
0.080698 -0.09678529 -0.0065749967 -0.07290718 0.06713644 0.06459199 -0.10856545 -0.084877655
0.09544505 -0.07103408 0.05097288 -0.096909024 0.101950064 0.021880854 0.09861555 -0.053846925
0.07217485 0.015857521 -0.087255426 -0.069233485 0.03949184 -0.041126255 0.028752021 -0.10599794
-0.08703655 0.06419493 -0.08913966 -0.05706622 -0.009916578 0.04954114 -0.1052145 0.08313097
0.05226413 0.09301933 0.017662084 0.036443826 -0.097465284 0.092747614 0.0028250832 0.0439776
-0.06491509 -0.030762771 -0.058937248 -0.00047759808 0.10307089 0.122483864 -0.104530044 0.07939433
-0.08971603 0.07818431 0.11894606 -0.06417358 -0.08760851 0.08476622 -0.114382125 0.009813881
-0.014635289 -0.069123834 0.0066116718 0.018885635 0.043787193 -0.087253265 -0.012682981 -0.027920736
-0.024751931 -0.01213135 0.050050937 0.08940394 0.050774075 0.05872279 0.006675956 -0.09202462
0.054070126 0.06269218 0.011914389 -0.035658475 0.14961678 -0.016716553 -0.07736515 0.064374596
0.20142686 0.023776395 -0.07479477 -0.051557805 0.11839755 -0.065545626 -0.011028791 0.019394659
0.0018309616 0.0658057 0.064417295 -0.13566874 0.1343203 -0.087178685 0.016631475 0.10890445
-0.020776281 -0.011647091 0.023348102 -0.0004270653 0.055227492 -0.0025320863 0.11707835 0.06253216
-0.10423251 0.009106725 0.0077154394 -0.07507546 -0.07753428 0.049463347 -0.06894666 0.051249754
0.05066814 0.058118958 0.079340674 0.008484517 -0.026975248 -0.03629264 0.034551945 0.09032198
0.09241685 0.0022156516 -0.021566633 -0.038939822 -0.11470959 0.08100051 -0.03839352 -0.0013584478
0.14888033 -0.104931764 0.01940846 -0.0729011 0.1148885 0.13299339 -0.019364903 0.058286514
00000000: d0ce 153e acae 9fbc a882 163e 7d20 c0bd
00000010: 3314 113e 1225 5a3d 5431 bbbd 6585 073d
00000020: a391 abba 5a3f 033c b6fe b5bd a207 0c3e
00000030: 578d 4c3d a9d9 a63d 9d0a 0e3e 582a 4f3d
00000040: 30f1 ed3d d4b9 1ebd 18fd 103d 9203 8abd
00000050: e001 013e ddcc 97bd 356d 463e b93b 073e
00000060: e650 013d 09bc 833d 02c6 53bd 8988 c63c
00000070: 3cdc 5a3e 1acd 78bd c12b b93d 4ba4 62bd
00000080: a5f6 a2bd 4e0e d9bb ac17 e7bb fa03 8a3d
00000090: c52c 9bbd ed17 78bc a5f8 db3b 5620 34bd
000000a0: faba ea3d 7853 373e db4b 403d 1480 143c
000000b0: 5133 5abd 1891 f23b 6c1e 1dbd 77b0 1e3e
000000c0: cb8c 003e 1d80 c53d fdc1 0bbd 5a64 2f3b
000000d0: cc3a 13be cb60 4abd 1e42 0dbd d770 87bd
000000e0: b36a 313d 066d aa3d 77db 093e 5b15 d63c
000000f0: bf2d 1a3d 51fd 943d f5ed b9bd d8ad 293c
00000100: 4938 21be d47c 8ebd a20b a03d ccaa 32bd
00000110: 41f0 5ebd 0d00 66bd d3dd 153c 447d 9cbd
00000120: ae3d 213c 620a a53d fd8b 5a3d 3803 acbd
00000130: aaff 03be a940 93bd 4415 b3bd faf5 a1bd
00000140: c335 9abd 32cd cdbd feb0 4e3d 007e 98bd
00000150: 5c19 5cbd 526d bfbd eb9d 653b b987 033d
00000160: 3a63 22bd 8390 fabd 1c08 b33d 22f7 ff3c
00000170: 7e6a cb3c 2f38 cf3c 5e75 02bd 6e75 7f3d
00000180: cc86 a13a 301e cc3d d253 e2bd ec05 08bd
00000190: 33f0 83bd 4e8a debd 13d3 a83d 2783 e03d
000001a0: 066b 3f3d a421 8f3d 6374 843c 89fb f6bc
000001b0: 1c69 f03c 6cad 61bd fe97 313d ffb8 40bd
000001c0: 8293 14bd 7d27 0b3e c609 02be 6cda 213c
000001d0: 0ad2 09be 1aac cf3d 030d 0f3d 9bf9 753c
000001e0: fe44 a53d 5e37 c6bd 1273 d7bb 5c50 95bd
000001f0: d47e 893d ce48 843d 9057 debd 56d4 adbd
00000200: b278 c33d 517a 91bd f0c8 503d 3d78 c6bd
00000210: 32cb d03d 7a3f b33c f3f6 c93d 988e 5cbd
00000220: 68d0 933d a2e7 813c f9b2 b2bd 49ca 8dbd
00000230: 32c2 213d 0174 28bd 5c89 eb3c 7315 d9bd
00000240: 3840 b2bd a278 833d db8e b6bd 45be 69bd
00000250: 2579 22bc a7eb 4a3d b37a d7bd 9240 aa3d
00000260: ea12 563d eb80 be3d 13b0 903c 1f46 153d
00000270: e19b c7bd 76f2 bd3d 0825 393b db21 343d
00000280: 34f2 84bd 3502 fcbc 2f68 71bd 2166 fab9
00000290: d516 d33d d2d8 fa3d d913 d6bd 7f99 a23d
000002a0: 0abd b7bd 181f a03d fe99 f33d 706d 83bd
000002b0: 176c b3bd e999 ad3d 2d41 eabd 66ca 203c
000002c0: dac8 6fbc cc90 8dbd b9a6 d83b 0cb6 9a3c
000002d0: 335a 333d d7b1 b2bd 47cc 4fbc 07ba e4bc
000002e0: 90c4 cabc 92c2 46bc 3602 4d3d 6a19 b73d
000002f0: 7af8 4f3d 4f87 703d fac1 da3b 6777 bcbd
00000300: a378 5d3d c264 803d 9234 433c 9f0e 12bd
00000310: 2435 193e 27f1 88bc 9f71 9ebd d4d6 833d
00000320: d842 4e3e b7c6 c23c 002e 99bd 472e 53bd
00000330: 6a7a f23d c93c 86bd 1ab2 34bc 8ce1 9e3c
00000340: e0fc ef3a 24c5 863d 37ed 833d bfec 0abe
00000350: 438b 093e bd8a b2bd bb3e 883c 4c09 df3d
00000360: 0533 aabc 71d3 3ebc 8544 bf3c bce7 dfb9
00000370: 3936 623d 5cf1 25bb c6c6 ef3d dc10 803d
00000380: db77 d5bd 6034 153c ccd1 fc3b 2ac1 99bd
00000390: 4bca 9ebd 149a 4a3d e833 8dbd 43eb 513d
000003a0: 6589 4f3d 250e 6e3d 5d7d a23d a502 0b3c
000003b0: 32fb dcbc 97a7 14bd 5786 0d3d bbfa b83d
000003c0: 0c45 bd3d 7734 113b 82ac b0bc 5d7f 1fbd
000003d0: ddec eabd 98e3 a53d 8642 1dbd f20d b2ba
000003e0: 1674 183e 77e6 d6bd 7efe 9e3c 2c4d 95bd
000003f0: a94a eb3d 6b2f 083e 25a3 9ebc d7bd 6e3d
