data/results/lstm_baseline_ETH_r15d.pt (torch, 220661 bytes, 9 tensors)

rnn.weight_ih_l0 f4 [256, 15]
0.055404153 -0.040634364 0.0021539778 0.17665444 -0.13226189 -0.077030204 0.015700772 -0.18436897
0.14298192 -0.06986175 -0.21763669 0.060866278 -0.15797272 0.09136469 -0.06077302 -0.08315974
0.29794967 -0.23636785 0.17761946 -0.17228176 -0.069337785 0.060590375 -0.26330215 0.202356
0.15847516 0.15788506 0.22089191 -0.21425436 0.06322482 0.01816057 0.0065386957 0.021140242
-0.11730662 0.14463402 -0.10929166 -0.096862115 -0.15143122 -0.0140019655 0.13391477 -0.04160462
-0.033335242 -0.06546842 -0.041705273 0.050366085 -0.11197979 0.06320399 0.026292995 -0.15327886
-0.0553449 0.15191266 0.1569451 0.0056179515 0.01944789 0.13721083 -0.010996954 0.035028502
0.19627899 -0.16047464 0.18950625 -0.05621096 0.08702073 -0.0067333626 -0.057590213 0.04294718
0.03993295 0.08395157 -0.11765573 -0.120578684 -0.15279101 -0.031312257 -0.004804662 0.029377827
0.022028828 -0.015879454 0.00987874 0.15824623 0.10656664 0.07155796 0.070780806 -0.15718107
-0.07864792 0.20075852 -0.16489899 -0.062252205 -0.02505596 0.11111443 0.018624833 -0.20270856
-0.102204755 -0.051696576 0.015873298 -0.13686593 -0.16551389 0.19446597 -0.058474116 -0.046073887
-0.0982781 -0.120064355 -0.010679139 -0.10981369 -0.036739673 -0.05536789 -0.1382181 -0.016726382
-0.06578732 0.0035106356 -0.010409447 0.08573438 -0.23929687 -0.36193398 -0.014728701 -0.07634456
0.0946987 -0.0559323 -0.15382305 -0.05270994 0.17025101 -0.10086239 0.15293965 -0.11579599
-0.008688975 0.2600573 -0.059309606 0.007055263 -0.087671846 0.057863925 0.024061266 -0.19145305
0.09219677 -0.015718007 0.11331199 0.036193307 -0.17937551 -0.0857582 -0.1343766 -0.05659285
0.068827845 -0.16104725 -0.2165534 0.02361559 0.07614699 0.07925462 -0.21888623 -0.21975407
0.0014475214 0.22168541 0.10384874 -0.07950616 0.040387373 0.012631104 -0.27692884 -0.24359299
-0.23344901 0.0033988704 -0.01766129 -0.1921494 0.02856635 -0.021030074 0.172195 -0.13961685
-0.09280019 0.09056382 -0.12085231 0.25792015 -0.4563974 0.16246952 0.079563245 -0.016685572
-0.03550991 0.10811606 0.18799338 -0.04019399 -0.1537993 -0.13301279 -0.0705669 -0.059281185
0.060915705 -0.458576 0.2053106 -0.1049522 -0.067839764 -0.06870916 -0.16246907 -0.2330316
-0.020209761 0.052874386 0.054180346 -0.09424733 -0.16980346 -0.23246996 -0.003382841 -0.032537792
0.019760247 -0.12753417 0.013754815 0.18708321 0.28211355 0.30091423 0.09704712 -0.22399485
0.11596509 0.025565866 -0.0031443767 -0.051951602 0.04032522 -0.016127273 0.16278163 -0.015212791
0.20159373 -0.15835027 0.0021855296 -0.16965365 -0.23059484 0.13285421 0.11193981 0.041407287
0.014293851 -0.07117307 -0.07272038 0.08008699 -0.028959239 0.0027256745 -0.2028932 0.08738036
-0.027618092 0.112367176 0.0881434 -0.26166743 -0.0034661342 -0.14274906 0.16796932 0.0071785636
-0.07041595 -0.05624914 -0.031014865 0.004735441 -0.09563581 -0.1333505 -0.06430964 0.026782587
-0.14848213 0.022991562 -0.06961666 0.036059357 0.04560852 -0.037345815 -0.11575848 0.0277352
-0.008983675 0.05598352 -0.21218783 0.087664306 0.05911897 0.0177735 -0.13172713 0.14317062
00000000: 77ef 623d 3870 26bd c029 0d3b e7e4 343e
00000010: a96f 07be 03c2 9dbd e89e 803c 38cb 3cbe
00000020: da69 123e ad13 8fbd 27dc 5ebe eb4e 793d
00000030: 9ac3 21be 691d bb3d 21ed 78bd a74f aabd
00000040: dc8c 983e 6a0a 72be e0e1 353e a16a 30be
00000050: f800 8ebd 9d2d 783d 8acf 86be 6936 4f3e
00000060: 5047 223e 9fac 213e 7d31 623e 7f65 5bbe
00000070: 047c 813d 7ac5 943c 8e42 d63b 4d2e ad3c
00000080: 743e f0bd f11a 143e 4ed4 dfbd a55f c6bd
00000090: c910 1bbe 8068 65bc f420 093e 9b69 2abd
000000a0: 898a 08bd 4f14 86bd 26d3 2abd ab4c 4e3d
000000b0: a955 e5bd 1871 813d 6864 d73c 22f5 1cbe
000000c0: 55b1 62bd fe8e 1b3e 37b6 203e cb16 b83b
000000d0: 2e51 9f3c ff80 0c3e 912c 34bc 0c7a 0f3d
000000e0: 5cfd 483e 7753 24be ed0d 423e 773d 66bd
000000f0: ed37 b23d 8aa3 dcbb b7e3 6bbd 62e9 2f3d
00000100: bc90 233d cdee ab3d 7df5 f0bd f5f1 f6bd
00000110: 3f75 1cbe 4841 00bd 6d70 9dbb c5a9 f03c
00000120: cd75 b43c a115 82bc 70da 213c 4d0b 223e
00000130: 9c3f da3d fb8c 923d 87f5 903d 13f4 20be
00000140: 2912 a1bd a493 4d3e 48db 28be 2bfc 7ebd
00000150: 2842 cdbc f68f e33d 1b93 983c d592 4fbe
00000160: ba50 d1bd cabf 53bd b808 823c 9526 0cbe
00000170: 797c 29be 1622 473e 8e82 6fbd f9b7 3cbd
00000180: 0746 c9bd 4de4 f5bd 8ef7 2ebc 00e6 e0bd
00000190: 577c 16bd 71c9 62bd 0c89 0dbe c405 89bc
000001a0: 81bb 86bd b112 663b 638c 2abc 8295 af3d
000001b0: 3d0a 75be 694f b9be a650 71bc 895a 9cbd
000001c0: 64f1 c13d 4419 65bd ca83 1dbe 61e6 57bd
000001d0: 4856 2e3e f190 cebd 369c 1c3e 7326 edbd
000001e0: 345c 0ebc 3b26 853e a1ee 72bd d62f e73b
000001f0: 4c8d b3bd b902 6d3d 221c c53c 450c 44be
00000200: a9d1 bc3d 0dc3 80bc 1e10 e83d 6f3f 143d
00000210: 37ae 37be ffa1 afbd 059a 09be e7cd 67bd
00000220: 9df5 8c3d 92e9 24be 2dc0 5dbe 7b75 c13c
00000230: f4f2 9b3d 3f50 a23d b623 60be 3607 61be
00000240: c2ba bd3a 8001 633e a6ae d43d 20d4 a2bd
00000250: 3b6d 253d b1f2 4e3c 9ec9 8dbe 7170 79be
00000260: 420d 6fbe 95bf 5e3b 69ae 90bc d0c2 44be
00000270: fa03 ea3c 4347 acbc e353 303e b8f7 0ebe
00000280: 070e bebd 8679 b93d 6a81 f7bd 1c0e 843e
00000290: ecac e9be 695e 263e 0ef2 a23d 2eb0 88bc
000002a0: d772 11bd f46b dd3d 5681 403e 74a2 24bd
000002b0: 907d 1dbe 8134 08be 6185 90bd d4d0 72bd
000002c0: bf82 793d 79ca eabe f13c 523e 2ef1 d6bd
000002d0: 93ef 8abd 63b7 8cbd 4b5e 26be d69f 6ebe
000002e0: f18e a5bc d092 583d 36ec 5d3d bf04 c1bd
000002f0: f5e0 2dbe 9b0c 6ebe a7b2 5dbb 5946 05bd
00000300: 3ee0 a13c 5198 02be e05b 613c be92 3f3e
00000310: 3071 903e 6e11 9a3e a4c0 c63d e85e 65be
00000320: 1b7f ed3d 826f d13c e311 4ebb 34cb 54bd
00000330: 0f2c 253d 581d 84bc 3ab0 263e 123f 79bc
00000340: 966e 4e3e 9326 22be 1a3b 0f3b b0b9 2dbe
00000350: 0e21 6cbe ef0a 083e b340 e53d b09a 293d
00000360: c230 6a3c 30c3 91bd 6cee 94bd a604 a43d
00000370: ed3b edbc 3ba1 323b 3cc3 4fbe 79f4 b23d
00000380: 563f e2bc c320 e63d 8784 b43d 46f9 85be
00000390: 1528 63bb cf2c 12be 2600 2c3e 283a eb3b
000003a0: 3d36 90bd 8065 66bd e312 febc c22b 9b3b
000003b0: b5dc c3bd 098d 08be c6b4 83bd 2867 db3c
000003c0: b30b 18be cd58 bc3c 2e93 8ebd fab2 133d
000003d0: 00d0 3a3d edf7 18bd c812 edbd ee34 e33c
000003e0: 4430 13bc fa4e 653d c447 59be 5889 b33d
000003f0: bc26 723d bb99 913c 7ae3 06be 529b 123e

rnn.weight_hh_l0 f4 [256, 64]
-0.011854425 -0.12534846 -0.12614536 -0.06845926 -0.06677265 0.016671347 0.038072105 0.16147172
0.11917454 0.11732136 -0.06307273 0.18108237 0.17189899 -0.040906664 0.054713633 0.0010963097
0.0176842 0.14516829 -0.117388 0.07482886 0.010398898 -0.19482234 0.057683513 -0.028602595
-0.14957435 0.18073264 -0.13269022 -0.14942391 0.09363102 -0.053208202 -0.02563927 0.057968322
0.05351316 0.06013374 -0.1282113 -0.1529253 0.059199344 0.023873096 -0.024229947 0.011114331
0.10517235 -0.0729785 0.021347197 -0.16377583 -0.19975564 0.024665263 -0.1796623 -0.06690115
-0.03060068 -0.158306 0.0062336097 -0.115377836 0.024337918 0.110854626 0.030240886 -0.067065164
0.0250542 5.775728e-05 0.099317774 -0.11176108 0.049904723 -0.16904695 0.09758155 0.104349285
0.02725243 0.05610762 -0.055645734 -0.092070065 0.007088902 -0.05087307 0.039519183 0.050903432
0.107457936 -0.03469817 -0.17011054 0.13721672 0.011343672 -0.045940407 -0.03226692 -0.05361978
-0.0043589985 0.2237606 0.15466559 0.3325164 -0.060651932 0.0033121658 -0.087710634 0.058172043
-0.039851606 -0.0966086 -0.13399476 -0.00916587 0.021396406 0.048902597 0.0816714 0.07346285
0.1583339 0.18818231 0.23246074 0.1411862 -0.045132797 -0.121866435 0.0097683845 -0.084268
0.08942335 -0.11169646 0.20721951 0.14672169 0.11913007 -0.10496818 -0.057671405 -0.042631354
0.21616943 0.02163208 0.052360825 0.06827493 -0.0812757 -0.13869412 -0.16739081 0.0075095296
-0.0053281756 0.03450233 -0.005467708 -0.027008139 0.08088281 -0.043177415 0.075155735 -0.054767136
0.08646214 0.085177444 0.036948215 -0.031041577 0.0291864 0.009733717 0.042081773 0.06380873
0.0059244977 -0.10427038 -0.060800508 0.15187001 0.10074872 -0.089566275 0.018544892 -0.085442476
-0.08648354 0.045122083 0.075034015 0.0036501826 0.06226187 -0.078357555 0.10174033 0.0062717986
-0.09299493 0.08343594 -0.0033949837 -0.017757481 0.09511592 0.09797927 -0.108026676 -0.027139392
0.16284549 0.07206827 0.10185417 0.054844886 0.06664864 0.059933886 -0.08830018 -0.0013546466
-0.09684531 0.082604244 -0.05829555 0.034351703 -0.048498575 0.034193672 -0.11707043 0.049110353
0.046834752 0.045092307 0.104909465 -0.0728808 -0.031745933 -0.11134551 0.031968616 0.029279038
-0.069042824 -0.05666477 -0.011014759 -0.017510606 -0.05943476 0.007663511 0.061577607 0.021853792
0.082214944 -0.012320771 -0.026938345 0.11241123 -0.1749599 0.04697264 -0.0547417 -0.120797664
-0.011440156 -0.11982768 0.16025338 0.026003342 0.086575426 0.06692209 0.045656826 -0.11221908
-0.16162673 -0.07410665 0.067950286 0.1441623 0.11267409 -0.10651864 0.10767004 -0.15514271
-0.10490986 -0.13161556 -0.04381956 0.0013523756 -0.124563135 0.05191569 -0.0059882337 0.09593983
-0.11112576 -0.053801045 0.057985872 0.027032346 -0.0018808708 0.091512695 0.012697314 -0.07418111
-0.08032243 0.011443201 -0.034126505 -0.051681817 0.11851809 0.037147943 -0.014487489 0.00082908414
0.28154108 -0.12813692 -0.056081314 -0.05439868 -0.035745874 0.055173498 -0.15122126 0.015448717
-0.059406865 -0.0011395129 -0.015474001 0.11100851 0.016120475 -0.00537777 0.11577829 0.0021205656
00000000: 1039 42bc 595b 00be 402c 01be 5e34 8cbd
00000010: 19c0 88bd 5992 883c 7ff1 1b3d d858 253e
00000020: c811 f43d 2e46 f03d 472c 81bd a86d 393e
00000030: 4a06 303e bf8d 27bd 671b 603d 0db2 8f3a
00000040: 75de 903c ffa6 143e 1f69 f0bd e03f 993d
00000050: 2460 2a3c 827f 47be 8c45 6c3d fd4f eabc
00000060: 052a 19be fa11 393e f2df 07be 9502 19be
00000070: 9fc1 bf3d d8f0 59bd 7209 d2bc 3170 6d3d
00000080: 9e30 5b3d cc4e 763d d349 03be 7398 1cbe
00000090: 037b 723d 8391 c33c e27d c6bc e218 363c
000000a0: 9a64 d73d c075 95bd 51e0 ae3c dab4 27be
000000b0: be8c 4cbe ce0e ca3c 65f9 37be 7803 89bd
000000c0: 47ae fabc f81a 22be 4f43 cc3b 374b ecbd
000000d0: 5060 c73c c007 e33d bcbb f73c 7659 89bd
000000e0: 773e cd3c 6840 7238 1e67 cb3d fee2 e4bd
000000f0: e568 4c3d a51a 2dbe d6d8 c73d 14b5 d53d
00000100: 7d40 df3c 1bd1 653d c8ec 63bd 3b8f bcbd
00000110: 054a e83b 4860 50bd dede 213d 1e80 503d
00000120: e812 dc3d ab1f 0ebd 7531 2ebe 8a82 0c3e
00000130: cfda 393c 022c 3cbd 512a 04bd 6aa0 5bbd
00000140: eed5 8ebb 8021 653e a860 1e3e 973f aa3e
00000150: 296e 78bd ec10 593b a2a1 b3bd cf45 6e3d
00000160: 703b 23bd bbda c5bd ec35 09be 722c 16bc
00000170: 8447 af3c 174e 483d 5643 a73d b173 963d
00000180: 4822 223e ddb2 403e 300a 6e3e 1d93 103e
00000190: 2bdd 38bd 1c95 f9bd 930b 203c b494 acbd
000001a0: 9723 b73d 1dc1 e4bd 5a31 543e 363e 163e
000001b0: 77fa f33d 8ff9 d6bd da38 6cbd 379e 2ebd
000001c0: 855b 5d3e c335 b13c 4e78 563d bad3 8b3d
000001d0: e073 a6bd d505 0ebe 7f68 2bbe 8012 f63b
000001e0: fa97 aebb 5152 0d3d 762a b3bb 2c40 ddbc
000001f0: e3a5 a53d cdda 30bd 40eb 993d 8153 60bd
00000200: 1013 b13d 8371 ae3d 0357 173d e84a febc
00000210: 5118 ef3c 2b7a 1f3c f05d 2c3d 27ae 823d
00000220: 4a22 c23b b68b d5bd f409 79bd d083 1b3e
00000230: 5855 ce3d 866e b7bd 75eb 973c 77fc aebd
00000240: 481e b1bd efd1 383d 6fab 993d e737 6f3b
00000250: 4d06 7f3d ed79 a0bd 3c5d d03d a983 cd3b
00000260: 2074 bebd 76e0 aa3d 607e 5ebb 2378 91bc
00000270: 23cc c23d 5ba9 c83d 173d ddbd 6e53 debc
00000280: f8c0 263e 8798 933d eb98 d03d 08a5 603d
00000290: 157f 883d 3c7d 753d bad6 b4bd 668e b1ba
000002a0: d556 c6bd 6a2c a93d 51c7 6ebd 5fb4 0c3d
000002b0: 71a6 46bd aa0e 0c3d 9fc2 efbd f027 493d
000002c0: ccd5 3f3d b6b2 383d c6da d63d 8742 95bd
000002d0: 0608 02bd 1d09 e4bd 86f1 023d 98da ef3c
000002e0: 5366 8dbd 5119 68bd 3f77 34bc 6772 8fbc
000002f0: dd71 73bd 311e fb3b cd38 7c3d b906 b33c
00000300: 4f60 a83d 0fdd 49bc cead dcbc dc37 e63d
00000310: b028 33be 6266 403d d538 60bd c464 f7bd
00000320: 7e6f 3bbc 3768 f5bd 7619 243e f604 d53c
00000330: 754e b13d 730e 893d a702 3b3d 1ed3 e5bd
00000340: 7a81 25be 3ac5 97bd 8529 8b3d 489f 133e
00000350: acc1 e63d 7226 dabd 1c82 dc3d bbdd 1ebe
00000360: fbda d6bd 3bc6 06be 247c 33bd 3242 b13a
00000370: f51a ffbd 8ca5 543d f238 c4bb 1a7c c43d
00000380: e795 e3bd 7c5e 5cbd 9882 6d3d f072 dd3c
00000390: 8d87 f6ba 026b bb3d 6508 503c 44ec 97bd
000003a0: 1680 a4bd 447c 3b3c 3cc8 0bbd 50b0 53bd
000003b0: 9db9 f23d 7128 183d ef5c 6dbc e556 593a
000003c0: 2726 903e 5336 03be 85b5 65bd 26d1 5ebd
000003d0: 446a 12bd 9bfd 613d bfd9 1abe 9e1c 7d3c
000003e0: 9d54 73bd b55b 95ba aa86 7dbc 6e58 e33d
000003f0: 160f 843c 0138 b0bb 2b1d ed3d 30f9 0a3b

rnn.bias_ih_l0 f4 [256]
0.039656248 0.08360855 -0.02942126 -0.00995152 -0.053959668 -0.008154875 0.12366336 0.15016143
0.11597206 0.12912926 0.1458949 0.06828933 -0.08917698 0.19037272 0.028839631 0.113007754
0.0556669 -0.06560328 0.107084125 0.13935931 -0.05873729 0.27212414 -0.10777162 0.046030376
0.0384379 0.06915869 0.05613905 0.08643797 0.14689097 0.15009171 0.09614634 0.12894395
0.073024824 -0.06387035 -0.02115902 0.02133608 0.118116654 0.04593786 0.08202501 -0.03213912
0.018860448 0.024312312 0.24219003 -0.05074262 0.22842799 -0.06909908 0.12043237 -0.038321905
0.2074148 -0.0005164495 0.12605105 -0.10907417 0.062853895 0.052228983 0.17636155 0.094397746
0.042998485 0.10559144 -0.031444076 0.05030097 -0.033081118 -0.05920494 -0.076788776 -0.11323086
-0.030323418 0.16870646 0.10679533 -0.098229855 0.01564901 -0.12039096 5.4501415e-05 -0.08966216
0.08315292 0.025135359 -0.06186468 0.08300925 0.023248194 -0.06764338 -0.12488755 -0.096770704
0.08357881 -0.02861045 -0.0714338 0.1596746 -0.029637832 0.10884711 -0.11367409 0.014699561
-0.04162637 0.025639236 0.097255796 0.017248236 0.088048786 0.09661916 0.09453268 0.028626138
0.124985166 -0.09377888 -0.028774403 0.029058123 0.031536978 0.1286207 0.037594292 -0.006400335
0.07295205 0.06672356 -0.059730448 0.0047755805 -0.06760562 0.0720769 -0.10749887 0.110930786
-0.07167784 0.15028323 -0.114181474 -0.14394936 4.6271394e-05 0.117466666 -0.04395344 0.00084868335
-0.07700758 -0.051062804 -0.102508396 0.12997411 -0.058890797 0.037034377 0.005715971 0.047049563
-0.0629526 -0.07866263 -0.058990773 -0.05702046 -0.046308577 0.09149597 0.0082132835 -0.099273145
0.039482843 -0.0049842275 0.05929234 0.065830946 -0.046939854 -0.053897616 0.041690785 0.016903449
-0.01872759 -0.008575314 0.051473185 0.028032593 0.033893608 -0.060668573 -0.09703295 0.014420332
-0.10173264 -0.025491318 -0.06307901 -0.06817792 0.0007923403 -0.013258614 -0.09013952 0.018537013
0.06409886 0.005294329 -0.040103775 -0.0047464035 -0.0010897712 0.09610331 0.08103816 -0.07918
0.034843195 -0.022703305 -0.0978052 -0.08458119 0.0014227496 -0.109671816 -0.08604931 -0.01791953
-0.06446321 -0.0756139 -0.07042884 -0.019862778 -0.045625307 -0.07942297 -0.016029542 -0.045699153
-0.105546646 -0.11395273 -0.039240964 -0.028824273 -0.061886095 -0.034232073 0.028322935 0.034348767
0.18616799 0.1722062 -0.09956963 0.09779343 -0.12340494 -0.011065092 0.044209626 0.1047117
-0.059878916 0.122285254 0.060881265 0.121116556 -0.04889423 0.28216088 -0.011044014 -0.126686
-0.004594795 0.013673207 -0.07620423 0.18882677 0.06568082 0.052351154 0.0674468 0.09354677
0.12497062 0.10496622 0.10615191 0.15500668 0.09882498 0.09448254 -0.07197942 0.13384342
-0.05134753 0.083044946 -0.036128413 0.028141985 0.14217113 -0.012809833 0.003286966 0.17813541
0.1301961 0.023683636 0.32258 -0.107038364 0.0976592 0.14123806 0.015794238 0.119611755
0.30603343 0.042174928 0.025033522 -0.11138107 -0.089483656 0.07517404 0.17812899 0.111006096
0.16520035 -0.031440973 0.13056609 -0.04091511 0.14254507 0.09322501 0.05758995 0.0063181734
00000000: 976e 223d f63a ab3d db04 f1bc b30b 23bc
00000010: d004 5dbd 069c 05bc 3743 fd3d ebc3 193e
00000020: c282 ed3d 763a 043e 7965 153e 47db 8b3d
00000030: 6ca2 b6bd 11f1 423e 1741 ec3c 9c70 e73d
00000040: fa02 643d 035b 86bd ec4e db3d 35b4 0e3e
00000050: 8396 70bd db53 8b3e 5eb7 dcbd 598a 3c3d
00000060: 0f71 1d3d 12a3 8d3d 0ff2 653d 6406 b13d
00000070: 966a 163e a4b1 193e 5fe8 c43d e209 043e
00000080: 0a8e 953d 75ce 82bd ae55 adbc 01c9 ae3c
00000090: 25e7 f13d 5629 3c3d bafc a73d 4fa4 03bd
000000a0: 3a81 9a3c 9d2a c73c aa00 783e 7ed7 4fbd
000000b0: 07e9 693e d283 8dbd 3fa5 f63d 6ef7 1cbd
000000c0: 8c64 543e 5762 07ba 8713 013e 4762 dfbd
000000d0: 8bb9 803d 0fee 553d 1f98 343e 9b53 c13d
000000e0: 2e1f 303d 5340 d83d 81cb 00bd 6408 4e3d
000000f0: 1180 07bd e180 72bd 6f43 9dbd 95e5 e7bd
00000100: d168 f8bc 63c1 2c3e 83b7 da3d bc2c c9bd
00000110: 5a32 803c 898f f6bd 7398 6438 cba0 b7bd
00000120: 144c aa3d abe8 cd3c d265 7dbd c100 aa3d
00000130: ff72 be3c 9d88 8abd 0bc5 ffbd b82f c6bd
00000140: 5e2b ab3d 7660 eabc e24b 92bd bd81 233e
00000150: 0acb f2bc 3ceb de3d f6cd e8bd 6dd6 703c
00000160: 6a80 2abd 6009 d23c 0c2e c73d 2c4c 8d3c
00000170: ec52 b43d 44e0 c53d 5a9a c13d 5d81 ea3c
00000180: 39f8 ff3d 240f c0bd 4cb8 ebbc 4d0b ee3c
00000190: eb2c 013d 25b5 033e 79fc 193d e7b9 d1bb
000001a0: e267 953d 5da6 883d eaa7 74bd 797c 9c3b
000001b0: d174 8abd 0e9d 933d 5e28 dcbd ae2f e33d
000001c0: d5cb 92bd d9e3 193e fad7 e9bd 7667 13be
000001d0: 8813 4238 5d92 f03d 8608 34bd 2d7a 5e3a
000001e0: 26b6 9dbd 3b27 51bd ecef d1bd ef17 053e
000001f0: 7a37 71bd 5cb1 173d 0a4d bb3b 0bb7 403d
00000200: 4bed 80bd df19 a1bd 4fa0 71bd 498e 69bd
00000210: 10ae 3dbd 3d62 bb3d 0291 063c b84f cbbd
00000220: c3b8 213d bb52 a3bb 86dc 723d 60d2 863d
00000230: 0144 40bd bfc3 5cbd f5c3 2a3d 1a79 8a3c
00000240: 9a6a 99bc 797f 0cbc 8cd5 523d 9ca4 e53c
00000250: 06d4 0a3d 9c7f 78bd 36b9 c6bd 4243 6c3c
00000260: 3459 d0bd 2bd3 d0bc 912f 81bd dea0 8bbd
00000270: 0fb5 4f3a a83a 59bc 129b b8bd efda 973c
00000280: 4346 833d 0d7c ad3b db43 24bd b887 9bbb
00000290: a7d6 8eba d0d1 c43d 56f7 a53d 2029 a2bd
000002a0: bdb7 0e3d 48fc b9bc 184e c8bd e738 adbd
000002b0: 8e7b ba3a 9e9b e0bd 9f3a b0bd facb 92bc
000002c0: 4a05 84bd 76db 9abd ff3c 90bd 44b7 a2bc
000002d0: 9ae1 3abd 83a8 a2bd 6350 83bc 092f 3bbd
000002e0: d728 d8bd 0d60 e9bd 22bb 20bd e220 ecbc
000002f0: 467c 7dbd ee36 0cbd 8005 e83c 4bb1 0c3d
00000300: d2a2 3e3e d256 303e 2aeb cbbd ec47 c83d
00000310: bbbb fcbd 5c4a 35bc 2715 353d 1673 d63d
00000320: 9843 75bd b170 fa3d a25e 793d f50b f83d
00000330: 5145 48bd 6477 903e f4f1 34bc fab9 01be
00000340: ef8f 96bb 9605 603c f710 9cbd ce5b 413e
00000350: aa83 863d 2a6e 563d 8c21 8a3d 7395 bf3d
00000360: 99f0 ff3d 88f8 d63d 2c66 d93d 12ba 1e3e
00000370: c064 ca3d 1080 c13d f269 93bd 400e 093e
00000380: ca51 52bd 7813 aa3d 63fb 13bd 058a e63c
00000390: 4f95 113e 55e0 51bc 236a 573b 2169 363e
000003a0: 2052 053e 2f04 c23c 3529 a53e ee36 dbbd
000003b0: 8c01 c83d b6a0 103e eb62 813c 02f7 f43d
000003c0: 6ab0 9c3e 9ebf 2c3d 1a13 cd3c c21b e4bd
000003d0: 3543 b7bd d9f4 993d 7267 363e 2a57 e33d
000003e0: 482a 293e 40c8 00bd 1eb3 053e 9a96 27bd
000003f0: 56f7 113e c1ec be3d 70e3 6b3d ae08 cf3b

rnn.bias_hh_l0 f4 [256]
0.19542742 0.15439332 -0.10152148 0.035322607 -0.1178328 0.08081456 -0.10331227 0.103158996
0.12088157 0.09271663 0.19744511 0.048680317 0.052639816 0.34148115 -0.008048323 -0.052498955
-0.12591176 0.11549952 -0.05168299 0.09527703 -0.015858982 0.2334187 -0.050833806 0.11912321
-0.06040064 0.10024182 -0.122427836 0.05479064 0.1447202 0.0622682 0.01656635 -0.056023702
0.016185334 -0.027200315 -0.05593034 0.019839263 0.1418423 -0.049191922 -0.07705183 0.118174404
0.10821739 -0.023934325 0.26386464 0.060802218 0.18690734 0.11936942 -0.059289552 0.025436636
0.24256676 0.13123141 0.15466115 0.03111026 -0.045246854 0.018523125 0.13091235 -0.019070124
-0.056674324 -0.03898082 0.04434202 0.08606535 0.061035845 -0.12531346 0.08921899 -0.06019472
0.04151836 0.084081024 0.08299651 0.055218637 -0.021614742 0.019046038 0.09870915 0.11582901
0.11603071 0.045417964 -0.08051302 0.06955611 0.14286068 0.015179336 -0.11512569 -0.017905755
-0.13889721 -0.03010403 0.071721464 -0.059636835 -0.031196987 0.13557383 -0.10981549 0.0030662597
0.04533226 -0.024633978 0.11390881 -0.043970343 -0.09596869 0.06155953 0.03700243 -0.09900595
0.069619216 0.038986925 0.079605296 0.047794003 0.004593461 0.082023986 0.08342541 0.10841325
-0.07239436 0.030817686 -0.059810657 0.028868692 0.0847928 -0.07933904 0.10138935 0.025550462
-0.068668984 -0.013597665 -0.050206706 -0.050499752 0.012272554 0.11066342 -0.05342613 0.08859598
0.03727583 0.10721448 -0.033943463 0.09020489 0.14103402 0.053528532 -0.011856582 -0.086866654
0.09084708 -0.015265672 -0.060987458 -0.042188596 -0.09963742 0.05514346 -0.06452906 0.08718933
0.015890373 -0.010613644 0.009678637 -0.07235995 0.10145783 0.080522545 -0.022072291 -0.0725438
0.015432389 0.034990784 -0.102146514 -0.04562281 0.10894723 -0.041525647 0.05645835 -0.093621224
-0.054669127 0.087031335 -0.060391027 0.07647593 -0.0012388218 -0.02683998 0.06605239 0.0070040207
-0.0043909363 -0.024185108 0.016816217 -0.075853676 -0.025747426 -0.11168745 -0.09808415 0.09338029
-0.0022727584 0.05726667 0.038838062 -0.08287572 -0.069662444 0.12143621 0.091539256 -0.037859015
0.06396466 0.0061808443 -0.0720867 -0.0029429449 0.0006020873 0.08902138 -0.043762013 0.07698728
0.08990749 0.12921962 0.08620746 0.03661478 -0.0036422983 0.033890896 0.0640182 0.03501935
0.16685435 0.17998472 0.13876227 0.10599022 -0.09202301 0.020051533 -0.07989664 0.028652616
0.038557455 -0.085890375 0.14696088 -0.03372249 -0.03825793 0.1578002 -0.02131793 0.043728407
-0.1034849 0.016190758 -0.10473197 0.18080309 0.12479748 0.15693046 -0.02095211 -0.0007677627
-0.019543242 0.16045748 -0.019411027 0.124806575 0.1837762 0.02657131 0.13446449 -0.021888325
-0.012689474 0.052059643 0.08966742 0.053806115 0.10054799 0.06448916 0.07574783 0.14774714
0.11520227 -0.032950763 0.27056238 -0.019794846 0.05318537 0.108026326 -0.100617595 -0.07795581
0.22579929 0.04343096 0.11872882 -0.062593475 0.07709194 -0.056377694 -0.05217377 0.156337
-0.04197766 0.10441919 -0.09788292 0.04710889 -0.054175314 -0.12494549 -0.026823709 0.089666456
00000000: 201e 483e 4819 1e3e 7eea cfbd 70ae 103d
00000010: 5352 f1bd 1b82 a53d 6295 d3bd 0645 d33d
00000020: c290 f73d 37e2 bd3d 0d2f 4a3e 0365 473d
00000030: d99c 573d 9ed6 ae3e 1ddd 03bc 2509 57bd
00000040: 03ef 00be 038b ec3d 8bb1 53bd 9a20 c33d
00000050: b2ea 81bc 5005 6f3e 1c37 50bd dff6 f33d
00000060: a966 77bd 954b cd3d 72bb fabd 266c 603d
00000070: 8831 143e f10c 7f3d 27b6 873c 1c79 65bd
00000080: 1b97 843c 32d3 debc 3617 65bd f385 a23c
00000090: 1c3f 113e 787d 49bd 5acd 9dbd 6c05 f23d
000000a0: 14a1 dd3d eb11 c4bc 4419 873e bf0b 793d
000000b0: a364 3f3e f477 f43d 9ad9 72bd 7e60 d03c
000000c0: 6c63 783e 8761 063e 7e5f 1e3e f2da fe3c
000000d0: c454 39bd cfbd 973c e30d 063e f338 9cbc
000000e0: 5623 68bd 5aaa 1fbd fa9f 353d 0843 b03d
000000f0: b900 7a3d 2c52 00be 72b8 b63d bd8e 76bd
00000100: 280f 2a3d ac32 ac3d 13fa a93d f02c 623d
00000110: 6611 b1bc 7006 9c3c 0628 ca3d c337 ed3d
00000120: 82a1 ed3d 3008 3a3d 03e4 a4bd 6f73 8e3d
00000130: 124a 123e c0b2 783c 05c7 ebbd 17af 92bc
00000140: 123b 0ebe ba9c f6bc b4e2 923d c145 74bd
00000150: d390 ffbc ded3 0a3e f2e6 e0bd 4df3 483b
00000160: 52ae 393d 32cd c9bc 0649 e93d 3f1a 34bd
00000170: 3c8b c4bd d925 7c3d dc8f 173d a2c3 cabd
00000180: 8594 8e3d c1b0 1f3d 1a08 a33d a5c3 433d
00000190: be84 963b 31fc a73d f1da aa3d c407 de3d
000001a0: 7f43 94bd 5f75 fc3c 05fc 74bd 097e ec3c
000001b0: d9a7 ad3d 827c a2bd 38a5 cf3d 344f d13c
000001c0: 53a2 8cbd bec8 5ebc 8ca5 4dbd d4d8 4ebd
000001d0: d312 493c 81a3 e23d 5cd5 5abd cf71 b53d
000001e0: 8aae 183d 4493 db3d 4d08 0bbd 57bd b83d
000001f0: 396b 103e bc40 5b3d 1c42 42bc 25e7 b1bd
00000200: 090e ba3d de1c 7abc fccd 79bd f3cd 2cbd
00000210: b40e ccbd 1cde 613d d027 84bd 5290 b23d
00000220: 872c 823c d9e4 2dbc 2593 1e3c 7431 94bd
00000230: 1fc9 cf3d 01e9 a43d f3d0 b4bc d891 94bd
00000240: 22d8 7c3c 7f52 0f3d 3132 d1bd fcde 3abd
00000250: ba1f df3d cc16 2abd df40 673d 7cbc bfbd
00000260: bcec 5fbd 7c3d b23d 955c 77bd 6a9f 9c3d
00000270: f65f a2ba 85df dbbc 7a46 873d fc81 e53b
00000280: d8e1 8fbb d91f c6bc 2ac2 893c 2c59 9bbd
00000290: 44ec d2bc 64bc e4bd 58e0 c8bd 2a3e bf3d
000002a0: 8ff2 14bb 7590 6a3d a914 1f3d bfba a9bd
000002b0: 2fab 8ebd 8cb3 f83d ef78 bb3d 0e12 1bbd
000002c0: e7ff 823d ae88 ca3b 31a2 93bd 6cde 40bb
000002d0: 65d5 1d3a d750 b63d cc3f 33bd 82ab 9d3d
000002e0: 6b21 b83d 2652 043e 898d b03d 61f9 153d
000002f0: a0b3 6ebb 2ed1 0a3d f91b 833d 7370 0f3d
00000300: dedb 2a3e ea4d 383e b217 0e3e 6711 d93d
00000310: 8f76 bcbd 1d43 a43c d9a0 a3bd e4b8 ea3c
00000320: 6cee 1d3d 4be7 afbd ea7c 163e 9820 0abd
00000330: 59b4 1cbd 6096 213e f1a2 aebc 8f1c 333d
00000340: e4ef d3bd 7ba2 843c b77d d6bd 7224 393e
00000350: d295 ff3d 61b2 203e c2a3 abbc af43 49ba
00000360: 2619 a0bc f74e 243e e003 9fbc 979a ff3d
00000370: d42f 3c3e 13ac d93c 0fb1 093e 254f b3bc
00000380: 83e7 4fbc 7e3c 553d 8da3 b73d cd63 5c3d
00000390: 1bec cd3d e512 843d ae21 9b3d 074b 173e
000003a0: 2bef eb3d 61f7 06bd 2787 8a3e cd28 a2bc
000003b0: e7d8 593d e83c dd3d 9910 cebd 4ca7 9fbd
000003c0: ee37 673e aae4 313d 1828 f33d 0231 80bd
000003d0: 61e2 9d3d 4cec 66bd 2ab4 55bd ce16 203e
000003e0: c4f0 2bbd bad9 d53d d776 c8bd 40f5 403d
000003f0: efe6 5dbd 6ce3 ffbd 65bd dbbc 0ca3 b73d

rnn.weight_ih_l1 f4 [256, 64]
0.057369202 -0.08623024 0.022619056 0.03693312 0.11741415 0.04959713 -0.06806155 -0.08889862
0.11772487 0.082821615 -0.13636714 0.058876336 0.029505802 -0.0120772915 -0.0025092387 0.048540674
-0.0056748018 0.03747079 -0.017223276 -0.06331776 0.047589418 0.049350385 -0.1615906 -0.04393773
-0.051439792 -0.043364827 -0.11077636 -0.13331696 -0.029446635 0.033789817 0.047770444 -0.12494158
-0.07881071 -0.021125853 0.15928999 0.02921154 -0.08826076 0.103505604 -0.03961218 0.08905735
-0.08548502 -0.13990436 0.06744511 0.06654603 0.09564511 0.066048525 0.17613813 -0.064533986
-0.09082189 -0.0018834361 0.018580351 0.071954064 0.019392634 -0.14600769 0.06925625 0.11373591
0.063964576 0.16974182 -0.12694675 0.013757896 -0.12334355 0.10290103 0.08483691 0.012065843
-0.048795983 -0.07094559 -0.070212096 0.119272284 0.0652942 0.07403351 0.08545005 0.0011230654
0.043065388 0.04832432 0.03956679 -0.080664895 0.0075623924 0.33439896 0.034695875 0.054549992
-0.05040581 0.15801297 0.12364441 0.12906478 -0.048167955 -0.101429425 0.03818649 0.090544365
-0.04128305 0.06379661 -0.041008938 -0.14967373 -0.03221765 -0.011924971 -0.01034555 -0.06051116
0.056569695 0.052256633 -0.03077009 -0.041925803 -0.07340349 -0.04390613 0.099298865 -0.040575065
-0.03944269 0.0017000682 0.12598439 -0.035845026 -0.044183142 0.045828406 -0.09240593 0.05255979
0.3063281 -0.119070366 -0.04767774 0.096610606 -0.019082919 0.076703735 0.098638035 -0.04545534
0.04613918 0.031742673 -0.11525027 0.03636516 0.0040994924 -0.08120778 -0.03210001 -0.046591435
0.08432951 0.07497465 0.11320553 -0.066499114 -0.059345305 -0.0206175 0.020929549 0.04429086
-0.06388695 0.06048781 -0.12653017 0.045207713 -0.017235061 0.06981371 0.10809362 -0.022892863
-0.10354715 -0.0359588 0.04495275 0.011061911 -0.087386146 -0.050462496 0.012036382 0.03146152
-0.113896176 0.13196534 0.1233284 0.0375453 0.02397371 0.108177245 0.07537257 -0.12665626
-0.0953399 -0.07827675 0.15034111 0.051033445 -0.07717501 0.13565719 -0.08161136 -0.0006203349
0.0036158962 0.040846825 -0.014933132 -0.11576915 0.07320281 0.06939007 0.010603165 0.08656808
0.08077086 0.1008238 0.047861725 -0.027040169 -0.08625521 0.0747165 -0.066827744 0.020898297
-0.076894514 0.11763809 -0.14020483 -0.15336321 0.05436302 0.03676895 0.12674047 0.018860426
0.14419103 0.12393732 0.052729417 -0.10737668 0.14585617 0.100974284 -0.09072907 -0.10536479
0.086708166 0.09971155 -0.024973333 -0.089018784 0.033700604 -0.04452985 0.11981247 -0.0050975503
0.08724805 -0.10254325 -0.070399806 0.12273871 -0.111379825 -0.123454005 0.06676103 0.0448527
-0.060701147 -0.059090234 -0.010365879 -0.09935332 0.030155823 0.016080936 -0.14406285 -0.03559612
0.069756925 0.11699515 -0.011873233 0.0067454693 -0.036096442 -0.03129543 -0.004198183 0.030789511
0.07364656 -0.03347018 -0.058235597 0.10926214 -0.11394291 0.03443658 0.0009967919 -0.00010871998
0.060745783 0.02189395 0.13180935 -0.11965821 -0.07296633 -0.02131267 0.13340831 0.027588194
0.011133029 0.08301387 -0.020901335 -0.008413779 0.052951295 -0.009695484 -0.117653675 0.08157843
00000000: f8fb 6a3d 7b99 b0bd 994b b93c 2f47 173d
00000010: d476 f03d 5c26 4b3d db63 8bbd 7b10 b6bd
00000020: bd19 f13d 619e a93d d4a3 0bbe 5028 713d
00000030: 27b6 f13c d5df 45bc 0a72 24bb 96d2 463d
00000040: b0f3 b9bb f97a 193d d417 8dbc beac 81bd
00000050: 1fed 423d a123 4a3d 0278 25be 0df8 33bd
00000060: 88b2 52bd 519f 31bd b7de e2bd 3e84 08be
00000070: 123a f1bc 3167 0a3d f1aa 433d 5fe1 ffbd
00000080: 8267 a1bd 2010 adbc ea1c 233e 0a4d ef3c
00000090: 0fc2 b4bd bffa d33d 6240 22bd b363 b63d
000000a0: c512 afbd 1743 0fbe a920 8a3d 4949 883d
000000b0: 95e1 c33d 7344 873d 8e5d 343e 652a 84bd
000000c0: d400 babd a1dd f6ba d235 983c a75c 933d
000000d0: 4ddd 9e3c 0a83 15be 39d6 8d3d 5fee e83d
000000e0: dcff 823d cdd0 2d3e 54fe 01be cc68 613c
000000f0: 8b9b fcbd c6bd d23d f9be ad3d d0af 453c
00000100: 4cde 47bd ec4b 91bd 5ccb 8fbd 0745 f43d
00000110: f7b8 853d e29e 973d 7000 af3d d233 933a
00000120: 5565 303d b9ef 453d c910 223d a333 a5bd
00000130: f2cd f73b 5736 ab3e 431d 0e3d d06f 5f3d
00000140: 5376 4ebd 27ce 213e 4839 fd3d 8f29 043e
00000150: c34b 45bd 3bba cfbd 7069 1c3d 536f b93d
00000160: 6a18 29bd cca7 823d fdf8 27bd 1244 19be
00000170: a8f6 03bd f460 43bc 6280 29bc 8dda 77bd
00000180: a0b5 673d 0d0b 563d 8e11 fcbc 64ba 2bbd
00000190: 9254 96bd ead6 33bd 345d cb3d 0a32 26bd
000001a0: a88e 21bd d3d4 de3a 0d02 013e 3cd2 12bd
000001b0: 62f9 34bd 91b6 3b3d 523f bdbd ef48 573d
000001c0: 09d7 9c3e 2adb f3bd bc49 43bd c8db c53d
000001d0: c853 9cbc d916 9d3d bd02 ca3d 612f 3abd
000001e0: 70fc 3c3d 9b04 023d 5508 ecbd a2f3 143d
000001f0: 0955 863b 4450 a6bd 4d7b 03bd a9d6 3ebd
00000200: f3b4 ac3d 4f8c 993d 4dd8 e73d b030 88bd
00000210: 1014 73bd 08e6 a8bc 7274 ab3c 556a 353d
00000220: 29d7 82bd 11c2 773d 2091 01be b92b 393d
00000230: 8b30 8dbc 7efa 8e3d 3060 dd3d d089 bbbc
00000240: 8710 d4bd 8949 13bd 6020 383d 043d 353c
00000250: 82f7 b2bd c3b1 4ebd 3f34 453c cbdd 003d
00000260: 6642 e9bd ec21 073e 9a93 fc3d 1ac9 193d
00000270: 8464 c43c 088c dd3d ef5c 9a3d 2eb2 01be
00000280: 9141 c3bd 904f a0bd 05f3 193e 7208 513d
00000290: ef0d 9ebd b8e9 0a3e db23 a7bd f89d 22ba
000002a0: acf8 6c3b 004f 273d 18aa 74bc 6018 edbd
000002b0: 5beb 953d 621c 8e3d e6b8 2d3c 9b4a b13d
000002c0: 316b a53d b57c ce3d a80a 443d 5883 ddbc
000002d0: 92a6 b0bd f704 993d fcdc 88bd e832 ab3c
000002e0: df7a 9dbd 3dec f03d db91 0fbe 3f0b 1dbe
000002f0: c2ab 5e3d 0a9b 163d 41c8 013e 2e81 9a3c
00000300: d0a6 133e dad2 fd3d cdfa 573d 4ee8 dbbd
00000310: 525b 153e 9bcb ce3d 2ad0 b9bd 7fc9 d7bd
00000320: 0d94 b13d 9235 cc3d e094 ccbc 7b4f b6bd
00000330: a509 0a3d ef64 36bd 3e60 f53d 5a09 a7bb
00000340: 1baf b23d 3202 d2bd c62d 90bd 6f5e fb3d
00000350: 1b1b e4bd 74d5 fcbd 02ba 883d 77b7 373d
00000360: c4a1 78bd 9a08 72bd a6d5 29bc c179 cbbd
00000370: 5809 f73c 2bbc 833c 3685 13be 3dcd 11bd
00000380: b8dc 8e3d 279b ef3d f387 42bc 1909 dd3b
00000390: ddd9 13bd a32f 00bd e990 89bb 493a fc3c
000003a0: 02d4 963d 0718 09bd 7388 6ebd d4c4 df3d
000003b0: e75a e9bd 5f0d 0d3d c9a6 823a 9800 e4b8
000003c0: 92d0 783d f15a b33c 08f9 063e 5d0f f5bd
000003d0: 5f6f 95bd e997 aebc 309c 083e a300 e23c
000003e0: 4f67 363c 2d03 aa3d 4739 abbc f2d9 09bc
000003f0: 75e3 583d cfd9 1ebc 69f4 f0bd 9812 a73d

rnn.weight_hh_l1 f4 [256, 64]
0.04710929 -0.01863102 0.08973527 -0.016729128 -0.14958139 0.17175202 0.0739238 0.09355157
-0.12397333 -0.056221075 -0.06611571 -0.1313744 -0.050676297 -0.120507926 0.022065675 -0.01714891
0.017233407 0.0007669897 -0.010268996 -0.1385557 0.09784009 0.10319218 0.09626879 -0.020115195
-0.0023339125 0.095802896 0.06499037 0.08966966 -0.0130478805 -0.01683914 0.02404541 -0.11554779
0.027780766 -0.12619497 -0.093672775 -0.039407767 -0.026095053 0.06024334 -0.06381466 -0.10782017
-0.06336692 0.028787015 -0.14708559 -0.10696634 0.0066326787 -0.120034665 0.01610345 -0.0512055
-0.03198453 -0.036443602 0.042088807 -0.06226429 0.07986547 0.07277054 0.097612225 -0.12384059
-0.078036554 -0.08094767 0.02676009 -0.11412826 -0.11918862 0.0803432 0.048574004 -0.04661788
0.116477735 -0.018904775 -0.03659556 0.006572472 -0.045643877 -0.047799293 0.0809465 -0.044323493
0.11804026 -0.008066716 0.061865248 -0.05558592 -0.08802143 0.001902873 0.005822707 0.0345707
0.24331437 -0.044290558 0.04700205 -0.019809797 -0.050577007 -0.10918751 -0.057471838 0.11964864
-0.023642298 -0.006948826 0.036158614 0.024285225 0.035073884 0.07598777 -0.052611925 0.09523642
-0.021739757 0.11137123 0.1358747 0.049687 0.032977946 -0.15221491 -0.024240457 0.06229439
-0.12121657 0.075624384 -0.14007793 -0.1015856 -0.10512254 -0.008338165 0.07081528 0.095378354
0.107942544 0.05108719 0.082082115 0.13920017 -0.106221735 -0.10795791 0.0028248879 -0.023278017
-0.08819343 -0.071820304 0.08466098 -0.008862381 0.017997334 0.10742111 -0.010258358 0.038954575
-0.0017564979 0.092788994 0.097773746 -0.09258957 0.017439865 0.07201183 0.014768646 0.0040426278
0.080614135 -0.07427994 0.16628115 -0.09859705 0.065261945 -0.08422774 -0.05690905 -0.04724353
0.10041429 0.050972726 -0.002609483 -0.1731969 -0.11603364 0.013639307 0.06703998 0.11930584
-0.04259193 -0.10731421 0.054167256 -0.11510297 0.1401604 -0.022239473 0.09464208 -0.10175259
0.068196096 -0.055420376 0.063757166 -0.007840859 0.017463211 0.016125267 0.115887694 0.069081016
0.10994296 0.11071986 -0.22323932 -0.063445985 -0.036786444 0.12623368 0.048034232 0.03161602
0.10432574 -0.16186023 0.09361558 -0.1211338 -0.008133833 -0.07414817 -0.11132267 -0.060453545
0.054858908 -0.06693134 -0.11287432 -0.046378672 -0.11395501 -0.036436636 -0.006554649 0.07963526
0.054854322 0.12244315 -0.033193223 0.13297467 0.08037794 0.24508421 0.10066377 -0.1238702
0.04094932 0.019594714 0.09759834 -0.13185349 0.08091422 0.11704896 0.041867893 0.043333095
0.10915795 0.032211438 -0.05401182 -0.12873729 -0.07950725 -0.03660781 -0.07320765 0.21805327
-0.059915304 -0.11961195 0.10014404 0.062994786 -0.05213652 0.12023645 -0.049962737 0.029860515
0.10263937 0.08428922 -0.053331092 0.03637367 0.061877977 -0.06878677 0.035554577 -0.13925707
0.036471244 -0.08451373 -0.09992843 0.033362526 0.014843318 -0.08731562 -0.09251998 0.100108415
-0.066908725 0.07711342 0.024306443 0.0163082 0.058035154 0.096501045 0.02224666 0.12403708
-0.093122974 -0.012128288 0.0676902 0.013796651 0.08989429 0.023149392 0.07179493 0.016930318
00000000: acf5 403d 15a0 98bc 20c7 b73d 860b 89bc
00000010: dd2b 19be c3df 2f3e 5c65 973d f797 bf3d
00000020: bbe5 fdbd 1248 66bd ac67 87bd 0387 06be
00000030: f391 4fbd dccc f6bd 13c3 b43c df7b 8cbc
00000040: 132d 8d3c cf0f 493a 4a3f 28bc 8ce1 0dbe
00000050: 6360 c83d 6c56 d33d 9228 c53d 9fc8 a4bc
00000060: 8ef4 18bb 4f34 c43d ac19 853d baa4 b73d
00000070: c7c6 55bc 3cf2 89bc e1fa c43c 52a4 ecbd
00000080: 7d94 e33c 4139 01be 83d7 bfbd 0a6a 21bd
00000090: 4bc5 d5bc b8c1 763d 43b1 82bd d2d0 dcbd
000000a0: 84c6 81bd bfd2 eb3c 9b9d 16be 2b11 dbbd
000000b0: f156 d93b bcd4 f5bd 62eb 833c dcbc 51bd
000000c0: 3602 03bd e345 15bd 5065 2c3d d708 7fbd
000000d0: 8290 a33d b908 953d ebe8 c73d 23a0 fdbd
000000e0: a1d1 9fbd e4c7 a5bd fa37 db3c 14bc e9bd
000000f0: 2a19 f4bd fa8a a43d 89f5 463d 64f2 3ebd
00000100: e18b ee3d 30de 9abc 3ae5 15bd e45d d73b
00000110: 13f5 3abd 31c9 43bd 47c7 a53d 8d8c 35bd
00000120: 18bf f13d 422a 04bc 6a66 7d3d 10ae 63bd
00000130: 9444 b4bd d369 f93a 68cc be3b 029a 0d3d
00000140: 6727 793e 046a 35bd 3985 403d 2848 a2bc
00000150: d629 4fbd b49d dfbd 9767 6bbd 590a f53d
00000160: 7ead c1bc fab2 e3bb 0e1b 143d cff1 c63c
00000170: a2a9 0f3d 7a9f 9b3d 9a7f 57bd 500b c33d
00000180: 9317 b2bc 9916 e43d bd22 0b3e 9984 4b3d
00000190: e213 073d 3ade 1bbe ec93 c6bc 6728 7f3d
000001a0: 6540 f8bd f5e0 9a3d 9770 0fbe 1c0c d0bd
000001b0: 7c4a d7bd cc9c 08bc 9a07 913d ba55 c33d
000001c0: fb10 dd3d cd40 513d ab1a a83d 7d8a 0e3e
000001d0: c88a d9bd 0919 ddbd c121 393b 8ab1 bebc
000001e0: c29e b4bd 8616 93bd bc62 ad3d 8533 11bc
000001f0: 256f 933c 99ff db3d ac12 28bc d58e 1f3d
00000200: 4a3a e6ba 2808 be3d 9a3d c83d 9a9f bdbd
00000210: 0cde 8e3c f07a 933d 31f8 713c 0578 843b
00000220: 0619 a53d 1520 98bd 9b45 2a3e 40ed c9bd
00000230: 0ea8 853d 987f acbd 7719 69bd 6f82 41bd
00000240: 02a6 cd3d c7c8 503d dc03 2bbb 875a 31be
00000250: 0ca3 edbd 6677 5f3c 424c 893d 9f56 f43d
00000260: e074 2ebd 8dc7 dbbd 7cde 5d3d 1bbb ebbd
00000270: 3586 0f3e 8e2f b6bc b5d3 c13d a963 d0bd
00000280: 65aa 8b3d 7a00 63bd 1e93 823d f276 00bc
00000290: 020f 8f3c 2319 843c 8756 ed3d 597a 8d3d
000002a0: c629 e13d 18c1 e23d d998 64be f8ef 81bd
000002b0: 62ad 16bd 6743 013e 8bbf 443d cd7f 013d
000002c0: bca8 d53d b0be 25be 86b9 bf3d ff14 f8bd
000002d0: c543 05bc ffda 97bd 24fd e3bd 239e 77bd
000002e0: bcb3 603d 4c13 89bd a72a e7bd 90f7 3dbd
000002f0: 3f61 e9bd 953e 15bd 62c8 d6bb d017 a33d
00000300: edae 603d 79c3 fa3d 9ef5 07bd 832a 083e
00000310: 309d a43d 5bf7 7a3e cf28 ce3d a9af fdbd
00000320: 79ba 273d 1885 a03c a3e1 c73d 9a04 07be
00000330: 5bb6 a53d 5db7 ef3d ab7d 2b3d 0b7e 313d
00000340: 348e df3d 24f0 033d 803b 5dbd b5d3 03be
00000350: b2d4 a2bd 12f2 15bd e4ed 95bd 5b49 5f3e
00000360: c069 75bd 1cf7 f4bd 5218 cd3d 6903 813d
00000370: 1b8d 55bd 873e f63d baa5 4cbd 0a9e f43c
00000380: 9734 d23d d49f ac3d b471 5abd 8ffc 143d
00000390: c373 7d3d 14e0 8cbd ada1 113d 6899 0ebe
000003a0: df62 153d 8915 adbd 47a7 ccbd 25a7 083d
000003b0: 6331 733c 88d2 b2bd 1e7b bdbd a405 cd3d
000003c0: 7107 89bd a4ed 9d3d 4e1e c73c c698 853c
000003d0: 45b6 6d3d 57a2 c53d a13e b63c 2707 fe3d
000003e0: 42b7 bebd bab5 46bc 29a1 8a3d 590b 623c
000003f0: 7f1a b83d cba3 bd3c 3809 933d 73b1 8a3c

rnn.bias_ih_l1 f4 [256]
-0.062102064 0.020951537 -0.043888353 0.07761732 -0.00052793795 0.23076698 0.10715069 -0.13018319
0.23558366 0.11849351 0.1391587 -0.06857497 0.093558736 0.07614498 -0.11681778 -0.0186368
0.121176906 0.040585317 -0.116321154 0.08079225 0.08365284 -0.0034300243 -0.07080691 0.11863761
-0.033912253 0.006203479 0.055999003 -0.09487699 -0.01838513 -0.04775873 -0.08114917 -0.11033664
-0.10945956 -0.099831745 -0.009083063 0.11933401 0.01232195 -0.06607344 0.10917394 0.23921676
-0.024472127 -0.08803928 0.01365761 0.10779954 0.026164377 -0.028564647 0.053086832 0.072430305
0.1510168 0.12006183 -0.07606181 0.039122272 0.051249176 0.1407246 -0.101635076 -0.0014557109
0.10876412 0.17879964 -0.016150678 -0.0049398355 -0.10241267 0.037517946 0.03789078 0.12931755
-0.12346487 0.0043278118 -0.065642744 -0.024976406 -0.10255915 -0.10508608 0.06184694 -0.04388714
-0.13010575 -0.0712988 0.0599535 0.07311276 -0.109249815 0.1016471 0.0206619 0.053751085
0.034728725 -0.16113254 0.01309498 -0.13207455 0.06537836 -0.10704425 -0.00072077883 -0.17223209
-0.14894652 -0.002717576 0.03931213 -0.12331712 0.02040882 0.047991693 -0.009395463 0.10643488
-0.025086984 0.08676301 0.022632947 -0.13160501 0.01272462 -0.054471757 0.103203274 0.04993562
0.04042812 -0.05791383 -0.12781979 -0.15889804 -0.09439056 0.0010393367 -0.050747007 0.043425154
0.009079941 -0.1156307 -0.06066455 -0.1125287 -0.0629916 0.0698883 -0.010206748 0.05068777
0.105872564 -0.17433721 -0.09999016 0.035754852 -0.07346255 -0.02098089 -0.025015632 -0.053131096
0.06357361 -0.07463502 0.009280591 -0.110320084 -0.08490436 -0.07537 -0.087042324 -0.053670537
0.08928506 0.073464185 0.079742655 0.05691356 0.084186584 0.09410822 0.053635225 0.10646164
0.04852175 -0.045645095 -0.020855056 -0.025119882 -0.02098541 0.050564434 0.10887996 0.074661955
-0.016807422 -0.046020683 0.08950756 0.061685324 0.05041611 0.09573868 0.054536097 -0.105266854
0.0071953055 0.05032497 -0.004269833 0.094803944 -0.03095754 -0.109187596 0.07399065 0.022903012
0.11843557 0.031053156 0.11805683 -0.060997773 0.05983417 0.02009378 0.10053042 0.09782811
0.121752135 -0.050646413 -0.10310186 0.06668076 0.08177973 -0.0887181 0.057617005 -0.07746883
-0.020035304 0.043643966 0.10607602 -0.057758965 0.013965712 0.0111897485 -0.06965892 0.09690108
-0.059555102 -0.037857514 -0.0011054536 -0.117973365 0.05942484 0.18266232 -0.071122415 -0.037176345
0.089977905 -0.0076625454 -0.07783581 0.11252925 -0.015371913 -0.00239371 0.07532055 0.024640564
-0.08262498 -0.018269382 0.056433413 -0.106341735 -0.06291029 -0.11093765 0.02469949 0.18666479
0.04431798 0.1161438 -0.110627204 -0.03331005 -0.10068268 0.07642701 0.08324721 0.08045454
0.0793439 -0.06285737 -0.09992503 -0.06493238 0.11884291 -0.106284454 -0.013614794 0.048320122
-0.03226807 0.03108127 0.1626896 0.27542412 0.113944575 -0.14956525 -0.102925226 0.105849996
0.1919244 -0.022066697 0.049417958 0.08060568 -0.013277231 0.22346914 0.07488935 -0.01941413
0.08877222 0.14614427 0.031278487 0.0026652825 0.100706175 0.038861856 0.103307985 -0.07213647
00000000: bc5e 7ebd 8fa2 ab3c 46c4 33bd d4f5 9e3d
00000010: 5165 0aba 2e4e 6c3e d271 db3d be4e 05be
00000020: d83c 713e baac f23d 9e7f 0e3e 0971 8cbd
00000030: b99b bf3d e6f1 9b3d 293e efbd 34ac 98bc
00000040: 992b f83d ca3c 263d c939 eebd 6876 a53d
00000050: 2e52 ab3d 42ca 60bb 3703 91bd 46f8 f23d
00000060: 93e7 0abd 8e46 cb3b 365f 653d de4e c2bd
00000070: 6a9c 96bc a89e 43bd 8931 a6bd 2df8 e1bd
00000080: 552c e0bd 9674 ccbd 21d1 14bc 6465 f43d
00000090: 01e2 493c 8351 87bd 9696 df3d 3df5 743e
000000a0: c579 c8bc f04d b4bd 2bc4 5f3c 01c6 dc3d
000000b0: ad56 d63c 6800 eabc 9471 593d 5756 943d
000000c0: 26a4 1a3e fae2 f53d 4bc6 9bbd ad3e 203d
000000d0: a8ea 513d 1c1a 103e 0d26 d0bd 8dcd beba
000000e0: b9bf de3d 4117 373e 6d4e 84bc 58de a1bb
000000f0: bcbd d1bd 6bac 193d 5d33 1b3d d26b 043e
00000100: 26db fcbd 51d0 8d3b b46f 86bd 529b ccbc
00000110: 880a d2bd 5f37 d7bd 3853 7d3d 00c3 33bd
00000120: 713a 05be 1b05 92bd cd91 753d 25bc 953d
00000130: 5ebe dfbd 5b2c d03d 2543 a93c 192a 5c3d
00000140: b53f 0e3d eeff 24be 548c 563c 8d3e 07be
00000150: 17e5 853d 043a dbbd a6f2 3cba 9c5d 30be
00000160: 7085 18be 5c19 32bb c205 213d b08d fcbd
00000170: 6630 a73c f092 443d 6eef 19bc 88fa d93d
00000180: 3883 cdbc ceb0 b13d bb68 b93c 77c3 06be
00000190: ed7a 503c c71d 5fbd 3d5c d33d 4b89 4c3d
000001a0: f597 253d 0d37 6dbd 31e3 02be 2bb6 22be
000001b0: d74f c1bd 5a3a 883a 18dc 4fbd 93de 313d
000001c0: 08c4 143c cacf ecbd 647b 78bd 7275 e6bd
000001d0: bd01 81bd 9921 8f3d 343a 27bc fb9d 4f3d
000001e0: b7d3 d83d 7485 32be a4c7 ccbd ae73 123d
000001f0: 8973 96bd 1ee0 abbc 95ed ccbc fe9f 59bd
00000200: e132 823d 3fda 98bd 9f0d 183c 7fef e1bd
00000210: 56e2 adbd 965b 9abd 3f43 b2bd a3d5 5bbd
00000220: 16db b63d 6474 963d 1e50 a33d 311e 693d
00000230: 046a ac3d cfbb c03d 9cb0 5b3d 8f08 da3d
00000240: bebe 463d 5af6 3abd 39d8 aabc 36c8 cdbc
00000250: 98e9 abbc a71c 4f3d 75fc de3d 5ee8 983d
00000260: b8af 89bc 2f80 3cbd bd4f b73d c0a9 7c3d
00000270: 1f81 4e3d a412 c43d 3e61 5f3d 2696 d7bd
00000280: 99c6 eb3b 8e21 4e3d f5e9 8bbb 9228 c23d
00000290: ab9a fdbc bf9d dfbd 6988 973d 199f bb3c
000002a0: 598e f23d 3063 fe3c c7c7 f13d cdd8 79bd
000002b0: ad14 753d b69b a43c e5e2 cd3d 1b5a c83d
000002c0: 2f59 f93d 9d72 4fbd 1127 d3bd ec8f 883d
000002d0: 227c a73d d6b1 b5bd cfff 6b3d faa7 9ebd
000002e0: 1421 a4bc 04c4 323d 623e d93d aa94 6cbd
000002f0: 71d0 643c 3555 373c 56a9 8ebd 1374 c63d
00000300: 0df0 73bd 7b10 1bbd dee4 90ba 059c f1bd
00000310: 7667 733d d50b 3b3e a1a8 91bd 3946 18bd
00000320: 5646 b83d 1716 fbbb 6268 9fbd bc75 e63d
00000330: 7ada 7bbc cadf 1cbb a941 9a3d 02db c93c
00000340: 4937 a9bd aca9 95bc b926 673d b2c9 d9bd
00000350: 1cd7 80bd 4733 e3bd 9656 ca3c 0e25 3f3e
00000360: c586 353d cddc ed3d 8490 e2bd 1e70 08bd
00000370: b932 cebd c485 9c3d 837d aa3d 5ac5 a43d
00000380: 0e7f a23d 5dbb 80bd 7ea5 ccbd 45fb 84bd
00000390: e963 f33d aaab d9bd 9610 5fbc 52eb 453d
000003a0: 862b 04bd 269e fe3c 1a98 263e 6404 8d3e
000003b0: c65b e93d a227 19be 76ca d2bd e2c7 d83d
000003c0: d487 443e 38c5 b4bc 7c6a 4a3d 9714 a53d
000003d0: be88 59bc 18d5 643e 965f 993d 620a 9fbc
000003e0: 36ce b53d d8a6 153e df1d 003d 05ac 2e3b
000003f0: 0a3f ce3d 9c2d 1f3d 2393 d33d 49bc 93bd

rnn.bias_hh_l1 f4 [256]
-0.044649377 0.006308893 0.0038909414 -0.009892079 -0.012099534 0.3478648 0.031114291 0.00377629
0.13873342 -0.017834641 -0.05042146 -0.0040275445 0.081489705 -0.07412489 -0.09951543 -0.02864144
-0.040257163 -0.08041691 0.103215 -0.09532282 -0.060737837 -0.06542987 0.09047601 0.13337053
-0.033903163 -0.0344916 -0.013938582 0.02995756 -0.04405701 0.05697588 -0.09653533 0.023360655
-0.11443483 0.08769813 0.08600877 -0.11306341 0.08300823 -0.04809966 -0.054528043 0.25222826
-0.080695696 0.09551625 0.11921487 0.0964221 -0.08155723 0.008436094 0.09019255 -0.007681303
0.24531144 0.023580438 0.077804476 0.022855526 -0.01816925 0.070673585 -0.07029442 0.023684321
0.051674042 0.13847408 0.023653647 0.08444221 0.08152507 -0.022659658 -0.09306639 0.03986219
-0.10958795 0.048876897 -0.039938517 -0.14516704 -0.03047871 -0.20876452 -0.026588721 0.03564819
0.0057260655 -0.14018743 0.021482117 -0.050234888 -0.010200895 0.0043346332 -0.0039872634 0.1143225
0.03961586 -0.017862264 0.01360363 -0.090051964 -0.068550475 -0.0830645 -0.09605722 -0.18638438
0.048691776 -0.07989405 0.021176407 0.029161386 -0.08500933 0.006560476 0.07751363 0.039110336
0.06538597 -0.07409267 -0.1392757 0.0291085 -0.10720913 -0.12785922 0.07678711 -0.02899864
0.05736621 -0.10103246 -0.10233012 -0.09941633 0.02434344 0.03564046 -0.050146908 -0.09574061
-0.06403797 0.09951471 0.09822822 0.092473626 -0.1532933 -0.11876208 0.09200349 -0.041078094
-0.026942587 -0.1287174 -0.028652206 -0.02574908 -0.041718192 -0.13236053 -0.034713913 0.033404067
0.04234152 0.09849735 -0.07033962 0.017001694 0.05132015 0.057417825 -0.068655215 0.045081142
-0.063098915 0.06787428 -0.027253876 0.013872424 0.037079494 0.031077277 0.007780357 -0.07166166
0.0058151237 -0.03225688 -0.10638739 0.048066158 -0.051761024 0.01118069 -0.11792468 -0.025221545
0.101551645 -0.07161756 -0.017144358 0.0034388371 -0.030424237 0.09752685 -0.026959432 0.11702749
0.030084044 -0.10321554 0.03225042 0.07052465 0.0061716978 0.1011784 -0.07169957 0.051511265
-0.1130401 0.084777005 -0.09023207 0.063125744 -0.03794385 0.047450956 0.10764643 -0.02346418
-0.10566582 -0.0032042183 0.1004303 -0.11233115 0.021841343 0.0041553937 0.11362231 -0.08907135
0.022420265 -0.002588967 -0.05316633 0.04600226 -0.009154416 -0.026565725 -0.08203603 -0.114031784
0.07937587 -0.081419446 -0.0836355 -0.07875187 0.14869088 0.24187024 0.09329855 0.05035137
0.13557065 0.1877516 0.062283047 -0.10360782 -0.053083874 0.079909 -0.13922243 0.025351916
-0.0006400258 -0.012627928 0.03248257 0.029530846 0.13161153 -0.10300437 -0.08971926 0.18319166
0.054319713 0.047455918 0.08900431 0.0651704 0.023146644 -0.015218715 -0.0693526 -0.049917772
0.091588095 0.12680294 0.113030955 -0.007841206 -0.044500984 -0.10663593 0.11158515 0.04637047
0.03402423 0.014454943 0.20424435 0.05844334 0.12879437 0.08868219 -0.09469108 0.13613352
0.09722076 0.032361362 -0.037626423 -0.058863286 0.02485203 -0.003044605 0.0078078187 -0.0465497
-0.008370192 0.13841674 -0.14609182 -0.0393195 0.07915299 0.08176934 0.010327668 0.10113283
00000000: 44e2 36bd d5ba ce3b 2aff 7e3b 6312 22bc
00000010: 203d 46bc 561b b23e 66e3 fe3c a27b 773b
00000020: 2210 0e3e f419 92bc bc86 4ebd 7ef9 83bb
00000030: 13e4 a63d cace 97bd bfce cbbd 74a1 eabc
00000040: b2e4 24bd 9fb1 a4bd 6362 d33d 9c38 c3bd
00000050: 3dc8 78bd 1800 86bd 7d4b b93d 4992 083e
00000060: 0bde 0abd 1047 0dbd a65e 64bc 8f69 f53c
00000070: 2075 34bd 8a5f 693d 51b4 c5bd d85e bf3c
00000080: cf5c eabd 149b b33d 5e25 b03d ca8d e7bd
00000090: 3800 aa3d 2604 45bd cc58 5fbd 1024 813e
000000a0: c943 a5bd 069e c33d ed26 f43d f378 c53d
000000b0: 7a07 a7bd 8b37 0a3c dfb6 b83d 71b3 fbbb
000000c0: ec32 7b3e c32b c13c f457 9f3d 833b bb3c
000000d0: aed7 94bc 50bd 903d 85f6 8fbd 9f05 c23c
000000e0: 29a8 533d 26cc 0d3e 4bc5 c13c 0af0 ac3d
000000f0: 9ef6 a63d bfa0 b9bc 9799 bebd 8946 233d
00000100: a66f e0bd 2433 483d 9296 23bd aba6 14be
00000110: 7dae f9bc 5ec6 55be 97d0 d9bc d603 123d
00000120: b8a1 bb3b 4b8d 0fbe 44fb af3c 19c3 4dbd
00000130: a821 27bc 8a09 8e3b 97a7 82bb ea21 ea3d
00000140: 3d44 223d e253 92bc c2e1 5e3c 2a6d b8bd
00000150: 3164 8cbd b81d aabd a6b9 c4bd 8cdb 3ebe
00000160: 0771 473d 7e9f a3bd 257a ad3c dce3 ee3c
00000170: 5f19 aebd 43f9 d63b 77bf 9e3d 2932 203d
00000180: 14e9 853d e6bd 97bd 4a9e 0ebe f374 ee3c
00000190: 7690 dbbd 87ed 02be 8f42 9d3d 8e8e edbc
000001a0: d5f8 6a3d 1bea cebd 7492 d1bd ca9a cbbd
000001b0: e56b c73c bbfb 113d d866 4dbd a713 c4bd
000001c0: 5726 83bd 5ece cb3d e12b c93d d062 bd3d
000001d0: ebf8 1cbe 8939 f3bd 536c bc3d 8141 28bd
000001e0: b3b6 dcbc 7ece 03be 08b8 eabc bcef d2bc
000001f0: b2e0 2abd 8589 07be 2d30 0ebd b4d2 083d
00000200: 4d6e 2d3d fbb8 c93d 380e 90bd 2347 8b3c
00000210: 1435 523d f42e 6b3d 1b9b 8cbd 01a7 383d
00000220: 013a 81bd ac01 8b3d 8543 dfbc 2a49 633c
00000230: abe0 173d c695 fe3c 5df2 fe3b 59c3 92bd
00000240: cb8c be3b ca1f 04bd a2e1 d9bd 05e1 443d
00000250: 5e03 54bd 362f 373c 7f82 f1bd 6a9d cebc
00000260: 4ffa cf3d 3aac 92bd 5372 8cbc 1d5e 613b
00000270: 403c f9bc 28bc c73d 07da dcbc 1cac ef3d
00000280: d072 f63c ab62 d3bd 0419 043d 3a6f 903d
00000290: f43b ca3b 9f36 cf3d 39d7 92bd 7afd 523d
000002a0: 9181 e7bd 919f ad3d 97cb b8bd 1248 813d
000002b0: 036b 1bbd ef5b 423d bb75 dc3d f437 c0bc
000002c0: 5267 d8bd ddfd 51bb 67ae cd3d e00d e6bd
000002d0: 9eec b23c f829 883b d0b2 e83d 0a6b b6bd
000002e0: b4aa b73c a9ab 29bb f0c4 59bd de6c 3c3d
000002f0: 67fc 15bc 5da0 d9bc 8202 a8bd 7f89 e9bd
00000300: d18f a23d 3dbf a6bd 1749 abbd a948 a1bd
00000310: 6c42 183e d5ac 773e 4f13 bf3d 3d3d 4e3d
00000320: 08d3 0a3e f541 403e 821c 7f3d 5630 d4bd
00000330: 7a6e 59bd 54a7 a33d 5390 0ebe d2ae cf3c
00000340: 68c7 27ba 5ee5 4ebc 710c 053d acea f13c
00000350: 2cc5 063e f5f3 d2bd bbbe b7bd 9896 3b3e
00000360: 597e 5e3d 2361 423d e447 b63d 0f78 853d
00000370: 089e bd3c eb57 79bc bc08 8ebd 9476 4cbd
00000380: 8a92 bb3d a1d8 013e c67c e73d 6778 00bc
00000390: aa46 36bd f063 dabd c186 e43d f6ee 3d3d
000003a0: fe5c 0b3d 6dd4 6c3c 6e25 513e 4962 6f3d
000003b0: ace2 033e 029f b53d 66ed c1bd 9666 0b3e
000003c0: ae1b c73d 598d 043d 2a1e 1abd a11a 71bd
000003d0: 7c96 cb3c ff87 47bb bbd8 ff3b e6aa 3ebd
000003e0: 2123 09bc 1ebd 0d3e 1899 15be 7c0d 21bd
000003f0: f61a a23d af76 a73d 6135 293c bb1e cf3d
