data/results/lstm_regime_GOLD_r15d_r6_wNone.pt (torch, 221877 bytes, 9 tensors)

rnn.weight_ih_l0 f4 [256, 16]
000000 73 09 e3 3c 32 04 71 3d dd 94 ff 3d fc b4 32 3e
       0.027714467 0.05884189 0.12479565 0.17451853
000010 59 a0 f1 3c 33 e8 fc 3d df e5 2b 3e 65 38 18 3e
       0.029495405 0.12348976 0.16786908 0.14865263
000020 a0 be 90 3d b0 3c c0 bd 0e 18 44 3d 2d fa 10 3e
       0.07067609 -0.09386575 0.047874503 0.14157934
000030 42 7c f0 3d f0 ab a8 3c 18 e3 19 bd 6a ea c5 bd
       0.1174245 0.020589799 -0.03757009 -0.096638516
000040 47 b6 10 be 2d a3 16 be 6a 68 ec bd 1a 07 4c be
       -0.14132033 -0.14710684 -0.11543353 -0.19924584
000050 70 1e 3f bd 5c 2b 1b be d8 74 47 3d c6 0e 97 bd
       -0.046659887 -0.15153259 0.048695415 -0.07375865
000060 9c 15 7a be 3f c1 0a 3f 02 d7 38 3c cf aa 7a bd
       -0.24422306 0.5420112 0.011281731 -0.061198052
000070 ba 4a 36 3c 75 a3 67 3d 78 ef 99 3e a2 64 00 be
       0.011126215 0.05655237 0.30065513 -0.12538388
000080 c9 7f df bd 41 80 0e be db 33 a5 bd b8 34 f5 3c
       -0.10913045 -0.13916112 -0.08066531 0.029932365
000090 66 6d 71 bc c6 82 a0 bd d4 ff 13 3b 3e a3 28 be
       -0.014735555 -0.07837443 0.0022582905 -0.16468522
0000a0 b4 c6 d1 3e 2d 83 d6 bd 56 e2 e3 bd d2 4a 46 be
       0.4097191 -0.104742385 -0.111271545 -0.19364479
0000b0 f6 22 9a bd 15 5d 8a 3e ed 7a d8 bd e4 3e f5 bd
       -0.075261995 0.2702414 -0.10570321 -0.11974886
0000c0 fb 9c e0 bd 9c de 0a bc c1 36 3c 3d cd 7d 2f be
       -0.10967442 -0.008475926 0.045950655 -0.17137833
0000d0 c7 d6 12 3c 66 9d 13 3c 76 a2 90 bd 1c f1 34 be
       0.00896234 0.009009695 -0.07062237 -0.17670101
0000e0 63 a9 1f be ce 84 84 ba fd 1e 1d be f1 54 03 be
       -0.1559196 -0.001011038 -0.15343852 -0.12825371
0000f0 ed 47 38 be 86 7b 13 3d 8a 7e e0 bc 50 70 11 3d
       -0.17996188 0.036006473 -0.027404089 0.0355075
000100 99 b8 da 3d 49 07 1b bd c7 bf f2 3d 57 bd ad 3d
       0.106797405 -0.037848745 0.11852985 0.08483379
000110 39 65 f6 bd 33 40 19 3d 52 63 54 3c e5 b8 29 3e
       -0.120310254 0.03741474 0.012963133 0.16574438
000120 0d b3 9a 3d 78 74 ac bd 34 5b 89 bd 76 48 1b 3d
       0.075536825 -0.08420652 -0.06706849 0.0379109
000130 b4 bd 1d bb ac 03 f5 3b c7 5d dc bd b1 d2 c7 3c
       -0.002406937 0.0074772444 -0.10760074 0.024392458
000140 cf e5 2c bc 9e a9 37 3c de 48 23 be 16 01 8f 3e
       -0.0105528375 0.0112098735 -0.15945765 0.27930516
000150 54 af b2 bd a6 fe ad bc 84 cf 8a 3c d5 43 5a 3d
       -0.087248474 -0.02123959 0.016944654 0.053287346
000160 82 1d 70 3e 57 ee 16 be 63 68 84 3c 4b 58 f5 bd
       0.23448756 -0.14739357 0.016163057 -0.11979731
000170 88 12 56 be 2d 13 40 3e 4a b0 5b be 86 80 0a 3e
       -0.20905507 0.18757315 -0.21453968 0.1352559
000180 d9 40 af bc 64 90 1b 3b a2 45 3f bd 18 9f 48 bd
       -0.021393226 0.0023737187 -0.046697266 -0.04897985
000190 78 4b 0c 3e 17 84 8f bc 4f 0a 4b be 03 c8 8c bc
       0.13700664 -0.01751904 -0.19828151 -0.017185217
0001a0 de bc 77 3e 58 06 ba bd 80 89 e6 bc cb 91 56 be
       0.24193141 -0.09083241 -0.028141737 -0.20954053
0001b0 67 05 35 be 83 62 11 3d 00 d8 72 3d f5 d7 a7 3d
       -0.17677842 0.03549434 0.059288025 0.081954874
0001c0 94 84 b6 bd 43 05 1a be ae ce 81 be 11 94 b0 3c
       -0.08912006 -0.1504107 -0.25352997 0.021554979
0001d0 e3 c5 b4 bd f8 49 83 bd 05 7e 9a bd 6b e1 18 be
       -0.088268064 -0.06410593 -0.075435676 -0.1492974
0001e0 8f 9c 68 3e ef d4 af be 80 2e 82 3d 56 18 08 be
       0.22715972 -0.34342143 0.063565254 -0.13290533
0001f0 73 67 91 be 52 7a 01 3e 6e d4 75 be 29 30 2c 3c
       -0.28399238 0.12644318 -0.24006817 0.010509529
000200 81 c2 3e be 36 f9 e2 38 e4 e9 05 bd fb 44 93 bd
       -0.18628885 0.00010822939 -0.03269376 -0.07190891
000210 4e 17 90 3d 72 71 1b be 81 64 ef 3c e6 f2 6c 3e
       0.07035695 -0.15179995 0.029222729 0.23139533
000220 cc cb fa bc 67 f8 99 3c 2c 7b c6 bc 57 8a 74 bd
       -0.030614756 0.018795205 -0.024228655 -0.059702244
000230 1e 5c 01 3e e2 53 95 be 5e f3 87 3c 88 02 75 3d
       0.12632796 -0.2916556 0.016595539 0.059816867
000240 a4 ba ab be 40 50 69 be b8 7c ec bd 2b ce 34 bd
       -0.33540833 -0.22784519 -0.11547226 -0.04414193
000250 e8 fa b9 3d 6a 7c 41 be 81 c4 3f be 8f b0 93 bd
       0.0908106 -0.18895116 -0.18727304 -0.0721141
000260 7e 17 38 3e 6a d2 bd bd 61 61 7c be 37 7c 6a be
       0.17977712 -0.09268649 -0.24646522 -0.22898947
000270 ac 48 68 be 34 ea 12 3e fe 30 29 be 0e 69 cb 3d
       -0.22683972 0.14347154 -0.16522595 0.09932147
000280 cf f1 24 3e 2a 93 62 3d a1 f5 71 3e a3 17 be bc
       0.16107868 0.055316128 0.23628856 -0.02320463
000290 9c aa a0 3e 0a 10 91 3d 30 28 07 be a6 94 44 3e
       0.31380165 0.07083137 -0.13198924 0.1919733
0002a0 42 ca 64 bc 77 a9 a5 3e 78 c5 4e 3d 0b 0c 2e 3d
       -0.013964238 0.32355854 0.05048129 0.042491954
0002b0 17 d4 2d 3e 9a 88 27 bc c7 ce 98 3e e3 7a 80 bc
       0.16975437 -0.010225439 0.2984526 -0.015683597
0002c0 da 8f 43 3d c6 d1 b0 bd 3b bb 3d 3d 7e ab a8 be
       0.04774461 -0.08633761 0.046321135 -0.32943338
0002d0 78 f4 b6 bd 82 a8 bc bd de 4e 4c be 69 be 69 3d
       -0.089333475 -0.09211828 -0.1995196 0.057066355
0002e0 9f 57 07 be 3b 8f 9a 3e 1d ee 03 be 7b fc 81 bb
       -0.13217019 0.301874 -0.12883802 -0.0039668656
0002f0 11 fe db 3d 8d ca 40 bd ad 24 0c 3e 4a be c1 bd
       0.10741819 -0.047068167 0.13685866 -0.09460123
000300 a9 5c fa bd 61 f8 69 be 22 79 d6 be da 94 a3 3d
       -0.12224705 -0.22848655 -0.41889292 0.079873756
000310 cd 81 54 3e 31 91 4b bd 08 df 85 be f4 41 20 be
       0.2075264 -0.049699012 -0.26146722 -0.15650159
000320 a8 5c 84 3e 1b 86 b1 bd b5 14 bb bd ba 26 2a be
       0.2585194 -0.08668157 -0.09134809 -0.16616336
000330 de 35 86 bd 69 8f 4f 3e 8e 4a da bc 44 e6 9b 3c
       -0.06553243 0.2026955 -0.026646879 0.019030698
000340 87 52 1d be ac a9 2c be d9 6d 8b bc c3 39 7d be
       -0.15363513 -0.168616 -0.017020153 -0.24729066
000350 c4 c1 44 be 18 a4 5a 3d 5b bf cc 3b 00 aa 29 be
       -0.1921454 0.05337915 0.0062483973 -0.16568756
000360 01 b9 3c be 9e 5f 37 bd 8f ed c2 bd 72 99 05 be
       -0.18429948 -0.044768922 -0.09517967 -0.13046816
000370 52 ba 80 bd fe 70 44 be 99 48 ef 3b 3e e8 80 bd
       -0.06285538 -0.19183728 0.0073023555 -0.06294297
000380 93 ed 2b 3e 8d 2f 15 3e 7d 83 82 bd dc e7 bc 3d
       0.16789846 0.1456892 -0.06372736 0.09223911
000390 e0 03 1c 3e f8 83 6f bb 0d a8 a5 bd e1 f2 ae bc
       0.15235853 -0.0036547165 -0.08088694 -0.021356048
0003a0 a6 c6 08 3e 7d 09 a8 bd 0a d3 44 3e f7 10 85 3d
       0.13357028 -0.08204935 0.1922113 0.064973764
0003b0 59 6e 99 bd 3d b1 ef 3d 8e 3c be bd bf c0 c9 3d
       -0.0749175 0.117037274 -0.09288894 0.098512165
0003c0 28 ab 33 3e 71 95 0e 3e 8d 44 3b 3e 7d 75 9a bd
       0.1754576 0.13924195 0.18287869 -0.0754194
0003d0 4a ad 82 3e 6d cb 8c bd 4b 3b a2 3c 8e f9 6d 3e
       0.25522834 -0.06874738 0.019803664 0.23239729
0003e0 d7 49 8f be 6c 4d df 3e 23 33 01 be b3 ed 88 bd
       -0.27986023 0.43613756 -0.12617163 -0.066859625
0003f0 33 09 55 bd 9a 20 08 3e 14 71 9e 3e 8c fe 12 3e
       -0.052010726 0.13293687 0.30945647 0.14354914

rnn.weight_hh_l0 f4 [256, 64]
000000 b2 76 62 bd af 64 e2 3d b9 d4 49 3d 23 fa d5 3c
       -0.055288978 0.1105436 0.049275134 0.026120251
000010 b0 1a 2d bd fa 20 8b bd 48 9e 99 3d 84 89 5a be
       -0.04226178 -0.06793399 0.07500893 -0.2134152
000020 01 f3 20 3c 2a 63 69 be 55 bf 13 bd c5 1c d3 bd
       0.009823562 -0.22791734 -0.03607114 -0.10308222
000030 5a 0e 53 bb ea e9 4d 3c c4 b5 41 3d 2e 3b b4 bd
       -0.00322046 0.0125679765 0.047292486 -0.0880035
000040 7c 3c d9 bd 36 79 18 3e 47 3c a7 3c fc 7d da bd
       -0.106072396 0.14889988 0.020414485 -0.10668561
000050 a8 4e 83 3d 50 03 65 bd de b5 ae bd af 43 a1 bd
       0.06411487 -0.055911362 -0.08530782 -0.07874238
000060 db f8 d7 bc fc 69 09 3e 85 ef 51 3c df 6d 04 3e
       -0.02636378 0.13419336 0.012813454 0.12932537
000070 24 97 04 bd 78 f0 f0 bc 67 fd 06 3d 4a 31 ca bd
       -0.0323707 -0.02941154 0.032956507 -0.098726824
000080 67 ab 70 bc f1 3a 46 3c dd 2c d7 3d c4 a7 6b bd
       -0.014689303 0.012099014 0.10506604 -0.05753304
000090 07 1c 09 bc fc 36 7d bd e1 53 84 3d 2a 6e 21 3c
       -0.008368499 -0.061820015 0.06461311 0.009852925
0000a0 84 c2 82 bd ca d9 03 bd ed 6f 9c bb 8a 4d 4a bd
       -0.06384757 -0.03219012 -0.004774085 -0.049390353
0000b0 9c 24 1b 3d b9 70 91 3d 10 e5 f9 3d be 3a f9 3d
       0.03787671 0.07101578 0.12201893 0.12169407
0000c0 e3 f5 bd 3d e1 4b 0c bd 17 fd cd bd d2 cb 4b bd
       0.09275415 -0.03425205 -0.10058039 -0.049754925
0000d0 7c a5 c9 bd 99 66 90 bd 17 92 11 3e 3c c7 12 3d
       -0.09846017 -0.07050819 0.14215885 0.035834536
0000e0 51 05 72 3b af d6 5f 3c 66 69 cb 3c bd 71 af bc
       0.0036929438 0.013662024 0.024830531 -0.02141654
0000f0 6f d9 2d bd 39 27 21 bb 34 21 ba bd cb 9d 07 bc
       -0.04244369 -0.002459003 -0.09088364 -0.008277367
000100 92 14 88 3c ab 4a 2b be 51 19 3f 3e c6 7b cd 3d
       0.016611371 -0.16727702 0.18662001 0.100333735
000110 a7 65 0c 3d c2 b2 b6 bd 66 12 04 bd 19 dd 99 3d
       0.03427663 -0.08920814 -0.03224411 0.07512874
000120 00 3e 85 bc 17 c5 c5 3d 04 75 8f bd a4 e7 20 3d
       -0.016264915 0.096567325 -0.07004741 0.03928341
000130 87 7f 3b bd 1a b1 18 be 5c f6 7f 3d b9 5e 28 3e
       -0.045775916 -0.14911309 0.062490806 0.16442384
000140 f8 d5 ae 3c 4c d7 88 3b 94 01 72 be f6 b3 04 3d
       0.021342263 0.004176056 -0.23633415 0.032398187
000150 90 e4 85 bd 53 73 3d 3d 77 b2 a1 bc 81 34 43 3b
       -0.065377355 0.04625256 -0.019738419 0.0029785933
000160 98 f2 bc be a1 29 2f 3d e0 3c 79 3c c3 51 d0 bd
       -0.36903834 0.04276431 0.015212268 -0.10171845
000170 8d e2 c8 bd 15 84 0c bd 9d 2b ca bd f6 1a 82 bd
       -0.09808836 -0.03430565 -0.098716 -0.06352799
000180 a2 6c fd bd 50 42 46 3b 71 84 51 3d 1c ef b4 bd
       -0.12374236 0.0030251928 0.051151697 -0.08834669
000190 00 ce 2b be f5 ef 08 3d 3f af 13 3d a3 68 10 bc
       -0.16777802 0.033431966 0.0360558 -0.00881401
0001a0 94 30 c6 3d b3 7a ba bd e7 57 5c 3d 6c e3 08 bd
       0.09677234 -0.09105434 0.053794768 -0.03342001
0001b0 69 cb 7e 3d ac e4 28 bd 41 5f 43 3d 28 8c 0c be
       0.062205706 -0.041233703 0.047698263 -0.1372534
0001c0 a4 56 8f bd 41 d1 3b 3e 5b 44 87 bd 3d aa 2c bc
       -0.06998947 0.18341543 -0.06604835 -0.010538635
0001d0 2f 38 3d be 27 43 8c bd 6e cc 6d bd 9a 17 2e bd
       -0.18478464 -0.06848746 -0.058056287 -0.042502977
0001e0 24 0e 50 3e 34 29 95 bd e7 6d 5a bd 38 14 c7 3d
       0.20317894 -0.072832495 -0.053327467 0.09720653
0001f0 6f f4 4c bd 5a 47 e2 bd 7a 0d c1 bd c9 8b c5 bd
       -0.050037798 -0.110487655 -0.094263986 -0.096458025
000200 66 39 a5 3d 25 4b 16 be f7 7e 37 bd 89 bd 19 3d
       0.080675885 -0.14677103 -0.044798817 0.03753427
000210 06 f0 0d 3d 4f 6d 99 3b 9a d3 f8 bc 96 35 53 bc
       0.034652732 0.00468222 -0.030374337 -0.012891194
000220 6e 64 a4 bc f7 7a 8f 3c 87 17 29 bd 78 5d d1 3d
       -0.02006742 0.017514689 -0.041282203 0.10222906
000230 c8 2d a1 3b 67 28 cc 3d 12 51 b8 bd 79 2d 8c bd
       0.0049187876 0.09968644 -0.08999838 -0.06844611
000240 b6 6e 8d bd a7 f7 96 bd 23 d9 83 bd d7 15 ba bd
       -0.06905882 -0.07371455 -0.064379 -0.09086197
000250 1a 8a 37 3d 0c a4 87 3d 8a ba e7 bd 62 25 94 bd
       0.04480944 0.06623086 -0.113148764 -0.07233693
000260 2b af 99 be 7c 3a f1 bd f8 1f b2 bd dd f0 8a 3d
       -0.30016455 -0.11778733 -0.08697504 0.06784222
000270 8a af a1 bd 7b 63 0c bd bf db d7 bd fc 4a ab 3d
       -0.078948095 -0.03427456 -0.1053996 0.083639115
000280 c8 ac 95 3c 99 61 e5 3d 43 36 42 3d 9b 68 17 3e
       0.018270865 0.11200256 0.04741503 0.14785998
000290 16 37 30 bd 0b a7 b6 bc c6 bb 91 bc 1d 93 8d bb
       -0.043021284 -0.02229645 -0.017789733 -0.004320516
0002a0 55 92 07 bd e7 fb ee bd 48 dd ec bd 52 5c c5 3d
       -0.033098537 -0.1166914 -0.115656435 0.09636749
0002b0 30 82 9b 3d f1 00 bb 3c 62 5a 4c bb 46 32 64 3c
       0.07593191 0.022827597 -0.0031181802 0.013928002
0002c0 86 a0 49 3c c1 91 39 3e a0 6a 8f 3d b3 42 a7 bc
       0.012306338 0.18122007 0.07002759 -0.020417547
0002d0 bd 2b 46 3b 4d 32 f3 bd 56 fd 09 bd dd 30 0a bb
       0.0030238472 -0.118748285 -0.033688866 -0.0021086254
0002e0 5c 56 14 be f5 be 89 bd 0f b4 97 3d 7f 78 7d bd
       -0.14486068 -0.06725875 0.0740739 -0.061882492
0002f0 69 a3 3b bc 07 3c 30 bd 33 9a f4 3c 0a fa e4 bd
       -0.011452534 -0.043025997 0.029858684 -0.11180504
000300 36 ed 98 3d 63 fa 8c bd b5 28 2f bc b0 9f 25 bd
       0.074671194 -0.06883695 -0.010690858 -0.040435493
000310 f1 c3 93 bd c6 71 34 bd 34 7e c4 bc 99 ed 69 bd
       -0.07215107 -0.044053815 -0.02398596 -0.057111356
000320 d0 b4 4a bb 2c 7a 81 bd b1 09 90 bd 7a 9a 5b 3d
       -0.0030930527 -0.063221306 -0.070330985 0.053614117
000330 95 85 16 be 88 b1 68 3d 61 a7 73 3d 6c a0 4e bd
       -0.14699395 0.056809932 0.059485797 -0.05044596
000340 30 d7 19 bd 53 86 c5 bd 89 dc b3 bd 30 a7 6a 3d
       -0.037558734 -0.09644761 -0.08782298 0.05728835
000350 c8 a7 d8 bd 21 26 d2 3c d3 42 4c 3d 9f 42 24 bd
       -0.10578877 0.025652947 0.049868416 -0.040102597
000360 11 b2 3c 3d 91 70 47 3d a9 b1 05 be 64 9a 98 3d
       0.046068255 0.048691336 -0.13056053 0.07451323
000370 ad 3f 63 3d 45 e2 2b bd 56 a3 e6 3d 40 38 f2 3b
       0.055480648 -0.041963834 0.112616226 0.0073919594
000380 01 6f 9a 3c 88 ce 0f 3d 57 2b b7 3d 5c 6e 2a 3c
       0.018851759 0.035109073 0.08943813 0.010402288
000390 93 11 4a bd 87 37 40 bd 88 7d 8c bd 11 f2 f0 3c
       -0.049333166 -0.046927955 -0.06859881 0.029412301
0003a0 cb bf 90 bd fb 6e ec 3d 24 51 06 be 32 7d 87 3d
       -0.070678316 0.11544605 -0.1311689 0.06615676
0003b0 01 06 22 bd a1 e9 06 3d 85 e8 25 3d ea e3 b9 bd
       -0.039556507 0.03293765 0.04050495 -0.09076674
0003c0 a2 0d 22 3d 73 c9 6b 3d 4e 7a 56 bd 90 a5 c0 bc
       0.039563783 0.057565164 -0.052362733 -0.023516446
0003d0 24 21 c6 3c d5 67 db bb 35 69 f6 bd e3 83 99 bb
       0.024185725 -0.0066957274 -0.120317854 -0.0046849116
0003e0 17 a1 81 3c 62 91 99 bc bb a1 1c bd 9c c3 c2 3d
       0.015823884 -0.018746082 -0.038240176 0.09509966
0003f0 98 e2 09 bd 97 a3 37 bd 93 b9 04 3d 29 ae 1e bc
       -0.033663362 -0.044833746 0.03240354 -0.009685078

rnn.bias_ih_l0 f4 [256]
000000 5b b1 b3 bd a6 55 b4 3d 2d d8 01 3d 43 56 80 3d
       -0.08774062 0.08805399 0.031700302 0.06266453
000010 82 8d de 3d f8 2d aa bd 49 55 b3 3a 5d 75 8f 3d
       0.10866834 -0.08309549 0.0013682033 0.07004807
000020 75 38 df 3b d4 ab 5b 3e ed c0 9d bd a7 ff 4d bd
       0.00681215 0.21452266 -0.07702813 -0.050292637
000030 60 96 61 3e 1f 6c a8 3c e2 10 ce 3d 52 9e e0 3d
       0.2203002 0.020559369 0.10061814 0.10967697
000040 6e f7 03 be 31 79 ae bd 82 62 3e 3e 13 fc 93 bb
       -0.12887356 -0.08519209 0.18592265 -0.0045161336
000050 81 69 a6 bc 59 20 c0 bb 25 91 fe 3c 6c fc bb bd
       -0.02031398 -0.005863231 0.03107507 -0.09179005
000060 49 de 1d 3e 23 ee c3 bd fb ff 62 3b 86 b8 72 bd
       0.15416826 -0.09566905 0.003463744 -0.059258007
000070 fd e2 e7 bd cb 31 e3 bc 2b da c1 3d d5 03 15 bd
       -0.113225915 -0.027733704 0.0946544 -0.036380608
000080 53 c3 a6 bd 66 46 b2 bd 87 b0 38 3d 86 39 b6 3c
       -0.08142724 -0.08704834 0.045090225 0.022244226
000090 21 1f ae bc 8c 60 f5 bd fb 3c 96 bd e3 1b 0c bd
       -0.021255078 -0.119813055 -0.0733585 -0.034206282
0000a0 5e c1 2e 3d 48 13 d7 3d 1d 99 0f 3c b8 14 14 3d
       0.042664878 0.105017245 0.008764532 0.03615257
0000b0 28 24 88 3c 24 83 93 bd 6a 41 e9 bd aa a7 87 3d
       0.016618803 -0.072027475 -0.1138943 0.06623776
0000c0 b3 bc dc bd aa 3f 7c 3a 18 e4 ff bd 13 e5 21 3e
       -0.10778179 0.0009622524 -0.12494677 0.15810041
0000d0 62 bb 24 3a 18 7c a4 3d d8 91 d6 bd e2 e1 95 3d
       0.0006284026 0.080314815 -0.10477036 0.07318474
0000e0 d0 8a f2 3e f1 18 c9 bb 7d c3 a9 3d d6 fe 86 bd
       0.4737153 -0.0061370065 0.082892396 -0.06591575
0000f0 c6 7c fb bd 92 47 5e 3d 0a 85 b3 3d 6b 92 85 bd
       -0.12279658 0.054267474 0.087656096 -0.06522068
000100 8b 70 91 3c 30 ae f4 3d e9 87 d5 3d 0e b0 cd bd
       0.01775386 0.11947286 0.104263134 -0.100433454
000110 26 d9 02 be ad cf 7e 3d 37 ce 74 bc 3f 52 f0 3d
       -0.12778148 0.062209774 -0.014941744 0.11734437
000120 50 82 db bd cd e7 10 be c2 7a 74 bd f5 c5 89 3d
       -0.107182145 -0.14150925 -0.059687383 0.067272104
000130 ed 2f 16 be 0f 0d 64 3c 04 30 8c 3d 67 69 29 bd
       -0.1466672 0.013919129 0.06845096 -0.041360285
000140 23 28 8f bd e8 0e b9 3d 00 c3 bb 3d 10 b3 91 3d
       -0.06990077 0.09036046 0.09168053 0.071142316
000150 86 9f 9f bd 69 73 34 3d 3d 10 e5 bd 1e e1 a0 bc
       -0.077940986 0.044055376 -0.11184738 -0.019638594
000160 e1 9e 48 3e 8d 51 0d be 61 f4 bb bd e6 9f ed 3a
       0.19591857 -0.1380064 -0.09177471 0.0018129318
000170 43 94 da bd 75 6c 2b bd 18 fe 3d 3d b1 c3 51 bc
       -0.1067281 -0.04185148 0.0463849 -0.012803004
000180 6a 66 3c bc 57 16 43 bd bc 0d 8c 3d f2 66 cc bd
       -0.011499027 -0.047628727 0.06838557 -0.09980573
000190 2f f5 e5 b9 57 5b 14 bd b8 71 28 bd 50 fd de 3d
       -0.0004386096 -0.03621992 -0.041124076 0.10888159
0001a0 c7 95 0e be 44 25 98 bd d0 d1 83 3c ee 94 97 bd
       -0.13924323 -0.07428983 0.016091257 -0.07401453
0001b0 04 f0 e3 bc 3d 1b 32 bd 7d 1d c6 bd 57 a4 ad 3d
       -0.02782441 -0.043483008 -0.09673593 0.08478611
0001c0 71 c7 0d bd d6 b2 ff 3d b9 16 b6 bd 1c 82 86 3d
       -0.03461403 0.12485282 -0.08891053 0.06567785
0001d0 50 cc 4f bd c2 d5 93 3d b3 7d a5 bd 31 fd 71 3c
       -0.050731957 0.072185054 -0.08080616 0.014769838
0001e0 4e 21 f2 bd 83 7e 1d be 2f a2 06 bd 83 fc a2 bd
       -0.118227586 -0.15380292 -0.032869514 -0.07958319
0001f0 c6 db 9b 3d c8 83 5f bd fe 27 98 3d ca b1 28 bd
       0.07610278 -0.054569036 0.07429503 -0.041185178
000200 92 ce f9 3b 55 46 99 bd 6c d2 ce 3d 23 c6 ca 3d
       0.007623502 -0.07484118 0.100987285 0.09901073
000210 5a dd a1 bd c3 0c ad 3d 18 b6 c4 bd 26 b7 01 be
       -0.079035476 0.084497 -0.09605044 -0.12667522
000220 cb 1d 48 3d ea 02 da 3d a3 cd d1 3d 26 74 d8 bb
       0.048856538 0.10645087 0.102443 -0.006605643
000230 9e 5c c1 3c 09 0a 9f bd 67 40 b0 3d e0 bf 4b 3d
       0.023603734 -0.07765586 0.08606034 0.049743533
000240 05 6d f0 3c 40 4f ce 3d 59 1a ee bd 88 30 33 bd
       0.02934886 0.100737095 -0.11626119 -0.043747455
000250 4a 33 b3 bd 44 4c 8d bd f1 2a 20 3a 0b 03 38 bd
       -0.08750017 -0.06899312 0.00061099144 -0.044924777
000260 4b a8 8b 3d 97 bf 78 bd 78 77 88 3d 73 f1 ac bd
       0.06819209 -0.06072959 0.06663412 -0.0844449
000270 ab e1 78 bd 7e 6f 73 3d 0a 3d d3 3d 3e d7 ef bc
       -0.06076209 0.0594325 0.10314377 -0.02927744
000280 72 7f 89 bd d1 0c 49 bd 29 d8 60 3d 75 0d 10 be
       -0.067137614 -0.04908449 0.054893646 -0.14067633
000290 ea 23 c5 bd ba 99 91 bd f9 07 1d bc 1e 7b c6 3d
       -0.09625991 -0.07109399 -0.00958442 0.096914515
0002a0 f6 b0 d9 3d d9 6f a3 3b 31 e0 81 3c d7 11 7e bd
       0.10629456 0.0049876985 0.015853973 -0.062028732
0002b0 db 0d 88 3d e8 5c d2 3c e5 1f 31 bc a2 ce 87 3c
       0.06643268 0.025679067 -0.010810827 0.016578022
0002c0 10 b8 b1 bd a2 ad 8e bd 15 54 21 bd 45 6f fe 3c
       -0.08677685 -0.069667116 -0.039386827 0.031058917
0002d0 d3 69 59 bd b0 58 02 3d 28 27 b7 3d d8 29 86 3d
       -0.053079437 0.03182286 0.08943015 0.0655095
0002e0 84 e7 70 bd 9a aa 59 3d a6 d1 c6 bd 11 54 a1 3d
       -0.05881454 0.053141214 -0.09707956 0.078773625
0002f0 25 9a f6 bd 80 8b af 3b 2a f6 89 bd 60 48 d4 3d
       -0.120411195 0.005357206 -0.06736405 0.10365367
000300 f4 90 c9 3d a5 98 dd 3a c6 51 eb bd 30 ee 02 be
       0.09842101 0.0016906454 -0.114902064 -0.12786174
000310 63 87 7c bd 52 1a 1d bd 84 be e9 3d 6b 64 aa bd
       -0.061652552 -0.03835518 0.11413291 -0.083199345
000320 ee de 83 bd 3f a1 9a 3e d6 ee d0 bd 00 99 3d bd
       -0.06439005 0.30201146 -0.10201804 -0.04628849
000330 38 4d 22 3e 1d 59 e2 bd e0 c0 d0 3d f8 55 41 3e
       0.15849769 -0.11052153 0.10193038 0.1888045
000340 6e 0b 91 3d fc d2 3f bd db b7 27 bd 98 1a 63 3d
       0.07082258 -0.04683207 -0.040946823 0.055445284
000350 af 2b 89 3d 1d 94 94 3c a7 42 01 3c 06 2d 83 3d
       0.06697785 0.018137032 0.007889426 0.06405072
000360 b1 e9 28 3e a6 94 6b bc 89 c0 64 bc 49 93 9d 3d
       0.16495396 -0.014378702 -0.01396192 0.07694108
000370 31 9f 08 be e5 11 98 3b d3 37 81 3d 4f 35 ad 3d
       -0.13341977 0.004640805 0.06309476 0.084574334
000380 3c bb 23 bd 0c 38 35 bc 2d 85 ee 3d ee 0b bf 3d
       -0.039973482 -0.011060726 0.11646495 0.09328447
000390 df c7 8f 3d 23 ff d2 bd a7 aa 84 3d 72 d4 6b 3d
       0.07020544 -0.1030257 0.06477862 0.05757565
0003a0 14 e0 1a 3e 2b 13 96 bd 2b 6b 9f 3d f8 98 4d bd
       0.15124542 -0.07327875 0.077841125 -0.05019471
0003b0 a3 ac a3 bd 86 e9 b5 bc 08 91 86 bd 2e 26 bc bd
       -0.07991912 -0.02220608 -0.06570631 -0.0918697
0003c0 63 6b aa 3c 1d 0e 46 3c a5 d7 5b 3b 25 e8 10 3e
       0.02080316 0.012088326 0.0033545282 0.14151056
0003d0 c9 64 58 3e 58 6f cb 3c 55 d4 0c be 69 f3 5d bd
       0.21132196 0.024833366 -0.13752873 -0.054187212
0003e0 46 e1 09 3f a8 e6 a2 3d 18 cb 0a bd 92 50 43 bd
       0.53859365 0.079541504 -0.03388509 -0.04768426
0003f0 f8 59 e7 bd 48 c4 90 3d da 7e 04 bd 59 1d 11 3e
       -0.11296457 0.07068688 -0.032347538 0.14171351

rnn.bias_hh_l0 f4 [256]
000000 95 ec e0 3d b8 98 8d bd 67 43 0f 3d 2f 85 fc bd
       0.109826244 -0.069138944 0.03497639 -0.1233009
000010 1d c4 56 3d f2 b3 b4 3d 60 68 f2 bd 75 65 86 bd
       0.052433122 0.08823384 -0.11836314 -0.0656232
000020 26 20 9e bd ba 5a 54 3e 53 78 8b bd f1 5b 21 3d
       -0.077209756 0.20737734 -0.068100594 0.039394323
000030 b6 d6 44 3e cb 15 bf 3d f6 5a 9a 3d 08 a7 be 3d
       0.1922253 0.093303286 0.07536881 0.093092024
000040 65 6b 77 3d 10 97 8b 3c d6 8e fd 3d a5 e0 e1 bc
       0.060405154 0.017039806 0.123807594 -0.02757294
000050 b1 e0 ef bb 14 d9 d9 bd 48 c6 f1 3d fc 1a aa 3d
       -0.0073204865 -0.106371075 0.11805397 0.08305928
000060 42 3e 9f 3d b9 3e 9e 3d 9e 95 3a bd 8d 14 98 3d
       0.077755466 0.07726807 -0.045552842 0.07425795
000070 ed 0a e4 bd 27 c1 c4 3d 07 70 c7 bd f7 a4 c1 bc
       -0.111348964 0.096071534 -0.097381644 -0.023638232
000080 a9 be 41 bd be 79 93 bd 63 47 3a 3b c5 b1 29 bc
       -0.04730097 -0.07200955 0.0028423897 -0.010357325
000090 f8 c2 67 3d 43 a5 c8 bc a9 ea d4 3d 5f 9f 12 bd
       0.05658242 -0.024492865 0.103963204 -0.03579652
0000a0 f1 5a df bc f4 6a 19 bd 84 98 d3 3d fd d4 6d bd
       -0.027265044 -0.037455514 0.103318244 -0.05806445
0000b0 fc 7f 84 3d 53 c0 a5 bc 3c fa 9e 3d a0 d7 cf 3d
       0.064697236 -0.020233309 0.07762572 0.10148549
0000c0 17 13 c7 bd 15 48 d4 3d 59 eb e9 bc 3b 8e 09 3e
       -0.09720438 0.10365311 -0.028554605 0.13433163
0000d0 98 e0 d2 3c 59 09 4e 3c 98 b3 f0 bd a2 47 bd 3d
       0.02574186 0.012575471 -0.11753005 0.092421785
0000e0 1e aa d1 3e 36 3e 2b bb 23 98 9f 3d bf 90 75 bc
       0.40950102 -0.002612961 0.0779269 -0.014988123
0000f0 db 4d 9d ba 51 54 66 3c 82 ed c6 bd 0f a5 ef 3d
       -0.0012001352 0.014058189 -0.0971327 0.11701404
000100 aa 56 2a 3d cf 40 f8 bc 3d cd df 3d 07 9c dc bc
       0.041586556 -0.03030434 0.10927818 -0.026929868
000110 b8 e7 f3 bd 3a df 50 3d e6 0e a7 bd 1f 2c c2 bd
       -0.11909431 0.050994135 -0.081571385 -0.09481072
000120 9b 39 cf 3c 1c 87 63 bd e7 f0 12 bd 09 6a 9f bd
       0.025296023 -0.055548772 -0.035874274 -0.077838965
000130 71 e0 62 3d 67 e0 31 3d fe 16 fa bd d2 16 a4 3c
       0.055389825 0.043426897 -0.12211417 0.020030413
000140 9d 9c b6 bd 02 1f e6 3d 5d 7e f3 bd d7 e3 d6 bc
       -0.0891659 0.11236383 -0.11889336 -0.02623169
000150 aa 82 03 be 17 0a 8e bd 5a 29 a3 bd ce 03 6c 3d
       -0.12842813 -0.06935518 -0.079668716 0.057620816
000160 36 84 c5 3d 5b 70 87 3c 3c 89 8c bc 65 a6 9d 3d
       0.09644358 0.016533067 -0.017155282 0.07697753
000170 1c 91 0c bc e3 b4 57 3d 4e df 1b bb 20 bf 07 3c
       -0.008579519 0.05266274 -0.0023784223 0.008285314
000180 77 9a 5b bd 93 3c aa bd 18 e8 57 3d f1 1e db bc
       -0.053614106 -0.08312335 0.052711576 -0.026748152
000190 00 47 ad bb 56 45 b3 bc 55 d8 d8 3d b2 2f ff bd
       -0.005288005 -0.021883648 0.10588137 -0.12460269
0001a0 29 21 2d bc bf c0 ee bc ef 8b d1 3d 97 d0 f3 bd
       -0.010566988 -0.029144643 0.10231768 -0.1190502
0001b0 f4 4f e2 3c 3b 10 a6 bd 47 d9 72 bd 8b cc fc bd
       0.027626015 -0.081085645 -0.059289243 -0.12343701
0001c0 af 3a 5a bc f2 60 11 bc 24 e1 0a be e4 3e 63 bd
       -0.013319655 -0.008873211 -0.13562447 -0.0554799
0001d0 78 af b4 bd 33 8d 5c 3d 4d 33 aa 3d ad 62 b6 bc
       -0.088225305 0.053845596 0.08310566 -0.02226385
0001e0 ba 42 f7 bd 4b d0 80 3b 22 df 4b bc dd 29 94 3d
       -0.12073274 0.0039310805 -0.012443336 0.07234547
0001f0 e4 d8 1c be 38 b3 de bd fe c9 5b bd 28 52 d5 bd
       -0.15317112 -0.10874027 -0.05365943 -0.10416061
000200 bd 83 c0 bd 80 43 36 3d d4 ec a9 3d b5 ce 28 b8
       -0.09400127 0.044497967 0.082971245 -4.0246832e-05
000210 ad 2a 69 bd 62 74 1a bc 00 0a ed 3d ee e0 bf 3a
       -0.056925464 -0.009427162 0.11574173 0.0014639178
000220 fe a5 c2 3d 4e 3a 09 bd 3d 6e a6 3d b0 c4 60 bd
       0.09504317 -0.03350287 0.08126495 -0.054875076
000230 59 6d de bb 22 80 90 bc cf 36 89 bd 91 e1 ad 3d
       -0.0067879376 -0.017639223 -0.06699907 0.08490289
000240 31 0a 55 bc 41 96 b6 3c 0c 31 f9 bc cb f8 86 bc
       -0.013002918 0.022288444 -0.030418895 -0.016476056
000250 af 5c 47 bd ed 26 13 bd 8e cf dc 3d 79 8f 75 3d
       -0.048672374 -0.035925794 0.107817754 0.05995128
000260 8f 57 f0 bd 30 f2 c1 3d cc f7 9e bc 17 e9 7e 3d
       -0.117354505 0.09470022 -0.019405268 0.06223401
000270 36 da 85 bd 16 98 6a 3d 28 e7 08 bd 6f 9c 58 bc
       -0.06535761 0.057273947 -0.033423573 -0.01322089
000280 b0 09 b9 3d b1 ff 2a bd 79 9c d8 bd d2 63 7e 3d
       0.09035051 -0.041747753 -0.1057672 0.062106915
000290 68 34 c5 bd 05 6e ed bc 89 94 82 3d eb 5b e4 bc
       -0.09629136 -0.028983125 0.06375987 -0.027875861
0002a0 2a e1 48 3d 12 61 e9 bd d6 6b c2 bb e0 1f 6d bd
       0.04904286 -0.11395468 -0.005933265 -0.057891726
0002b0 e5 87 c5 3d da b0 3e bc ef e1 8c 3d 58 36 eb bc
       0.096450604 -0.011638844 0.06879031 -0.028712437
0002c0 35 18 df 3a 46 44 db 3d a5 d4 c7 bd 00 73 46 bd
       0.0017020764 0.107063815 -0.097573556 -0.048449516
0002d0 fe 19 aa 3d 0a 0c cb bd dc 6c c8 bb f6 9d f1 bd
       0.08305739 -0.09914406 -0.0061164927 -0.11797707
0002e0 45 44 ae 3c ce 37 d9 3d ac de b9 bc 39 a9 09 3c
       0.021272788 0.10606347 -0.022689186 0.008402162
0002f0 5c 6a bc bc 62 b2 01 be e9 52 ba bc b6 6c 15 3c
       -0.022999935 -0.12665704 -0.022744613 0.009120157
000300 56 e0 e3 3d 6f fb 32 3d 00 d5 2d 3c 84 2a a5 3d
       0.11126773 0.043696817 0.010609865 0.0806475
000310 b7 d4 38 3d 7e b1 43 bc 96 80 c9 bd c5 83 32 3d
       0.045124736 -0.011944173 -0.09838979 0.043582696
000320 14 88 d0 3c 7d 82 35 3e 48 f3 fc 3d dc 19 7c 3c
       0.025455512 0.17725559 0.1235109 0.015387025
000330 7c c3 ad 3d a6 d3 01 be 29 ef f2 3a 9e 37 48 3c
       0.08484551 -0.12678394 0.001853441 0.012220291
000340 17 da 7f bd 1c b0 5e 3d 39 96 83 bc 2e 91 3f 3d
       -0.062463846 0.05436717 -0.016062843 0.046769314
000350 ec 0f 38 bd b6 47 40 bd db c9 89 bd 9a 93 f5 3d
       -0.04493706 -0.04694339 -0.06727954 0.119910434
000360 4d a7 de 3d 70 87 c5 3d 91 32 37 bd ed 31 60 3d
       0.10871754 0.09644973 -0.04472596 0.054735113
000370 4b 1f 8e 3d d8 f5 80 bd 29 94 9d 3d 73 de ca 3d
       0.069395624 -0.06296891 0.07694275 0.0990571
000380 c0 dd 76 bd cd 09 2c 3d a6 22 b2 3c fa f3 94 bd
       -0.06027007 0.042001534 0.021745037 -0.07273097
000390 99 90 1f bd 67 52 df bd 11 79 85 bd 46 98 23 bd
       -0.03895626 -0.10904389 -0.06517232 -0.03994014
0003a0 3f 9f fd 3b eb cc e4 3d 15 b9 71 bd c5 9f 97 3c
       0.007739931 0.111718975 -0.0590144 0.018508801
0003b0 98 2d 9a bc 01 b5 93 bd 2d b9 e0 3b f8 57 e4 bd
       -0.018820569 -0.07212258 0.006858012 -0.11149591
0003c0 13 bd f4 bc 74 52 f2 3c b9 d2 0e ba c6 ce c1 3d
       -0.029875314 0.029580332 -0.000544827 0.09463267
0003d0 dc f0 b9 3c a0 7d bb 3d a9 31 16 be c9 f5 bb 3d
       0.022697859 0.091548204 -0.14667381 0.09177739
0003e0 b9 d9 d5 3e 8c f2 02 bc 27 05 ab 3d f8 43 a9 bd
       0.41767672 -0.007992398 0.08350592 -0.08264917
0003f0 f4 90 ca 3d 0a 00 b0 bc 0a 90 b5 3d 4e 86 19 3b
       0.09890929 -0.021484394 0.08865364 0.0023426

rnn.weight_ih_l1 f4 [256, 64]
000000 80 20 5c bd b8 a3 0f bd e9 60 52 3e 7c 69 99 3d
       -0.053741932 -0.035068244 0.20544781 0.07490823
000010 e1 39 8c 3c 97 40 bb bd 2a 78 ff 3a 6d 1b 86 3d
       0.017117443 -0.09143179 0.0019490768 0.065482
000020 4f 69 04 3e 8b 00 09 be 62 f4 10 3e 5d 5b d2 3d
       0.12930797 -0.13379113 0.14155725 0.102713324
000030 7d bd c0 bd c7 be f3 bc 23 28 9b 3d 69 8f 30 bb
       -0.09411142 -0.029754056 0.07576015 -0.0026940948
000040 62 ce 07 3e 49 0c 88 3d 62 01 ff bb 0c 1c 58 bd
       0.13262323 0.06642968 -0.0077821473 -0.052761123
000050 4e 16 9a 3d ee 7a 9b bd ef 02 43 bb 50 46 d2 3c
       0.075237855 -0.07591806 -0.0029756387 0.025668293
000060 52 0b b4 bd ee d0 ed bd 4a 75 1c bd 7e df e1 3d
       -0.08791222 -0.11612116 -0.038197793 0.11028956
000070 c3 6b b2 3d d1 5e a6 3d 31 28 33 3d 98 2f fe 3d
       0.0871196 0.081235535 0.0437395 0.124114215
000080 b9 c3 a3 bd fe 62 bb 3b 99 9e 26 be 0d 98 8e 3d
       -0.079963155 0.005718588 -0.16271438 0.06962595
000090 8c f0 76 3d 91 15 67 bd 3a 2f 9e bb 67 c4 35 3d
       0.060287997 -0.05641705 -0.004827407 0.044376757
0000a0 5d 18 17 3d 3f 15 bb bd 0e b6 97 bd 81 e8 e8 bc
       0.03688847 -0.09134912 -0.07407771 -0.028431179
0000b0 94 45 c5 bc 89 d1 a9 3c 9f 53 62 bd 50 db 9a bd
       -0.024081029 0.020729797 -0.05525553 -0.07561362
0000c0 76 2a 9c bd e4 2a 29 3d d3 5b aa bd 25 2b 1d bd
       -0.07625286 0.04130067 -0.08318295 -0.038371224
0000d0 eb 1a 1e bb c2 f1 dc bd 6b 30 e3 bb be fe 80 3c
       -0.002412493 -0.10788299 -0.006933262 0.01574647
0000e0 36 00 30 3e a4 ba ba 3d 21 bd e7 3d 53 8d c6 3d
       0.1718758 0.0911763 0.1131537 0.09694924
0000f0 57 b1 d4 bc 64 96 08 bd 41 30 6f bb 00 fd e5 bd
       -0.025963468 -0.03334655 -0.0036497267 -0.112298965
000100 19 4f a8 bd ca 56 95 3d 34 32 5f 3d ae 7e 30 bd
       -0.08218212 0.07291944 0.054491237 -0.04308956
000110 67 e2 05 be ac 63 96 3b b9 ce b0 3d ee 83 ca 3d
       -0.13074647 0.0045895185 0.08633179 0.09888445
000120 1a 93 84 3d 50 28 02 3e 44 a6 2e bd 3e e2 e1 3d
       0.0647337 0.1271069 -0.042639032 0.110294804
000130 54 f2 a4 3d 0f 51 81 bc af 59 48 bd e8 be d6 3c
       0.08054033 -0.015785722 -0.048913654 0.026214078
000140 5c 33 25 3d a3 98 cc bd a6 da d8 3c c9 81 04 3e
       0.040332183 -0.09990051 0.026471447 0.12940134
000150 f8 20 a7 bc 0a c4 fb 3d c7 3a ed 3d 7e 3b c4 3d
       -0.020401463 0.12293251 0.115834765 0.0958166
000160 14 b7 fd bd d9 36 c3 3d d3 1b e3 bd 20 5c 4e bd
       -0.12388435 0.09531946 -0.110892914 -0.050380826
000170 72 d6 6a bd ab a3 db bd 4b e5 0a 3d 57 eb 4e bd
       -0.057333417 -0.107245766 0.033910077 -0.050517406
000180 70 e8 3c bd f5 bf a7 bc ad 25 91 3d c4 88 22 3d
       -0.046120107 -0.020477274 0.07087264 0.03968121
000190 47 2e 16 3d bd 01 95 3d 3f 46 0f be 2a eb a6 3d
       0.036665227 0.07275722 -0.1399164 0.08150323
0001a0 38 55 95 bd 0c c0 12 3e b0 66 9a bd 43 7f 12 bc
       -0.07291645 0.14331073 -0.07539117 -0.008941474
0001b0 42 69 41 bd 77 bb a7 3d 64 0d 9f 3d 42 e1 9c bd
       -0.047219522 0.08190053 0.07766226 -0.07660152
0001c0 9d 38 b9 3d b8 46 81 3d 4b 4d 06 3e c9 92 75 3d
       0.09044001 0.06312317 0.13115422 0.05995444
0001d0 f9 60 a6 3c 48 fe a4 bd f1 6d 81 3d 0b 48 14 be
       0.020309912 -0.08056313 0.06319798 -0.14480607
0001e0 95 f0 1b 3e 68 a7 55 bd cc 7b dc bc dd ee 07 3d
       0.15228494 -0.052161604 -0.0269145 0.033186782
0001f0 f5 cb 0f be 74 4b 60 bd c8 73 06 3e 39 1f 96 bd
       -0.14042647 -0.054759458 0.13130105 -0.07330174
000200 8c 90 a5 bd cb 79 d8 3c 65 e7 5a bd d2 fe a5 bd
       -0.08084211 0.026425263 -0.05344333 -0.08105244
000210 93 69 3e 3d 10 2a a6 bd 67 53 00 be 80 02 1b bd
       0.046487402 -0.081134915 -0.12531815 -0.03784418
000220 1c 27 bd 3d 49 31 25 3d 22 f7 ce bd c8 bd b6 bd
       0.09235975 0.040330205 -0.101057306 -0.08922917
000230 00 69 9a bd 26 e5 44 bd 5d 66 7d bd b1 84 ad 3c
       -0.075395584 -0.048070095 -0.0618652 0.021181436
000240 5a f9 78 bd a2 79 a0 3d ba 88 c0 3d bc 47 e8 bc
       -0.060784675 0.078356996 0.094010785 -0.028354518
000250 14 77 c5 3d ad 70 d6 bd 42 c8 e7 3d d4 70 70 bd
       0.09641853 -0.1047071 0.11317493 -0.05870135
000260 59 9c ea bd 1a 11 81 3d 06 03 6b 3d b4 0a c7 bc
       -0.11455602 0.0630209 0.05737593 -0.024297096
000270 0e 48 34 bd d8 77 9c bd 03 10 93 bd fa 03 cf 3d
       -0.04401403 -0.07640046 -0.07180788 0.1010818
000280 f1 a4 02 3e 51 dd 06 3e 14 df fc bd 01 e4 84 3d
       0.12758233 0.13170363 -0.12347236 0.06488801
000290 e2 ba 8c 3d 99 69 f1 bc 53 8b 5b 3c 15 b4 d8 bd
       0.068715826 -0.029469298 0.013399917 -0.10581223
0002a0 f4 8f 6b bd f4 ec 01 be d2 e8 e8 3d 75 13 76 bd
       -0.05751033 -0.12688047 0.11372532 -0.06007715
0002b0 5a 28 fa bc 8f f6 92 bd 6c ce 8d bd 53 a9 a2 3d
       -0.03053682 -0.071759336 -0.069241375 0.07942452
0002c0 86 56 f6 bd da f8 1b bc ca 68 5b 3d 1e c6 da bc
       -0.12028222 -0.00951978 0.05356673 -0.026705798
0002d0 f6 03 48 bd 4a c6 bb 3d b5 46 de 3d 58 67 9b 3c
       -0.048831902 0.0916868 0.1085333 0.018970177
0002e0 13 bd 2f 3d 94 e4 d6 3d 00 fb 0d 3d d6 83 fb 3d
       0.042904925 0.104928166 0.0346632 0.12281005
0002f0 30 8e f0 3d e5 f6 0d bc 04 3a 7e 3c 71 a9 a3 3d
       0.1174587 -0.008664821 0.015516762 0.07991303
000300 e3 ee cb bd cb c8 9a 3d e9 70 c9 3d 57 4e ba 3d
       -0.099576734 0.075578295 0.09835989 0.090969734
000310 c8 e6 96 bd c5 0c 6e 3d d4 0e f9 bc 15 c8 a1 3d
       -0.07368237 0.058117647 -0.030402578 0.07899491
000320 d6 33 66 3d 72 d2 6f 3c 3d d0 e7 3d 08 4b f4 3d
       0.05620178 0.014637576 0.11319015 0.119283736
000330 5d 9a 07 3d 17 47 d7 bd 12 41 01 be 21 d2 7d 3c
       0.033106197 -0.10511606 -0.12622479 0.015491993
000340 69 44 00 3e a3 2e 64 bd e0 a6 5b 3d 71 1e 9d bd
       0.12526096 -0.05570854 0.05362594 -0.07671822
000350 d9 f6 ca 3d 5e 58 a5 3c bb fc c4 3d cf ca aa bd
       0.09910364 0.020183738 0.09618517 -0.08339464
000360 c1 26 1a bd c1 93 bc 3d 5c 6b 9f bd 9c e9 09 3d
       -0.037634615 0.09207869 -0.07784149 0.033670053
000370 e7 2a a6 3d da 7c de bd b8 ac f0 bd 8e 29 9d bd
       0.08113652 -0.10863657 -0.117516935 -0.076739416
000380 0a 78 9c 3d 03 19 70 3c 9b c1 fb bd a8 09 f2 bb
       0.07640083 0.014654401 -0.12292787 -0.007386405
000390 43 3c 73 bc 16 e4 10 3d d4 7b 0b be b9 ce 5e bd
       -0.0148459105 0.03537377 -0.13621455 -0.054396365
0003a0 48 96 ef bc ab 01 95 bd 43 9b b9 bb 13 07 e7 bd
       -0.029246464 -0.07275709 -0.0056642606 -0.11280646
0003b0 68 96 68 bd 80 a7 f5 3d e3 17 da 3d 73 91 a8 3c
       -0.056784064 0.11994839 0.10649087 0.020577168
0003c0 70 ed 8a bd 09 d5 2b be 68 83 6f bc aa c1 57 bd
       -0.06783569 -0.16780485 -0.014618732 -0.052674927
0003d0 92 e5 71 3d e7 23 d6 3d b8 8e 74 bd c1 d2 ab 3d
       0.059056826 0.104560666 -0.05970642 0.083898075
0003e0 f7 f2 c6 bd ec e9 ad 3c 41 a3 08 bd 82 b2 97 3c
       -0.097143106 0.021229707 -0.033358816 0.018517736
0003f0 12 8e ef bd 85 85 31 bd 85 93 0d bd 13 76 e3 3d
       -0.1169702 -0.043340225 -0.034564514 0.11106505

rnn.weight_hh_l1 f4 [256, 64]
000000 84 a7 53 be 59 65 87 bd 2a 7e e0 bd 8e 7a 8b 3d
       -0.20669371 -0.066111274 -0.10961564 0.06810485
000010 99 c4 8e 3d f5 a6 af bc b4 3b 10 3d 25 c6 94 bb
       0.06971092 -0.021441916 0.035213187 -0.004540222
000020 43 d3 19 bc 11 13 6c 3d dc ac 8c bd e8 c6 52 3c
       -0.009388748 0.05763537 -0.06868908 0.012864806
000030 38 c1 a0 bc d5 ed 7b bd b2 d7 cd 3c 59 fd 61 3d
       -0.019623384 -0.06150611 0.025127266 0.05517325
000040 3b 82 01 be 55 b6 0e 3d 30 8c 34 bd bc 97 6c 3d
       -0.12647335 0.034841854 -0.044079006 0.057761893
000050 34 1f 10 3d 8f dc 03 3d 52 15 9a 3d b1 1c 90 3d
       0.035186008 0.032192763 0.07523598 0.070367225
000060 ea 6e 17 3c 51 31 0f bc 7a 9e f0 3d 3e 3e 28 bc
       0.009242753 -0.008739785 0.11748977 -0.010268746
000070 c0 cd ac 3d 8c 47 4b 3d 69 41 63 3d 2b 89 7b bd
       0.08437681 0.04962878 0.0554823 -0.06141011
000080 65 ee 32 bd 45 52 2f bd e5 a4 1c bc 1d 16 a9 bd
       -0.043684382 -0.042803068 -0.009560798 -0.08256171
000090 39 01 29 3d 13 09 fe bd 3c ca cc 3d 2b 5d 8c bd
       0.04126093 -0.124040745 0.09999511 -0.06853708
0000a0 65 07 6b 3d 13 45 88 3d 00 33 b0 3d 8a 51 e1 3d
       0.0573801 0.066538 0.086034775 0.110018805
0000b0 cc 6c ff bd 1d 1d f9 3d 92 a6 ad 3d 8f 5e 9c 3d
       -0.12471923 0.12163756 0.084790364 0.07635223
0000c0 7e dc 31 3d cf e0 c0 bd ea 3c fd 3d 68 ed 6a bc
       0.04342317 -0.09417879 0.12365134 -0.014338829
0000d0 ce 91 df 3d 2a 5c 0f 3e 65 c8 2c 3d 60 f4 29 bd
       0.10916482 0.14000002 0.0421833 -0.04149282
0000e0 85 2d d6 bb 2f 73 78 bc ed 5b 5c 3d a5 53 1b bd
       -0.006536188 -0.015164181 0.053798605 -0.037921567
0000f0 e8 62 84 3d ad 7e 55 bd de 58 1b 3b 17 ef 2a bc
       0.06464177 -0.05212276 0.0023704092 -0.01043298
000100 cf 22 e9 3a 24 88 97 bd eb f2 00 3e 3a d9 5c 3c
       0.0017786863 -0.07399014 0.12592666 0.013479525
000110 9f d5 0c 3d 43 88 16 bc 8a 1c 21 bc a2 1c 9d 3c
       0.034383412 -0.009187761 -0.009833464 0.019178692
000120 d3 1f aa 3d 37 f9 1b bd ec 0e db bd 25 70 d4 bc
       0.08306851 -0.038079467 -0.106962055 -0.02593238
000130 33 8b bb bd 5c b4 3a bd 46 98 d8 3d f5 3f de bd
       -0.091574095 -0.04558216 0.10575919 -0.108520426
000140 72 10 f2 3b 6a 69 43 bd be 6a 02 3c f6 25 9c 3d
       0.0073872143 -0.047707953 0.00796002 0.07624428
000150 c1 72 b6 bc 37 88 e5 bc 13 17 c4 3d ca 92 cc 3d
       -0.022271516 -0.028019054 0.095747136 0.09988935
000160 61 d2 a8 3d ce fc 08 be b7 fa 6b 3c 07 90 c1 3d
       0.082432516 -0.13377687 0.014403037 0.09451299
000170 1e 8d c2 3d d4 16 74 3d 64 89 bf bd 12 98 94 3d
       0.09499572 0.059592083 -0.09352377 0.072555676
000180 95 36 9f 3d ce 60 b7 3d 9c d9 94 bb cd 6d f3 bd
       0.077740826 0.08954011 -0.0045425426 -0.11886177
000190 81 21 a6 3d 8d 70 5f 3d 3c 35 0a 3d ab 75 5d 3c
       0.08111859 0.054550696 0.033742175 0.013516824
0001a0 42 72 95 bd e4 81 9f bd b0 f5 d8 3d 6e 9c 11 bd
       -0.072971836 -0.077884465 0.10593736 -0.035549574
0001b0 d0 47 40 3d 9d fb 92 ba 2b ca 9a bd 17 79 09 3c
       0.046943486 -0.0011213903 -0.07558092 0.0083906865
0001c0 2a e6 e0 bd 58 bc 84 3d cb 8f 0c be 9b c3 b3 3d
       -0.109814 0.06481236 -0.13726728 0.08777543
0001d0 b1 a9 0e be 75 f8 54 bd ac 2d 9b bd 76 cd 49 bd
       -0.1393192 -0.05199476 -0.075770706 -0.04926821
0001e0 ab be 39 3c ef 3b 9d 3d bf c1 fc bc 4c db 8e bb
       0.011336963 0.07677447 -0.030854104 -0.0043596383
0001f0 3f a1 9d 3d cd 36 96 bd 5f 33 a4 bc a4 a7 dd bb
       0.07696771 -0.07334671 -0.020044027 -0.006764369
000200 6b f1 d5 3d 3f 35 81 bd e5 60 ae 3c af de b2 3d
       0.104464374 -0.06308984 0.021286437 0.0873388
000210 96 5a 30 bd 5d e2 bc bd 94 f8 09 be 6c e3 c2 bc
       -0.04305514 -0.09222863 -0.13473731 -0.023790084
000220 b8 85 e1 bd e3 f2 a2 3c 2d 21 86 bd 2e 60 a0 3d
       -0.11011833 0.019891208 -0.065492965 0.07830845
000230 fa f0 0d 3d d6 b2 21 bc 81 2c 43 bd 80 f6 0a bd
       0.03465364 -0.009869298 -0.047649864 -0.033926487
000240 e8 95 12 bc 3d a3 63 3c 4f 64 5a 3d b2 11 35 3c
       -0.008946873 0.0138938995 0.053318318 0.011051582
000250 42 dc a1 bd 7f ef 94 3d 87 ad e4 bc b8 19 96 3d
       -0.07903339 0.07272243 -0.027914776 0.07329124
000260 7a a4 8c bd 5f 9c 0c bd 94 5b 0d 3d 32 54 23 bd
       -0.06867309 -0.034328815 0.034511164 -0.039875217
000270 de 6d 5f 3d 96 2b b4 bc b1 33 96 3c 7c b7 f5 3c
       0.054548137 -0.02199344 0.018335195 0.029994719
000280 67 0f af bd d9 37 0e bc 23 b8 04 3d e5 f9 56 3d
       -0.0854786 -0.008680307 0.03240217 0.05248441
000290 23 59 bc 3d 31 00 4b bd 25 85 3b 3c b3 1c dd bd
       0.09196689 -0.04956073 0.011445318 -0.107964896
0002a0 09 01 62 3d 1f 02 f2 bc df e6 d2 bd 10 27 25 3d
       0.05517677 -0.029542027 -0.102979414 0.040320456
0002b0 01 a9 a6 3d 66 87 9a 3d 98 83 a0 3d 5e e8 e9 3c
       0.08137704 0.075453565 0.078375995 0.028553184
0002c0 f7 0f 84 3d a1 09 c2 bd 97 1d 1d 3e 11 0e 17 be
       0.064483576 -0.09474493 0.15343319 -0.1475146
0002d0 61 c0 93 3d 09 0a bd bd b6 d6 44 3d 8d ce ef bd
       0.07214428 -0.0923043 0.048056327 -0.11709318
0002e0 67 c9 80 3b 19 d2 02 3e 90 76 bc 3d 42 c9 b2 bd
       0.003930259 0.12775458 0.092023015 -0.08729793
0002f0 be f0 1f 3e 00 e8 68 bc 33 56 ab bc 7c 59 59 3d
       0.1561918 -0.014215469 -0.020915126 0.053063855
000300 77 b6 04 3e 12 09 38 3d 89 83 f7 bc d0 61 ef 3c
       0.1296023 0.044930525 -0.030214088 0.029221445
000310 bc 1a dd 3d 21 cf e8 3d 44 63 be 3a 9b 29 08 3e
       0.10796115 0.11367632 0.0014525433 0.13297121
000320 34 66 db bd 91 5b 77 bd b5 61 5a bb 02 81 c2 3d
       -0.10712853 -0.06039006 -0.0033322398 0.094972625
000330 fe b7 40 3d 4f 5f 1f bd 5a f7 da bd f3 fb 85 3c
       0.04705047 -0.038909253 -0.1069171 0.01635549
000340 4f be dd 3d 21 85 8e 3c ce b5 a5 bd 35 26 f4 3d
       0.10827314 0.017397465 -0.08091317 0.1192135
000350 6c ca 3f 3d 0e 91 72 3d 9e 7a c4 bd 97 05 7d bd
       0.046823904 0.059220366 -0.095937 -0.06177291
000360 08 0b 61 3d a0 91 00 3e 29 dc 09 b9 ba 7b 2a bd
       0.05494216 0.12555552 -0.00013147354 -0.0416219
000370 e2 8f a4 3d af 59 3a 3b 71 bb 0e 3d ef 65 e1 3c
       0.08035256 0.0028434803 0.034846727 0.027514426
000380 d2 58 a7 bd af 1c e0 bd 6e 24 88 bd 91 6f ff bc
       -0.08171238 -0.10942971 -0.066475734 -0.031181129
000390 e2 15 a5 bd b0 83 51 3d 7c 0c dc bd a1 db b8 bd
       -0.080608144 0.051150978 -0.10744569 -0.09026266
0003a0 0a e0 ed 3d 2c bc ec 3d 68 6e 58 bb 2b 2a a7 bc
       0.11614998 0.115593284 -0.0033024792 -0.02040585
0003b0 47 dd ca bd 56 e0 17 3d bf 3a d1 bd f6 3a bf bb
       -0.099054866 0.037079178 -0.10216283 -0.005835886
0003c0 81 a7 e4 bc 00 b9 e5 bc d1 9b 1b be 10 c4 55 3d
       -0.027911903 -0.028042316 -0.15196158 0.052188933
0003d0 b7 79 69 bd 24 b2 1e bd d0 b8 b9 bd 3c bb 0c bd
       -0.057000842 -0.038744107 -0.09068453 -0.034358248
0003e0 e9 26 65 bd 2d 26 18 bd 04 c0 bf 3d fb ca db bd
       -0.05594531 -0.037145782 0.09362796 -0.10732075
0003f0 7d 90 48 3b e6 fb cc bd 97 9b 3c 3d cf 3d fc bc
       0.00306037 -0.10008983 0.04604682 -0.030791191

rnn.bias_ih_l1 f4 [256]
000000 3c 87 35 3c 09 67 3a bc f5 8f 7a bd 3a 11 45 3c
       0.011079606 -0.011377105 -0.061172444 0.012028033
000010 d3 14 53 ba e0 91 44 3d b1 14 9b bd ba a2 17 bd
       -0.0008052114 0.04799068 -0.07572306 -0.037020423
000020 00 c8 16 3c 51 b9 73 3e 4c 21 49 bd f2 2c 63 bd
       0.009202957 0.23801161 -0.04910402 -0.055462785
000030 e1 91 d6 bd 27 f3 c3 3d b1 a9 ae bb d8 66 04 b9
       -0.10477043 0.09567862 -0.0053302874 -0.00012626813
000040 85 be 60 bc 70 b1 b1 3d ca e1 1c 3d 8f 2f 16 3d
       -0.013717298 0.08676422 0.038301267 0.03666645
000050 ac 58 f2 3d 17 65 b1 bd 98 25 93 bd 14 01 d0 3d
       0.11833319 -0.086618595 -0.07184905 0.10156456
000060 57 cf ce bd 02 18 c3 bd ce 73 be bd 4f 92 31 3b
       -0.10098141 -0.095260635 -0.09299432 0.0027095263
000070 7b a9 cb bd 84 a2 26 3d f4 6d cd 3c fe e5 6b bd
       -0.09944435 0.04068233 0.025076844 -0.057592385
000080 47 5d ed 3c b5 cd 57 bd 6c 03 07 be e7 3a e3 3c
       0.028975142 -0.052686412 -0.13184899 0.027738048
000090 cf 60 f9 bc 9a 26 00 bd e0 d3 1b bd d3 3a 20 bc
       -0.03044167 -0.031286813 -0.038043857 -0.00977965
0000a0 da 94 86 bb b2 b9 bf 3d e7 c6 bd bd 74 26 94 bd
       -0.0041071 0.093615904 -0.09266453 -0.07233897
0000b0 34 43 a7 bb 89 0c 00 be 70 a7 bf bd c3 ce c6 3d
       -0.005104447 -0.12504782 -0.09358108 0.097074054
0000c0 a8 b3 3f 3e c3 5f 8a 3d 3e 30 b2 3d 96 04 b8 3c
       0.18720877 0.06756546 0.08700608 0.022463124
0000d0 f5 7b 5a 3d 04 13 4a bd 9d 34 88 3d 29 17 e0 3d
       0.05334087 -0.04933454 0.0665066 0.109419174
0000e0 e5 2b 79 3d d0 8f 53 3d 6f 19 a4 bd 65 fe 9d bc
       0.060832877 0.051650822 -0.080126636 -0.019286344
0000f0 dc e1 eb 3d b2 3f cf 3d 34 c1 b9 3b 7a d8 44 bd
       0.11517689 0.10119571 0.0056687836 -0.04805801
000100 87 47 04 be 7c ce 0e be f1 d8 39 3c 5a b4 95 bd
       -0.1291791 -0.13945955 0.011343227 -0.0730979
000110 0e c7 f2 3c 15 97 73 3b 42 70 4b bd be 33 09 be
       0.029635932 0.003716891 -0.049667604 -0.13398644
000120 25 9a e2 bd 19 ba 9b bd 40 0d 4f bc d5 2b 38 bd
       -0.11064557 -0.07603855 -0.012637436 -0.044963676
000130 9e 3f ef bd f7 cd 88 3b 71 7d bd bd c4 f5 0b bd
       -0.11682056 0.0041749435 -0.09252442 -0.034169927
000140 9a 23 0b be 3f 28 4f bb 63 cf 52 ba a7 15 34 bd
       -0.135878 -0.0031609682 -0.0008041767 -0.04396596
000150 9a 42 14 3d 04 2f b8 bd 76 c7 9e 3d 0a 08 c8 3d
       0.03619633 -0.089933425 0.07752888 0.09767158
000160 eb 5a f8 bd 39 92 d8 bc d5 85 05 be fd d2 38 3d
       -0.12126716 -0.026436912 -0.13039334 0.04512309
000170 88 9f 64 bd b1 80 40 bd 63 dc 0b be 19 e7 e7 bd
       -0.055816203 -0.04699773 -0.1365829 -0.11323375
000180 9b b3 08 3c 41 f2 4a bc 01 25 bc 3c ee a4 4e 3d
       0.0083436025 -0.012386859 0.022966864 0.050450258
000190 c8 37 a0 3d af 34 66 3d 7a 86 43 bb 28 94 bf 3d
       0.078231394 0.056202587 -0.0029834793 0.093544304
0001a0 ce 4b c6 bd c2 21 0d 3d 92 8f 27 ba df be 75 bd
       -0.09682427 0.034456022 -0.0006391938 -0.059996482
0001b0 bd 17 c9 3d 89 fe 0e 3b 01 70 82 bc 65 20 3b 3d
       0.09818981 0.0021819195 -0.015922548 0.04568519
0001c0 4d 2b 1e be c3 6b c7 3d dc d4 91 3d 76 69 97 3d
       -0.15446205 0.09737351 0.07120678 0.07393162
0001d0 d9 31 52 bc ab 4e a6 bb a5 7a c1 3d 6b ff 0c be
       -0.012829267 -0.005075296 0.09447221 -0.13769309
0001e0 5e 3f 24 be 6b dd a8 bd 7a 11 f5 bd 24 92 ac 3d
       -0.16039798 -0.08245357 -0.11966224 0.084263116
0001f0 cd cc b4 bd b7 8a aa bd 9a 5a 38 bd be 68 6f 3d
       -0.08828125 -0.08327239 -0.04500828 0.0584495
000200 23 f1 e9 3d 8a f4 b6 bd 1e a4 61 bc a5 b9 d9 bd
       0.11422946 -0.08933361 -0.013772039 -0.10631112
000210 7f 60 3e bd ef 1f c1 3d 54 f3 ec bd 32 3c 75 bc
       -0.046478745 0.09429919 -0.11569849 -0.014967965
000220 c2 e7 e1 3d 82 65 39 bd 48 43 86 3d bf 2a d1 3d
       0.110305324 -0.04526282 0.06555802 0.10213231
000230 ac e3 46 3c f6 9f 57 3d 56 bf 5d bd 29 29 dd bd
       0.012139242 0.052642785 -0.05413755 -0.10798866
000240 a7 4d a6 3c f6 09 9a 3d 3e 66 c8 3c eb 67 31 3d
       0.0203007 0.07521431 0.024462815 0.043311995
000250 47 0c 3a bd 7e 8a c3 bc 2c 5d b1 3c 4d 02 6b bd
       -0.045421865 -0.02386975 0.021650873 -0.05737524
000260 b5 1a 67 3d 9a a9 df 3c 95 56 98 bd 48 5d f5 bd
       0.056421954 0.027302552 -0.07438389 -0.119806826
000270 8f b4 ed bd dd aa e5 3d a0 f9 01 bd 27 eb 51 bc
       -0.116067044 0.1121423 -0.0317322 -0.012812412
000280 5e 6b 0b 3d ba ca 36 3d f6 3d fb bd b1 62 7e 3d
       0.03403794 0.04462693 -0.122676775 0.06210584
000290 92 1a 62 3a f5 72 97 3d 3f 89 f3 bd db 85 d3 3c
       0.0008625175 0.07394973 -0.11891412 0.025820663
0002a0 56 d7 49 bd eb c8 9f 3c 5a 7c a2 bd 47 0c d5 bd
       -0.049277626 0.019504985 -0.079338744 -0.10402732
0002b0 2d e4 25 3d a5 8c f3 bd b0 4e f7 3d 7b 64 dd 3d
       0.04050081 -0.1189206 0.12075555 0.10810181
0002c0 4f 0f 67 3d 59 d0 20 bd 97 d7 2f bd fe 21 a4 bd
       0.056411084 -0.039261196 -0.042930212 -0.08014296
0002d0 ea 9f 32 3d c9 ff 1c 3d 0a e7 b6 3b d6 c0 c8 3d
       0.043609537 0.038329873 0.005581741 0.098024055
0002e0 f0 b5 2c 3d 74 6f 92 bd 56 d2 c0 bd b3 ae c0 3d
       0.042165697 -0.07150164 -0.094151184 0.09408321
0002f0 8b f1 0a bd f5 55 ed 3d 7a 35 b8 3d d0 d1 38 bc
       -0.03392176 0.11588661 0.08994575 -0.011280492
000300 ba 5f 8d bd d8 c0 0c be ae 94 ff bd 81 7f 01 be
       -0.06903024 -0.13745439 -0.1247953 -0.12646295
000310 98 d7 da 3d 0d c0 c8 bd 71 23 da 3d 04 4d 60 3c
       0.106856525 -0.09802256 0.10651291 0.013690237
000320 70 66 e7 bd f6 68 ee 3d 88 dd cd bd f0 8a 96 3c
       -0.11298835 0.116411135 -0.10052019 0.018376797
000330 4f 8f 96 bd 72 c2 0c be b2 98 fe bd 67 a2 38 bc
       -0.07351553 -0.1374605 -0.12431468 -0.0112691885
000340 33 e3 9b bd fc 1e 4e 3d 75 8f 9b bd 48 ac b6 3d
       -0.07611694 0.050322518 -0.07595722 0.08919579
000350 8b 0e bd bd f2 01 85 bd ce d8 81 3d 48 b4 0a 3e
       -0.092312895 -0.06494512 0.0634018 0.13545334
000360 69 b9 c2 bd 67 04 b0 3c d2 93 0e 3d 51 2f 88 3d
       -0.095080204 0.021486474 0.03480894 0.0664965
000370 6c 56 2b 3d 70 8f fc bd 08 8d bb 3d 43 1d 48 bd
       0.041830465 -0.12332046 0.09157759 -0.04885603
000380 31 b9 ae 3d af f9 0a 3e db 91 18 be 65 08 fa bd
       0.08531416 0.13571809 -0.1489939 -0.122086324
000390 ca 92 f6 3d 1e 2a e7 bc a1 e2 dd 3d 25 e7 3c bd
       0.120397165 -0.028218325 0.10834242 -0.046118874
0003a0 4d 2e 80 bd fb 3c 2c 3c 50 6c ce bd 35 c6 be 3d
       -0.06258831 0.010512586 -0.10079253 0.09315149
0003b0 e9 1f c9 3d 90 78 7e bd 39 10 fa 3c 4d 04 bb bc
       0.098205395 -0.062126696 0.030525314 -0.0228292
0003c0 a7 87 e6 3c 87 00 e8 3d dc 01 16 3d 17 e4 22 3d
       0.028140856 0.113282256 0.036622867 0.039768305
0003d0 14 9d 04 3d 60 93 76 3c 0f b9 1b 3d fd c2 9f bd
       0.032376364 0.015049785 0.038018283 -0.07800863
0003e0 3c 40 0d 3d dd 44 f8 bd cb f6 3f bd 86 c6 d5 3d
       0.034485087 -0.1212251 -0.04686622 0.10438256
0003f0 17 04 4a 3e 93 06 ac bc a6 9f 4b bd 25 32 76 bd
       0.19728123 -0.020999229 -0.0497128 -0.060106415
