data/results/lstm_regime_BTC_r10d_r6_wNone.pt (torch, 221861 bytes, 9 tensors)

rnn.weight_ih_l0 f4 [256, 16]
0	0x3c049696	0.008092543
1	0x3e468a19	0.19388618
2	0xbe1ef5ef	-0.15523504
3	0x3e1a9567	0.15096055
4	0xbeb11770	-0.34588194
5	0xbd42285d	-0.047401775
6	0x3e48b5eb	0.19600646
7	0xbd2e5beb	-0.04256813
8	0x3e359609	0.17733015
9	0xbd58e44a	-0.05295209
10	0x3d65bc1c	0.0560876
11	0xbd5dac31	-0.054119293
12	0x3d036e34	0.03208752
13	0x3e181738	0.14852607
14	0xbed5ee28	-0.4178326
15	0xbcb98989	-0.02264859
16	0x3e3474a0	0.17622614
17	0x3ddbbc64	0.10729292
18	0xbc93229c	-0.017960839
19	0x3e385844	0.1800242
20	0xbda6362b	-0.081158005
21	0x3dd79fc2	0.10528518
22	0xbc397795	-0.0113200145
23	0x3c77a98f	0.0151161095
24	0x3c6799cf	0.014135792
25	0x3cf62662	0.0300476
26	0xbd087f05	-0.03332426
27	0x3c875bd8	0.016523287
28	0x3ddb7f28	0.107176125
29	0x3e35562d	0.17708655
30	0xbe9960e9	-0.2995675
31	0x3cebd403	0.028787619
32	0xbe6ccfa2	-0.2312608
33	0xbde7bc30	-0.11315191
34	0x3d05ea7d	0.03269433
35	0x3e16ef0b	0.14739625
36	0xbd23a32d	-0.03995054
37	0xba79cea8	-0.00095293904
38	0x3a5a270f	0.000832186
39	0xbd269564	-0.040669814
40	0xbd87f964	-0.06639364
41	0x3dbde87b	0.09272858
42	0x3d1ed58d	0.038777877
43	0xbdc6ed72	-0.09713258
44	0x3e0b5e97	0.13610302
45	0x3b316e9c	0.0027073985
46	0x3da2160a	0.0791436
47	0x3d920a6d	0.07130895
48	0xbecd0861	-0.40045455
49	0x3cf31f0f	0.029677896
50	0xbdf23997	-0.11827391
51	0x3e1d57a7	0.15365468
52	0x3e01ea67	0.12687074
53	0xbe6341c1	-0.22193052
54	0x3da8bb91	0.082389005
55	0x3ce14e62	0.027503196
56	0x3daac756	0.083388016
57	0x3ca48121	0.020081105
58	0xbe4f78b1	-0.20260884
59	0xbb8d3933	-0.004309797
60	0x3d303a72	0.043024488
61	0xbe0af9a4	-0.13571793
62	0x3ce8a154	0.02839724
63	0x3dc6b928	0.097032845
64	0xbe3d6b78	-0.18498027
65	0xbe5fd9c1	-0.2186041
66	0x3da90259	0.08252401
67	0x3e2fefae	0.17181274
68	0x3dc4edc0	0.0961566
69	0xbe0716d0	-0.13192296
70	0xbe0ed4ec	-0.13948411
71	0x3d83b31c	0.06430647
72	0x3d476d09	0.04868797
73	0xbe1ea762	-0.15493539
74	0xbe65d264	-0.22443539
75	0xbd9f1969	-0.077685185
76	0xbc2e1324	-0.010624681
77	0x3db141d2	0.08655132
78	0xbe11bc97	-0.14232098
79	0x3c9b895d	0.018986398
80	0x3e0ea118	0.1392864
81	0x3e6319ea	0.22177854
82	0xbe499e9f	-0.19689415
83	0xbddbcaff	-0.10732078
84	0x3e4b7203	0.19867711
85	0x3ea41418	0.3204658
86	0x3e400e5f	0.18755482
87	0x3db50d14	0.08840385
88	0xbe0cdd20	-0.13756227
89	0x3de93294	0.113866
90	0xbd1dea66	-0.038553618
91	0x3d49104d	0.04908781
92	0xbe303fa9	-0.17211784
93	0xbe157c9d	-0.14598317
94	0x3e608ca6	0.21928653
95	0x3d91df72	0.07122697
96	0xbe96a806	-0.29425067
97	0xbe60a351	-0.219373
98	0xbde0bb43	-0.10973217
99	0xbe08cc5f	-0.13359211
100	0x3e041378	0.12898052
101	0xbe71c852	-0.23611572
102	0x3d06ae4c	0.032881066
103	0x3ca4eee4	0.020133443
104	0xbd7dba25	-0.0619451
105	0x3d23fe15	0.040037233
106	0xbe8ccab2	-0.27498394
107	0x3c419683	0.01181567
108	0xbe13f363	-0.14448313
109	0x3d9e4d54	0.07729593
110	0x3d759e7d	0.0599656
111	0x3dd5e6d1	0.10444415
112	0xbe9baa95	-0.3040358
113	0xbe575392	-0.21027973
114	0xbe70de99	-0.23522414
115	0xbd7d0155	-0.06176885
116	0xbd719554	-0.0589803
117	0xbdf05154	-0.11734262
118	0xbe175b1a	-0.14780846
119	0x3c75e1a1	0.015007407
120	0x3e1379b3	0.14401893
121	0x3cbd2438	0.02308856
122	0xbd4d7257	-0.05015787
123	0xbdd3efe5	-0.103484906
124	0x3aac5e7a	0.0013150715
125	0x3e06ef20	0.13177156
126	0xbe2da5e3	-0.16957812
127	0x3cd27eb9	0.025695192
128	0x3d41df60	0.047332168
129	0x3d291cf0	0.041287363
130	0x3d4c78af	0.04991978
131	0xbd3dfe7d	-0.046385277
132	0x3d31b24c	0.043382928
133	0xbd633f9f	-0.055480596
134	0x3db43736	0.08799593
135	0xbdea1da7	-0.11431437
136	0x3d3396f0	0.043845117
137	0x3d89c765	0.067274846
138	0x3e000f90	0.12505937
139	0xbca16395	-0.019700805
140	0x3e113c28	0.14183104
141	0xbe164e68	-0.14678347
142	0xbd43a370	-0.047763288
143	0x3c021f62	0.007942053
144	0xbe6f1196	-0.23346552
145	0xbdf7c815	-0.120987095
146	0x3df47495	0.11936299
147	0x3e08e227	0.1336752
148	0xbe30a06b	-0.17248695
149	0xbd832b3e	-0.06404732
150	0xbd0c33d2	-0.034229107
151	0xbdcbf71e	-0.09959243
152	0x3dfdfc1a	0.124016
153	0xbce810fe	-0.028328415
154	0xbe1ed2e9	-0.15510143
155	0x3dc5f5d3	0.09666028
156	0xbe104665	-0.14089353
157	0x3e65727c	0.22406954
158	0xbe9203f6	-0.28518647
159	0x3df7cde2	0.12099816
160	0x3e65a7ed	0.2242734
161	0xbb2bc393	-0.00262091
162	0x3e0052d4	0.12531596
163	0xbe079ef6	-0.13244233
164	0xbb33fe6f	-0.0027464887
165	0x3e0728d0	0.13199162
166	0xbe1cb0d4	-0.1530183
167	0x3da5a770	0.08088577
168	0xbdbc5fcf	-0.091979615
169	0x3d8bc504	0.06824687
170	0x3a07e4fa	0.00051839615
171	0x3c6d26b2	0.014474558
172	0xbd09dbc0	-0.033656836
173	0xbdc5d866	-0.09660415
174	0x3e7f8165	0.24951704
175	0x3d882784	0.06648162
176	0xbcbef302	-0.023309235
177	0x3e469fb6	0.19396862
178	0xbd46e589	-0.048558746
179	0x3c220090	0.009887829
180	0x3d3b76ad	0.045767475
181	0x3cbdea64	0.023183055
182	0x3e040255	0.12891515
183	0x3e21f0ed	0.15814562
184	0xbe96a07f	-0.29419324
185	0xbda27b27	-0.07933646
186	0x3b5398ca	0.0032287114
187	0x3e0a0097	0.13476788
188	0x3df0078e	0.11720191
189	0x3d59c678	0.05316779
190	0xbec8b8a8	-0.39203382
191	0xbd1f4de4	-0.03889264
192	0xbe45766e	-0.19283459
193	0xbd589a3b	-0.05288146
194	0x3c92f96a	0.017941196
195	0x3db3a4dd	0.087716796
196	0xbdea4c6e	-0.11440359
197	0xbe2d6ac3	-0.16935258
198	0xbb65cfb1	-0.003506642
199	0xbdfe3458	-0.124123275
200	0xbdc3deac	-0.09563956
201	0xbd1a3cca	-0.03765563
202	0xbe5b5b07	-0.21421443
203	0x3e04aba9	0.12956108
204	0xbdbf7a99	-0.093495555
205	0xbe078a98	-0.13236463
206	0x3c6ad6a7	0.014333404
207	0x3d7d50f8	0.061844796
208	0x3d936d50	0.07198584
209	0x3e1b347b	0.15156738
210	0x3d6e42ff	0.05816936
211	0x3e2a3c44	0.16624552
212	0xbe6dd511	-0.2322581
213	0x3e081538	0.13289344
214	0x3ca6aecd	0.020347023
215	0xbd392dbe	-0.04520964
216	0xbd847c14	-0.064689785
217	0x3c1d1f26	0.009589946
218	0x3e34ed52	0.17668656
219	0x3c1baabf	0.009501158
220	0xbcd401a0	-0.025879681
221	0x3e360137	0.17773901
222	0xbe835a61	-0.2565489
223	0xbd65ab01	-0.056071285
224	0x3de4d356	0.11173122
225	0x3d3b54b2	0.04573507
226	0xbe3d0b08	-0.1846124
227	0x3d69c519	0.057072733
228	0xbe9ef7eb	-0.3104852
229	0x3c57b73e	0.013166247
230	0xbd5f442a	-0.054508366
231	0x3dc18c0b	0.09450539
232	0x3e77339a	0.24140778
233	0xbd085b52	-0.033290215
234	0x3de6a8e7	0.11262684
235	0x3d0fbadb	0.03509031
236	0xbe352207	-0.17688762
237	0xbb9078fd	-0.004408954
238	0xbdc79cdd	-0.09746716
239	0x3dd0fdfd	0.102046944
240	0xbdb0f954	-0.086413056
241	0xbd03ab02	-0.032145508
242	0x3dae3ed0	0.08508074
243	0x3d9f2d6d	0.07772336
244	0xbd4d0db7	-0.050061908
245	0xbd0353a2	-0.03206218
246	0xbe4843d4	-0.19557124
247	0xbb2f9e65	-0.0026797291
248	0x3d45670d	0.04819398
249	0x3e17bfc8	0.14819252
250	0xbdcab995	-0.09898678
251	0xbd952923	-0.07283237
252	0xbd77179f	-0.06032526
253	0xbde871f4	-0.1134986
254	0x3dd410a7	0.10354739
255	0xbdd18b9e	-0.10231708

rnn.weight_hh_l0 f4 [256, 64]
0	0xbe4d1bab	-0.20030086
1	0x3a5959b0	0.00082912575
2	0x3de849c9	0.113421984
3	0xbcd702e0	-0.026246488
4	0x3d849498	0.064736545
5	0x3d7af5db	0.061269622
6	0x3d101fa2	0.035186417
7	0x3e2ee494	0.17079383
8	0x3e058118	0.13037527
9	0xbdfc2258	-0.12311238
10	0xbe16b84a	-0.14718738
11	0x3e2a09a3	0.16605239
12	0x3d2948db	0.041329246
13	0xbe308ab9	-0.17240418
14	0x3e2055d3	0.1565774
15	0x3e0f8b68	0.14018023
16	0xbdc3d344	-0.0956178
17	0x3e14ebee	0.14543125
18	0x3e16b551	0.14717604
19	0x3dc556c7	0.09635692
20	0x3e379e76	0.17931542
21	0xbdf3395d	-0.118761756
22	0xbdb3da8d	-0.0878192
23	0xbd959200	-0.07303238
24	0x3da7a55f	0.08185839
25	0xbd85d3a0	-0.06534505
26	0x3e1f665d	0.15566392
27	0xbdacc8c4	-0.084367305
28	0xbd99735c	-0.07492706
29	0xbd699dc4	-0.057035223
30	0xbdc8c290	-0.09802735
31	0xbdde5551	-0.108561166
32	0xbd260e97	-0.040541258
33	0xbc9a5491	-0.018839153
34	0xbd60a470	-0.05484432
35	0xbd8ebbc1	-0.06969405
36	0x3d4c1bee	0.049831323
37	0x3dc6d344	0.097082645
38	0xbd653e77	-0.055967774
39	0xbd5f0397	-0.054446783
40	0x3e148e36	0.14507374
41	0x3e57f13c	0.21088117
42	0x3d6034b2	0.054737754
43	0x3e54e3a0	0.20789957
44	0x3e30022d	0.1718833
45	0x3cb12673	0.02162478
46	0x3d600055	0.054687817
47	0x3ded10f0	0.11575496
48	0xbe12402c	-0.14282292
49	0x3db5a084	0.088685066
50	0x3d131880	0.035912037
51	0x3e350f93	0.17681722
52	0xbc193265	-0.009350394
53	0xbe86d080	-0.26330948
54	0x3d941d84	0.07232192
55	0xbd70cdd5	-0.058790047
56	0x3de980cb	0.114015184
57	0xbddcc7d6	-0.10780303
58	0xbe002e3c	-0.12517637
59	0xbe021312	-0.12702587
60	0x3bf66112	0.007518896
61	0x3df6334f	0.12021505
62	0xbca50ef3	-0.02014873
63	0xbcf383f9	-0.029726015
64	0x3da06e5f	0.078335516
65	0xbd1873d3	-0.037219834
66	0x3dc02a0f	0.09383022
67	0xbc5d8b40	-0.013521969
68	0x3dd3e262	0.103459135
69	0x3dab2e77	0.08358472
70	0xbd59e4cf	-0.053196725
71	0xbddc6e96	-0.1076328
72	0x3df28df5	0.118434824
73	0x3cc9664f	0.024584917
74	0x3d9ffd4b	0.07811984
75	0x3dfa599d	0.122241236
76	0x3df1e48e	0.118111715
77	0x3c813563	0.015772527
78	0xbe02b678	-0.12764919
79	0x3d07efb5	0.033187587
80	0xbd7a5b60	-0.0611223
81	0x3d098954	0.033578232
82	0x3b451bf7	0.0030076483
83	0x3be476e1	0.0069721793
84	0xbd64c791	-0.055854384
85	0x3d800f81	0.06252957
86	0xbc917a48	-0.017758504
87	0xbe06f965	-0.13181074
88	0x3df5abbf	0.119956486
89	0x3dab89cd	0.08375893
90	0x3d2243ad	0.039615322
91	0x3c4d06cf	0.01251383
92	0xbdcefb2d	-0.10106502
93	0x3dfe52f2	0.12418164
94	0x3dcd5920	0.10026765
95	0xbd455205	-0.048173923
96	0x3cfada73	0.030621743
97	0xbd2cd9fa	-0.042200066
98	0x3ddf40d2	0.10901035
99	0x3dac9f6e	0.08428846
100	0xbe01a1b1	-0.12659337
101	0x3cb87081	0.022514584
102	0xbde25b60	-0.11052585
103	0x3c7f5ee1	0.015586586
104	0x3de65080	0.11245823
105	0x3d90a9e5	0.07063655
106	0x3afbdadb	0.0019215004
107	0xbd553300	-0.05205059
108	0x3de15bb4	0.11003819
109	0xbdade4a7	-0.084908776
110	0x3dd4c7dd	0.103896834
111	0x3c11658f	0.008874311
112	0xbbeff847	-0.007323298
113	0xbc80fbee	-0.01574513
114	0xbdf13ae7	-0.11778813
115	0x3db9d345	0.090734996
116	0x3da54e67	0.08071595
117	0xbdecbe3f	-0.11559724
118	0x3de294e0	0.11063552
119	0x3dabb874	0.08384791
120	0xbd8e978e	-0.069625005
121	0xbd6cd6f8	-0.057822198
122	0x3d803a9d	0.062611796
123	0x3dd99361	0.106238134
124	0x3d5c9c07	0.053859737
125	0xbdcc94c6	-0.09989314
126	0xbde479a7	-0.11156016
127	0x3dadec23	0.08492305
128	0x3cf06280	0.029343843
129	0xbe0180fb	-0.12646858
130	0xbdba1b45	-0.090872325
131	0x3d484b22	0.048899777
132	0x3d853e1a	0.065059856
133	0x3de0e5be	0.1098132
134	0x3d15dfa7	0.036590245
135	0xbdbf29ff	-0.09334182
136	0x3d8950f1	0.067048915
137	0x3ce3b1f4	0.027794816
138	0x3da83201	0.082126625
139	0x3d5de636	0.054174624
140	0x3e204abb	0.15653507
141	0x3d32e597	0.043675985
142	0x3d61dcef	0.05514234
143	0xbca83e6f	-0.020537583
144	0x3c45d3df	0.01207444
145	0xbd849dc0	-0.06475401
146	0xbc805146	-0.015663754
147	0xbd6783e8	-0.05652228
148	0xbceb462b	-0.028719982
149	0xbb8f7d7a	-0.0043789716
150	0x3c974b3f	0.018468497
151	0xbe0422a3	-0.12903838
152	0x3d1928f3	0.037392568
153	0x3c3f3ff4	0.011672962
154	0x3dcbd1d8	0.09952134
155	0x3dc1520a	0.09439476
156	0x3d0c8413	0.034305643
157	0x3de3a4d7	0.11115425
158	0x3d912208	0.07086569
159	0x3e08727e	0.13324925
160	0xbda27e96	-0.079343006
161	0x3daf8010	0.08569348
162	0x3e0ae8b7	0.13565336
163	0x3d4d28ce	0.050087743
164	0xbd800495	-0.06250874
165	0xbcd7a87c	-0.026325457
166	0xbe1c11ea	-0.15241209
167	0x3d534bcc	0.051585957
168	0xbe0b68ed	-0.13614245
169	0x3db4809b	0.08813592
170	0xbdd3e562	-0.10346486
171	0xbdceda5f	-0.10100245
172	0xbda83d7b	-0.082148515
173	0xbda7f27f	-0.08200549
174	0xbd857963	-0.06517293
175	0x3d155ab8	0.03646347
176	0x3dd3ed6f	0.10348021
177	0x3d507c77	0.05089995
178	0x3c493e2c	0.012282889
179	0x3d4fa9f2	0.05069918
180	0xbd1aa4d2	-0.03775484
181	0xbd90d857	-0.070725136
182	0xbd5e920c	-0.0543385
183	0x3d83dd8a	0.064387396
184	0x3df73c1d	0.120720126
185	0x3d4ccb0a	0.04999832
186	0x3d114a3d	0.03547119
187	0xbd908732	-0.070570365
188	0xbc64f7b4	-0.013975073
189	0xbdcd8f62	-0.10037114
190	0xbe23e333	-0.16004638
191	0xbdd0158a	-0.10160358
192	0x3c34ede8	0.011043049
193	0x3d676ff1	0.05650324
194	0x3d4fca24	0.050729886
195	0xbdc3cbf6	-0.09560387
196	0xbdf33c5a	-0.118767455
197	0xbd1ee551	-0.038792912
198	0x3d38574f	0.04500514
199	0x3be11d11	0.00686992
200	0xbd80f85c	-0.06297371
201	0x3d0f753a	0.035023905
202	0xbd1cf0f9	-0.038315747
203	0x3dec4088	0.11535746
204	0xbdbcf7f4	-0.09226981
205	0xbd329658	-0.04360041
206	0x3dc8a292	0.09796633
207	0x3df0065d	0.11719964
208	0x3def7f10	0.11694157
209	0xbdf635de	-0.12021993
210	0xbdfaebb9	-0.12251992
211	0xbdbfea09	-0.093708105
212	0xbd660b60	-0.05616319
213	0xbc49cf14	-0.012317438
214	0xbd6a3f70	-0.057189405
215	0x3dc0a72e	0.09406887
216	0x3afe2734	0.0019390346
217	0x3d75215f	0.05984628
218	0x3dc1d5a8	0.0946458
219	0x3dbd5e3e	0.09246491
220	0x3d568f8a	0.052382983
221	0xbce86b06	-0.028371345
222	0x3dcde3b6	0.10053198
223	0xbdc696e9	-0.096967526
224	0xbd8966b8	-0.06709045
225	0xbd73d0ff	-0.059525486
226	0x3d27dfff	0.040985104
227	0xbb971b78	-0.004611429
228	0xbdb4f368	-0.088354886
229	0x3bc7e74a	0.00610057
230	0xbcf675ab	-0.030085405
231	0xbd7be6e7	-0.061499503
232	0xbdd21da2	-0.10259558
233	0xbc285f8f	-0.010276689
234	0xbdb32305	-0.08746914
235	0x3e074df4	0.1321333
236	0x3c0ed7d0	0.008718446
237	0xbc2fc71b	-0.010728623
238	0x3c300fe5	0.010745977
239	0x3d71957f	0.05898046
240	0xbd8a3a73	-0.067494296
241	0x3cacaae9	0.02107759
242	0xbdb66aa8	-0.08907062
243	0x3d13f0c1	0.036118273
244	0xbd7f53cd	-0.062335778
245	0x3bb2bd46	0.005454692
246	0xbd8c78cd	-0.068589784
247	0xbcf42524	-0.029802866
248	0x3ce31126	0.027718138
249	0x3bd8ae41	0.0066125696
250	0x3d9d78df	0.0768907
251	0xbca75336	-0.02042542
252	0xbced7cb4	-0.028990127
253	0xbd8b9e81	-0.068173416
254	0x3db882b2	0.09009303
255	0xbd8ccccb	-0.06874999

rnn.bias_ih_l0 f4 [256]
0	0x3cdcfdbc	0.026976459
1	0x3dc236fd	0.094831444
2	0xbe1c447c	-0.152605
3	0xbb65d3fb	-0.0035068977
4	0xbd690a9b	-0.05689488
5	0x3def4ab3	0.116841696
6	0xbd93a2d0	-0.072087884
7	0xbd906744	-0.07050946
8	0xbd67e058	-0.056610435
9	0x3e4a7083	0.19769482
10	0x3da1485a	0.07875128
11	0x3e2267c7	0.158599
12	0xbe0da415	-0.13832124
13	0xbcc553a6	-0.024087738
14	0xbd393c56	-0.045223556
15	0x3d284f44	0.04109122
16	0x3d69c975	0.05707689
17	0xbcc73019	-0.024314927
18	0xbd8e1a11	-0.069385655
19	0x3d86cf15	0.065824665
20	0x3db35fb7	0.087584905
21	0x3d6ea95b	0.05826698
22	0xbdd90b5a	-0.10597868
23	0x3e0f743e	0.14009187
24	0x3dabc600	0.08387375
25	0x3d2a17e0	0.041526675
26	0x3e9269ed	0.2859644
27	0x3d839ab8	0.06425995
28	0x3d53b3d4	0.05168517
29	0xbdb044d3	-0.08606877
30	0x3d9e520c	0.07730493
31	0x3e10e3b1	0.14149357
32	0x3d01737d	0.03160428
33	0xbd910acc	-0.070821375
34	0x3dd89d71	0.105769046
35	0xbb1bbc8a	-0.00237635
36	0x3dada34c	0.08478412
37	0xbdb5c10b	-0.08874711
38	0x3db20da4	0.08694008
39	0x3e0782fe	0.13233563
40	0xbd91844d	-0.071053125
41	0xbd257ed5	-0.04040416
42	0x3cbdde5c	0.023177318
43	0xbd58e93f	-0.052956816
44	0x3da915e6	0.0825613
45	0x3d30cc44	0.043163553
46	0xbdb693e1	-0.089149244
47	0x3d5a8482	0.053349026
48	0x3e177b3d	0.14793105
49	0x3eb4c6b1	0.3530784
50	0xb97e8c47	-0.00024275585
51	0x3d175c30	0.03695315
52	0x3dd8253e	0.105539784
53	0x3e545e8a	0.20739189
54	0x3da4b3f0	0.08042133
55	0xbdc8634a	-0.09784563
56	0xbc44eb59	-0.012019002
57	0x3d4ff0c2	0.050766714
58	0x3a1e79e2	0.00060453836
59	0xbdf76e59	-0.12081594
60	0x3cfdc784	0.030978926
61	0xbc1c3da9	-0.009536185
62	0x3ddc959a	0.10770722
63	0xbd1a0f26	-0.037612103
64	0xbca46ac3	-0.02007044
65	0x3dcb2fa5	0.09921197
66	0xbc3c548d	-0.011494768
67	0xbda8f921	-0.082506426
68	0xbcd6fd6a	-0.026243884
69	0xbcf2fff7	-0.02966307
70	0xbd297e00	-0.04137993
71	0xbd820a38	-0.06349605
72	0x3cf74888	0.030185953
73	0x3e0639f4	0.13108045
74	0x3d0a2f2b	0.03373639
75	0x3d633768	0.05547276
76	0xbde26db0	-0.110560775
77	0xbd052220	-0.032503247
78	0x3ceaaf56	0.02864806
79	0xbd8a4978	-0.06752294
80	0xbd9c9b4e	-0.076468095
81	0x3d8cadb1	0.068690665
82	0xbda018a1	-0.078171976
83	0x3d871086	0.065949485
84	0x3d9c1810	0.07621777
85	0x3d97bcbe	0.074090466
86	0x3d938f8b	0.07205113
87	0x3d9c9140	0.07644892
88	0x3d8320e5	0.064027585
89	0xbdac6420	-0.08417535
90	0x3dc97476	0.09836666
91	0x3dad4d97	0.08462065
92	0xbd247102	-0.040146835
93	0xbd30009f	-0.042969342
94	0xbb018b0a	-0.0019766712
95	0xbc94a2db	-0.018144062
96	0x3d871616	0.065960094
97	0xbd26fc5f	-0.040768024
98	0xbcb9063d	-0.022585982
99	0x3d409294	0.047014788
100	0x3d02015b	0.031739574
101	0x3cb67766	0.02227373
102	0x3c4dbe07	0.012557513
103	0x3d42ca9a	0.047556497
104	0xbdb40b21	-0.08791185
105	0x3dcbac7f	0.099450104
106	0x3da5f683	0.08103659
107	0x3cb1d889	0.021709697
108	0x3e032b16	0.12809405
109	0xbda1f64a	-0.07908304
110	0xbceaa3bb	-0.028642526
111	0x3da02a14	0.07820526
112	0x3df9cff9	0.12197871
113	0x3e031f0c	0.12804812
114	0xbdd535ea	-0.10410674
115	0x3cf6c306	0.030122291
116	0xbdbdc3eb	-0.09265884
117	0xbc654f20	-0.013995916
118	0xbd41c7b6	-0.0473096
119	0x3d76e966	0.06028118
120	0xbde24626	-0.11048536
121	0xbe089974	-0.13339788
122	0x3d9bbe92	0.07604708
123	0x3d2e7dd7	0.04260048
124	0xbd09a411	-0.03360373
125	0xbdf04c70	-0.11733329
126	0xbd086f9a	-0.033309557
127	0x3d536abe	0.05161547
128	0xbe065ccc	-0.13121337
129	0xbde45ce1	-0.11150528
130	0x3d3a719f	0.045518514
131	0xbd5c12a3	-0.05372871
132	0xbc72360e	-0.014783395
133	0x3d8a7fa1	0.067626245
134	0xbdaed734	-0.085371405
135	0x3db11b4f	0.08647787
136	0xbd5fff04	-0.05468656
137	0xbda09fd2	-0.07842983
138	0xbdb7d0df	-0.08975386
139	0x3c4f8cb6	0.012667825
140	0x3a8da928	0.0010807859
141	0xbc38c0f1	-0.01127647
142	0xbdfd0ec6	-0.123563334
143	0x3dca4deb	0.09878143
144	0xbdde0a8c	-0.108418554
145	0x3c9cc84d	0.01913848
146	0xbb83b87d	-0.0040197955
147	0xbe2184f5	-0.15773375
148	0x3d48d33a	0.049029566
149	0xbd6e3027	-0.05815139
150	0xbcf76de6	-0.03020377
151	0xbd1c2f5b	-0.0381311
152	0x3db16c79	0.08663268
153	0x3ca00e54	0.019538082
154	0x3b949687	0.004534546
155	0xbd20b306	-0.03923323
156	0xbdf343b7	-0.1187815
157	0xbd8184f3	-0.06324186
158	0xbe071c39	-0.1319436
159	0x3e0bf2a5	0.1366678
160	0xbdb63d68	-0.08898431
161	0xbde9f8ec	-0.11424431
162	0xbd225885	-0.0396352
163	0xbdbcfcc3	-0.09227898
164	0x3d2f3b1b	0.042780977
165	0xbd627081	-0.055283073
166	0x3dcd5dc9	0.10027654
167	0x3c34ebf9	0.011042588
168	0x3dab185a	0.08354254
169	0x3dd2a09b	0.10284539
170	0xbddb0081	-0.106934555
171	0x3dc5fbd5	0.09667174
172	0x3bd21afc	0.006411908
173	0xbd13e939	-0.03611109
174	0x3dc73592	0.097270146
175	0x3d82041a	0.063484386
176	0xbddc26f3	-0.107496165
177	0x3ddaa872	0.1067666
178	0x3d277186	0.04087975
179	0x3d804063	0.06262281
180	0x3d94d697	0.07267492
181	0xbd391418	-0.04518518
182	0xbd9ccd9f	-0.076564066
183	0x3d845990	0.06462395
184	0x3dbedb44	0.09319165
185	0x3ccae1f8	0.024765953
186	0x3dd06af0	0.10176647
187	0xbd591d2b	-0.053006332
188	0x3d9ef342	0.077612415
189	0x3bfe998c	0.007769769
190	0xbd24c181	-0.040223602
191	0x3d6c155b	0.057637554
192	0x3e3068a1	0.17227413
193	0xbde44237	-0.11145442
194	0xbdb16482	-0.086617485
195	0x3c6fd504	0.014638189
196	0x3dca3b96	0.09874646
197	0xbd5e3720	-0.05425179
198	0xbb3bd252	-0.0028659296
199	0x3df356df	0.11881804
200	0xbb3de6d5	-0.0028976698
201	0x3e491613	0.19637327
202	0xbce7a872	-0.028278563
203	0x3e2fa994	0.17154533
204	0x3cf6a3af	0.030107347
205	0x3e281403	0.16413884
206	0x3e24f7f3	0.1611021
207	0xbd2265cb	-0.03964786
208	0x3d89e636	0.067333624
209	0x3db4bb4d	0.08824787
210	0x3c801412	0.01563457
211	0x3dc2a781	0.09504605
212	0x3d6acfe1	0.057327155
213	0xbda248da	-0.079240516
214	0x3df871cf	0.12131082
215	0x3cb1d10d	0.021706128
216	0x3cfb68b1	0.03068957
217	0xbc83b008	-0.01607515
218	0x3e5ce5e9	0.21572079
219	0x3d70789d	0.058708776
220	0x3db7627e	0.08954333
221	0xbc3f18e3	-0.011663648
222	0x3d860d04	0.06545451
223	0xbd06cea8	-0.032911927
224	0xbdeca908	-0.11555678
225	0xbae34c28	-0.0017341422
226	0xbd452406	-0.048130058
227	0xbcedcb92	-0.029027734
228	0xbd1861ac	-0.037202522
229	0xbdcd165b	-0.100140296
230	0x3e978fa5	0.2960178
231	0x3d7cf00a	0.061752357
232	0x3d57cbd7	0.05268463
233	0x3d51633a	0.05112002
234	0x3d3d2968	0.046182066
235	0x3dc22097	0.09478872
236	0x3dae3789	0.08506686
237	0xbdcfc059	-0.10144109
238	0xbdeebca0	-0.11657071
239	0x3e2cdb33	0.16880493
240	0x3dd22089	0.10260112
241	0x3ec6ef2d	0.38854352
242	0x3d384773	0.044990014
243	0x3db1b879	0.086777635
244	0x3e59c935	0.2126816
245	0x3e345df1	0.17613961
246	0x3e06796a	0.13132253
247	0xbd6484c6	-0.055790685
248	0x3e13bac5	0.14426716
249	0xbdc41356	-0.095740005
250	0x3d9e4b26	0.07729177
251	0xbdcba605	-0.09943775
252	0x3d8a2731	0.067457564
253	0xbde080c7	-0.10962062
254	0xbe089c67	-0.13340913
255	0x3c859d3e	0.01631033

rnn.bias_hh_l0 f4 [256]
0	0x3e7b1eb9	0.24523439
1	0xbe0142ac	-0.1262309
2	0xbe0638e8	-0.13107646
3	0x3d695bca	0.056972302
4	0x3c5de33c	0.013542946
5	0x3c2c0eb9	0.010501557
6	0xbd655f54	-0.055999115
7	0x3dd1a344	0.102362186
8	0xbdebbc2b	-0.115104996
9	0x3e5ec09c	0.21753162
10	0x3dd4a9a0	0.10383916
11	0xbbfe131c	-0.007753743
12	0x3bacf65e	0.0052783927
13	0x3ba4d6b4	0.0050304774
14	0xbda2b22e	-0.07944141
15	0x3dbaa0dd	0.091127135
16	0xbc855b05	-0.016278753
17	0xbd509bbc	-0.05092977
18	0xbd8d6ea9	-0.069058724
19	0x3e3a0716	0.18166766
20	0x3d04bdab	0.032407444
21	0x3ddfad07	0.10921674
22	0x3dcaebec	0.0990828
23	0x3d1f2f02	0.03886319
24	0xbbbd9dad	-0.0057866187
25	0x3dc06311	0.093938954
26	0x3e8dcf97	0.2769744
27	0x3d5bfd99	0.053708646
28	0x3caf5356	0.021402042
29	0x3ca5de54	0.020247616
30	0x3e8ab397	0.2709014
31	0x3d56ff2b	0.05248944
32	0xbd052cbf	-0.032513376
33	0xbca94003	-0.020660406
34	0xbcd47f5a	-0.025939632
35	0x3dc21070	0.094757915
36	0xbd24a650	-0.04019767
37	0xbd08c1fd	-0.033388127
38	0x3e6235a1	0.2209077
39	0x3e35c294	0.17750007
40	0x3dfa8ff7	0.1223449
41	0xbd21bd71	-0.039487306
42	0xbbc884a4	-0.0061193276
43	0x3db17403	0.086647056
44	0x3bda839e	0.006668522
45	0x3cd1fb3c	0.025632493
46	0x3bc13e9c	0.005897356
47	0xbd3da574	-0.046300367
48	0x3dbcfdca	0.09228094
49	0x3e69bf5a	0.22826901
50	0x3e0f0918	0.13968313
51	0x3d88bc02	0.06676485
52	0x3e38e8ad	0.18057509
53	0x3dbf4461	0.09339214
54	0x3e244c34	0.16044694
55	0xbc0aa5c1	-0.00846237
56	0x3d8c1388	0.06839663
57	0xbd8a4514	-0.06751457
58	0x3cd2c96b	0.02573081
59	0x3b9fbaea	0.004874577
60	0x3e0caa4c	0.13736838
61	0x3ddc6027	0.10760527
62	0x3dac61d8	0.084171
63	0x3e0800de	0.13281581
64	0xbdd8a354	-0.10578027
65	0x3bd1d808	0.0064039268
66	0xbda12439	-0.07868237
67	0xbde4f8e5	-0.11180285
68	0x3da11d3a	0.07866903
69	0x3d974775	0.07386676
70	0xbe1fca06	-0.1560441
71	0xbc822554	-0.01588694
72	0x3c90c204	0.017670639
73	0x3cb56a08	0.022145286
74	0x3d830cd1	0.06398929
75	0x3db3f4fb	0.08786961
76	0xbceab45c	-0.028650455
77	0xbc5c9c9a	-0.013465071
78	0x3cfdd036	0.030983072
79	0x3da1cc02	0.079002395
80	0x3ddf878c	0.109145254
81	0x3dcc4469	0.09973986
82	0x3c251ebb	0.0100781275
83	0xbd0dd0c7	-0.034622934
84	0x3dc7bd2c	0.097528785
85	0x3dc681b8	0.09692711
86	0x3dfa1557	0.122111015
87	0xbd1db1d7	-0.03849968
88	0x3cd539af	0.026028482
89	0xbd7cc635	-0.061712462
90	0xbd99a45a	-0.07502051
91	0xbdb36213	-0.087589405
92	0x3d61bdd2	0.055112667
93	0x3d40df4b	0.04708795
94	0x3db364f0	0.08759487
95	0xbd9ff084	-0.078095466
96	0xbdb6350d	-0.088968374
97	0xbb3ccef4	-0.0028809877
98	0x3dc3aad8	0.0955407
99	0x3d8de64c	0.06928691
100	0x3d15da5e	0.036585204
101	0x3db25f8d	0.08709631
102	0xbda08f07	-0.0783978
103	0x3c5e3d07	0.013564355
104	0x3d8795a9	0.06620342
105	0x3b99f3a5	0.004698234
106	0x3da89b01	0.0823269
107	0xbdc27b8e	-0.094962224
108	0x3e22aa11	0.15885188
109	0x3de6387c	0.11241242
110	0xbdcde537	-0.10053485
111	0x3cdad53c	0.026713006
112	0x3cba776e	0.022762027
113	0xbd70cbc3	-0.058788072
114	0x3c98c17a	0.018646944
115	0x3d99d6bc	0.075116605
116	0xbd8f97ab	-0.0701135
117	0xbd606cfc	-0.054791436
118	0xbda394a2	-0.07987334
119	0x3d7db2bd	0.061938036
120	0x3d8a197a	0.067431405
121	0xbe01f8fb	-0.12692635
122	0xbd7ab1cb	-0.061204713
123	0xba6d371d	-0.0009049045
124	0xbb47c971	-0.0030485059
125	0x3d260005	0.040527362
126	0x3ceb3ba0	0.028714955
127	0xbceb7b60	-0.028745353
128	0xbd888432	-0.06665839
129	0xbc8694d8	-0.016428396
130	0xbcd5e833	-0.026111698
131	0x3c9b47b5	0.018955091
132	0x3dcaa560	0.09894824
133	0xbd4e7071	-0.0504002
134	0xbd8e576a	-0.06950267
135	0x3dbfc7bb	0.093642674
136	0x3cce0c51	0.025152357
137	0x3da80756	0.08204524
138	0xbda3a8ad	-0.07991157
139	0x3dc8ceeb	0.098050915
140	0x3d4038c1	0.046929125
141	0xbdedfbe9	-0.11620314
142	0x3d598d3e	0.053113215
143	0x3d4275c4	0.04747559
144	0x3d48879f	0.048957463
145	0x3dbcb329	0.092138596
146	0x3c033c1c	0.008009937
147	0x3d695f2a	0.05697552
148	0xbb93b2ca	-0.0045073973
149	0xbd6451d1	-0.05574209
150	0x3c929d9d	0.017897421
151	0xbd9ea6fb	-0.07746693
152	0xbe0532aa	-0.13007608
153	0x3d1f0422	0.0388223
154	0xbc3daeb1	-0.011577294
155	0xbd5cd24e	-0.0539115
156	0x3dde63d9	0.10858888
157	0x3d9e8e91	0.07742036
158	0xbc27cfd7	-0.010242424
159	0xbb3527c2	-0.0027642106
160	0xbdd15e32	-0.102230445
161	0x3d7ed165	0.062211413
162	0x3d084154	0.033265427
163	0x3dd890d5	0.105744995
164	0x3b12012a	0.0022278526
165	0xbd15083b	-0.036384802
166	0xbd92b0d7	-0.07162636
167	0x3d9fcb20	0.07802415
168	0xbdc92868	-0.0982216
169	0x3d14048b	0.036137145
170	0x3d263750	0.040580094
171	0xbd8bcc14	-0.06826034
172	0x3ce7f69b	0.028315833
173	0x3dddea62	0.108357206
174	0x3ca0d376	0.019632082
175	0xbb968044	-0.004592927
176	0x3bfa352c	0.007635733
177	0xbd2f214d	-0.042756367
178	0x3da0590b	0.078294836
179	0xbe02420a	-0.12720504
180	0xbd7eb4b6	-0.062184058
181	0xbda17359	-0.07883329
182	0xbca02ef6	-0.019553643
183	0x3d5c8794	0.053840235
184	0x3d4ef0c0	0.050522566
185	0x3df94be0	0.12172675
186	0xbd603ae2	-0.054743655
187	0xbca9af57	-0.020713491
188	0x3d336437	0.043796744
189	0x3d89f1bf	0.067355625
190	0x3b922495	0.0044599273
191	0x3d3e593f	0.04647183
192	0x3e66c745	0.22536953
193	0x3db298bd	0.08720539
194	0x3d07b63a	0.03313277
195	0xbd2c557d	-0.042073715
196	0xbdbace48	-0.09121376
197	0x3ddae534	0.10688248
198	0x3de4b55f	0.11167406
199	0x3ce6960a	0.028147716
200	0x3d290f39	0.041274283
201	0x3e595845	0.21225078
202	0x3d8a134c	0.06741962
203	0xbcf42e9c	-0.029807381
204	0xbdb69692	-0.08915438
205	0x3df3647c	0.118844
206	0x3d1fdd1b	0.039029222
207	0xbd20b767	-0.039237406
208	0x3d9e9752	0.07743706
209	0x3ddff80f	0.10935985
210	0xbe03811d	-0.12842222
211	0x3e65f047	0.2245494
212	0xbdcb0bbd	-0.09914348
213	0x3d918180	0.07104778
214	0x3ce0e04f	0.027450709
215	0xbd921c70	-0.0713433
216	0xbd2bf73d	-0.04198383
217	0xbd5cb83f	-0.05388665
218	0x3db39cbe	0.087701306
219	0xbd94330b	-0.07236298
220	0x3dfb737f	0.122778885
221	0x3ddfed09	0.10933883
222	0x3e88e87d	0.26739874
223	0x3d6169b8	0.055032462
224	0xbdbcc622	-0.09217478
225	0x3d1e42f2	0.038638063
226	0x3dc72e97	0.09725683
227	0xbd91aad5	-0.07112662
228	0xbbb73e36	-0.005592133
229	0x3db62203	0.08893206
230	0x3e939d63	0.28831014
231	0x3ce3d704	0.027812488
232	0x3b1213ee	0.002228971
233	0xbd8cb470	-0.06870353
234	0xbd8e7110	-0.06955159
235	0x3dd07061	0.101776846
236	0x3ddfc30d	0.10925875
237	0x3d2d5a98	0.042322725
238	0x3db53fe6	0.08850078
239	0x3d9aff06	0.07568173
240	0x3e02082a	0.12698427
241	0x3e739f41	0.2379122
242	0x3dffc581	0.12488843
243	0xbc70ce28	-0.014697589
244	0x3d9bda25	0.07609967
245	0x3e07167a	0.13192168
246	0x3c6790d2	0.014133649
247	0x3d8183f1	0.06323994
248	0x3e0eee31	0.1395805
249	0xbd50d901	-0.0509882
250	0xbd89d299	-0.067296214
251	0x3de50e87	0.111844115
252	0x3bcd25c6	0.0062606065
253	0xbd54609d	-0.05184995
254	0x3d33787e	0.043816082
255	0x3b7a5c93	0.0038202151

rnn.weight_ih_l1 f4 [256, 64]
0	0xbde1e4b6	-0.11029951
1	0x3d5cd86b	0.05391733
2	0x3db1e88f	0.08686935
3	0x3dcd3799	0.1002037
4	0xbcba3412	-0.022729907
5	0xbdaeb0ff	-0.08529853
6	0x3d8efa5f	0.06981348
7	0x3d1ba822	0.03800214
8	0xbd77683b	-0.060402136
9	0x3dc8024b	0.09766062
10	0xbd5a59d6	-0.05330833
11	0xbd38bdfa	-0.04510305
12	0x3ca65ffb	0.020309439
13	0x3d139cd5	0.03603824
14	0xbd8e1a03	-0.06938555
15	0x3d168c90	0.036755145
16	0xbe0ca0bd	-0.13733192
17	0x3d47839a	0.04870949
18	0xbd83eec7	-0.064420275
19	0x3afb34ce	0.0019165517
20	0x3bc2adcb	0.005941128
21	0xbcf04cbe	-0.029333469
22	0x3ce9ecf3	0.028555369
23	0xbdd4a810	-0.10383618
24	0xbdc5ce1e	-0.09658454
25	0xbe0b82ba	-0.13624087
26	0x3d903b17	0.070425205
27	0x3dbccace	0.092183694
28	0x3d6d4849	0.057930265
29	0xbe06d810	-0.13168359
30	0xbd807820	-0.06272912
31	0x3d873d8e	0.066035375
32	0x3d9d5129	0.07681496
33	0x3cb7c1b0	0.022431225
34	0x3d14f941	0.03637052
35	0xbd3c7dbf	-0.04601836
36	0x3d51f013	0.051254343
37	0x3d8b2466	0.06794052
38	0xbd972da9	-0.07381756
39	0xbdaede14	-0.08538452
40	0x3d99b492	0.07505144
41	0x3d8f044d	0.06983242
42	0x3c8efb8b	0.01745393
43	0xbbb8135b	-0.0056175417
44	0xbc11531e	-0.008869914
45	0xbdd7576d	-0.10514722
46	0xbc4bbd69	-0.012435296
47	0xbd14f032	-0.03636188
48	0xbd7bccae	-0.061474495
49	0xbd45d4a7	-0.048298504
50	0x3dafa2c9	0.08575971
51	0xbdaefa15	-0.08543793
52	0x3e0ffb65	0.14060743
53	0xbcc1323f	-0.02358353
54	0x3d353c50	0.04424697
55	0xbc2ac87d	-0.010423777
56	0x3c8199da	0.015820432
57	0xbdcf619d	-0.1012604
58	0xbdb3ce0d	-0.087795354
59	0xbdcf3c86	-0.10118966
60	0x3caebcf4	0.021330334
61	0x3d714a9f	0.058909055
62	0x3ce359fd	0.02775287
63	0x3c943fd7	0.018096847
64	0x3e0c5e5e	0.13707873
65	0xbb824d72	-0.0039765174
66	0x3d986f3c	0.07443091
67	0x3c0a0cd5	0.008425911
68	0xbde1d845	-0.11027578
69	0xbdf22324	-0.11823109
70	0x3de85381	0.11344052
71	0x3d7232fc	0.059130654
72	0x3defb1dd	0.117038466
73	0x3e297fa0	0.16552591
74	0x3b3ef979	0.0029140397
75	0xbc9b937c	-0.018991224
76	0xbdd37ad1	-0.1032616
77	0xbd85b321	-0.06528307
78	0x3d903e80	0.07043171
79	0x3e2ad5bf	0.166831
80	0xbd7cd440	-0.061725855
81	0xbb8146db	-0.003945214
82	0xbc723462	-0.014782997
83	0x3d98b376	0.074561045
84	0xbd37a8f3	-0.044838857
85	0x3db41ede	0.0879495
86	0x3d52a537	0.051427092
87	0x3de5b431	0.112160094
88	0xbdcb4400	-0.09925079
89	0x3db935a6	0.09043436
90	0x3e1ec5f5	0.15505202
91	0x3dc84453	0.09778657
92	0xbe0b0424	-0.13575798
93	0xbda57767	-0.08079415
94	0x3c4df1f8	0.012569897
95	0x3d52c923	0.05146135
96	0x3dd2a845	0.10286001
97	0x3d1d6b59	0.038432453
98	0xbde98666	-0.114025876
99	0xbd480830	-0.048835933
100	0x3d8ae1ca	0.06781347
101	0x3c008344	0.007843796
102	0x3d9f7180	0.0778532
103	0x3b9dbddc	0.0048138928
104	0x3debb8b9	0.115098424
105	0x3da8f056	0.082489654
106	0x3da65aca	0.081227854
107	0x3dab164a	0.08353861
108	0x3c0fc037	0.008773855
109	0x3dbac73c	0.09120032
110	0xbcce8d87	-0.02521397
111	0x3e1aef32	0.15130308
112	0x3d898caf	0.067162864
113	0x3dec082a	0.11524995
114	0xbd605ef8	-0.05477807
115	0xbd3205ff	-0.04346275
116	0x3dca18d9	0.098680206
117	0xbe58fe3c	-0.21190733
118	0x3ddf3acc	0.108998865
119	0x3d275771	0.040854875
120	0xbd5020ac	-0.05081241
121	0x3e269384	0.1626721
122	0x3d71dac5	0.059046526
123	0x3e07dd05	0.13267906
124	0x3d9a976e	0.07548414
125	0x3df796f1	0.12089337
126	0x3d296578	0.041356534
127	0x3df10642	0.11768772
128	0xbdce4a54	-0.10072771
129	0xbdfe9147	-0.12430053
130	0xbcc64847	-0.024204386
131	0x3d68d8a5	0.056847233
132	0x3b938673	0.0045021116
133	0xbdf5faca	-0.12010725
134	0x3d9d4997	0.07680052
135	0x3ce3143a	0.027719606
136	0x3c3ca5c8	0.011514135
137	0xbe2bb879	-0.1676959
138	0x3cba7e6f	0.022765366
139	0xbc8b6842	-0.017017487
140	0x3dc4ded1	0.09612811
141	0xbd32767d	-0.04357003
142	0x3db79a09	0.08964927
143	0xbdd3fc62	-0.103508726
144	0x3d5bf272	0.05369801
145	0xbd89e8e4	-0.067338735
146	0xbd674437	-0.05646154
147	0x3df5ce3b	0.12002226
148	0x3bb75ed1	0.00559602
149	0xbce9d56a	-0.028544147
150	0x3de77a55	0.1130263
151	0xbd4fe015	-0.05075081
152	0xbd4523a9	-0.04812971
153	0xbdd1eaf7	-0.10249894
154	0xbda32a13	-0.079670094
155	0x3d5ed30b	0.054400485
156	0xbd830e2b	-0.06399187
157	0xbdc2f123	-0.095186494
158	0x3d1387c0	0.036018133
159	0x3de64f81	0.11245633
160	0xbe2148ff	-0.15750502
161	0x3d475668	0.048666388
162	0xbcacccb7	-0.02109371
163	0x3def4357	0.11682766
164	0xbcf3a2c7	-0.029740704
165	0xbd9650fc	-0.07339665
166	0xbafe456c	-0.0019399351
167	0x3d6ccfd6	0.057815395
168	0xbd8f9bec	-0.070121616
169	0xbd9f54b7	-0.0777983
170	0x3dea9e04	0.1145592
171	0xbbb982f9	-0.005661365
172	0x3e4f28c0	0.20230389
173	0xbd812057	-0.063049965
174	0xbc62c2a7	-0.013840354
175	0xbe1c7678	-0.15279567
176	0x3bd184fb	0.0063940263
177	0xbc944f9e	-0.01810437
178	0xbdb51e4d	-0.0884367
179	0x3c7d9c9c	0.015479233
180	0xbd1225e2	-0.03568066
181	0x3d6b5357	0.057452526
182	0xbd36d19a	-0.044633485
183	0xbdc7a804	-0.09748843
184	0x3d400a06	0.04688456
185	0x3c78c063	0.015182587
186	0x3c84f430	0.016229719
187	0xbd900a2c	-0.0703319
188	0xbdea31b2	-0.1143526
189	0xbc1a4a08	-0.0094170645
190	0x3be43fbf	0.006965607
191	0xbd5e9c45	-0.05434825
192	0x3b9fba8c	0.004874533
193	0xbe112dfd	-0.141777
194	0x3db9b261	0.09067226
195	0x3db61f0d	0.08892641
196	0xbdc29007	-0.09500127
197	0x3c019f5d	0.00791153
198	0x3def1c12	0.11675276
199	0xbc69a509	-0.014260539
200	0x3d95816b	0.07300075
201	0xbd6b78b3	-0.057488155
202	0xbcce0728	-0.025149897
203	0x3ce88892	0.028385434
204	0xbd812db7	-0.063075475
205	0x3da52635	0.08063928
206	0x3d97d968	0.07414514
207	0xbc9db033	-0.019249057
208	0x3ddb5046	0.1070867
209	0xbd23d008	-0.039993316
210	0x3d6c2941	0.05765653
211	0xbc6b9c7a	-0.014380569
212	0xbd596c89	-0.053082023
213	0x3dc5d73b	0.096601926
214	0xbc57bb9b	-0.013167287
215	0x3d215dd7	0.039396133
216	0xbc562bdc	-0.01307198
217	0x3d3f64fb	0.04672716
218	0x3dbc35a5	0.091899194
219	0xbe11a5ce	-0.14223406
220	0xbdb12a93	-0.086506985
221	0xbce2fa9e	-0.027707394
222	0xbd6676a1	-0.056265477
223	0x3e285683	0.16439252
224	0x3d5b5e20	0.05355656
225	0x3de9d158	0.11416882
226	0x3ddd985c	0.10820076
227	0x3df69b53	0.120413445
228	0xbd6e7a07	-0.058221843
229	0xbe0bb011	-0.13641383
230	0x3ddda7fb	0.10823055
231	0x3dbc7d49	0.09203584
232	0x3d29d492	0.04146249
233	0x3d6ebad8	0.058283657
234	0xbd9f4c52	-0.07778229
235	0x3d9ed7b6	0.07755987
236	0x3ca2f6a0	0.01989299
237	0xbd6da4ae	-0.05801838
238	0x3da1d571	0.07902039
239	0x3d774d7b	0.060376626
240	0x3dcee08d	0.101014234
241	0xbd8b1235	-0.06790582
242	0xbda4e504	-0.08051494
243	0x3d90b7e3	0.070663236
244	0xbbf2fd6e	-0.007415465
245	0x3d7ce366	0.0617403
246	0xbdbdd1d1	-0.09268535
247	0x3d4c6107	0.04989722
248	0x3d1b518f	0.037919577
249	0xbd3d4298	-0.046206087
250	0x3dbeccb1	0.093163855
251	0xbcd306d0	-0.025760084
252	0x3e004ab6	0.125285
253	0x3db771e1	0.089572676
254	0x3d468809	0.048469577
255	0xbd1f195b	-0.03884254

rnn.weight_hh_l1 f4 [256, 64]
0	0xbdf1cb41	-0.11806346
1	0xbda6c171	-0.08142365
2	0x3de4b80b	0.11167916
3	0x3de215f7	0.11039346
4	0xbd82289d	-0.063554026
5	0xbd330215	-0.043703157
6	0xbdec5925	-0.115404405
7	0x3df82fd3	0.12118497
8	0x3c1d9d3b	0.009620006
9	0xbca5e3a3	-0.020250147
10	0xbd8bbb61	-0.06822849
11	0xbd78bf95	-0.060729582
12	0xbe0ec41a	-0.13941994
13	0x3d457e6b	0.048216265
14	0x3ab223bf	0.0013590975
15	0xbd36f3b3	-0.044666003
16	0x3da7d103	0.08194163
17	0xbd5d8b67	-0.054088023
18	0x3d0f2eff	0.03495693
19	0x3d543de3	0.051816832
20	0xbda9822a	-0.0827678
21	0x3ba5672c	0.0050476994
22	0x3dc2e2c3	0.095159076
23	0x3d7d718d	0.06187587
24	0xbd03dbb7	-0.03219196
25	0x3dd15818	0.10221881
26	0x3e171d3c	0.14757246
27	0xbc5565e0	-0.013024777
28	0x3dba141a	0.09085865
29	0xbddf1095	-0.10891835
30	0xbdeb4dc3	-0.11489441
31	0xbd15604b	-0.036468785
32	0xbd5dbc2d	-0.054134537
33	0x3d42dcb9	0.04757378
34	0xbd635547	-0.05550125
35	0x3d18a2e0	0.037264705
36	0x3dc17235	0.094456114
37	0x3da4d77e	0.080489144
38	0x3ddfb8b1	0.10923899
39	0xbdf6eb0c	-0.120565504
40	0x3d970131	0.07373274
41	0x3d8e8ed1	0.06960834
42	0xbdcd7351	-0.100317605
43	0x3d998243	0.074955486
44	0xbdbd4047	-0.092407756
45	0x3ddd42cb	0.108037554
46	0x3d6485c6	0.05579164
47	0xbe108a8c	-0.14115351
48	0x3d9348ba	0.07191606
49	0xbd902faa	-0.07040341
50	0xbd7af8ec	-0.061272547
51	0xbdf8a95c	-0.12141678
52	0xbe038461	-0.12843467
53	0x3db6f4e9	0.08933432
54	0xbdae9906	-0.08525281
55	0xbd565f83	-0.05233718
56	0x3cf284d2	0.02960435
57	0xbdc6ea5a	-0.09712668
58	0x3d9e14fa	0.07718845
59	0xbd723679	-0.05913398
60	0xbc1bbd87	-0.009505636
61	0xbd3608ac	-0.044441864
62	0x3c49e25a	0.012322033
63	0xbda6d129	-0.08145363
64	0xbd8391c6	-0.064242885
65	0x3ca14550	0.019686371
66	0x3b46b5f5	0.0030320857
67	0xbdb4db9e	-0.08830951
68	0xbdf01583	-0.11722853
69	0xbd197052	-0.037460633
70	0xbd81790f	-0.06321918
71	0xbb7356d0	-0.0037130602
72	0xbcd18fd2	-0.025581274
73	0xbcb09ca0	-0.02155906
74	0xbd95b8b9	-0.07310624
75	0xbcf1d03c	-0.02951824
76	0xbdb886cc	-0.090100855
77	0xbcef738a	-0.029229898
78	0x3def0ae8	0.11672002
79	0x3dbd8af9	0.092550226
80	0xbcf0ee10	-0.029410392
81	0x3d6b65e9	0.057470236
82	0x3d57da16	0.052698217
83	0x3e1d4c28	0.15361083
84	0x3cd402a2	0.025880162
85	0x3daa1d29	0.08306343
86	0x3d4f1320	0.05055535
87	0xbc13fded	-0.009032709
88	0xbdaecb2f	-0.08534848
89	0x3dc5e0c9	0.09662015
90	0x3d8d6909	0.069047995
91	0x3cb68867	0.022281839
92	0x3ddbc966	0.10731773
93	0xbdb07a05	-0.086170234
94	0x3dd25fcb	0.10272177
95	0xbdaf4123	-0.08557346
96	0xbdb48ee8	-0.0881632
97	0xbdb8aa6c	-0.090168804
98	0xbdb72fe2	-0.0894468
99	0x3e02031f	0.12696503
100	0x3da62a4d	0.08113537
101	0x3e03b0f3	0.1286047
102	0x3e06a28c	0.13147944
103	0xbdc0b61f	-0.09409737
104	0x3de5eb5a	0.112265304
105	0x3d03b219	0.03215227
106	0xbd98d422	-0.07462336
107	0xbc8d4ccc	-0.017248534
108	0xbde4aa76	-0.11165325
109	0xbdd983a2	-0.1062081
110	0x3db95f78	0.09051412
111	0xbdb93783	-0.09043791
112	0x3d638c54	0.05555375
113	0xbd2392cd	-0.039934922
114	0xbe13e9e3	-0.1444469
115	0xbdb45c42	-0.08806659
116	0xbc89250e	-0.016741302
117	0xbdd7dd62	-0.10540272
118	0x3caa091c	0.020756297
119	0x3d4550cd	0.04817276
120	0xbddbd240	-0.107334614
121	0xbd3c5111	-0.04597575
122	0xbd1f8a48	-0.038950235
123	0xbd69a095	-0.05703791
124	0xbd447a4e	-0.0479682
125	0xbd642f0d	-0.055708934
126	0x3d0dc76e	0.03461402
127	0xbcae87d8	-0.02130501
128	0xbdd69717	-0.10478037
129	0x3de77b4c	0.11302814
130	0xbd9d155e	-0.07670091
131	0xbdc11875	-0.09428493
132	0xbcd5b899	-0.026089
133	0x3d5ea75e	0.054358833
134	0x3d9e30f5	0.077241816
135	0xbc04f372	-0.0081146825
136	0xbce11c4b	-0.027479311
137	0x3d1417e9	0.036155615
138	0x3a320673	0.0006791122
139	0x3d4017c6	0.046897672
140	0x3d2c1194	0.04200895
141	0xbdc0a02a	-0.09405549
142	0xbafe97df	-0.0019423923
143	0x3d4e1acf	0.050318535
144	0xbccdf45d	-0.025140936
145	0xbd6ae55a	-0.057347633
146	0x3dcc0449	0.09961755
147	0x3e011167	0.12604295
148	0xbdbc3ac8	-0.09190899
149	0x3cb3ffbb	0.021972528
150	0x3d985ab1	0.07439173
151	0x3d516c09	0.05112842
152	0xbabb0a24	-0.001426999
153	0x3d454b37	0.048167434
154	0x3d89dcaa	0.067315415
155	0xbcde7321	-0.027154507
156	0x3db5d634	0.08878747
157	0xbdb8e208	-0.09027487
158	0xbda8a800	-0.082351685
159	0xbdfac115	-0.12243859
160	0x3d36429d	0.04449712
161	0x3d9db9e5	0.07701472
162	0xbc1b849a	-0.009492064
163	0x3dfebb4d	0.124380685
164	0x3d91d8d4	0.07121435
165	0xbd49e93b	-0.04929469
166	0x3e287699	0.16451491
167	0x3de4d844	0.11174062
168	0xbe08f185	-0.13373382
169	0xbc65b6fe	-0.0140206795
170	0xbe4d0181	-0.20020105
171	0xbe2ce247	-0.16883193
172	0x3de614dd	0.11234448
173	0x3dee2be1	0.11629463
174	0x3cf63b99	0.030057715
175	0xbaadbb2f	-0.0013254638
176	0xbdb03e7a	-0.086056665
177	0x3dd4d4f4	0.1039218
178	0xbdde309e	-0.10849117
179	0xbd993124	-0.07480076
180	0x3cca3661	0.024684133
181	0xbcf23632	-0.029566858
182	0x3de30c16	0.110862896
183	0xbe09b3d4	-0.13447505
184	0xbd9e4085	-0.0772715
185	0x3d3fd0ca	0.046829976
186	0x3c8d7aca	0.017270464
187	0x3d6d4db7	0.057935443
188	0xbdea95f3	-0.11454382
189	0x3c7a392b	0.015272419
190	0x3ddbf8ef	0.1074084
191	0xbd2371a8	-0.039903313
192	0x3e06482e	0.13113472
193	0x3c9e30cc	0.019310378
194	0xbcded9ca	-0.02720346
195	0xbd205af9	-0.03914926
196	0xbdc5164e	-0.09623395
197	0x3cc38b69	0.023870187
198	0xbd7e0761	-0.062018756
199	0xbe0c6f85	-0.13714416
200	0xbdd35df8	-0.103206575
201	0xbd2a89ab	-0.041635197
202	0x3bb36429	0.0054745865
203	0x3d6d039e	0.057864778
204	0xbd11be16	-0.03558167
205	0xbc7b853b	-0.015351589
206	0x3db195c3	0.08671143
207	0xbd6544d2	-0.055973835
208	0x3d0e3260	0.03471601
209	0xbd35215d	-0.04422127
210	0x3d42ebd0	0.04758817
211	0xbdb12cfe	-0.0865116
212	0xbcd82f8d	-0.026389861
213	0x3d8080d7	0.06274574
214	0x3cf470e9	0.029838996
215	0x3d806880	0.06269932
216	0xbc8aa203	-0.016922956
217	0xbe089a19	-0.13340034
218	0xbc3ca583	-0.01151407
219	0xbdcc81ca	-0.09985693
220	0x3d8fb4b4	0.07016888
221	0xbd8b3deb	-0.06798919
222	0x3d53e871	0.051735345
223	0xbddff19d	-0.10934756
224	0xbcebd4ba	-0.02878796
225	0xbcc4c9bd	-0.024021978
226	0x3da6310b	0.08114823
227	0x3cc73516	0.024317306
228	0x3c38bc09	0.0112753
229	0x3ce16d2e	0.027517881
230	0xbd6f1223	-0.058366906
231	0x3df0f914	0.11766258
232	0xbdd23d04	-0.10265544
233	0x3d70aa30	0.058756053
234	0xbc45663f	-0.012048303
235	0xbc89f220	-0.016839087
236	0x3cee6a95	0.029103557
237	0xbd16c9d5	-0.036813576
238	0xbdf76e65	-0.12081603
239	0xbdc991d9	-0.09842271
240	0x3d135ce5	0.035977263
241	0x3b25801d	0.0025253363
242	0xbd993f01	-0.0748272
243	0x3d8811d9	0.06644029
244	0x3d2ea1db	0.042634826
245	0x3daf3db3	0.0855669
246	0xbd2b5501	-0.041829113
247	0xbcfdf8a3	-0.031002348
248	0xbccdb419	-0.025110291
249	0x3d52826a	0.051393904
250	0x3cfc7df6	0.030821782
251	0xbcb22abe	-0.021748897
252	0xbddd9b85	-0.108206786
253	0xbd046f05	-0.03233244
254	0xbdd2cfe8	-0.10293561
255	0x3d373355	0.04472669

rnn.bias_ih_l1 f4 [256]
0	0x3d1691fb	0.03676031
1	0x3d823f5d	0.06359742
2	0xbdbb7fb1	-0.091552146
3	0xbe092220	-0.13391924
4	0xbdbd9cc6	-0.09258418
5	0xbdfa21b1	-0.122134574
6	0x3d2a16c5	0.04152562
7	0x3d4ff6be	0.05077242
8	0x3ed081fa	0.40724164
9	0x3dd4268a	0.10358913
10	0x3cf1cbcd	0.029516125
11	0x3dc33603	0.09531786
12	0x3e0b961f	0.13631485
13	0xbdad4cad	-0.0846189
14	0x3dc30330	0.09522092
15	0x3d8bb6da	0.068219855
16	0xbd46b4b9	-0.048512194
17	0x3df1de61	0.118099935
18	0xbd6d9782	-0.058005817
19	0xbdbfa2e1	-0.093572386
20	0x3d281508	0.041035682
21	0x3daffb50	0.08592856
22	0x3d8fc1d4	0.07019392
23	0x3d9a4256	0.07532184
24	0x3d5a6675	0.053320367
25	0xbdaca7ae	-0.0843042
26	0x3e014e9b	0.12627642
27	0x3ce9ad9c	0.028525166
28	0x3dc4a456	0.09601657
29	0x3d38495d	0.04499184
30	0xbdddffe1	-0.10839821
31	0x3d60806e	0.05480998
32	0xbdef86da	-0.11695643
33	0x3a45c923	0.00075449253
34	0x3d9d3d4f	0.07677709
35	0x3e812ead	0.25230923
36	0xbd8f573c	-0.069990605
37	0x3d8ecf01	0.069730766
38	0x3da387d7	0.07984894
39	0x3cef5ea6	0.029219937
40	0x3d9ed22a	0.07754929
41	0x3c7445ba	0.014909202
42	0x3e2fc8bc	0.17166418
43	0xbd45b2e4	-0.048266307
44	0xbd1ec66a	-0.03876344
45	0xbdb284a2	-0.08716704
46	0xbdd358b7	-0.103196554
47	0xbd8fe298	-0.07025641
48	0x3d30a280	0.043123722
49	0xbb8d85ff	-0.004318952
50	0xbd6b810b	-0.05749611
51	0x3cae5b92	0.021283899
52	0x3dcff5d8	0.10154313
53	0xbdbc420d	-0.09192286
54	0xbd30d2e5	-0.043169875
55	0xbd8aa1c8	-0.067691386
56	0xbdb75de9	-0.08953459
57	0x3d7d25cb	0.06180362
58	0xbc8b1233	-0.016976452
59	0x3d46e89c	0.048561677
60	0x3dfd0409	0.12354285
61	0xbdf9287a	-0.121659234
62	0xbb3210c2	-0.0027170633
63	0xbcb2857e	-0.02179217
64	0xbddcc5c0	-0.10779905
65	0x3d97e7bc	0.07417247
66	0xbd607a57	-0.054804172
67	0x3d2f0a63	0.042734515
68	0x3d44628b	0.04794554
69	0xbdc17199	-0.09445495
70	0xbd5d4267	-0.054018404
71	0x3d9a6cf3	0.07540312
72	0xbcca684f	-0.024707941
73	0x3c791e87	0.015205032
74	0xbe07d513	-0.13264875
75	0xbca6333f	-0.020288108
76	0xbe167436	-0.14692768
77	0xbe2008d6	-0.1562837
78	0xbcf90477	-0.030397637
79	0xbc3c6363	-0.011498305
80	0x3cbf84b8	0.023378715
81	0xbca29e3f	-0.019850848
82	0xbe17fd57	-0.14842735
83	0xbc448862	-0.011995407
84	0xbe0cf05b	-0.13763563
85	0x3c6500a4	0.0139772035
86	0xbdc50a4a	-0.09621103
87	0xbe257b01	-0.16160204
88	0xbd60675b	-0.054786067
89	0xbda0b59b	-0.078471385
90	0x3d1d8cb3	0.03846426
91	0x3dc8fca6	0.09813814
92	0x3da29c4f	0.0793997
93	0x3df4a455	0.11945406
94	0x3d09cf65	0.033645052
95	0x3cabb1bd	0.020958776
96	0xbbd217ab	-0.006411513
97	0x3d2567cf	0.040382203
98	0xbd8c2217	-0.068424396
99	0xbd1c9fe6	-0.03823843
100	0xbe064fc9	-0.13116373
101	0x3cca98e7	0.024731113
102	0xbda9d7fa	-0.082931474
103	0xbcb3eaf7	-0.021962626
104	0xbd644865	-0.055733103
105	0xbe0045f3	-0.12526684
106	0xbde70552	-0.11280312
107	0x3c5e540b	0.013569842
108	0xbde1027e	-0.109868035
109	0x3dabb9bf	0.08385038
110	0x3d8706c1	0.06593085
111	0x3d1504db	0.036381584
112	0x3da4f3ec	0.08054337
113	0x3da7b9c9	0.081897326
114	0xbd89d5ca	-0.0673023
115	0x3be59be4	0.007007109
116	0x3d9450f6	0.072420046
117	0xbd8effe0	-0.06982398
118	0x3d605697	0.05477008
119	0xbcff6c8b	-0.031179687
120	0xbdbdd9f9	-0.092700906
121	0xbe0b0d0d	-0.13579197
122	0xbdd13d92	-0.10216822
123	0x3da2e57e	0.079539284
124	0xbd9e830a	-0.077398375
125	0xbddea458	-0.1087119
126	0xbdf0e966	-0.11763267
127	0x3d8cba8e	0.0687152
128	0xbdbeb327	-0.09311514
129	0xbda5b6e1	-0.08091522
130	0x3d9f92de	0.077916846
131	0xbdc29141	-0.09500361
132	0x3da67871	0.08128441
133	0xbdcf349c	-0.10117456
134	0x3da56277	0.08075421
135	0x3dea09dc	0.11427662
136	0xbddbd66d	-0.10734258
137	0x3d14141f	0.036152
138	0x3d776b8c	0.0604053
139	0xbb3692c0	-0.0027858466
140	0x3dbe9483	0.0930567
141	0x3d7e435f	0.06207597
142	0xbc2eb943	-0.010664287
143	0xbd0d7f68	-0.034545332
144	0x3cefca73	0.02927134
145	0xbde70039	-0.11279339
146	0xbda83d43	-0.0821481
147	0x3db6be6c	0.08923039
148	0x3d01f0dd	0.031723846
149	0x3c5900f1	0.013244853
150	0xbcb1ebc4	-0.021718867
151	0xbd5ddc20	-0.054165006
152	0xbd498326	-0.04919734
153	0x3dd67b63	0.10472753
154	0x3d5c9003	0.053848278
155	0x3ccba00d	0.024856592
156	0x3d89d4d5	0.067300476
157	0xbd8937dd	-0.06700108
158	0x3c8aca73	0.016942238
159	0xbba9c5b4	-0.0051810388
160	0xbc87ef4d	-0.0165936
161	0xbda112cc	-0.07864913
162	0xbdb15b7c	-0.086600274
163	0xbcf78489	-0.030214565
164	0x3d828561	0.06373096
165	0x3dac472c	0.084120125
166	0x3d4fd741	0.05074239
167	0x3dcfd3ab	0.10147794
168	0x3da2ccc5	0.07949213
169	0xbc897886	-0.016781103
170	0xbdb770dc	-0.08957073
171	0xbd2d6fe7	-0.042343047
172	0x3da6b435	0.081398405
173	0xbbf3be9e	-0.007438495
174	0xbe022e9f	-0.12713097
175	0xbcc07055	-0.023491064
176	0x3da702ed	0.08154855
177	0xbd9396b9	-0.072064824
178	0xbce71d8e	-0.028212335
179	0x3c7ceac7	0.015436835
180	0xbdccbe01	-0.09997178
181	0xbdb48d77	-0.08816045
182	0xbc18f08e	-0.009334696
183	0xbdca4f29	-0.0987838
184	0x3dc48a67	0.09596711
185	0x3cb7c035	0.022430519
186	0x3d57faaf	0.052729305
187	0xbdb19d76	-0.086726114
188	0xbbd6d020	-0.006555572
189	0xb7cc7f56	-2.437799e-05
190	0x3cbfb1fd	0.023400301
191	0xbd1c5b47	-0.038172986
192	0xbd85e860	-0.06538463
193	0xbd26272e	-0.04056471
194	0xbc53199c	-0.012884524
195	0x3d3bca9a	0.045847513
196	0xbd31e9b9	-0.043435786
197	0x3d039728	0.032126576
198	0x3dfd21e2	0.12359978
199	0x3ca27850	0.01983276
200	0x3e9cc0a9	0.30615738
201	0x3d4c6cd1	0.049908463
202	0x3d89803f	0.06713914
203	0xbc41c58f	-0.011826887
204	0x3dd8b254	0.105808884
205	0x3d162485	0.03665592
206	0x3d9c2006	0.076232955
207	0x3c9426c5	0.018084893
208	0x3e04d49e	0.12971732
209	0xbd8f4c7e	-0.069970116
210	0x3c76388c	0.01502813
211	0x3d242163	0.040070903
212	0xbde9789d	-0.11399958
213	0x3d1a0272	0.03759999
214	0xbcbe3766	-0.023219775
215	0x3d882881	0.066483505
216	0xbd05332f	-0.032519516
217	0x3e06684e	0.13125727
218	0xbdbe7ad8	-0.09300774
219	0x38ec51d6	0.000112686
220	0xbda5989e	-0.0808575
221	0xbd9ead60	-0.077479124
222	0xbc982ca6	-0.018575978
223	0x3d47053c	0.048588976
224	0xbd6a4460	-0.057194114
225	0xbd902d56	-0.07039897
226	0x3e1872d9	0.14887561
227	0x3d8a3c37	0.06749766
228	0xbaae4972	-0.0013297035
229	0x3d02b627	0.031911995
230	0xbbe18edf	-0.0068834866
231	0xbc3f423a	-0.0116735045
232	0xbdf1be1d	-0.11803839
233	0x3d44912e	0.047990017
234	0xbd6f5c82	-0.05843783
235	0xbb0b58e8	-0.002126271
236	0xbd0385bd	-0.032109965
237	0x3c5edcdd	0.013602463
238	0x3cc3f43a	0.023920167
239	0xbd3a949f	-0.045551892
240	0xbdea5169	-0.11441309
241	0x3dd78007	0.10522466
242	0x3df93a54	0.12169328
243	0xbd7c8eb4	-0.06165953
244	0x3e7a23c7	0.2442771
245	0xbc9d8dac	-0.019232593
246	0xbd0a2912	-0.033730574
247	0x3afcea03	0.0019295815
248	0xbd361456	-0.044452988
249	0x3cb6d295	0.02231721
250	0xbe014716	-0.12624773
251	0x3d4f7fe0	0.05065906
252	0x3d63ec63	0.055645358
253	0xbdab3e96	-0.08361547
254	0xbdb5b29e	-0.08871959
255	0x3d833415	0.06406418
