data/results/lstm_regime_ETH_r5d_r6_wNone.pt (torch, 221845 bytes, 9 tensors)

rnn.weight_ih_l0 f4 [256, 16]
0	0xbda664ad	-0.08124671
1	0xbc8456e2	-0.01615471
2	0xbee54ec6	-0.44786662
3	0x3ce9d171	0.028542252
4	0xbe606d79	-0.2191676
5	0xbba96c63	-0.0051703914
6	0x3d97c09c	0.07409784
7	0xbe354f83	-0.17706113
8	0xbe3bac9f	-0.18327568
9	0xbe05c717	-0.13064228
10	0xbda4fb6e	-0.08055769
11	0x3d7874ab	0.06065814
12	0xbe477225	-0.19477136
13	0xbe1dfca0	-0.154284
14	0x3cecb2db	0.028893879
15	0x3e5c6fec	0.2152707
16	0x3dc2d964	0.0951412
17	0x3cc5ce51	0.02414623
18	0xbbd9ed9f	-0.006650641
19	0x3ce01b24	0.027356692
20	0x3dbc475f	0.091933005
21	0xbdb0258a	-0.0860091
22	0xbe2351de	-0.15949199
23	0xbece17bf	-0.40252492
24	0x3d2d1b8e	0.042262606
25	0xbe9f34c5	-0.31094947
26	0xbe116587	-0.14198886
27	0xbe64fbe5	-0.22361715
28	0xbe924c89	-0.28574017
29	0x3dbf482d	0.09339938
30	0x3d95a36f	0.07306563
31	0xbc9ea174	-0.019364096
32	0xbddfd52a	-0.1092933
33	0x3d2efcd0	0.04272157
34	0x3da9dfde	0.082946524
35	0x3d52c2df	0.051455375
36	0xbe5b1af0	-0.21396995
37	0xbe760cf6	-0.24028382
38	0xbe0b10b4	-0.1358059
39	0xbe071ab1	-0.13193776
40	0xbea9859f	-0.33109757
41	0xbce711be	-0.028206702
42	0xbe883e8e	-0.26610225
43	0xbe14da2d	-0.14536352
44	0xbd048fbe	-0.032363646
45	0xbcc45cda	-0.023970056
46	0xbe93a556	-0.2883708
47	0x3dab7bca	0.0837322
48	0x3e0e2c67	0.13884126
49	0x3e2da0df	0.16955899
50	0xbe4ad3b4	-0.19807321
51	0xbd5bca23	-0.05365957
52	0xbe86c971	-0.26325563
53	0x3e263ef7	0.16234957
54	0x3e20623f	0.15662478
55	0xbd92e3cb	-0.07172354
56	0xbde63aed	-0.11241708
57	0xbdd10a0d	-0.10206995
58	0x3eaeb0d3	0.3411928
59	0x3e40925a	0.18805829
60	0xbd694874	-0.056953862
61	0xbe12e5d0	-0.14345479
62	0x3cd3c740	0.025851846
63	0xbdb3b158	-0.0877406
64	0xbc820fe4	-0.015876718
65	0xbcf2f1be	-0.029656287
66	0xbe6e8567	-0.23293076
67	0x3e5a42b9	0.21314515
68	0x3d5fcbde	0.054637782
69	0xbe3bf122	-0.18353704
70	0xbce1e1a1	-0.027573409
71	0xbdf181f2	-0.11792363
72	0xbe064a3d	-0.13114257
73	0x3d917013	0.071014546
74	0x3e128210	0.14307427
75	0x3e2aa568	0.1666466
76	0xbda714c3	-0.08158257
77	0xbde8d348	-0.11368424
78	0xbd68e5db	-0.056859832
79	0xbdf4c849	-0.11952264
80	0xbe10fa74	-0.1415804
81	0xbd6611a4	-0.056169167
82	0xbe2735fa	-0.16329184
83	0x3da6fd32	0.08153762
84	0xbd7ea2a5	-0.06216683
85	0xbc929a3a	-0.017895807
86	0xbe8d9940	-0.27655983
87	0xbe65e919	-0.22452201
88	0xbda26198	-0.07928771
89	0xbe76e72b	-0.24111621
90	0xbc9f60bc	-0.019455306
91	0xbe312562	-0.17299417
92	0xbe857b0e	-0.26070446
93	0xbb3446c4	-0.0027508
94	0xbed0a914	-0.40753996
95	0x3dab4206	0.08362202
96	0xbdffe106	-0.12494092
97	0xbe0e87dd	-0.13919015
98	0xbee19f79	-0.4406698
99	0x3de0e93d	0.10981987
100	0x3b936b39	0.004498866
101	0xbe890e50	-0.26768732
102	0xbd6cb482	-0.057789333
103	0xbdcd5639	-0.10026211
104	0x3e89afc4	0.2689191
105	0xbe5466f1	-0.20742394
106	0x3d01a197	0.031648245
107	0xbd52828d	-0.051394034
108	0xbe802c3f	-0.25033757
109	0x3e52c4db	0.20582907
110	0xbee1e25e	-0.44118017
111	0x3e482e5a	0.19548932
112	0xbd21418d	-0.039369155
113	0x3e1cfe48	0.15331376
114	0xbd7b56e1	-0.06136215
115	0xbe1c4b04	-0.15262991
116	0xbcf6a333	-0.030107116
117	0xbd612ee8	-0.054976374
118	0x3e3d98bd	0.18515296
119	0xbdb9eb89	-0.09078128
120	0x3d392184	0.04519798
121	0xbe81183e	-0.25213808
122	0x3d082761	0.03324068
123	0x3e01f1d5	0.12689908
124	0x3cd7c41d	0.026338631
125	0x3da641d3	0.08118024
126	0x3dbea118	0.0930807
127	0xbcc35522	-0.023844305
128	0x3e32636e	0.17420742
129	0x3e4171b5	0.18891032
130	0xbde7c2be	-0.11316441
131	0x3ea84a59	0.32869223
132	0xbed3aee4	-0.41344368
133	0x3e04f2e1	0.12983276
134	0x3e7ec312	0.24879101
135	0xbe17179b	-0.14755099
136	0xbe329012	-0.17437771
137	0x3d810105	0.062990226
138	0x3db36114	0.087587506
139	0xbd4b9ac2	-0.049708135
140	0x3d37ad65	0.044843096
141	0xbe1dcbe1	-0.15409805
142	0xbc0829ff	-0.008310794
143	0xbde141f5	-0.109989084
144	0x3debbf8e	0.115111455
145	0x3e9a71e4	0.30165017
146	0xbe08cf8f	-0.13360427
147	0xbe90b79e	-0.2826509
148	0x3e100cbc	0.14067358
149	0x3dd0f5a8	0.10203105
150	0x3e0ac56b	0.13551871
151	0xbe506b91	-0.20353533
152	0x3db1937f	0.08670711
153	0xbe351623	-0.17684226
154	0x3b30aa35	0.002695692
155	0x3e445a80	0.19175148
156	0xbe34c0d1	-0.17651679
157	0x3dc2e3fc	0.09516141
158	0x3e7d2eef	0.24724935
159	0xbe162ca7	-0.14665471
160	0xbce03f36	-0.027373891
161	0x3e8505f9	0.2598112
162	0xbea58008	-0.32324243
163	0x3ec41bdc	0.38302505
164	0xbeb12c82	-0.3460427
165	0xbdbfabb8	-0.093589246
166	0x3e7531c1	0.23944761
167	0xbd059861	-0.032616023
168	0x3e82ec4b	0.25570902
169	0xbf13f128	-0.5778985
170	0xbcb3ca3f	-0.021947024
171	0x3d05083c	0.032478556
172	0xbe837c54	-0.25680792
173	0x3ede1a64	0.4337951
174	0xbee094e8	-0.43863606
175	0x3d5ebe8a	0.05438093
176	0x3d585426	0.052814625
177	0x3e889ef0	0.2668376
178	0xbe05469d	-0.13015218
179	0x3e214680	0.1574955
180	0xbe941519	-0.28922346
181	0x3d44ce85	0.048048515
182	0x3e1da3c2	0.153945
183	0xbe315677	-0.1731814
184	0x3e310ef2	0.17290857
185	0xbecf4a80	-0.40486526
186	0x3df7bafb	0.120962106
187	0x3dcb67a0	0.09931874
188	0x3d8390fc	0.06424138
189	0x3d9b6bda	0.075889304
190	0xbe0f708c	-0.14007777
191	0xbdfee6d6	-0.12446372
192	0xbe98d9e3	-0.29853734
193	0xbe79a8c6	-0.24380788
194	0xbe8722b0	-0.26393652
195	0x3d9272ec	0.07150826
196	0xbe4e306b	-0.20135657
197	0xbe7d5f8a	-0.24743477
198	0xbe91a070	-0.28442717
199	0xbe8ae2a3	-0.27126035
200	0xbd9f41dc	-0.077762336
201	0xbee49b58	-0.44649768
202	0xbe6b37da	-0.22970524
203	0x3d33c6aa	0.043890633
204	0xbea537a5	-0.32269016
205	0x3d6ba09b	0.057526212
206	0xbecc95f4	-0.39958155
207	0x3e07bc95	0.13255532
208	0xbeaecb50	-0.3413949
209	0xbe213e48	-0.15746415
210	0xbeafb76c	-0.34319627
211	0xbdcfd362	-0.1014774
212	0xbdc9cbfd	-0.09853361
213	0xbeb216ae	-0.34782928
214	0x3b026eb7	0.0019902417
215	0xbf074b73	-0.528495
216	0x3e7556a0	0.23958826
217	0xbf0ee68b	-0.5582053
218	0xbea4be3e	-0.32176393
219	0xbdbd9d8f	-0.092585675
220	0xbed35cd5	-0.41281763
221	0x3e7e9b53	0.24863939
222	0xbe49c4f1	-0.19704033
223	0x3e33522f	0.1751182
224	0x3d8929e6	0.066974446
225	0x3e463692	0.19356754
226	0xbe57e9ca	-0.21085277
227	0x3d24fc73	0.040279817
228	0x3e25c506	0.1618844
229	0xbe3486fd	-0.17629619
230	0x3d8160f5	0.06317321
231	0xbd8837e2	-0.06651284
232	0x3e2c1dd3	0.16808252
233	0x3d484d17	0.048901644
234	0xbdbadb52	-0.09123863
235	0x3e0b85a5	0.136252
236	0x3e1d9963	0.15390544
237	0xbdc293d4	-0.09500852
238	0x3ca02c2f	0.019552318
239	0xbd01a8df	-0.03165519
240	0xbc185e37	-0.009299806
241	0x3d7f5391	0.062335555
242	0xbdfb968e	-0.122845754
243	0x3ef892de	0.4854955
244	0xbeca0dd8	-0.39463687
245	0x3c71c9c5	0.014757578
246	0xbd29a32b	-0.041415375
247	0xbe631cc7	-0.22178946
248	0xbdd95530	-0.10611951
249	0xbeb0c3c6	-0.34524363
250	0xbd89e6ec	-0.06733498
251	0xbd1b654d	-0.037938405
252	0xbd8a6e4c	-0.06759319
253	0x3e098a45	0.13431652
254	0xbef2355b	-0.47306332
255	0xbdb975e7	-0.09055691

rnn.weight_hh_l0 f4 [256, 64]
0	0x3da9e38a	0.08295353
1	0x3c5ddc2a	0.013541261
2	0x3d837946	0.064196154
3	0x3d78c476	0.060734235
4	0x3e215320	0.15754366
5	0xbe8f66a6	-0.28008002
6	0xbe46d79d	-0.19418187
7	0xbd9541bf	-0.07287931
8	0x3e41a904	0.1891213
9	0x3e90284e	0.2815575
10	0xbd32616f	-0.04354995
11	0x3e378b5a	0.17924252
12	0x3ebf2827	0.3733532
13	0x3ca165c4	0.019701846
14	0x3dd3c5ed	0.10340486
15	0x3dad8796	0.084731266
16	0xbe6b3311	-0.22968699
17	0xbe357b69	-0.17722858
18	0xbeeedf6d	-0.46654835
19	0x3d8079c1	0.06273223
20	0x3e7dba63	0.24778132
21	0xbe7dcf13	-0.24786024
22	0x3ea4b720	0.32170963
23	0x3dc28c58	0.09499425
24	0x3e5a5da6	0.21324787
25	0xbd8de831	-0.069290526
26	0xbe018181	-0.12647058
27	0x3b47e5a3	0.0030501864
28	0x3e8ef136	0.27918404
29	0x3c91625f	0.017747102
30	0x3e180291	0.14844729
31	0x3dcf3410	0.10117352
32	0x3e790b72	0.24320772
33	0x3d374ee1	0.04475296
34	0xbc05f29e	-0.00817552
35	0xbe19ef10	-0.15032601
36	0xbe4833e2	-0.19551042
37	0x3e66cf1c	0.22539943
38	0xbe96659c	-0.29374397
39	0x3e7aabdf	0.24479626
40	0xbd25f36b	-0.040515345
41	0xbe89d2bc	-0.2691859
42	0xbde397ff	-0.11112975
43	0x3d4f56f6	0.05062004
44	0x3cf10a6a	0.029423911
45	0x3b1457c8	0.002263533
46	0x3dc2af48	0.095060885
47	0xbe3666c3	-0.17812638
48	0x3e2ea1df	0.17053936
49	0xbdcba1d9	-0.09942979
50	0x3dc766a9	0.09736378
51	0x3dbb2f08	0.0913983
52	0x3d83d45a	0.06436987
53	0x3b8c9dbe	0.0042912653
54	0xbe4e7de6	-0.20165214
55	0xbd9f497b	-0.07777687
56	0x3ea43cac	0.3207754
57	0x3dfac93a	0.12245412
58	0x3e962451	0.29324582
59	0xbe5987a3	-0.21243148
60	0x3dae6fe7	0.085174374
61	0xbe11d5e7	-0.14241754
62	0xbe82d773	-0.25555
63	0xbe07d6f7	-0.13265596
64	0x3e0cf634	0.13765794
65	0x3d421605	0.04738428
66	0x3e28f93d	0.16501327
67	0x3dfd2740	0.12361002
68	0x3d1cf308	0.03831771
69	0xbe0e56b7	-0.13900267
70	0x3cc93415	0.024560967
71	0x3da7ad42	0.08187343
72	0x3e166d65	0.14690168
73	0x3e0eec00	0.13957214
74	0x3d805afd	0.06267355
75	0x3d7156d6	0.058920704
76	0x3d6ea982	0.058267124
77	0x3df1153f	0.117716305
78	0x3e0d4dad	0.13799162
79	0x3cb4f131	0.022087665
80	0x3c4823cb	0.012215565
81	0x3e177e1b	0.14794199
82	0x3debfca5	0.115227975
83	0xbdb32451	-0.08747161
84	0x3c34dc3e	0.011038838
85	0x3e2bfa3c	0.16794676
86	0xbcdcd1e9	-0.026955562
87	0x3c40956c	0.011754375
88	0x3d46d20c	0.04854016
89	0x3c29cde9	0.010364034
90	0x3d8fab5e	0.070151076
91	0xbe51f1f5	-0.20502456
92	0x3d0439c0	0.032281637
93	0xbdaad7ef	-0.08341967
94	0x3c97ae3c	0.018515699
95	0xbd7265ae	-0.059179
96	0x3dbd6891	0.0924846
97	0xbd0334ce	-0.03203278
98	0xbe5dc3ba	-0.21656695
99	0xbdedb665	-0.116070546
100	0x3db59d8e	0.08867942
101	0x3dd88ed4	0.10574117
102	0xbd29cbc3	-0.041454088
103	0x3d314b5a	0.04328475
104	0xbc40e08e	-0.011772288
105	0xbc88e361	-0.016709985
106	0xbd72ca36	-0.059274875
107	0x3c17099c	0.0092186
108	0x3d2714dc	0.040791377
109	0xbc872233	-0.0164958
110	0x3d3fe1f5	0.04684635
111	0x3cf6c879	0.03012489
112	0x3e1e940d	0.15486164
113	0x3ec85e25	0.39134327
114	0xbe19db39	-0.15025033
115	0xbe324f7e	-0.17413136
116	0x3d8d8b7b	0.069113694
117	0x3de074da	0.10959788
118	0xbcd1b50e	-0.025599029
119	0x3d280df8	0.041028947
120	0xbcacba32	-0.021084879
121	0xbe222a23	-0.15836386
122	0x3e006f3e	0.12542436
123	0x3e527c44	0.20555216
124	0xbe46e789	-0.19424261
125	0xbc61ae4b	-0.013774465
126	0x3e00c303	0.12574391
127	0xbda7f0d8	-0.08200234
128	0xbd4d6997	-0.050149526
129	0xbdbc8d62	-0.09206654
130	0x3d31af96	0.043380342
131	0x3deb54e4	0.11490801
132	0x3d6261d9	0.055269096
133	0xbe517924	-0.20456368
134	0x3d938771	0.07203568
135	0x3bded8e5	0.006800758
136	0xbcacc450	-0.021089703
137	0xbd8c3539	-0.06846089
138	0xbcf23ff3	-0.029571509
139	0x3e14bde8	0.14525568
140	0x3e2e9b39	0.170514
141	0xbe054aad	-0.13016768
142	0x3df56edd	0.11984036
143	0x3dd50e6f	0.104031436
144	0xbde853bc	-0.11344096
145	0xbc766e26	-0.01504091
146	0xbe20636a	-0.15662923
147	0x3d446fba	0.047958113
148	0xbdcdc83f	-0.100479595
149	0xbdc3ad30	-0.09554517
150	0xbc387135	-0.011257459
151	0x3e14bfde	0.14526317
152	0xbc7d3dd0	-0.015456632
153	0x3dba716a	0.09103663
154	0xbdacb349	-0.084326334
155	0xbd9250d3	-0.07144322
156	0x3d7c3fa6	0.061584137
157	0x3e18eb28	0.14933455
158	0x3e80e81e	0.2517709
159	0x3db18931	0.08668745
160	0x3e2f729b	0.17133562
161	0xbdd74399	-0.1051094
162	0x3e403e57	0.18773781
163	0xbc4a166f	-0.01233445
164	0x3e4d75b2	0.20064428
165	0xbc8df4f2	-0.017328713
166	0x3be51dc9	0.006992076
167	0x3e2e894c	0.17044562
168	0xbd398e63	-0.045301806
169	0x3d74969f	0.059713956
170	0xbdaf1698	-0.08549231
171	0xbd79adf2	-0.060956903
172	0xbc12fdf9	-0.008971685
173	0x3d12a058	0.035797447
174	0xbcfd9029	-0.03095253
175	0x3cba26cf	0.022723584
176	0x3d82696c	0.06367764
177	0xbdb219cd	-0.08696327
178	0x3cacf319	0.021112012
179	0xbe8bcecf	-0.2730622
180	0x3c93fefa	0.018065918
181	0xbe0f671f	-0.14004181
182	0xbd924056	-0.07141177
183	0xbe3e159c	-0.18562931
184	0x3e331ebe	0.17492196
185	0x3cc823a9	0.024431067
186	0x3d0a3c07	0.033748653
187	0xbc942dff	-0.018088339
188	0x3d6d179a	0.057883836
189	0xbe924bab	-0.28573355
190	0xbd129a1f	-0.035791513
191	0x3c028ba4	0.007967863
192	0xbdc39e2a	-0.09551652
193	0x3d103208	0.035203964
194	0xbddca843	-0.10774281
195	0x3df070e4	0.11740282
196	0xbd9c359a	-0.07627411
197	0xbd7e2c0c	-0.062053725
198	0x3dfed2ac	0.12442526
199	0x3d4c22ed	0.049837995
200	0x3dcac5d6	0.099010155
201	0x3de726d1	0.112867005
202	0xbd1e7a8a	-0.03869108
203	0xbdf76a2d	-0.12080798
204	0x3d86d85f	0.06584238
205	0x3ccf5664	0.025309749
206	0xbd813275	-0.06308452
207	0x3d2cb70a	0.042166747
208	0xbc33d8d6	-0.010976991
209	0xbc4e9f47	-0.012611217
210	0x3e0c0366	0.13673171
211	0xbd85a991	-0.06526483
212	0x3e0fa273	0.14026813
213	0x3dbbfbaa	0.091788605
214	0x3d05991f	0.03261673
215	0x3e37dc00	0.17955017
216	0xbd2874c7	-0.041126993
217	0xbdadb303	-0.084814094
218	0xbd6686b9	-0.056280825
219	0xbd110e2f	-0.035413917
220	0xbe0a677d	-0.1351604
221	0x3dae5ee8	0.08514196
222	0x3da87739	0.08225865
223	0xbe045f0b	-0.12926881
224	0x3d8c789d	0.06858943
225	0xbdefe26a	-0.11713107
226	0xbdb4e36f	-0.08832442
227	0x3cbf9938	0.02338849
228	0xbd130d6a	-0.035901465
229	0x3d9182b5	0.071050085
230	0x3df20ee8	0.118192494
231	0xbd7a04c9	-0.06103972
232	0xbdd7d655	-0.105389275
233	0xbc9b9776	-0.01899312
234	0xbd5060fb	-0.050873738
235	0x3cab81d5	0.020935932
236	0xbda9ea96	-0.08296697
237	0xbbea131a	-0.0071433904
238	0xbd11eef0	-0.03562826
239	0x3da5e7c3	0.08100846
240	0xbd9d546d	-0.076821186
241	0xbddbae6c	-0.10726628
242	0xbcdd667b	-0.027026406
243	0x3e35a525	0.17738779
244	0x3da73dc2	0.08166076
245	0x3d80438e	0.06262885
246	0x3dcbe07e	0.09954928
247	0x397b4585	0.00023963123
248	0x3c21f48e	0.009884967
249	0x3dc940a8	0.09826785
250	0xbd9235c8	-0.07139164
251	0xbd314a33	-0.043283653
252	0xbddf90cd	-0.109162904
253	0xbe067c53	-0.13133363
254	0xbdd9da41	-0.10637332
255	0xbdc295b4	-0.0950121

rnn.bias_ih_l0 f4 [256]
0	0x3de4d2a9	0.11172993
1	0x3d4a95cf	0.049459275
2	0x3e358351	0.17725874
3	0x3dadcb9e	0.084861025
4	0xbd58f32b	-0.052966278
5	0xbd7a2396	-0.061069094
6	0x3e3073d2	0.17231682
7	0x3d67d255	0.056597073
8	0x3e019e5e	0.12658069
9	0x3da627ca	0.08113058
10	0x3b65721c	0.0035010641
11	0xbc058b43	-0.008150878
12	0x3dbfb0e8	0.09359914
13	0x3dc22033	0.09478798
14	0xbde15799	-0.11003036
15	0xbd758a00	-0.05994606
16	0x3bc2b7e8	0.0059423335
17	0x3d2d85b8	0.042363852
18	0x3d9568cb	0.07295378
19	0x3e855df6	0.2604825
20	0x3dbba087	0.091614775
21	0xbd926857	-0.071488075
22	0x3e4127a2	0.18862775
23	0xbd6e8ae1	-0.058237914
24	0x3e2b5f9a	0.16735688
25	0x3d865ab8	0.06560272
26	0xbe1430a2	-0.14471677
27	0x39f0bb97	0.00045916133
28	0x3c848207	0.016175283
29	0x3da84de6	0.08217983
30	0x3d6ae22f	0.05734461
31	0x3e509e72	0.20372942
32	0x3dfd6015	0.12371842
33	0x3c07713e	0.008266745
34	0x3d2a90a0	0.04164183
35	0x3b797d4c	0.0038069068
36	0x3d35c47f	0.044376846
37	0xbd9f1947	-0.07768493
38	0x3f149a56	0.58048
39	0x3cfe718f	0.031060008
40	0x3dcfa800	0.10139465
41	0x39875099	0.00025809256
42	0xb9ed5184	-0.00045264896
43	0x3e5b3979	0.21408643
44	0x3ca8d891	0.02061108
45	0x3deb64f5	0.114938654
46	0xbd738871	-0.059456293
47	0x3e552128	0.2081343
48	0xbd670178	-0.056397885
49	0x3e4875d8	0.19576204
50	0x3d91248a	0.070870474
51	0x3dfcb93d	0.12340019
52	0x3d768003	0.060180675
53	0xbbbfc753	-0.0058526187
54	0xbd713ef9	-0.058897946
55	0xbc89cfeb	-0.016822776
56	0x3d00b348	0.031420976
57	0x3e0e8bd2	0.13920525
58	0xbcbf19dd	-0.023327762
59	0xbc40d1f8	-0.01176881
60	0xbcf4beff	-0.02987623
61	0x3df1de60	0.11809993
62	0x3d6000df	0.05468833
63	0xbd66dfd6	-0.05636581
64	0x3d850770	0.06495559
65	0xbde309aa	-0.11085828
66	0x3c31e7bd	0.010858473
67	0x3d3da65b	0.046301227
68	0xbcc06fb1	-0.023490759
69	0xbcb19a0a	-0.021679897
70	0x3d69430e	0.056948714
71	0x3c0646a0	0.008195549
72	0xbcaaf33f	-0.020867942
73	0x3d117114	0.03550823
74	0xb97ad692	-0.00023921792
75	0x3d97c61d	0.07410834
76	0xbba664e3	-0.0050779446
77	0x3dc11d6f	0.09429442
78	0xbd72a52b	-0.059239548
79	0x3e115975	0.14194281
80	0xbd400db4	-0.04688807
81	0x3d595edc	0.05306898
82	0xbc5fd0b4	-0.013660599
83	0x3d0e074f	0.03467494
84	0xbe0ef509	-0.13960661
85	0xbb647219	-0.0034858047
86	0xbde677b1	-0.11253298
87	0xbc90e9d4	-0.017689623
88	0xbdca8dea	-0.09890349
89	0xbce59b6c	-0.028028212
90	0xbd042a52	-0.032266922
91	0x3e17ec51	0.14836241
92	0xbdbdec90	-0.09273636
93	0x3dd11b1d	0.102102496
94	0x3a9ef07e	0.0012126116
95	0xbe12ed1f	-0.14348267
96	0xbd85ca00	-0.06532669
97	0xbd3cbc76	-0.046078168
98	0xbdc47ae4	-0.09593752
99	0xbd81369f	-0.06309246
100	0x3e10efa4	0.14153916
101	0x3dc55d4f	0.09636938
102	0xbea5fb52	-0.32418305
103	0x3e07c96b	0.13260429
104	0x3ad030c9	0.001588368
105	0xbd46c713	-0.048529696
106	0xbb3ab2b3	-0.002848786
107	0xbd8f2104	-0.06988719
108	0xbb33996d	-0.0027404681
109	0xbd48ed37	-0.04905435
110	0x3d1d604c	0.038421914
111	0x3d021781	0.031760696
112	0xbde7651d	-0.11298583
113	0xbdca566d	-0.09879766
114	0xbc4e3226	-0.0125851985
115	0xbdcef4cd	-0.10105286
116	0xbdc1d44f	-0.09464323
117	0xbd97eb22	-0.07417895
118	0xbca6bb31	-0.020352932
119	0xbd66b244	-0.05632235
120	0xbe06a082	-0.13147166
121	0x3dd0c669	0.10194094
122	0xbd9fd6a7	-0.078046136
123	0xbd0e207a	-0.03469894
124	0xbd6f0837	-0.058357444
125	0xbd3a1d8b	-0.04543833
126	0x3c1a4f32	0.009418296
127	0x3c1fab49	0.009745427
128	0x3c763a1a	0.015028501
129	0xbce270d2	-0.027641688
130	0x3cfb19e5	0.030651996
131	0x3d8d55b1	0.0690111
132	0x3d8d3bfc	0.06896207
133	0xbd65c111	-0.056092326
134	0x3dfbfe8a	0.12304409
135	0xbd9d2479	-0.07672972
136	0x3dc03f94	0.093871266
137	0x3ba697d7	0.0050840187
138	0x3b3850a3	0.0028124235
139	0xbe0587f7	-0.13040148
140	0xbd1d4568	-0.03839627
141	0xbd9887cd	-0.07447777
142	0x3d9eb45d	0.07749245
143	0xbe097aa1	-0.13425685
144	0x3d47fec5	0.04882695
145	0x3ceb7886	0.028743993
146	0xbd106c90	-0.035259783
147	0xbdb649bc	-0.089007825
148	0xbcd8e6e1	-0.02647728
149	0x3d6bbf9a	0.057555772
150	0x3da008bb	0.07814165
151	0x3c51810d	0.012787116
152	0xbddce540	-0.107859135
153	0x3ac57c04	0.0015066867
154	0xbcc91f7c	-0.024551146
155	0x3d0e9576	0.034810506
156	0xbda36046	-0.07977347
157	0x3d9aaaec	0.07552132
158	0x3d9ad161	0.07559467
159	0x3c54f1de	0.012997119
160	0xbd528cc5	-0.05140378
161	0xbdf09d95	-0.117488064
162	0xbd81ada6	-0.06331949
163	0xbc5e22b3	-0.013558078
164	0x3df69380	0.12039852
165	0xbe0e7ca8	-0.1391474
166	0xbc9be94b	-0.019032141
167	0x3d2655d4	0.040609196
168	0xbd93fbb3	-0.07225742
169	0xbcbbfe58	-0.022948429
170	0xbe0b3822	-0.13595632
171	0x3c0e1d81	0.0086740265
172	0xbdb1b58a	-0.08677204
173	0xbe22f00f	-0.15911888
174	0xbde02f4d	-0.10946522
175	0x3dab56b3	0.08366146
176	0x3e061644	0.13094431
177	0xbdbf6c04	-0.09346774
178	0x3d2d166c	0.04225771
179	0xbe030d2d	-0.12797995
180	0xbc6a4085	-0.014297609
181	0x3dbe6b3b	0.09297796
182	0xbd7b04ab	-0.06128375
183	0x3bbf9bb8	0.0058474205
184	0x3dd3dab3	0.10344448
185	0xbe047583	-0.12935452
186	0x3d9c1d25	0.076227464
187	0x3d5f90bd	0.054581393
188	0xbd084545	-0.033269186
189	0xbdf3c0e3	-0.119020246
190	0xbd95f954	-0.07322946
191	0x3dab0a75	0.08351604
192	0x3e91f12e	0.28504318
193	0xbdd9bc4d	-0.10631619
194	0x3e2b4c48	0.16728318
195	0xbd53f468	-0.051746756
196	0xbdad5cf8	-0.08464998
197	0x3e18089f	0.14847039
198	0x3d886929	0.06660683
199	0xbdd86a3a	-0.10567136
200	0xbc6c851a	-0.014436031
201	0xbd9542c9	-0.07288129
202	0xbb8a97df	-0.00422953
203	0x3cfa9d19	0.030592488
204	0x3d6188d1	0.05506212
205	0xbc5f7093	-0.01363768
206	0xbc4fd9da	-0.012686217
207	0xbdb8e194	-0.090274006
208	0xbe2d07c2	-0.1689749
209	0xbdb3bc2c	-0.08776125
210	0xbd9706c8	-0.0737434
211	0x3e8c7e08	0.27439904
212	0x3e38bc49	0.18040575
213	0x3bfd48d0	0.007729627
214	0x3e2c21a5	0.1680971
215	0xbcd07800	-0.025447845
216	0x3d675b4b	0.056483548
217	0xbd1cab19	-0.03824911
218	0xbd3fa2b7	-0.046786036
219	0xbc2cb20e	-0.010540498
220	0x3dc0d482	0.09415533
221	0x3dc0f1e8	0.0942114
222	0x3cd460e5	0.02592511
223	0x3e217221	0.15766193
224	0x3e1afb64	0.1513496
225	0x3db21f8c	0.08697423
226	0x3db8a47a	0.090157464
227	0xbd53163e	-0.051534884
228	0x3e2578dc	0.16159385
229	0xbc30900a	-0.010776529
230	0x3f00637e	0.50151813
231	0x3d95e7cb	0.073196016
232	0x3e07bf47	0.1325656
233	0x3d91a7c4	0.07112077
234	0x3e3fe313	0.18738966
235	0x3d978d34	0.07399979
236	0x3da27e27	0.07934218
237	0x3d235a44	0.039881006
238	0x3d692892	0.056923456
239	0x3e429a71	0.19004227
240	0xbdb83843	-0.08995106
241	0x3e45d42a	0.19319215
242	0x3cd8c7f1	0.026462527
243	0x3c82c194	0.015961446
244	0x3dafb4c7	0.085794024
245	0x3d870b94	0.06594005
246	0x3b34640e	0.0027525458
247	0x3e08e459	0.13368358
248	0xbda4bb91	-0.08043588
249	0x3d8e4c60	0.06948161
250	0x3dada484	0.084786445
251	0xbe12357d	-0.14278217
252	0x3dce6c68	0.100792706
253	0x3d208b47	0.039195325
254	0xbdd6aec0	-0.1048255
255	0x3da57b43	0.08080151

rnn.bias_hh_l0 f4 [256]
0	0x3ea0cc8c	0.31406057
1	0x3ba542b6	0.005043353
2	0x3dfdf3d2	0.12400021
3	0xbd8485cc	-0.06470832
4	0x3d286859	0.04111514
5	0x3d44097e	0.047860615
6	0x3d3cc79a	0.046088792
7	0x3c88f883	0.016720062
8	0xbd9de58f	-0.077098005
9	0xbd8f1ab8	-0.06987518
10	0x3ded4373	0.115851305
11	0x3d4da1c7	0.05020311
12	0x3d97c4fa	0.07410617
13	0x3de92d7d	0.11385629
14	0xbd978d7b	-0.07400032
15	0x3d4af2ae	0.049547844
16	0xbdf856a4	-0.121259004
17	0xbe0b3c4f	-0.13597225
18	0x3d25044a	0.040287293
19	0x3e253fec	0.16137666
20	0x3e2a5315	0.16633256
21	0xbd43f4bf	-0.04784083
22	0x3e38ecce	0.18059084
23	0xbdbce324	-0.09223011
24	0x3e2af68e	0.16695616
25	0x3df47a30	0.11937368
26	0xbe0c4853	-0.13699464
27	0x3dc4f1ab	0.09616407
28	0x3d94b535	0.07261125
29	0x3e13252c	0.14369649
30	0x3dcb64d5	0.099313416
31	0x3e3ddac2	0.1854048
32	0x3e2b4d37	0.16728674
33	0x3dc0e41b	0.09418508
34	0x3e138794	0.14407188
35	0x3d7fb964	0.06243266
36	0x3e393f1d	0.18090482
37	0x3c47dbeb	0.012198429
38	0x3f04d91c	0.5189378
39	0x3e4e2cbc	0.20134252
40	0xbdd90635	-0.10596887
41	0x3e12a369	0.14320149
42	0x3e1d9855	0.15390141
43	0x3e1a9f73	0.15099888
44	0x3c0e8a82	0.008700015
45	0x3e314490	0.17311311
46	0xbe05c710	-0.13064218
47	0x3e251b1c	0.16123623
48	0x3e19afab	0.15008418
49	0x3e216da4	0.15764481
50	0x3e0495e2	0.12947801
51	0x3d47d5d1	0.048787896
52	0x3d180a9e	0.0371195
53	0x3ce38326	0.027772497
54	0x3d118a94	0.03553255
55	0x3d2fb84a	0.04290036
56	0x3cfe634e	0.031053212
57	0x3dea2018	0.11431903
58	0x3e09a035	0.1344002
59	0xbd659b3c	-0.056056246
60	0x3d380b6d	0.04493277
61	0x3bfd24ab	0.0077253184
62	0x3dd5316b	0.10409816
63	0xbe0b9f62	-0.13635018
64	0xbdba76b4	-0.09104672
65	0xbe028936	-0.12747654
66	0xbd21cb6c	-0.03950064
67	0xbd8614d8	-0.065469444
68	0xbe03acf5	-0.12858947
69	0x3d89bd77	0.06725591
70	0x3b8c0e2c	0.0042741504
71	0x3d280ead	0.04102962
72	0x3c24ee4c	0.01006658
73	0x3d0f0e34	0.034925655
74	0x3d979c80	0.07402897
75	0x3d10c48d	0.035343695
76	0xbd358675	-0.04431768
77	0xbd4a994c	-0.0494626
78	0x3d6313f9	0.05543897
79	0xbcb730dc	-0.022362165
80	0xbdbeb583	-0.09311964
81	0xbdd023ea	-0.101631
82	0xbd8940a6	-0.06701784
83	0xbdc4d3da	-0.0961072
84	0x3d63c8d6	0.055611454
85	0xbdbe97c1	-0.093062885
86	0x3dcc41c9	0.09973485
87	0xbd8b3dc4	-0.0679889
88	0xbd841210	-0.06448758
89	0xbb36dbc1	-0.002790198
90	0x3cbcea30	0.023060888
91	0x3e762cf7	0.2404059
92	0xbdd9e6d8	-0.10639733
93	0x3ddcb307	0.10776334
94	0xbd80fac3	-0.06297829
95	0xbdc2693d	-0.09492729
96	0xbd010bf8	-0.031505555
97	0x3dd3cbdd	0.10341618
98	0xbdec1978	-0.11528295
99	0xbdf38853	-0.11891236
100	0xbd02d374	-0.03193994
101	0x3ce0a5cc	0.027422808
102	0xbe7e9dd3	-0.24864893
103	0x3e21a1f1	0.15784432
104	0x3dd692cb	0.10477217
105	0x3dfa5c30	0.122246146
106	0x3d1d2272	0.038362928
107	0xbde8c3cc	-0.1136547
108	0x3de94113	0.11389365
109	0x3de5b10e	0.11215411
110	0xbd39c72a	-0.045355953
111	0xbd2ade77	-0.041716065
112	0xbcc55c71	-0.024091931
113	0x3cf455fc	0.029826157
114	0x3b991cf8	0.004672643
115	0x3d32cb15	0.043650705
116	0x3da36811	0.079788335
117	0xbd03c6ff	-0.0321722
118	0x3dbf4a1c	0.09340307
119	0xbcff69fe	-0.03117847
120	0xbd269398	-0.0406681
121	0xbde2b949	-0.110704966
122	0xbd74e88e	-0.059792094
123	0x3c8f7ac9	0.017514603
124	0xbe0eaa58	-0.13932168
125	0xbc920d61	-0.017828645
126	0xbd51638a	-0.05112032
127	0xbcd4aeff	-0.02596235
128	0xbd87ddb5	-0.06634084
129	0xbdb7f8f0	-0.08983028
130	0x3dc6b34e	0.097021684
131	0x3be33078	0.006933268
132	0x3d783bca	0.060603894
133	0x3d2bf897	0.04198512
134	0x3e05d5b1	0.13069798
135	0xbdbf36f3	-0.093366526
136	0xbd90c6e7	-0.070691876
137	0x3d3451cb	0.044023316
138	0x3dfc10b7	0.123078756
139	0x3dae1802	0.08500673
140	0x3dcce8c1	0.10005332
141	0xbd7e30d8	-0.0620583
142	0x3d50f433	0.051014137
143	0x3b98b510	0.004660256
144	0xbd4c557d	-0.049886215
145	0xbdd8deae	-0.10589348
146	0x3dcf55b8	0.101237714
147	0x3d9b15a4	0.07572487
148	0xbc269dde	-0.010169474
149	0x3c1e19d2	0.009649711
150	0x3ccafec5	0.024779687
151	0xbd6b245c	-0.057407722
152	0xbda3bbde	-0.07994817
153	0xbd8801e0	-0.06640983
154	0x3dcffece	0.10156022
155	0xbd536588	-0.0516105
156	0xbdbd9a8a	-0.092579916
157	0x3d2fc4d9	0.042912338
158	0x3d6c6e36	0.057722293
159	0xbd62996f	-0.055322107
160	0x3d0fce3f	0.0351088
161	0xbe078115	-0.13232835
162	0x3d9c3f58	0.07629269
163	0x3c6598d6	0.01401349
164	0x3ddf98c4	0.109178096
165	0xbd5d0f78	-0.05396983
166	0xbdf12169	-0.117739506
167	0x3c973e92	0.018462453
168	0xbd978141	-0.073977
169	0x3d60f49a	0.05492077
170	0x3cfe2789	0.031024711
171	0x3d163709	0.03667358
172	0x3d612f1f	0.05497658
173	0xbb22bd3a	-0.0024832026
174	0x3d2521f2	0.040315576
175	0xbdd63e1b	-0.104610644
176	0x3d8bbf86	0.068236396
177	0x3dbdf458	0.092751205
178	0x3de4f4ba	0.111794904
179	0x3d176671	0.03696293
180	0x3d594e61	0.053053264
181	0xbd4d9351	-0.05018932
182	0xbd5f85a4	-0.05457081
183	0xbe0970ec	-0.13421983
184	0x3bf30f7f	0.0074176188
185	0xbe0affd6	-0.13574156
186	0xbb145089	-0.002263101
187	0xbd9ec677	-0.07752698
188	0xbdc06fb4	-0.09396306
189	0xbd849f91	-0.064757474
190	0x3d8b2d2a	0.06795724
191	0xbde1bc9d	-0.11022303
192	0x3e88f194	0.2674681
193	0x3d0320f4	0.03201385
194	0x3db4a599	0.08820648
195	0xbb789250	-0.0037929006
196	0xbde9b1c4	-0.11410859
197	0x3e0c630b	0.13709657
198	0x3e42d838	0.19027793
199	0xbb587016	-0.0033025793
200	0xbc7398ff	-0.01486802
201	0x3d3a0e55	0.045423824
202	0xbda87a76	-0.082264826
203	0x3ddb7907	0.107164435
204	0x3d29172f	0.041281875
205	0xbb0cdb70	-0.00214931
206	0xbdc234c1	-0.09482718
207	0xbd938022	-0.07202174
208	0x3cc36ff0	0.023857087
209	0xbdbe6466	-0.09296493
210	0x3d3dc242	0.046327837
211	0x3de1b611	0.110210545
212	0x3dc7b20f	0.09750759
213	0x3da122ae	0.07867943
214	0x3e2877ca	0.16451946
215	0x3d244c11	0.040111605
216	0x3e051566	0.12996444
217	0xbd802d64	-0.062586576
218	0xbcc63710	-0.024196178
219	0x3e2b445b	0.16725294
220	0xbdf98994	-0.12184444
221	0x3ddf86c2	0.10914375
222	0x3d94e4cf	0.07270204
223	0x3e6c1aef	0.2305715
224	0x3e1fc55a	0.15602627
225	0xbc937352	-0.017999325
226	0x3e3ef271	0.18647172
227	0x3e14a22c	0.14514989
228	0x3e4e50ce	0.20148012
229	0xbc8b676a	-0.017017085
230	0x3ed1c966	0.40973967
231	0x3daa5751	0.083174355
232	0x3e0ad6d9	0.1355852
233	0xbd39748a	-0.045277156
234	0x3e670093	0.22558813
235	0x3e44176f	0.19149564
236	0x3dce959d	0.1008713
237	0x3e0d4e9b	0.13799517
238	0x3d555ba6	0.052089356
239	0x3e77129b	0.24128191
240	0xbdbf4279	-0.093388505
241	0x3d38677f	0.045020577
242	0xbb3800bc	-0.002807661
243	0x3e423455	0.18965276
244	0xbd8c3486	-0.068459556
245	0xbd7bb329	-0.061450157
246	0xbd50a7f8	-0.050941437
247	0x3df558de	0.11979841
248	0x3cc49a08	0.02399923
249	0x3e15fd0b	0.1464731
250	0x3c51394a	0.012770006
251	0x3d2deb3c	0.042460665
252	0x3d4ac8a8	0.049507767
253	0x3d17ef99	0.037093733
254	0xbd63c514	-0.05560787
255	0xbdeeb2dd	-0.11655209

rnn.weight_ih_l1 f4 [256, 64]
0	0x3d6eaa60	0.05826795
1	0xbdf72fa2	-0.12069632
2	0x3d5d21b7	0.05398723
3	0x3d7126db	0.058874946
4	0xbc89f7df	-0.016841827
5	0x3c8d9879	0.017284619
6	0xbd2099eb	-0.039209288
7	0xbde4b6e0	-0.11167693
8	0x3e0a8f78	0.13531291
9	0x3adebd26	0.0016993626
10	0xbdd3e495	-0.10346333
11	0xbd873901	-0.066026695
12	0xba7fd226	-0.00097587926
13	0xbc9b9b2c	-0.01899489
14	0x3d91b2b6	0.071141645
15	0xbda97668	-0.08274537
16	0x3cb4f19a	0.02208786
17	0xbda7e65c	-0.081982344
18	0xbdb100d9	-0.0864274
19	0xbd5c94d8	-0.053852886
20	0x3e1c1b16	0.15244707
21	0xbe19d4f7	-0.15022646
22	0xbdeffea4	-0.11718491
23	0x3d836ff0	0.06417835
24	0xbd7a83dd	-0.06116091
25	0x3e496832	0.19668654
26	0xbd96d252	-0.07364334
27	0x3df04b79	0.11733145
28	0xbd7d08ea	-0.06177608
29	0xbdbf793c	-0.093492955
30	0x3cd4013e	0.025879499
31	0xbd26313e	-0.040574305
32	0x3d897725	0.06712178
33	0xbdaf6634	-0.085644156
34	0x3e0e2cae	0.13884231
35	0xbd7105c2	-0.05884338
36	0xbc86b61e	-0.016444262
37	0x3db9bf0c	0.090696424
38	0x3d8e900e	0.0696107
39	0xbd862db9	-0.0655169
40	0x3e10c1a3	0.14136367
41	0xbdb0f42b	-0.08640321
42	0xbdd5f53e	-0.10447167
43	0xbe0b5946	-0.13608274
44	0x3d93cfdf	0.07217383
45	0xbd82ec3d	-0.06392715
46	0xbb51d3db	-0.0032017145
47	0xbe089f91	-0.1334212
48	0x3c9cc549	0.019137042
49	0x3d6f4edc	0.058424816
50	0x3c7519f7	0.014959804
51	0x3daf6506	0.085641906
52	0xbdc00415	-0.093757786
53	0x3dcb58d5	0.09929053
54	0xba4e8cd5	-0.0007879262
55	0xbd8a15a0	-0.06742406
56	0x3d2e9858	0.042625755
57	0x3e7bd308	0.24592221
58	0xbd920106	-0.071291015
59	0x3c766189	0.015037903
60	0x3e073b7d	0.13206287
61	0x3da82029	0.08209259
62	0x3dba0008	0.09082037
63	0xbd9ca16f	-0.076479785
64	0xbe0310cd	-0.12799378
65	0x3df3f2c7	0.119115405
66	0xbce6a3ef	-0.028154342
67	0x3dba52f2	0.09097852
68	0xbdfe2070	-0.12408531
69	0xbda0ed69	-0.078577824
70	0x3c3c9f5a	0.011512602
71	0x3d02c314	0.031924322
72	0xbd898bd4	-0.06716123
73	0x3dc7d8af	0.09758126
74	0xbc946dc1	-0.018118741
75	0xbd9a036c	-0.07520184
76	0xbd1ec27b	-0.03875969
77	0xbd9da36b	-0.07697185
78	0xbd30f8e6	-0.043206118
79	0x3d9c7b60	0.076407194
80	0xbc5ca268	-0.013466455
81	0x3cff3c9f	0.031156836
82	0xbd5cd887	-0.053917434
83	0xbd2e6e12	-0.04258544
84	0xbe17ebd5	-0.14836057
85	0xbdeb63c8	-0.11493641
86	0x3d8125c7	0.063060336
87	0x3e18a252	0.1490567
88	0xbd8afe12	-0.06786741
89	0xbe19191a	-0.14950982
90	0x3d0914fc	0.033467278
91	0xbb36e128	-0.00279052
92	0x3dfe69b5	0.12422506
93	0x3d35c244	0.04437472
94	0xbd42ca39	-0.047556136
95	0xbd234976	-0.03986498
96	0xbd1e21a7	-0.038606312
97	0x3d3cb14c	0.04606752
98	0x3dd37bbc	0.10326335
99	0xbdd18295	-0.10229985
100	0xbd856291	-0.06512941
101	0x3d9e2510	0.07721913
102	0x3e0486e6	0.12942085
103	0xbc9c6e76	-0.01909564
104	0x3df7e76a	0.121046856
105	0x3d57c032	0.052673526
106	0xbc54f324	-0.012997422
107	0x3de4351f	0.111429445
108	0xbd8c9a67	-0.068653874
109	0x3cf4f907	0.029903902
110	0xbdbd21db	-0.09234973
111	0xbca133a3	-0.019677943
112	0x3b84fe03	0.004058601
113	0xbddca53c	-0.107737035
114	0xbdd2c152	-0.10290779
115	0x3e0309cd	0.12796707
116	0xbd827c6d	-0.063713886
117	0x3dafc410	0.08582318
118	0xbde7df5b	-0.113218985
119	0x3db00b40	0.08595896
120	0xbdf2d6b1	-0.118573554
121	0xbd868ed2	-0.065702096
122	0x3cd208f7	0.02563904
123	0x3df81eb0	0.12115228
124	0x3de549a9	0.1119569
125	0xbd4f6391	-0.050632063
126	0xbd0da280	-0.0345788
127	0xbe011916	-0.12607226
128	0x3dc2bc05	0.09508518
129	0x3d0b18dd	0.03395926
130	0xbde7295a	-0.11287184
131	0x3d8ade72	0.06780709
132	0xbdb3ba31	-0.087757476
133	0x3c82520b	0.015908262
134	0xbd686804	-0.056739822
135	0x3dc33a8d	0.09532652
136	0xbcdb808e	-0.026794698
137	0xbb1265c0	-0.002233848
138	0x3dfee321	0.12445665
139	0xbd431884	-0.0476308
140	0xbd52122c	-0.05128686
141	0x3c4788b3	0.012178588
142	0xbd63d23b	-0.055620413
143	0x3dadec45	0.084923305
144	0x3ddb8985	0.10719589
145	0x3d926445	0.07148031
146	0xbdae803e	-0.08520554
147	0xbe5a5faf	-0.21325563
148	0x3d1f9c5e	0.038967483
149	0x3d3d2f38	0.04618761
150	0xbb6f54b2	-0.0036518988
151	0xbddc5813	-0.10758986
152	0xbdae8396	-0.08521192
153	0xbd20ff89	-0.039306197
154	0xbe03bea7	-0.12865697
155	0x3df9af2e	0.12191616
156	0x3d65e918	0.0561305
157	0xbd578f45	-0.052626867
158	0x3d654524	0.05597414
159	0x3de8b5d3	0.11362805
160	0x3c86ce4c	0.016455792
161	0xbd762af6	-0.060099564
162	0xbd86ee29	-0.06588394
163	0xbdff29f3	-0.12459173
164	0xbe16ae33	-0.14714889
165	0xbc6f715b	-0.014614428
166	0xbc2f145d	-0.010686007
167	0x3b8c4ea1	0.0042818342
168	0x3d56b5fd	0.05241965
169	0x3db44bce	0.08803521
170	0x3d865f91	0.065611966
171	0x3e24457d	0.16042133
172	0x3d5b352d	0.05351751
173	0x3ce86500	0.028368473
174	0x3dcb37df	0.09922766
175	0xbd246410	-0.04013449
176	0x3d329a56	0.043604217
177	0x3c55f324	0.0130584575
178	0xbd01c2fd	-0.031680096
179	0xbdae3410	-0.08506024
180	0xbca27dc3	-0.019835358
181	0xbdfeb9d9	-0.124377914
182	0x3d75cb92	0.060008593
183	0xbb7bfa47	-0.0038448737
184	0xbdfe191f	-0.12407135
185	0x3c83fced	0.016111815
186	0xbd1e70a7	-0.038681652
187	0xbd8f90f2	-0.07010068
188	0xbdc16e82	-0.09444906
189	0x3cc67611	0.02422622
190	0x3dbf66e8	0.093458
191	0x3d8349dd	0.06410573
192	0x3e4e62cb	0.20154874
193	0x3c484d80	0.012225509
194	0x3e24a285	0.16077621
195	0xbdf6fc35	-0.120598234
196	0xbd013251	-0.031542126
197	0xbd6d0276	-0.057863675
198	0x3dae87fd	0.085220315
199	0xbd83ee20	-0.06441903
200	0x3c012c42	0.007884087
201	0xbe150260	-0.14551687
202	0x3c63dd2a	0.01390771
203	0xbe2e3105	-0.17010887
204	0x3d89290e	0.06697284
205	0xbe104925	-0.14090402
206	0x3c0637ec	0.008192044
207	0xbe2925ae	-0.1651828
208	0x3d43c026	0.04779067
209	0xbd3b25dc	-0.045690402
210	0xbd58da60	-0.052942634
211	0xbe2f690b	-0.17129914
212	0x3e64f700	0.22359848
213	0x3d9a3e93	0.07531466
214	0xbd85087a	-0.064957574
215	0xbd39777b	-0.04527996
216	0x3dc9f441	0.09861041
217	0x3e0259aa	0.12729517
218	0xbd994ac8	-0.074849665
219	0xbcd00fbc	-0.025398128
220	0xbd678292	-0.056521006
221	0xbdf11bfb	-0.11772915
222	0x3d9f8f2a	0.07790978
223	0xbe5b15c5	-0.21395023
224	0xbd8ba66b	-0.06818851
225	0x3c3e07d6	0.011598548
226	0x3dff9d5a	0.12481184
227	0xbd81300e	-0.06307994
228	0x3dcdc88c	0.10048017
229	0x3c8ddc18	0.017316863
230	0x3e0e95fd	0.13924403
231	0xbe1300f8	-0.14355838
232	0xbc8d81c0	-0.017273784
233	0x3e25ebba	0.16203204
234	0x3c543207	0.012951381
235	0x3d823df6	0.06359474
236	0x3db5e4f3	0.08881559
237	0xbe2bf852	-0.16793945
238	0x3c75ef0a	0.015010605
239	0xbd8fa132	-0.070131674
240	0xbdc13e32	-0.09435691
241	0xbcb524eb	-0.02211233
242	0xbd6ee312	-0.05832202
243	0xbe0304dd	-0.12794824
244	0x3d8ef194	0.06979671
245	0x3e3192af	0.17341112
246	0xbe15f0a5	-0.1464258
247	0xbdeda56a	-0.11603816
248	0xbdb5b94d	-0.08873234
249	0x3d9ceb7b	0.07662102
250	0xbdd21759	-0.102583595
251	0xbd81479f	-0.06312489
252	0xbc13a93c	-0.009012517
253	0x3d92ccb5	0.07167951
254	0x3cc32b55	0.023824373
255	0x3d95bb27	0.07311087

rnn.weight_hh_l1 f4 [256, 64]
0	0x3d912aac	0.07088217
1	0x3dca852c	0.09888682
2	0x3da491c5	0.08035616
3	0xbe0e3764	-0.13888317
4	0x3cedd108	0.029030338
5	0xbda916b3	-0.08256283
6	0xbd1b6b67	-0.037944224
7	0xbced1fb6	-0.028945785
8	0xbe2248b4	-0.15848047
9	0xbe902e59	-0.2816036
10	0x3e409b89	0.18809332
11	0x3d64ba40	0.055841684
12	0x3dfdcfed	0.12393174
13	0xbddb0e03	-0.10696032
14	0xbd11d240	-0.0356009
15	0xbdee8e19	-0.11648197
16	0xbd2a956b	-0.041646402
17	0x3db5f1dd	0.088840224
18	0xbbafb53b	-0.0053621805
19	0x3ded15b2	0.11576404
20	0x38bd24c0	9.0190675e-05
21	0x3cff228a	0.0311444
22	0xbda6b4e0	-0.08139968
23	0xbcfdfb87	-0.031003727
24	0xbd86cf54	-0.065825135
25	0xbd007ac3	-0.031367075
26	0xbd147b72	-0.03625054
27	0xbccf026d	-0.025269711
28	0xbdcb2f61	-0.09921146
29	0x3dd44dc9	0.10366399
30	0x3dbdf236	0.09274714
31	0x3e29c381	0.16578485
32	0xbd912a4d	-0.07088146
33	0x3dd75770	0.10514724
34	0x3ea8fcd4	0.33005393
35	0x3d770cc2	0.0603149
36	0x3dd7e9c3	0.105426334
37	0x3d9a6263	0.07538297
38	0xbcac052d	-0.020998562
39	0x3d4d3efc	0.050108895
40	0xbe26591b	-0.16244929
41	0xbdd6d3e1	-0.104896314
42	0xbc0f838a	-0.008759389
43	0x3e1977da	0.14987126
44	0xbd3a0af0	-0.045420587
45	0xbd4f97c4	-0.050681844
46	0xbce906a6	-0.028445553
47	0xbdd60e8a	-0.10451992
48	0xbe2e52f2	-0.17023829
49	0xbe4434c2	-0.1916075
50	0x3e84e771	0.25957826
51	0xbdc3bbe3	-0.09557321
52	0xbe23370e	-0.1593897
53	0x3d90aa66	0.07063751
54	0x3d988890	0.07447922
55	0x3b36486e	0.0027814168
56	0x3dc6893e	0.096941456
57	0xbcdada16	-0.02671532
58	0xbe1c6848	-0.15274155
59	0x3dac3205	0.08407978
60	0xbd87fb29	-0.06639702
61	0xbe89ea14	-0.269364
62	0x3d74c7ad	0.05976074
63	0x3e4eff72	0.20214632
64	0x3da08edc	0.07839748
65	0x3d0d487d	0.03449296
66	0x3c7cfbbc	0.0154408775
67	0xbd11c9f8	-0.035593003
68	0xbdc8184c	-0.09770259
69	0xbce64a38	-0.028111562
70	0x3d145b19	0.03621969
71	0x3dc53b00	0.09630394
72	0xbdd6e3b4	-0.1049265
73	0xbd83eecc	-0.06442031
74	0x3e34f4bd	0.17671485
75	0xbd60132a	-0.054705776
76	0xbb93967d	-0.0045040236
77	0x3d3aa349	0.045565877
78	0xbe105b99	-0.14097442
79	0xbcaac566	-0.02084608
80	0x3e19d91f	0.15024231
81	0x3e00defb	0.1258506
82	0xbd535aa5	-0.051600117
83	0x3d666b2d	0.056254555
84	0xbc5936e9	-0.0132577205
85	0x3cd97d8e	0.026549127
86	0x3da1f717	0.07908457
87	0x3db36635	0.08759729
88	0xbd4e2894	-0.050331667
89	0xbdc8f8c9	-0.09813077
90	0xbe1bdaf7	-0.15220247
91	0xbc981d03	-0.018568521
92	0xbcaa98ba	-0.020824779
93	0x3dc6ee06	0.09713368
94	0xbbde079b	-0.006775809
95	0xbda23f0a	-0.0792218
96	0xbdd59383	-0.10428526
97	0x3c9b1d39	0.018934833
98	0x3e882be1	0.26595977
99	0xbdbe28b6	-0.09285109
100	0x3cc1ec27	0.023672177
101	0x3dfa9ee8	0.1223734
102	0x3c9b88e4	0.018986173
103	0xbe118db7	-0.14214216
104	0xbdf3eb56	-0.11910121
105	0xbe08c928	-0.13357985
106	0x3d07875f	0.033088084
107	0x3e473036	0.19451985
108	0xbd964ea9	-0.07339222
109	0x3d8545f3	0.065074824
110	0xbbde3579	-0.006781277
111	0x3be06445	0.0068478906
112	0xbd87c88c	-0.06630048
113	0xbe4cc415	-0.19996674
114	0x3e0e94aa	0.13923898
115	0x3d87a708	0.066236556
116	0xbcb84bdd	-0.022497112
117	0xbd8a7bb8	-0.06761879
118	0x3dd3570f	0.103193395
119	0xbdbe0f83	-0.092803024
120	0xbe14a4ed	-0.14516039
121	0xbdf820b4	-0.121156126
122	0xbd6c3efe	-0.05767726
123	0x3d12c3c9	0.035831247
124	0x3d0a0916	0.03370007
125	0x3c1f990e	0.009741081
126	0x3c27122a	0.010197202
127	0x3e4addde	0.19811198
128	0xbd987e01	-0.07445908
129	0xbba5e15e	-0.0050622663
130	0x3db35bd1	0.08757747
131	0x3dd0e804	0.102005035
132	0x3db94822	0.09046961
133	0xbdf1ccc0	-0.11806631
134	0x3db31f1c	0.08746168
135	0xbd868485	-0.06568245
136	0x3c3cc126	0.01152066
137	0x3d4545a2	0.04816211
138	0xbcb41beb	-0.021985969
139	0xbda84f7f	-0.08218288
140	0xbd949659	-0.07255239
141	0xbc33ab28	-0.0109661
142	0xbda072fd	-0.07834432
143	0x3b3835b9	0.0028108193
144	0x3cb895a4	0.022532292
145	0x3dcb8bed	0.09938798
146	0x3b9285d4	0.00447152
147	0x3dd02ed4	0.10165182
148	0x3c71cc78	0.014758222
149	0x3d230771	0.03980202
150	0x3dd35ab0	0.10320032
151	0xbd048f31	-0.03236312
152	0x3dde17e8	0.108444035
153	0xbd68ec8f	-0.056866225
154	0xbdb5f947	-0.088854365
155	0xbdc53ead	-0.09631095
156	0x3d8936ca	0.06699903
157	0x3d6b2f72	0.057418294
158	0xbb92c69c	-0.0044792425
159	0x3cbc032b	0.02295073
160	0x3e0cfaec	0.13767594
161	0x3d5fb145	0.054612417
162	0x3d8e24c8	0.06940609
163	0xbdb6caa9	-0.08925373
164	0xbca7ea0e	-0.020497348
165	0xbd290d6d	-0.04127257
166	0xbc3cd404	-0.011525158
167	0x3d8de00d	0.069275
168	0xbd57a74f	-0.052649792
169	0x3dc18b38	0.09450382
170	0xbc698a9b	-0.0142542375
171	0x3e030ab7	0.12797056
172	0x3d792551	0.060826603
173	0x3de83be8	0.11339551
174	0xbd85adb6	-0.06527273
175	0x3cbbbf29	0.0229183
176	0xbd607d2f	-0.054806884
177	0xbdcb2bb6	-0.099204466
178	0xbcf931b5	-0.03041921
179	0xbb00ca25	-0.0019651738
180	0x3db97946	0.09056334
181	0x3cec2fc1	0.028831365
182	0x3d06ed11	0.032940928
183	0x3dc9a04f	0.098450296
184	0x3ca80058	0.020507976
185	0xbd84dc3e	-0.0648732
186	0x3cf2f7e5	0.029659221
187	0x3d8ca0c0	0.06866598
188	0xbc89ba90	-0.016812593
189	0xbdcea641	-0.10090304
190	0xbd89e820	-0.067337275
191	0x3e1365e1	0.14394332
192	0xbe467401	-0.1938019
193	0x3d3109b9	0.043222163
194	0xbd327f7e	-0.043578617
195	0xbd1ff0db	-0.039048057
196	0x3d4669dc	0.0484408
197	0x3ac8f09a	0.0015330494
198	0x3e1e00b5	0.15429957
199	0x3d91754c	0.07102451
200	0xbea115ab	-0.31461844
201	0x3dc22175	0.09479038
202	0x3e12ea25	0.14347132
203	0xbd3778c3	-0.0447929
204	0xbb19f060	-0.0023489222
205	0xbdbd32db	-0.092382155
206	0xbca601c8	-0.020264521
207	0x3db181d4	0.08667341
208	0xbd411a8c	-0.047144458
209	0x3c805c91	0.01566914
210	0x3db7f8a6	0.08982973
211	0xbdf52e77	-0.11971753
212	0x3cc8641f	0.024461804
213	0xbdcf5c65	-0.10125045
214	0xbdc09c92	-0.094048634
215	0xbd4ecf6e	-0.05049079
216	0x3a639d40	0.0008682795
217	0x3e3d3618	0.18477666
218	0x3c805ee0	0.01567024
219	0x3da7434f	0.08167135
220	0xbe05a85a	-0.13052502
221	0x3e33fef4	0.17577726
222	0xbd0250ed	-0.031815458
223	0xbd7e152d	-0.062031914
224	0x3e42d72b	0.19027393
225	0xbd141ecf	-0.036162194
226	0x3dc5a367	0.09650307
227	0xbd85ce68	-0.065335095
228	0xbdf6b635	-0.12046472
229	0xbdbd560d	-0.092449285
230	0x3ce8a0a9	0.028396921
231	0xbdeb5b0f	-0.114919774
232	0x3d9322c5	0.07184366
233	0xbdcdc7db	-0.10047885
234	0xbcbfb590	-0.023402005
235	0xbe1e34f3	-0.15449886
236	0x3cdfdcc2	0.027326945
237	0x3e50a913	0.20376997
238	0x3c244a65	0.010027503
239	0x3da6b1c0	0.08139372
240	0x3d1b2bc5	0.03788354
241	0xbd3bdfda	-0.04586778
242	0x3d3f148f	0.046650466
243	0x3e4b6f87	0.19866763
244	0xbdb2533b	-0.08707281
245	0xbd302c4e	-0.043011002
246	0x3e1f77fa	0.15573111
247	0x3db54583	0.08851149
248	0x3cfac882	0.030613188
249	0x3d932dd2	0.07186474
250	0x3da3641b	0.07978078
251	0x3e0bad06	0.13640222
252	0xbe30ef6a	-0.17278829
253	0xbd266189	-0.04062036
254	0xbd864838	-0.065567434
255	0x3e8044b2	0.2505241

rnn.bias_ih_l1 f4 [256]
0	0x3d2a4780	0.041572094
1	0xbd835fca	-0.06414755
2	0xbde97185	-0.11398605
3	0xbe16599e	-0.14682624
4	0xbda95858	-0.08268803
5	0xbc66a82b	-0.01407818
6	0x398de5a1	0.00027064703
7	0x3d47c9e1	0.04877651
8	0xbc2dc708	-0.010606535
9	0xbe17a70d	-0.14809819
10	0x3e0176ad	0.12642927
11	0x3d99546a	0.07486804
12	0xbcb7805c	-0.022400074
13	0x3e1f2843	0.15542702
14	0x3d6875cd	0.05675297
15	0xba4dd6d5	-0.0007852142
16	0x3e1f8012	0.15576199
17	0x3c9e805b	0.019348314
18	0xbd962935	-0.07332078
19	0x3d666962	0.056252845
20	0x3dc168d7	0.09443825
21	0x3dff86db	0.124768935
22	0xbd29bba0	-0.0414387
23	0x3e020b64	0.12699658
24	0xbe0c5b18	-0.13706625
25	0x3c021174	0.007938731
26	0xbd9092a7	-0.07059222
27	0xbcfc6e27	-0.030814243
28	0x3e1318a7	0.14364873
29	0x3ca31587	0.019907726
30	0x3bd91554	0.006624857
31	0x3d022d3c	0.03178142
32	0x3dec86df	0.11549162
33	0x3d35e648	0.044409066
34	0x3da35fe8	0.07977277
35	0xba7884c9	-0.0009480236
36	0x3c74e4b2	0.014947103
37	0x3e73e322	0.23817113
38	0xbddc0a50	-0.107441545
39	0xbca28a41	-0.019841315
40	0xbde54095	-0.11193959
41	0xbd2af985	-0.041741867
42	0x3d1e5da8	0.038663536
43	0x3d9df626	0.07712965
44	0xbc8b7995	-0.017025748
45	0x3e8ff9c5	0.28120247
46	0xbd928454	-0.07154146
47	0x3d9856bb	0.074384175
48	0x3def8bb7	0.1169657
49	0x3dd09416	0.10184495
50	0xbd02a816	-0.03189858
51	0x3e59c960	0.21268225
52	0x3b817697	0.0039509046
53	0x3dfe254c	0.124094576
54	0xbd82bba8	-0.06383449
55	0xbc5ec61d	-0.013597039
56	0x3e9cd17f	0.30628583
57	0xbd2aedc6	-0.041730665
58	0x3cbe7a5a	0.023251701
59	0x3deb276d	0.11482129
60	0x3cb63711	0.022243055
61	0x3bee2819	0.0072679636
62	0xbde92e63	-0.11385801
63	0x3d575943	0.05257536
64	0xbce74218	-0.028229758
65	0xbe12fd30	-0.14354396
66	0x3da85e59	0.082211204
67	0x3c564f07	0.013080365
68	0xbcdb47be	-0.026767608
69	0xbdda5480	-0.10660648
70	0x3c893bbd	0.016752118
71	0x3cf23234	0.029564954
72	0xbd4023fd	-0.04690932
73	0x3d01e854	0.031715706
74	0xbd19cfd4	-0.037551716
75	0xbe20f9bc	-0.15720266
76	0x3dec9af7	0.11552995
77	0x3e1bd908	0.1521951
78	0x3da74bc1	0.08168746
79	0x3d351224	0.044206753
80	0x3dbe8b38	0.093038976
81	0xbdbb2412	-0.09137739
82	0x3c1c2ea4	0.009532604
83	0xbd8bcf9b	-0.06826707
84	0xbe06446e	-0.13112041
85	0xbe08cc13	-0.13359098
86	0xbda714b8	-0.08158249
87	0xbe2765c6	-0.16347417
88	0x3d6b85c2	0.05750061
89	0x3e0a0fbb	0.13482563
90	0x3d1afacd	0.03783684
91	0xbcb99bec	-0.022657357
92	0xbc992cc8	-0.018698111
93	0xbbdfb01b	-0.0068264133
94	0xbdc05ce6	-0.09392719
95	0xbd969ee3	-0.07354524
96	0xbd63443c	-0.055484995
97	0xbd9511f8	-0.07278818
98	0xbe148312	-0.14503124
99	0x3b6211f7	0.003449557
100	0xbd283d30	-0.041073978
101	0x3d8d5aa6	0.069020554
102	0x3d4e8c67	0.050426867
103	0xbdeec5bb	-0.11658808
104	0x3de02a8f	0.109456174
105	0xbd779c3d	-0.060451735
106	0xbd2d0535	-0.042241294
107	0xbcf7a855	-0.030231634
108	0xbd9c6642	-0.07636692
109	0xbdf8d847	-0.12150627
110	0xbd9119d5	-0.07085005
111	0xbe16895c	-0.14700836
112	0x39cc7f94	0.00039004965
113	0xbd45dd74	-0.048306897
114	0x3c160122	0.0091555435
115	0xbd7b6455	-0.06137498
116	0xbcce141b	-0.025156071
117	0xbd10de47	-0.03536823
118	0xbe0ea4f0	-0.13930106
119	0xbe06a244	-0.13147837
120	0xbe2f301c	-0.17108196
121	0xbe28702c	-0.1644904
122	0x3c8119f4	0.015759446
123	0xbc9e37c3	-0.019313699
124	0xbdb6ffd2	-0.089355126
125	0x3ce1bac0	0.02755487
126	0x3cceeffb	0.025260916
127	0x3d8db8fd	0.06920049
128	0xbd289df3	-0.041166257
129	0x3d134323	0.0359527
130	0xbc890baf	-0.016729204
131	0xbca3197c	-0.019909613
132	0xbdfc64c8	-0.1232391
133	0xbde2ed99	-0.110804744
134	0x3d95d018	0.07315081
135	0x3d9b1a64	0.07573393
136	0x3cb34e81	0.02188802
137	0x3e091f8a	0.13390937
138	0x3c47abda	0.012186969
139	0x3d549dfc	0.05190848
140	0xbd90ba25	-0.07066754
141	0xbdf8bef1	-0.12145794
142	0xbd9259cf	-0.07146036
143	0xbd3b0a0a	-0.04566387
144	0x3c921917	0.01783423
145	0xbda69f60	-0.08135867
146	0x3ce01867	0.027355386
147	0x3d6f3b10	0.058405936
148	0x3c512e43	0.012767377
149	0xbd08e36b	-0.033420008
150	0xbd449542	-0.047993906
151	0xbd3c849c	-0.046024904
152	0x3c7a1a0f	0.015265002
153	0xbd2722a3	-0.040804517
154	0xbb0c5a14	-0.0021415995
155	0x3d99daf9	0.07512469
156	0xbd639eea	-0.055571474
157	0x3db69ad2	0.089162484
158	0xbb83be84	-0.004020514
159	0x3ce8cf69	0.028419213
160	0xbd9c2f14	-0.07626167
161	0xbba4dfdb	-0.0050315685
162	0xbd32df44	-0.043669954
163	0x3ca1b18c	0.019737981
164	0x3dd22808	0.102615416
165	0xbd0866f7	-0.03330132
166	0xbd368fe1	-0.044570807
167	0xbd5f77cc	-0.054557607
168	0xbdaffb4b	-0.08592852
169	0xbd4a3d60	-0.049374938
170	0xbdbc9252	-0.09207596
171	0xbd54e180	-0.051972866
172	0x3d27240f	0.040805873
173	0x3c5fe82e	0.013666196
174	0xbdaa0c04	-0.08303073
175	0xbbdfc7b6	-0.0068292273
176	0x3d6d1b04	0.057887092
177	0xbd8b7ce1	-0.06810928
178	0x3cd5e640	0.026110768
179	0xbd2167e3	-0.039405715
180	0xbda41d7b	-0.080134355
181	0x3da9fd85	0.08300308
182	0xbb1e6851	-0.0024171064
183	0xbdb12185	-0.086489715
184	0xbdc70c5c	-0.09719154
185	0xbd4eb540	-0.050465822
186	0x3d34cc57	0.044140186
187	0x3d87107b	0.0659494
188	0xbd5fef9e	-0.054671876
189	0x3df7ee50	0.121060014
190	0x3dbb01b8	0.09131187
191	0xbda215e7	-0.07914334
192	0xbc06b4fd	-0.008221862
193	0x3d9d8d35	0.07692949
194	0xbd81fec8	-0.06347424
195	0xbd99e8da	-0.07515116
196	0xbdc01dfd	-0.0938072
197	0x3df1e0a1	0.11810423
198	0xbc706146	-0.014671629
199	0xbd8bc519	-0.06824703
200	0xbc5a989f	-0.013342052
201	0xbe0d67a0	-0.13809061
202	0xbde94fe5	-0.11392192
203	0x3e10b4a3	0.14131407
204	0x3d01d199	0.03169403
205	0x3e15b068	0.14618075
206	0xbbc62ad7	-0.0060475874
207	0xbdce07f4	-0.10060111
208	0xbbaa4790	-0.005196519
209	0x3d6a6f97	0.057235327
210	0x3d90c262	0.070683256
211	0xbe038f50	-0.12847638
212	0xbda397e9	-0.07987959
213	0x3dddaa66	0.108235165
214	0x3e0d83aa	0.13819757
215	0xbdc5baa3	-0.09654739
216	0x3d9fc62e	0.07801472
217	0xbd793e24	-0.060850278
218	0x3d93422c	0.07190356
219	0xbdd3bc39	-0.10338635
220	0x3d2bd24b	0.041948598
221	0xbd46b8c3	-0.048516046
222	0xbde91e7f	-0.1138277
223	0xbdfb527d	-0.12271593
224	0x3c574076	0.013137927
225	0x3d0a74b2	0.033802696
226	0x3e4315be	0.19051263
227	0x3d1b6167	0.037934687
228	0x3da04491	0.07825578
229	0x3e4614f2	0.19343928
230	0xbdf0c2f5	-0.11755935
231	0x3ca166ac	0.019702278
232	0x3c397233	0.011318731
233	0x3dcb96d3	0.09940877
234	0x3d064259	0.032778118
235	0x3d1f6666	0.038916014
236	0xbd9c69d5	-0.07637373
237	0x3e118309	0.14210142
238	0x3d347835	0.04405995
239	0x3d51bd1c	0.05120574
240	0xbdd0817c	-0.10180947
241	0xbd887e57	-0.066647224
242	0x3d246cca	0.04014281
243	0x3bdbb9f5	0.0067055174
244	0xbd2352d8	-0.039873928
245	0xbc395964	-0.011312816
246	0xbe1029c0	-0.14078426
247	0xbc783e26	-0.015151536
248	0x3e83a998	0.25715327
249	0x3e16e4cb	0.14735715
250	0x3ddc4b4a	0.10756548
251	0x3c4f271f	0.012643605
252	0xbcfec1b6	-0.031098228
253	0x3d373032	0.044723697
254	0x3c2500ba	0.010070974
255	0x3ddf8ad0	0.10915148
