data/results/lstm_regime_DXY_r10d_r6_wNone.pt (torch, 221861 bytes, 9 tensors)

rnn.weight_ih_l0 f4 [256, 16]
-0.07498271 -0.15362212 -0.067299865 0.04301313 0.13187571 -0.11041003 -0.109518945 0.039172344
0.012416559 0.39800107 -0.11417989 -0.06223945 -0.16590571 -0.037410777 0.3608129 0.10340148
0.03691884 0.04001455 0.10831826 0.01711295 0.35449985 0.13960676 0.024557969 -0.0642993
-0.0084389895 0.6158511 0.028324699 0.04790936 0.040440924 0.0070830444 0.19803824 0.028410798
0.11500535 -0.017075077 0.04292019 -0.123981915 0.15699661 0.08870044 0.022709796 -0.078184634
-0.13897142 0.2780731 -0.07018715 0.04756409 -0.124534205 -0.1603384 0.31862682 -0.087873906
-0.15396747 -0.13456531 0.024595123 -0.19495302 0.46596766 -0.012108744 -0.10523873 -0.0014039518
0.049772944 0.31043306 -0.10737673 0.047081094 -0.048975274 -0.07691232 0.26581958 -0.010040923
-0.016200842 -0.08603581 0.04557957 -0.14200036 0.18809 -0.07233478 0.030955138 0.046803743
-0.1547186 0.29890594 -0.09817632 -0.04015658 -0.0054891417 -0.22095461 0.19866668 0.10033971
-0.2962308 -0.0357635 -0.041841935 -0.09557483 0.42105785 -0.057991102 0.02975538 -0.003378061
-0.06457448 0.43684262 -0.0791361 0.07895736 -0.13074923 -0.04262126 0.21259041 0.16385676
0.02480279 -0.074145906 0.005770656 0.25650042 -0.14319146 -0.025936063 -0.1446142 0.053594507
0.17016767 -0.1463211 -0.038628962 0.015227489 0.17085557 -0.03008484 -0.20671031 -0.073371165
0.041227512 -0.12744866 -0.008335016 -0.017509554 0.31849733 0.0307379 0.118007645 0.0643367
0.008349073 0.21875884 0.019599698 0.09536078 -0.1573791 0.007277995 0.13673429 0.047578156
-0.15609837 0.10428014 -0.013181459 -0.011754605 -0.16310689 -0.012378589 -0.07024641 -0.06827161
-0.021160286 -0.23077452 -0.13641143 0.03577117 -0.06761383 0.06620688 -0.3201216 0.07884269
-0.034524664 -0.05152846 -0.049056485 0.017195717 0.39891085 -0.02714845 0.023666298 -0.02431323
-0.1683473 0.26433903 0.050727144 -0.0019088641 -0.091611356 0.046702042 0.1718901 0.10170427
-0.033279244 0.032011893 -0.040710714 0.13859785 -0.27600443 0.049365394 0.07393462 -0.08504395
0.2424874 -0.2759531 -0.1336429 0.021022499 -0.011980921 0.23537758 -0.34108755 -0.109427325
-0.03832167 -0.12648968 -0.02297004 -0.045573253 -0.044139452 0.16670111 -0.062566236 0.12015554
-0.0662217 0.043780297 0.044351097 -0.17361872 0.0948293 -0.14068376 0.26009536 0.08189063
-0.029892774 0.08239334 0.07060817 0.08516486 0.45037308 0.053807765 0.028033685 0.14105345
0.113292485 0.39016405 -0.10337373 0.08259476 -0.03594741 0.06846885 0.25873765 0.009299683
0.15367386 0.076042175 0.0646512 -0.022174517 -0.5188754 -0.037753005 -0.0067659295 -0.041474495
0.084051594 -0.49277228 0.03219282 -0.012142912 0.19499314 0.14683388 -0.4234342 -0.03340411
-0.028553516 0.08446037 -0.15872158 0.10601441 -0.50048983 -0.11857536 -0.05091137 -0.009840443
0.09727877 -0.3405185 -0.08115068 0.004956274 0.091168955 -0.036184 -0.1650412 0.04150701
0.025393443 -0.052458763 0.06517757 -0.101380184 0.35108674 -0.027788453 0.06367158 -0.13241024
0.007978089 0.32614878 0.045089677 -0.14824723 -0.03419934 -0.011947932 0.12911771 -0.072800264
00000000: 8990 99bd 1e4f 1dbe 83d4 89bd 892e 303d
00000010: 6d0a 073e a71e e2bd 784b e0bd 2e73 203d
00000020: d36e 4b3c ccc6 cb3e 25d7 e9bd cbee 7ebd
00000030: 30e3 29be 0b3c 19bd 78bc b83e 28c4 d33d
00000040: 3638 173d 4ce6 233d f7d5 dd3d 7530 8c3c
00000050: 0181 b53e 13f5 0e3e cb2d c93c 5aaf 83bd
00000060: b043 0abc 6ba8 1d3f 3309 e83c 9b3c 443d
00000070: 62a5 253d e218 e83b 89ca 4a3e c3bd e83c
00000080: ed87 eb3d 08e1 8bbc 15cd 2f3d 3bea fdbd
00000090: b8c3 203e 94a8 b53d e509 ba3c 441f a0bd
000000a0: 864e 0ebe 995f 8e3e 48be 8fbd 90d2 423d
000000b0: ca0b ffbd c02f 24be 0e23 a33e 3cf7 b3bd
000000c0: a6a9 1dbe 7dcb 09be b67b c93c c4a1 47be
000000d0: 5093 ee3e c163 46bc 6787 d7bd ce04 b8ba
000000e0: b7de 4b3d 15f1 9e3e 55e8 dbbd 1bd8 403d
000000f0: 4c9a 48bd 3584 9dbd 8119 883e af82 24bc
00000100: a1b7 84bc 8b33 b0bd a5b1 3a3d 8b68 11be
00000110: aa9a 403e 4224 94bd a195 fd3c 48b5 3f3d
00000120: 8d6e 1ebe 330a 993e ab10 c9bd 3a7b 24bd
00000130: 42de b3bb ed41 62be 476f 4b3e e87e cd3d
00000140: 90ab 97be bf7c 12bd 7362 2bbd bdbc c3bd
00000150: e594 d73e 1488 6dbd 8ec1 f33c 7662 5dbb
00000160: a03f 84bd d6a9 df3e 1c12 a2bd 65b4 a13d
00000170: 20e3 05be a193 2ebd 4db1 593e 11ca 273e
00000180: 382f cb3c cfd9 97bd c517 bd3b 0654 833e
00000190: c8a0 12be de77 d4bc bf15 14be ea85 5b3d
000001a0: 6f40 2e3e 33d5 15be 6739 1ebd b87c 793c
000001b0: c3f4 2e3e 7b74 f6bc deab 53be 9f43 96bd
000001c0: 2ede 283d e781 02be 978f 08bc 3270 8fbc
000001d0: 1512 a33e 0cce fb3c fead f13d f6c2 833d
000001e0: 8dca 083c 5102 603e 8c8f a03c 834c c33d
000001f0: fd27 21be 3f7c ee3b 1304 0c3e 50e1 423d
00000200: 40d8 1fbe d390 d53d 0cf7 57bc 6396 40bc
00000210: 7e05 27be 91cf 4abc 5add 8fbd fcd1 8bbd
00000220: 5658 adbc 2850 6cbe 70af 0bbe ca84 123d
00000230: 1f79 8abd 7997 873d fae6 a3be 4778 a13d
00000240: bc69 0dbd 820f 53bd 74ef 48bd 08de 8c3c
00000250: 0b3e cc3e 6d66 debc d3df c13c 8a2c c7bc
00000260: 3c63 2cbe 7257 873e 44c7 4f3d da32 faba
00000270: bc9e bbbd a44a 3f3d f503 303e 544a d03d
00000280: d14f 08bd e71e 033d 47c0 26bd 98ec 0d3e
00000290: 7450 8dbe 5e33 4a3d 096b 973d 862b aebd
000002a0: 9e4e 783e ba49 8dbe afd9 08be 6037 ac3c
000002b0: a04b 44bc d206 713e 07a3 aebe 6f1b e0bd
000002c0: 2ff7 1cbd 8386 01be aa2b bcbc 05ab 3abd
000002d0: 92cb 34bd b2b3 2a3e ba22 80bd 1c14 f63d
000002e0: 3e9f 87bd f852 333d 7fa9 353d 1bc9 31be
000002f0: dd35 c23d 670f 10be 382b 853e 46b6 a73d
00000300: b1e1 f4bc d7bd a83d 049b 903d ea6a ae3d
00000310: 4d97 e63e 8865 5c3d e6a6 e53c 5170 103e
00000320: e405 e83d 95c3 c73e 9bb5 d3bd 7127 a93d
00000330: 973d 13bd 6539 8c3d 4379 843e b35d 183c
00000340: ae5c 1d3e 00bc 9b3d d967 843d 55a7 b5bc
00000350: 05d5 04bf e5a2 1abd bbb4 ddbb 29e1 29bd
00000360: 3e23 ac3d a64c fcbe 9edc 033d 10f3 46bc
00000370: 48ac 473e 9f5b 163e 5ecc d8be c0d2 08bd
00000380: 10e9 e9bc 8ff9 ac3d e987 22be 151e d93d
00000390: 1a20 00bf a3d7 f2bd 7188 50bd cf39 21bc
000003a0: 173a c73d 7158 aebe 5432 a6bd 3d68 a23b
000003b0: cab6 ba3d ad35 14bd 8f00 29be 4103 2a3d
000003c0: e905 d03c 00df 56bd d17b 853d 6aa0 cfbd
000003d0: a4c1 b33e 9ca4 e3bc 3f66 823d 8d96 07be
000003e0: 88b6 023c f9fc a63e f4af 383d 1fce 17be
000003f0: 9b14 0cbd 42c1 43bc 6f37 043e 4e18 95bd

rnn.weight_hh_l0 f4 [256, 64]
-0.016291702 0.086884014 0.043436393 -0.05091235 -0.12691945 0.037484523 0.097886994 0.0418597
0.0010816068 0.08487381 0.0060065635 0.0965279 -0.12655236 0.072458796 0.10732958 -0.09526402
-0.038877953 0.003827555 -0.108508654 -0.10306901 -0.091470726 -0.02446336 -0.09383399 -0.092565626
0.08269316 -0.03915536 0.033322442 -0.018069165 0.0035157285 0.12465531 0.032298375 -0.068302095
-0.024562161 0.025057064 0.08582788 0.08307231 -0.11872176 0.05996309 -0.009103068 -0.022198645
0.1425766 -0.13353035 -0.010003823 -0.019879092 -0.0740373 0.00883824 -0.009485598 0.07216791
-0.106629595 0.019281082 -0.059069477 -0.06803115 -0.05227084 -0.059595272 0.049227994 -0.050120138
0.065278046 -0.030409245 -0.03413955 0.10559986 0.03290598 -0.0075820205 -0.0916933 0.00081846246
0.120244294 -0.016602369 0.08227112 -0.11534535 -0.032777872 -0.123139285 -0.07296868 -0.0046152934
-0.06929073 -0.06817418 -0.104015015 -0.009137191 -0.10140875 0.068919405 0.03201476 0.06682949
-0.13386597 -0.05192673 -0.083282 -0.039296873 0.019598652 0.06896184 -0.04676112 -0.017012835
-0.06363219 -0.07712869 0.07570624 0.024229642 -0.09767887 0.04421749 0.07185269 -0.012213681
-0.115587234 0.065457344 -0.06592691 0.04498041 -0.06804647 0.0794384 -0.06907651 -0.08404917
0.008376488 0.12431647 0.03838316 -0.10552697 -0.063490026 0.03620174 -0.040287327 -0.013137601
0.10904166 -0.06477021 -0.124446295 -0.083299324 0.00082880544 -0.14430663 0.014073767 0.07702063
-0.11075002 0.061767917 -0.108696304 0.048803937 -0.06530016 -1.6185955e-05 0.03559357 -0.008966857
-0.052577842 -0.03028105 -0.090299435 -0.03934208 0.12643494 0.02172561 -0.096039936 -0.039529655
0.060243245 0.029289119 0.078447424 0.032388315 -0.1008327 -0.050087024 -0.10982993 -0.08929382
-0.044438038 0.072084956 -0.05553963 0.024920497 0.055874225 -0.121535696 0.0098065045 -0.16382429
0.038144294 -0.00040891345 -0.1014303 -0.06173583 -0.059750028 0.031156732 -0.022912944 -0.11192686
-0.03779985 -0.09622685 0.07665747 -0.0450893 -0.08279125 0.041438892 0.05656399 -0.036068104
-0.07782927 -0.058264814 -0.029623667 0.09873224 -0.12476588 0.09251503 -0.05291658 0.062368803
-0.03859726 -0.08745314 0.052709073 -0.02636475 -0.10255642 0.11920825 0.10133855 0.015996715
-0.10419795 -0.05068722 -0.098493345 -0.093962125 0.0030621244 -0.05751385 0.032523416 0.09071799
0.050650917 0.105298005 -0.045758143 0.009934727 -0.06835145 -0.010066739 -0.06020352 -0.057278726
0.025276361 0.0041299043 -0.09184122 0.1210695 0.072103225 -0.048897117 0.036114417 -0.09361487
0.11275942 -0.043348502 0.052655883 0.106357455 0.10677011 -0.020909674 0.06989298 -0.050347555
0.075247414 0.044600975 -0.03859259 -0.10526252 -0.00042748573 -0.102687575 -0.11143358 -0.012585295
0.0981104 0.0939149 0.04114502 0.04650788 0.0666544 0.052417267 -0.11494293 0.08398105
0.12468262 -0.09074555 -0.094358414 -0.01608823 -0.05714452 -0.08574368 -0.07650201 -0.01213671
0.0015495053 0.09173925 0.1112502 0.10179926 0.022637133 -0.08203319 0.069685474 -0.08696753
0.037750132 0.022329025 -0.056288883 -0.045414608 0.12586333 0.07041094 -0.028867027 0.10991826
00000000: 2d76 85bc 3ff0 b13d 5cea 313d 7889 50bd
00000010: 2cf7 01be 5f89 193d fa78 c83d 1475 2b3d
00000020: b4c4 8d3a 52d2 ad3d b5d2 c43b 6bb0 c53d
00000030: f196 01be 4765 943d 9ccf db3d c819 c3bd
00000040: 7d3e 1fbd b8d7 7a3b c939 debd d815 d3bd
00000050: 0155 bbbd 6267 c8bc 092c c0bd 0c93 bdbd
00000060: 085b a93d 5f61 20bd 1d7d 083d c905 94bc
00000070: 2368 663b 484b ff3d 4d4b 043d f8e1 8bbd
00000080: 9636 c9bc 7944 cd3c 87c6 af3d d121 aa3d
00000090: 6524 f3bd db9b 753d 0925 15bc efd9 b5bc
000000a0: 9aff 113e 2ebc 08be 13e7 23bc 7ad9 a2bc
000000b0: dea0 97bd 44ce 103c 7b69 1bbc c5cc 933d
000000c0: 9e60 dabd 5cf3 9d3c d6f2 71bd ea53 8bbd
000000d0: f319 56bd 2c1a 74bd 4ba3 493d c64a 4dbd
000000e0: 7fb0 853d cf1c f9bc ead5 0bbd bd44 d83d
000000f0: 6cc8 063d 9972 f8bb b2c9 bbbd 168e 563a
00000100: a442 f63d b101 88bc c37d a83d 2f3a ecbd
00000110: 1742 06bd 7330 fcbd 9a70 95bd e33b 97bb
00000120: 4ce8 8dbd e89e 8bbd d305 d5bd 28b4 15bc
00000130: 64af cfbd 9e25 8d3d e921 033d e6dd 883d
00000140: 2914 09be 1fb1 54bd c18f aabd c2f5 20bd
00000150: 5a8d a03c dd3b 8d3d 9788 3fbd 805e 8bbc
00000160: 9851 82bd a6f5 9dbd e00b 9b3d 3e7d c63c
00000170: dc0b c8bd 661d 353d 8127 933d e41b 48bc
00000180: 00b9 ecbd 800e 863d b004 87bd 613d 383d
00000190: f35b 8bbd 9ab0 a23d fc77 8dbd f921 acbd
000001a0: 8a3d 093c a299 fe3d a937 1d3d 861e d8bd
000001b0: 0f07 82bd 4748 143d 5304 25bd 183f 57bc
000001c0: 3c51 df3d 3ea6 84bd b3dd febd d698 aabd
000001d0: 3144 593a 1ec5 13be a895 663c febc 9d3d
000001e0: e8d0 e2bd 5b00 7d3d 2b9c debd a3e6 473d
000001f0: 17bc 85bd 13c7 87b7 90ca 113d b9e9 12bc
00000200: dd5b 57bd f70f f8bc e9ee b8bd 2925 21bd
00000210: 2978 013e e8f9 b13c 96b0 c4bd d9e9 21bd
00000220: 9fc1 763d bcef ef3c 0ba9 a03d 9ca9 043d
00000230: 6081 cebd 0d28 4dbd 84ee e0bd aedf b6bd
00000240: a904 36bd 47a1 933d 867d 63bd 1226 cc3c
00000250: 5fdc 643d b5e7 f8bd 76ab 203c 8ec1 27be
00000260: 313d 1c3d 6f63 d6b9 b0ba cfbd b6de 7cbd
00000270: 72bc 74bd 673c ff3c edb3 bbbc e939 e5bd
00000280: 04d4 1abd 9512 c5bd 97fe 9c3d 8faf 38bd
00000290: 758e a9bd d4bb 293d a4af 673d 26bc 13bd
000002a0: f464 9fbd 16a7 6ebd 55ad f2bc 2134 ca3d
000002b0: 4185 ffbd 8578 bd3d 0ebf 58bd 6e76 7f3d
000002c0: 2918 1ebd a21a b3bd 78e5 573d e3fa d7bc
000002d0: 1a09 d2bd 7423 f43d 968a cf3d 8b0b 833c
000002e0: bc65 d5bd 679d 4fbd e1b6 c9bd 376f c0bd
000002f0: ecad 483b a593 6bbd 4637 053d 5bca b93d
00000300: 5677 4f3d 7ba6 d73d e46c 3bbd 44c5 223c
00000310: d8fb 8bbd f7ee 24bc f797 76bd 199d 6abd
00000320: 5f10 cf3c 2654 873b 4017 bcbd 49f3 f73d
00000330: dbaa 933d 5848 48bd b6ec 133d 27b9 bfbd
00000340: 69ee e63d 338e 31bd b2ad 573d f0d1 d93d
00000350: 4aaa da3d c44a abbc 0d24 8f3d 3d39 4ebd
00000360: 511b 9a3d 83af 363d 4313 1ebd e093 d7bd
00000370: 2a20 e0b9 dd4d d2bd 4a37 e4bd 8e32 4ebc
00000380: 1bee c83d 7556 c03d ae87 283d 0c7f 3e3d
00000390: 1a82 883d 7db3 563d 3367 ebbd 42fe ab3d
000003a0: 9a59 ff3d ced8 b9bd fc3e c1bd 77cb 83bc
000003b0: 5f10 6abd 629a afbd 16ad 9cbd 0dd9 46bc
000003c0: c518 cb3a cae1 bb3d 25d7 e33d 217c d03d
000003d0: 8271 b93c 0401 a8bd 42b7 8e3d 081c b2bd
000003e0: e29f 1a3d 5ceb b63c 2c8f 66bd ab04 3abd
000003f0: 51e2 003e 9c33 903d 8b7a ecbc d31c e13d

rnn.bias_ih_l0 f4 [256]
-0.10781455 0.11126443 0.037657905 0.08800411 -0.0706037 0.055083156 -0.0051241512 -0.024077384
-0.065447584 0.09961103 0.04355556 0.10899354 -0.1004149 0.062283438 0.021336231 -0.08863522
-0.098225124 0.07690518 0.0099783745 -0.062915534 0.09217324 0.011945214 -0.06386925 0.32390642
0.080810405 -0.081917554 -0.07155746 -0.11208225 0.3661368 0.098209046 -0.08331363 -0.012208081
0.098286614 -0.08830614 -0.09979466 -0.05759119 -0.0062416475 -0.012133457 -0.09115555 0.08900934
0.10312298 -0.09541475 -0.089918576 -0.01632013 -0.121633805 -0.07346772 -0.0029925632 -0.086467445
0.025997823 0.06250556 0.039596397 0.024038158 0.0671004 -0.0017134923 -0.053764198 0.11489159
-0.052912507 -0.07924607 0.100940295 0.1365279 -0.1352223 -0.09967182 -0.08666114 -0.102239855
-0.044367608 -0.06824347 -0.025997173 0.023970267 0.016066 0.10625645 0.10508575 -0.021640712
0.109223 0.10014073 0.09405227 0.07067898 0.004368259 -0.089631125 0.031366583 -0.055964965
-0.11674624 -0.10030814 0.039732836 0.009892835 0.116182946 -0.037943095 -0.08965416 -0.034255892
0.07454247 -0.051491812 -0.11987743 -0.0892861 0.09003365 -0.019144852 0.084996134 -0.019230282
0.03698798 0.08983443 0.10847307 0.09610004 -0.03532349 -0.07363095 -0.08155234 0.022312092
-0.06096537 0.010282716 -0.052987117 0.00045954876 0.09446259 0.0828729 0.04592863 0.036431797
-0.0021834236 -0.09084642 0.0024427653 0.04103766 0.10025999 -0.015052148 -0.09947547 -0.12562697
0.06687143 -0.08329229 0.05490475 -0.006677616 0.037302278 0.033766896 0.035296474 -0.09188879
0.011560626 -0.014391709 0.05750439 0.051832795 0.09164302 0.027016565 0.015015728 -0.04097697
0.09816448 0.06384931 -0.019879134 0.05153247 -0.10753614 -0.07519833 -0.0114198495 0.06954956
-0.112252235 -0.03001432 0.07092107 0.10021175 -0.11667327 0.075977154 0.111672714 -0.049641397
-0.081006974 0.05989471 -0.06458403 -0.005958082 0.04536497 0.0034261716 -0.07295125 -0.020776205
0.042006027 0.12056296 0.09764118 -0.11693936 0.08847347 0.09789398 0.040552065 -0.045673747
-0.071620524 -0.040629275 -0.088538416 0.06949101 -0.101515785 -0.10959158 0.11486067 0.02339276
-0.02734089 0.012218415 0.014074856 -0.03048775 -0.016134795 0.071329415 0.011834735 -0.025188407
-0.04125927 0.07247514 -0.0019168338 0.01648074 0.015865613 -0.10402354 0.10603343 0.13027894
0.048392553 -0.04964101 0.053359084 -0.0975349 0.0555081 0.04399002 0.07700882 -0.09261833
-0.107883364 -0.039641798 -0.11085707 0.0527335 -0.05550202 0.028596735 -0.12059586 -0.044896394
0.09035619 -0.02024841 0.050948054 0.0273572 -0.005183997 0.0080692 0.08946048 0.41009027
-0.092890136 0.09349279 -0.016667075 -0.03291509 0.35881752 0.00027735124 0.03176924 0.124516875
0.0630415 0.043313846 0.016367272 -0.13550861 -0.105775364 0.036470048 0.08723401 0.06118964
0.107255794 0.039589126 0.08862387 0.06779485 -0.07584435 -0.13244627 -0.10363974 -0.0070495424
-0.11672302 -0.09455065 -0.11782704 -0.03874311 -0.11354891 -0.02650221 -0.0487459 0.07132607
-0.022801075 0.085391626 0.122607514 0.14820328 0.09648028 0.10059665 0.014454562 -0.118254095
00000000: e0cd dcbd 9bde e33d 2d3f 1a3d 803b b43d
00000010: ac98 90bd e09e 613d 7fe8 a7bb ef3d c5bc
00000020: 6209 86bd de00 cc3d 5167 323d 0138 df3d
00000030: 54a6 cdbd eb1c 7f3d 52c9 ae3c 6286 b5bd
00000040: 412a c9bd 7780 9d3d 567c 233c dcd9 80bd
00000050: 53c5 bc3d dcb5 433c e2cd 82bd 10d7 a53e
00000060: ed7f a53d 64c4 a7bd b88c 92bd 618b e5bd
00000070: 4876 bb3e d321 c93d 56a0 aabd 6704 48bc
00000080: 7e4a c93d d9d9 b4bd 2561 ccbd bde4 6bbd
00000090: bc86 ccbb 68cb 46bc c3af babd 874a b63d
000000a0: 2432 d33d cf68 c3bd 3b27 b8bd cbb1 85bc
000000b0: 251b f9bd 3e76 96bd e11e 44bb d815 b1bd
000000c0: 63f9 d43c ea02 803d d52f 223d aceb c43c
000000d0: ef6b 893d 4397 e0ba d937 5cbd 484c eb3d
000000e0: c9ba 58bd c34b a2bd c9b9 ce3d f8cd 0b3e
000000f0: b777 0abe bd20 ccbd 657b b1bd 2163 d1bd
00000100: cfba 35bd 3bc3 8bbd 06f8 d4bc 4b5d c43c
00000110: d89c 833c fb9c d93d 3337 d73d dd47 b1bc
00000120: 4fb0 df3d 9516 cd3d 7a9e c03d 24c0 903d
00000130: 9d23 8f3b 8690 b7bd 3f7a 003d 853b 65bd
00000140: a718 efbd 5b6e cdbd e6be 223d 8f15 223c
00000150: 53f1 ed3d 386a 1bbd 9a9c b7bd e84f 0cbd
00000160: b9a9 983d 14e9 52bd 4c82 f5bd a1db b6bd
00000170: 9063 b83d aad5 9cbc 7412 ae3d d388 9dbc
00000180: b580 173d 1dfb b73d 2127 de3d 19d0 c43d
00000190: 5daf 10bd d3cb 96bd ea04 a7bd d9c7 b63c
000001a0: d3b6 79bd d678 283c 0509 59bd 97ef f039
000001b0: 9a75 c13d 44b9 a93d a91f 3c3d 8239 153d
000001c0: c517 0fbb b00d babd cd16 203b 1b17 283d
000001d0: 1c55 cd3d 499d 76bc ccb9 cbbd 5ba4 00be
000001e0: e3f3 883d 2695 aabd cee3 603d e7cf dabb
000001f0: 46ca 183d 284f 0a3d 0993 103d 3130 bcbd
00000200: c868 3d3c 34cb 6bbc b989 6b3d a04e 543d
00000210: 56af bb3d d851 dd3c 8704 763c 78d7 27bd
00000220: 750a c93d 6dc3 823d 91d9 a2bc b613 533d
00000230: e83b dcbd 9501 9abd 521a 3bbc 0070 8e3d
00000240: 80e4 e5bd 97e0 f5bc 113f 913d d13b cd3d
00000250: 65f2 eebd e999 9b3d aab4 e43d c754 4bbd
00000260: fce6 a5bd 2854 753d a244 84bd 043c c3bb
00000270: 9ed0 393d 9f89 603b 7767 95bd dc32 aabc
00000280: 830e 2c3d b7e9 f63d 19f8 c73d e77d efbd
00000290: 9431 b53d a47c c83d ec19 263d 6514 3bbd
000002a0: c8ad 92bd e26a 26bd a153 b5bd 4d51 8e3d
000002b0: 82e7 cfbd 8d71 e0bd 123c eb3d 2ca2 bf3c
000002c0: 01fa dfbc bf2f 483c 3a9a 663c 72c1 f9bc
000002d0: 1e2d 84bc 2815 923d 7ae6 413c eb57 cebc
000002e0: 7bff 28bd d96d 943d 453e fbba 9e02 873c
000002f0: 9af8 813c 4b0a d5bd 0e28 d93d d867 053e
00000300: 4537 463d 5f54 4bbd 0e8f 5a3d 61c0 c7bd
00000310: 765c 633d e12e 343d cdb6 9d3d aeae bdbd
00000320: f4f1 dcbd 705f 22bd 0809 e3bd 15ff 573d
00000330: 1656 63bd b343 ea3c f6fa f6bd 48e5 37bd
00000340: ab0c b93d fedf a5bc e8ae 503d 351c e03c
00000350: 85de a9bb ae34 043c 0e37 b73d 5af7 d13e
00000360: 2f3d bebd 2679 bf3d 6489 88bc f9d1 06bd
00000370: eeb6 b73e 7469 9139 7620 023d b402 ff3d
00000380: e71b 813d dc69 313d a814 863c c5c2 0abe
00000390: c1a0 d8bd 9e61 153d bfa7 b23d fda1 7a3d
000003a0: eda8 db3d 3528 223d 6e80 b53d 07d8 8a3d
000003b0: 4854 9bbd ff9f 07be 1241 d4bd d9ff e6bb
000003c0: 7b0c efbd c5a3 c1bd 4e4f f1bd 18b1 1ebd
000003d0: 558c e8bd 2a1b d9bc c8a9 47bd 6713 923d
000003e0: 52c9 babc cee1 ae3d a619 fb3d 9ac2 173e
000003f0: 7497 c53d 9e05 ce3d d4d2 6c3c 342f f2bd

rnn.bias_hh_l0 f4 [256]
-0.07507019 -0.09696031 0.008479993 0.019338481 -0.11274128 0.09361439 0.07252751 -0.038571637
0.009419187 0.062524006 0.12104662 -0.014763893 0.0037704927 -0.012823509 -0.0880733 0.024129465
-0.10011364 -0.11028802 -0.06869304 -0.11679734 -0.0058853882 0.04899175 -0.07415503 0.26629537
0.038047325 -0.120918065 0.11440487 0.1017516 0.2947015 -0.06824488 -0.04366045 0.11617608
0.061977815 0.019860674 -0.087756924 0.11078866 0.014775286 0.10269141 0.027611298 0.040871605
-0.08941655 -0.10683716 -0.003984023 0.119813636 -0.085998245 0.09463285 -0.012033904 -0.02170045
0.07911051 0.07716899 0.123153396 -0.06638974 -0.083589606 -0.012597647 -0.10238763 -0.10715349
-0.07924624 0.076385275 -0.0033801035 0.040755052 -0.07824932 -0.1030991 -0.09661987 0.07710131
-0.090666026 -0.018436221 -0.08484014 -0.12035561 0.012005689 0.03259624 0.014239037 -0.11738876
0.031163597 0.04450176 -0.036596153 -0.052394878 0.07901199 0.1080824 0.06283266 -0.039131794
-0.12503055 -0.06892481 -0.12693805 -0.03342284 -0.08403324 0.11324417 -0.12397665 -0.010995754
-0.06988572 -0.10852277 -0.047949947 0.031989366 -0.081910774 0.07318225 -0.02305198 -0.113928035
0.07481004 -0.034744162 -0.10064752 -0.07943974 -0.00082242 0.101283826 -0.08672829 -0.022994118
0.043879185 0.13040605 -0.079379015 -0.03303326 -0.05906094 -0.09147589 -0.023561148 0.116937175
-0.08229228 -0.08126873 0.0543815 0.09594589 0.0036772343 0.046479333 -0.028603563 -0.07916286
0.06796772 -0.13930576 -0.035153285 -0.11212867 -0.040346075 0.0030135266 -0.08297173 -0.065107055
0.057657804 -0.10873126 -0.042649638 -0.072129175 -0.0522494 -0.063631944 -0.118022025 -0.0723704
-0.10832911 -0.037268862 0.07152369 0.0005860781 -0.08589348 -0.0011072112 -0.04622519 -0.023082696
-0.022462944 -0.091689385 0.05769159 -0.10926586 0.06598716 -0.12838449 0.06157636 0.029092725
0.004425345 0.09095815 -0.106555 0.085249715 0.011894801 -0.12679175 0.08638393 -0.054618165
-0.005777455 0.02624397 0.068490334 0.0851315 -0.03920494 0.012604702 -0.052100092 -0.016837342
0.11373171 -0.107582465 -0.06035631 -0.08894881 0.09805313 -0.104366526 -0.08891784 -0.10663048
0.002685912 -0.07670869 -0.06722931 0.051415075 0.06691926 -0.10881011 -0.066836424 -0.032361563
-0.05838849 0.085427456 -0.11065413 0.036526907 0.05062406 0.08128565 -0.049922798 -0.0454822
0.064485505 -0.09727998 -0.047894634 -0.045964733 0.05969981 -0.029172633 -0.00898806 -0.121879384
-0.047393177 0.108507305 -0.03255312 0.15540244 -0.030461716 0.025206173 0.0661564 0.08073996
0.10388141 0.07599477 -0.09718726 -0.029006125 -0.01653796 -0.061916504 0.104199454 0.26681778
-0.11608573 0.053217273 0.11794378 0.044543352 0.2763058 0.058023985 -0.09748894 -0.014975731
-0.117435075 0.06480718 -0.047138166 -0.025109898 -0.0577744 0.11274494 0.120017864 -0.004974932
0.0079095485 -0.09692263 0.027315138 0.034408946 -0.042326808 0.013333355 -0.06293335 -0.11108104
0.009576333 0.07776935 -0.043848403 0.073109806 -0.12048688 -0.03256704 0.061131842 0.024731982
0.031547062 0.034495324 0.051355243 0.010818299 0.05760185 0.099734485 -0.09817497 -0.028227208
00000000: 66be 99bd 2193 c6bd abef 0a3c bc6b 9e3c
00000010: e6e4 e6bd e7b8 bf3d 4e89 943d 4bfd 1dbd
00000020: ef52 1a3c 960c 803d 4ae7 f73d 41e4 71bc
00000030: 5f1a 773b b219 52bc c65f b4bd 28ab c53c
00000040: 6108 cdbd afde e1bd f0ae 8cbd 7233 efbd
00000050: 37da c0bb 93ab 483d 98de 97bd de57 883e
00000060: 83d7 1b3d e4a3 f7bd 1a4d ea3d 2563 d03d
00000070: 1de3 963e f9c3 8bbd 4dd5 32bd baed ed3d
00000080: 73dc 7d3d dab2 a23c e7b9 b3bd 2ae5 e23d
00000090: 0b14 723c e04f d23d 1731 e23c fc68 273d
000000a0: 0620 b7bd 71cd dabd 688c 82bb da60 f53d
000000b0: d91f b0bd dece c13d da29 45bc 24c5 b1bc
000000c0: b104 a23d c70a 9e3d d937 fc3d 58f7 87bd
000000d0: 0731 abbd 5c66 4ebc 9bb0 d1bd 4a73 dbbd
000000e0: da4b a2bd e26f 9c3d ba84 5dbb c5ee 263d
000000f0: 2e41 a0bd 9f25 d3bd a3e0 c5bd 4be7 9d3d
00000100: 1caf b9bd 8f07 97bc abc0 adbd 017d f6bd
00000110: 82b3 443c a383 053d da4a 693c 8569 f0bd
00000120: cd4a ff3c 7a47 363d d9e5 15bd 039c 56bd
00000130: 0ad1 a13d 4e5a dd3d 69ae 803d a948 20bd
00000140: 0208 00be 7328 8dbd 0cfc 01be 63e6 08bd
00000150: 9f19 acbd 8fec e73d 78e7 fdbd 8927 34bc
00000160: 3f20 8fbd 3041 debd 2a67 44bd 4807 033d
00000170: d6c0 a7bd 93e0 953d 82d7 bcbc 1a53 e9bd
00000180: 0236 993d e54f 0ebd 4920 cebd 4db1 a2bd
00000190: ac97 57ba e56d cf3d 9a9e b1bd 295e bcbc
000001a0: a9ba 333d 2a89 053e 7791 a2bd e24d 07bd
000001b0: e2e9 71bd b657 bbbd 4f03 c1bc c27c ef3d
000001c0: db88 a8bd 3870 a6bd 23bf 5e3d 477f c43d
000001d0: c1fd 703b 1d61 3e3d 0552 eabc 2320 a2bd
000001e0: a932 8b3d 2ba6 0ebe e4fc 0fbd b7a3 e5bd
000001f0: ed41 25bd 967e 453b 15ed a9bd d956 85bd
00000200: 972a 6c3d 7fae debd 63b1 2ebd 76b8 93bd
00000210: 7803 56bd 7751 82bd 88b5 f1bd ef36 94bd
00000220: a7db ddbd 3ca7 18bd 037b 923d 09a3 193a
00000230: ece8 afbd d81f 91ba a056 3dbd ec17 bdbc
00000240: 3504 b8bc a5c7 bbbd 044e 6c3d c7c6 dfbd
00000250: 4724 873d 3977 03be 7e37 7c3d de53 ee3c
00000260: 7c02 913b 4448 ba3d 8239 dabd 6797 ae3d
00000270: 69e2 423c b2d5 01be 0fea b03d 4cb7 5fbd
00000280: ce50 bdbb 98fd d63c a944 8c3d 6d59 ae3d
00000290: 5c95 20bd f483 4e3c e866 55bd 77ee 89bc
000002a0: 2cec e83d 3254 dcbd 2e38 77bd cb2a b6bd
000002b0: 14d0 c83d 1ebe d5bd 8e1a b6bd 1561 dabd
000002c0: 2006 303b 7219 9dbd 85af 89bd 9d98 523d
000002d0: f70c 893d d6d7 debd 89e1 88bd 8f8d 04bd
000002e0: c528 6fbd 97f4 ae3d a29e e2bd 3d9d 153d
000002f0: 2d5b 4f3d 1779 a63d d97b 4cbd 8b4b 3abd
00000300: fa10 843d ba3a c7bd 2a2d 44bd 8445 3cbd
00000310: ca87 743d 72fb eebc a842 13bc e69b f9bd
00000320: 591f 42bd 1439 de3d 6c56 05bd d121 1f3e
00000330: d98a f9bc 2d7d ce3c 027d 873d fe5a a53d
00000340: c7bf d43d 25a3 9b3d 1d0a c7bd 419e edbc
00000350: 9e7a 87bc 299c 7dbd 8666 d53d 579c 883e
00000360: 5bbe edbd 5bfa 593d 828c f13d 1773 363d
00000370: f477 8d3e 8faa 6d3d 48a8 c7bd c55c 75bc
00000380: cd81 f0bd a0b9 843d f313 41bd 46b3 cdbc
00000390: d9a4 6cbd d2e6 e63d edcb f53d c104 a3bb
000003a0: 0d97 013c 5f7f c6bd ffc3 df3c 65f0 0c3d
000003b0: e05e 2dbd 2574 5a3c 33e3 80bd 757e e3bd
000003c0: 0de6 1c3c 8945 9f3d 629a 33bd 98ba 953d
000003d0: d3c1 f6bd 0465 05bd 6265 7a3d ba9a ca3c
000003e0: 7e37 013d f84a 0d3d e059 523d 3c3f 313c
000003f0: ebef 6b3d 9841 cc3d f50f c9bd bf3c e7bc

rnn.weight_ih_l1 f4 [256, 64]
-0.096844845 0.0029724985 -0.074916005 -0.067890145 0.09767527 0.08405263 0.07164688 0.024455093
-0.11472941 0.11302908 -0.029012633 0.0996483 0.11457181 0.09079671 -0.07735929 0.04239296
-0.08231975 -0.008193696 0.044134106 0.111487985 0.03532219 0.049788065 -0.085693456 0.2437703
0.07110933 -0.10244513 0.08272702 -0.08245002 -0.016019557 0.11061704 0.09241905 0.013387748
-0.062194243 -0.0144484835 -0.052218135 0.052222364 0.06673694 -0.010904772 -0.02953273 0.010758256
0.048294347 -0.07634376 -0.06513237 0.062689275 -0.037334125 0.082855515 -0.04164615 0.10266999
-0.02747699 -0.093636505 0.005124127 -0.04019597 -0.112106435 0.0015826077 0.10126938 -0.04092343
0.03751963 0.07189564 0.1114569 -0.074364394 -0.03830469 0.02212833 -0.03654765 -0.015031631
-0.08588259 0.010550488 0.025390346 0.116482124 -0.07593587 0.102975555 -0.065620296 0.08594387
-0.11179728 0.074242786 0.054883506 -0.011173771 0.123797774 -0.09388803 -0.041998744 -0.0059917537
0.12442228 -0.09226518 0.09482158 -0.031166447 0.08868351 -0.12284495 -0.09013542 -0.017136864
0.12399321 -0.051554266 -0.013699628 -0.05591221 -0.032323804 -0.113248244 0.084234014 0.085395105
0.028439261 0.10664043 0.05882227 0.009767829 -0.017327532 0.077850915 0.10844535 -0.020063672
0.0054839887 0.062226877 -0.067395076 -0.030370299 -0.12975068 0.01151811 -0.055511776 -0.0088518495
-0.078324035 0.030147081 0.12009657 -0.064673536 -0.017243074 -0.093894556 0.034315057 -0.075245544
-0.07052608 0.08811792 -0.0061382167 0.10200536 -0.06057911 0.078890145 0.09662187 -0.058811314
0.15238024 -0.42589575 -0.27503845 -0.31877333 -0.24646227 -0.24857803 -0.07495491 -0.23078565
0.19529343 -0.2253752 -0.21780829 -0.09077586 -0.26456258 -0.13840082 -0.28821653 0.19452545
-0.2268455 -0.1906197 -0.20647407 0.13276196 -0.32061228 0.27360824 0.47423783 0.22565092
-0.22097138 0.32421678 -0.2212199 -0.18539934 0.14228027 -0.033741694 0.16437295 0.09853838
-0.18875633 0.3218013 0.21337305 0.10703182 -0.114448965 0.21539755 0.26961508 0.063886926
-0.1937565 -0.1300269 -0.20605437 0.3075269 0.18382287 -0.18771139 -0.027114347 0.124704376
-0.27784055 0.20299853 -0.17700174 0.13694033 -0.082064554 -0.34210357 -0.12630875 -0.21497443
-0.12488039 0.13280931 -0.2573 0.344137 -0.17509912 0.05230463 0.22749083 -0.1383857
0.119001344 -0.0052198693 0.12759659 0.042086907 0.030419454 -0.14808528 -0.09614723 -0.04154858
-0.035534017 -0.019544626 0.054923337 -0.00045233112 -0.099551976 -0.09869996 -0.027270393 -0.09292759
-0.012098223 -0.014651693 -0.009189019 0.09059697 0.05079145 -0.015583408 -0.0221506 0.1636829
0.08889638 0.030767059 0.037846684 -0.0898164 0.03936149 0.10546124 -0.07089566 0.11701507
-0.084207565 0.008804429 0.03041529 -0.02285088 0.06712278 -0.09351319 0.014027858 -0.11223542
0.0021188622 0.08554472 -0.04309066 0.09738222 -0.0011206279 -0.053582583 -0.08279989 0.04041072
0.098270744 0.106630675 -0.010085548 0.0063118744 0.029133106 -0.037055742 0.10205058 0.11086226
-0.059254512 -0.11010334 -0.011735045 -0.021623656 0.040029418 0.041438162 -0.08774078 0.004593706
00000000: 9756 c6bd 40ce 423b 906d 99bd fd09 8bbd
00000010: f909 c83d c923 ac3d 99bb 923d 0c56 c83c
00000020: 41f7 eabd ca7b e73d e7ab edbc 6814 cc3d
00000030: a0a4 ea3d a0f3 b93d 8c6e 9ebd 3ea4 2d3d
00000040: 4297 a8bd da3e 06bc f7c5 343d d053 e43d
00000050: 00ae 103d 92ee 4b3d 0d80 afbd ec9e 793e
00000060: c5a1 913d c1ce d1bd c96c a93d 8edb a8bd
00000070: 723b 83bc 308b e23d 3346 bd3d 4958 5b3c
00000080: 64bf 7ebd 55b9 6cbc afe2 55bd 1ee7 553d
00000090: 60ad 883d eea9 32bc a0ee f1bc 6543 303c
000000a0: 4bd0 453d 1e5a 9cbd 1f64 85bd 3c63 803d
000000b0: abeb 18bd 27b0 a93d 2795 2abd a544 d23d
000000c0: 6d17 e1bc 7fc4 bfbd 4be8 a73b 88a4 24bd
000000d0: 0f98 e5bd 816f cf3a 5266 cf3d 549f 27bd
000000e0: 2fae 193d 053e 933d 8443 e43d 5c4c 98bd
000000f0: 61e5 1cbd 7946 b53c fdb2 15bd 3b47 76bc
00000100: 36e3 afbd f4db 2c3c 6aff cf3c 2e8e ee3d
00000110: 4484 9bbd d9e4 d23d ef63 86bd 5703 b03d
00000120: f9f5 e4bd 9a0c 983d 87cd 603d 3112 37bc
00000130: b089 fd3d 5e48 c0bd e006 2cbd 7956 c4bb
00000140: 1cd1 fe3d 87f5 bcbd d131 c23d c750 ffbc
00000150: b39f b53d 2296 fbbd eb98 b8bd 9c62 8cbc
00000160: 27f0 fd3d 912a 53bd 6874 60bc 3404 65bd
00000170: f765 04bd b2ee e7bd e282 ac3d a1e3 ae3d
00000180: 74f9 e83c 4c66 da3d 9fef 703d 3f09 203c
00000190: 78f2 8dbc 4d70 9f3d 9818 de3d 925c a4bc
000001a0: 08b3 b33b 9ce1 7e3d 6e06 8abd 22cb f8bc
000001b0: 5ddd 04be 74b6 3c3c 5160 63bd 5907 11bc
000001c0: 5a68 a0bd 03f7 f63c 31f5 f53d 8f73 84bd
000001d0: 5941 8dbc ca4b c0bd f28d 0c3d 561a 9abd
000001e0: fa6f 90bd 2b77 b43d 1823 c9bb 30e8 d03d
000001f0: cd21 78bd 2891 a13d b0e1 c53d 22e4 70bd
00000200: 9109 1c3e 020f dabe d7d1 8cbe 4236 a3be
00000210: 9b60 7cbe 3d8b 7ebe f681 99bd 1353 6cbe
00000220: 00fb 473e c2c8 66be 2309 5fbe b2e8 b9bd
00000230: bf74 87be f2b8 0dbe 1e91 93be ae31 473e
00000240: 304a 68be d031 43be f06d 53be c0f2 073e
00000250: 4b27 a4be 6116 8c3e 4dcf f23e 0911 673e
00000260: 5246 62be beff a53e 7887 62be 53d9 3dbe
00000270: ebb1 113e bb34 0abd 6251 283e 7dce c93d
00000280: 5749 41be 24c3 a43e 777e 5a3e 8033 db3d
00000290: 3864 eabd 2d91 5c3e fd0a 8a3e 26d7 823d
000002a0: 1b68 46be c625 05be ebff 52be 2a74 9d3e
000002b0: 103c 3c3e 6a37 40be e81e debc 0265 ff3d
000002c0: 1e41 8ebe d9de 4f3e f23f 35be 163a 0c3e
000002d0: 7611 a8bd 3328 afbe 1557 01be 4222 5cbe
000002e0: 4ac1 ffbd 2aff 073e d3bc 83be ba32 b03e
000002f0: 2f4d 33be 613d 563d 5bf3 683e fbb4 0dbe
00000300: fab6 f33d 700b abbb aea8 023e 5263 2c3d
00000310: 3832 f93c aba3 17be d7e8 c4bd d82e 2abd
00000320: 1e8c 11bd 0d1c a0bc 4bf7 603d db26 edb9
00000330: e8e1 cbbd 3423 cabd 2966 dfbc d250 bebd
00000340: a037 46bc a80d 70bc 8a8d 16bc e78a b93d
00000350: b20a 503d 8d51 7fbc 2d75 b5bc 7d9c 273e
00000360: 4e0f b63d 330b fc3c 2005 1b3d a9f1 b7bd
00000370: 8439 213d 10fc d73d be31 91bd 99a5 ef3d
00000380: 0475 acbd 7440 103c 7c29 f93c c531 bbbc
00000390: ab77 893d d883 bfbd 1ad5 653c afdb e5bd
000003a0: 9cdc 0a3b 1232 af3d d57f 30bd 5470 c73d
000003b0: 08e2 92ba 6979 5bbd fd92 a9bd b685 253d
000003c0: 2c42 c93d 2f61 da3d db3d 25bc d7d3 ce3b
000003d0: 8da8 ee3c c3c7 17bd e5ff d03d c10b e33d
000003e0: dcb4 72bd dc7d e1bd 5944 40bc 1824 b1bc
000003f0: e3f5 233d 10bb 293d 70b1 b3bd cd86 963b

rnn.weight_hh_l1 f4 [256, 64]
0.053461112 0.011037631 -0.07902464 0.0139500825 0.044844557 -0.0404109 0.09498756 0.09004644
-0.0777054 -0.019637039 -0.124804914 0.09685664 -0.04653206 0.10532384 -0.07728192 -0.029531864
0.104915306 -0.08544893 0.026906857 0.028728291 -0.110411696 0.058549795 0.13087057 0.112964265
-0.10353229 -0.03257679 0.08779147 -0.09466458 -0.12472697 0.087852396 -0.014321405 0.0071184793
-0.089421526 -0.004079907 0.08973949 0.012729195 0.028321896 -0.041276965 -0.025510289 0.09649214
0.071265675 0.0917313 0.04272125 -0.024546273 0.0088345315 -0.04783355 0.075204305 0.053596348
0.013712868 -0.05889986 -0.050860602 -0.0052378387 0.08307761 -0.033405244 -0.10180967 0.110769734
0.042392522 -0.13122793 0.036416378 -0.0050089783 -0.09827399 -0.117681585 0.06477095 0.13370219
0.069184475 0.065130085 0.07238319 -0.038889118 -0.01651789 -0.052720353 0.01445592 -0.026459854
0.013813711 0.083415456 -0.07742519 -0.113864094 0.05928101 -0.06127608 0.010429406 0.08514277
0.048989706 -0.12620695 0.13540532 -0.029471982 -0.044687517 -0.097046286 0.10822364 -0.027246349
-0.028808614 0.117464036 0.120071985 0.08404566 -0.094473265 0.06581053 0.12324222 0.053261425
-0.12786785 -0.012130266 0.072986394 0.016722761 0.04280967 -0.010731725 -0.106730394 -0.07168931
-0.075789265 0.09678688 0.07270258 -0.020063046 0.050751954 -0.080090016 -0.13202846 -0.019814698
0.067090064 -0.044374365 0.008097708 0.05647727 -0.122726046 -0.024870778 -0.102406286 -0.053070355
-0.002834336 -0.13038062 0.036002055 -0.039146107 -0.055779234 0.09857239 0.042484265 -0.04992583
-0.15886924 0.079586364 0.21861805 -0.24800587 0.22389497 -0.18680882 0.15620053 -0.20597751
-0.25522354 0.36920136 0.22842176 0.29431963 0.029633276 0.1395549 0.25281096 0.2944743
-0.071890116 -0.20905252 -0.028854968 0.16595216 0.19780451 -0.09614067 0.12177992 -0.192934
-0.46845776 -0.12393876 0.039274324 -0.23361444 0.19413255 0.24386868 0.25358468 -0.15513338
-0.12650889 -0.10240742 -0.0072134594 -0.2706507 -0.10440117 -0.09852339 -0.36557335 0.11700472
0.2677104 0.31744632 -0.0678065 0.22865584 -0.24021263 -0.22580355 0.21919617 0.16281831
0.26602617 -0.4496189 -0.30971542 -0.12520611 -0.15154606 0.1603292 -0.21375191 -0.1519011
0.2386948 0.36803597 0.23991601 -0.40974727 -0.1700795 0.31411546 0.03966109 0.10085992
-0.04198856 -0.066390656 0.057297472 -0.043381914 -0.06492915 -0.042173054 0.08341358 0.11857048
-0.06833352 0.01570576 -0.056504235 0.0037146995 0.041762054 0.0719279 0.06932706 0.010089357
-0.02128298 -0.047284525 0.1134568 0.07505487 -0.07650487 0.028557941 -0.07316585 0.12160599
-0.023695044 0.043938793 -0.035523467 -0.08852191 0.09727861 0.123194896 0.067102805 -0.038116045
-0.017656324 -0.04535912 0.10003338 0.0049563255 0.121758714 0.09122735 0.030441295 -0.08626303
0.10250165 -0.03236269 -0.10364778 0.040631816 0.040321335 -0.07002803 0.029153943 -0.049116615
-0.054533556 -0.08420955 -0.10550784 0.00822185 0.07141363 0.04420162 -0.0126704 -0.023462402
-0.10089137 0.08456995 -0.056184817 -0.067530215 -0.025352744 -0.010803148 0.054268003 -0.04454431
00000000: 0afa 5a3d 2ed7 343c acd7 a1bd e38e 643c
00000010: edae 373d e685 25bd d688 c23d 456a b83d
00000020: 0224 9fbd dbdd a0bc b899 ffbd c65c c63d
00000030: 6798 3ebd 07b4 d73d fc45 9ebd cfec f1bc
00000040: d6dd d63d d9ff aebd c56b dc3c 9857 eb3c
00000050: 871f e2bd e9d1 6f3d ef02 063e cf59 e73d
00000060: bd08 d4bd 3d6f 05bd 04cc b33d 81df c1bd
00000070: db70 ffbd f5eb b33d 54a4 6abc 2242 e93b
00000080: a222 b7bd beb0 85bb 56c9 b73d 1d8e 503c
00000090: 5203 e83c 0912 29bd f4fa d0bc ac9d c53d
000000a0: bdf3 913d 9fdd bb3d 7afc 2e3d 4415 c9bc
000000b0: b6be 103c 1ded 43bd b704 9a3d d887 5b3d
000000c0: f0ab 603c fb40 71bd 3553 50bd 2da2 abbb
000000d0: 9824 aa3d f0d3 08bd 9781 d0bd 3edb e23d
000000e0: c8a3 2d3d 9d60 06be 5729 153d 5b22 a4bb
000000f0: e043 c9bd 0b03 f1bd a2a6 843d 3ae9 083e
00000100: 97b0 8d3d ec62 853d a33d 943d 324a 1fbd
00000110: 8750 87bc 4cf1 57bd 86d8 6c3c 56c2 d8bc
00000120: e752 623c b9d5 aa3d 1991 9ebd 9431 e9bd
00000130: a5d0 723d a0fc 7abd 19e0 2a3c 555f ae3d
00000140: 6ea9 483d 653c 01be b1a7 0a3e 3a6f f1bc
00000150: 420a 37bd 34c0 c6bd 5ba4 dd3d bc33 dfbc
00000160: 0b00 ecbc fc90 f03d 4de8 f53d 2220 ac3d
00000170: 337b c1bd acc7 863d 6b66 fc3d a728 5a3d
00000180: caef 02be 06be 46bc e479 953d 2cfe 883c
00000190: 3159 2f3d 1ed4 2fbc 7795 dabd d8d1 92bd
000001a0: 6737 9bbd 3338 c63d 17e5 943d 425b a4bc
000001b0: 48e1 4f3d 3c06 a4bd 7832 07be 6f52 a2bc
000001c0: 8466 893d e5c1 35bd 40ac 043c b654 673d
000001d0: cb57 fbbd cdbd cbbc 63ba d1bd 4d60 59bd
000001e0: 44c0 39bb 7f82 05be e476 133d ab57 20bd
000001f0: c478 64bd 52e0 c93d fb03 2e3d 077f 4cbd
00000200: 9eae 22be 2dfe a23d 69dd 5f3e 40f5 7dbe
00000210: b944 653e d04a 3fbe 08f3 1f3e c5eb 52be
00000220: a9ac 82be f607 bd3e 65e7 693e 10b1 963e
00000230: 7cc1 f23c 7be7 0e3e 7070 813e 56c5 963e
00000240: 203b 93bd dd11 56be 4161 ecbc 5def 293e
00000250: 448d 4a3e 66e5 c4bd c067 f93d 7e90 45be
00000260: b2d9 efbe 9bd3 fdbd 1dde 203d a038 6fbe
00000270: afca 463e b6b8 793e dad5 813e 49db 1ebe
00000280: 8c8b 01be fbba d1bd e25e ecbb bb92 8abe
00000290: 48d0 d5bd a2c6 c9bd 6e2c bbbe 2ca0 ef3d
000002a0: 5611 893e 5388 a23e 22de 8abd c224 6a3e
000002b0: 4dfa 75be 0c39 67be f674 603e d8b9 263e
000002c0: 9534 883e 7334 e6be 0593 9ebe 0836 00be
000002d0: e42e 1bbe 562d 243e c8e1 5abe f68b 1bbe
000002e0: 696c 743e 366f bc3e 8bac 753e 65ca d1be
000002f0: 5229 2ebe bed3 a03e ab73 223d a58f ce3d
00000300: 32fc 2bbd d3f7 87bd c1b0 6a3d 3cb1 31bd
00000310: 93f9 84bd a7bd 2cbd bdd4 aa3d 14d5 f23d
00000320: 72f2 8bbd 5ea9 803c fc70 67bd 5172 733b
00000330: b00e 2b3d ef4e 933d 58fb 8d3d d54d 253c
00000340: a559 aebc 6bad 41bd 0a5c e83d 5eb6 993d
00000350: 96ae 9cbd 58f2 e93c fad7 95bd 900c f93d
00000360: 1c1c c2bc 2af9 333d 0e81 11bd fa4a b5bd
00000370: 023a c73d 9b4d fc3d 326d 893d 921f 1cbd
00000380: ffa3 90bc 7cca 39bd 4dde cc3d ac68 a23b
00000390: a25c f93d 68d5 ba3d 0660 f93c acaa b0bd
000003a0: 63ec d13d bd8e 04bd 4a45 d4bd 8c6d 263d
000003b0: fc27 253d db6a 8fbd 40d4 ee3c 812e 49bd
000003c0: 945e 5fbd 0e76 acbd 7f14 d8bd f0b4 063c
000003d0: 4f41 923d c20c 353d 8297 4fbc 3934 c0bc
000003e0: 22a0 cebd 0333 ad3d 0d22 66bd 484d 8abd
000003f0: 8fb0 cfbc b0ff 30bc 2048 5e3d 1874 36bd

rnn.bias_ih_l1 f4 [256]
0.01893617 -0.0923145 0.32727194 0.07034938 -0.13840172 0.09737364 -0.051413715 -0.04480569
0.03654138 -0.065330036 -0.037961405 -0.08363746 -0.11787938 0.07290363 -0.12468615 0.03317786
-0.09125263 0.090089746 0.039007384 0.052701477 0.025319822 -0.088052444 0.07820212 -0.02025039
0.12532684 0.11258466 0.07027807 -0.0119532095 0.087099016 0.028684774 -0.0625161 0.041796576
0.1236204 -0.04795225 -0.09234266 -0.109998815 -0.03201292 -0.11356214 0.07351746 -0.08515902
-0.052490026 -0.016609404 -0.13018265 0.0032691662 -0.054524522 -0.06983801 -0.016301092 0.07825702
0.044115998 0.104624666 0.0054633813 -0.02499556 0.037017908 -0.017055325 -0.024935352 0.014543789
0.048296504 0.04898226 -0.03560167 -0.11069451 -0.024534456 -0.061692763 0.071526974 0.14322548
0.079906166 -0.08989381 -0.1561082 -0.13170272 -0.06397456 0.008943399 0.035478577 -0.07991701
0.030233521 -0.0028410282 -0.09422332 0.10470781 0.029210815 0.07425015 0.07944278 -0.04392007
0.03081676 0.083409525 -0.017184226 0.10991756 0.06334737 -0.068271406 -0.051775616 0.09618838
-0.06934692 0.073223434 -0.10597328 0.06846882 -0.08326417 -0.052795444 -0.016976763 -0.102559626
-0.06142188 0.025649128 -0.1379886 -0.08694584 0.09439893 -0.039181434 0.09562864 -0.11854492
-0.051926248 0.09688101 -0.09559538 -0.04303645 0.002337292 -0.03368097 -0.062027786 0.0010848528
0.09840167 -0.049935494 -0.03354081 0.10740535 0.000710387 0.05768724 -0.0038313575 -0.042632177
0.09174489 0.069711685 0.09608937 0.021633446 -0.12968603 0.031042382 -0.07778791 0.030040726
-0.09865716 0.07313868 0.0020960579 -0.02983312 0.038376942 0.0807642 0.07827176 -0.006229719
-0.056280185 0.10165475 0.07817327 0.075685605 0.0019892089 0.0379502 0.09058547 0.050383307
-0.057436638 0.0736699 0.045313284 0.048778072 0.074988045 -0.045845516 0.010597202 0.053864926
-0.10153085 0.0010716816 -0.10143681 -0.09456146 -0.008871627 0.083328106 0.04763968 -0.11442141
-0.0733872 -0.033914 -0.10104465 -0.024451528 -0.016138906 0.025311498 -0.029353898 0.06835371
0.1062746 0.025301486 0.02392372 0.07540948 -0.1177413 -0.030017523 0.08372337 0.05218035
-0.08472777 -0.12057861 -0.09263247 0.07913804 -0.08445197 0.083728865 -0.012329498 -0.022599379
0.044199154 0.07603939 0.08537149 -0.035625633 0.047095895 0.09527427 0.04750763 0.035282552
-0.08279054 0.072691284 0.43601 0.060682807 0.055317063 -0.09721131 0.12351244 -0.019086305
0.07976554 0.021510508 -0.11151639 0.031005075 -0.07672232 0.015838062 -0.12615803 -0.022847792
-0.008140289 0.039799396 -0.03045702 -0.053234905 -0.083686925 -0.043728918 -0.08592794 -0.09203894
0.001965544 -0.09831628 -0.12337594 0.024828352 0.010303323 -0.08895941 0.02556019 -0.09594975
0.08702729 -0.030736165 0.021777272 0.089667976 -0.031014625 0.018712241 0.021199714 0.00010787726
0.10665144 -0.015755242 -0.10684201 0.009056982 0.10345445 0.09191356 -0.07210538 -0.11637812
-0.061300803 0.116642825 -0.12562543 0.11773429 -0.091598965 -0.012935891 -0.06273525 -0.11243192
0.13115695 -0.039397813 -0.04168167 0.04961709 -0.039635375 0.04075357 0.09990719 0.0928355
00000000: 0720 9b3c 620f bdbd 3090 a73e 5613 903d
00000010: 2eb9 0dbe d56b c73d 3097 52bd 2c86 37bd
00000020: 6aac 153d c1cb 85bd 6b7d 1bbd 1e4a abbd
00000030: bf6a f1bd 804e 953d 745b ffbd 82e5 073d
00000040: a9e2 babd f980 b83d 35c6 1f3d 81dd 573d
00000050: 846b cf3c d754 b4bd 6f28 a03d 25e4 a5bc
00000060: ae55 003e c992 e63d f3ed 8f3d 65d7 43bc
00000070: f860 b23d 55fc ea3c 7108 80bd e332 2b3d
00000080: b12c fd3d 9469 44bd 261e bdbd 0f47 e1bd
00000090: fb1f 03bd 4493 e8bd 5290 963d da67 aebd
000000a0: c8ff 56bd 7210 88bc 9a4e 05be 823f 563b
000000b0: 1b55 5fbd 3b07 8fbd de89 85bc 3745 a03d
000000c0: fab2 343d 7545 d63d 2a06 b33b 7dc3 ccbc
000000d0: 17a0 173d 9cb7 8bbc 3945 ccbc 1349 6e3c
000000e0: 8ed2 453d 9fa1 483d 0fd3 11bd ceb3 e2bd
000000f0: 7cfc c8bc 8db1 7cbd bc7c 923d b3a9 123e
00000100: d8a5 a33d 3f1a b8bd d4da 1fbe 14dd 06be
00000110: 1805 83bd 5687 123c fc51 113d 88ab a3bd
00000120: 4aac f73c 8b30 3abb 28f8 c0bd 0c71 d63d
00000130: 854b ef3c 7610 983d e5b2 a23d 88e5 33bd
00000140: 6e73 fc3c 9dd2 aa3d efc5 8cbc 751c e13d
00000150: 44bc 813d e1d1 8bbd ab12 54bd 6afe c43d
00000160: c205 8ebd 2bf6 953d 8508 d9bd 6139 8c3d
00000170: 6886 aabd 0940 58bd da12 8bbc c80a d2bd
00000180: 8295 7bbd 1f1e d23c e24c 0dbe a910 b2bd
00000190: 3a54 c13d b67c 20bd f3d8 c33d aec7 f2bd
000001a0: 9eb0 54bd 8d69 c63d 83c7 c3bd fd46 30bd
000001b0: 412d 193b 0ff5 09bd d910 7ebd 9f31 8e3a
000001c0: d186 c93d 2989 4cbd 1762 09bd 56f7 db3d
000001d0: 4439 3a3a 7549 6c3d 8317 7bbb 149f 2ebd
000001e0: bfe4 bb3d 00c5 8e3d 81ca c43d a038 b13c
000001f0: 6acc 04be 984c fe3c 454f 9fbd f817 f63c
00000200: c40c cabd bbc9 953d 045e 093b 9664 f4bc
00000210: 2431 1d3d b367 a53d f24c a03d ac22 ccbb
00000220: 0d86 66bd 5e30 d03d 4f19 a03d 0e01 9b3d
00000230: 635d 023b ab71 1b3d e084 b93d ba5e 4e3d
00000240: ae42 6bbd 3fe0 963d 6c9a 393d 84cb 473d
00000250: 5593 993d 82c8 3bbd e39f 2d3c 78a1 5c3d
00000260: 68ef cfbd ab77 8c3a 1abe cfbd 70a9 c1bd
00000270: 4d5a 11bc eda7 aa3d d321 433d c655 eabd
00000280: 074c 96bd 68e9 0abd 7ff0 cebd 924e c8bc
00000290: bd35 84bc 0f5a cf3c 9677 f0bc 08fd 8b3d
000002a0: 7fa6 d93d 1045 cf3c adfb c33c 4970 9a3d
000002b0: 5a22 f1bd 4fe7 f5bc 2977 ab3d 10bb 553d
000002c0: c185 adbd ebf1 f6bd 18b6 bdbd 2013 a23d
000002d0: 28f5 acbd 0a7a ab3d aa01 4abc 5522 b9bc
000002e0: 2c0a 353d 8aba 9b3d 3fd7 ae3d 2fec 11bd
000002f0: a0e7 403d 281f c33d 5c97 423d 7084 103d
00000300: 168e a9bd 2bdf 943d b43c df3e 898e 783d
00000310: 2594 623d b916 c7bd 17f4 fc3d e25a 9cbc
00000320: 1e5c a33d ce36 b03c b562 e4bd 5bfe fd3c
00000330: 9720 9dbd d3be 813c 922f 01be 4b2b bbbc
00000340: d95e 05bc b104 233d 0081 f9bc d80c 5abd
00000350: 0d64 abbd 181d 33bd fdfa afbd e97e bcbd
00000360: 5bd0 003b 0c5a c9bd 86ac fcbd d464 cb3c
00000370: 45cf 283c 5a30 b6bd 9b63 d13c 4d81 c4bd
00000380: 5d3b b23d 69ca fbbc 4066 b23c d8a3 b73d
00000390: 6212 febc 6a4a 993c 06ab ad3c 2a3c e238
000003a0: 126c da3d 2311 81bc fccf dabd bc63 143c
000003b0: eddf d33d 2d3d bc3d fcab 93bd a757 eebd
000003c0: 8d16 7bbd 6fe2 ee3d f4a3 00be ad1e f13d
000003d0: 3d98 bbbd 0ff1 53bc 577b 80bd b542 e6bd
000003e0: 024e 063e 9a5f 21bd 66ba 2abd 4a3b 4b3d
000003f0: b458 22bd 37ed 263d 249c cc3d 8a20 be3d
