data/results/lstm_regime_ETH_r15d_r6_wNone.pt (torch, 221861 bytes, 9 tensors)

rnn.weight_ih_l0 f4 [256, 16]
000000 d1 50 98 bd d5 d1 ca bd 4d fe 57 be 34 13 a7 be
       -0.074372895 -0.099033035 -0.21093102 -0.32631838
000010 e3 88 0b 3f 94 b2 89 be d0 1a d4 bd 9a de 48 be
       0.5450575 -0.26894057 -0.103566766 -0.19616166
000020 61 2d 23 be e5 63 44 3e 9c 03 3b be bb 97 44 be
       -0.1593528 0.19178732 -0.18263096 -0.19198506
000030 b2 ec 8b bd 02 22 20 3c b3 02 38 be 0b f5 cd bd
       -0.068322554 0.009773733 -0.1796978 -0.10056504
000040 83 3e c7 bd ec 43 1b be 60 c9 74 be f9 d2 8e be
       -0.0972872 -0.15162629 -0.23904943 -0.27895334
000050 ab 2a e9 3e ae 7c 70 be 37 80 e6 bd e7 5b cd bd
       0.45540366 -0.23485062 -0.11254924 -0.100272946
000060 fb 79 f7 3d 4a d9 a7 bb ce 5f 72 be 3a 4b 51 be
       0.12083813 -0.0051223384 -0.23669359 -0.20438853
000070 dd 1d f9 bd 5b bd 04 be 88 71 a2 3d a4 cb 88 bd
       -0.12163899 -0.12962858 0.079318106 -0.06679466
000080 e8 ed 03 be 86 c9 c6 bd ef 20 00 3e 7e 12 b0 3d
       -0.12883723 -0.09706406 0.12512563 0.08597277
000090 9d c2 ea be 04 4d ad bd 40 7a bc bd 49 02 1d be
       -0.45851603 -0.08461955 -0.09203005 -0.15332903
0000a0 87 18 85 be d1 07 34 be 58 91 89 be 3e b3 95 3b
       -0.25995275 -0.17581107 -0.268687 0.0045684865
0000b0 ce d2 21 be 1c 3b 9c 3e 81 9c e6 be d1 f9 90 bb
       -0.15803072 0.30513847 -0.45041278 -0.0044243117
0000c0 50 fb 32 3e 53 56 3d 3e d1 f4 84 be 30 d8 97 3c
       0.1747868 0.18489961 -0.2596803 0.018535703
0000d0 25 34 2b bd ba 0d d6 bc a8 02 81 3e 46 7c 4a be
       -0.041797776 -0.026129592 0.2519734 -0.19773969
0000e0 e8 f3 05 3e bb f3 5d 3a f9 c7 af bb ce d4 84 3d
       0.13081324 0.00084667996 -0.005364415 0.06485902
0000f0 5a c3 08 be 90 93 00 3e 58 ad 7d 3d 4f 08 41 bc
       -0.1335577 0.1255629 0.06193289 -0.011781766
000100 7d f9 73 3d 69 d2 5b 3e 57 d6 ee bd 76 76 23 bc
       0.059564102 0.21466984 -0.11661976 -0.009976974
000110 57 2b 68 bd 4d 0e 4c bd 1c 40 ea 3d 60 55 a4 bd
       -0.056681957 -0.049818326 0.11438009 -0.080240965
000120 fc dc bc bd 4c aa c9 bc f3 c5 a0 bc 01 a2 8b 3c
       -0.09221837 -0.024617337 -0.01962564 0.017045023
000130 d1 fa 80 be ed 49 1c be 4c 2c 81 3d ff d0 dd bd
       -0.25191358 -0.15262575 0.06307277 -0.108308785
000140 ce b2 d8 bd 33 5b b7 3d f4 e1 c6 bd 6a 33 09 be
       -0.10580979 0.08952942 -0.09711066 -0.13398519
000150 ce 49 3d be 06 16 57 bd 9e e4 97 3d fc 0d 0f bc
       -0.18485186 -0.052511238 0.07416652 -0.0087313615
000160 9c c5 54 bc 96 b3 64 be 6f 28 46 be 18 65 b1 bd
       -0.012986567 -0.22334132 -0.19351362 -0.0866186
000170 e1 50 cd bd 95 94 3b bd 50 bf 33 be c8 89 2b bd
       -0.10025192 -0.045795996 -0.17553449 -0.041879445
000180 f1 1a 0d bc 06 58 be 3c ac 1d 58 bc aa 40 ca 3c
       -0.00861238 0.023235332 -0.013190668 0.024689037
000190 a4 d9 c4 bb 10 c4 73 3e 06 24 19 bd 35 c4 0d 3e
       -0.00600739 0.2380526 -0.03738787 0.13844378
0001a0 d3 c9 32 bd 10 6f 4a bc 00 7b a9 3d 25 ef db bd
       -0.043649506 -0.012355581 0.082754135 -0.107389726
0001b0 4a 81 7b 3d 7e 33 17 3d 5e 6c 7c be 8d fa 0c bb
       0.061402597 0.03691434 -0.24650714 -0.0021511645
0001c0 5f d0 f5 3d f3 d8 28 be 98 be c7 bd 7e 53 ca 3e
       0.12002634 -0.1648901 -0.0975315 0.39516824
0001d0 56 42 46 be a9 0d 04 bd 6c a8 08 be 96 29 ee bd
       -0.19361243 -0.03223959 -0.13345498 -0.11629026
0001e0 4b cc 3b 3d fd d5 e8 bd 94 67 89 be a3 07 58 3d
       0.045849126 -0.1136894 -0.26836836 0.052741658
0001f0 75 d9 98 be 7f bb ae 3e 9f 1e 63 be b3 ed 41 bd
       -0.29853407 0.34127423 -0.2217965 -0.04734583
000200 c0 35 76 be 57 f2 a2 be d4 bf cd be 24 2f 55 be
       -0.24043941 -0.31825516 -0.40185416 -0.20818764
000210 90 eb 1d be 3c 01 a7 bd 6a 4f 18 3d 77 c8 de bd
       -0.15421891 -0.08154532 0.03718511 -0.108780794
000220 65 9d 5a 3e 78 5f 8c be 75 dc 93 be 14 e6 8e bd
       0.21349104 -0.27416587 -0.28879133 -0.06977478
000230 57 f3 95 be 62 93 71 3a 48 05 92 be 52 1f 55 bc
       -0.29287216 0.0009215382 -0.28519654 -0.013007956
000240 f5 9f f2 bd b3 83 24 be 49 5e 69 be ab 14 3a be
       -0.11846916 -0.16065864 -0.22789873 -0.18171947
000250 a2 8f 6b 3e 09 3c 75 bd 57 41 c2 3d 04 30 b7 3d
       0.2300401 -0.059871707 0.09485119 0.08944705
000260 d5 52 45 be 9b c8 93 3d 46 b3 56 bd 11 93 74 be
       -0.19269879 0.07215997 -0.052417062 -0.23884226
000270 65 16 90 bd 65 73 4f bd 8a 22 04 bd 02 ef cd bd
       -0.070355214 -0.05064716 -0.0322595 -0.10055353
000280 44 c3 06 3e e5 52 da 3d 7f 28 c9 bd 80 41 77 be
       0.13160425 0.10660342 -0.09822177 -0.2414608
000290 57 de 42 3e a6 53 09 3d 5b a2 b1 3d 3c 44 ee 3c
       0.19030128 0.03352704 0.08673545 0.029085271
0002a0 19 3a 8e 3d c0 cb bb 3c 81 23 0f 3d 47 9d bd 3d
       0.06944675 0.022924304 0.03494597 0.09258514
0002b0 5f db 8c bd c7 29 5d bd 9f 89 5f be ac 7a 0b 3d
       -0.06877779 -0.05399492 -0.21829842 0.034052536
0002c0 ca 03 00 bd 3a 71 0a be c0 06 0e be b6 1c 1a 3e
       -0.031253614 -0.13519755 -0.13869762 0.15050015
0002d0 28 95 0e bd c7 06 10 be eb 77 17 be 13 16 2b bd
       -0.034810215 -0.14065085 -0.14791839 -0.0417691
0002e0 d5 8b 13 3e 78 5b f9 bd 98 e1 e4 bc eb 16 70 3c
       0.1440881 -0.121756494 -0.027939603 0.014653902
0002f0 7f d0 43 be 37 ed db bd 23 9d 17 bd 59 d4 2d bd
       -0.19122504 -0.107386045 -0.03701509 -0.04243884
000300 35 13 b5 3c f3 c3 42 be 60 f1 86 be 87 23 6d 3d
       0.022103885 -0.19020061 -0.2635603 0.05789521
000310 e1 13 f2 b9 48 7e 97 bd 2b 55 3e 3d 6f 87 82 bd
       -0.00046172648 -0.07397133 0.04646794 -0.06373488
000320 c4 e7 02 be 2c 00 49 bd 05 d1 95 bd b6 4a 0c 3d
       -0.12783724 -0.04907243 -0.07315258 0.034250937
000330 b4 41 3e be 18 b4 1f 3d 79 1b 51 be 6c aa 82 3c
       -0.18579751 0.03899011 -0.20420636 0.015950404
000340 46 8e 24 3e bf a0 5a 3e fb 3d 16 be b8 a0 a0 be
       0.16069898 0.21350382 -0.14672081 -0.3137262
000350 45 c1 97 bc 5d c4 b1 3d 6a 84 1c be 3d 7f 8c be
       -0.018524775 0.086800314 -0.15284887 -0.27440825
000360 e6 c4 82 be 68 29 6f bd a5 6e 4b 3e 3c 0b 00 3e
       -0.25540847 -0.058389097 0.19866426 0.12504286
000370 5e 48 82 be 33 0f 52 bd 2c d7 23 bd 07 9c ff bc
       -0.25445837 -0.051284026 -0.040000126 -0.03120233
000380 3f 23 00 be 38 fd 3a 3d 66 e8 61 bc ab bf 87 bd
       -0.12513445 0.045651644 -0.013788318 -0.06628355
000390 f0 3c 2d be ea b9 42 bd c1 36 3d 3e 9c 36 7e bd
       -0.16917777 -0.047540583 0.18477918 -0.0620638
0003a0 7a b7 71 3d cc 29 db be 8d 1e e4 bd 64 80 9e 3d
       0.059012868 -0.42805326 -0.111386396 0.07739332
0003b0 ee 5f 32 be fc b9 42 be e5 af c4 be 15 2b 68 be
       -0.17419407 -0.1901626 -0.38415447 -0.22672684
0003c0 ac 16 5c 3e 93 22 af bd 2a 49 f7 bd 0f ee 9c bc
       0.21493024 -0.085515164 -0.12074502 -0.019156484
0003d0 c3 b8 9e 3d d3 6e 5e 3b 40 a2 53 bd da 27 1e 3c
       0.07750084 0.0033940568 -0.051668406 0.009653056
0003e0 c5 49 2f be a3 4e d4 3d 5e 6e 3e 3e 44 0f 0d 3c
       -0.17117985 0.10366561 0.18596789 0.008609597
0003f0 7a d4 29 3e ee a7 70 3c 3a 7e bf 3d 09 4d e1 3d
       0.1658496 0.014688475 0.09350248 0.110010214

rnn.weight_hh_l0 f4 [256, 64]
000000 3e e2 3d 3b 3b 51 b1 3c 15 68 cf bd 58 89 44 3d
       0.0028973962 0.021645179 -0.10127274 0.047982544
000010 8e 02 13 3d 1f 0c 0d bd 46 a9 2a 3c 8e d5 46 bc
       0.03589111 -0.034435388 0.0104163345 -0.012135876
000020 ad d8 d0 bd c8 19 93 3d 83 da 85 3d d9 6e d6 bd
       -0.101975776 0.07182652 0.065358184 -0.10470361
000030 25 0e 7f bd 44 26 fe bd 1a b9 a6 3c 90 f8 78 3d
       -0.06226935 -0.12409642 0.020351935 0.060783923
000040 67 6a f9 bd 46 62 c0 bd 6f fe d9 3d ad 60 c4 bb
       -0.12178498 -0.09393744 0.106442325 -0.00599297
000050 96 3f bc bc 67 9e 91 3c 28 90 91 bd dc 83 65 bd
       -0.022979539 0.017775727 -0.07107574 -0.056033954
000060 3a 6a 77 3d c1 32 fd 3d d6 24 2f bc b4 44 bf bd
       0.06040404 0.12363196 -0.010689935 -0.09339276
000070 58 41 45 3d ca c6 1e be 98 a6 44 bd 1a d9 76 bd
       0.04815802 -0.1550552 -0.04801044 -0.060265638
000080 60 29 6a bd 0e bd 06 be a1 ae cf 3e 08 d1 3c 3e
       -0.057168365 -0.13158056 0.4056292 0.18439114
000090 11 74 54 be cd 1e 12 bc 29 9d 21 3e 32 5a 4d 3e
       -0.20747401 -0.008918476 0.15782608 0.20053938
0000a0 ea 05 4c bd c6 f6 87 3d a0 a6 a5 3d 2e c0 e1 bd
       -0.049810328 0.06638865 0.08088422 -0.110229835
0000b0 b8 2a a2 bd 50 5d d4 b9 31 3d e7 3c 4e f1 3a bd
       -0.07918304 -0.00040505314 0.02822742 -0.045640282
0000c0 cd 5b 20 bd 0e eb d4 bc d2 b1 25 be d8 a0 49 3e
       -0.039150048 -0.025990989 -0.16181114 0.19690263
0000d0 50 59 01 be dd 63 17 be 3c 23 eb bd d9 a4 f4 3d
       -0.12631726 -0.14784189 -0.1148133 0.11945505
0000e0 90 2c 56 3d 0c c2 68 3d a3 39 81 bc 1f 81 6a ba
       0.05228859 0.056825683 -0.015774554 -0.0008945632
0000f0 7d ec 74 bd 5e 0f 08 3e 2d cd 98 3c 5d 5f 5a bd
       -0.059795845 0.13287112 0.018652523 -0.0533136
000100 f8 54 19 3e 3d ba 1c 3d 8b 7b 32 3e 4e 16 d0 bc
       0.1497382 0.03826355 0.1742994 -0.02540126
000110 4b e8 c5 3d 45 dc 43 be d7 cb 85 bd db 76 8c bd
       0.09663447 -0.19126995 -0.0653302 -0.068586074
000120 54 bc 09 be 98 c1 b4 bd 5c c7 61 bd 7c 12 eb 3d
       -0.13450748 -0.088259876 -0.055121765 0.11478135
000130 f9 9b 42 3d a0 a8 94 bd 35 3d 69 bd 27 d0 a6 3d
       0.04751203 -0.07258725 -0.056943137 0.08145171
000140 d4 6c 33 be 28 8e 74 bd 6f 5e d0 bd 1a 58 d8 3d
       -0.17521983 -0.059705883 -0.10174262 0.10563679
000150 18 49 0d bd 26 fa 9d bc c0 98 34 be 71 72 d1 3d
       -0.034493536 -0.01928432 -0.17636395 0.10226906
000160 bc df 83 3d 9f c7 e1 3d b1 ad cb 3b a3 7e 95 bd
       0.06439158 0.11024403 0.006215774 -0.07299545
000170 e6 ac f8 bc ae 04 80 bd 09 63 d8 bd fc 07 a2 3d
       -0.030355882 -0.062508926 -0.105657645 0.07911679
000180 87 6c cb bd 6b c8 a2 bd 6b 3f 86 3e d0 6f c3 bc
       -0.09932809 -0.07948383 0.2622026 -0.023857027
000190 e8 88 62 bd 09 5e ba 3d a7 c5 b4 3d 55 9d e5 3d
       -0.055306345 0.09099967 0.08826762 0.11211649
0001a0 1d 6f c3 bb d6 03 26 3e ed 66 56 3c 34 49 c4 bd
       -0.0059641735 0.16212401 0.013086063 -0.09584275
0001b0 c2 e2 b6 3d 98 ea 9a 3d 92 84 0e 3e d3 77 b4 3c
       0.08929969 0.075642765 0.13917759 0.022029793
0001c0 a4 cd 68 bc 36 6a 03 3d 98 66 2f be f3 ec 03 bd
       -0.014209185 0.032083713 -0.1712898 -0.032208394
0001d0 18 29 27 3d 4e e3 33 3d e6 1f 13 3e e6 1a 9d bd
       0.040810674 0.043917947 0.14367637 -0.07671146
0001e0 9f fb 6d 3d 90 07 7d 3d 47 53 10 be 5b 80 24 bd
       0.058101293 0.06177479 -0.14094268 -0.04016147
0001f0 e2 ee e4 bd 1f d0 ac bd 58 15 03 be 0b 1b 05 3e
       -0.11178376 -0.084381334 -0.1280111 0.12998597
000200 44 2c 17 bd 69 84 55 3c da f7 c2 3d ed cb b6 bd
       -0.03690745 0.013032057 0.0951993 -0.089256145
000210 4c 39 ac bd d7 04 d3 bd cf eb 11 3b a8 3e 80 3c
       -0.08409366 -0.103036575 0.0022265797 0.015654877
000220 c0 a2 cd bd 7a 28 b3 3d 28 15 48 bd d4 28 4f 3d
       -0.10040808 0.08747955 -0.0488483 0.050576046
000230 da 28 57 3d 8c 5c b2 bd b5 b3 80 be 9c d9 b3 bd
       0.052529193 -0.08709058 -0.25137106 -0.0878174
000240 18 39 10 be 3f 75 d1 bd e8 03 9b 3d f5 5f 0e 3c
       -0.1408428 -0.10227441 0.075691044 0.00868987
000250 78 c6 6a bd b8 06 c3 3d b7 90 d8 bd e6 09 15 bd
       -0.05731818 0.09522766 -0.10574477 -0.036386393
000260 df fb 71 bc 9c 03 07 3e 14 6a 87 bd dd 12 44 3e
       -0.014769523 0.1318497 -0.0661203 0.19147821
000270 ca aa c1 bd 6d 94 40 bc 76 40 a0 bd 44 0e 02 3e
       -0.094564036 -0.011754137 -0.07824795 0.12700754
000280 ee e8 bb 3c bf 55 3a be 0a 04 02 3d 84 73 0c 3d
       0.022938218 -0.18196772 0.031742133 0.03428985
000290 ae c4 93 bd b1 00 8c 3d 06 76 ac 3d 53 11 87 bc
       -0.07215248 0.068360694 0.08420949 -0.016487753
0002a0 51 6e 1e be 5f db 2d bd c7 f4 3e bd 40 06 93 3d
       -0.1547177 -0.042445537 -0.046620157 0.071789265
0002b0 99 40 24 3c a2 f2 c2 bc 68 ca 7d 3d 5a 63 b0 3c
       0.010025167 -0.023797337 0.061960608 0.02153175
0002c0 a8 3b 5f bd e1 25 75 bd cd 88 a9 3d ec 2c 8d 3d
       -0.054500252 -0.059850577 0.08278046 0.06893334
0002d0 0a 2b 80 bd dc bd 01 3e fa 1e 56 3e 94 29 00 bd
       -0.06258209 0.12670082 0.20910254 -0.031289652
0002e0 b0 f1 99 bd 11 ca 08 3d 3a 7e 05 3d b0 23 19 3e
       -0.07516801 0.03339583 0.032591082 0.1495502
0002f0 f1 4b be 3c cf 6f c4 bc 2e 8d 15 3d 50 2d 84 bd
       0.023229571 -0.023979096 0.036511593 -0.06453955
000300 af 71 00 3e e4 c1 84 3d 04 ef c2 3d 90 4c 9f bd
       0.12543367 0.06482294 0.09518245 -0.07778275
000310 fe a0 80 3d e6 6c 26 be bc ea 9b bd 37 ff ee 3d
       0.06280707 -0.16252479 -0.076131314 0.11669772
000320 e5 22 92 bb ae 48 47 3d fb 0c ee bd 60 aa 21 bd
       -0.004459726 0.048653297 -0.116235696 -0.039469123
000330 2f e7 b2 3d fd 8a 85 3d 27 0b 16 be bd e1 0e 3e
       0.08735501 0.065206505 -0.14652692 0.139533
000340 b6 8f 43 bc e3 af 80 3d 8c 78 33 3c 34 07 6a 3a
       -0.011936119 0.06283548 0.010954034 0.0008927465
000350 05 6d 2c 3d c2 39 2e 3c 89 4c af bd 41 72 71 bd
       0.042096157 0.010633888 -0.0855952 -0.05894685
000360 c7 86 4b 3d f0 d7 a8 3d 34 0a f0 3c 34 0f f0 bb
       0.04968908 0.08244312 0.02930174 -0.007326031
000370 e5 b0 45 be 64 08 3a bd 10 32 8b bc d5 c7 86 3d
       -0.19305761 -0.04541816 -0.016991645 0.06581084
000380 c6 56 c9 3d 54 50 48 3c ce 19 83 bd e9 76 9b bd
       0.09831004 0.012226183 -0.06401406 -0.0759104
000390 a2 09 5d 3d 4c 75 aa 3b 41 db ea 3d 54 e8 e9 3c
       0.053964265 0.005201971 0.114676006 0.028553165
0003a0 30 55 cd bd fe 48 2e 3e dc 62 d0 bc 47 19 25 bd
       -0.10026014 0.17020032 -0.025437765 -0.04030731
0003b0 a9 b6 b7 3d 82 a6 57 3c 2c bc e2 bd bc 3e 8b bd
       0.089703865 0.013162257 -0.11071047 -0.06799075
0003c0 8a a1 a4 bc c8 f1 d1 bc 1c ea a5 3d 31 1b f3 bd
       -0.02009656 -0.025627986 0.081012934 -0.11870421
0003d0 76 36 9d bd 18 3e d0 3d 28 d9 41 bd ed 90 4d bd
       -0.07676403 0.101680934 -0.047326237 -0.05018704
0003e0 5a 34 e8 bc c9 63 45 3d 36 43 39 3d a7 65 0f bd
       -0.028345276 0.048190866 0.045230113 -0.035009053
0003f0 75 09 fe 3c cb d0 9a 3d 98 68 6a 3d b5 a3 82 bd
       0.031010369 0.07559355 0.057228655 -0.06378881

rnn.bias_ih_l0 f4 [256]
000000 9c 4c ca 3d 42 97 15 3d a2 72 56 bd d8 54 19 bd
       0.09877893 0.036521204 -0.052355416 -0.03743443
000010 85 3d 74 3d aa b8 27 3c 1b 8d 55 bd 0e a7 13 3e
       0.059628982 0.010236898 -0.05213652 0.14419195
000020 7f 98 29 3e 14 8e 71 bd 92 39 63 3d 15 7c 37 bd
       0.16562079 -0.058973387 0.055474825 -0.04479607
000030 5d 9b f2 3d 26 c2 27 3d 0c 6e b5 3d 70 c2 c6 bd
       0.118460394 0.04095664 0.088588804 -0.09705055
000040 95 15 b6 3d 22 51 c1 bd 44 c1 e7 3b 64 bb ea 3d
       0.08890835 -0.09439303 0.0070725996 0.11461523
000050 59 c2 11 3e 7c 2a 9c bd d7 f2 8e bd 0e 13 d0 bb
       0.14234294 -0.07625291 -0.06979912 -0.0063499277
000060 cd 91 7e bd b7 d9 94 3d ff 80 30 bc 49 03 42 bc
       -0.062150765 0.07268088 -0.010772943 -0.011841604
000070 c5 c1 38 3d ca 32 02 3e 43 03 f4 bc c6 7a 7b 3d
       0.045106668 0.12714687 -0.029786712 0.061396383
000080 71 12 34 3d 06 9f d3 3d 89 f4 1f 3e 83 9b 06 bd
       0.0439629 0.10333066 0.15620627 -0.03286315
000090 90 cb a6 3d eb ad 27 bc 2c 7d 6c bd 5d 0e 97 bc
       0.08144295 -0.010234336 -0.05773656 -0.018439466
0000a0 18 78 66 3e 4e b9 df 3d 5f fd 0d 3e ff e8 cb bd
       0.2250675 0.10924016 0.13866185 -0.0995655
0000b0 15 27 d5 3d 17 ff 77 3c 41 38 56 bd 9a 52 a2 bd
       0.10407845 0.015136502 -0.05229974 -0.07925911
0000c0 41 fa d3 3d 07 5f 3a bd d4 ce f2 3d 0b b8 49 3d
       0.103504665 -0.04550078 0.118558556 0.049247783
0000d0 40 3a 22 be f6 5c ba bc fe 00 c2 3d 0c 77 d3 bd
       -0.15842533 -0.022749405 0.094728455 -0.10325441
0000e0 6f 5b 99 3d 12 03 b8 3d c7 80 64 3e cc 85 65 bd
       0.07488143 0.089849606 0.2231475 -0.0560358
0000f0 d9 3c 64 3e 5f 86 7f 3d 03 f2 2e bc f5 7f bd 3c
       0.22288837 0.062384006 -0.010677817 0.023132304
000100 07 d4 da bb 0d 29 64 bc 16 6b 8a 3d 58 12 2a ba
       -0.0066781077 -0.013925803 0.06758706 -0.0006487719
000110 6d e7 88 3d 1f 07 0e bd 6a 69 97 bb 5a 77 32 3d
       0.06684766 -0.03467476 -0.0046207206 0.043570854
000120 34 00 de 3c d4 98 be bd 62 37 4c bd 54 b1 fd bd
       0.027099706 -0.093064934 -0.049857505 -0.12387338
000130 a2 86 05 3c e8 01 78 bd a5 cf 86 bd e8 49 a5 3d
       0.008149775 -0.060548693 -0.06582574 0.08070737
000140 26 f6 cd bb 6e e5 25 bd 60 6e 38 3d 44 b0 df 3d
       -0.0062854467 -0.040502004 0.045027137 0.10922292
000150 16 c5 b6 bd fa 12 10 3d 35 90 db bd 01 2d 9d 3d
       -0.0892431 0.035174347 -0.10720865 0.076745994
000160 16 c3 17 3c 92 11 01 3e 98 f6 1e be 79 24 44 3a
       0.009262821 0.12604359 -0.15523756 0.00074822415
000170 56 27 a5 3d bf e4 6b bd 8b 15 bb bc 94 a2 cd bc
       0.08064143 -0.057591196 -0.02283742 -0.025101937
000180 f5 ef b2 3b f7 0b 03 3e cf 01 2e bd ab 23 db bd
       0.005460734 0.12797533 -0.042482194 -0.107001625
000190 73 db 23 be 12 ce ce 3c c4 24 34 3d f4 27 a6 bc
       -0.16001682 0.025244746 0.043980375 -0.020282723
0001a0 27 ff 0d 3d b7 37 48 bc 89 ab 99 3d a7 b7 b6 3c
       0.03466716 -0.012220315 0.07503421 0.02230437
0001b0 6e 18 b1 3c 98 a6 ea bc 05 ee 84 bd 0e bf 9d 3d
       0.021618094 -0.028643891 -0.06490711 0.077024564
0001c0 df a5 0b 3e 29 0f 2b bc 47 e5 fa 3d d7 b0 71 3d
       0.13637494 -0.010440626 0.122507624 0.05900654
0001d0 e3 a7 e6 3c cb 83 b8 bc 01 34 82 bd 40 29 80 3d
       0.028156227 -0.022523781 -0.06357575 0.06257868
0001e0 7d 09 4e bc 08 22 87 3a 64 ce a3 bd 4b 82 73 3d
       -0.012575504 0.0010309825 -0.0799835 0.05945043
0001f0 b5 b5 b6 3d 0c 75 fc 3d b2 20 0d bd 11 6b f9 3b
       0.089213766 0.123270124 -0.03445501 0.0076116403
000200 cf 16 d6 bc 04 ef 9a 3b 4e 3d 0a bd 1b 15 9c bd
       -0.026133923 0.0047282 -0.03374987 -0.07621213
000210 d6 38 19 bd 75 29 0f bd e5 da 8c bd 4c bd 18 3b
       -0.03740772 -0.034951646 -0.06877688 0.002330619
000220 1b 25 d3 3d 59 50 a1 3d 14 30 23 bd 73 c3 84 3d
       0.10309812 0.07876653 -0.039840773 0.064825915
000230 ee a1 74 3c 47 bc a4 bd eb c2 73 bd 11 2d 8b 3d
       0.014931185 -0.080437236 -0.05951206 0.06795705
000240 f8 14 54 bc ca 29 28 bd 91 69 9b bd 1d 15 3b bd
       -0.012944452 -0.04105548 -0.075884946 -0.045674432
000250 2c 32 c7 3a 43 8f 2f bd 2d b2 b9 bb bd 6e 95 bd
       0.0015197448 -0.042861234 -0.005666992 -0.07296512
000260 c8 fd d1 bd 36 f7 a9 bc af 0a 62 3c 97 2c 36 3d
       -0.10253483 -0.020747762 0.0137964925 0.044476118
000270 1e a5 fc bc 17 97 e5 3a b1 8b 9f bd 0a 66 00 be
       -0.030840453 0.0017516342 -0.07790316 -0.12538925
000280 85 25 cd 3c 59 24 c9 3c a5 dc da 3d ac 9c f8 3c
       0.025042305 0.024553465 0.10686616 0.030348144
000290 81 1a f5 bd f7 18 b9 bd e8 c9 6f 3d 5b 5f a6 3c
       -0.11967946 -0.09037965 0.058542162 0.02030914
0002a0 13 d8 05 bb d9 54 36 3d 27 0a c0 3d c1 af 6b 3d
       -0.002042298 0.04451451 0.093769364 0.05754066
0002b0 66 b2 8e bd ce 5d b6 bd 94 e5 0c bd cb d8 cc 3d
       -0.069676206 -0.089046106 -0.03439863 0.100022875
0002c0 cd b4 de bd 13 b8 97 bd e8 e1 a8 bd f4 12 60 3c
       -0.10874329 -0.07408156 -0.08246213 0.013676394
0002d0 9e cf 09 be 87 3a fc bd bc f7 00 3e a9 77 ee bd
       -0.13458106 -0.12315851 0.12594503 -0.11643917
0002e0 44 a5 65 3d 1c 64 1a 3c 1b e3 cd 3c 15 a6 c0 bd
       0.056065813 0.009423282 0.025132706 -0.09406678
0002f0 65 2c 10 bd 27 d8 9d 3d a9 76 0b 3d cc 34 96 bd
       -0.035198588 0.077072434 0.03404871 -0.07334289
000300 ad af 7e bc 91 dc 8d 3d d9 24 bb 3d 19 ff c3 3d
       -0.015544814 0.06926835 0.091378875 0.095701404
000310 ee 9d d4 bb a3 58 08 be e2 10 69 3d f8 1e 18 3e
       -0.0064885532 -0.13315062 0.056900866 0.14855564
000320 e5 c9 09 3b 33 a3 64 bd 04 b6 64 3c 49 97 90 3c
       0.002102488 -0.0558197 0.0139594115 0.017650263
000330 b7 5c 45 3c af b3 01 3e 5d ec 09 3e 84 96 d4 bd
       0.012046031 0.126662 0.13469072 -0.10380271
000340 a7 0c 29 3b 79 21 e3 bc cb 51 82 bb c4 2f af 3d
       0.0025794895 -0.027725922 -0.0039770356 0.085540324
000350 a4 7c ed bc 7e bb 19 3e a7 b4 e5 3d 96 a4 b3 3d
       -0.028990097 0.15012929 0.11216097 0.08771627
000360 28 c9 b0 bd 06 4a d1 3d 1b ad 4a 3d 51 63 c6 bd
       -0.086321175 0.10219197 0.049481492 -0.09686912
000370 f7 de b7 3d 53 b5 0f 3d 97 e7 89 bd a2 56 5b 3c
       0.08978074 0.035085034 -0.067336254 0.013387354
000380 de 6e 10 3e 3c 3b 4a 3d 9d 30 f2 3c 12 b5 cf 3d
       0.14104792 0.049372897 0.029564196 0.10141958
000390 ab d2 95 3c b9 9c e5 bc ce 4e 22 3d 46 63 9e 3c
       0.01828893 -0.028028833 0.039625935 0.019334447
0003a0 58 a2 01 3e 2d 8e d6 bc de ff 4f 3e 6f 3b 76 3c
       0.12659585 -0.026190842 0.2031245 0.0150288185
0003b0 b1 e9 00 3e 86 41 05 3e 18 d3 b1 3c d4 32 a7 3c
       0.12589146 0.13013276 0.021707103 0.020409979
0003c0 12 c0 dc 3d 1f 81 fe bc 94 95 49 bc 2a d3 87 3c
       0.10778822 -0.03106743 -0.012303729 0.016580183
0003d0 68 d8 ee bd f4 6b 7a bd 41 0f aa 3c 59 12 05 3b
       -0.1166237 -0.06113811 0.020759227 0.0020305126
0003e0 02 3b 2c bd 62 f5 f6 bc dd 13 b2 3d 5c a0 b9 bd
       -0.04204846 -0.030146305 0.08695195 -0.09063789
0003f0 0d 30 92 3e fa ee 2b bc f9 ed 0f be 6d e7 22 3c
       0.28552285 -0.010493988 -0.14055623 0.0099428715

rnn.bias_hh_l0 f4 [256]
000000 75 75 73 bd 9d 96 b4 bd 59 7e d2 bc 36 da 04 bd
       -0.059438188 -0.0881779 -0.025695013 -0.032434665
000010 f5 29 85 bc 77 8e 52 bc 6f b9 5a bd 34 15 8d 3d
       -0.016255358 -0.012851349 -0.0533995 0.0688881
000020 a9 57 30 bd 0e ce ce bd 09 2f 57 bc 10 51 51 3c
       -0.04305235 -0.100978956 -0.013133773 0.012775674
000030 40 2b b9 3c 3a f7 6d 3d 1e a3 bf 3d 32 58 e3 bd
       0.022603631 0.0580971 0.09357284 -0.11100806
000040 27 dc c6 3c 50 02 a6 bd 18 1e ad bd 9a 90 df 3d
       0.024274899 -0.0810591 -0.084530056 0.109162524
000050 71 1e 03 3e 6e b7 9c bd 05 d6 e0 bd b0 a3 ba bd
       0.12804581 -0.07652174 -0.10978321 -0.09113252
000060 c6 9f 63 3d ae 52 80 3d 58 49 0d 3a 0c 96 b8 bd
       0.055572294 0.0626577 0.0005389652 -0.09012994
000070 e5 0f a4 3c c0 db a9 3c ac aa e7 3c 8c 05 09 3e
       0.02002711 0.020734668 0.028279625 0.13381022
000080 c7 93 3b 3e d5 1b 0f 3c 01 19 a8 bc 8b dd c8 3b
       0.18318091 0.008734663 -0.020519735 0.0061299256
000090 68 b5 7d 3d 4f a9 1d be f8 9e a6 3d 66 99 90 3d
       0.06194058 -0.15396617 0.0813579 0.070605084
0000a0 66 86 4e 3e 9f 52 12 3e e3 5c be 3d 02 45 63 bc
       0.20168456 0.1428933 0.092950605 -0.013871433
0000b0 94 64 08 3e 56 2e 47 bd 6a 22 eb 3d 14 89 b6 3d
       0.13319618 -0.048628174 0.11481173 0.08912864
0000c0 4e ba 4d 3d 3b 25 0d 3d 3c a3 25 3d a3 cd d2 bd
       0.050226502 0.034459334 0.040438876 -0.10293128
0000d0 ef c9 47 bd 0f 50 fa 3d 5a 24 d0 3d 72 3c 9e 3d
       -0.048776563 0.12222301 0.101631835 0.07726373
0000e0 92 e9 17 be 58 04 5c bd 43 2a d7 3d d8 bc 20 3d
       -0.14835194 -0.05371508 0.10506108 0.039242595
0000f0 c7 7d 82 3e 21 24 20 3e 36 9c 94 3c f4 68 47 3d
       0.25486585 0.15638782 0.018140893 0.048684075
000100 9a b3 e1 bd 97 f5 a8 bd fa 42 b5 bb 89 8e e9 bd
       -0.110205844 -0.082499675 -0.005531666 -0.114041395
000110 ba 71 10 be a9 8a 80 3c 35 f1 b2 bd ce 65 b7 bc
       -0.14105883 0.015691118 -0.08737413 -0.022387411
000120 31 3f 42 3d 61 d1 9f 3c d7 7b 83 3d 3b 9e d9 bd
       0.047423545 0.01950902 0.06420105 -0.10625883
000130 d3 8a ec bc 10 d8 95 bd 22 f8 9d bd 46 07 08 bd
       -0.02887479 -0.07316601 -0.07713343 -0.03321006
000140 97 03 dc 3d 2e d0 52 3d ed e1 8b 3c f6 84 c8 3d
       0.10742872 0.051468067 0.017075503 0.09790985
000150 26 98 d3 3d f5 04 ae 3d 20 95 b7 3b c9 65 0a be
       0.103317544 0.08497039 0.005602494 -0.1351539
000160 dc a7 74 bd 3c 18 7c 3d 3e dc 52 bd c2 0a 3e bd
       -0.059730396 0.06154655 -0.05147957 -0.04639698
000170 0a 36 a5 3d 7a 01 e3 bc ff c0 a5 3b 1d c4 d5 3d
       0.08066948 -0.027710665 0.0050584073 0.10437796
000180 06 06 3d bd 2b b8 a3 3d 2f c2 f3 bd 25 59 d5 bd
       -0.046148323 0.079941116 -0.11902272 -0.104173936
000190 a2 ab fc bd 42 34 bf bd 0e 54 9a 3c f2 2a 92 bc
       -0.12337424 -0.09336139 0.018838909 -0.017842744
0001a0 50 22 66 3d 76 6c a8 3d 2b c9 02 3e 4b 10 3f 3d
       0.056185067 0.08223812 0.12772052 0.046646398
0001b0 e7 f0 38 be 83 04 c5 bd 89 68 e1 3d dc 72 95 3d
       -0.18060647 -0.09620001 0.110062666 0.07297298
0001c0 8a 63 ab 3d 1e 52 f1 3d ba f7 ff 3c 73 48 a4 bc
       0.08368595 0.11783241 0.031246055 -0.020054078
0001d0 ec 85 4a bd 9e 14 23 3d 7c b2 79 bd c6 d3 36 bd
       -0.049444124 0.039814584 -0.06096123 -0.044635557
0001e0 36 46 e1 bd ae 13 8e 3d c4 08 8b bd 88 10 cd 3c
       -0.1099972 0.06937347 -0.06788781 0.025032297
0001f0 77 b8 98 bd 6b 41 00 3d 6c f2 b7 bd 74 fb c5 bd
       -0.07457059 0.031312387 -0.08981785 -0.096671015
000200 6c b4 bf bd 70 83 8c 3d d8 8b 0c bc bd 8d ca 3d
       -0.093605846 0.06861007 -0.008578263 0.09890316
000210 90 a6 90 3c 7d d6 a1 bd 18 14 57 3d 7d 81 10 bd
       0.017657548 -0.079022385 0.052509397 -0.03527974
000220 a1 61 dd bd b6 5a 5a bb 0f 85 0a 3e 47 0b c0 3d
       -0.10809637 -0.0033318228 0.1352732 0.09377151
000230 04 eb fd bd 4d 03 91 bd e9 81 5b 3c 63 6f 26 bc
       -0.12398341 -0.07080708 0.013397672 -0.010158393
000240 08 eb 8b bd 9d e9 9f 39 cc 2d 60 bd 56 28 94 3d
       -0.06831938 0.000305009 -0.054731175 0.07234256
000250 45 a2 fd bc 6d 89 5c 3d 6d c4 cc bd 95 f1 c6 3d
       -0.030961165 0.053841997 -0.09998403 0.09714047
000260 d0 ea 87 bd 42 dd 13 bd 5f 77 c9 bc 44 1a c5 bd
       -0.06636584 -0.03609968 -0.024593053 -0.096241504
000270 1c d9 9f bd 2f ee ab bd 61 3f b0 3d 9c 45 fb 3c
       -0.07805082 -0.08395039 0.086058386 0.03067284
000280 f3 aa 04 3b 35 81 62 bc 7d ce f6 3d 6a c3 ad 3d
       0.0020243495 -0.013824751 0.12051103 0.08484538
000290 a9 9b af bd f3 06 78 3d 71 4b be bc a3 b7 e4 bc
       -0.08574612 0.060553502 -0.023229333 -0.027919596
0002a0 46 cd c4 bd c7 40 11 3d eb 4d a6 bd bc e5 5d bc
       -0.09609465 0.035462167 -0.081203304 -0.0135435425
0002b0 6a af c7 3d 87 57 0f 3e 1b 30 d4 3b 33 80 0f bd
       0.097502545 0.13998233 0.006475461 -0.03503437
0002c0 f2 3f e8 bc d9 a2 85 bd 98 8e 1c 3d 53 db 6c 3d
       -0.028350804 -0.06525201 0.038221925 0.05782635
0002d0 f9 c4 67 bc a1 51 9a 3d cc ce cf bd ed 79 0d be
       -0.014146083 0.07535101 -0.10146865 -0.13816042
0002e0 9a db 4c bd 48 16 14 3d 45 a1 95 bd a3 1d c5 3d
       -0.050014116 0.03615406 -0.0730615 0.096247934
0002f0 59 72 b9 bc b2 34 5a bd a3 7b a7 3d 40 14 ba 3d
       -0.022637533 -0.05327291 0.08177879 0.09085894
000300 36 88 92 bd 26 a3 5b 3c 53 a3 d6 3d c9 c0 f8 3d
       -0.071548864 0.013405597 0.104803704 0.12146146
000310 92 96 c4 bb 89 8d 82 bc d7 3f 04 3e ec 4c 51 bd
       -0.0059993947 -0.01593663 0.12914978 -0.05109875
000320 3e a8 d4 3c 54 24 94 3c c7 8b 69 3c 59 27 be bd
       0.02595913 0.018083729 0.014254517 -0.09284849
000330 cb 67 6d 3d 7a bd 97 bd f9 69 52 3e b5 57 28 3d
       0.057960313 -0.07409187 0.20548238 0.04109927
000340 45 99 42 3e e8 74 74 bd 31 d4 93 bd 67 cc 6e bc
       0.1900378 -0.059681803 -0.07218207 -0.0145751005
000350 e0 b4 fe 3d 7f 58 09 3d 5b cd b4 3d 25 de e5 bc
       0.12436843 0.033531662 0.08828231 -0.028060028
000360 c2 b6 20 bd 0a 2d b4 3d 2d b6 54 3d 7e 91 15 be
       -0.03923679 0.08797653 0.05193155 -0.14606282
000370 42 6f 82 bd f7 6b 3c bd f4 82 54 bd ea 32 21 3c
       -0.06368877 -0.0460014 -0.0518827 0.009838799
000380 7c 70 d8 3d 64 ca c9 3d 0e fb fe 3d d8 72 9e 3d
       0.1056833 0.09853056 0.12450229 0.077367485
000390 3d d6 ad 3d 7e 14 75 bd a7 fe 9b 3d 59 6d b2 3d
       0.08488128 -0.059833996 0.076169305 0.08712263
0003a0 cd ad 15 3e 25 aa d9 3d a4 4f 0a 3e e9 0b 20 bd
       0.14617081 0.106281556 0.13506943 -0.03907386
0003b0 a7 61 1c 3e 49 2e 6f bd 2f 4a ca bd ec 50 aa 3c
       0.15271626 -0.05839375 -0.09877431 0.02079054
0003c0 c0 08 02 be 44 66 1a bd 8e 9d 58 3c 9e ac a7 3d
       -0.1269865 -0.037695184 0.013221158 0.08187221
0003d0 c8 37 ba 3c ff b2 c5 bd fd 1a f8 3d c1 63 d4 bc
       0.022731677 -0.096532814 0.121145226 -0.025926473
0003e0 44 6c f0 bc a1 13 ad 3d 7f 91 52 3e b2 a2 a7 3c
       -0.0293485 0.084510095 0.20563315 0.020463321
0003f0 d4 78 6e 3e 8a f8 20 3e 1d 29 85 bd b9 fc fe bd
       0.2328828 0.1571981 -0.06501982 -0.12450547

rnn.weight_ih_l1 f4 [256, 64]
000000 1b 25 24 3d 15 1b e4 bc 65 c4 44 be a1 9f 76 3d
       0.04007445 -0.027844945 -0.19215544 0.060210828
000010 e4 43 2f be d9 7f 88 3d 3d e6 19 be 3f dc 65 bd
       -0.17115742 0.0666501 -0.15029235 -0.056118246
000020 a6 78 26 bd d4 26 b2 3a 73 35 fb bd 39 ed b4 3d
       -0.040642403 0.0013591894 -0.12266054 0.08834309
000030 bc d5 9a 3d 21 6e 08 bd 73 5b 73 bd aa fe 13 3e
       0.07560298 -0.033308152 -0.059413385 0.14452615
000040 8a 49 20 3e ad 0e 60 be c4 12 8d bd 99 19 81 3d
       0.15653053 -0.21880598 -0.06888345 0.063037105
000050 8f f0 1c 3d e7 d9 9f 3d 63 db 99 3d 3b cf 32 be
       0.038315352 0.078052334 0.07512548 -0.17461865
000060 40 4c f8 3d b1 6c 3d 3d 3b 26 32 3e 3f 67 d7 3c
       0.121239185 0.046246234 0.17397396 0.026294349
000070 3f d1 1b be 14 f8 11 be 58 d7 1d bd 61 d6 0b 3d
       -0.1521654 -0.1425479 -0.038535446 0.034139995
000080 31 72 dd 3d 9f 6f 47 3e cb 50 4b 3d fc d0 98 3d
       0.10812796 0.19476174 0.049637597 0.074617356
000090 f8 0a ff 3d d8 39 a8 bc 23 26 14 bc ca 39 fa 3d
       0.12453264 -0.020535395 -0.009042296 0.12218054
0000a0 ba 64 80 be 91 f2 5c bc 41 15 84 be 83 c1 3e 3d
       -0.25076848 -0.013485567 -0.25797465 0.046571266
0000b0 e7 b2 b7 bd c9 8a a1 3d c2 6c 0a bd f8 8d 3e 3b
       -0.0896967 0.07887799 -0.033795126 0.002907632
0000c0 46 c4 55 3c dc c4 ca 3b 78 66 d3 3c bc 55 af bc
       0.0130472835 0.0061880182 0.025805697 -0.021403186
0000d0 58 b1 23 3e f8 fe c6 3d 3b 03 08 3e a0 19 92 bd
       0.1598562 0.097166 0.13282482 -0.07133794
0000e0 ca a3 b8 3d dc a3 c7 3a 36 92 ec bb 1e 74 37 bd
       0.09015615 0.0015231329 -0.007219578 -0.044788472
0000f0 e3 a0 8d be f4 d5 30 be 45 49 e6 3d 00 05 70 bd
       -0.2766181 -0.17269117 0.11244444 -0.05859852
000100 c0 6b 63 3d 9e 12 83 bc 54 be dd bd 52 1f ca bd
       0.05552268 -0.016000088 -0.10827318 -0.09869255
000110 48 bf 60 be e5 ab 29 be ab 08 f6 bc 6c 66 00 3d
       -0.21947968 -0.16569479 -0.03003343 0.031347677
000120 0e f3 e5 3d 4c 15 3d 3d 41 b9 fc bd a6 33 73 3d
       0.11228 0.04616289 -0.12340022 0.059375428
000130 0a 83 6a be 09 45 c0 bd 20 67 9e 3e 56 64 cd 3b
       -0.2290155 -0.093881674 0.30938053 0.0062680645
000140 cc 75 54 3d ea 40 41 be b8 a0 90 be 36 7d 9d bd
       0.051870152 -0.18872419 -0.2824762 -0.07689898
000150 bc 39 33 3e 78 9c f5 3c ba 71 5b 3e 0c df 28 be
       0.17502493 0.029981837 0.21430102 -0.16491336
000160 41 2a 85 be fb 81 52 bd 9b 50 49 3d 0c f9 4c 3c
       -0.260088 -0.05139349 0.049149137 0.012510549
000170 ec 9e 5a bd 0c 2a 85 be 7f 02 d4 bd 43 5b a1 3d
       -0.053374216 -0.26008642 -0.103520386 0.07878735
000180 f2 51 78 bd d4 3e 64 3d 80 bc ba 3e 2a 03 28 be
       -0.060625024 0.05572398 0.3647194 -0.16407457
000190 2f 57 3c be 64 1b 0b 3e d2 e7 17 3e d3 6d 23 3e
       -0.18392633 0.13584667 0.14834526 0.15959863
0001a0 f6 33 05 be 42 7e 9c bd 23 ff 59 be 93 f8 bc bc
       -0.13008103 -0.07641269 -0.21288733 -0.023067748
0001b0 f8 21 9a be d5 f7 26 be 67 19 80 bd 6a d8 33 be
       -0.3010404 -0.16305478 -0.06254845 -0.17563024
0001c0 01 62 ba bd 24 88 e3 bd a9 9b 2d 3e 74 de 46 be
       -0.09100724 -0.11109951 0.16953911 -0.19420797
0001d0 04 56 c7 3d 90 d9 0f be 20 d8 85 be 6d 25 8a bd
       0.09733203 -0.14047837 -0.26141453 -0.0674542
0001e0 27 e5 64 bd 0d 4d 88 3e 87 fd ad be b0 0f f8 bc
       -0.0558826 0.26621285 -0.3398249 -0.030280918
0001f0 e7 03 23 bd e4 bf 96 bd 49 ce 05 3e 63 34 1c be
       -0.039798643 -0.07360819 0.13066973 -0.15254359
000200 27 05 7c bd 1f 22 00 bd 2f f6 2e bd cf bf 85 bd
       -0.06152835 -0.03128254 -0.042715248 -0.06530725
000210 17 35 33 bb 7b 73 a8 3c ab 93 9c 3d 61 9f 5f bd
       -0.0027344876 0.020562878 0.07645353 -0.054595355
000220 cc 77 2c be 9c db e5 3d 47 9a 7f 3d f5 7c 0b bd
       -0.16842574 0.11223528 0.06240299 -0.034054715
000230 b0 9a 36 be a8 52 47 bd 70 2c 7e 3e 2d 39 f6 bd
       -0.17832446 -0.04866281 0.24821639 -0.12022624
000240 24 05 57 3c 35 3d 6a bd 6d 0e 5b bd d0 80 54 3e
       0.013123784 -0.057187278 -0.053480554 0.20752263
000250 53 7c 5f 3d f9 0c a0 3d 5f b8 40 3c 6a 8e 05 be
       0.054561924 0.07814974 0.0117627075 -0.13042608
000260 3d a0 78 3d 7b 1c 07 3e de 32 d6 bd 57 d2 7c bc
       0.06069969 0.13194458 -0.10458921 -0.015431008
000270 cf 97 86 3c 6c 63 9c 3d a3 65 a1 bd 0f c0 86 bd
       0.01642981 0.07636151 -0.07880714 -0.06579601
000280 3c 7b e7 3d 4a 23 c1 bc 29 c6 50 3e 9d f6 2a 3c
       0.11302802 -0.023576397 0.20388092 0.010434774
000290 9a 09 b6 bd 7b 0c ae 3c de 7c df 3d 22 51 7f 3e
       -0.0888855 0.021246186 0.109124884 0.24933293
0002a0 08 3e f9 3d 2c d8 8d 3c ac f8 b2 bd fd df 63 bd
       0.12170035 0.017314993 -0.08738837 -0.055633534
0002b0 6a a3 92 bd 5d 48 32 3d a6 f9 d7 bc 43 fb 6a 3c
       -0.07160075 0.043526042 -0.026364159 0.014342132
0002c0 12 a5 99 3d dc ab 54 be 70 09 53 b8 0a 02 26 3b
       0.07502188 -0.20768684 -5.031511e-05 0.0025330805
0002d0 09 d6 7c 3d 57 4e ba bd 42 f3 a6 be 39 45 76 bd
       0.061727557 -0.090969734 -0.32607466 -0.06012461
0002e0 f7 41 16 be 35 4b c1 bc bd c4 71 3d 5a 4b 67 3d
       -0.14673601 -0.023595432 0.059025515 0.056468345
0002f0 fd 1a bf 3e 72 4f 70 bd c7 63 3b bd 78 3d 70 3d
       0.37325278 -0.058669515 -0.045749452 0.05865237
000300 b5 4c f5 bd 05 d0 e3 3d f0 39 a8 bc 03 e6 3b bd
       -0.11977521 0.11123661 -0.02053544 -0.045873653
000310 7d 38 d3 bd 6e f9 69 3d e5 45 7b 3d 9f 66 c9 3c
       -0.10313509 0.05712264 0.061345953 0.024585066
000320 d3 9f d2 3c 33 e2 80 bd cf 1e 91 bd d9 85 9b 3d
       0.025710976 -0.06293144 -0.070859544 0.07593889
000330 54 10 26 be e9 bf 9b 3d 9b 40 b0 bc 30 46 7d bc
       -0.16217166 0.07604963 -0.021515181 -0.015458629
000340 15 9c 5b bd 90 dc 5f 3d 2c 6e 99 3d c7 e8 e3 3d
       -0.05361565 0.054653704 0.07491717 0.11128383
000350 49 2a 0b 3e a4 0f 66 bd d0 9e aa 3c ad fd fc bd
       0.1359035 -0.05616726 0.02082768 -0.12353072
000360 e6 3a 12 3e 5d e1 89 bc b2 bc 85 3d 96 39 96 bd
       0.1428028 -0.016831094 0.065301314 -0.073352024
000370 29 00 4e 3d b4 0b a9 bd 49 e7 5b bd 43 cf 44 bd
       0.05029312 -0.08254185 -0.053687368 -0.048049223
000380 b6 c1 1e 3e cb bd 83 3d 1f 07 ba bd 97 05 7c 3c
       0.15503582 0.064326845 -0.090833895 0.015382192
000390 3f 49 67 3d e2 44 23 3d 67 20 d5 3c ba 79 90 bd
       0.056466337 0.039860614 0.026016427 -0.070544675
0003a0 87 f9 8c 3d eb 59 70 bd d1 20 62 3d 4e 92 28 bd
       0.06883531 -0.058679502 0.055207077 -0.041155152
0003b0 8e bd 12 3d 8d 02 e5 3d df ba ed bd ec b8 99 bd
       0.035825305 0.11182127 -0.116079085 -0.07505974
0003c0 a6 75 f8 bd f4 54 71 3d fb fb c1 3c 59 30 4c 3b
       -0.12131815 0.05891891 0.023679724 0.0031156747
0003d0 03 50 af bd e3 9e 0c bd b8 10 a3 bd 37 9d 0e bd
       -0.08560183 -0.034331214 -0.07962173 -0.0348179
0003e0 c3 28 6b bd 7e d6 12 3e 73 ac 9d bd ba 4c 26 bc
       -0.05741192 0.14339635 -0.07698908 -0.010150129
0003f0 bf c5 da 3d 59 01 9f bd 2c 1b 3d bc 72 91 16 bd
       0.10682248 -0.07763929 -0.011542123 -0.0367598

rnn.weight_hh_l1 f4 [256, 64]
000000 ce 8a 4e 3d c7 d5 0f 3e 15 78 7c 3b 02 29 45 3d
       0.050425343 0.14046393 0.0038523723 0.04813481
000010 96 5c b4 3d 71 72 31 bb 23 6b fb bd e2 b4 ff 3d
       0.08806722 -0.002707627 -0.12276294 0.124856725
000020 7f 31 bf bd e5 e6 2d bc 86 a7 06 be e7 7b 92 3d
       -0.093356125 -0.010614132 -0.13149843 0.07152539
000030 80 d1 52 bd ca 04 95 bd 37 34 58 be b3 5c 9d bd
       -0.051469326 -0.07276304 -0.21113668 -0.076836966
000040 c7 0b f0 3d a0 71 d1 ba 9e f0 39 3e 45 af a9 bd
       0.11720996 -0.0015979297 0.18158194 -0.08285383
000050 e3 f9 9f 3e e2 f9 eb bc 60 67 f2 bb eb 2a 08 3e
       0.31245336 -0.028805677 -0.007397577 0.13297622
000060 52 d3 93 3d 58 2b 00 3e 69 06 7f 3d ad bb f4 3c
       0.072180405 0.12516534 0.062261973 0.029874647
000070 6c 7b 31 3e ce c2 0f 3e d3 f1 9f 3c 15 cc 15 be
       0.17332238 0.14039156 0.01952449 -0.14628632
000080 32 08 a6 bc 74 05 cc 3d 1c cd 70 bc 50 e8 68 3c
       -0.02026758 0.099619776 -0.014697339 0.014215544
000090 f9 84 13 be 6a f3 80 3d 84 20 f8 bc cf f8 1e be
       -0.14406194 0.062964275 -0.030288942 -0.155246
0000a0 77 48 4d be 17 0a 43 3d 01 24 60 bd 6e e3 ed 3a
       -0.20047174 0.047617044 -0.054721836 0.0018149444
0000b0 90 3b 75 3e 4d c1 fc 3d 2b a5 cc 39 2a 05 e7 bd
       0.23948503 0.12341557 0.00039032972 -0.11280282
0000c0 49 a7 86 bd b7 5e 12 3e 9f 4d 97 3e d2 09 db 3d
       -0.06574876 0.14293943 0.29551408 0.106952325
0000d0 b2 03 f2 bc b8 25 0b 3c f2 11 98 bd 7d 5d 82 bd
       -0.029542778 0.00849288 -0.07425298 -0.06365488
0000e0 ef bb 21 bd 33 77 41 bc 86 59 23 3b 10 b2 a2 bd
       -0.039485868 -0.011808204 0.0024925186 -0.07944119
0000f0 7c 38 89 3c 43 ac a8 3d 1c a4 42 3d cd 37 8c 3c
       0.016750567 0.08235981 0.04751979 0.017116452
000100 2d 8d 3f bd ee 5f 44 3e 51 cd 18 3e 8e fe f9 3d
       -0.046765495 0.1917722 0.14922072 0.122067556
000110 b7 81 17 be 52 5c f3 3c 5b a4 f3 bd f8 f4 72 3e
       -0.14795576 0.029707108 -0.11896583 0.2372626
000120 8a b5 44 3e be 04 27 3e 03 16 7e be e0 77 af bb
       0.19209877 0.16310403 -0.24813084 -0.0053548664
000130 ad 22 89 be 31 f0 38 3e 26 7e 26 3e c9 4e e0 bc
       -0.26784268 0.18060376 0.1625906 -0.027381318
000140 60 7d a0 3e a5 8a a9 bd b8 48 b8 3d 0b 78 b4 3d
       0.31345654 -0.082783975 0.08998245 0.08811959
000150 38 66 07 3e 0f 33 ac 3c 54 88 90 be d3 f9 fc bc
       0.13222587 0.02102044 -0.2822901 -0.030880844
000160 41 99 54 3e 85 ce e2 3d 3f 18 2e 3d 4f 67 24 3e
       0.20761587 0.11074547 0.04250359 0.16055034
000170 7b c1 56 3e 01 66 54 3e d5 c1 37 bc f8 cd 3f be
       0.20972244 0.20742036 -0.011215647 -0.18730915
000180 0e 8e 04 3e 80 72 92 be a4 1c ac be 11 08 94 3e
       0.12944815 -0.28602982 -0.336156 0.28912404
000190 d4 e8 07 bd bf 5e db 3d 0e 4a 65 3e 3c db e5 bd
       -0.033181027 0.10711431 0.22391531 -0.11223456
0001a0 38 cd 10 be 4d ce 50 3e ee e7 16 be 64 53 99 bd
       -0.14140785 0.20391198 -0.14736912 -0.074866086
0001b0 bb ae 94 3e 07 cd 8e 3e 5c b4 86 bc 20 c0 74 be
       0.2903956 0.27890798 -0.016443424 -0.23901415
0001c0 ef c5 3a 3e e1 99 9e 3d dd 0a 37 3d 7f f8 5c 3e
       0.18239568 0.07744194 0.044688094 0.21579169
0001d0 22 d3 06 be 8d 0b 02 3e 51 1d 82 3e 57 be 88 bd
       -0.13166478 0.12699719 0.25412992 -0.066769294
0001e0 90 7e 43 3e 61 c5 1f be bf fc 8e be 61 f2 e4 3d
       0.19091249 -0.15602638 -0.27927205 0.111790426
0001f0 cd 89 9d 3d b4 7b 30 3e 19 14 97 3d 60 23 a9 3e
       0.07692299 0.17234689 0.0737688 0.330348
000200 84 98 f4 bb 10 62 16 bb a8 c0 97 bd a9 23 45 3e
       -0.0074644703 -0.0022946633 -0.07409793 0.19251885
000210 5e 1f 30 be 97 cf 41 3d 24 06 c0 bd 7c 5a d6 bc
       -0.17199466 0.047317114 -0.09376171 -0.026166193
000220 4a db a7 bc 96 ec c4 bd e9 6d a1 bd 7b 1e e0 3d
       -0.020490307 -0.09615438 -0.07882292 0.10943314
000230 e6 9f 6f bc f9 06 98 3c a1 58 bc bc b0 fa 11 be
       -0.014625525 0.018558012 -0.02299148 -0.14255786
000240 e7 24 16 3d 53 57 a0 be fa 47 bd 3d e7 11 1a bd
       0.036656287 -0.31316623 0.09242244 -0.03761473
000250 2e cf 6e be fc f0 24 3d 12 40 d6 bd e8 b7 48 3e
       -0.2332122 0.040268883 -0.10461439 0.19601405
000260 e6 a8 62 bd 36 ff 18 3e b5 0c 92 bc 49 dc 16 be
       -0.055336855 0.14941105 -0.017828325 -0.1473247
000270 5c 90 8b 3d dc 5f a7 3d 82 7f 29 3e 32 ee a3 3d
       0.06814644 0.081725806 0.16552547 0.080044165
000280 22 b4 7d 3d 56 47 09 bc b0 a5 c6 bc 57 01 6b 3d
       0.061939366 -0.008378824 -0.024248928 0.057374325
000290 1a 0e a7 3d 4d ca ec bd f3 ed 96 bd d1 e6 0e be
       0.081569865 -0.11562023 -0.07369604 -0.13955237
0002a0 f4 35 08 3e d9 16 fa bc 0f bc a9 3d 9f 73 b4 3d
       0.13301831 -0.030528473 0.082878225 0.088111155
0002b0 1d d1 53 bc 2c 1a df 3d 20 e3 26 bd b6 32 1e 3e
       -0.012928274 0.10893664 -0.040743947 0.15449032
0002c0 93 30 f6 bd 7a 0c 81 bd d1 87 36 bd 4e b8 5e bd
       -0.120209835 -0.06301208 -0.04456312 -0.054374985
0002d0 c6 a7 17 be 44 7c 12 bc 09 ab 00 3e 48 48 0b 3d
       -0.14810094 -0.00894076 0.12565245 0.03400448
0002e0 2a 71 53 3c 2e 27 87 bd 50 7f 32 bd 1d b6 8f be
       0.012905398 -0.0659927 -0.043578446 -0.2806863
0002f0 ac ac 5d bb 4f 65 19 be 35 a7 97 bd c9 71 0f be
       -0.0033824844 -0.14980052 -0.07404939 -0.1400825
000300 7a a9 82 3d a4 61 78 3e 40 97 c8 3d e4 db 6b 3d
       0.06379981 0.24255997 0.09794474 0.05758275
000310 e7 4f 42 3d 5e a3 90 bd 17 48 10 be 5e df d1 3d
       0.047439482 -0.0706241 -0.1409 0.10247682
000320 f3 88 76 3d 06 56 c6 3c c0 05 2a 3c c0 64 49 bd
       0.0601892 0.024210941 0.0103773475 -0.04916835
000330 9a 22 e8 3d e6 f9 0e 3e f7 5c 96 bc 37 d5 0a 3e
       0.11334725 0.13962516 -0.018354876 0.13557898
000340 66 2a b5 bd 02 59 0c 3d 50 e2 bd 3d 07 34 8b bd
       -0.088459775 0.034264572 0.09271681 -0.06797033
000350 82 04 77 3d 8f a4 0c 3e 8e 9f b1 3d 98 26 3d be
       0.060307033 0.13734649 0.08673011 -0.18471754
000360 63 6a b4 3c 26 dc a5 3d 89 8a 64 3e fd 06 bb bd
       0.022023385 0.080986306 0.22318472 -0.09132192
000370 d9 bd 03 3c b6 bf f8 bd 61 47 80 bd 02 94 ce bd
       0.008040869 -0.12145941 -0.062636144 -0.10086824
000380 da 7e c6 bd a9 66 10 3c f3 02 c5 bd 1d ff 3e bb
       -0.09692164 0.008813539 -0.09619703 -0.0029143759
000390 ec 1f bd 3d 00 47 c9 bb de 35 5d 3d 5d b6 7e 3d
       0.09234604 -0.006142497 0.05400645 0.062185634
0003a0 a8 74 e1 3d fa df 3e bb 58 25 14 be 71 7e ad bd
       0.110085785 -0.00291252 -0.1446737 -0.084713824
0003b0 99 3f 9d bd e9 11 5b bd bf 3a d7 bd 79 f3 73 3c
       -0.07678146 -0.053483877 -0.10509252 0.014889591
0003c0 a9 1b 13 3d 65 79 f1 bd 18 c0 ab bc 6b 21 03 bd
       0.03591505 -0.11790732 -0.02096562 -0.03201429
0003d0 a6 44 20 bd 70 2a 62 3d b0 fc d1 3d ac 23 6d bb
       -0.03912797 0.055216253 0.102532744 -0.0036184592
0003e0 6d 60 d1 3d 6e cd 0c 3d e0 5b f7 3d 4b ee 15 3d
       0.1022347 0.0343756 0.12078071 0.036604207
0003f0 d3 35 89 bd 7d 61 26 bd 5d 54 f0 3d f8 8a a2 3d
       -0.06699719 -0.040620316 0.11734841 0.079366624

rnn.bias_ih_l1 f4 [256]
000000 97 2d 11 bc 33 5d 74 3e 63 af f7 bc d8 e1 97 3d
       -0.008860967 0.23863678 -0.030234998 0.07416123
000010 4e 30 d5 bc 09 f0 0a bd 52 9e fa bb ae 19 2a bc
       -0.02602401 -0.03392032 -0.007648268 -0.010382099
000020 30 34 e3 39 14 ca 9e bc 29 4d 7e bd 96 c2 07 3d
       0.00043335697 -0.019383468 -0.062085304 0.033144556
000030 3e e6 31 bd f1 94 26 bd 60 41 f4 3b 06 b0 a4 3e
       -0.043432467 -0.040669385 0.0074540824 0.32165545
000040 f5 f1 0d 3e 19 d4 88 3e 0e 07 6f 3e a1 ef 90 3e
       0.1386183 0.26724318 0.23342535 0.28307822
000050 c3 d7 50 3c 4d 28 c5 3d 11 bc a9 bc 06 83 a7 3e
       0.012746754 0.096268274 -0.02071956 0.3271715
000060 0a 57 41 3e 9c d6 a4 3d 4f 87 75 3b ed 44 8c 3d
       0.18880859 0.08048746 0.0037464683 0.06849084
000070 a6 c9 96 3c 56 9f 25 3d 14 6a 22 bd 3a 89 c7 3d
       0.0184067 0.040435158 -0.039651945 0.09742971
000080 3f 35 e4 3d 87 f0 2c 3d 09 7e 82 bd 34 b4 f5 bc
       0.111429684 0.042221572 -0.063716955 -0.029993154
000090 b6 9c ea 3d b6 53 a2 3c 80 23 d1 bc 75 27 cc 3d
       0.114556715 0.019815307 -0.025529623 0.09968463
0000a0 4f bc d6 3e e2 b3 b6 3d d2 be ac 3e e0 40 f2 bc
       0.41940543 0.08921029 0.33739334 -0.02957195
0000b0 f6 54 d9 3c c0 15 b5 3d 68 36 9b 3c 11 7f 3f bd
       0.02652977 0.08842039 0.018946841 -0.04675204
0000c0 0b 76 ef bd e6 20 6c bd 10 3e 24 bc 06 5c 0e 3f
       -0.11692437 -0.057648562 -0.0100245625 0.55609167
0000d0 36 a3 8a 3b b5 13 88 bd db 58 fd bc bb 20 b2 3d
       0.004230882 -0.06644384 -0.030926159 0.08697649
0000e0 10 2e bf 3d 03 33 1a 3e f9 10 a9 bd 44 96 3b bd
       0.093349576 0.15058522 -0.082551904 -0.0457976
0000f0 a7 c8 e2 bd 48 76 70 bc 24 c4 ab 3d fe ca 2f 3e
       -0.11073428 -0.014676638 0.0838702 0.17167279
000100 56 77 bb bc 86 fe 53 bd a9 44 57 bd 0c 5f cf bd
       -0.022884052 -0.051756404 -0.052555714 -0.10125551
000110 9e ed ef bd 23 16 6c 3d 67 9e f7 bd 91 f3 9f bc
       -0.11715244 0.0576383 -0.1209076 -0.019525321
000120 a5 1e 18 3d fc 8b 29 bd cc 63 ae 3d 71 e8 fe bc
       0.0371386 -0.041393265 0.085151285 -0.031116696
000130 ee 8e df 3c d2 56 33 bd 15 c3 ea 3c e2 e5 26 be
       0.027289834 -0.04378397 0.028657475 -0.16298631
000140 7b 13 8d bc 53 c2 91 be d8 3e 9f bb 86 fa 4d bc
       -0.017221203 -0.2846857 -0.0048597865 -0.0125719365
000150 34 93 84 3d 3e 90 d1 bd b5 2a ca bd ac 5f a2 bd
       0.06473389 -0.1023259 -0.09871427 -0.07928404
000160 03 be 88 3c 6c dc 06 be 22 65 34 bc 5f 19 5e bc
       0.016692167 -0.13170022 -0.01101044 -0.013555854
000170 ee a4 38 be 81 78 a0 3a 4a d4 38 3c 56 88 eb bb
       -0.18031666 0.0012242944 0.011281082 -0.0071878834
000180 68 e9 a3 bd 10 4e 10 bd a8 c3 1c 3d 2d c4 c2 bd
       -0.08003503 -0.035230696 0.03827253 -0.09510074
000190 a4 5a 84 3c ae a2 68 3c b4 68 ab 3d 57 2e 1d 3d
       0.016156502 0.014198942 0.0836958 0.03837427
0001a0 b8 71 f9 bd 7f b8 5b bd f1 b6 69 be bb 5e b1 bd
       -0.12179893 -0.053642746 -0.22823693 -0.086606465
0001b0 58 7a f9 bd e6 42 1c be 20 3b ad 3d 4b c5 95 3c
       -0.12181538 -0.15259895 0.08458543 0.018282553
0001c0 58 0e 14 be c9 35 96 bd 0d 6c 7d 3d e5 0a ab bd
       -0.14458597 -0.073344775 0.061870623 -0.08351687
0001d0 cc ab 55 3d ca 2b fc 3b 8f ed d9 3d 73 8c 85 be
       0.05216579 0.0076956498 0.10641014 -0.26083717
0001e0 32 97 8a 3d d2 22 1c 3b 95 22 68 bd 17 d8 2d be
       0.067671195 0.0023824465 -0.056673605 -0.16976963
0001f0 46 84 cd 3c 33 51 69 bd 70 04 1b bc 2a bc b7 bd
       0.025087487 -0.056962203 -0.009461507 -0.08971436
000200 5e 87 a4 3d bc ad 92 bd 07 ec b2 bd b3 a6 6a 3d
       0.08033632 -0.071620435 -0.08736425 0.057287883
000210 7e dc 40 bd ae c8 7e bc df 5a 6d bc cd 0a 34 3d
       -0.047085278 -0.015550775 -0.014486997 0.043955613
000220 0b da d7 3d 5b 22 ba 3d 8f 34 69 bd 73 45 80 bd
       0.10539635 0.09088584 -0.05693489 -0.062632464
000230 b9 cb 60 bc 48 ca f9 3c c9 cc 07 bd 17 4b 9c bd
       -0.013720446 0.030491963 -0.033154283 -0.0763151
000240 80 19 de 3d 1b eb 8d 3c 66 c5 e9 bc 0e 9a 74 3d
       0.108447075 0.017324021 -0.02853651 0.05971723
000250 2a d6 47 3c 16 c3 ef bd 6f db f0 bd f3 95 b9 3c
       0.012197057 -0.117071316 -0.11760604 0.02265451
000260 9f 73 fb 3c 5b ed 9b 3d 9e 28 0b bd ea 40 8a bb
       0.03069478 0.07613631 -0.033974282 -0.004219164
000270 09 2a 9d 3d 95 41 d6 3d 42 2d e3 3d 4a 56 ee bc
       0.07674033 0.104617275 0.110926166 -0.02909388
000280 8b ab 5d 3d e3 75 f4 bd bb b4 c2 3a df 3e a4 bc
       0.054118674 -0.119365476 0.0014854887 -0.02004951
000290 fb fb a1 3d 06 df 2a bd f7 f9 c1 3d 59 c8 cd bd
       0.079093896 -0.041716598 0.09471505 -0.10047979
0002a0 21 88 66 3d 86 71 3a 3d 27 34 12 3e 46 18 58 3c
       0.056282166 0.04551842 0.14277707 0.013189381
0002b0 fc fb b2 3d 39 cb 4d 3d fd 08 c1 bd 90 84 67 bc
       0.087394685 0.050242636 -0.094255425 -0.014130726
0002c0 d2 e8 05 3d e2 1f ac bd d8 b2 47 3d 4b de ab 3d
       0.032692738 -0.08404519 0.048754543 0.083920084
0002d0 5f d2 89 bd 3a b6 93 3d d3 75 8f 3d 2a 98 5f 3d
       -0.06729578 0.07212491 0.07004895 0.054588474
0002e0 40 e0 8c 3d 9b 69 9d 3b e7 c2 d5 bd 1b ea a6 bd
       0.0687871 0.004803849 -0.10437565 -0.08150121
0002f0 63 2f 93 3d e2 29 81 3d 6a f5 c7 3d 56 45 a3 bd
       0.07186773 0.06306817 0.09763606 -0.07972209
000300 4f 29 9d 3d 81 4c 3f 3e b5 fd 09 3e 27 72 36 bc
       0.076738946 0.18681528 0.13475688 -0.0111356145
000310 34 25 c0 3c 01 c2 02 3e f5 e1 e1 3b 1d 65 b9 3d
       0.02345524 0.12769319 0.0068933913 0.09052489
000320 82 c8 6d bc 25 e0 64 bd 0a 66 a6 3c 5c ae 9f 3d
       -0.014513137 -0.055877823 0.020312328 0.07796928
000330 39 f1 b7 bd 48 8f 5d 3d 5a a1 84 3c 3f f7 b5 3e
       -0.089815564 0.05409172 0.01619022 0.35540196
000340 24 9e ef bd a6 c7 12 3e 50 05 c8 3e 1b 06 19 3e
       -0.11700085 0.14333972 0.39066553 0.14943735
000350 c7 eb 3e 3e 1f ca 84 3d c5 6c c1 3d ff 43 c0 3e
       0.1864463 0.06483864 0.09444574 0.37551877
000360 26 eb c3 3c 93 8b 69 3d 67 4e 0f 3d 86 f4 a0 3c
       0.023915838 0.057017874 0.03498688 0.019647848
000370 c9 16 e6 bd 3e 32 e7 bd 5f 28 03 be 49 2c c5 3d
       -0.11234815 -0.1128888 -0.12808369 0.09627587
000380 4c b5 4d 3d 8f d3 b2 3d a2 3e 14 be 5b 76 24 3e
       0.050221726 0.08731758 -0.14477018 0.16060774
000390 b8 bb 70 bb e6 bd ae 3d 9e 8e 41 3c 7d 65 e7 bd
       -0.0036732983 0.08532314 0.011813788 -0.11298654
0003a0 29 77 26 3f f4 d9 af bc ca 25 41 3e 95 4e e1 3d
       0.65025574 -0.021466233 0.18862072 0.110013165
0003b0 ee 81 cf 3c 84 18 e7 bd 8d 8b 88 3d f8 46 7c bd
       0.02533051 -0.11283973 0.06667242 -0.06159112
0003c0 d9 50 c6 bd 27 be b0 3d 9f 07 29 3e bb db 0e 3f
       -0.09683389 0.08630019 0.16506813 0.5580403
0003d0 31 60 0d be 48 84 7b 3d f9 d8 d9 bd e5 b9 da 3d
       -0.13806225 0.06140545 -0.106370874 0.10679988
0003e0 1d 4e a3 bd 1d 2a 86 3d be 8d aa bd ae e5 b6 3c
       -0.07973883 0.06551001 -0.083278164 0.022326317
0003f0 31 b1 6e 3d 58 74 fd 3c 1c 3a 00 be f8 65 dd 3d
       0.05827445 0.030939266 -0.12522167 0.108104646
