data/results/lstm_baseline_GOLD_r10d.pt (torch, 220677 bytes, 9 tensors)

rnn.weight_ih_l0 f4 [256, 15]
000000 4e 82 25 be 93 51 0c 3e a1 d0 8e bc 95 d5 a1 3e
       -0.16162989 0.13702993 -0.017433466 0.31608263
000010 3b d9 67 be 63 0d dc bd d8 84 96 3d e3 79 f3 bc
       -0.2264146 -0.10744741 0.07349557 -0.029721206
000020 79 a9 e0 3d 81 14 48 bd 24 8b 8d bd 48 fc b1 bd
       0.10969824 -0.04884768 -0.069113046 -0.08690697
000030 21 0d e2 3d 5f 1d 8a 3d 34 6f b6 3c 55 37 ba bd
       0.110376604 0.06743883 0.022269823 -0.09092585
000040 4b 98 08 be 02 44 53 bd 4d 0b 07 3e 27 98 81 3c
       -0.13339345 -0.05157853 0.13187905 0.015819622
000050 b1 ba 06 bd e4 9c 01 bd a4 44 3a 3d 17 f4 a7 bc
       -0.032892887 -0.031643763 0.045475617 -0.020502133
000060 d5 26 3f 3e d6 97 97 bd 64 0b fa 3d b9 28 b7 3d
       0.18667157 -0.07402007 0.12209204 0.08943314
000070 c0 09 2b 3e 40 c6 5d 3d a0 78 9c bd cb b7 21 3d
       0.16702938 0.054144144 -0.07640195 0.03948192
000080 62 03 56 3c a1 e2 5e bd 84 60 f4 bc b2 c3 a8 bd
       0.01306233 -0.05441535 -0.029831178 -0.08240451
000090 b2 62 47 3a 54 38 3c be f2 5d 98 3e 15 9e 27 be
       0.00076059543 -0.18380862 0.29759175 -0.16368897
0000a0 27 fd 83 bd 24 73 3a 3e a9 d2 0b 3e f4 11 d3 bc
       -0.06444769 0.18207985 0.13654579 -0.025765397
0000b0 a3 38 c6 bd 51 02 b9 bd f7 fa 2c 3d 09 4d 52 3e
       -0.09678771 -0.09033645 0.042231526 0.20537199
0000c0 48 94 24 be 5f 0f 12 3c f5 9b df 3d 58 8d 5b bd
       -0.1607219 0.008914798 0.10918418 -0.053601593
0000d0 3f 10 69 3d 96 92 6b be 9b 6b f1 3d 1a d7 f5 3c
       0.05690026 -0.23005137 0.11788102 0.030009795
0000e0 52 cf 06 bd d6 b3 0a 3e d3 32 85 bd 9e f6 fb 3c
       -0.03291256 0.13545164 -0.065038346 0.030757245
0000f0 33 6f f3 bb 9b 98 3b be 26 4a 5d 3e a4 7d 89 bd
       -0.0074290275 -0.18319933 0.21610317 -0.06713417
000100 74 f7 71 be 3f a2 80 3e 64 d8 0b 3e 12 26 0a 3e
       -0.23629552 0.25123784 0.13656765 0.13491085
000110 15 29 27 3b f5 83 ff bd c0 64 10 bd 0c 33 9c bd
       0.0025506665 -0.12476341 -0.035252333 -0.07626924
000120 bb a0 08 3d 64 56 20 be 9e 16 40 3e 52 67 8c bd
       0.03335641 -0.15657955 0.18758628 -0.06855644
000130 13 eb c3 3d d6 1a 1b 3e c3 ae 23 3b 0b df 82 3d
       0.09566321 0.15146956 0.0024975992 0.06390198
000140 c1 c1 df bc 9b d1 fb bd 9b 41 f3 3d 23 01 b3 bd
       -0.027314069 -0.122958384 0.118777476 -0.08740451
000150 6e 97 b5 bc ed 56 a9 3d 60 ba 98 bd 0a 26 3c 3e
       -0.022166934 0.08268533 -0.07457423 0.18373886
000160 08 d6 f8 bd ad d1 fd bc 32 60 08 be 61 ce cb bd
       -0.12150198 -0.03098377 -0.13317946 -0.09951473
000170 ed 87 78 bd 34 5a aa bd ad 26 fe bd b0 3a 20 3d
       -0.060676504 -0.08317986 -0.124097206 0.03911847
000180 87 85 ec bb 4b f6 2b bd ce 2a a0 3d a4 92 aa bd
       -0.007218066 -0.04198293 0.07820664 -0.08328751
000190 ba e6 1d ba ad 04 f3 bd 30 c3 31 bd 36 3e a3 3c
       -0.00060234556 -0.11866126 -0.043399036 0.019927125
0001a0 e6 11 da bc 94 75 01 3d d3 e6 c1 bd 7c e4 1f be
       -0.026619863 0.031606272 -0.09467854 -0.15614504
0001b0 27 ce 1d be 8f 4b 95 3d 9b c8 0b bd 43 c1 9b 3b
       -0.15410672 0.07289802 -0.03412686 0.004753263
0001c0 0d cc 0d bd 60 3c bd bd a7 e5 35 3d db 25 15 be
       -0.034618426 -0.09240031 0.044408467 -0.14565222
0001d0 b7 89 1c bd f4 18 e3 bd eb ea b4 bd 40 17 5c bd
       -0.038217273 -0.11088744 -0.088338695 -0.05373311
0001e0 19 55 f1 bd b9 79 02 be 42 e8 e6 bd c8 d5 0f be
       -0.11783809 -0.12741746 -0.112747684 -0.14046395
0001f0 6a 55 64 3d f9 d7 cb 3d ea 2d 7c bb 0e fd 35 3e
       0.05574552 0.09953303 -0.0038479515 0.17772314
000200 05 a4 1a bd fb 74 19 3e 86 d5 bf 3d df 76 ec 3d
       -0.037754077 0.14986031 0.09366898 0.1154611
000210 36 d4 3c 3e 8e 3a 7a bd be 76 54 3e 54 b3 0b bd
       0.18440327 -0.061091 0.20748422 -0.034106568
000220 95 ff 52 bd 4a 8b 18 be b7 db 28 3e 97 ac 8e bd
       -0.051513273 -0.14896885 0.16490065 -0.06966513
000230 d2 eb b1 3d 84 63 55 bd 77 c3 bd bd 42 1f b9 3e
       0.08687557 -0.05209686 -0.092657976 0.3615666
000240 2a 26 9a 39 f8 15 2f 3c 32 60 0b be cd 87 23 3d
       0.00029401603 0.01068639 -0.13610914 0.03992443
000250 26 71 d3 3d b8 0f 9d 3a f5 45 09 be 35 0f 28 be
       0.10324316 0.0011982834 -0.13405593 -0.16412051
000260 ea 08 38 3e 92 19 85 be d3 61 13 3e 24 2e 19 3e
       0.1797215 -0.2599607 0.14392786 0.14959008
000270 ee b1 22 3d 13 cd 55 3e b4 91 c5 3d 1f d3 00 3e
       0.03972047 0.20879011 0.09646931 0.12580536
000280 84 88 8f bc 34 4a c1 3d 43 ab 31 bb d2 61 c7 bd
       -0.01752115 0.09437981 -0.0027110137 -0.097354546
000290 89 fe 17 3e ab 96 c9 3c 00 4f 14 be 33 01 01 bc
       0.14843191 0.024607977 -0.14483261 -0.007873821
0002a0 97 e7 90 b9 f4 e5 00 be fd b8 15 bc 6b 05 be bd
       -0.00027638368 -0.1258772 -0.009138343 -0.09278377
0002b0 b0 c0 ff 39 50 c2 31 be 82 c3 6d 3c 4d 49 9b 3c
       0.00048780954 -0.1735928 0.014511945 0.018955851
0002c0 b8 7e 65 bb 2c 65 20 3e 22 71 1f be 6d cf 5a 3d
       -0.0035018157 0.15663594 -0.155705 0.053420473
0002d0 fb 8f ed bd 4e cb a4 bd 10 7f 06 3d 82 65 93 3d
       -0.11599728 -0.0804659 0.03283602 0.071970955
0002e0 00 10 61 3c 7f d1 6a bc 1d e9 ff 3d b9 46 1c bd
       0.013736725 -0.014332174 0.12495635 -0.038153384
0002f0 57 a5 c5 bc 17 40 5c 3d 0b bd db bd c7 ca a6 3c
       -0.024126692 0.05377206 -0.107294165 0.020360364
000300 f4 a9 f5 3d a7 a6 de bd 85 98 80 bd c4 4b a9 3d
       0.119953066 -0.1087163 -0.06279091 0.08266404
000310 f0 44 87 bd 33 68 7f 3d 91 d1 ca bd 13 86 0e 3e
       -0.06604946 0.06235523 -0.09903253 0.13918333
000320 23 a8 13 3e 61 bc ff 3d 80 ba b0 3d c0 b6 88 be
       0.14419608 0.12487102 0.08629322 -0.26701927
000330 05 c5 a6 3b 5f ee 05 3d e4 91 51 bd 42 96 84 bb
       0.0050894045 0.03269803 -0.051164523 -0.0040462324
000340 0a 65 15 bd 71 22 bd 3c e1 76 55 3d 7f d0 11 3e
       -0.03647331 0.023087712 0.052115325 0.14239691
000350 2a cd 24 bd 6f 65 81 be b6 63 18 3c dd 64 6a bd
       -0.040234722 -0.252727 0.009301117 -0.057225097
000360 b9 89 81 bc ff c7 4c 3d a7 f0 b7 bd 31 ab 7e bd
       -0.015812742 0.04999542 -0.08981448 -0.06217498
000370 92 e0 32 3d 6a 6c fc 3d 14 80 99 3d 18 2b 15 be
       0.0436712 0.12325366 0.07495132 -0.1456722
000380 46 48 de 3d 0f 93 02 be 11 dc f1 bd dc 41 b7 bc
       0.10853629 -0.12751411 -0.118095525 -0.022370271
000390 78 fe 4c be c4 ae 54 3d 28 31 11 3e 1a 11 67 3d
       -0.20018947 0.051924482 0.14178908 0.056412794
0003a0 42 74 ec 3c 8b bd 03 be e1 8a f0 bc 0e a2 16 3d
       0.02886403 -0.12865274 -0.029363098 0.03677564
0003b0 03 23 46 3d 95 88 ed bd c1 c8 37 be be 4f 2b bd
       0.048373234 -0.115983166 -0.17947675 -0.041824095
0003c0 1b 5e 03 be cb 9a c9 bd 47 c3 03 be 46 0f bb bc
       -0.12828867 -0.098439775 -0.12867461 -0.022834431
0003d0 44 fa 41 3d d3 22 5c 3d b9 a7 a5 bd c5 67 14 3d
       0.047357813 0.05374415 -0.08088631 0.036231775
0003e0 1f 01 ac bd d9 de c8 bc f4 15 1e 3d 1b b5 e2 bd
       -0.08398651 -0.024520325 0.038595155 -0.110696994
0003f0 d5 52 bd bd 7d ff 16 bb b5 44 9f 3d fb 3d 81 bc
       -0.092443146 -0.0023040466 0.07776777 -0.015776625

rnn.weight_hh_l0 f4 [256, 64]
000000 25 57 8c 3b 04 10 21 3d 3e eb 30 bc e4 3b c3 bd
       0.0042828494 0.039321914 -0.010798274 -0.095329076
000010 40 a4 64 3c 4e c4 80 bd 03 e0 67 bb 7a ac 02 3e
       0.013955176 -0.06287442 -0.0035381324 0.12761107
000020 fc 0b ea 3a 75 72 e4 3d 61 00 b0 3d b0 fe 9c bd
       0.0017856355 0.111546434 0.08593822 -0.07665765
000030 41 10 b0 3d 8b 46 af bd 10 f3 09 3d 15 ac 9c bd
       0.0859685 -0.08558377 0.033679068 -0.076500095
000040 0d 69 9c bd 96 31 32 bd 65 16 ef bd b7 21 cb bc
       -0.07637224 -0.04350432 -0.11674193 -0.02479635
000050 9d 58 f8 3c 53 99 84 bb bd 4d 0b 3d 75 f7 24 3d
       0.030315692 -0.004046598 0.034009684 0.040275056
000060 79 61 05 3e 1f e4 d8 3d 21 97 a3 3d 02 12 7a bd
       0.13025464 0.10590386 0.0798781 -0.06105233
000070 a1 f5 07 3e 4b be 6e 3c 43 5f a5 bd ae 1d 70 3d
       0.13277294 0.014571737 -0.0807481 0.058622055
000080 08 9c 33 bd 23 6a 8c 3d 01 b9 12 bd 01 e7 03 bd
       -0.043849975 0.068561815 -0.035820965 -0.032202724
000090 ef 3d e2 3d cc ec 8d bd 9b 5b 30 bd 67 e9 54 bd
       0.11046969 -0.06929931 -0.04305611 -0.051980402
0000a0 af 27 e3 3d 62 36 a6 3d ba 74 8d bd cb b1 01 be
       0.110915534 0.081158414 -0.069070294 -0.12665479
0000b0 23 3a c5 bd bf c5 81 3c f1 ce 94 3d 99 1f 26 3e
       -0.09630229 0.015841363 0.072660334 0.16222991
0000c0 2d 6b 73 bd 6b 62 28 3b 2d 0e 1b be 67 11 47 bd
       -0.059428383 0.0025693427 -0.15142126 -0.04860058
0000d0 cf 58 81 bd 8e d2 63 bd 84 b3 d9 3d ab 75 02 bc
       -0.06315767 -0.055620722 0.10629943 -0.007962625
0000e0 6c 49 1f be 14 95 59 bd 3f 0a c1 bd 5a 17 8f bd
       -0.15555352 -0.053120688 -0.094257824 -0.06986876
0000f0 89 40 7a 3c b0 74 e0 3d ad d6 e4 3c b3 42 15 3d
       0.015274175 0.109597564 0.027934397 0.036440562
000100 e5 4b a5 3c 59 35 8a bb c3 f3 b9 3d b4 79 35 be
       0.02017779 -0.0042177853 0.09079697 -0.17722207
000110 01 6c 07 3d 2b b9 d6 bd 6b d6 61 3b 0b 74 30 3d
       0.033061985 -0.10484537 0.0034460078 0.043079417
000120 ed ad c8 3a 79 b7 fd 3d a6 00 59 3a 73 0c 2b 3d
       0.0015310623 0.1238851 0.00082779897 0.04175992
000130 7d a7 d3 bd a3 1c ba 3d 8e e7 bf 3d 14 4d 1f bc
       -0.1033468 0.09087493 0.093703374 -0.009722967
000140 83 94 57 bd ae f2 48 3e f1 fd 16 be 58 8b 47 3b
       -0.052631866 0.19623825 -0.14745308 0.0030448046
000150 3c 14 c3 bc 66 57 85 bc d1 a5 c8 3d d2 d7 c4 bd
       -0.02381336 -0.016277026 0.09797252 -0.09611477
000160 7d 27 ca 3c b2 5c 22 3d 47 c5 c2 ba 9b 45 30 bd
       0.024677033 0.039639182 -0.0014859819 -0.04303513
000170 a0 3b 98 3d f6 2a a0 3d e4 36 f4 bd 8b a5 51 3d
       0.074332476 0.07820694 -0.11924532 0.051183265
000180 43 27 86 3d b3 1f 12 bc 5d 28 ce bd 9d e2 e4 bd
       0.06550457 -0.0089186905 -0.100662924 -0.111760356
000190 93 95 05 3e f4 5f 4a bd 5e 38 db 3d fc ff 0c 3e
       0.1304534 -0.049407914 0.107041106 0.13769525
0001a0 40 57 b8 bd a2 92 2e 3e 1f ac 13 3d 8f ca 75 3d
       -0.090010166 0.17048123 0.03605282 0.060007628
0001b0 4d 72 8c bc ad b4 08 3e 5a 9c ed 3d 7d 96 97 bd
       -0.017144347 0.13350172 0.11602087 -0.0740175
0001c0 fd ce 97 bc 82 2b 2c 3e 93 4b 31 3d 3e 83 ec 3d
       -0.018531317 0.16813472 0.043284964 0.1154847
0001d0 a1 0f 98 bd a3 b0 f3 bc e0 61 b7 3c 82 de 3f 3e
       -0.07424856 -0.029747313 0.022385538 0.18737224
0001e0 fb 8a 83 3c 6b 11 b0 bd 6a 42 ae 3d 05 da 04 be
       0.016057482 -0.08597072 0.08508761 -0.12973793
0001f0 24 63 b6 bd 13 13 39 bd 1c 86 bf bd cd cd 08 3e
       -0.08905628 -0.045184206 -0.09351751 0.13359757
000200 ec 2d a0 3d 7f 08 a1 bd 98 6e 3c be 76 c6 cb bd
       0.07821259 -0.078629486 -0.18401563 -0.09949963
000210 ee 81 ad ba 5a b5 73 3d 30 f5 46 3e 80 3d ed 3c
       -0.0013237575 0.059499122 0.19429469 0.02895999
000220 c6 e5 44 3d af 77 87 bc 39 fb 3b bd e3 fc e8 bc
       0.04807069 -0.016536562 -0.04589388 -0.028440898
000230 26 3e 11 be 0a 29 32 3e 4b bb f6 3c c2 ef 50 bd
       -0.14183864 0.17398468 0.030118605 -0.0510099
000240 78 60 e0 bd e1 ba f1 3d 98 a2 47 3e 17 5d a7 bc
       -0.109559 0.118032224 0.19495618 -0.02043013
000250 19 d5 b2 bd 98 7c 3d be 47 1d 69 bd f2 ca 7f 3c
       -0.087320514 -0.1850456 -0.056912687 0.015612351
000260 df b9 e7 3c d3 ed 94 bd 2f 80 54 bd 7c 36 e4 bb
       0.028286872 -0.07271924 -0.051880058 -0.006964503
000270 e1 33 c5 bd 84 2f 9e bc 20 19 2e bd 82 c0 4e 3d
       -0.09629036 -0.019309767 -0.04250443 0.05047656
000280 4f f9 14 3e 4d d4 2a be 3d 66 51 3e ff 7d b9 bd
       0.14548229 -0.16682549 0.20449157 -0.09057235
000290 80 e7 bd bc 6e 34 2a be e9 d1 ff 3d 87 8b 1f 3d
       -0.023181677 -0.16621563 0.12491209 0.038951423
0002a0 6b 14 33 bd 6e f8 94 bc 2b 1c b7 bd 0c 62 f2 bd
       -0.043720644 -0.018184867 -0.089409195 -0.11835107
0002b0 a2 e7 dc bd 42 b5 e3 3d 99 d4 05 3e dd 52 c1 bd
       -0.10786368 0.111185566 0.13069381 -0.09439633
0002c0 29 bb fb 3d 5e 50 20 3b 62 f6 1d 3e 3f a9 2a 3e
       0.12291557 0.0024461965 0.15426019 0.16666125
0002d0 b2 13 7a bd c6 df 20 3e 12 c2 bb bd 21 2a 93 3d
       -0.06105394 0.15710363 -0.09167875 0.0718577
0002e0 38 c5 a3 3c 56 88 28 3e 93 e3 f5 bd ac 0e 6b 3d
       0.019991502 0.16458258 -0.12006297 0.05738704
0002f0 ab c8 eb 3d 3f e4 21 be 75 6a 11 be a0 cc 6a bd
       0.11512884 -0.15809725 -0.14200766 -0.05732405
000300 27 bc 07 bd 1e 75 de bd 8f c3 ee bc fb c5 05 bc
       -0.03313842 -0.10862182 -0.029145984 -0.008164878
000310 52 1e df 3d f0 a4 d1 bd 7c e4 29 3d 78 dc ac 3d
       0.10894455 -0.102365375 0.041477665 0.084404886
000320 aa e5 87 3d 4c f7 ac 3d e6 a4 f8 bd 47 14 7f 3d
       0.06635602 0.08445606 -0.12140827 0.062275197
000330 e4 72 33 bc 4b 73 91 bd c0 57 2a 3d a7 22 05 bd
       -0.010952685 -0.071020685 0.04158759 -0.03250375
000340 8e d2 4e 3d 47 e8 73 bd 38 8f 0d 3e c3 ae de bc
       0.05049377 -0.05954769 0.13824165 -0.027182942
000350 8c 23 84 3d 65 06 03 be 07 8b c3 bc cd b9 db bd
       0.064520925 -0.12795408 -0.023870004 -0.10728798
000360 84 31 5c 3d 0e 10 2b bd a1 09 9d 3d cd 80 84 3d
       0.05375816 -0.041763358 0.07667852 0.06469879
000370 e9 78 af bc 83 88 07 3e a8 d0 15 bd 65 9f 3e 3c
       -0.02141996 0.13235669 -0.036575943 0.011634682
000380 7f e6 87 3d 16 b8 4c bd 5a 9a 9c 3d ee da 03 bc
       0.066357605 -0.049980246 0.07646628 -0.008047802
000390 79 e6 12 3e f5 4b a3 bd fb 8a c2 3d 58 8d c1 3d
       0.14345731 -0.07973472 0.09499165 0.09450787
0003a0 c5 62 ee 3c a3 fe 1b bd 6e 1f 4b 3d 09 35 41 3d
       0.029099831 -0.038084637 0.04959052 0.04716972
0003b0 8d 09 95 3d 1b a1 5e bc d5 e3 6f 3d 73 69 e9 3d
       0.07277212 -0.013588215 0.058566887 0.11397066
0003c0 bc 5c 8e 3c cf d6 92 3b 83 d3 bf bc d9 8b 88 bc
       0.017378204 0.0044811736 -0.023416286 -0.016668247
0003d0 31 c0 c6 3d 02 94 8f bc 69 51 0c 3d f5 c7 91 3d
       0.09704626 -0.01752663 0.034257326 0.07118217
0003e0 43 55 94 3d 07 e3 09 3e 42 18 4e be 1b 00 c4 bd
       0.07242825 0.1346551 -0.20126441 -0.095703326
0003f0 95 cb 0f 3e f9 c7 96 bd 85 e2 f1 bb c7 ca 80 3d
       0.14042504 -0.073623605 -0.0073817396 0.06288677

rnn.bias_ih_l0 f4 [256]
000000 1a cd 2d bd 7c 8b b6 3d 62 47 0c 3e f8 2b 5b 3d
       -0.04243193 0.08913323 0.13699105 0.05350873
000010 4f ec 6f 3d d4 d5 01 bd c5 b0 af 3d cb 10 34 3d
       0.05857497 -0.031698063 0.08578638 0.043961328
000020 98 04 09 3d 4f 7e 0d 3e 97 77 72 3e 11 3e 0b 3e
       0.033451647 0.13817714 0.23678432 0.13597895
000030 6d 34 2c 3c 3a 67 c2 3d c3 84 81 bc 63 41 57 bd
       0.010510546 0.09492345 -0.015810376 -0.052552592
000040 f8 bf 32 bd ce c6 f7 3c 7e fe 9c 3d 9d 48 3e 3e
       -0.043640107 0.030246165 0.07665728 0.18582387
000050 d1 55 92 bd 0e bf 86 bc a0 51 b2 3d 5f e1 b0 3d
       -0.071452744 -0.016448524 0.08706975 0.08636736
000060 33 56 f9 bd 7f eb 28 3d 8a 3b 72 bd 16 ee 91 3d
       -0.12174644 0.04124021 -0.059138812 0.071254894
000070 54 d8 aa 3d 84 15 cf 3d d6 b5 06 bd 39 b0 bb 3d
       0.083420426 0.10111526 -0.032888256 0.09164471
000080 73 3b 67 bd 34 84 da bc 91 9d 41 3e 6f 36 7d bd
       -0.05645318 -0.026674367 0.18907763 -0.06181949
000090 ad a1 8f 3d 48 d0 ab 3c e3 1b 30 bc 27 cc 92 bd
       0.07013259 0.02097334 -0.010748836 -0.07167845
0000a0 51 c6 b6 3d 34 23 0c 3d 1e d4 34 3e 9c b2 aa bd
       0.089245446 0.03421326 0.17659041 -0.08334848
0000b0 92 46 12 3e 1e 28 90 bd 4b e7 9f 3c ac cf 47 bd
       0.14284733 -0.07038902 0.019519469 -0.048782036
0000c0 38 8b d6 bc 8b 69 e2 3d da d7 88 bd c3 c8 2d bd
       -0.026189432 0.11055287 -0.066817954 -0.04242779
0000d0 ba bb dd bd f6 a4 1c 3c 77 0c 70 3c 28 b1 2f 3d
       -0.108268216 0.009560814 0.014651409 0.04289356
0000e0 7b da 79 3d 6f 65 a3 3d 07 78 49 3e 9b 78 49 bc
       0.060999375 0.07978331 0.19674693 -0.012296821
0000f0 a1 4e 57 bd cf 0c e5 3c b4 85 3e bd 3e 8f ed 3d
       -0.05256522 0.02796021 -0.046514228 0.11599587
000100 38 a2 4d bd 44 10 cb b9 6c d2 d5 bc e6 3b 8d 3d
       -0.050203532 -0.00038731296 -0.026101314 0.0689619
000110 1a c0 38 3e 75 7b f1 bd 13 fa cf 3c 5b 9e 6d bd
       0.18042031 -0.11791126 0.0253878 -0.058012348
000120 48 06 d1 3d b6 2b 6a ba 1f 3f 23 be a5 5e 66 3e
       0.10206276 -0.0008932905 -0.15942048 0.22497042
000130 4b 0a 86 bd 55 f2 81 3d 23 b7 5f 3c 5c 2d 46 bc
       -0.06544932 0.06345049 0.013654503 -0.012095775
000140 34 0e a2 3b 12 d8 ba bd 08 bc 84 bc 65 59 1e 3d
       0.004945541 -0.091232434 -0.016202942 0.038659472
000150 da 2b 65 bd 43 3d ae 3c 6c 92 72 bb 32 30 8a 3d
       -0.055950023 0.021269446 -0.0037013544 0.06747474
000160 8f f3 ac bc e7 55 5d bd 62 90 b6 bd 34 ba 80 3d
       -0.021112232 -0.054037 -0.089142576 0.062855154
000170 91 a2 a7 3d 54 7e 40 3c 55 92 71 bc 34 dd 81 bd
       0.08185304 0.011748869 -0.014744361 -0.06341019
000180 91 f1 12 bd 37 2e dd 3d ae c0 05 3e f2 53 cc bc
       -0.035874907 0.107998304 0.13061783 -0.024942372
000190 4c 1e 6c bd c0 bc 13 be b6 e3 58 bd a3 63 db 3c
       -0.05764608 -0.14427471 -0.052951537 0.026780909
0001a0 b4 a4 56 3d cc 5a b2 3d 68 ba 9a bc ef 9a 51 3d
       0.052403167 0.087087244 -0.018887714 0.051173147
0001b0 ac 6b 4e 3d 8c 6e 81 3d 6d 35 8b 3d 61 71 62 bd
       0.050395653 0.06319913 0.067972995 -0.055283908
0001c0 3c bc 89 bd 44 ab a7 bc a5 7f b5 3b ae 1e 34 3c
       -0.06725356 -0.020467408 0.005538898 0.010993643
0001d0 1e 4c a8 bc f5 52 a1 3d a3 00 23 3d 84 c6 cc 3d
       -0.020544108 0.07877151 0.03979553 0.09998801
0001e0 68 b8 af bc 97 d1 48 bd f8 8a 3f 3e 7c 8e 1f bd
       -0.021450236 -0.049028005 0.18705356 -0.038954243
0001f0 eb ba 77 bc 83 6e 7a bd 00 41 f7 bd 38 85 5a 3d
       -0.015120248 -0.06114055 -0.12072945 0.053349704
000200 61 90 ab bb 9a 47 72 3d 2e ee 88 bc 97 18 c2 bd
       -0.005235717 0.059150316 -0.016715135 -0.094773464
000210 0e e8 f5 bc fa e7 83 bc 6e 2d 8c bd 86 c4 85 bd
       -0.030017879 -0.016101826 -0.068446025 -0.065316245
000220 b4 af 8c bd b8 33 a8 3d 00 12 ec 3c 50 b4 b5 3c
       -0.0686945 0.082129896 0.028817177 0.022180706
000230 95 41 fa bb e5 9d 48 3d d2 c8 6a 3d d7 33 8b bd
       -0.0076372125 0.048978705 0.057320423 -0.06796997
000240 2f 8b bc bc 00 e2 9d bb ee 24 06 bc 97 ef 1c 3d
       -0.023015587 -0.004818201 -0.008187516 0.03831443
000250 ce 4c 8f bd 09 43 36 bd 97 4d 7e bd 4e e5 ca bd
       -0.06997071 -0.044497523 -0.062085714 -0.09907018
000260 ca 98 e1 bd 30 91 95 bd 81 65 28 3d cf 20 06 bd
       -0.1101547 -0.07303083 0.041112427 -0.032746132
000270 81 af 39 3d d3 bd bf 3c 09 80 8d bd 78 22 00 3e
       0.04533339 0.023405945 -0.069091864 0.12513149
000280 7f f3 d1 3c 8e 44 61 3d 38 2a 3e 3d 01 00 99 3c
       0.025628803 0.05499702 0.04642698 0.01867676
000290 4e 29 de 3d 9b 2b 70 bd ed 31 c9 3d 86 46 28 3c
       0.10847722 -0.058635335 0.09823976 0.01027072
0002a0 51 75 9b 3c b9 e0 a1 3d 79 eb 4f bd 39 2c a9 3d
       0.01897684 0.079041906 -0.050761674 0.08260388
0002b0 bd a5 e9 3c 41 e1 ec 3d c7 3b 1c bd 91 c2 30 3d
       0.028521413 0.11566401 -0.038142946 0.043154303
0002c0 bc e3 e8 3d 7b 5c c7 3c 2a e9 42 3c c2 0f 8c 3d
       0.11371562 0.02433609 0.011896411 0.06838943
0002d0 a9 64 dc 3c 8e 18 ca 3d 94 95 a1 3d 8c 08 e5 3d
       0.026903467 0.09867965 0.07889858 0.11183271
0002e0 a3 34 35 bc d2 1f 45 bd f8 9e 44 bd 55 34 3b bd
       -0.011059913 -0.04812605 -0.048003167 -0.045704205
0002f0 df 70 43 3d 1a 47 9d bd 33 53 cc bd e3 2d 84 3d
       0.047715064 -0.07679577 -0.099768065 0.06454065
000300 f0 bf 0f 3d 0e 98 11 3e 6f 8b e7 3d ca bb c2 3d
       0.035095155 0.1421816 0.11305892 0.09508474
000310 53 d2 57 3e 21 3b 8a 3d a6 d9 7d 3a b5 25 78 bd
       0.21076326 0.06749559 0.0009683616 -0.060582835
000320 79 76 0d 3e f8 2d ca 3d 77 72 af 3e 33 e2 0d 3e
       0.13814725 0.09872049 0.34267017 0.1385582
000330 6e 80 91 3c 79 97 fd 3c 18 4d b7 bd 6f 5d 74 3d
       0.017761435 0.030956017 -0.08950251 0.059659418
000340 ec 0f 99 3d f9 ea e8 3d ff 6b 3a 3e 45 09 24 3e
       0.0747374 0.113729425 0.1820526 0.16019161
000350 a5 1d b1 bc 90 c5 a3 3c a7 e8 98 3d f3 ad bd bd
       -0.02162058 0.019991666 0.0746625 -0.09261694
000360 94 74 9c bd 5b 80 da bd a5 02 dc bc 24 da 38 bd
       -0.07639423 -0.10669013 -0.02685673 -0.04512991
000370 80 85 ea 3d 18 9a ba 3d c4 8e 0f bd e9 88 0f bd
       0.11451244 0.09111422 -0.03504826 -0.035042677
000380 8a 99 32 3e 40 28 94 bd 11 7f 8f 3d ca fb 61 bd
       0.17441383 -0.072342396 0.07006658 -0.055171765
000390 b7 6b fb 3d f1 34 84 bd 75 fb 79 bd 15 dd 81 bd
       0.12276404 -0.0645541 -0.061030824 -0.06340996
0003a0 9a b0 52 bd 87 d7 78 bc 1b 24 5a 3e 83 cf 8c 3d
       -0.05143795 -0.0151881045 0.21302836 0.06875517
0003b0 e2 df 1b 3e a9 27 7d bd 8d cb d0 3d 43 80 bf 3d
       0.15222123 -0.0618054 0.10195074 0.09350636
0003c0 71 7b fd 3d 00 92 5d bd 96 ed e7 3d 03 a8 03 3d
       0.1237706 -0.054094315 0.11324613 0.03214265
0003d0 03 45 e3 bd 70 89 9d 3d c9 47 a9 bb 1a c6 33 bd
       -0.11097147 0.0769223 -0.005166028 -0.043890096
0003e0 66 16 9d 3d 77 ef 38 3d 96 8c 3a 3e 46 40 a1 3d
       0.07670288 0.045150246 0.18217692 0.07873587
0003f0 65 9d b0 bc 28 55 a7 3d c4 23 0c bd 31 fc 7b bd
       -0.021559427 0.08170539 -0.034213796 -0.061519805

rnn.bias_hh_l0 f4 [256]
000000 c0 17 db bd 51 c6 37 3d c9 0a c9 3c bc a1 d4 3c
       -0.10697889 0.044866864 0.024541276 0.025956027
000010 9b ff 60 3e 71 06 8a 3d d3 1d 84 3b cb 6c 07 3e
       0.21972506 0.0673951 0.0040318756 0.13225095
000020 20 f7 29 3e 4d a3 13 3e 63 ac 59 3e fb a9 be 3d
       0.16598177 0.14417763 0.21257167 0.09309765
000030 88 46 2c 3d ee 90 b9 3c 4c f0 58 bc c0 1c 01 bd
       0.04205945 0.022652116 -0.013240885 -0.03152156
000040 15 fa aa 3d e1 d2 0e 3c fc f3 48 3d 25 f1 22 3e
       0.083484806 0.00871727 0.049060807 0.15912302
000050 a8 73 bc bd 65 b3 ae 3d ff 8d 23 bd 73 84 89 3d
       -0.09201747 0.085303105 -0.03993034 0.06714716
000060 e6 8a 18 3c 12 00 e3 bb 3e 52 c4 3c da 71 91 bd
       0.00931046 -0.0069274986 0.023964997 -0.071017936
000070 18 12 1f 3c 50 a3 b0 3d 71 22 8c 3d d3 a4 36 3c
       0.009708904 0.086248994 0.06842507 0.011147696
000080 c9 93 76 3d 89 ae b3 3d ff 4a 9b 3d 76 3b dd 3d
       0.060199533 0.08773524 0.07582664 0.10802357
000090 95 04 e5 3d 53 c8 8b 3d 51 ef 76 bc 3d 38 0d 3e
       0.111825146 0.06825318 -0.015071706 0.13790984
0000a0 e9 c1 2a 3d 15 f7 a6 bd 47 d1 bd 3e 8e 31 82 3d
       0.041688833 -0.08152596 0.37073728 0.06357108
0000b0 fa 79 d4 3d 58 5e aa 3d bf e4 45 bc 2c 41 5c bd
       0.10374828 0.08318776 -0.012078463 -0.05377309
0000c0 b2 44 72 bd 48 9b 14 3e e0 2e cc 3d 4b b1 4e 3d
       -0.059147544 0.1451236 0.09969878 0.05046205
0000d0 24 91 27 3c 6b ee 94 3c 2e 16 97 bb b7 20 d0 3c
       0.010227475 0.018180093 -0.0046107983 0.025406225
0000e0 97 f3 c3 bc d7 5b 93 bc 98 00 9d 3e 23 34 c3 3d
       -0.023919864 -0.017988129 0.30664515 0.09531429
0000f0 47 98 33 bd 13 61 aa bc eb 47 47 bb e6 07 55 3d
       -0.043846395 -0.020798242 -0.0030407857 0.052009486
000100 da ab 0c 3d ef 0f ff bc dd a2 64 3d 53 de 02 3d
       0.034343578 -0.031135527 0.05581938 0.031950306
000110 96 00 34 3e 9d 61 20 bd 1f 68 b3 3d 21 db 22 3d
       0.17578349 -0.03915559 0.08760094 0.03975976
000120 34 ce c5 bd 30 31 7b 39 4c 61 86 bd be 7f 2f 3d
       -0.09658471 0.00023955549 -0.06561527 0.042846434
000130 25 df 3c 3d 99 3f 97 3c 19 b6 b5 3d ee 7b c4 3d
       0.046111245 0.018462943 0.08872623 0.0959395
000140 b8 d1 9c bd fe 65 ba bd 0a 21 7c bd c5 bd 93 bc
       -0.07657188 -0.09101485 -0.061554946 -0.018034825
000150 bb 1b d3 bd 5b fa a4 3c 18 e4 0c be c4 d2 e9 3d
       -0.103080235 0.02013891 -0.13758886 0.114171535
000160 a4 81 ba bd 36 08 99 3d 63 e5 e9 bc c8 34 ca 3d
       -0.09106758 0.07472269 -0.028551763 0.098733485
000170 05 8d 8d bd 79 0c c7 3d ec 4c b3 bd a1 91 82 3d
       -0.06911663 0.09719176 -0.08754906 0.06375433
000180 bc 90 a3 3d 41 07 33 bd 2c 82 7a 3e ed e3 b5 3d
       0.0798659 -0.04370809 0.24463719 0.08881364
000190 5c 24 b7 3d 3e f8 7f 3d 4a dc 88 3d 54 ef 34 bd
       0.08942482 0.0624926 0.06682642 -0.044173554
0001a0 c2 c1 8b 3c 66 d4 90 3d 79 49 32 3d 91 cf 0c 3e
       0.017060164 0.07071762 0.0435271 0.13751055
0001b0 ed 75 00 bd 0c 90 8b 3d 15 f7 8a 3c a9 39 48 bd
       -0.031362463 0.06814584 0.016963521 -0.048883114
0001c0 32 7a 3a 3d 72 e0 c5 bb 9b d5 f7 3b c8 37 31 3d
       0.04552669 -0.006038719 0.0075633056 0.043266088
0001d0 29 9e 87 3d d0 13 dc bb bf 0d 65 3d 0e d1 29 bd
       0.066219635 -0.006716229 0.055921312 -0.041459136
0001e0 e4 0f 0f bd cf 69 d9 bd cf 3b 4b 3e cc fc 2b 3c
       -0.034927264 -0.106158845 0.19847034 0.010497283
0001f0 6d 76 f3 bb 63 5c 06 be 83 40 03 bd e2 08 cd bd
       -0.007429889 -0.1312118 -0.032043945 -0.1001146
000200 80 a0 9e 3d 19 c1 83 bd 9e 1c a0 bd b4 7f 1c bd
       0.07745457 -0.06433315 -0.07817958 -0.038207725
000210 32 f9 9e 3c 79 f9 95 bb 96 10 a7 3d b1 68 5d 3c
       0.019405935 -0.0045768586 0.081574604 0.01351373
000220 7e a8 e6 3d 3e 50 d6 bd dc 93 5e 3d 70 32 c9 bc
       0.11262606 -0.10464524 0.05434023 -0.024560183
000230 12 af 0d bd fc 94 a3 bb d9 72 c3 3c 23 f2 cc bd
       -0.03459079 -0.0049921256 0.023858475 -0.100071214
000240 f6 12 11 bd 74 ee e7 3d 66 fe 34 3b bd ee 63 bd
       -0.035418473 0.11324778 0.0027617454 -0.0556476
000250 62 67 15 3d a0 d0 ca bd 6b d2 50 3b 0c d6 9b bc
       0.036475547 -0.09903073 0.00318637 -0.019022964
000260 be 45 be 3d 89 7d fb 3c 21 c3 25 3d 46 e0 d3 bd
       0.09290646 0.030699508 0.040469293 -0.10345511
000270 93 51 da bd f7 3f e5 3c 44 36 e2 3c 23 24 d4 bd
       -0.1066009 0.027984602 0.027613766 -0.10358455
000280 59 2e bb 3c 31 2c bb bb 81 db 7c bd 46 ef 80 bc
       0.022849249 -0.005712055 -0.061732773 -0.015739094
000290 9e 6c aa 3d fe 62 c7 3b aa 84 5a 3d 90 1f 35 3d
       0.08321498 0.006084799 0.053349175 0.044219553
0002a0 5d 98 23 bc 79 08 ba ba fd 06 53 3d 42 19 e5 bc
       -0.009985057 -0.0014193199 0.051520336 -0.027966145
0002b0 29 86 a0 bd 8e ac 6c 3d 32 a3 de 3d 08 2c 8d bd
       -0.07838089 0.05778175 0.10870971 -0.06893164
0002c0 9a d9 d2 bd 70 ff 19 3c 62 9d f7 3b 45 c4 0a 3d
       -0.102954105 0.00939928 0.0075566033 0.033878583
0002d0 12 06 8b 3d 1c e9 02 3d 2c a9 1d 3c d3 69 28 3c
       0.06788267 0.03196059 0.009622853 0.010279137
0002e0 0b 7e fd 3c 08 96 b5 3d b7 24 50 3c 53 0e 8c 3d
       0.030943891 0.08866507 0.012704066 0.0683867
0002f0 07 2a 6e 3d 40 b5 8a bd 3b ef cf bd a3 0d b2 3d
       0.05814555 -0.06772852 -0.101530515 0.08694007
000300 cb b8 f5 3d 78 63 7f 3d 66 d0 4b 3d 68 0e ad bd
       0.11998137 0.06235072 0.04975929 -0.084500134
000310 f1 ff 6a 3e e8 6c 08 3e 99 bf 45 bd 43 2f d8 3d
       0.22949196 0.13322794 -0.048278425 0.105558895
000320 42 6b 42 39 75 ea 32 3e 0d 8a a9 3e 24 19 06 3e
       0.00018541238 0.17472251 0.33113137 0.13095528
000330 3f 00 86 3d ab 15 f7 3d 58 02 d4 3c da fb 88 3c
       0.06543016 0.1206468 0.025880024 0.016721655
000340 16 cf 8d bd d3 17 73 bd 97 ed 42 3e 30 7a 3d 3d
       -0.06924264 -0.059348892 0.19035946 0.046259105
000350 6a 6f 02 3d fa 94 9f bd 4d b7 16 3d 29 3a 8a bd
       0.031844534 -0.07792087 0.036795903 -0.067493744
000360 8b 81 17 bc c0 50 f9 bc 14 5e 0f 3d fe 29 7c 3d
       -0.009247194 -0.030434012 0.03500183 0.061563484
000370 07 6a 59 bc 41 36 4a bd 8d f6 9a bd 99 a9 17 3e
       -0.013269908 -0.049368147 -0.07566557 0.1481079
000380 4d 58 b5 3d fb b9 ab 3c 11 4e 97 3e a2 68 72 bd
       0.08854733 0.020962706 0.29551747 -0.059181817
000390 57 97 b5 bd a0 e9 71 3d 69 ed e6 bd 4a 4c a2 3d
       -0.088667564 0.059060693 -0.11275751 0.07924707
0003a0 3d 9a c6 3d d8 57 f5 bc 36 36 23 3e ab 17 5a bd
       0.09697387 -0.029949114 0.15938649 -0.053245228
0003b0 e1 d4 f3 3d 57 ac ed bd 29 75 45 3d 6f 5e 84 bd
       0.11905838 -0.11605137 0.048207436 -0.06463324
0003c0 a3 19 ae bd f9 b9 f2 3d f5 09 8b 3c 9e f5 23 3c
       -0.085009836 0.11851878 0.016972521 0.01000729
0003d0 66 3b c6 3c a6 2b 97 3c 09 07 ac 3d 16 29 e0 bd
       0.024198245 0.01845343 0.08399779 -0.109453365
0003e0 e6 98 9e 3d 9c c4 d7 3b 16 54 f6 3d f2 1e 3a bd
       0.07744007 0.006584717 0.12027757 -0.045439668
0003f0 e5 44 12 bc ac 31 c7 bd 50 68 13 bd 51 ba b1 bd
       -0.008927559 -0.09726271 -0.035988152 -0.08678115

rnn.weight_ih_l1 f4 [256, 64]
000000 13 1a 49 3e e8 3b c6 3d dd 1a c5 bb d4 c5 68 be
       0.19638853 0.09679395 -0.0060151652 -0.22731715
000010 bc d8 5e 3d 2e b8 86 bd bb 63 0e 3e 88 01 0b be
       0.054405913 -0.06578098 0.13905232 -0.13574803
000020 49 e0 fa 3d 60 45 c2 3d 83 b8 47 bd 7e 91 bd 3d
       0.1224981 0.094858885 -0.04875995 0.09256266
000030 c5 7f a9 bc 1f ad 9b 3b 40 4e 1a 3c 4d e2 62 be
       -0.020690808 0.0047508623 0.00941807 -0.2215664
000040 3e e5 cb bd 69 fc 17 3d ac 67 e6 bd 5c 0c 28 3c
       -0.09955834 0.03710595 -0.112502426 0.010256853
000050 73 59 11 bc 84 42 7a be cf 2f d6 3d 58 41 32 be
       -0.008871424 -0.24439436 0.104583375 -0.17407739
000060 4f b6 2d 3d cd 5f 80 be 58 96 ea 3d 8d 61 86 bd
       0.04241019 -0.2507309 0.11454457 -0.06561575
000070 0b 7c 97 bd fe 46 fb 3d 09 a0 c5 bb f6 8d 68 bd
       -0.07396706 0.122694 -0.0060310406 -0.05677601
000080 35 19 e3 3d 53 39 b4 3d 1a 47 c8 bd 42 6a 7d bd
       0.11088792 0.08799996 -0.097791865 -0.061868913
000090 b0 e1 8c 3e aa d6 f7 bd f2 0c 0c 3e de aa 4b 3d
       0.27515936 -0.12101491 0.13676813 0.0497235
0000a0 4a 93 bd 3b c2 0b e2 3d 9c 53 05 3e 99 31 36 3e
       0.0057853805 0.11037399 0.13020176 0.17792358
0000b0 7f 55 05 be f9 e0 7a 3e 6b 8f 29 3e 33 04 93 3d
       -0.13020895 0.24499883 0.16558616 0.07178535
0000c0 e0 6b 67 bc 51 76 b7 3d 2d 56 1f 3d 22 b8 32 3e
       -0.0141248405 0.08958114 0.038900543 0.17453054
0000d0 f4 13 62 3e 1b c0 5c 3d 0f cc 35 3e 42 da f7 3d
       0.22077924 0.053894144 0.17753623 0.12102176
0000e0 e4 50 e1 3d 0d d9 4e 3d 85 a1 16 3e f8 51 ee bc
       0.11001757 0.050499965 0.14710052 -0.02909182
0000f0 3a da 08 3e c7 9f c6 bd ea f5 4d be 84 6e 13 3e
       0.13364497 -0.09698444 -0.2011334 0.14397627
000100 ab 00 79 bd 5b 58 f1 bc e8 11 41 3d f4 64 75 bd
       -0.060791653 -0.029461076 0.047136217 -0.05991073
000110 b2 ca 49 bd 97 93 f0 3c a7 ad 3f 3d 39 2b 10 bd
       -0.04926557 0.029367251 0.046796467 -0.03519747
000120 34 b4 01 bd 69 61 15 be 64 e4 08 be 08 59 a0 bd
       -0.031665996 -0.1458794 -0.13368374 -0.07829481
000130 91 5d eb 3d b5 0d b1 bd d8 fa b2 bd cb d5 53 3c
       0.11492456 -0.086451925 -0.08739251 0.01292939
000140 94 84 2d 3a 60 78 e2 bd 0e ff 8b bc a6 04 f4 3c
       0.0006619182 -0.11058116 -0.017089393 0.029787373
000150 ef be 95 bd 38 04 d4 3c 24 ef 93 bd e0 c7 3a 3b
       -0.07311808 0.025880918 -0.07223347 0.0028500482
000160 0c dc 01 be 70 cc 7f bd 8f 96 a1 bd c9 09 ad bd
       -0.12681597 -0.062450826 -0.07890045 -0.08449132
000170 c9 83 cb bc f2 8d e9 3d 64 49 34 bd 4c fa 96 bd
       -0.024843113 0.11404027 -0.044015303 -0.07371959
000180 97 f3 32 3b 05 50 58 3d e8 c3 8f bc ff 8c fe 3b
       0.0027305835 0.052810688 -0.01754947 0.007768273
000190 2f 68 04 be 36 71 11 3e 04 82 b8 3d 24 e7 f3 3c
       -0.12930368 0.14203343 0.090091735 0.029773302
0001a0 1a fd f4 bd 72 4d 61 3c 87 26 14 be de 99 21 be
       -0.11962338 0.013751375 -0.14467822 -0.15781352
0001b0 07 10 16 be 5e 51 00 be 9e e5 2f bd 0f d1 f9 3a
       -0.14654551 -0.12531039 -0.04294359 0.0019059497
0001c0 a6 c3 7b bc f9 c3 b7 bd 98 f2 cd bd 06 a4 f0 bc
       -0.01536647 -0.08972926 -0.10056037 -0.029375087
0001d0 d9 43 2d 3d 0a 7a 27 3d 8a 3c 47 bd 58 72 91 3d
       0.042301033 0.04088787 -0.04864172 0.071018875
0001e0 03 df 24 3d 45 8f 9b bd 9b 37 ff bd d8 b6 14 3e
       0.040251743 -0.07595686 -0.12461778 0.14522874
0001f0 a8 35 9d bd b3 c6 a3 3c ed f6 a3 3d 15 e2 d5 bd
       -0.0767625 0.019992208 0.08006082 -0.10443512
000200 1d fd 89 3d 16 5e 3d bd f2 10 8d 3d c3 11 64 3d
       0.06737731 -0.046232305 0.06887998 0.055681
000210 d2 78 08 bd 27 2a 92 3d a9 cd ef bd 81 1b e2 3d
       -0.03331835 0.07136946 -0.117091484 0.11040402
000220 e3 68 db bd 43 8e 51 3d 66 b1 96 3d be 99 11 3d
       -0.10713365 0.051161062 0.07358055 0.03554701
000230 7b eb f4 3b 39 52 9d bd 92 41 2e 3d 1d f3 65 3c
       0.0074743605 -0.07681698 0.042543 0.0140350135
000240 4c 6c 29 bd 72 3f 29 bd c5 b6 ce bc f8 a8 69 3d
       -0.041363046 -0.04132027 -0.025233636 0.057045907
000250 18 39 f1 bd bc 23 6e bd 51 de 22 3d 11 92 f6 bc
       -0.11778468 -0.058139548 0.0397628 -0.030098947
000260 dc ab bb 3d 72 f2 24 3d 96 7d f7 bd be 56 a2 3d
       0.09163639 0.040270276 -0.120845005 0.07926701
000270 7c c8 b3 bd 2a a0 13 3d 68 e5 6f 3c 96 fb 51 bc
       -0.08778474 0.036041416 0.014642097 -0.01281633
000280 0f 62 57 bd 30 4e b3 3d a2 61 1c 3c fd 2b 35 bd
       -0.05258375 0.087551475 0.009544762 -0.044231404
000290 de ef 85 bc 36 49 06 3d 98 6f 19 bc 39 b9 1a 3c
       -0.01634973 0.032784663 -0.009364985 0.009443575
0002a0 52 9d 96 bd c1 4e dd bd 7b 2b d0 bd c5 ac e4 3d
       -0.07354225 -0.10806037 -0.10164543 0.11165766
0002b0 ee 41 56 bd e2 d7 d2 bc 22 d4 d2 3c 3d d2 8a bb
       -0.05230897 -0.025737707 0.025735918 -0.004236488
0002c0 2e 14 f5 bd 25 1c 78 bd 40 56 9f bd 4d 01 03 bc
       -0.119667396 -0.060573716 -0.07780123 -0.007995916
0002d0 e5 75 99 bd 38 67 ed bc 6c a3 86 3d ca ed 00 3e
       -0.0749319 -0.028979883 0.06574139 0.1259071
0002e0 dd ff 2e bd 42 4e d5 3d 8a df 20 bd 43 9a 0e be
       -0.04272448 0.10415317 -0.039275683 -0.13926034
0002f0 c7 1d b8 3d c3 0b 9f bc 2b ea 8c 3c b6 3e b7 3d
       0.089900546 -0.019414788 0.017201504 0.08947508
000300 b9 e5 a9 3c a0 ce 7e bd c5 7d 87 bd fd 36 b4 3d
       0.020739423 -0.06220877 -0.066157855 0.08799551
000310 da ec c7 3d b2 cd 1d 3d 33 e2 17 3d 29 b2 67 3d
       0.09761973 0.038526244 0.037080955 0.05656639
000320 a0 7c 09 3d 10 f4 39 bd d4 03 da 3d 3d d0 95 bc
       0.033566117 -0.04539877 0.106452614 -0.018287772
000330 fc ff 84 bd 01 11 5c 3d d3 ca 14 3d ac c8 b3 bd
       -0.06494138 0.053727154 0.03632624 -0.087785095
000340 a7 21 d6 bd 11 44 3d bc 7c c7 3f be 9d 93 2c be
       -0.104556374 -0.011551873 -0.18728441 -0.16853185
000350 01 4f e3 bd c3 07 a3 3d 8a 8f 06 3e cd 1f b8 bd
       -0.11099053 0.07960465 0.13140693 -0.089904405
000360 27 e5 bf bc f2 66 b7 3d d4 ca 5f bd c3 9b cc bc
       -0.023424698 0.08955182 -0.05463679 -0.024976617
000370 3e 01 fd 3d 09 70 9d bd 51 73 b3 3d 8f 48 32 bd
       0.123537526 -0.07687385 0.08762229 -0.04352623
000380 68 13 bd bd 23 6b 82 3d a4 3d 37 be ac 6a 5a bc
       -0.09232217 0.06368091 -0.17894608 -0.013331097
000390 03 71 e1 3d 67 0c e5 bd 89 c3 d9 3d 8d 5f 50 3b
       0.110078834 -0.11184006 0.106329985 0.0031795234
0003a0 0e 12 8c bd 09 e9 44 bb cf 53 0b 3c ec ae b0 3d
       -0.06839381 -0.0030046126 0.008503868 0.08627114
0003b0 9a f0 89 bd 1d b9 ce 3c a0 a0 9a 3c 9b 22 99 bd
       -0.06735344 0.025234753 0.01887542 -0.074773036
0003c0 78 fd 07 be 16 67 e4 3d 96 69 37 bd 5d 46 da 3d
       -0.13280284 0.111524746 -0.04477843 0.10657952
0003d0 f4 d5 ba bd 4f f9 08 3e 53 cf 2e 3d 8c 9a ac bc
       -0.091228396 0.13376354 0.04267819 -0.021069787
0003e0 c1 fc bf 3d d3 4a c3 3c be 9d e7 3c 00 54 a8 bc
       0.09374381 0.02383939 0.02827346 -0.020547867
0003f0 fb ea e1 3c 6e 7f b4 3c 16 a5 e2 bd e8 a4 22 bd
       0.027577868 0.02203342 -0.11066644 -0.039708048

rnn.weight_hh_l1 f4 [256, 64]
000000 ea 76 8d bd 7c ff 23 be 45 4b 0a 3e 28 71 b0 3d
       -0.06907447 -0.16015428 0.13505276 0.08615333
000010 ec 71 14 3d 10 18 23 be 61 3d d4 bd c8 90 3c 3d
       0.036241457 -0.15927148 -0.103632696 0.04603651
000020 1f 30 06 3c 04 2f e2 bc 5d 36 d2 3c 7a be 58 bd
       0.008190184 -0.02761031 0.025660688 -0.052916028
000030 c9 3a 16 be dd e7 3d bd ff 0e d0 bc 07 dd 3f be
       -0.14670862 -0.0463637 -0.025397776 -0.18736659
000040 ee 64 6a 3e bb c7 e8 bb ee 3a 39 bc 50 db 8c 3d
       0.22890064 -0.007103888 -0.011305554 0.06877768
000050 e5 48 54 bd e0 17 33 bd 0c 27 da 3c 28 e8 03 3e
       -0.05182733 -0.04372394 0.026629947 0.1288153
000060 d2 c1 6a bd f3 e8 f3 3d a2 5b 3a be 72 95 f8 3d
       -0.057313748 0.11909666 -0.18199018 0.121378794
000070 cc b3 5d 3e a1 bf 1b 3b c9 8f 86 be 5d 3b 32 3d
       0.21650618 0.0023765343 -0.26281574 0.043513644
000080 b9 1f 3e be d8 f8 11 3d d9 a4 e9 3b 5b 5f 80 3e
       -0.18566789 0.035637707 0.007130247 0.2507275
000090 85 d1 b4 3d 4e 3e c2 bc da 8b 5a bd b2 14 8c 3c
       0.08829025 -0.02371135 -0.05335603 0.017099712
0000a0 a6 81 89 3d 3e 6f 0f 3e 62 55 39 ba ac 23 98 bc
       0.067141816 0.1400728 -0.0007069913 -0.018571697
0000b0 a8 ac 58 be ac 7d 00 3d 75 35 6f 3e 64 75 2d bc
       -0.21159613 0.03136985 0.23360236 -0.01058707
0000c0 f3 bc fd bd d8 3e 5e 3d 92 08 27 3d de f4 50 3d
       -0.12389555 0.05425915 0.040779658 0.051014774
0000d0 d3 98 03 bd cf 22 29 3e 9d 6b d0 3d a3 7e c3 3c
       -0.032128166 0.16517185 0.101767756 0.023864096
0000e0 71 ed 21 3e db 64 34 3e 3b 24 fc 3d 7e e7 8c bd
       0.15813233 0.17616598 0.12311598 -0.06880091
0000f0 7f b3 e5 3d 34 1e cd 3d a8 2b 14 be d5 88 59 3d
       0.11215877 0.100155264 -0.14469779 0.05310901
000100 14 59 cc 3c 23 11 40 3b f4 2c a8 bd aa 3d b6 3d
       0.02494482 0.002930709 -0.08211699 0.0889848
000110 99 2f 0b 3d 83 ca 58 bd 9c bc 8a bd 8f dc 2b 3d
       0.03398094 -0.052927505 -0.06774256 0.041958388
000120 34 7a 1f 3d aa 43 7b 3c ad 69 a1 bc 16 b4 ee 3c
       0.0389349 0.015335957 -0.01970371 0.029138606
000130 d1 8a 2b bd 2e bc e3 3c 51 de 15 be 32 51 b9 3d
       -0.041880433 0.027799692 -0.14635588 0.0904869
000140 03 e2 62 bd bb 7f 97 3d 0e b6 93 3d f0 e2 be bd
       -0.055391323 0.073974095 0.072124586 -0.09320629
000150 7b fb 6a 3c 21 d5 e2 bc 3b 86 24 3d 34 a0 0c bd
       0.014342184 -0.027689518 0.040167075 -0.03433247
000160 d2 a4 d6 3d b1 d1 cc bd d9 23 bc bd 0b 76 b8 3d
       0.10480656 -0.10000933 -0.09186525 0.0900689
000170 d1 04 e0 bd b4 7c c3 3d 76 43 16 3b 55 15 ee bd
       -0.10938419 0.095452696 0.0022928393 -0.116251625
000180 84 a5 05 bb cc 79 b8 bb 33 24 b6 bd 44 35 88 3b
       -0.0020392844 -0.0056297537 -0.08893623 0.0041567404
000190 53 25 cd bc a6 c5 16 3d 2f 12 0c bd 70 8f c8 bd
       -0.025042212 0.036809586 -0.03419703 -0.097929835
0001a0 bc 49 8e 3d b0 a7 b6 3d 8d 07 dd 3d f7 37 c0 bd
       0.069476575 0.089187026 0.10792456 -0.093856744
0001b0 42 3f 2f bd ad b2 e6 3d 84 21 92 bd b5 d4 90 3c
       -0.042784937 0.112645485 -0.07135299 0.017679552
0001c0 ef 63 10 3e e0 eb 00 be 63 e3 7b bd e3 b9 bf bd
       0.14100622 -0.12589979 -0.06149615 -0.09361627
0001d0 1a 49 49 bd 6c f6 87 bd 3f 35 a2 3d ce 55 44 3d
       -0.04914198 -0.06638798 0.07920312 0.047933392
0001e0 ac e5 cc 3d 14 e1 b2 bd c6 b8 13 3c a0 aa f9 bc
       0.10004744 -0.087343365 0.009016221 -0.030476868
0001f0 3c 7f d3 3d 6b 85 4a bc 72 ea 97 3d 4a 89 ab 3d
       0.103270024 -0.012360911 0.07417764 0.08375795
000200 80 0e d8 bd 9b 3c 25 bd 97 9d c9 3d d0 67 43 3d
       -0.10549641 -0.040341 0.09844511 0.047706425
000210 5d f2 8e bc 59 6b fc bd 5d a3 bf bc e4 8a ea bd
       -0.017449552 -0.123251624 -0.023393327 -0.114522725
000220 e8 90 ba bc 0f 85 8f 3d e8 3e 99 3a 02 9b 26 3c
       -0.022774175 0.07007801 0.0011691721 0.010168793
000230 36 d7 f1 3b f6 a3 23 bc 31 77 19 bd 0c 69 7a 3d
       0.0073803915 -0.009987822 -0.037467185 0.061135337
000240 8a e7 bc 3c a9 60 e1 bc 25 a9 1d bd 1d bb f7 bd
       0.023059625 -0.027511911 -0.038491387 -0.12096236
000250 de 6f 04 bd 95 b9 69 3d 3d b0 a0 bd 77 1d f2 bd
       -0.032333247 0.05706175 -0.07846115 -0.11822026
000260 91 c7 7c bd c5 f5 f4 bd e4 ce c3 bd 97 de 36 3d
       -0.06171376 -0.11960939 -0.09560946 0.044645872
000270 04 1d f3 3d 0a 13 f6 bd 5e 48 de 3d 9f 32 84 3d
       0.11870769 -0.1201535 0.10853647 0.06454968
000280 7e d0 80 3d a0 59 36 3d a0 70 03 bd 50 74 d1 bc
       0.06289767 0.044519067 -0.03208983 -0.025568157
000290 af db fe 3c 0e d8 59 3d 03 6b e0 3d fd 55 a2 3c
       0.031110613 0.05318456 0.10957911 0.019816393
0002a0 29 01 63 3d ff fa 9f 3d 76 31 af bd cd 47 32 3c
       0.05542103 0.078115456 -0.08554356 0.010881376
0002b0 92 1b ac 3d 6a 65 c2 bd c4 62 98 3d d0 3d 1c 3c
       0.08403696 -0.094919994 0.07440713 0.009536222
0002c0 27 46 5b 3d b3 ad d2 bd d7 58 63 bd 79 31 24 bd
       0.0535337 -0.10287037 -0.055504646 -0.040086243
0002d0 d0 4d a0 bd 43 17 30 bd 70 cb 3a 3d e0 78 5a 3c
       -0.078273416 -0.042990934 0.04560417 0.013334483
0002e0 15 f0 b8 3c aa dd 23 3d 6f 49 7c 3c 5c 7d 33 3d
       0.022575418 0.040006317 0.015398367 0.043820724
0002f0 dc d4 70 bc d4 50 f9 3d c4 a1 99 3c a0 f0 da 3d
       -0.014699187 0.1217362 0.018753894 0.10690427
000300 b1 4c 92 3d 1d 24 b0 3d 23 1a c6 3d 4c ed 1a bd
       0.07143534 0.08600638 0.09672954 -0.03782396
000310 1d 7b 3f 3c 2f e7 56 bd d0 6e 9d 3d de 49 30 bd
       0.011687067 -0.052466568 0.076871514 -0.043039195
000320 49 b6 0c be d6 8e 94 bd 95 14 cc 3c f0 b8 53 bc
       -0.13741411 -0.07253806 0.024912158 -0.0129225105
000330 26 3f 9f bd c1 81 21 bd 01 1d 7b 3c bc 8b 51 bd
       -0.077757165 -0.039430384 0.015326739 -0.05115865
000340 aa 81 9f 3d e2 ff d4 3d a0 19 89 3d 6b f3 78 3c
       0.07788403 0.10400368 0.06694341 0.015194754
000350 0d fc d5 bc 74 3c 32 bd 33 26 82 bd 05 ab a1 3d
       -0.026121164 -0.043514684 -0.06354942 0.078939475
000360 ef ca 83 bd 03 79 69 bd cd d6 72 3d 0f e6 3c bc
       -0.06435191 -0.05700017 0.05928688 -0.01152946
000370 58 76 73 3c 0d bf 01 bd ee 7a 69 bc f6 d5 e9 3d
       0.014859758 -0.03167634 -0.0142505 0.11417763
000380 17 34 bf 3d 46 eb 86 bc 32 cc df bd 2d 45 0c 3d
       0.09336107 -0.016469609 -0.10927619 0.03424566
000390 a5 5b 92 bd 7e e4 13 3d ac b3 cf 3d 21 4d e4 bc
       -0.07146386 0.03610658 0.101416916 -0.02786881
0003a0 83 3a ac bd 55 8e 93 3d 58 75 63 bd 3e 7b df bd
       -0.08409598 0.07204882 -0.05553183 -0.109121785
0003b0 7d a9 cb 3d 67 37 93 bd 2a 38 50 3c 20 22 d1 bd
       0.09944437 -0.071883015 0.012708703 -0.10211587
0003c0 1b 51 92 3d 39 b0 e6 3d e2 52 f6 bc e2 68 e9 bd
       0.07144376 0.112640806 -0.030068818 -0.11396958
0003d0 bb 40 8b bd d1 85 97 3d eb d2 e7 bc 68 09 47 bd
       -0.06799456 0.0739857 -0.028298816 -0.048592955
0003e0 c3 91 ce 3d 67 55 f7 3c 3c 23 07 bd 69 34 51 bd
       0.100863956 0.03019209 -0.032992586 -0.051075373
0003f0 cc 88 9f bd 79 42 fd bd 78 de 21 3d fe 1c d3 3d
       -0.07789764 -0.12366194 0.039518803 0.10308264

rnn.bias_ih_l1 f4 [256]
000000 b0 13 fa 3d 3e c4 eb bc 29 70 01 bd c3 66 d2 3d
       0.12210786 -0.028780099 -0.031601105 0.102735065
000010 97 6d e3 3d 07 29 9b bd 8e 27 c5 3e a4 59 eb bd
       0.11104887 -0.07576185 0.3850674 -0.11491707
000020 9d fd fb ba b3 c6 e8 bb d2 05 e2 bd 84 92 a1 3d
       -0.0019225363 -0.007103765 -0.110362664 0.07889274
000030 0d 3e e2 3c 1a 87 27 3e c6 e0 bc bd 39 7c d8 3d
       0.027617479 0.16360131 -0.0922256 0.105705686
000040 e5 42 4a bd 03 07 f0 bd 1f 08 4c bd 42 57 f2 bd
       -0.0493802 -0.117200874 -0.049812432 -0.11833049
000050 27 7d c7 3d f2 0d a2 3d 82 8e 90 3d 90 a4 3f 3d
       0.09740668 0.07912816 0.07058431 0.0467878
000060 b0 8d 03 3e 53 ae 6a bd 74 20 05 3e 7f fd 79 3d
       0.12847018 -0.057295155 0.13000661 0.06103277
000070 b5 14 c5 3d f1 49 ee bd ea 98 dc bc 1d c9 30 bd
       0.0962309 -0.11635197 -0.026928384 -0.043160547
000080 86 f0 be 3d 1f 8d b8 3d 1b bb 97 bd 43 94 32 bd
       0.0932322 0.09011292 -0.074087344 -0.043598425
000090 de 41 0a 3e 70 54 f1 3c 2b a6 42 bd b1 aa 79 3e
       0.13501689 0.029459208 -0.04752175 0.2438152
0000a0 29 5f 02 3f 96 6d ea 3d d2 12 b9 bd f6 ed 38 3d
       0.5092645 0.11446683 -0.09036793 0.045148812
0000b0 9c 72 3a 3d 6b e9 36 bd dd 32 bb 3d 42 2e 1e bd
       0.045519456 -0.0446562 0.09140561 -0.038618334
0000c0 0f 21 8f bd ed 88 d1 3d 25 07 1a bb ef e4 e1 bd
       -0.06988727 0.10231195 -0.0023502794 -0.11029994
0000d0 c8 39 c5 3d f6 3d de 3c bf 2d a8 bc 74 5c eb 3c
       0.096301615 0.027129155 -0.020529626 0.028730609
0000e0 7d 89 f0 bd fa c4 dc bd 25 2b 8e bd 9e d4 27 bd
       -0.11744974 -0.10779758 -0.06941823 -0.040974252
0000f0 32 d3 14 3d 3f 97 f9 3d 73 81 16 bd e3 d2 03 bd
       0.036334224 0.12187051 -0.036744546 -0.03218354
000100 05 15 1e bd 14 7e c4 bd 60 5b 82 3d b5 c2 af 3d
       -0.038594265 -0.0959436 0.06365085 0.08582059
000110 1e 0e 16 3d 58 b2 a5 bd 78 53 59 be a7 88 13 bd
       0.036634557 -0.08090657 -0.21223247 -0.036018994
000120 fd 38 9b 3d bd 90 8d bc 71 b3 a3 3d 6c 40 95 39
       0.07579229 -0.01728093 0.0799321 0.00028467493
000130 b1 56 a3 bd e3 94 41 bd a8 4c 80 3d fa d2 a2 bd
       -0.079755194 -0.04726113 0.06264621 -0.07950397
000140 54 ce 61 bd 50 cb a4 bd 71 0a da bc 85 e2 88 bd
       -0.05512841 -0.08046591 -0.026616307 -0.0668383
000150 c8 64 bd bd 69 a4 b0 bd 0b 3e 00 be 17 90 75 3d
       -0.09247738 -0.08625109 -0.12523668 0.059951868
000160 d7 f5 8e bc 25 eb 8e 3d 9d d7 a5 bd c7 7e d3 3d
       -0.01745121 0.06978444 -0.080977656 0.10326915
000170 7d ac fd bd 08 d7 a3 3d ef f0 92 bd 2a 4c cd 3d
       -0.12386415 0.07999998 -0.07174861 0.10024293
000180 ef 85 cb bd 2b 86 0b be c7 9c 24 ba e8 a6 ff 3c
       -0.09937655 -0.136254 -0.0006279465 0.031207517
000190 8f 8f 2e bd 44 1e a7 3d 2f d1 20 3d 47 70 06 be
       -0.042617377 0.081600696 0.039261993 -0.13128768
0001a0 89 b9 27 be f2 c0 e6 bd 3d 35 08 be 34 ae b4 3d
       -0.1637937 -0.1126727 -0.13301559 0.08822289
0001b0 83 26 8c bd 5e 8d ba 3d 37 1e d4 bd 89 7d b6 bd
       -0.06843283 0.09108995 -0.103573255 -0.08910663
0001c0 d1 cf 8c 3d a2 df 94 3c 8c b5 c9 3d 84 4f 9b bd
       0.06875575 0.018173043 0.098490804 -0.07583526
0001d0 45 73 0d be 16 b4 a2 bd 41 67 8d bd 7d 3b 2d bd
       -0.13813503 -0.07944505 -0.0690446 -0.04229306
0001e0 7d 1b 1a 3d ed 3a 8a 3d ab 99 42 3d 26 d9 14 3d
       0.03762387 0.067495205 0.04750983 0.0363399
0001f0 d2 8e 16 bc d3 67 b8 3c 5a 5f 92 3d 14 8b 9c 3d
       -0.009189324 0.022510445 0.07147093 0.076437145
000200 9e 45 9e 3d 18 c2 81 bd 7f 40 8e 3c 2c d6 c1 3d
       0.07728122 -0.063358486 0.017364739 0.09464678
000210 9f 35 6c 3d a1 91 ab bd 82 6f d6 3d fd f9 cd 3d
       0.057668325 -0.08377386 0.10470487 0.10057447
000220 90 b5 fa 3d c7 11 71 3d c6 d2 e5 bd aa 04 d7 bd
       0.122416615 0.058854844 -0.112218425 -0.104989365
000230 88 05 68 bd 60 a0 f0 3d b7 ba c0 3c 1d d9 c9 bb
       -0.0566459 0.11749339 0.023526533 -0.006159915
000240 ae 21 75 bd 67 37 b4 bc f4 5b c2 3b d0 8a b7 3d
       -0.059846573 -0.021999074 0.005931372 0.08962023
000250 36 d0 b0 bd a5 e3 3a 3d b6 3e 9d bd 5f 19 35 3d
       -0.08633463 0.045627255 -0.07677977 0.04421365
000260 a5 a3 55 bd 70 08 5c bd cb 12 e4 bd 46 39 46 bc
       -0.052158017 -0.053718984 -0.11136397 -0.012098616
000270 30 df c4 bc 85 6a 8e bc e3 f6 e9 bd 27 f9 60 3d
       -0.024032205 -0.017384777 -0.11424043 0.05492511
000280 7a 74 ad bd fa bd 16 3d cb e9 79 3d 2a fc bf 3d
       -0.08469482 0.03680227 0.061013978 0.09374268
000290 07 fe 37 bd d6 65 a2 bd b4 bf 02 3d 6d ae cb 3d
       -0.044919994 -0.0792958 0.031921104 0.099453785
0002a0 17 79 12 bd 06 11 f6 3d 0c c0 a7 3d c9 e4 75 bc
       -0.03576001 0.12014966 0.08190927 -0.01500816
0002b0 90 21 08 3d 56 cd d0 bd 9d 99 fd 3d e6 e1 9d 3d
       0.033235133 -0.10195415 0.12382815 0.07709102
0002c0 9b bb 4d 3d 9e 2d b2 3d a8 0c 5b 3d 2b 82 b3 3d
       0.050227743 0.08700107 0.053478867 0.08765062
0002d0 e9 03 bd 3c f1 10 9a 3d 25 06 2d bd 79 a8 84 bd
       0.023073154 0.075227626 -0.042242188 -0.06477446
0002e0 05 b1 8a bc 76 40 1c 3d c9 c0 3c 3d b2 67 7e bd
       -0.016930113 0.038147412 0.04608229 -0.06211061
0002f0 87 02 82 bc 81 df 6e 3d df f0 d3 bb a8 d2 a7 39
       -0.015870346 0.05831862 -0.006467923 0.00032009673
000300 3c 0d 9f 3e e5 26 95 3d 17 f4 ca 3d e0 71 87 3d
       0.31064785 0.07282809 0.09909838 0.06613517
000310 1e af ea 3c 88 48 0b 3c f9 a4 73 3e 44 16 15 3d
       0.028647956 0.0085011795 0.23793401 0.036398187
000320 1f 3d a5 3d 40 8f 6d 3d 96 d1 e4 3d 30 32 30 3e
       0.080682985 0.057997942 0.11172788 0.17206645
000330 70 73 13 bd 1f 10 ff bc e2 08 e8 3d b9 d5 36 3d
       -0.03599876 -0.031135617 0.11329819 0.044637416
000340 f0 f4 92 3d dd 83 a4 3d af e2 59 3d 32 fb 72 bc
       0.07175624 0.080329634 0.053194698 -0.014830397
000350 88 d3 d5 3d e2 ec 20 3e 56 13 f1 bc 2c da 47 3d
       0.10440737 0.15715364 -0.029428165 0.04879205
000360 9e 77 bd 3d 47 32 75 3d f4 38 2d bd ba c9 48 bd
       0.09251331 0.0598624 -0.042290643 -0.049020506
000370 f8 11 af 3d 67 0e d2 3d c1 4e f5 3c f7 11 52 bd
       0.08548349 0.10256653 0.02994478 -0.051286664
000380 9b d0 8d 3d 9c 42 ad 3d cd dc 00 be e0 d8 64 bd
       0.06924554 0.0845997 -0.12584229 -0.05587089
000390 d2 c1 98 bd 3e a8 c6 3c 91 bc 8d bc 6b bf 5c 3e
       -0.07458843 0.024250146 -0.01730183 0.21557395
0003a0 8c c7 0d 3f a6 e7 c9 3d ee ba a1 bd 91 c9 9a bb
       0.5538261 0.098586366 -0.07896982 -0.0047237356
0003b0 2a 44 e3 3d 6a 2f db bd 16 bf b7 bd 06 9a 83 3b
       0.11096986 -0.10702403 -0.089719936 0.0040161638
0003c0 12 40 f7 3d 33 d5 23 3d 15 4a 9e bd 5d b7 43 bd
       0.12072767 0.039998244 -0.07728974 -0.04778229
0003d0 2d 10 70 bd f5 c2 85 bd d5 c6 ff 3d a0 ed 98 3d
       -0.058609176 -0.06531326 0.12489096 0.07467198
0003e0 1e f5 72 bd 66 04 9f 3d fc 7f c3 3d f8 97 ae 3c
       -0.059315793 0.07764511 0.095458955 0.021312699
0003f0 67 88 7c bd f7 4d 38 3d 96 ad 5a 3d b2 06 47 3d
       -0.06165352 0.044996228 0.0533882 0.04859037
