data/results/lstm_baseline_BTC_r10d.pt (torch, 220661 bytes, 9 tensors)

rnn.weight_ih_l0 f4 [256, 15]
00000000: 3830 d9bc 5722 963c 347d 87bc 923e ee3c
00000010: eb85 cdbd b697 87bd 269e 02bd 307e 103e
00000020: fb8d 553d db08 e0bb 54aa b43c a4ca 9cbd
00000030: b2e4 dc3d 9095 cb37 89a5 f9bd c57c e3bc
00000040: be28 aabd c58b 11bd 94b5 12bc 34c1 4b3d
00000050: c5b6 78bd adcd 163c 85d2 0ebe 5be3 bfbd
00000060: afbb e0bc 64ab 813c e9c7 4cbd 165f c23b
00000070: c8dd 8fbd 1b22 b0bd c3cf 6a3d 3d71 023d
00000080: 22e2 57bc 7ae2 653e 3396 75be 067d 28bd
00000090: cba8 08bd 463a a0bd e81f 493e 8ad6 cd3b
000000a0: d793 3ebd 84af da3d 666b 14bd 14a6 e73d
000000b0: 3cb8 12be e8a1 c3bd bbf4 efbd ceb5 42bb
000000c0: b785 7bbc 25ab 003d 37f9 a2bd 4a66 85bd
000000d0: 6d0a 2ebc 7aea ef3c b10f e9bd ffc7 30be
000000e0: 567f cfbd 6b02 d9bb 5833 143e d4b5 10be
000000f0: 29bc e03c 9cc4 c83d f6ed fb3d 6454 813d
00000100: 0ecc 7cbd 3959 24bd 6d95 45bd 6390 53bd
00000110: fb10 97bd 0095 763d 312d a13d 1761 803d
00000120: e1c4 bd3d 5cbc 873d 1694 bcbd 91d5 743d
00000130: 8280 31bc 1fb8 86bd dd24 debd 36cc 7f3e
00000140: b8f1 dd3d 0f5a b7bc 2b57 f43d 1bbb 99be
00000150: 110b bd3e 220d 3d3e 4384 d0bd e84c 813e
00000160: adba b0be c3c4 6e3e ded6 a5ba 3d8b 033d
00000170: 24eb bab9 9321 99be 585a a43e 4416 0bbe
00000180: 7761 d4bd 1d2b 0b3d 3594 febd 9ef8 b73e
00000190: c2b7 143e 8aed 1bbe 838e 3b3d 51d8 3ebe
000001a0: 7ba9 a73e e228 8abe a4b4 eebd 7e21 dabd
000001b0: a57f f9bc 544c 6a3d 9436 7b3d 40cd a3bd
000001c0: b7a4 02be 639b fb3b 920b 103e 7d05 f93c
000001d0: 4100 483d c230 e1bc 993c 36be e411 01bd
000001e0: 7d20 ec3c 2e6e b3bd ecc7 b83c 3d05 5a3d
000001f0: b722 17bd b59d f73c d076 05bc e6f8 a33c
00000200: 43b9 a13d 1a81 4abe 27fa ae3d 872d 183d
00000210: febb b33d d4ec fd3d 9967 23be beb2 8cbd
00000220: f769 0a3e 9c89 203e 9bab 19be 4f77 04ba
00000230: 1f35 edbd 93f7 c13d ae92 873e 7ea4 7bbe
00000240: 005a 3c3e 6c9a 1d3d e784 993c f23f 253e
00000250: c820 89be f542 1b3e 243e 173e 9a73 d2bd
00000260: c831 63be 4a36 77bd fd52 073d f423 413d
00000270: fa07 733d 7740 81be ee0e 373d 5796 153e
00000280: 60b8 0f3d c354 40bc 24b7 c8bc dc4d d5bd
00000290: be50 b9bd d938 183d faab e63d 62b8 60bd
000002a0: 532f 43be c9c1 613e 7a72 33bd fc8e 293d
000002b0: 58c7 e7bc 4406 38be 26e1 233e ba70 3f3d
000002c0: f711 18bd 7b7e 08bd 6dc1 68be 1c10 e13c
000002d0: e36c 5f3e 5a4a fd3d 3f1c 3a3d ca17 11be
000002e0: 57f6 c93d f829 15bb 99c3 5b3d e003 fb3d
000002f0: ffc0 d33d 5e88 aa3d 3d90 22bd d7e1 ec3c
00000300: febd 273d 267c ef3d d862 76bd adcf bc3b
00000310: 8266 a63d 7c03 c7bd b6d6 29be 31f0 0c3e
00000320: 6146 32bc ffad e93d 8306 2f3d 329c 37bd
00000330: 0070 1b3e 8c62 2ebd aee5 0b3c 0300 dcbd
00000340: 0c6f 31bd 00bd 253e 8100 3abe a500 80bc
00000350: 37bc 0cbe c994 4cbe d272 ab3e c4a8 0e3d
00000360: 1b7b d83c d765 c73d 1dd1 5fbe 0dcb 713e
00000370: 1aa9 9ebc 3d29 8bbd a8c3 063e 456b 0dbe
00000380: c36d a33e 2f9b 033e 91d2 17be e462 57bd
00000390: cde9 6e3d ebd0 92bd 1d23 b53d 8c67 4c3d
000003a0: cd26 aebd 5a86 763d e09b 9dbd 3c5e 843d
000003b0: 66e5 3fbd 25e2 d839 ea67 8d3b 5ada 503d
000003c0: e775 023e ab6a f43d 418e 2bbe a2f6 8dbd
000003d0: b06e 383e 14a6 253d 64ae f03d 6a3b 25be
000003e0: beab 15be a2c7 213d 48d9 043e 7b07 bfbd
000003f0: 0384 273d f2c8 c3bd cec0 d83d 11a5 403e
-0.02651225 0.018326921 -0.016539194 0.02908257 -0.100353085 -0.066207334 -0.031889103 0.14110637
0.052137356 -0.006836993 0.022053875 -0.07655838 0.10785808 2.4269131e-05 -0.121897765 -0.027769456
-0.08308552 -0.035533685 -0.008954424 0.0497448 -0.060721178 0.00920431 -0.13947494 -0.093695365
-0.027433245 0.015828796 -0.049995337 0.0059317453 -0.07024723 -0.08600255 0.057327043 0.031846274
-0.013176473 0.22449675 -0.23983078 -0.041134857 -0.0333641 -0.07823615 0.19641078 0.0062816786
-0.04652771 0.10678008 -0.036235236 0.11310974 -0.14328092 -0.095523655 -0.117166005 -0.0029710415
-0.015351704 0.031413216 -0.0795769 -0.06513651 -0.010622603 0.029286612 -0.11379946 -0.17263792
-0.10131709 -0.0066226027 0.14472711 -0.14131862 0.027433472 0.09803125 0.12301247 0.06314924
-0.06171804 -0.04012415 -0.048238207 -0.05165137 -0.07376286 0.06020069 0.07869948 0.062685184
0.09266067 0.066277236 -0.09207933 0.059773985 -0.010833861 -0.06578087 -0.10846875 0.24980244
0.1083712 -0.02238181 0.119306885 -0.30025563 0.36922505 0.18462041 -0.10181477 0.25253987
-0.34517422 0.23317246 -0.0012652536 0.03211521 -0.00035651878 -0.29908428 0.32100177 -0.13582712
-0.103701524 0.033976663 -0.12430612 0.35931867 0.14523223 -0.15227333 0.045790207 -0.18637206
0.3274649 -0.26984316 -0.11655548 -0.106509194 -0.030456373 0.0572017 0.061331347 -0.07998133
-0.12758146 0.0076784356 0.14066914 0.030398125 0.048828367 -0.02748907 -0.17796554 -0.031511202
0.028824085 -0.087612495 0.022556268 0.053227652 -0.03689834 0.030226568 -0.008146003 0.020016145
0.07896664 -0.19775811 0.085438065 0.037152793 0.08776091 0.12398687 -0.15957488 -0.0687003
0.13516985 0.15677494 -0.15006869 -0.0005053179 -0.11582398 0.09471049 0.26479095 -0.24574468
0.18393707 0.038477346 0.01874013 0.16137674 -0.26782823 0.15162261 0.14769799 -0.102759555
-0.22186959 -0.06035451 0.03303813 0.04715343 0.05933378 -0.25244495 0.044691972 0.14608131
0.035087943 -0.011738959 -0.02450139 -0.10415241 -0.090486035 0.03716359 0.11263271 -0.05486334
-0.19061022 0.2204658 -0.043810345 0.041396126 -0.028293297 -0.1797114 0.16003856 0.046738364
-0.037126508 -0.033323746 -0.22730036 0.027473502 0.2181888 0.12367697 0.045437094 -0.14169231
0.09861439 -0.002276061 0.053653333 0.122565985 0.103395455 0.08326791 -0.039688338 0.028916283
0.040952675 0.11693601 -0.06015286 0.0057620616 0.081250206 -0.097174615 -0.16585812 0.13763501
-0.010881037 0.1141014 0.04273082 -0.044826694 0.15179443 -0.04257445 0.008538647 -0.1074219
-0.043318793 0.16185379 -0.18164255 -0.015625307 -0.13743673 -0.19978632 0.33486038 0.034828916
0.026425889 0.09736221 -0.21857114 0.23612614 -0.019367743 -0.06794975 0.13160574 -0.13810451
0.3191968 0.12852167 -0.14826418 -0.052584544 0.05832844 -0.07168754 0.08844588 0.049903437
-0.085034944 0.06018672 -0.076957464 0.06463286 -0.04684963 0.0004136722 0.004315366 0.050989486
0.12740289 0.11934408 -0.16753484 -0.06931807 0.18010974 0.040441588 0.11752012 -0.16135946
-0.14616296 0.039497025 0.12973511 -0.09327599 0.04089738 -0.09559812 0.105836496 0.18812968

rnn.weight_hh_l0 f4 [256, 64]
00000000: f203 a13d 6ded cebc c7eb 083a b641 cdbc
00000010: 358f 97bd f485 273d e028 d6bd 6a4f 43bd
00000020: 2db2 2ebc 92ee aa3d 3ced fc3c dd1b e53d
00000030: 0fc5 63bd 4733 9b3d 5bcf 00be 0e5c cc3c
00000040: 55fc e33d 0db9 0abd 1e3b 013e 8d32 0e3e
00000050: 2c39 5fbd 714c d43b 7274 21bd 6780 7c3d
00000060: 5040 66bd d934 203e a0e7 bb3d 080d 46be
00000070: 6efb 783d 374a f83d 5b8e 92bd bac0 61bd
00000080: d592 8c3c 8d56 a93c 5455 aa3c 9e95 b6bd
00000090: bcfd 08be 9fba 16bc d0c3 f4bd 2a12 a7bd
000000a0: f988 493d 85f6 dc3d 32d0 b03d dd8a e4bd
000000b0: 8eb3 f73c 9c30 b83d 05d1 95bd 33c2 94bd
000000c0: 5528 28be e477 a33c 12ad eebd e535 87bd
000000d0: d8d5 e43d 2463 57bd 8c60 47bd 595f 073e
000000e0: c433 85bd 203c 0bbe 2d20 593c dc71 b2bd
000000f0: 5fdd 1c3e 8fc9 4e3d 8da7 f13d 90b8 b5bd
00000100: 829c 91bd 8640 183e 4928 18bd 2072 013e
00000110: 0ab5 26be d96e f13d 4567 38bd 3f78 c2bd
00000120: bed7 1ebc 7df9 01be 89b8 68bd f16e eabd
00000130: 0c31 fabd e927 b1bd f2d4 233c 6280 313e
00000140: f2d5 38bd 8468 29bd a6d3 f0bd b556 79bd
00000150: d239 273e 6d68 113e b427 dc3d 7fc1 ea3d
00000160: 47a4 01be 049a 0abe d73a 0dbe 4356 fcbd
00000170: 3b47 22be 8272 a4bd 2ea3 23bd 26b1 ebbd
00000180: beea a1bd cf1f 0dbe 5e6f e5bd 1b4f ad3c
00000190: 2d33 a03d bdb6 273d 9774 27bd 082e 82bc
000001a0: d226 52bd 779f 06bb bc66 823c 1976 7c3d
000001b0: 4a3a 8f3d 5cbc b0bd f96a f2bd eecf c83d
000001c0: b7ac 25bc d61f bebc 2abd 9abd 41b5 23be
000001d0: 91dc d1bd 4cd8 1ebe 2b7c 9c3d f720 f8bc
000001e0: 9637 e7bd 5d47 16bd 9781 9fbc b9ce a7bd
000001f0: 5e26 0c3e 0d72 13be ca0f 003e 7827 453a
00000200: 3d6f dbbd 335f 903c 932e 8dbd 1f58 943d
00000210: 2c61 24bc 5f2e 1abd 0228 833d d6e6 bc3d
00000220: 48a8 223d 8ec6 c1bc 5682 003e 5bca a33c
00000230: 6484 3d3e e58a b5bc f6b0 6abd a47b e9bd
00000240: ee1f b23d 9f97 b73d 3f1b 1dbd 5403 e93d
00000250: df85 113e bc32 e23d 4867 b3bc 5795 103e
00000260: ece3 04bd 64d2 df3d 59e8 e63d c740 afbd
00000270: 4a56 06be 9da5 cbbd a350 a2bd 063e cabc
00000280: 40fa d3bd a00c ccbc 546e 0b3e 053a 52bd
00000290: 9c40 03be 3e3f b9bc 4d0b b53d 165a b3bd
000002a0: 7c60 d03c e6e9 f93d ef5e afbc e84b 82bd
000002b0: 8c33 eb3d d190 b03d e8f9 c5bd bd9f 45be
000002c0: e5bc 5dbc 4263 0e3d 1158 b33d f862 ab3b
000002d0: ed5f ccbd a77b 3bbd dd9f dfbd d757 cdbc
000002e0: 8331 a83d fdf1 853d a388 803d c861 d6bd
000002f0: 0148 03bd 630a 4f3c 53c9 ff3d 08a8 eebd
00000300: d023 a03d 5cb9 bbbd 7081 20bd 986b 70bd
00000310: bf4b f8bd 090f 89bc 1a7b 8b3d 114d 813d
00000320: 8c53 e83c ce07 ce3d cc51 453d 7965 ebbc
00000330: 65e3 febb d2d5 e03d 47d9 1abe 0436 91bd
00000340: a71e dbbc 8143 0dbd 96a9 f03d 1703 d8bc
00000350: d9a8 be3d 26b3 013e 802c bb3d 6f8e e63b
00000360: 50f9 a6bc c26f fd3c 6fdc 9bbd 24cb b73d
00000370: bd9b cf3d 4919 403d 67df 053d 4da7 1e3c
00000380: 184e 913d 8a16 c93c c68e 943d f2dd f5bc
00000390: 039b 37bd 149f 563d 1a2f 17bd 4f8f b4bd
000003a0: b61f 3dbd 0d57 a73d 15e1 e63d 28db 0c3d
000003b0: 965b cf3d 21e3 ebbd 27d9 b63b 1706 bf3d
000003c0: 5741 af3d fd47 643d 173e c13b ca84 9ebd
000003d0: 3292 273d 5b03 0abe 6780 cebd cb34 783d
000003e0: a433 c23c 7b44 0f3d 0e97 213d 9361 6fbd
000003f0: 5742 a3bd b41b 19bd 36e2 c1bb 421c 4dbd
0.07862081 -0.025259698 0.0005223122 -0.025055747 -0.074003614 0.040899232 -0.10457015 -0.047683157
-0.010662598 0.08346285 0.03087484 0.11186955 -0.05560785 0.0757814 -0.125791 0.024946239
0.11132113 -0.033867884 0.12620208 0.13886471 -0.054497883 0.006478839 -0.03941769 0.06164589
-0.056213677 0.1564516 0.09175038 -0.19340909 0.060786657 0.1212353 -0.071560584 -0.05511544
0.017159859 0.020671153 0.02079264 -0.08915256 -0.13378042 -0.009199767 -0.11951411 -0.081577614
0.049202893 0.10789207 0.0863346 -0.111592986 0.030236986 0.089936465 -0.07315258 -0.07263603
-0.16421635 0.01995463 -0.11654104 -0.066020764 0.111736 -0.052584782 -0.04867606 0.13219966
-0.06504014 -0.13597155 0.0132523 -0.08713123 0.15318821 0.05048519 0.11799536 -0.08873093
-0.071099296 0.14868364 -0.037147794 0.12641191 -0.16279998 0.11788721 -0.04502036 -0.09495591
-0.009694992 -0.12692828 -0.05681661 -0.11446942 -0.12216386 -0.086501904 0.009999501 0.1733413
-0.04512591 -0.04135944 -0.11759119 -0.060873706 0.1633065 0.14199992 0.1074976 0.11462688
-0.12660323 -0.13535315 -0.13791977 -0.123211406 -0.15847485 -0.08029653 -0.039950542 -0.11508398
-0.07906102 -0.13781665 -0.11202882 0.021155884 0.07822261 0.040945757 -0.040882673 -0.01589109
-0.051306553 -0.0020541826 0.015918128 0.061636064 0.0699354 -0.08629677 -0.1183681 0.098052844
-0.010111979 -0.02320854 -0.075556114 -0.15987112 -0.10247148 -0.15512198 0.07640871 -0.030289156
-0.11289899 -0.03668915 -0.019470973 -0.08193726 0.13686511 -0.14398976 0.12506023 0.0007520835
-0.107145764 0.01762352 -0.06893649 0.0724337 -0.010032933 -0.03764188 0.06404115 0.09223716
0.039711267 -0.023654249 0.12549719 0.019993952 0.18507534 -0.022160957 -0.05729767 -0.11400536
0.08697496 0.08964466 -0.038356062 0.11377588 0.14211224 0.11044833 -0.021899834 0.14119469
-0.032443926 0.10928801 0.112747855 -0.08557277 -0.13118854 -0.099436976 -0.079255365 -0.024687778
-0.10350466 -0.024908364 0.13616306 -0.051324863 -0.12817615 -0.022613164 0.08840046 -0.08757417
0.025436632 0.12202816 -0.021407573 -0.06362134 0.11484441 0.086213715 -0.096668065 -0.19299217
-0.0135338055 0.03476263 0.08757032 0.005230304 -0.09979234 -0.04577222 -0.109191634 -0.0250663
0.082125686 0.06540296 0.062760614 -0.10467869 -0.03205109 0.012636754 0.124895714 -0.11653143
0.07819331 -0.09166214 -0.03918594 -0.05869636 -0.121238224 -0.016730802 0.06810589 0.063135274
0.02836015 0.100600824 0.04817371 -0.02873491 -0.0077785724 0.10978283 -0.15121947 -0.07090381
-0.026748015 -0.034488205 0.11751096 -0.02636866 0.09309549 0.12665996 0.09139347 0.0070360224
-0.020382553 0.03093708 -0.07610404 0.08974293 0.101371266 0.046899114 0.032683756 0.009683442
0.07094973 0.02454688 0.07253794 -0.030013058 -0.044825565 0.052397802 -0.036910154 -0.088163964
-0.04617282 0.081709005 0.112734 0.03438869 0.101248905 -0.11517931 0.005580086 0.093273334
0.085573845 0.055732716 0.0058972943 -0.07740171 0.040910907 -0.13477843 -0.100830846 0.060597222
0.023706265 0.034977417 0.039450698 -0.058442663 -0.07971638 -0.037379935 -0.005916859 -0.050075777

rnn.bias_ih_l0 f4 [256]
00000000: d3a9 17bd 079f 4a3d 7746 953c 7a85 d3bc
00000010: 7795 9f3d c8aa ae3d 7258 ab3d b739 84bd
00000020: d7d1 0f3e 0dc2 693e 7828 433b 1709 053e
00000030: b966 3f3d 9887 233d f4cd 2e3e b9de 5fbd
00000040: c23b f33d 8897 143e 0b40 1c3e 9014 143e
00000050: 4bb3 e7bc 06d6 063e f44a 5e3d ab48 2e3c
00000060: af63 b63d fc5e 793d fe24 1b3d 03c9 0c3d
00000070: 5917 38bc a775 6f3e 1af0 6a3e 673d 27bd
00000080: 0915 333e 2f21 3bbc f0d4 113d 3e85 3f3e
00000090: 1ae4 ce3d 16d9 a2bd f5f6 25bd 89c4 db3c
000000a0: 2aa3 ef3d ae2a 0c3e 73e2 dbbd 1932 223e
000000b0: c064 bf3b 9104 bf3d e147 df3d 1038 153d
000000c0: b368 3a3d 41dd 563d 7632 4f3d 9da1 edbc
000000d0: e942 363e bc3a b53d bfaa 2d3e affa f63c
000000e0: 787e 0d3e 0c29 713d c9f1 37bd c69c 763d
000000f0: 773c 633e b573 f33d 7d47 733d 5e15 053e
00000100: af6c 36bd 2c3c a43d 4e30 40bd 632c 5d3d
00000110: 8590 0c3b 93c7 33bb 3400 94bc f42f b3bd
00000120: fa18 1abd 9f20 d8bd 068a be3c fa2e a8bd
00000130: 461e 44bd 2515 b43d 0736 aa3d 7abe 0a3d
00000140: 25be f53d 3802 033e fa47 173e e028 d8bb
00000150: 7da2 e9bd b82e d43d 9154 95bc 6778 033d
00000160: d146 0abe 8062 33bd 7a04 a4bd f79f b63d
00000170: 81ad b93d 9eae a3ba 5845 c53d 3a4f a7bc
00000180: 8640 bb3d 1493 793d 951f 553d 8e2f b3bd
00000190: 17d6 34bc 5ab6 8ebd c473 4e3b 9008 84bd
000001a0: 6926 af3b cfff 66bd 37f2 5a3d 8cb0 c93d
000001b0: 7c53 9b3b 8c6b c43c 8da1 b5bd 4dce 543d
000001c0: 5f7d 093d 6048 cf3c 576a c63c c127 bebd
000001d0: 51a1 fa3d 0fee 27be f5b3 013c b07d ad3d
000001e0: a21c d93d 4477 29bd 0831 af3d bcc9 30be
000001f0: 4b22 523d de2b 59bd dd76 bbbd 9dbe 963c
00000200: bae6 cc3d 3f59 8e3d 7150 a63d 9f21 a23d
00000210: 55cd a6bb d8e1 833d 4d0f 8abd 6b58 bd3d
00000220: ecd7 f3bc b5a8 e73c 5185 d0bc 7983 ef3d
00000230: 1e76 9a3d 2e1b c93c 8693 b5bd 700d abbd
00000240: 30f0 b2bd 8877 e53c 5b19 bb3d fa98 fabd
00000250: cf6d a33c 578f fa3c 6b96 febc a7e6 c73d
00000260: 79fd 763d 6ee2 873d 22cb e13d 9636 d2bd
00000270: f316 3d3d b59f 19bd 491b 853c 8892 6c3d
00000280: f282 d9bc ab2b 83bc b4f1 64bc 4dec 963d
00000290: 450c 85bd 6d9a 89bd 19cc d2bd 47b1 88bd
000002a0: 9c36 683b b845 393d f07f ba3d 0a5a b93c
000002b0: c6ed 32bd caa6 01bd 87eb c5bc 38c7 79bd
000002c0: c88e 8abd b3a2 f0bd 38d0 eebd d869 bb3c
000002d0: 61e2 91bd c905 aa3c f465 b23b 662f 023d
000002e0: ea3b b13c 91fa 9bbd f60b 163b 4219 c13d
000002f0: 5c6d 32bb dc7d 4f3d 13eb 7d3d ae29 01bc
00000300: 69b7 eb3a 2146 b1bd 76e5 dc3d c3a8 923d
00000310: aa29 a6bb 7abe 783e 362d 393e 3886 22bd
00000320: 966c 8c3c 13b2 753d 1aae 8dbd 7eea 89bd
00000330: c760 b83c e1d0 ed3d 0a0f a43d 4474 71bd
00000340: e930 033b f4fa ef3d 85ca 233e 4757 d43d
00000350: 96ee 7fbd aa5f 6f3d d044 08bd 739b 8ebd
00000360: ca93 923e d71f 30bd 24f4 823d 85a2 013e
00000370: 97dd 8bbc 3375 5d3e c43e 1ebc 8c47 c73c
00000380: e1f4 323e e617 e63c 2a99 003e fd75 103d
00000390: 306f 77bd 9ce2 b1bd 2c9d 3b3e de16 2f3d
000003a0: 6729 5ebc ca90 043e e5bb 59bd b926 f33d
000003b0: 1393 d23c fb82 953c 65ab 223e 56ae 233b
000003c0: f6f8 e43d 342c e63d 57dd 2e3e 4ef1 9b3d
000003d0: fa22 413e d167 583e 4b58 6c3e e164 163e
000003e0: edf8 823d 554d acbc 5053 44bb db38 453d
000003f0: 7666 ba3c 6584 853d 548d c0bd b962 083b
-0.03702719 0.049468067 0.018222077 -0.025820483 0.0779218 0.08528668 0.08366479 -0.06456321
0.14044891 0.22827931 0.002977876 0.12991749 0.046728823 0.039924234 0.17070752 -0.054655764
0.11876632 0.1451093 0.15258805 0.14460969 -0.028283736 0.13167581 0.0542707 0.010637443
0.08905732 0.0608816 0.037877075 0.034371387 -0.011236035 0.23384725 0.22943154 -0.040830042
0.17488493 -0.011421486 0.035603464 0.18703172 0.10102101 -0.07951562 -0.04051872 0.026827114
0.11701043 0.13688156 -0.10736551 0.15839423 0.0058408678 0.09327043 0.10902382 0.03643042
0.045510005 0.052457098 0.050585233 -0.029007727 0.17798962 0.08849093 0.16959666 0.030148832
0.13817775 0.058877036 -0.04490832 0.060208105 0.22191034 0.11887304 0.05939435 0.12996432
-0.044537243 0.080192894 -0.046921067 0.05399741 0.0021448445 -0.0027432188 -0.018066503 -0.08749381
-0.037621476 -0.10553097 0.023259174 -0.08212085 -0.047880433 0.087930955 0.08311086 0.03387306
0.11999158 0.12793815 0.1477355 -0.0065966696 -0.11407945 0.103604734 -0.018228801 0.032097246
-0.13503577 -0.04379511 -0.08008666 0.089172296 0.09066296 -0.0012487953 0.09632367 -0.02042352
0.09143166 0.06093128 0.052032072 -0.08749305 -0.011037371 -0.069683746 0.0031502107 -0.06446946
0.005345155 -0.0563963 0.05345365 0.09848127 0.0047401767 0.023977064 -0.08868704 0.051954556
0.03356683 0.025303066 0.024220629 -0.09284926 0.122378 -0.16399406 0.00791644 0.084712386
0.106011644 -0.041373506 0.08554274 -0.17264456 0.051302236 -0.05302035 -0.09153531 0.018401438
0.10004945 0.06950616 0.08120812 0.07916569 -0.0050903955 0.06439561 -0.067412 0.0924538
-0.029766046 0.028278688 -0.025454195 0.11694998 0.0754206 0.024549093 -0.088660285 -0.083521724
-0.087372184 0.028011099 0.091356955 -0.12236209 0.019949822 0.030585928 -0.031077584 0.0976079
0.060300324 0.06634985 0.11025073 -0.10264318 0.046164464 -0.037505824 0.016248362 0.05775693
-0.026551697 -0.016012033 -0.013973642 0.073692895 -0.06496481 -0.067189075 -0.10292835 -0.06674438
0.003543294 0.045232505 0.091064334 0.022625942 -0.04368379 -0.031653203 -0.02416016 -0.060981005
-0.067655146 -0.117497824 -0.11660808 0.022877619 -0.071232565 0.020754712 0.0054442827 0.031783484
0.021635015 -0.07616151 0.0022895313 0.09428646 -0.0027225828 0.05065714 0.061991762 -0.007883472
0.0017983738 -0.08655954 0.10785954 0.07161095 -0.0050708847 0.24291411 0.18083653 -0.039678782
0.017141622 0.059984278 -0.06917973 -0.06734179 0.022507085 0.11612106 0.08010681 -0.05894877
0.0020018166 0.117177874 0.15995224 0.10368209 -0.062483393 0.05844084 -0.03326875 -0.06963243
0.2862838 -0.042999115 0.063942224 0.12659653 -0.017073436 0.21626739 -0.009658519 0.024326108
0.17476226 0.028087568 0.12558427 0.035268772 -0.06040877 -0.086858004 0.18321675 0.042746417
-0.013559676 0.12945858 -0.053157706 0.1187262 0.025704896 0.018250933 0.15885694 0.0024975738
0.11180298 0.112389 0.17076622 0.076143846 0.18860999 0.21133353 0.23080556 0.1468692
0.06395135 -0.021032969 -0.0029956885 0.048149925 0.022753935 0.06519393 -0.09401956 0.0020810796

rnn.bias_hh_l0 f4 [256]
00000000: 45fc 093d 27df 593d f6ce 2cbd b288 9dbc
00000010: 1441 393d 977f a13d a963 4b3c c1f5 babd
00000020: 4054 883b ad7d 303e 54b2 3b3e 7aa5 b83d
00000030: d496 ce3d a9c9 a6bd 1b3d 363e 90ac 9bbd
00000040: 2a24 cb3d 374b 28bd 5e41 9fbd ca60 103e
00000050: b64f e3bd 9c4b 153d 7917 023e 450c 8ebd
00000060: c2ee fe3d 3684 5a3c b7c3 cabb 6378 2abd
00000070: 5428 4a3e 4a14 9b3e 4230 9f3d 71a2 b63d
00000080: a839 2c3d c8e0 4ebd a1db 403e 68ec 053e
00000090: bf5f 44bd 96ec 9a3d 51c3 4e3a 244b c03d
000000a0: 66ae 29bd 2335 17bd da0f 8dbd a175 91bc
000000b0: 222a 723d 8aab 2a3c 77cf 2f3e 66a6 9a3d
000000c0: cc3e c53c 41e4 6dbd 9c2e 563e f57e a63c
000000d0: 6b9c 343e da0c 6abb d3fc 1b3e 07cd 97bd
000000e0: db16 2b3d c108 303d a502 8bbd 355e bd3d
000000f0: 2c36 be3d e12e 6cbd c9bf 833d 386a 1f3d
00000100: 6884 2b3c 3e45 e23d 5e93 c3bd 8047 90bc
00000110: 61f8 e73d d63b e5bd 20f2 943d 521b 2dbd
00000120: 5031 e9bd b0d3 343d 1232 6dbb 9eec b43d
00000130: 1dde 453d b7d8 e6bd 3cb7 bf3c b4b9 893d
00000140: 0b11 8abc 7e15 d53b f368 2b3d d179 063e
00000150: 8965 1ebe 760a 053e 1157 c63c 2744 5abd
00000160: c9c4 0dbe b925 743d a33a 2bbc c57e a53d
00000170: ac03 073d f79c 23bd 25e3 f23c 058d f5bb
00000180: 4519 1abd 3032 8b3c a07b c83c ea94 91bd
00000190: 4070 773d bc59 923d 2c20 0f3d 0eb7 ecbd
000001a0: a87a 0d3e af0d 83bd 566c a53d 7910 713d
000001b0: 726c 903d 7d06 a83d 9b8c cb3c c7dd bfbd
000001c0: f797 9e3d 7861 e33d bf4f d7bc 5239 aa3c
000001d0: 2438 babd 5c82 1bbd 5523 713d ec34 0abe
000001e0: 4337 88bc 7031 993c 868a 9fbd a263 eb3b
000001f0: 9b7e 57bd 374e 06bd 3393 1e3c f9a6 e5bd
00000200: 4af4 cfbd 11f3 bdbd 5d1f 93bd 0dd5 d73d
00000210: e777 fcbc 5f45 fc3b 91e9 a23d b105 c43d
00000220: a3e9 2d3c ebc0 0ebd 64a6 9a3d bbf7 a4bd
00000230: 8aef 633d 7bc2 c73d 9234 d03b 1c26 ab3d
00000240: e6a2 d33d 8791 0cbd 39da 5fbd 51df b13d
00000250: 9842 313d 3076 c63d 72ea e43d a50e 603c
00000260: 7c58 a6bd c2ab 0f3d f8b4 0b3d d76f 8bbc
00000270: 0878 a1bd c578 14bd 0fb4 ca3c 88aa 5c3d
00000280: 5cf5 42bb 0efb 6a3d 8c51 083d ef8f a0bd
00000290: df48 9fbc 40b7 88bb 4106 e33d e8f1 803d
000002a0: 0171 04bc ea26 673d c6f6 933d f773 93bd
000002b0: 1323 cf3c 3da1 813c 40f3 95bd b234 ccbd
000002c0: e494 7e3d 2156 af3d e012 9c3d 740c 1ebd
000002d0: 7b53 4d3b c1bb 54bd be5a 84bd 16f8 b73d
000002e0: 981d 133c a7da 12bd b838 a63d 1a0d d4bd
000002f0: 03b9 9e3d b9d5 f03c 4290 8f3d 446d 0a3d
00000300: e807 c73d b2cc 08bd 1a9b 263e 19c0 66bb
00000310: a368 263e 8618 383e 6370 c43d e8de 403d
00000320: bfc6 0f3e aed1 fb3d e99f de3d 82c9 7d3d
00000330: 1337 9d3d 7124 f2bd a054 903d 009c 673d
00000340: 12d6 bdbd 3914 653d 053c ec3c 91a0 92bd
00000350: a600 a8bc 4d3b 743a 6a6a 943c 1b5d 923b
00000360: 886a 823e 924e fa3d 73f4 f13c b8de 0a3d
00000370: 33da 3a3e 535b 733e 8120 a13d 723b 2fbc
00000380: a67c 533e 04a2 a43c b14a 023e bf7e 6bbd
00000390: 7c18 793d d05f f3bd 2df7 c2bc b991 e8bd
000003a0: 68ef 6b3d 5288 223e f372 b6bd 2dab af3d
000003b0: 096b f93d 4ed1 c8bb 2b3b 0e3e 95a8 49bc
000003c0: 9f0c 363c 79d6 4f3d 4c0c c23b 0ce9 0c3c
000003d0: 6618 d73d 413b 283e 5b97 1d3e 3246 a5bd
000003e0: e743 e33d e6bb d63d 6abc d43d 0ee6 de3d
000003f0: 33d5 083e 2dba 49bd 7ef2 82bd de6e 453e
0.03368785 0.05319133 -0.04218956 -0.01923022 0.04522808 0.07885664 0.012413898 -0.09128905
0.004160434 0.17235442 0.18329746 0.09015937 0.10087362 -0.08143932 0.17796747 -0.07601273
0.09919007 -0.041087355 -0.0777614 0.14099422 -0.11099188 0.03644906 0.12704267 -0.06935934
0.12447883 0.013337186 -0.006187882 -0.041618716 0.19741946 0.30288917 0.07772876 0.08917702
0.042047173 -0.050507337 0.18833782 0.13078463 -0.047942873 0.075646564 0.0007887381 0.09389332
-0.041426085 -0.03691591 -0.06887789 -0.017756285 0.059122212 0.010416875 0.17168985 0.07551269
0.024077795 -0.058079008 0.20916218 0.02032421 0.17637794 -0.0035713227 0.15233164 -0.07412153
0.041769844 0.0429771 -0.06787614 0.09246484 0.09287676 -0.057661895 0.064330645 0.038919657
0.01046858 0.11048363 -0.095495924 -0.017612219 0.113266714 -0.111930534 0.07272744 -0.042262383
-0.11386359 0.044147193 -0.0036193174 0.08834194 0.048307527 -0.11271804 0.023402803 0.06724873
-0.01685383 0.006502806 0.041848134 0.13132407 -0.1546842 0.12992272 0.024211438 -0.05328765
-0.13844599 0.059606288 -0.010450992 0.0808082 0.032962486 -0.039944615 0.029649327 -0.0074936175
-0.037621755 0.016991705 0.024473011 -0.07108481 0.060409784 0.07146022 0.03494279 -0.115583524
0.13816321 -0.06399094 0.08077304 0.0588536 0.07051934 0.082043625 0.02484732 -0.093684725
0.07743829 0.11102575 -0.026283143 0.020779286 -0.09092739 -0.037966117 0.058871586 -0.1349675
-0.016627913 0.018700331 -0.07790093 0.007183508 -0.052610975 -0.032789435 0.00967865 -0.11213488
-0.10154016 -0.09274877 -0.071837164 0.10538683 -0.030818893 0.0076986994 0.079547055 0.09571398
0.010614785 -0.03485195 0.07551268 -0.08055063 0.055648364 0.09753891 0.006353923 0.08356878
0.10333805 -0.034318473 -0.054651473 0.08685172 0.0432764 0.09690511 0.111775294 0.0136753665
-0.08122346 0.03507591 0.034108132 -0.017021103 -0.07884222 -0.036247987 0.024744062 0.05387357
-0.0029748296 0.05736833 0.033280894 -0.07839953 -0.019443927 -0.0041722357 0.11085177 0.0629614
-0.008083583 0.056433596 0.07224803 -0.07199853 0.02528528 0.015823955 -0.07321787 -0.09970988
0.062153712 0.0856135 0.076207876 -0.038586095 0.0031330276 -0.05193687 -0.0646262 0.089828655
0.008979224 -0.035853054 0.08116287 -0.103540614 0.07750132 0.029398786 0.07009937 0.03379561
0.09718305 -0.033398338 0.16270104 -0.0035209714 0.16250853 0.17978105 0.095917486 0.04708758
0.1404066 0.122958526 0.10870344 0.06195975 0.0767652 -0.11823357 0.07047391 0.056545258
-0.09269346 0.05592749 0.028837213 -0.07159532 -0.020508122 0.0009316698 0.018117148 0.0044666654
0.25471902 0.12222017 0.029535508 0.033903807 0.18247299 0.23765306 0.07867528 -0.010695325
0.20653018 0.020096786 0.12723805 -0.05749392 0.060814366 -0.11883509 -0.023799503 -0.113559194
0.057601362 0.15872315 -0.089086436 0.08577571 0.121786185 -0.0061284667 0.13889758 -0.0123082595
0.011111408 0.050741646 0.005921876 0.008600485 0.105027005 0.16428854 0.15389769 -0.08070029
0.11096936 0.104850575 0.103875 0.10883723 0.13362579 -0.049249817 -0.06393908 0.19280574

rnn.weight_ih_l1 f4 [256, 64]
00000000: ba6a 19bc de67 02bd c5fc bebd 1139 4dbd
00000010: 36f8 323d ea94 dc3d f609 083e d3d2 e73c
00000020: 4a97 713d 4eb3 143e 793d 1f3e 03ab d93d
00000030: 450a a6bd 7803 503d c3c2 563e c5bb 93bc
00000040: 35cc ff3c 385d 123e 96f6 a43d b67b c23c
00000050: 3e0c 143d c0df 243e c459 85bd 0c46 8f3d
00000060: f197 5c3e adb4 2e3e 1a6b ff3d 35a0 e53d
00000070: 1071 ffba b84e 25be 3b37 38bd 62b0 2fbb
00000080: c5b3 cebd b535 243e 5e79 713d 9e02 d2bd
00000090: f586 f23d 7959 1fbd 8278 0a3e 7371 023e
000000a0: 4e14 243d 7fd8 733d d452 003e 5769 bc3c
000000b0: 5988 6cbe 550b b0bd 203e b23d eca9 c5bd
000000c0: 1d53 22bd cdf4 0c3e d8e4 11be e533 283e
000000d0: dcc8 11be 153d 393e c77c c73d d5dd de3d
000000e0: 3c7d 64bc 4408 083b 482f 5abd 29db 943e
000000f0: 7f08 6cbd 01c5 083e d860 fbbd 2ef2 f93d
00000100: a633 4bbd d59d bf3d 64ac 7dbd 817c 8b3c
00000110: 6101 073e 1e78 87bd 3219 d23b 259e a63d
00000120: 6a69 c33d 9aad 79bd 2d42 ce3d 0e7d 85bd
00000130: ddfd ee3d de05 c83c e40b 3fbd e192 44bb
00000140: de5e 97bd fee0 a63d fb9c adbd c206 bb3d
00000150: ecf3 32bc e716 8c3d 71d2 083e b36c ab3d
00000160: 76fa 933c 9237 853d 5f7b b4bc e0a7 21be
00000170: 8cce 2abd 73dc 8dbd bb0e 93bd e85e 8cbd
00000180: 55f9 5c3b 062b 66bd 09df 8fba b16a e6bd
00000190: 5832 6dbd ef04 683d 4424 b1bd 330b a5bd
000001a0: 5359 b1bd a96d c9bd 0923 573d d8ee 87bb
000001b0: 2475 eabd a673 cdbc e251 d13d ceee 9abd
000001c0: 381e 6ebc 1ce3 f73d 8b29 673d f57a efbd
000001d0: 039e 06be 4444 c63d 3306 2bbd 6a7f 493d
000001e0: 3dcb 56bc 8a6b 2bbd 1e3a 583d 13d9 f53d
000001f0: 6776 90bc a234 b2bd cca7 eb3d 1895 9fbc
00000200: 10d1 04be 817e 843c c7e7 0dbd d381 233e
00000210: e1c7 043d 7dca b23e 27bf 343e d6d9 5e3b
00000220: 9ca6 ac3d aea4 e93d da65 de3d 6194 303d
00000230: 13d5 3c3e 7bdd 343d 831f c43d 33d2 363c
00000240: 2539 df3c 79f7 8dbc fd59 04bc d315 4d3e
00000250: ff28 d1bb 3f7a 6c3d 1bdb a0bb efa6 583e
00000260: ef26 5f3e fef5 2a3e cb62 833d c7ea 2ebe
00000270: 0f1a 153d dd89 7fbe b56c 423d fdd8 323e
00000280: 3803 66bd 2239 a53c e532 6c3e 7fe9 1abe
00000290: 26a9 9ebc d321 11be d298 d1bc 32bc 103d
000002a0: fec9 bdbd cb35 abbd f924 d4bb ad5a 5d3d
000002b0: 5ec2 b2bd 0f81 a23d 3cc4 953d 3914 3fbe
000002c0: f7d3 9f3d e5f3 d03d 9d98 90bc 195c 01be
000002d0: f15f 08be fb97 48bd b4b1 c8bd b7c2 e63d
000002e0: 6004 8a3d 5ad1 69bd 269d 3c3e 432a 5e3e
000002f0: 31a0 183e f05b 30bc 6c95 f33d 163b 1d3e
00000300: cba7 8cbc 2d4f 8f3d 9dee 303d f3cd 25bd
00000310: 8c62 883d f599 b6bd a341 3d3d 22fb da3d
00000320: 5ccf cc3c df0a 67bd 7855 e3bd 699c 6f3d
00000330: 3bd2 023d 20d7 dc3d f0cc af3d c8d2 333d
00000340: 4425 c13d d05e 763c fa41 bfbd c44d 213d
00000350: 23dd d43d 1371 25bb 095f d2bd e330 c2bd
00000360: 31fd bdbd 420a 983d ff8a 043e cbbf 0f3d
00000370: 2734 8c3d dd59 573d f20f d4bc a084 453d
00000380: 443e c4bd b3af 9f3d 5cbe 043d bc48 1fbd
00000390: d15c efbd 5975 98bd 46c1 6f3d eb10 03bd
000003a0: dd9c 243d 08ec 4ebd 84aa 823d 3bde c9bd
000003b0: 11d8 bdbd 2de3 e5bc c99b 7b3d af0c 0ebd
000003c0: a54c f73d 46c3 e63d 2b58 5ebb d6ea 053e
000003d0: 3c8e 933d 47ab f8bc 1380 8c3d 329c f03d
000003e0: d500 3dbd 875e 933d 466b b6bd e99b 513d
000003f0: f8e6 6ebd 1300 fdbd cbf0 afbc 221d ab3d
-0.0093638245 -0.031837337 -0.09325556 -0.05010325 0.043693744 0.107705906 0.1328505 0.028298771
0.05898217 0.14521524 0.15550794 0.10628321 -0.081074275 0.050784558 0.20972733 -0.018033871
0.031225303 0.14293373 0.08054845 0.02374063 0.036144488 0.16100979 -0.06511262 0.06995782
0.21542336 0.1706111 0.124716 0.11212198 -0.0019488651 -0.1614331 -0.044974547 -0.0026808013
-0.10092882 0.16036113 0.058953635 -0.102544054 0.11842147 -0.038903687 0.13522533 0.1273859
0.040058427 0.05953264 0.12531596 0.022999449 -0.23098888 -0.085959114 0.08703256 -0.09651551
-0.039630044 0.13765259 -0.14247453 0.16426046 -0.14236778 0.18089707 0.09740596 0.10882155
-0.013945874 0.002075688 -0.053267747 0.29073456 -0.05762529 0.13356401 -0.12274331 0.12204395
-0.049609803 0.09356276 -0.061931983 0.017027142 0.1318412 -0.066147074 0.006411695 0.081356324
0.095415905 -0.060956575 0.10071216 -0.06517993 0.11669514 0.02441686 -0.0466422 -0.0029994773
-0.07391141 0.081483826 -0.08477207 0.09132148 -0.010922413 0.06840306 0.13361527 0.08370342
0.018063765 0.0650474 -0.022031484 -0.15786695 -0.041700885 -0.06926813 -0.07180544 -0.068540394
0.003371795 -0.056193374 -0.0010976504 -0.112508185 -0.05790934 0.05664533 -0.08649495 -0.08058777
-0.08659615 -0.09835369 0.052523647 -0.0041483454 -0.11448124 -0.02507956 0.10220696 -0.0756508
-0.014533572 0.121038646 0.056436103 -0.11693374 -0.13146214 0.096809894 -0.04175396 0.049193777
-0.013109979 -0.041850604 0.0527898 0.12004294 -0.017634584 -0.08701445 0.11506614 -0.019480273
-0.12970376 0.016173603 -0.03464487 0.15967493 0.032417182 0.3492011 0.17651044 0.0034004352
0.08430216 0.11408363 0.108592704 0.043110255 0.18440656 0.044156533 0.09576323 0.011158514
0.027248928 -0.017329918 -0.0080780955 0.20027857 -0.006383061 0.05773377 -0.004908932 0.2115743
0.21792196 0.16695401 0.06415328 -0.17081748 0.036401805 -0.24954934 0.047466952 0.17465587
-0.056155413 0.020168845 0.2306629 -0.15128134 -0.019367766 -0.14173059 -0.025585566 0.035335727
-0.092670426 -0.083598696 -0.006474134 0.054041553 -0.08728479 0.07934772 0.07312819 -0.18660058
0.07804101 0.10202769 -0.017650897 -0.12632789 -0.13317849 -0.048973065 -0.09799519 0.11267608
0.06739116 -0.05708442 0.18419322 0.21695809 0.14904858 -0.010764107 0.11893734 0.15354571
-0.017169854 0.069975235 0.04319631 -0.04047961 0.06659421 -0.08916084 0.046205174 0.10692431
0.02500122 -0.05640685 -0.11100286 0.058498774 0.031938773 0.10783219 0.085840106 0.04390219
0.09430936 0.0150372535 -0.09338756 0.039380804 0.10393741 -0.00252444 -0.10272033 -0.09481981
-0.09276808 0.074238315 0.12943648 0.035095017 0.06845885 0.052575935 -0.02588651 0.048222184
-0.09582189 0.07797184 0.032408103 -0.038887724 -0.11687625 -0.07444257 0.05853393 -0.031998556
0.04018866 -0.050518066 0.063801795 -0.0985684 -0.09269727 -0.028062427 0.061427865 -0.034680065
0.12075166 0.11267714 -0.0033927064 0.13077864 0.072048634 -0.030355109 0.06860366 0.11748542
-0.04614337 0.07195764 -0.089071795 0.051174078 -0.058325738 -0.1235353 -0.021477124 0.08355166

rnn.weight_hh_l1 f4 [256, 64]
00000000: ca6d ab3d 558f b33c 2eae 06ba ab48 6c3d
00000010: 4ce2 853c 7cde bd3d 4be4 30bd 428a a9bd
00000020: 299d e23d 04b8 febd 8fd6 a3bd e515 0abe
00000030: fac8 f63d dc95 65bd e210 d7bd 9aaf 833d
00000040: c491 1abe ee08 533d 050c ecbc 7e74 25be
00000050: 5e86 e4bb 92aa 0fbd d0fa 81bd aa0d 093e
00000060: 8aa2 fd3d 885c b2bc a6d6 80bc 17e2 a13d
00000070: 8e6b 03bd 10ba 8dbd 3beb a03d 84c6 1b3b
00000080: bbc7 eabd 8609 b03d 7f60 9fbd ef71 f43c
00000090: 5d8a 463d 54ef 09be 7ff3 66bd 165a 1e3c
000000a0: 5c6b 853d 3060 9bbb 738d f73d e3e9 8a3d
000000b0: ceb7 0a3d d4b6 d93d f882 223d f692 cbbd
000000c0: cbf0 3ebd 97dc 2abd ac1a 773d 5f76 0c3b
000000d0: d5f7 d83d f4ce 0a3e b9ff cdbd c2a6 d1bd
000000e0: dbb7 b83c 6d4d 1bbe c8aa cf3d 167f aabd
000000f0: 674a c53d 54f5 e2bd 13e0 1c3e 90b9 723d
00000100: 3ea3 7e3d efb0 c63d fd3e 563d c884 1bbe
00000110: 4d4b 803d 5003 df3d 1ea8 993d f3a3 9f3d
00000120: bcec 8f3d cbc6 92bd bf16 99bd 0280 2cbd
00000130: ef65 633d cd08 c5bc 2f9f c23d 8fb8 813c
00000140: 71f5 f8bd 5b59 fe3d d37b 44bd 7722 5a3d
00000150: 6da5 143c b070 94bd 1fd9 223d 7877 b2bd
00000160: 35f8 813d f076 a0bd b601 c03c 8358 a3bc
00000170: 9667 b03d 2a73 f6bc 31f6 d4bc cce6 eb3c
00000180: 8d7f 153d 2461 c8bd 1853 503d be54 efbd
00000190: b5c5 c9bc 7933 113e 80a7 1d3e cd61 12bd
000001a0: 939e 583c 9f4e abbd 0f1d 9abd 85bb 06bd
000001b0: 0bbd bdbc f7f3 96bd 4a03 7f3c 7503 73bb
000001c0: 05e8 fd3c 4784 89bc b86c e43c 438d 5f3b
000001d0: dad1 c73d 646a c83d d7f8 0abd ad7f 1e3d
000001e0: 4e65 133c 7a1b 0dbe 86be 923d 8859 763d
000001f0: 936b 9dbd 9074 4abd 24da 9b3c 8357 91bc
00000200: 6468 90bc 6132 acbd 9ac3 743d 43f3 b7bd
00000210: 7103 b5bd 6c68 3ebe 2ff5 343e ff06 bebd
00000220: f51d ec3d 552a d6bd 02db 8cbe cc93 eebc
00000230: 7256 173e 4dbf 023e 762b 063e 7c13 623d
00000240: ef0d 4c3c 264b 903d ac5e febd 0e6a e3bd
00000250: 7883 823d 33a1 00be 679a 2a3e 6b63 1cbc
00000260: f9bd 63be 2e35 373d 184e db3d 8af6 773d
00000270: 6543 37bd edd7 103e 5500 72bd 53a3 803d
00000280: e6e7 86bd 0df3 62be afdc 213e 4216 4fbb
00000290: 2386 07be 4dfb 683c 4718 4f3d 7d6e 51bd
000002a0: f3be 07bd ab3d 7fbe c650 cd3c 68ad a6bd
000002b0: d27f 73be 1d13 9cbd 1af8 51bd 123e 5f3e
000002c0: d4d0 873d 7d05 453e aaea 02bd bd23 af3c
000002d0: 5dcd ea3c 45cb 91bd 7378 ec3d ed23 3fbd
000002e0: 83e9 893d 912d 633e 7042 3abc e61e 88bc
000002f0: f46f 09ba 10a9 d3bd 5112 ccbb bc15 053e
00000300: 707e 8c3d 72d8 63bd 05fd 6cbd d298 b33d
00000310: b491 4f3d e42f 76bd c941 823c c64c 98bd
00000320: 0044 09bd 9f8c 7a3d 703a 563d a5c4 afbd
00000330: 12a9 b43d 6782 06be ec45 95bd c400 c0bd
00000340: 87eb 083d f774 c7bd a22f 9cbd 9bc3 e83d
00000350: 73b1 c5bc df76 4b3d 6efb 4cbc b8f1 c7bd
00000360: 69b5 e03d fd10 033e 8dd1 3dbd 7aca 813d
00000370: 5bc6 353d e83f 0cbd 85b1 dbbd fe8d 943c
00000380: 2f69 f3bc 3650 983d eec7 6c3d 4b55 c0bc
00000390: 42f8 abbc c0e3 51bd d30e cd3d d9ba 2cbb
000003a0: de48 19bd 698e 08bd 5c8b 5f3d db43 90bd
000003b0: c61e 91bd 571a d1bd 6f62 393d b191 a3bc
000003c0: 595a fdbd 1fbd 8b3d b7a4 ac3c 085a 38bd
000003d0: 0125 21bc 1edb 1cbc 2f16 d8bd 9046 9fbd
000003e0: ec25 71bd 2d99 2cbc 64e1 91bc b589 f2bd
000003f0: 3169 bfbc 92bd 103e 7930 17bd 98ae 1e3c
0.0837055 0.021918932 -0.0005137649 0.05768649 0.016343258 0.09270951 -0.043186467 -0.08278324
0.11065132 -0.12437442 -0.07999908 -0.13484915 0.12050052 -0.05605112 -0.10501267 0.06429978
-0.15094668 0.051522188 -0.028814325 -0.1615772 -0.0069740256 -0.035074778 -0.06346667 0.13384119
0.123845175 -0.021772638 -0.015727352 0.07904451 -0.032084994 -0.06920254 0.07857367 0.0023769448
-0.11463877 0.085955665 -0.07782077 0.029839484 0.048471797 -0.13470203 -0.05638456 0.009665033
0.06514618 -0.004741691 0.12087526 0.067828916 0.033866696 0.10630575 0.039675683 -0.0994014
-0.046616357 -0.041714277 0.06032817 0.002143286 0.10594145 0.13555509 -0.10058541 -0.10236885
0.022548607 -0.15166254 0.10139996 -0.08325021 0.09633332 -0.11081949 0.15319853 0.059258997
0.0621674 0.09701716 0.052306164 -0.15187371 0.062643625 0.10889304 0.07502769 0.07794943
0.070275754 -0.07166823 -0.074750416 -0.042114265 0.055517133 -0.024052048 0.09503018 0.015835075
-0.12156189 0.12419387 -0.04796965 0.053255524 0.009072644 -0.07248056 0.039757844 -0.08714193
0.0634617 -0.078351855 0.023438316 -0.019939667 0.086135074 -0.030084211 -0.0259963 0.028796576
0.036498595 -0.09784153 0.050860494 -0.11686085 -0.024630407 0.14179792 0.15395927 -0.0357378
0.013221401 -0.08364605 -0.07525074 -0.032893676 -0.023161432 -0.07370751 0.015564749 -0.0037080918
0.030994425 -0.016786708 0.027883872 0.0034111298 0.09756823 0.097859174 -0.03392872 0.03869598
0.008996321 -0.13780013 0.07165246 0.060143977 -0.07686534 -0.04942757 0.019024916 -0.017741924
-0.017627902 -0.084080465 0.059756853 -0.08981945 -0.08838547 -0.18594521 0.17671655 -0.09278678
0.11529151 -0.10457293 -0.2751084 -0.02912321 0.1477907 0.12768288 0.13102517 0.055194363
0.012454494 0.070455834 -0.12420401 -0.11104213 0.06372732 -0.12561493 0.16660462 -0.0095451875
-0.22240438 0.04472845 0.107082546 0.060537852 -0.044742007 0.14144869 -0.059082348 0.062811516
-0.065872 -0.22163029 0.1580684 -0.003159896 -0.13234763 0.014220071 0.050560262 -0.05113076
-0.033141088 -0.24925868 0.02506293 -0.08138543 -0.23779228 -0.07620833 -0.051262 0.21801022
0.06631628 0.19240375 -0.031962074 0.021379346 0.028662378 -0.07118849 0.11546411 -0.04666512
0.06733992 0.22185351 -0.011368379 -0.016616296 -0.00052428176 -0.103349805 -0.0062277694 0.12996572
0.068600535 -0.05562634 -0.057858486 0.087693825 0.050676063 -0.060104266 0.01590051 -0.07436518
-0.033512115 0.061169263 0.052301824 -0.08582429 0.0882131 -0.13135682 -0.07288727 -0.09375146
0.03342774 -0.09739106 -0.07626273 0.11365434 -0.024132466 0.04967391 -0.012511117 -0.09762901
0.10972101 0.1279945 -0.04634242 0.063374475 0.04437862 -0.034240633 -0.107272185 0.018134113
-0.029713241 0.07437174 0.057807855 -0.02347817 -0.020992402 -0.05124259 0.10012593 -0.0026356487
-0.037423007 -0.033338938 0.054576263 -0.070441924 -0.07085948 -0.10210102 0.04525989 -0.019966932
-0.12370748 0.06823181 0.021074636 -0.045007735 -0.009835483 -0.009573726 -0.10551106 -0.077771306
-0.058874056 -0.010534567 -0.01780767 -0.11842672 -0.023365589 0.14134815 -0.03691146 0.009685181

rnn.bias_ih_l1 f4 [256]
00000000: 4ac5 acbd 4327 f9bc 6366 7b3e 5997 953d
00000010: cc10 583d ab3b a7bd dc06 cbbd 520a 4f3d
00000020: 0111 a5bd 286e 98bc 593d 163e 3da4 e2bd
00000030: 91f4 2a3c fcdb b43d 49c8 453d 4e0d 563e
00000040: ca2f 2a3e 1dd4 d33d 6a2b d53d b84b 8b3e
00000050: 1f2c 443b c81a 8f3d f46f 3ebd 6cc6 dfbd
00000060: ab8f 033d 262f 4bbd f646 38bd 3daa 5bbd
00000070: 9117 11bc 4083 8e3c 8020 bb3d 2ad5 053e
00000080: 492e e93d 17ec b53d 7028 11bd 090d 73bc
00000090: 2acd 2dbd 4c97 db3d 6455 ff3d 70c5 ce3d
000000a0: 999e 26bd ebd2 fa3c bdf4 f8bc 2534 bdbd
000000b0: cd5d 50bd 4e3c b2bc bbfa 42bd bdfb af3d
000000c0: ea0f ea3d cfe1 083e 40d0 743d 3ec6 0bbd
000000d0: 4a5d 3abd 5857 c1bd 00cb 17bd ffb6 073d
000000e0: cc49 303d bd2a 973d ee76 cf3d 20b5 0c3e
000000f0: 4909 533e 2c75 2a3d 3607 143e 5b7c a7bd
00000100: 0240 903d 80d5 e63b b858 0dbe 5a2e 893d
00000110: 25e4 883d 0b6a 6e3d 6e6b 0dbe ceb7 7d3d
00000120: be99 dcbc 586f 733d 907d b33c d120 d93d
00000130: 2e6f ccbd 2c71 d53c b58a d5bc 0cea 13be
00000140: 4926 84bd 08bc acbc 2880 cebd 3603 d1bd
00000150: 2500 f0bd 9b52 723d e66e 9fbd 9b3f 45bc
00000160: e847 15bd 3389 14bc e21d 5f3d 32b8 ccbb
00000170: a502 b6bd f598 eebd fc09 8cbd d408 03bb
00000180: 1a85 823d 8069 d0bd 237e 43bd f28a 85bb
00000190: 58be 73bb 60a2 3f3d 49b7 fbbd aeef a23d
000001a0: 8adb c13d a5a1 b53d e270 bfbd 055b 8cbd
000001b0: 9292 b7bc e4c2 de3d b42a 22bd 5f71 95b9
000001c0: 3d07 5e3d 1f51 8d3d 9722 493d 2a74 85bd
000001d0: af91 013d 5a24 193d f854 dabc 8701 bebd
000001e0: 1b86 fdbd bdac 82bd 0a09 42bd 19db a13d
000001f0: 01f8 8cbd 2ac9 e7bc 4171 00bc e8b4 8bbd
00000200: cae7 9f3b 1764 813b 2f21 2b3d 4818 ec3d
00000210: c98d 2d3d 835c 9abc fea4 ac3d f819 b6bd
00000220: 0a07 103d f9e6 8ebd 18e9 8e3c 854d c6bd
00000230: 1b6d d4b8 a562 2bbc e6f6 123d 0cd2 14bd
00000240: c4dc b0bd 4f6e d03d 8fad 12bd dd4a d3bc
00000250: 6b8a 913d c5a7 d1bc 334f 8abd 4631 b03d
00000260: 2c28 02bb e882 a1bd cd84 fd3c f596 65bd
00000270: 4087 ebbd f27e 1fbd 4853 c9bc a7b5 483c
00000280: 3464 b4bd 3652 68bc e37b 173d fcdd 9a3d
00000290: 1103 f73c 9d8c 0d3d fe93 263d 8657 303b
000002a0: 5cb6 8a3d 255b b1bd f06b 813d 3a80 1fbd
000002b0: a438 b9bd 563a 563d 8cf1 9a3d 2a52 95bb
000002c0: bd0b 8b3d 8be1 e2bc 4b1e c9bd be09 fd3c
000002d0: 5dfa a13d b0e6 ea3c fcd0 233d bfc2 dbbc
000002e0: c601 db3c 3196 d2bc a6dd 603d 7b8b 923d
000002f0: 6ef9 b33b 416f 06bc 520f eb3c 95c2 60bc
00000300: ccd8 5c3d 3169 f63d a417 333d 4419 1f3d
00000310: 11f1 ae3c 90b0 acbd a63a 30bc c828 72bd
00000320: 9851 df3b f4f4 3dbd 345b 003e 41f1 43bd
00000330: 2fa2 213d cda5 ca3d 8a7b 3e3c 61b0 183e
00000340: 5a99 d3bc bae1 39bd 7651 aebc c384 853e
00000350: 1c8d 8c3d 2ef5 cebd 6a91 ef3d 3e0c d9bc
00000360: 6c29 d23d 07ba 78bd f1ae b2bc 80b4 9d3d
00000370: cf55 113e c671 c73d 9810 32bc 098c cc3d
00000380: cd8f e43d cdae c3bd 2d9c bcbd a058 053e
00000390: 8221 a73d 8de5 e43d 13d8 313e a49b 963c
000003a0: 386b bbbd 65f9 a43d 31ad 943d c3b0 553d
000003b0: 4d73 bc3c 8baf d23c 9686 823d b8e2 0a3d
000003c0: 5fcd df3b 63e0 323e adbe cc3d fb55 92bd
000003d0: 375a 4fbd c943 e2bd c4ad a6bd 5b2e 2c3d
000003e0: 751e 733e 54eb f43c 7e76 d8ba 9809 08bd
000003f0: 02d7 fa3d d1b8 9c3d fb76 483e 69ac fc39
-0.084360674 -0.03041423 0.24550776 0.07304258 0.052750394 -0.08165678 -0.09913418 0.05054695
-0.08059884 -0.018607214 0.1467184 -0.11066482 0.010434286 0.08831021 0.04828671 0.20903513
0.16619793 0.10343192 0.10408671 0.27206206 0.0029933525 0.0698753 -0.046493486 -0.10926518
0.032119434 -0.04960551 -0.04498955 -0.05362915 -0.008855716 0.01739657 0.09137058 0.13069597
0.11385781 0.08882921 -0.035438955 -0.014834651 -0.042431988 0.10722217 0.12467459 0.10096252
-0.040678594 0.030618152 -0.030390138 -0.092384614 -0.050870705 -0.021757271 -0.047602396 0.08592937
0.114288166 0.13367389 0.059768915 -0.034124605 -0.045499124 -0.094404876 -0.03705883 0.033133503
0.04303913 0.073811986 0.10130106 0.13740969 0.20609011 0.04161565 0.14455876 -0.08178016
0.070434585 0.007044494 -0.13803375 0.06698294 0.0668414 0.0582066 -0.13810512 0.061942868
-0.026928779 0.059432358 0.021910459 0.10601962 -0.09982143 0.026054941 -0.026067117 -0.1444475
-0.06452615 -0.021085754 -0.100830376 -0.102056906 -0.117187776 0.05916081 -0.07784824 -0.0120390905
-0.03644553 -0.009065914 0.054471858 -0.0062475437 -0.08887223 -0.11650268 -0.06837842 -0.0019994276
0.06373043 -0.101763725 -0.047727715 -0.0040754015 -0.003719231 0.046785712 -0.12290818 0.079558715
0.09465702 0.08868722 -0.093477026 -0.06853298 -0.022408757 0.10877016 -0.039591506 -0.00028503963
0.05420612 0.06900238 0.049105253 -0.06516297 0.031633075 0.037388183 -0.026651844 -0.09277635
-0.12379094 -0.063806035 -0.0473719 0.07903118 -0.068832405 -0.028294165 -0.007839502 -0.068216145
0.0048799263 0.003948699 0.041779693 0.11528069 0.042371545 -0.018842941 0.08429907 -0.08891672
0.035162963 -0.06977648 0.017445132 -0.096827544 -0.0001012927 -0.01046053 0.035879992 -0.03633313
-0.08635858 0.1017729 -0.03581005 -0.025792534 0.07106479 -0.025592694 -0.06753387 0.08603148
-0.001986037 -0.078862965 0.030947113 -0.056052167 -0.11500406 -0.038939424 -0.024575844 0.012250341
-0.08808175 -0.014179757 0.036983382 0.075618714 0.03015283 0.034557927 0.04066848 0.0026907637
0.067730635 -0.086599626 0.063194156 -0.038940646 -0.090440065 0.052301727 0.07565603 -0.004556914
0.06789348 -0.027695438 -0.09820231 0.030888434 0.07909081 0.028674453 0.039994225 -0.02682626
0.026734244 -0.025706382 0.05489888 0.0715551 0.005492381 -0.008205236 0.028693829 -0.013718267
0.05391769 0.120317824 0.043723717 0.038842455 0.021355184 -0.08432114 -0.01075617 -0.059120923
0.0068151467 -0.046376184 0.12534791 -0.0478375 0.03946131 0.09894905 0.011626134 0.14911033
-0.02582996 -0.045381285 -0.021279078 0.26077852 0.06862852 -0.10105358 0.116976574 -0.026495095
0.10261807 -0.060724284 -0.021811934 0.07700443 0.1419289 0.097384974 -0.010868214 0.09987647
0.1116024 -0.09554825 -0.09209476 0.13022089 0.08160688 0.11176596 0.17367582 0.018384762
-0.0915131 0.08055381 0.07259596 0.052170526 0.023004198 0.025718471 0.063733265 0.033907622
0.006829902 0.17468409 0.09997306 -0.07145306 -0.050623145 -0.11048085 -0.08138612 0.042036396
0.23742087 0.02989737 -0.0016514806 -0.033212274 0.12248041 0.076524384 0.19576637 0.0004819364

rnn.bias_hh_l1 f4 [256]
00000000: 83d0 993d f035 9f3d 6f35 903d 236f ddbd
00000010: e0ab 0dbd 4b3d 8ebd 8416 a4bd f63d 9b3d
00000020: 88e4 12be 7027 fe3d 497c a23d 7d7d a03d
00000030: 76e7 01bb f6ee d43d 133b 41bd fc63 083e
00000040: 0ae5 093d 4f1d a13d 7b48 1abd aec9 ff3d
00000050: 857d dd3d ac50 023e 91ea 783a b450 91bd
00000060: 5364 993d 6478 cc3d 0e32 a7bd b23c e83d
00000070: 3708 7dbd fdc4 fa3d cf78 193e caee 433d
00000080: b935 ea3d 1b80 da3d b6c9 6abd ab49 023e
00000090: f783 cf3d 483a dd3d fba4 163e d4bc 423d
000000a0: 94bb b9bb 7582 e6bd 1436 ba3d 35f0 9b3c
000000b0: c217 123d d41b 10bd 13f3 cd3d 7d9b d9bd
000000c0: b5dc e63c b8e0 243d 31b2 b2bd 0aae d83d
000000d0: 30fb df3d 60a3 ca3d 3f06 043e c935 0b3d
000000e0: 6f6b d73d c51f a63d fe5e 883d 6aa9 0f3e
000000f0: 1fbd 4b3e 1034 87bd 3e3a 9b3e 3e22 103e
00000100: e9fd 1abe 3607 73bd 2f56 34bd de00 43bc
00000110: cb7e ffbd 7300 803d d615 e4bd ed58 533c
00000120: 77dc dc3d 64be d8ba 0486 d4bc 7f37 c13d
00000130: f032 603c 43c4 0b3d f52a 893d fd72 83bd
00000140: 780f 813d 8e4f be3d 5aff e3bc 1ed5 7f3d
00000150: ad77 88bd 954f cdbd 589c 14be 60b8 cebc
00000160: d092 b33b b5de bcbc 7cf0 8dbc 234f c9bd
00000170: 592c 323d a96a ff3c 6316 9bbb e202 ac3b
00000180: 0049 7f3d 8dfc 56bc a78b 36bd feca 3c3a
00000190: 2fc4 973d 0045 1fbe 20f4 733d 1e80 8b3c
000001a0: ac0f 3b3d 5998 9d3d dc7f 89bd 2896 b1bc
000001b0: eefe 373d 8ccb b9bd 8915 83bd 5458 723d
000001c0: 083c e3bd 7f5a dd3d 37bf 94bd dc13 8dbd
000001d0: cb65 9cbc ac41 933d 0317 1ebd 6555 8f3d
000001e0: 2c47 1d3d 7b1a 6fbd 5e1a da3d 5ddc ddbd
000001f0: bdea a93d 5262 af3b 75ab 5ebc 7d9c 9f3d
00000200: ceea cebc 16a1 8dbc 985f 463c 381c cabd
00000210: 5f86 debd d85e b53a d50f 6fbd 46c2 34bd
00000220: d48c 1abc c341 823d f926 5d3c 3562 a2bd
00000230: 0f3b 8c3d 7b3a ce3d 62d3 f6bc ce93 843d
00000240: cc31 d93d 6ba9 b83c 999b 9bbd df67 343d
00000250: 719b c3bc 7da5 d1bc cbb5 cb3d 8b46 37bd
00000260: 486b babd 0131 3c3d b0ba b73d 8cd4 b3bd
00000270: 29a7 623c 5fe8 763d 9b24 d73d d632 49bd
00000280: 5d99 60bd 821a 91bd 12e7 d83d 109b 81bd
00000290: 604a e2bd fcde c6bb f20b 62bc 040e 21bd
000002a0: 3cf5 a23d 531d 583c b64c db3d 7c9c 3d3c
000002b0: 1eb6 9b3d c289 37bd d870 8cbd 526d a0ba
000002c0: b919 a33d ec5e d33d 7623 1fbc 8c79 893d
000002d0: 5d6e d7bd aad2 283d 3c2e dbbc 8bc6 8cbd
000002e0: ba62 8b3d 0157 9d3d 1ed2 36bd c146 94bd
000002f0: 8119 253d bea8 403d b4c2 ba3c 6e6e e03d
00000300: 59a5 d13b cff2 923d 518b 613e e1dc 423c
00000310: c617 2e3b 52ab 0d3e 24d6 cbbd e851 55bd
00000320: b527 8ebc 38de d73d 5de5 3a3e 89cf 41bd
00000330: 27f5 3b3e 73a3 94bd 6fc9 1b3e aaa3 d13d
00000340: d646 2fbd 83a3 5e3d 3dbb 11bd 821d 7d3e
00000350: 921f 5ebc 750f 073e 2f60 863d 0e1b 603d
00000360: 33e5 74bd eeba c93d bc1e 383c 588b 8dbc
00000370: dde7 133e 87d9 dbbc 40ed bebc 2a39 45bd
00000380: 3dca ff3d 082c f4bd 0f01 9abc 3218 c73b
00000390: 8b79 c5bc e401 32bc 9215 293e bc8d b53c
000003a0: 3a74 82bb 1749 553c 553c cfbb fe6c c73d
000003b0: e556 913c effe 0fbe 0ce7 68bd b4c8 32bd
000003c0: b64a ab3d 7238 033d c513 c43c 0e98 283e
000003d0: 2790 dabd e129 e63d cae4 ab3c 9197 ddbd
000003e0: 4f43 133e 7920 803d 1045 813d 4cf3 dc3c
000003f0: 8795 603d 2879 c3ba cd78 333e b3f7 77bd
0.075104736 0.0777396 0.07041442 -0.10812213 -0.03458774 -0.069452845 -0.08012107 0.075801775
-0.1434499 0.12409866 0.07933862 0.07836435 -0.00198218 0.10397141 -0.04717548 0.13319391
0.033665694 0.07866918 -0.03766678 0.12489639 0.108149566 0.12726086 0.00094954023 -0.07095471
0.074898385 0.099839 -0.08163844 0.11339702 -0.061775412 0.12244604 0.14987491 0.04783515
0.11436028 0.106689654 -0.057321273 0.12723415 0.10132592 0.10802132 0.14711373 0.04754336
-0.005668113 -0.112553515 0.09092346 0.019035438 0.03566719 -0.03518279 0.10056128 -0.1062536
0.028181413 0.04025337 -0.087253936 0.1058007 0.10936582 0.098944426 0.12893008 0.03398684
0.10518538 0.08111528 0.06658743 0.1402947 0.19896363 -0.06601727 0.30317873 0.14075562
-0.15135922 -0.05933305 -0.044027504 -0.011902062 -0.12475356 0.06250086 -0.111369774 0.0128996195
0.10784238 -0.0016536233 -0.02594281 0.09434413 0.013684019 0.034122717 0.066976465 -0.06418417
0.063017786 0.092925176 -0.027831722 0.062459104 -0.06663451 -0.10024945 -0.14512765 -0.025234401
0.005480148 -0.023055414 -0.017326586 -0.09829547 0.043499324 0.03117879 -0.0047328933 0.005249367
0.062325478 -0.013121736 -0.044566777 0.0007201879 0.07410466 -0.15553665 0.059558988 0.017028864
0.045669243 0.07695074 -0.0671384 -0.021678045 0.044920854 -0.090720266 -0.06400592 0.059166268
-0.110954344 0.108082764 -0.07263034 -0.068885535 -0.019091507 0.0719026 -0.038596164 0.069987096
0.038397953 -0.058374863 0.106495604 -0.108330466 0.08296726 0.005352297 -0.013590683 0.0779352
-0.025258448 -0.017288726 0.012107752 -0.098686635 -0.10865473 0.001383747 -0.058364708 -0.044130586
-0.00943299 0.06360199 0.013498061 -0.07928888 0.06847202 0.10069748 -0.030130092 0.06473504
0.10605201 0.022541722 -0.07598037 0.04404437 -0.023877831 -0.025591606 0.09946784 -0.04474501
-0.091024935 0.04594517 0.08971155 -0.087807745 0.013833799 0.0602802 0.10505029 -0.049120747
-0.05483376 -0.07085134 0.10590948 -0.06328404 -0.11049342 -0.0060690623 -0.013796793 -0.039320007
0.07956931 0.013190585 0.10707991 0.011572953 0.076030955 -0.04480911 -0.06857461 -0.0012239611
0.079638906 0.10320839 -0.009713044 0.06712636 -0.10519097 0.04121653 -0.026755445 -0.068738066
0.0680594 0.0768261 -0.044633977 -0.07240058 0.040307526 0.047035925 0.02279792 0.10958563
0.006397885 0.07175218 0.22025801 0.011893482 0.0026564463 0.13834885 -0.099529535 -0.052080065
-0.017352918 0.10540432 0.18251558 -0.04731706 0.18355237 -0.07257738 0.1521356 0.102362946
-0.042792164 0.054355156 -0.035578955 0.24718288 -0.013557332 0.1318949 0.06561314 0.0547133
-0.059788894 0.09850107 0.011237796 -0.017278358 0.14443918 -0.026837124 -0.023306489 -0.04815022
0.12489746 -0.11922461 -0.018799333 0.0060758824 -0.024105808 -0.010864709 0.16512135 0.02216231
-0.0039811404 0.013017914 -0.006324331 0.097375855 0.01774163 -0.14062093 -0.05686097 -0.043648437
0.08363859 0.032036252 0.023935208 0.16464254 -0.10672026 0.112384565 0.020983119 -0.108199246
0.14381145 0.06256194 0.06312001 0.026971482 0.0548301 -0.0014913427 0.1752655 -0.06053896
