data/results/lstm_regime_SPX_r10d_r6_wNone.pt (torch, 221861 bytes, 9 tensors)

rnn.weight_ih_l0 f4 [256, 16]
00000000: 4850 2e3d 378e d9bd c2ce 6ebd 706a 84bd
00000010: 8255 e2bd f937 ec3c be74 2f3d 49e7 03be
00000020: ba44 a83d f62b 723d c1f0 c43d c88e e23d
00000030: 02d6 d03d 8e91 12bd 7773 ae3d 4e17 d5bd
00000040: 4f0a 273e 3169 133e 4f9b ed3e 2805 b0bd
00000050: fbfc 1ebe 2d86 2e3e 3647 a73c d30e f23d
00000060: 8ca4 afbb b7ab 2fbe 1d7a 6c3e f53e 153d
00000070: e43c 463e 1749 53bd fc3b b0bd 1166 ca3d
00000080: 364c 4b3d 0de1 883c 6640 88be dc4f 03be
00000090: dcf8 a2bd 5ab1 a3bd 22ef 5ebd b6f7 01be
000000a0: 3393 04bd ffdc 02bd 4fcf 17be a338 38bc
000000b0: 5299 15be d1af f63d 7ee5 80be 50a6 6fbd
000000c0: 0c4b 13be 0b10 3fbe 6af8 4abe 9c47 8cbd
000000d0: 9276 873d b6dc 6ebd c2ec 30be ee31 5cbe
000000e0: eef8 11bd 7159 5abc 5955 4ebe 0b44 14be
000000f0: f5cb afbd 9c47 42be 3ba1 ec3c 5ec2 febd
00000100: ce78 8cbd 8774 02bd efc7 69be 50b0 583e
00000110: 8cbd d73c 4a3a e6bd 44ff 493d 5fcc 3cbe
00000120: a451 9a3e 931d 1f3c abca eabc 88da 5fbd
00000130: 1959 1abd d99c 9b3e 2569 0ebe f5d6 5e3e
00000140: 7872 c33d ca2c 4f3d 93ca 913e e7d8 0b3d
00000150: f37a 893d 9b76 cf3d 8277 f33d eff7 b33e
00000160: 058c 043e 26dd 9a3d 2208 39bd 46a1 943d
00000170: ee97 2d3e 6722 75bd 9d07 4a3e 40b9 a23d
00000180: 4e9a 0fbe aa5b 18bd 5858 acbe 368f e33d
00000190: e54d 6c3d 4744 a4bd aa50 f13c b49c e0bd
000001a0: 6396 0dbd ac72 edbd aa9c 6abd b2ef 9f3d
000001b0: 4a11 59be 5f94 6d3c 461f 5cbd 60e8 7c3d
000001c0: e6b9 efbd e12d 92bd a2cd 1fbe d57f 40bd
000001d0: d20f c0bd 8394 283d 9a51 bfbd 0ce9 d4bd
000001e0: fe0c e7bd abb3 603c da92 473b 8844 a4bc
000001f0: cdcf 4bbe a8b9 a53c 4fc0 88be 41b1 a3b9
00000200: 446f febd 20c4 f83b 8179 89be 965f 89be
00000210: 0c60 913e f087 03bd 16cb 0a3e b9cc 173e
00000220: 1a0c 75bd f87f 243c 5f32 eb3d be8b 143e
00000230: 26d3 303d 8323 62be 4b5a b03d d1f0 173e
00000240: 655c 08be bf9d 4f3d 40c9 38be 23af 2b3d
00000250: 3b28 8b3d e186 363d 6bf1 9bbd 326b 92be
00000260: dfee 833d d08b f8ba cdb9 f9bd eb37 f33d
00000270: 19bb 99bd 29be c5bd e0dc 84be ccfa 963d
00000280: beb0 92bd 715e 1a3d 3afc acbb 2328 72bb
00000290: 876f 193e 4222 d43d 7c15 87bd 93e0 0c3e
000002a0: 8672 4ebd f0e7 f7bd 8a5d 9ebd 5ac1 e0bd
000002b0: ce54 513d 8c41 d1bb 5776 d3bc d1aa 1b3e
000002c0: a436 533d 8aa3 163d 41ff 58bd 913f 06bd
000002d0: 5700 c9bd 9f60 8abd f0c3 2abc a661 c2bd
000002e0: 6098 0cbd facd 0ebe 8fdc 4b3d f509 073e
000002f0: 03ed 99bd 84e6 823d 19e0 afbe b5bb 183e
00000300: 5c7e bf3d f22b 7bbd fc48 60bc 564c 81bc
00000310: 81c9 20be 36b2 47bd ebbf c7bd 7fe9 ef3d
00000320: 41c8 fa3d cbc8 d2bd ed5b b13d e2a6 ad3d
00000330: 3cfd 0bbd 79d3 053e 7716 95be e7ff 0ebd
00000340: d02c d1bd 2c2f 563d 762b 683d 6127 e7bb
00000350: f991 963d 71cb 01bc cc75 2f3a 1608 1f3e
00000360: 5be1 0f3d e751 28bd 0c07 85bd 5b18 f33d
00000370: 89e6 a6bc 2a14 283b 99ab 4d3e 608c cdbc
00000380: 0410 54bd 4729 aa3d dd75 e53d f45a 7b3d
00000390: 539a 92bd 5659 60bd 1d3b a13d e7f1 b93e
000003a0: dbc6 073d 14d9 c13c a71e f0bc 3c79 2d3d
000003b0: 63e6 1d3e 0fcb 93bc 1117 243d bc97 e73d
000003c0: 3387 a53d adfc 7dbc 8517 21be f1eb 07be
000003d0: 858e 073c 8cfa b6bd 966e 2c3d 135a 1fbe
000003e0: 459e dd3c 31ff b63d c401 8dbd 3513 f6bd
000003f0: b5d5 85bd b2ec b7bd 5f13 63bd 79b9 663d
0.04255703 -0.106228285 -0.05830265 -0.06465614 -0.110514656 0.028835284 0.042835943 -0.12881197
0.082162336 0.059123956 0.09616233 0.110623896 0.10197069 -0.035783343 0.08518117 -0.10404836
0.16312526 0.14395596 0.46407554 -0.085947335 -0.15526192 0.17043371 0.020419698 0.11819234
-0.0053601917 -0.17155348 0.23093458 0.036436994 0.19359165 -0.051583376 -0.08605191 0.09882749
0.049633227 0.016708875 -0.26611632 -0.12823433 -0.079576224 -0.079928115 -0.054427274 -0.1269215
-0.032366943 -0.03194904 -0.14825176 -0.011243972 -0.14609268 0.12045253 -0.2517509 -0.058508217
-0.14384097 -0.18658464 -0.19821325 -0.06849596 0.06614412 -0.058315955 -0.17277816 -0.21503422
-0.03563779 -0.013326989 -0.20149745 -0.14479081 -0.085838236 -0.1897263 0.028885474 -0.12439416
-0.06858979 -0.03184941 -0.22830175 0.21161008 0.0263355 -0.112415865 0.049315706 -0.18437336
0.30140412 0.009711641 -0.028661093 -0.054651767 -0.037682626 0.30393103 -0.13907297 0.21761687
0.095433176 0.050579824 0.28474864 0.0341424 0.06712904 0.10130044 0.11888029 0.35150096
0.12944038 0.07561712 -0.04517377 0.07257323 0.16952488 -0.05984726 0.19729467 0.0794549
-0.14023706 -0.037196793 -0.3366115 0.111113 0.057691474 -0.08020835 0.029457409 -0.10967389
-0.034567248 -0.115941375 -0.057278313 0.0780939 -0.21198002 0.014500706 -0.053740762 0.061745048
-0.11705379 -0.07137657 -0.15605786 -0.04699691 -0.093780175 0.041157257 -0.09341736 -0.10396013
-0.11281775 0.013714711 0.003045252 -0.02005221 -0.19903488 0.02023013 -0.2670922 -0.00031221847
-0.12423566 0.0075917393 -0.26850513 -0.2683074 0.2839359 -0.032112062 0.13554034 0.14824189
-0.059825994 0.010040276 0.11484217 0.14506432 0.043170117 -0.22083859 0.08610972 0.14837958
-0.13316496 0.050687548 -0.18045521 0.04191507 0.06794783 0.044562224 -0.07614406 -0.2859741
0.064420454 -0.0018962566 -0.12193642 0.118759 -0.07506389 -0.09655411 -0.25949764 0.073720545
-0.07162617 0.037687723 -0.005279091 -0.0036950193 0.1498395 0.10358097 -0.06595895 0.13757543
-0.050402187 -0.121047854 -0.07732685 -0.10974379 0.051106267 -0.0063859876 -0.025813265 0.1520188
0.05156578 0.036777057 -0.052977804 -0.032775465 -0.09814518 -0.0675671 -0.010422692 -0.09491281
-0.034325004 -0.13945761 0.049770888 0.13187392 -0.075159095 0.063916236 -0.3435066 0.14915355
0.09350273 -0.061321206 -0.013689276 -0.01578347 -0.15701868 -0.04875394 -0.09753402 0.11714458
0.12245227 -0.102922045 0.086601116 0.08479096 -0.03417705 0.13068952 -0.29118702 -0.034912016
-0.102136254 0.05229108 0.056682073 -0.007054255 0.07352061 -0.007922039 0.00066932733 0.15530428
0.035127025 -0.041093733 -0.06495485 0.1186988 -0.0203736 0.0025646784 0.2008499 -0.02509135
-0.051773086 0.08308654 0.11204121 0.061366037 -0.07158341 -0.054772697 0.07872603 0.3631737
0.033148628 0.023663081 -0.029311491 0.042351946 0.15419917 -0.018041162 0.04006106 0.11308238
0.08082428 -0.015502137 -0.15731628 -0.13273598 0.008273725 -0.08934507 0.04209765 -0.15561704
0.027053008 0.08935393 -0.068851024 -0.12015382 -0.06534902 -0.08980693 -0.055438396 0.056329224

rnn.weight_hh_l0 f4 [256, 64]
00000000: b955 f0bd f8e3 2a3e 79b0 a3bd 6308 f33c
00000010: 849a 873e 2199 053d 86e3 8e3c d551 8d3d
00000020: 4570 9abd 4d68 cfbc 31dd f3bc 5115 41bb
00000030: a45e 133e 3521 91bc 7adc 193d a0b2 88bd
00000040: 45c6 71bd 1ba9 103e ff3b b2bd ef35 24bd
00000050: b006 8abd 1c0c a8bd f55e d0bd 7d10 f0bd
00000060: 8b4b 71be 441d 99bb cc29 3f3d c84a db3d
00000070: 8968 ab3d 10fb 72bc 1a6b 02be 0946 c23d
00000080: 5674 93bc ffe1 c7bc effc 51bd 1880 c1bd
00000090: 63be afbd 3d25 3c3d 77d7 33be 3e46 3d3d
000000a0: 380c 2f3e 5840 ff3c d486 113d 9c3f a5bd
000000b0: f464 86bd e32c 13bd 3306 89bd f64d 1cbd
000000c0: ab86 af3c 5a09 19bc be23 ad3d b3b2 85bd
000000d0: 8bdb f33c 7fec 153e 0c6e b23d 7491 6dbd
000000e0: ff23 c0bd 44ed bebd 3022 4b3c 664d b5bc
000000f0: bc96 c7bd 557d 123e 1f05 c3bd 7b03 753d
00000100: 75fe fc3d 2baa 88bc d8b2 20bc 9319 7ebd
00000110: 885e 4a3e 0e4b e13c 87c2 e23d 2395 39be
00000120: 7ffd eb3c f534 f6bd c251 77be 61bc 2b3e
00000130: 8b6b 1ebe 25ea 4e3e 64e6 3f3e df8a b9bd
00000140: 5ce1 2bbe 3b08 39bd b0f8 da3c cf88 1cbe
00000150: 7f93 5b3e 8581 383e e9ce c2bd db0a 4d3d
00000160: fa68 37be bda8 d4bc 5967 053e 9d9d a73e
00000170: dfff 2fbe 3fc4 67bd e0d5 5f3e 68c4 8bbe
00000180: 69e4 c93d 6597 60be 081d ff3d 51a5 37be
00000190: ca52 afbd ddd9 d03d c74a 77be 1714 733c
000001a0: de4c 583c edb4 7cbe 7ff9 5a3d a174 cfbd
000001b0: ffac 3abd 1a6a ffbd d7b8 7ebd f4c5 df3d
000001c0: cf84 ecbd a2b0 1a3d 1469 753e b8ab c2bd
000001d0: 223a 14be 83b9 113e 1596 7b3e 817a 44be
000001e0: c278 80bd 711c 193e cae6 103d b526 77bd
000001f0: bd60 a13d 2350 abbd 6a21 fc3d 03c0 f3bc
00000200: 8c04 ab3d 8a27 a43d 8f6c 2c3d 3530 763d
00000210: 8550 aa3d 73d4 6ebd 27f2 ae3d 6eda 003e
00000220: 8e24 e2bc 00dd 1e3d 11fb f33d daa7 04bd
00000230: 1929 113c 25ec f0bd 6ecf ed3d 2612 5e3d
00000240: b611 793d 7c08 e93d a303 fe3d 8dff c6bd
00000250: cf33 3f3d 1170 5bbd a748 f43b 5b79 93bd
00000260: ca81 f73b ca77 813d 5290 afbd c421 a2bb
00000270: c805 54bd e7c1 e1bc eca9 07be e16b e73d
00000280: 01a6 eabc dbfe b83c 30b5 b43c 92b1 89bd
00000290: 88fd 8abc 9d7b a3bd 048d c939 3eb5 0a3d
000002a0: 1b60 c1bd 223f c03d 1854 babd 90fd 8ebd
000002b0: d8ed c23d 10a0 923d 6f3e 01be 3055 973d
000002c0: 4022 583d 21e3 4fbc b787 233e 7bde 923d
000002d0: 8bce e9bc b42f abbd b3b2 b03c 5634 d6bd
000002e0: 2e00 b6bd cc82 d73d e09c 503c 190b 51bc
000002f0: 35ae 043d 34d2 55bd 7bfa b2bd 1d30 e83d
00000300: 463f a43d ef14 1f3e cb35 36bb 419a 69bc
00000310: 5a66 f7bd c208 283d c57e c03d 6712 27bd
00000320: 39f6 e2bd 39cc aebc 614b 053e f8e5 afbd
00000330: 2d7a 70bd e4cb 19be d8c6 e1bd f87d ab3d
00000340: 618f 09bd 5a42 dabc daa6 b1bd 56d9 8bbb
00000350: 24c0 ad3c 069c c9bd 2d31 c4bc e185 bbbc
00000360: 9665 fdbd 27ae b7bd fc8f bb3c 0bc4 053d
00000370: 455b b63c 159f 92bd bb01 1dbe 6783 953d
00000380: 0c02 b8bd 22c2 923d 6e1c 48be ff84 123e
00000390: 2721 073e 5336 3ebd ccae f93c 9ab0 e1bd
000003a0: 36ab 26be 726a b43d 3ee0 6dbd f5db a9bd
000003b0: 7b2f 043e 28e5 11bd 0e15 963a d83a d93d
000003c0: 5431 753d a16e 76bd 4fd5 03be c8ab 873d
000003d0: bb63 8cbc 6b7f d2bd 8b36 0abc 7a78 1abd
000003e0: 1b3d 943d 29a6 e3bd 7809 1fbc 5b21 d6bd
000003f0: 7e3d 27bd fc45 113c 6c4a 0d3c 6a85 f7bd
-0.117351 0.16688526 -0.07992644 0.029667085 0.26485074 0.03261674 0.017442476 0.06900374
-0.07540945 -0.02531829 -0.029768558 -0.0029462168 0.14391571 -0.01771603 0.03756378 -0.06674695
-0.059026975 0.14127009 -0.087028496 -0.040090498 -0.06739557 -0.08205435 -0.101743616 -0.11721895
-0.23563974 -0.004672678 0.04667072 0.10707623 0.08369548 -0.014830366 -0.12736169 0.094860144
-0.01799981 -0.024399756 -0.051266607 -0.0944826 -0.08581235 0.04593395 -0.17562662 0.046209566
0.17094505 0.031158611 0.035528973 -0.08068773 -0.06562224 -0.03593148 -0.066906355 -0.038160287
0.02142652 -0.0093406085 0.08454083 -0.06528225 0.029767772 0.14640997 0.08712396 -0.058000043
-0.09381866 -0.093225986 0.012398288 -0.022131633 -0.09745547 0.14305623 -0.09522461 0.059817772
0.12353221 -0.016682705 -0.009808265 -0.06203611 0.19762623 0.02750161 0.110722594 -0.18123297
0.0288074 -0.120218195 -0.24152282 0.1677108 -0.15470712 0.20206507 0.18740231 -0.09059691
-0.16785187 -0.045173865 0.026729912 -0.15286563 0.21442984 0.18018158 -0.09512121 0.05005918
-0.17911139 -0.025959367 0.13027705 0.32737437 -0.17187451 -0.05658364 0.2185893 -0.27298284
0.09858019 -0.21932752 0.12456709 -0.17934157 -0.08560713 0.10197804 -0.24149619 0.014836333
0.01320192 -0.24678393 0.053460594 -0.10129667 -0.04557514 -0.12471409 -0.062187996 0.109264284
-0.11548769 0.037766106 0.23965865 -0.09505409 -0.14475301 0.14230923 0.2456897 -0.19187357
-0.06273033 0.14952256 0.035376348 -0.06033965 0.078797795 -0.08364894 0.12311061 -0.029754644
0.083504766 0.08015354 0.042095717 0.060104568 0.08316139 -0.058308076 0.08542281 0.12583324
-0.027605321 0.03878498 0.119131215 -0.03238664 0.008859896 -0.11763791 0.1161183 0.054216526
0.060807906 0.113785714 0.124030374 -0.09716711 0.046680268 -0.05357367 0.00745495 -0.07200881
0.007553314 0.06321676 -0.08572449 -0.004947873 -0.051763326 -0.02755828 -0.13248414 0.11299873
-0.02864361 0.022582462 0.022059053 -0.06723322 -0.016966596 -0.07982562 0.00038442772 0.033864252
-0.09442159 0.09387042 -0.09098071 -0.06981957 0.09518021 0.07159436 -0.12621473 0.07389295
0.05276704 -0.012688429 0.1596974 0.07171341 -0.02854087 -0.08358708 0.021569585 -0.10459201
-0.08886753 0.105229944 0.012732714 -0.012758994 0.0323927 -0.05220242 -0.087391816 0.11337302
0.08019881 0.1553533 -0.002780306 -0.014257968 -0.12080069 0.041023977 0.09399179 -0.040789034
-0.110821195 -0.021337615 0.13017036 -0.08588785 -0.058710266 -0.15019184 -0.110242546 0.08373636
-0.033584002 -0.026642967 -0.086744025 -0.004267852 0.021209784 -0.09844212 -0.02394923 -0.022890987
-0.123728916 -0.08968764 0.022895806 0.032657664 0.022260318 -0.07159249 -0.15332691 0.07300454
-0.089847654 0.07165934 -0.19542095 0.14308546 0.1319624 -0.046438526 0.030478857 -0.11020012
-0.1627625 0.08809365 -0.058075182 -0.082939066 0.12908737 -0.03561893 0.0011450367 0.10606927
0.059861496 -0.060164098 -0.1287434 0.066245615 -0.017137399 -0.10278209 -0.008435856 -0.03771255
0.072382174 -0.11115677 -0.009706847 -0.10455581 -0.040830128 0.008866783 0.008623701 -0.120859936

rnn.bias_ih_l0 f4 [256]
00000000: 164b f1bd 7804 b63d c90a a239 0e9c c2bc
00000010: 939a 473e 640c d6bd c770 533d 0627 193c
00000020: ec88 6c3e d37e df3c 6101 943d 05c5 f63d
00000030: 5c77 a33d b391 10bd 8657 e23d c6a3 02ba
00000040: ec12 b73d fd07 05bd f580 18be c9e9 27bd
00000050: 6164 493d a4b1 ec3d 9070 a43d 6ba7 aa3d
00000060: 330c 3d3d 4dea fa3c 61e6 58bd ff1a d23d
00000070: 7bc4 433d 2844 f63c 5d78 ce3d a72c d13d
00000080: e44c 2ebd f6e6 603d 4d03 0b3e 551e a0bc
00000090: 8bea afbc 2c3b 23bd 35b4 d53c 635c 6f3d
000000a0: 73e7 ef3d a430 b83d 795f 0ebd c674 a1bc
000000b0: 45ad a53d 8bc6 163d 0bcf 1ebe 2a1d f0bd
000000c0: e583 533d c543 f43d 0053 ee3c 490e a03d
000000d0: c15e 9cbd 090d e5bc f9d5 203e b947 1f3c
000000e0: e037 a33e 6ff3 dabc 4bc9 ff3d 2d4f d83d
000000f0: dc50 b63d bf6e 06be 0b72 0ebd 471d 753e
00000100: dcd6 713d 85b5 843d 49ce 063d b2e2 c0bc
00000110: b73d 2ebd 350d 8cbd 87e5 403d e7e9 d63c
00000120: 96f2 acbd 5282 893b 5685 98bd c31f e4bc
00000130: 8632 863d f9c5 983d b288 c6bd d0aa 1fbd
00000140: de1e 29bd ddfe e5bc 0559 91bd ed86 00be
00000150: 8ecf 573d d601 f7bc f758 bcbd 256f 3dbd
00000160: 9100 e3bd 3daf 79bd 0f22 02bd 197a 7aba
00000170: f218 46bd 99ea 8fbd fddc 863d 831b d63d
00000180: 279b 9ebd c432 89bd 7d8d 94bd 06a0 c8bd
00000190: dc65 7dbc fac8 20bd a03d 1c3d 6b86 333d
000001a0: 43fb cf3d b898 11bc 5c77 9b3d f5ab 0bbd
000001b0: e357 afbb a061 f63c b518 ffbc f32a f13d
000001c0: 500d ae3d 7187 52bd acea 343d eb4b d03d
000001d0: 35a0 3fbd c16f 8abb a679 d03c 7ac7 243d
000001e0: 5fc7 cd3d 369e 95bd 98fc 88bd a784 e2bb
000001f0: 2ab5 163d f0fd 31bd 805d 09be 0f21 583d
00000200: c75f 093d b3b1 88bd db5c 003b fdb2 033c
00000210: 53f3 05bd f58e e4bd b8e0 113d 65fb 68ba
00000220: 7335 ee3d 8abd 9a3d 8907 f43d 7115 06be
00000230: fed5 cd3d de32 4d3c f107 ebb9 dff2 c33d
00000240: 1262 cc3c f2ea 6a3d cfe0 e83d 9fe8 05bd
00000250: 6aa0 b1bd 52d6 fabd e630 953c 98e7 e53d
00000260: c5ea 8cbd 8b52 dc3d 8b8b 64bc 0cee acbd
00000270: a319 9c3d 37bc 76bb 2fdb 3f3d 8efc a6bc
00000280: b411 403d c48c fe3d 3f24 21bd 938c 8bbc
00000290: 2649 193c 8cd2 97bd adf3 523c cfd0 a5bc
000002a0: bd5f 20bd d8e8 9cbc 0b34 283d 2739 7abd
000002b0: 4c4f 9abc 0e3d a6bc 12e1 f53d c3ff e4bd
000002c0: e255 8bbd ab79 60bd c5c2 82bd 0cad e73c
000002d0: 4f61 92bd f450 9f3d a485 f9bd 5df5 e33d
000002e0: fe59 79bd 5584 1d3c 3928 cfbb 4172 c43d
000002f0: 5091 7b3d 60d1 a2bd 3041 8d3c 4cba 853d
00000300: 3ce9 a43d 78ad c83d fbc6 18bd 14ac c43c
00000310: 7f6f 293e 2029 353d 2f05 8ebc 43c6 3ebd
00000320: 706e 373e dc0a df3d be94 e03c 7f50 e93d
00000330: e3f1 bc3d 3b6d 53bd b064 7e3b 18b7 8b3d
00000340: 62fd 823d 85aa a23d 7045 8d3d 5c2d 15bd
00000350: 2b7d 093b 543a 993d ade1 e13d 1e25 85bd
00000360: 9a5a 9b3d 7712 93bd 2712 95bd 56fe 9abd
00000370: 34fc b8bc de89 b63d b02d 6cbc 8d38 123a
00000380: dc7d 25bd ad28 3abd 4449 b83d d12b bfbd
00000390: 331e 86bd fe96 783d df82 0bbd 7a8a debd
000003a0: f80d 8f3d 89ed be3d c324 c93c 7bcd 5fbd
000003b0: c96d d63d 389e eebd dff5 17be 2c86 9e3c
000003c0: 2980 2d3d 4608 ecbb 04e0 87bd 436f bb3c
000003d0: c905 cc3d 5682 ef3c fe1b 253e 6ae6 87bd
000003e0: 447a 3a3e 22c9 00be 0418 693d 93cb d6bd
000003f0: d515 66bd 66e1 493d 9e6e a5bc fafc 51bc
-0.117819 0.08887571 0.00030907083 -0.023756053 0.19492559 -0.10451582 0.051621225 0.009347683
0.23099107 0.027282154 0.072268255 0.12049297 0.0798175 -0.0352952 0.1105185 -0.00049835106
0.08939156 -0.03247832 -0.14892943 -0.04099444 0.049167994 0.1155732 0.08029282 0.08332714
0.046154212 0.030629301 -0.05295408 0.10259055 0.0477948 0.030061796 0.10081551 0.10213595
-0.042553797 0.05490776 0.13575478 -0.019545713 -0.021474143 -0.039851353 0.026086906 0.058437716
0.11714067 0.089936525 -0.03475902 -0.019709002 0.08089689 0.03681044 -0.15508668 -0.117243126
0.051639456 0.119269885 0.029092312 0.07815225 -0.076352604 -0.027960317 0.15706624 0.00972169
0.31878567 -0.026727406 0.124895655 0.105619766 0.089021415 -0.13128184 -0.03477673 0.2393695
0.059042796 0.064799346 0.032911573 -0.023545597 -0.042539325 -0.068384565 0.047093894 0.02623458
-0.08444707 0.0041964436 -0.07447307 -0.027847176 0.06552605 0.07459635 -0.09694041 -0.03898126
-0.041289203 -0.02807563 -0.07097057 -0.1255147 0.052688174 -0.030152243 -0.09196656 -0.046248574
-0.110840924 -0.060958136 -0.031770762 -0.0009554937 -0.048363633 -0.07027168 0.06585119 0.10454466
-0.07744437 -0.06699136 -0.07253549 -0.09796147 -0.01546618 -0.039254166 0.038144708 0.043829363
0.10155346 -0.008886509 0.07591125 -0.034099538 -0.005351053 0.030075848 -0.03113971 0.1177577
0.08498633 -0.0513987 0.044169113 0.1017073 -0.046783645 -0.004224748 0.025448631 0.0402293
0.10047793 -0.07305567 -0.066888034 -0.006912786 0.036793865 -0.043455064 -0.13414574 0.052765902
0.033538606 -0.066745184 0.0019586596 0.00803828 -0.032702755 -0.111600794 0.0356147 -0.00088875584
0.116312884 0.07555683 0.119155 -0.13094117 0.100505814 0.012524335 -0.0004482861 0.09567808
0.024949107 0.057352968 0.11371004 -0.032692548 -0.08673175 -0.122479096 0.018211793 0.112258136
-0.06880716 0.10757931 -0.013949285 -0.08443841 0.07622077 -0.0037648806 0.04683989 -0.0203841
0.046891883 0.12429193 -0.039341208 -0.017034804 0.009355819 -0.074132055 0.01287548 -0.02024117
-0.039153803 -0.019153997 0.041065257 -0.06108966 -0.01883664 -0.020292785 0.120058194 -0.11181595
-0.0680349 -0.05480353 -0.063848056 0.028280757 -0.071474664 0.077791125 -0.12183693 0.11130784
-0.06087684 0.00961407 -0.0063219336 0.09592105 0.061417878 -0.07950091 0.017242998 0.06529674
0.080522984 0.097987115 -0.037299138 0.024007834 0.16546439 0.044228673 -0.017336456 -0.046575796
0.17913222 0.10890743 0.027414676 0.113923065 0.09225824 -0.051617842 0.0038817339 0.06822032
0.06395985 0.0794268 0.0689801 -0.03642021 0.0020979147 0.07481828 0.11029372 -0.0650122
0.0758564 -0.07181256 -0.07278853 -0.07568042 -0.022581197 0.08913015 -0.01441519 0.0005577885
-0.040403232 -0.045448948 0.08998349 -0.09334529 -0.06548729 0.060690872 -0.034060355 -0.10866256
0.06985086 0.0932265 0.024553662 -0.05463932 0.104701586 -0.116512716 -0.14839886 0.019351088
0.04235855 -0.0072031347 -0.066345245 0.022880202 0.09962041 0.029236954 0.1612396 -0.06635745
0.18210703 -0.12576726 0.05690767 -0.104880475 -0.056173164 0.049287222 -0.020194348 -0.012816662

rnn.bias_hh_l0 f4 [256]
00000000: 0cb5 a63d 5aba c83d 3503 a0bd 79ea fabd
00000010: c19e 483e 0a8c 853d c4a5 dd3d 4314 ee3b
00000020: a031 703d 18f3 c63d 8e7f 853d 2f6b e73d
00000030: 3e47 abbd 1f04 61bd 61c2 2c3d 9e91 f4bc
00000040: d004 a8bd 4532 453c 89ce 593d db62 aebd
00000050: 041e 83bd 817d f1bd c81a 99bd 5c45 aabb
00000060: dcd3 f03d 17cd eebd 6d09 1d3c c836 1e3d
00000070: 0ebe f13d ed0e a1bc 37b9 f23d 92a5 353d
00000080: f6ee bcbd 2957 de3d 13a2 f83d 0146 753d
00000090: 6afd eb3d b997 8fbd 7aab cf3d 648b c8bd
000000a0: 3001 df3c fcf6 e03d f0de ffbd 741d c63d
000000b0: b8a0 afbc c027 b8bc 9312 0fbe 3559 8c3c
000000c0: 75e8 3fbd bb63 023d 8e7f 033d 9728 773d
000000d0: da06 20bd 214d 813d 3104 1b3e bb1f 173e
000000e0: 8d31 8f3e 4680 bf3d 17ab 8dbd fbfa e9bd
000000f0: a3af 0a3e 726b e63d c909 3c3d 9ecb 173d
00000100: 0261 57bd fe2e d13d 07c3 953d f7f3 e13d
00000110: 2961 af3d 9ac8 bcba 6574 c4bd e57c 7d3d
00000120: 4cb4 c53d ea1f de3d 2e61 a33d 8e82 803d
00000130: b72c 54bd 5b99 c23d ade6 07be f812 7dbd
00000140: 6bc6 ddbc be2b dc3d c4a5 b13d 5196 883d
00000150: 675f 26bd 4d21 99bd 3f44 2abd b6a6 873d
00000160: 1685 383c b7bd 0a3d 85ab 3e3d 6961 09be
00000170: 685a 17bd d95d 863d 69a3 cb3d c2ca 953c
00000180: c08b f2bb 718e 813d 9c4f a7bd 5f5e 0abd
00000190: d95e c1bb eab4 7f3d 9626 083e b447 31bc
000001a0: 176f bb3d 3aad cd3d 85c9 623c baef 5ebc
000001b0: 453a ee3c f7ae dabd 7bd8 d93c 2acf 0fbd
000001c0: 4954 ffbd 850c 0dbe f3c9 f0bd 43bd 6dbc
000001d0: 3f9b a63d 3403 313c 1f33 0d3e 84e5 3fbb
000001e0: 12c1 463c ac08 e03b d486 9abd 088e 16bd
000001f0: dfa3 0cbe 764c b2bd d523 b3bd 93b9 0fbe
00000200: ac9d 5abd 2369 413d 1d0a 063e 597c c53c
00000210: 4cec fbbc 6177 7e3d f36a 9cbd 3d8e f93d
00000220: 836d b0bd 0220 c3bd b9c8 d5bd 5067 9cbd
00000230: fba4 663d e4b3 aebd ca2a c33d bb15 d73d
00000240: b3c0 15bd 8d22 983d 271f b5bd 91b6 903d
00000250: 8a50 f9bd 2f27 b5b9 a350 adbd f88d c53d
00000260: fa88 bbbc 7171 02bd bb32 a53d f0d4 b4bd
00000270: 0837 b83c 2616 8e3d 51f8 a6bd 8ab9 ea3c
00000280: a609 b1bd 10b2 14bd 9a06 b7bd 31b5 af3d
00000290: 5cc3 103d 004f 4f3d 1296 b2bc 3127 5bbd
000002a0: 5984 21bd 837a b5bd cb61 673d e63d 7abd
000002b0: 521c a1bd 8c63 65bc d6ac ddbd d5a6 c4bd
000002c0: 2031 d83d 6c10 e1bd fd84 ecbd 599b 87bd
000002d0: 7a09 e43c 4636 8b3d 4fec bebc 5bda 623b
000002e0: 17c4 8e3d 840c e8bd eb42 c93b cadd edbc
000002f0: 31be febd 66ad 7d3d 8427 a13d 5a68 e33c
00000300: 1509 87bd e0c0 743e 66c5 f5bd 3c9d c5ba
00000310: ed79 6d3e 40e7 673d 9de9 b0bc ba99 77bb
00000320: 1708 033e a3be 1cbb b51d e73d f717 a5bd
00000330: 5998 89bd 45cc 92bd 9745 2abd c887 283d
00000340: bc50 60bd c1ce 48bd 49de dabc 7b39 c03d
00000350: 0f43 e03d 3eb9 133d 11d5 ee3d a95d 57bd
00000360: 1a97 1f3d 3b76 6e3d 93eb 423d 02d1 96bc
00000370: bcbe e63c 4adf 3bbd 33b1 6d3d f1b6 c9bb
00000380: ec8b 8a3d e497 0c3b 5bde 643d b702 8c3d
00000390: 4936 5f3c 4df5 cf3d cb96 083d 490d 78bc
000003a0: 28c9 143e 112f 0abd 8aa6 813c df85 513d
000003b0: 8ce2 d4bc d533 ce3d cd85 013d 5fdc 013d
000003c0: 0c6a 1e3d 09cd cd3d c2c9 eabd 2edf cf3d
000003d0: b56b 64bd 1550 acbd f072 9e3d e472 f63d
000003e0: f946 543e 5ef5 59bd bc88 093e 3a00 003d
000003f0: 44a6 b53d 346c a13c f151 693d da64 0b3e
0.08140001 0.09801169 -0.07813112 -0.12251753 0.1959181 0.06520851 0.10822633 0.007265599
0.058641076 0.09714335 0.0651847 0.112997405 -0.08363198 -0.05493557 0.04217756 -0.029854592
-0.08204043 0.012035911 0.053175483 -0.08514949 -0.064022094 -0.11791516 -0.07475811 -0.0051962566
0.11759159 -0.116602115 0.009584767 0.038626462 0.11803828 -0.019660437 0.11851733 0.044347353
-0.09225266 0.10856468 0.12140288 0.059881214 0.11522944 -0.07011361 0.101401284 -0.09792212
0.027222246 0.109846085 -0.12493694 0.096735865 -0.021438941 -0.022479892 -0.13971929 0.017132381
-0.046852548 0.03183339 0.032104068 0.060341444 -0.039069034 0.06313539 0.15138318 0.14758198
0.27967492 0.09350638 -0.069173984 -0.11424824 0.13543563 0.11250962 0.04590777 0.03705942
-0.05258275 0.10214041 0.07312589 0.11032861 0.08563454 -0.0014403046 -0.09592513 0.061886687
0.096535295 0.10845931 0.0797752 0.06274901 -0.051800456 0.095019065 -0.1327159 -0.061785668
-0.027072152 0.10750531 0.086741954 0.066692956 -0.040618327 -0.07477055 -0.04156899 0.066235945
0.011262199 0.033872332 0.046550293 -0.13416065 -0.036951452 0.06560869 0.099432774 0.018285159
-0.0074019134 0.06325997 -0.08169481 -0.033781406 -0.0059011993 0.062428392 0.1329597 -0.010820318
0.09152048 0.10042806 0.013841991 -0.01360696 0.02908052 -0.10677903 0.026592484 -0.035109676
-0.12467248 -0.13774307 -0.11757269 -0.014510456 0.081350796 0.010803986 0.13789032 -0.002928109
0.0121309925 0.0068369713 -0.07545248 -0.036756545 -0.13734387 -0.0870599 -0.08747069 -0.14035635
-0.053373024 0.047219407 0.13089795 0.024107145 -0.030752324 0.062125567 -0.076375864 0.12185333
-0.08614638 -0.095275894 -0.104386754 -0.07636893 0.05630968 -0.08530405 0.09529646 0.10502192
-0.036560725 0.07428465 -0.088438325 0.07066072 -0.12173565 -0.00034552204 -0.08462646 0.09646219
-0.022892464 -0.031846467 0.08066317 -0.08829677 0.022487178 0.06937818 -0.08152831 0.028652925
-0.086444184 -0.036302626 -0.08936806 0.085794814 0.03534256 0.05061245 -0.021800075 -0.053504173
-0.039432857 -0.08861258 0.056489747 -0.061094187 -0.0786673 -0.014000785 -0.108239815 -0.09602133
0.10556245 -0.1098946 -0.11548803 -0.06621427 0.02783655 0.06797461 -0.02330604 0.0034615013
0.06970995 -0.11330512 0.0061420104 -0.029036421 -0.1243862 0.061932944 0.07868865 0.02775972
-0.06593529 0.23901701 -0.120005414 -0.0015076767 0.23191042 0.05661702 -0.02159577 -0.0037780837
0.12796055 -0.002391734 0.11284963 -0.080612116 -0.06718511 -0.071678676 -0.041570272 0.041145116
-0.054764494 -0.0490253 -0.026717322 0.093859635 0.109502904 0.036065333 0.11661733 -0.052579556
0.03896246 0.058218222 0.047587942 -0.01841021 0.028167121 -0.045867242 0.05803032 -0.0061558415
0.06764969 0.0021452839 0.055876117 0.06836455 0.013623782 0.10154209 0.033346932 -0.015139886
0.1452986 -0.033736292 0.015826482 0.05115306 -0.025986932 0.1006848 0.031621743 0.031704303
0.038675353 0.10048873 -0.114642635 0.1014999 -0.05576678 -0.08413712 0.07736766 0.120336324
0.20730199 -0.053212516 0.13431066 0.031250216 0.08869603 0.019704916 0.05696291 0.1361269

rnn.weight_ih_l1 f4 [256, 64]
00000000: 6e0a 3d3c d2cf f3bd bee9 1b3c e312 853c
00000010: f9c9 15ba 0264 d8bd 54cb 34bc 5a7c a23d
00000020: 6848 14be 62e6 be3d 0c5d cc3d 6758 32bd
00000030: ff4f 23bd b00e a73b 920a 7b3d 39c2 633d
00000040: 0c73 943d 9e2e c6bd 04ae 053d 3bdf 683d
00000050: e758 f0bd 454d 6b3d eccd fb3d 9a39 a73d
00000060: 23e9 a4bc 2f30 05be 163f 0abe 0c95 9cbd
00000070: 4327 fa3d 9cdb 01be da4d b63d dfa6 16bd
00000080: f1e3 62bd 43c4 efbd 4c90 153d 0afd 3c3d
00000090: 57b5 2b3d c0ac 9bbd c4ec a23d b7f1 92bd
000000a0: 9036 80bd fa55 d9bd 858b fbbd 7615 9abd
000000b0: 2a4f 75bd f433 853c b683 503d add5 a1bd
000000c0: a7c8 d33d 6e92 cfbd c892 b33d 3d5e 7d3d
000000d0: 3ea4 39bd 4a9f 073c ff40 b3bc 688f 953d
000000e0: 7ab4 8d3d 52ae febc 192d 373d 5738 e13d
000000f0: 8738 92bd 3ef6 1abc d685 7c3d 05b5 8f3d
00000100: 4191 d8bd 3014 7b3d 291c ff3d 501f 81bd
00000110: eed8 433b 4ab1 c93d b9da c83d 2855 b33d
00000120: 60c7 41bd 5ff4 e53d 396c 643d d5fd efbd
00000130: 4b46 aabd 64da b63d 384e 5d3c 5be4 a43b
00000140: dbcd d7bd e83e b1bd 04a7 e2bd c4c8 a63c
00000150: 701a c3bc 545b 453d f3da a93d a78c c5bd
00000160: e0a8 fd3c 3382 88bd 1377 c73d df92 8abd
00000170: 3f96 a2bc cdf7 5bbd a2a0 853d dd0e 9b3c
00000180: 2a6e 753c b2f8 f7bc cf18 80bc 0f4a d5bd
00000190: 758a d9bd f4d1 2abd 3e04 66bd 6505 ddbc
000001a0: 469d 3d3d aa64 2f3d d5b1 d2bd bf6b 003e
000001b0: d294 043e 84d6 483d 83c2 a83d dedf 383d
000001c0: 28cc 093e 5c65 b33c 5b3b c0bd 8d08 7fbc
000001d0: 9bbd 78bb e0b8 e9bd 525d 0c3e 6f85 743c
000001e0: e4ec dd3c bd6c a83d 1392 033e ee0c 293c
000001f0: 7f90 603d 0ed4 77bd e763 a43d f21a 0d3d
00000200: 3e95 cabd 41b0 bfbd 9c0a 943d c15f 763d
00000210: 4ca8 733d fd10 e0bd 7985 a3bd 20c1 97bd
00000220: 7438 e4bc d67c 60bb e2eb 30bd 66e2 c5bc
00000230: b44c 8d3d 1c8b 11bd 6c18 96bd 92c0 b53d
00000240: 7a08 e73d e55e 67bd 9534 52bc 3a10 c93c
00000250: 8232 ffbd 6349 503d 9cf9 d4bc 3b16 2d3d
00000260: 51fe a4bd 921e 9dbb ec97 443d 3b28 aabd
00000270: 4be2 e43d fa86 093c 45a3 033e 1253 bdbc
00000280: a9ce 97bd 28b7 55bd 2b8f 2f3d 8c49 683d
00000290: 4340 933d a647 7abd 47f1 92bd 30eb ff3d
000002a0: d5bb 74bd dcbc 79bd 0c10 603d 46cf dd3d
000002b0: d6ba 2c3d 41eb 703d f526 cabd 2bc9 f6bd
000002c0: 6721 abbd 378f 06bd d143 ca3c 8a5b e63d
000002d0: 2273 7ebd ac8e e63d 6ca5 073e 0232 84ba
000002e0: 3eba e03d e268 c03d 8ad1 ad3d ccae a33d
000002f0: 2e70 f33d d43a e8bd f751 b9bd c60f 0f3d
00000300: 7d80 fabd b002 c5bd 6795 253a a1d2 683d
00000310: 349d 2c3d c958 2d3c 8ca8 0abd 4dce 5d3b
00000320: c202 9c3d de5d 993d 8510 8e3d e580 b13d
00000330: bb98 653c 95d0 023a a281 c93d fa62 e5bd
00000340: f2aa 13bd 3851 c53c 7994 d9bd 60fd 34bd
00000350: 1c9d e13d 4591 f53d 0093 dabd 01a5 633d
00000360: 3ebc ab3d f3ef 603d b4c7 bbbd 3da1 d9bd
00000370: ec32 d03d 82bb a4bd 18b9 fbbd 33ba 57bd
00000380: 0323 46bd 3070 8b3d c429 a4bc 8855 ddbc
00000390: bad2 f33d 1c5d 973c 4e8f 493d 1a86 4bbb
000003a0: 2c80 12bd 69e7 fbbd 86e7 af3d 769c 87bd
000003b0: 5b23 43bb af60 833d fb66 fe3c 4233 db3c
000003c0: 255f 26bd b2ef 8f3d a336 223b aa2d 0a3d
000003d0: c540 96bd aa4b 29bc 302a a5bd 77cf 71bc
000003e0: 89ff 753c b1ed adbd 30fe 52bd f7a7 83bd
000003f0: 1be0 da3d d340 d7bd 71f1 cc3c 4322 463d
0.011538131 -0.11904873 0.009516178 0.016244357 -0.0005713995 -0.1056595 -0.011034805 0.079338744
-0.14480746 0.09321286 0.09978685 -0.04354134 -0.039871212 0.0050981864 0.061289378 0.055605147
0.07248506 -0.0967686 0.032636657 0.056853514 -0.11735707 0.057446737 0.12295136 0.081652835
-0.0201307 -0.13006662 -0.13500628 -0.07645616 0.1221452 -0.1268143 0.08901568 -0.036780234
-0.055393163 -0.11707356 0.036514565 0.046139754 0.041920986 -0.07601309 0.07955316 -0.0717501
-0.06260407 -0.10612102 -0.122824706 -0.075236246 -0.05988995 0.016260125 0.05090686 -0.079020835
0.10341006 -0.10135351 0.08768231 0.06185745 -0.04532265 0.008277724 -0.021881578 0.07302743
0.06919189 -0.031088982 0.044720743 0.10997074 -0.07139688 -0.009458123 0.061651073 0.070169486
-0.1057458 0.06129855 0.12456543 -0.063048005 0.002988394 0.09848268 0.09807343 0.08756477
-0.04730928 0.11228251 0.05576727 -0.117183365 -0.083141886 0.089283735 0.013507418 0.005032105
-0.10537311 -0.086545765 -0.11067012 0.020359404 -0.023816317 0.0481828 0.082937144 -0.09645968
0.030964315 -0.066654585 0.097395085 -0.06766295 -0.019847034 -0.053703118 0.06524779 0.018927986
0.014979878 -0.030269954 -0.01563683 -0.10414516 -0.10622112 -0.041704133 -0.05615639 -0.026980111
0.046292566 0.04282061 -0.10287825 0.12541102 0.12947395 0.049032703 0.08240225 0.04513537
0.13456786 0.021898918 -0.09386321 -0.0155660035 -0.003795481 -0.11412215 0.13707474 0.014924391
0.027090497 0.08223865 0.12848692 0.010318024 0.054825302 -0.060504965 0.08026867 0.034449525
-0.09891747 -0.0935979 0.07228586 0.06014991 0.059486672 -0.1094074 -0.07984442 -0.074098825
-0.02785895 -0.0034254096 -0.043193705 -0.024155807 0.068993956 -0.035533056 -0.07328877 0.088746205
0.11280914 -0.056486983 -0.012829919 0.02454387 -0.124608055 0.050851237 -0.02599793 0.04225753
-0.080563195 -0.004794904 0.047996446 -0.083084546 0.111759745 0.008393997 0.12855251 -0.0231109
-0.07412464 -0.052176625 0.042861145 0.056710765 0.07189991 -0.061103486 -0.07174926 0.1249603
-0.059749443 -0.060971126 0.054702803 0.1083055 0.042170368 0.058818106 -0.09870712 -0.120500885
-0.0835598 -0.032851424 0.02469054 0.112479284 -0.062121518 0.11257681 0.13246697 -0.0010085704
0.10973023 0.09395005 0.08487232 0.07992324 0.11886631 -0.113393456 -0.09048837 0.034927152
-0.122315384 -0.09619653 0.0006316513 0.056841496 0.042142108 0.01058025 -0.033852145 0.0033844889
0.076177135 0.07488607 0.069367446 0.08667163 0.014013465 0.00049901876 0.098391786 -0.11200519
-0.036051698 0.02408658 -0.10624022 -0.04418695 0.11016294 0.119905986 -0.10672569 0.05557728
0.08385514 0.054916333 -0.0916895 -0.10626457 0.101659626 -0.08043577 -0.12291163 -0.052667808
-0.048373234 0.068085074 -0.020039447 -0.027018324 0.11905427 0.018477015 0.04920893 -0.0031055273
-0.035766765 -0.12299997 0.085890815 -0.066216394 -0.0029775712 0.06414925 0.031054964 0.02675784
-0.04061808 0.0702814 0.0024751804 0.033734955 -0.073365726 -0.010332981 -0.08064687 -0.014758936
0.015014538 -0.08492602 -0.051511943 -0.06428521 0.10687276 -0.10510411 0.025017472 0.04837252

rnn.weight_hh_l1 f4 [256, 64]
00000000: cdcd 083d 4b90 613d 04c8 59bd 728e 74bd
00000010: 41d9 10be 7e81 c9bd 68b8 313d 75c9 3c3c
00000020: 66dc 8e3c 1153 803c 2cb0 e4bd 879e 623d
00000030: 7acd ec3d 465b edbd 560e 133e 95b5 acbd
00000040: d158 72bd d56c 573b 2f36 863d b484 e43d
00000050: 3a1f 73bd b17b debd f818 3b3c 8aea bbbd
00000060: 2f13 30bd fc87 adbd 9c1e c93d 2056 89bc
00000070: a48b 9ebd 5dc0 903d edf9 073d 4d8d 44bb
00000080: 4216 ad3d 5219 c4bd 8db2 bebd f080 8e3d
00000090: b4ea 17bd c494 ad3d c8d2 38bd 972d 52bd
000000a0: a7d6 ad3d 6131 9e3d 1ae3 cbbd 1ebc 1dbc
000000b0: 1562 a1bd 5b36 8dbd 0b88 173d d7e4 003e
000000c0: beba 4a3d 4833 8ebd 1bed 4f3d cf1c b13d
000000d0: c4b0 23bc f76e dabd 6bd9 d9bd 5231 983d
000000e0: f0d0 e43c 3ae7 8a3d 7e6e febd e107 553d
000000f0: c4c1 7bbd ae7d ecbd 0d0b 473d e9fe cabb
00000100: 6b45 99bd f283 753c fe69 c8bd f644 0fbe
00000110: aa1a 0dbd d47b 14bd 1374 ce3d 8e29 773d
00000120: b74e 01be 2966 1bbe c184 1d3d 8e42 1d3d
00000130: 2c81 df3c 7c04 173e 048f d93d 2d3e 833d
00000140: 3bbd 17bd baaa 16be 6df5 bb3d ea56 cebc
00000150: 4df1 02be d233 1ebe 9859 9b3d 0ad5 ad3d
00000160: 0b79 6e3b d57c b7bd 3f00 f73d 4cbf b73d
00000170: 46bf e7bd e319 8c3d ddc6 3f3d e7db 22bd
00000180: 4512 90bd 7444 83bd 646a 28bd 2eef cbbd
00000190: 642a 7b3d 731f 473c 348f a5bd 8102 f7bd
000001a0: 67b0 a3bd c723 0fbe fec7 f6bd fa71 063e
000001b0: 5184 133d a011 903d 95b9 303d d662 33bd
000001c0: eea7 15bd d700 afbc 1706 d5bd 49d3 ee3a
000001d0: c8bc 9dbd b862 acbd 964a 47bd 86cd fa3d
000001e0: 1e62 95bb d8fc 89bd b6d1 4d3c f8c2 993d
000001f0: 97e2 413d 51fb cbbc 492b fdbd 0e66 833d
00000200: 2ac3 57bd 9aaf b4bd a0e7 43bd ae81 3ebd
00000210: c72b 55bd 3ac3 973d 0829 17bd 1c1b f0bd
00000220: 63dc c13c 55f6 08bd 3311 aabd c067 dbbd
00000230: 4057 0dbc 4bdc 57bc 783f 8dbd eeb5 873d
00000240: fb97 abbd e76a 273d 1ced 93bd a68f 283d
00000250: 3b29 2d3c b62c 08be 171b 193d 3013 153d
00000260: 1566 00bc 5dc8 48bd cc84 783d 0b78 d53c
00000270: cf52 e6bd 1bbb bb3c 58fe d3bd 40cd ee3d
00000280: 0aba d5bd 17f7 16bd 47ca 6bba 7f19 5abd
00000290: 537c 023e 4ca6 073d 5bc8 d0bd 2c32 98bd
000002a0: 8fa6 9f3c 6666 0abe d618 c5bd 23a3 c13b
000002b0: 48b4 173e 3676 0d3e eb72 b73d a054 79bd
000002c0: 8903 8b3d 47af c33d a6fc c03c a98a 1fbc
000002d0: 87d6 043e ebb2 c43b 4bc8 b4bc 2ae2 7c3d
000002e0: 8e00 9dbd 9e39 38bd 1d49 923b 5fea 283c
000002f0: ded8 8fbd 1387 413d ff04 003e bd2a ab3d
00000300: 639d 833c 31f6 3d3b d70e afbd 31e1 073e
00000310: 398d e63d 2c43 b63d 9fa9 95bd f975 b8bc
00000320: f8d8 0abc 200e b9bc 3a06 b8bd ac9f c83d
00000330: 7cf3 203d 8e92 103d 2b72 1bbd 0ac0 f8bd
00000340: 15ba 92bc ac2c d73d 97bf 563d 5f5a b33d
00000350: 15da 4bbd a06d 82bb c2c5 9fbd 0a82 93bb
00000360: ba8b 553d 85a7 a9bd 2058 0ebe 2c45 0c3e
00000370: c75c 64bd 8e0f a7bd 4652 0f3e 78dc 4f3d
00000380: 05de b13d 2223 dd3d 4e04 063e 9cf7 32bd
00000390: 036a 513d 0ee8 7ebd 69da e53d b167 b0bd
000003a0: ac6b ccbd 0009 1cbd 044a afbd ad31 b23d
000003b0: 434a f0bc 3246 8fbd bbfa 5f3d 8258 783c
000003c0: cf38 f03d 5bde 083e 7078 a93d 67a9 afbd
000003d0: d5cc 3bbd b5fd 6e3d 3e46 05bd 1c69 cebd
000003e0: e934 e1bd 7a94 15bd 7f78 19bd 9b84 96bd
000003f0: cf43 253c 8bd9 f43d 9867 8b3c 6d6a 773c
0.033399392 0.05506925 -0.053169265 -0.05970616 -0.14145376 -0.09839152 0.043388754 0.0115226405
0.017439079 0.01566461 -0.111664146 0.055326965 0.11562629 -0.11589675 0.14360937 -0.084330715
-0.059166733 0.0032871265 0.065533035 0.111581236 -0.05935595 -0.10863436 0.011419527 -0.09175594
-0.042987045 -0.084732026 0.098202914 -0.0167647 -0.07741478 0.070679404 0.033197332 -0.0029991448
0.08451511 -0.09575142 -0.093113996 0.069581866 -0.037089065 0.084756404 -0.04512289 -0.05131301
0.08488207 0.07724262 -0.099554256 -0.00962737 -0.07880036 -0.06895133 0.036994975 0.12587295
0.049494497 -0.06943375 0.05076323 0.08648073 -0.009990875 -0.10665696 -0.10637172 0.07431282
0.02793166 0.06782384 -0.124234185 0.052009467 -0.061464086 -0.11547409 0.048594523 -0.0061949384
-0.074839436 0.0149850715 -0.097858414 -0.1399115 -0.034449257 -0.036250904 0.10080733 0.060342364
-0.12627684 -0.1517569 0.038456682 0.03839355 0.027283274 0.14747804 0.10622981 0.064083435
-0.0370457 -0.14713565 0.09177671 -0.025187928 -0.12787361 -0.15449455 0.07585448 0.084878996
0.0036388065 -0.08959357 0.12060594 0.08972034 -0.113157794 0.06840875 0.04682051 -0.039760496
-0.07034735 -0.06409541 -0.041117087 -0.09957729 0.061319724 0.012153494 -0.080839545 -0.120610245
-0.079926305 -0.13978492 -0.12049864 0.13129416 0.03601486 0.07034612 0.043145735 -0.04379543
-0.036537103 -0.021362705 -0.10401552 0.0018220927 -0.07702023 -0.084172666 -0.048655115 0.12246232
-0.0045588156 -0.06737679 0.012562206 0.075078905 0.047335234 -0.02490011 -0.123617716 0.0641595
-0.052676357 -0.08822556 -0.047828317 -0.04651039 -0.052043702 0.074102834 -0.036904365 -0.11723921
0.023664659 -0.033438046 -0.08304062 -0.10713148 -0.008626759 -0.0131750805 -0.06896871 0.06626497
-0.08378597 0.040873434 -0.072229594 0.04115262 0.010568912 -0.13298306 0.03737935 0.03639525
-0.007836838 -0.049019206 0.06067352 0.026058218 -0.11246263 0.022916367 -0.103512466 0.11660242
-0.10435875 -0.036856737 -0.000899468 -0.05324697 0.12742738 0.033117577 -0.10194465 -0.074314445
0.019488601 -0.13515624 -0.09623878 0.00590934 0.14814866 0.13814625 0.08957466 -0.06087172
0.06787784 0.09554916 0.023557972 -0.009737649 0.1297246 0.006002774 -0.022068163 0.061739124
-0.076661214 -0.044976823 0.004464282 0.010309785 -0.07023786 0.047247957 0.12501906 0.08357761
0.016066259 0.0028985853 -0.08547752 0.13269497 0.11257405 0.08899531 -0.07307743 -0.022517191
-0.008474581 -0.022589743 -0.089855626 0.0979608 0.039294705 0.035296015 -0.037950676 -0.121460035
-0.017910996 0.10506567 0.052428808 0.08757471 -0.049768526 -0.0039803535 -0.07801391 -0.004501586
0.052135207 -0.08283905 -0.13900805 0.13698262 -0.055752542 -0.08157264 0.13996229 0.050747365
0.08684925 0.10797717 0.1308758 -0.04369317 0.05112649 -0.062233023 0.11223299 -0.086135276
-0.09981474 -0.03809452 -0.08559039 0.08700881 -0.029332286 -0.069958106 0.054682475 0.015157821
0.117295854 0.13366072 0.08274925 -0.08577233 -0.04584964 0.058347423 -0.03253769 -0.10078642
-0.1099642 -0.03651855 -0.03746843 -0.07349511 0.010086968 0.119555555 0.01701717 0.0151010575

rnn.bias_ih_l1 f4 [256]
00000000: a2ec 603d 43c5 c93c e798 e83d 52ae 87bd
00000010: 6788 f23c 37fe 4a3c f244 f7bd 309f 7dbd
00000020: fa49 cf3d 1045 ca3d 9589 093b 4814 983b
00000030: 4f83 d43b 9476 5fbd d180 403c 3187 94bd
00000040: b690 00bc 52b3 553e c6ad f2bd 720c e1bd
00000050: da44 cdbd bdc7 9b3d 40ad d7bd 7f69 f9bd
00000060: 93a0 c83d eea2 e63d ee51 f83d d9db 7f3d
00000070: 37bd f43d 0f48 1abd efb0 e63d f99e 403d
00000080: 72e8 9b3c e720 de3d 1155 143d 200e cb3d
00000090: bdf4 8cbd a5d5 1fbd 15ef bb3c b723 2a3d
000000a0: 3fd3 61bd 5896 863c ed72 ccbd d99e e0bd
000000b0: 9f78 da3d ed45 a13d ea60 663c aaba 0fbc
000000c0: 825d c03c 8f45 953c cbf9 f0bd 85cc 383d
000000d0: 0211 ae3d aa9e 99bd f9cd b83d 8b9f af3c
000000e0: 09fd d5bc 9d6b 60bc b4ad c6bd cc94 9abd
000000f0: a5ad d83d 7a86 ae3d 83ae 0abe eefb 993c
00000100: 554f 9d3d a4a7 e53c f646 cf3c 71c2 b93c
00000110: cc07 cd3c 7a49 823d c935 e43d df87 88bd
00000120: e44c b7bd 0e11 86bd 63fa 54bc 80f7 3c3d
00000130: 2ff9 cf3c 3789 643d 78a6 44bd d8fc 273a
00000140: 2f8c c4bd 4d6c 6b3c cdd1 19be 9cc2 b9bd
00000150: 1630 68bd e487 91bd 867b 50bd b18b a03d
00000160: 00c1 3ebd c402 953c 2c27 22bd ba5c b03d
00000170: 0472 4dbc 8fb1 923d 9cd1 bf3d 4e6f c3bd
00000180: 7189 85bd 537e 823d a4f7 6abd 1bb7 e4bb
00000190: e26e 39bd 8fd0 ef3c f973 4b3d 6362 dfbd
000001a0: 5b6e fabd be03 9bbd ff99 1cbd 993f babd
000001b0: a4b6 873a 335c 00be c67f 24bd c8d8 aa3c
000001c0: 7475 ac3d 9b39 d23c 86fd 653d 2f77 6f3d
000001d0: f9b2 0dbd c5b4 9c3d 4cb3 02be d5bf 8c3d
000001e0: e6b3 debc d160 453c 421d 2bbd dc4e 92bd
000001f0: b841 7cbd ecd7 d63d 58b5 f7bd e639 8dbd
00000200: 3af9 b43d 6374 18bd cd5f e83d 64dd e9bd
00000210: d9ba f1bd 631f 92bd 05e7 e2bd cfc8 f33c
00000220: 2e0d 8c3d bd26 d53b 48d5 513d 5496 b4bd
00000230: 52d9 c93d f253 ca3d 394f 69bd 3056 b03d
00000240: cbd3 bb3d 4c1c e8bd 1d02 b4bd 0325 edbd
00000250: 76db 9dbd dd0f 303d 6969 f4bb 0037 b83c
00000260: 8c57 293d 4961 a03d cef1 cfbd 3e23 89bd
00000270: 053b 50bb b2c7 a33c fedd 8ebd ee19 8abd
00000280: fadc 9cbd 5b0e 253d 21cc 19bd c506 37bd
00000290: 1a22 c23d 63f6 cfbc 04eb c13c 3601 b0bd
000002a0: 0b3c 77bd 2cc9 123d bbb5 803d 29c0 d2bd
000002b0: 5ea0 a43d 40cd 603d 9088 c53d 515f 5fbd
000002c0: cda8 d4bc ec35 dabb 7b91 8dbd ae88 05bd
000002d0: 087a 99bd 89c2 a9bd 6b8b 503d fa8c dbbd
000002e0: 9bb5 0d3d 5199 98bd f665 4dbd eebd dc3d
000002f0: 054b a63d 419b 763d 4a4d c73d e3e0 d9bd
00000300: 7de7 8bbd 8354 c73d 2ede 253d f6c0 69bd
00000310: 7b65 553d cf42 debd 4669 fcbd ca6c 833d
00000320: a132 2ebd af5d 863e e06e 6e3c 7fad 193d
00000330: cb35 9fbd 969b ea3d 68af 353e cf19 4dbd
00000340: 7b0e 303d 6fda 823d be8b a3bd efa9 013c
00000350: deaf b03d d26f 81bd 1605 c93c 69cd cd3d
00000360: 67d1 43bc 0ecd c9bc b6ba 573d de5b 073d
00000370: 8c28 8e3d 8274 9fbd dc39 e33d af58 0f3e
00000380: 917f 433c 5a1f bdbb 293a 433e d5b9 99bd
00000390: ed7c a7bd 7541 943d 5368 fb3b 13a5 1dbd
000003a0: 5518 afbc 6f59 eb3d 497a 043d 5655 01be
000003b0: 0e36 bfbd e355 b13c 82ab 2f3d f130 933d
000003c0: bd0a 07be 89e5 6cbd 08d0 8aba fb19 52bd
000003d0: cd17 aebd 73c0 c8bd 117f 13bd e9a1 b2bc
000003e0: 913f 77bd bcfe abbd a3fb 8f3b 5052 fe3d
000003f0: 011d e5bd 513b b63b 12c8 c4bd 8023 3e3e
0.05491317 0.024630195 0.11357289 -0.06625046 0.029606057 0.012389711 -0.12073697 -0.06191939
0.10121532 0.09876454 0.0020986546 0.0046410896 0.0064853798 -0.054556444 0.011749462 -0.07252348
-0.007847002 0.20869187 -0.11849551 -0.10988702 -0.10022898 0.076064564 -0.10531092 -0.12178325
0.09796252 0.11261545 0.12125002 0.062465522 0.11950152 -0.037666377 0.11264216 0.04702661
0.019031737 0.108461194 0.03621394 0.099148035 -0.068826176 -0.039022107 0.022941152 0.041537967
-0.0551331 0.016429111 -0.09982858 -0.10967798 0.10667538 0.078746654 0.014061192 -0.0087725315
0.023482088 0.018221645 -0.11766394 0.04511692 0.08499338 -0.07500966 0.09023661 0.02143838
-0.026121633 -0.013697532 -0.097011 -0.07547912 0.10579995 0.08521743 -0.13543133 0.018796887
0.07681147 0.028034039 0.025302391 0.022675725 0.025028132 0.06361671 0.11143071 -0.0666654
-0.089502126 -0.06546222 -0.01299915 0.046134472 0.025387375 0.05579492 -0.04801032 0.0006408221
-0.095970504 0.014369083 -0.15021439 -0.09070322 -0.056686483 -0.07105997 -0.05089905 0.07839144
-0.046570778 0.018189795 -0.03958814 0.08611436 -0.0125393905 0.07162773 0.09366152 -0.09542714
-0.065203555 0.06371751 -0.057365075 -0.0069798357 -0.04527176 0.029274253 0.049671147 -0.10907438
-0.1222808 -0.07569073 -0.0382328 -0.090941615 0.0010354114 -0.12535171 -0.040160917 0.020855322
0.0842084 0.025662234 0.056149982 0.05846327 -0.03459451 0.076516666 -0.12763709 0.068725266
-0.027185392 0.012047009 -0.04177595 -0.071439475 -0.06158611 0.104904026 -0.120951355 -0.06895809
0.08836599 -0.03722037 0.113463975 -0.1141918 -0.118032165 -0.07134893 -0.1107922 0.029758839
0.06838451 0.006504862 0.05122879 -0.08817735 0.09855904 0.098792925 -0.05696032 0.08610189
0.09171256 -0.11333522 -0.087894656 -0.11579325 -0.077078745 0.04298388 -0.007458855 0.022487164
0.041343257 0.07831056 -0.101535425 -0.06696175 -0.003177346 0.019992683 -0.069759354 -0.06743227
-0.076593354 0.040296894 -0.037548188 -0.04468419 0.094791606 -0.025386041 0.023671634 -0.08593981
-0.060359996 0.035836384 0.06284662 -0.10290558 0.080384 0.05488324 0.09645188 -0.05453426
-0.025959397 -0.00665926 -0.06912514 -0.03260105 -0.07493979 -0.08289058 0.05091421 -0.107202485
0.03459702 -0.07451118 -0.050146066 0.10778414 0.081197776 0.060206655 0.097315386 -0.10638597
-0.06831262 0.09732916 0.04049509 -0.057068788 0.052098732 -0.108525865 -0.12324767 0.06417234
-0.042528752 0.2624335 0.014552802 0.037518974 -0.07773932 0.11455457 0.17742693 -0.05007344
0.04298256 0.06389319 -0.07985638 0.0079140505 0.08627294 -0.06320156 0.024538558 0.100489445
-0.011951781 -0.02463391 0.052668296 0.033046596 0.069413275 -0.07785894 0.1109502 0.13998674
0.01193227 -0.0057715597 0.19065155 -0.07506148 -0.081781246 0.072390474 0.0076723485 -0.038487505
-0.021373907 0.114916675 0.032343183 -0.1263021 -0.09336482 0.0216474 0.042888172 0.07187069
-0.1318769 -0.05783609 -0.0010590563 -0.05129431 -0.085006334 -0.09802332 -0.03600985 -0.02180572
-0.060363356 -0.08398196 0.004394011 0.124180436 -0.11187173 0.0055612703 -0.09608473 0.1856823
