data/results/lstm_baseline_ETH_r10d.pt (torch, 220661 bytes, 9 tensors)

rnn.weight_ih_l0 f4 [256, 15]
00000000: db79 43be 2949 273e 2db4 62be 944e 8f3d
00000010: de9e 33be f4c7 60be 25d8 88bd c20c 13be
00000020: 17d6 333e ab49 24bc 0358 f7bd d54c df3d
00000030: 7294 29be 7bbb 993e 8cd4 4c3d 3622 913d
00000040: 9d56 21bd bf09 fdbd 32eb 4dbe 2478 693e
00000050: a266 43be 76af 15be 027f 283d 4cfd 82bd
00000060: b5d8 b13d 43be d2bd ac63 81bd e59d 703d
00000070: 7b4e 38be 4ee7 ee3d 764e 86bd 4d30 443d
00000080: 38d7 9ebe a1d0 afbd 8c5b b93d 67c7 9cbd
00000090: d2f2 7f3c 1bb5 f5bd 015d 14be 8d45 c53e
000000a0: 1209 0e3d 18bf e53c 0f02 eb3d 4d2a 6dbe
000000b0: 0e7c bc3e 62a5 a3bd 7347 17bd 49f4 71be
000000c0: 04ae ad3e e5ac 13be 21a7 78be b627 8bbe
000000d0: 12ff c1bd 6886 a53e d4fc 513d 827e a8bd
000000e0: 56f5 263d a3aa 15be d763 de3e f0f5 fe38
000000f0: 2ace 2a3d f252 4abe 1870 77bd 9631 e83d
00000100: 8167 eebd 5814 193e 84a0 75bc aa5f 08bd
00000110: 7027 123d 9813 b6bd f9a4 173d ae52 e9bd
00000120: 4e24 c3bd 6104 293e 403f 29be e3ad 8fbd
00000130: 6ccb f0bd 1f41 2e3e 72b3 9d3e 7f4b 7b3d
00000140: bfb1 cebc 29ba 68be 6a5d 9dbc b3d7 833c
00000150: f3d0 c53c 9802 bbbd d391 32be 395e 4a3a
00000160: 29cb 193e 3222 37bd 4e12 bebe 8cda 9ebe
00000170: 1864 abbe e022 c1be 1220 fc3e a061 053e
00000180: 96b5 c4bc 8070 743e 9713 d7bd 7501 a23c
00000190: df74 f3bc 5578 4ebc b212 313e 7a6c 1bbe
000001a0: 82d4 263e e392 45bb 5057 8dbd 9d9a 39be
000001b0: 15e0 b9be 6da6 513e 0eb6 343d 98c7 8b3e
000001c0: aacb 3e3e e847 e8bd f490 9d3e 3a1b da3c
000001d0: f955 aa3d cdbf 6b3e d30e abbd 9b58 9a3d
000001e0: 7937 2bbe d764 0cbe 4b5b 1ebe 11ff c3be
000001f0: 0bc1 d43e 7ead d13d 975c fcbd dd1c 7b3e
00000200: 9c90 1ebd 237c 213e 0e39 28be ea77 083d
00000210: f0d9 853e c6c3 43bc 4c57 6b3e 01d0 503d
00000220: 3927 b6bd 256b 7c3d c922 63bd eaa3 643d
00000230: 9813 1f3e 7901 d3bc 8916 babd 6be4 bfba
00000240: 4dc1 923c 2bf6 abbd 5e9e 9bbd a9b2 86be
00000250: 6ee0 1bbc e15b a43e 4a15 7fbe 2522 32be
00000260: e28f febd f088 a5bd dd1e da3e 7a95 a7bd
00000270: 5d46 183d a6f3 9cbb 5e9c 923d 37a2 a13e
00000280: d4cf 02be 2132 2e3e a691 48bc 1e5c 1fbd
00000290: 3f25 873e bf14 6abd 9785 463e 1fca edbd
000002a0: e85f df3e 306e 06be e950 c53d b274 34bc
000002b0: b80d 2dbe 8b02 0a3e 4e62 e9bd 2ee1 2b3c
000002c0: 616d 3fbc 5d9a 19bd 861e 433e 22d0 5bbe
000002d0: 7a09 83bc a794 a4bd d2af 9dbe e176 dd3d
000002e0: ee2d 88bb f305 38bd 2a70 e4bd d7f7 1bbe
000002f0: b3c6 1a3e a6a6 46be 2c43 87bc 9d1d 043e
00000300: 7ebe 1dbc f756 903d 5371 2fbe 6f74 23bd
00000310: 9845 5a3e 658f a83c 0ab3 583b b0f8 ccbd
00000320: 69fd b63d 9fe9 793d 564d 643d bd36 7f3e
00000330: 5af7 b53c 81bf 97bd 0864 9cbc a434 d33c
00000340: 81fc ba3d e555 ad3d 9c57 33bd f306 1b3c
00000350: 8b56 2abd 7f36 1c3e 30f2 763d 83c0 053e
00000360: 40eb b5bb e969 e33d f61b 8a39 7680 d43c
00000370: d25a 2a3d cde9 f7bc 1a18 2d3d 21f3 143e
00000380: 3f2c 8cbd 94e9 023e 7dcc 583e 36b5 bebd
00000390: e08d 8fbe 073c 4c3d 6fd4 d9bd 919b b7bd
000003a0: f2ef a3bd cafb 89bd e8fa 4f3e 60ed e4bd
000003b0: bf88 bdbd 8474 0c3d fa3d 283d 7deb 943d
000003c0: 99d9 013e 974c 3bbe 4f61 13be d3cb a93e
000003d0: bca0 e53c 9d36 20bd 82f7 eabd d807 8b3c
000003e0: 8fc7 6b3d 55d5 683e 0279 4f3c 66c0 48bd
000003f0: 7b19 e13c 5903 113e 3a42 6c3d edb6 cb3d
-0.19089453 0.16336502 -0.22139044 0.069974095 -0.17541072 -0.21951276 -0.06681851 -0.14360335
0.17562138 -0.010027329 -0.12077334 0.109033264 -0.16560534 0.3002585 0.050007388 0.07086603
-0.03938924 -0.123553745 -0.20109251 0.22799736 -0.1908212 -0.14617714 0.04113675 -0.06395969
0.08683912 -0.10290196 -0.06317839 0.05874433 -0.17998688 0.116652116 -0.06557934 0.047897626
-0.31023574 -0.08584715 0.09050664 -0.076552205 0.015621858 -0.11997434 -0.14488603 0.38529626
0.03467662 0.028045222 0.11475002 -0.23160668 0.36813396 -0.07990529 -0.036933374 -0.23628344
0.33921826 -0.14421423 -0.24282505 -0.27178735 -0.09472479 0.32329106 0.051266506 -0.082272545
0.040761314 -0.14615874 0.43435547 0.00012157473 0.04170052 -0.19758204 -0.060409635 0.11337583
-0.116408356 0.14949167 -0.014991883 -0.033294357 0.03568214 -0.08890456 0.037022565 -0.11392723
-0.09528409 0.16505577 -0.16528034 -0.07015588 -0.1175755 0.17017029 0.30800968 0.061351296
-0.02523124 -0.22727264 -0.019209582 0.016094064 0.024147486 -0.09131354 -0.1743844 0.0007719729
0.15018906 -0.044710346 -0.3712334 -0.31026113 -0.33474803 -0.3772192 0.49243218 0.13025522
-0.024012368 0.2387104 -0.10501783 0.019776085 -0.029718814 -0.012601932 0.17292288 -0.151781
0.16292003 -0.0030147366 -0.06901419 -0.18125387 -0.36303774 0.20473643 0.044118933 0.27300715
0.18632379 -0.1134184 0.30774653 0.02662431 0.08317179 0.23022385 -0.08352437 0.075364314
-0.1672038 -0.13710342 -0.15464513 -0.38280538 0.4155353 0.10238169 -0.123223476 0.24522729
-0.03871213 0.1577001 -0.16428015 0.033317484 0.26142836 -0.0119485315 0.2298252 0.050979618
-0.088942 0.06162562 -0.055453096 0.055820383 0.15534818 -0.025757538 -0.090863295 -0.0014640217
0.017914439 -0.08396562 -0.075985655 -0.26308182 -0.009513957 0.32101348 -0.24910465 -0.17395838
-0.12429787 -0.080827594 0.42601672 -0.08182807 0.03717648 -0.0047897873 0.07158731 0.31569073
-0.12774593 0.1701131 -0.012241757 -0.03890621 0.26395604 -0.05714869 0.19386898 -0.11610817
0.43627858 -0.1312797 0.09634573 -0.01101415 -0.16899765 0.13477533 -0.11395703 0.010490699
-0.011683793 -0.037500728 0.19054613 -0.21466115 -0.01599573 -0.08036166 -0.30798203 0.1081369
-0.004155866 -0.04492755 -0.11154206 -0.15231262 0.1511486 -0.19399509 -0.016511522 0.12901922
-0.009627936 0.07047837 -0.17133074 -0.03990596 0.2131561 0.020576188 0.00330657 -0.10008371
0.08935053 0.061013814 0.055737816 0.24923225 0.022212673 -0.07409573 -0.019090667 0.025781937
0.091301925 0.08463649 -0.043784723 0.009462106 -0.04158644 0.15255164 0.06028956 0.13061719
-0.0055517256 0.11104185 0.00026342244 0.025940161 0.04159052 -0.030262852 0.042259313 0.14545871
-0.06844377 0.12784415 0.21171756 -0.09311907 -0.2803793 0.049861934 -0.106362216 -0.08965219
-0.0800475 -0.06737478 0.20310557 -0.11178088 -0.09254598 0.034290805 0.04107473 0.07271478
0.12680663 -0.18290935 -0.14392589 0.33163318 0.028030746 -0.039114583 -0.114729896 0.016971514
0.05756336 0.2273763 0.012663128 -0.04901161 0.02747797 0.14161433 0.057680346 0.09947

rnn.weight_hh_l0 f4 [256, 64]
00000000: daf2 16bd a826 e1bc 0e32 00bd 61e8 6d3d
00000010: 7df8 14bd 2a35 b2bb 8de4 343d f693 96bd
00000020: b5e9 633d 213c 053e 7379 8fbd 61c7 aa3d
00000030: 66e3 94bd 8df8 f83b e277 523d 93c5 b1bd
00000040: 2871 213d 41a7 1ebd f947 b63c 4692 303c
00000050: 57a9 7b3d 6356 483d 4dbb a93d 3700 293d
00000060: 289b 42bd 1a32 083b e426 35ba caea 223d
00000070: 3251 d0bd 6e53 a9bd d41a 14bd 1e50 943d
00000080: e9c9 b43d 9c29 73bd c773 d13d dc78 e23c
00000090: f5e7 043e 35cf a0bc e444 773c e58a 143e
000000a0: cb47 11be 4eb9 8a3d 88c3 3ebc f6d3 07bd
000000b0: d3ed 14be 8128 28bd 17a0 4c3e 2b44 f4bd
000000c0: 4295 5cbd d0e9 673d 4490 50bb 4258 12be
000000d0: 148c 163d 9937 fabd 0faf d8bd 4016 06bd
000000e0: 8af2 a6bc 3f81 37bd 0274 073d 7637 11be
000000f0: 68be 083d 6cf3 53bd dc98 bc3d b9d5 c2bd
00000100: 9c40 593c 1617 903a 7789 723d 1cb6 33be
00000110: 8314 d13d d6ef 21bd d641 4abd dc58 49be
00000120: 35d4 bdbd bf90 003d c8cd e9bd fa4f 143e
00000130: 185d 313b 47b4 9bbd 557f de3c 04d5 a03c
00000140: 84c7 dd3d 301d 163e 5ac8 0a3e 1d64 043d
00000150: 0afe 84be 918e 77bd df31 283e 5f58 863a
00000160: 229e 60be 4a3f 22bd 4071 36bd 2091 86bc
00000170: d56a febc eecb cdbd a51a 173d aaea d73b
00000180: 0df3 c0bc 8273 573e 878e 2e3e 9445 9e3d
00000190: 14da 003d 1dc6 7a3d 54c2 3ebc 84b7 b73d
000001a0: 8b31 a8bd 6c61 20bd a816 4b3d 5798 2f3e
000001b0: 032f 2d3e 82a9 92bd 4570 f53c 4c90 cf3d
000001c0: 641a 7bbd a65d 3e3d a687 fdbb 58ce af3c
000001d0: 6125 753c df20 133e 574e babd 978b 03be
000001e0: 6475 273d 9b16 c3bd 78de db3c 7e79 50bd
000001f0: 6123 4e3d a829 d93d 2715 80bd bcc7 27bd
00000200: 9136 233e 3456 a03e 09a2 1f3e 37ed d3bd
00000210: 38f9 313d de44 8bbe a518 90be 9f99 803d
00000220: da78 c7bb 16b5 29bd 2d3b 30ba a48d 07be
00000230: 8fff 2a3d ce93 c9bd ddd2 883e 9b10 a63d
00000240: e2b0 babd 5b27 be3e 2708 8c3d 50c2 833c
00000250: 2578 f9bd 3a29 e53d dd0f f73d cea6 34bd
00000260: eb3f 38be 09b8 a2bd d242 4a3e 8b75 4a3e
00000270: eb8f 3cbe c0ad 44bd 74fa 643c b4ba 2ebd
00000280: 5481 05be 5ad0 cf3d 25a7 3f3e b757 58bd
00000290: f9d9 d03d e70d c1bd 91c4 8bbc 3173 da3d
000002a0: 8cbb 0fbd 229d 43be 5648 0d3c 6839 cd3d
000002b0: 8409 173e 246b 54bd 7893 123e 435c 1f3d
000002c0: 1674 06bd f90b b63d 4f48 163e 76cb 5cbe
000002d0: c009 5f3e 324d 093e f6e8 8e3e a57a 403e
000002e0: bc7e 44bd 0a18 5ebd 1f03 843e d567 823d
000002f0: 19f8 4f3e 805f e03d 8b8b 303d 2a5e a03e
00000300: f315 013e db36 68bd 78a5 a53d f79a 0a3d
00000310: dfce 583c ba2e 08be 888e 853d b497 c1bd
00000320: 70f0 02be 89f4 1dbd 9900 b03d 2c7d 2e3b
00000330: e950 fbbc 5c1f 66bc ef93 ddbc 3b8e ce3d
00000340: db28 03be 0ebf acbb 7406 86ba 604c 863d
00000350: 565f 1a3e 4e77 ecbb f2da 9b3d 91ba a53d
00000360: 3f1a 46bd 473e 423e d87c 243e 72e3 9fbd
00000370: 6709 51bd ca22 f23d c95c 023e c1c7 1f3d
00000380: 1ac4 913d 5807 ec3d a330 083e 0941 52bc
00000390: 632c 663e e1c0 3b3e 4c7d 253e ffbb a43d
000003a0: 79e7 bebd fdc8 f8ba c2cc 993d c055 353d
000003b0: 4c66 bdbd f15f a6bd c127 c33d e6d4 8dbd
000003c0: 030c ccbd 9973 563d 46ac 4c3c 020e d8bd
000003d0: 20e8 8a3c 98de a93c 4fda a8bd 858b 05bc
000003e0: 6bab 0d3d 557f a93c d79c 87bc 802c e4bd
000003f0: 53f2 1ebe 7def 003e 396c f3bd 197c e1bd
-0.036852695 -0.027484253 -0.031297736 0.058082942 -0.03636979 -0.0054384666 0.044163276 -0.0735244
0.055642802 0.13011219 -0.070055865 0.0833881 -0.07269935 0.007597989 0.05138386 -0.086802624
0.039414555 -0.038733725 0.022251116 0.010777062 0.061440792 0.04891051 0.08287678 0.04125997
-0.04751125 0.0020781816 -0.0006910397 0.039774694 -0.10171737 -0.08267866 -0.036158398 0.07241844
0.08827574 -0.059365854 0.10227161 0.02764552 0.1297911 -0.019630054 0.015092108 0.14506109
-0.14187543 0.06773625 -0.011643298 -0.033161126 -0.14543848 -0.041054253 0.19982944 -0.119270645
-0.05385328 0.056619465 -0.003182427 -0.1429148 0.036754683 -0.12217636 -0.10580265 -0.032736063
-0.020379324 -0.044800993 0.033069618 -0.14181313 0.03338471 -0.051745817 0.09208843 -0.095134206
0.013260033 0.0010993208 0.059213128 -0.17549938 0.102089904 -0.039535366 -0.049379192 -0.19662803
-0.09268991 0.03138804 -0.11416203 0.14483634 0.0027063545 -0.076027445 0.027160326 0.019632824
0.1082907 0.14659572 0.1355299 0.032322038 -0.25975066 -0.060438696 0.16425274 0.0010249725
-0.21935323 -0.03961114 -0.044541597 -0.016426623 -0.0310568 -0.10048662 0.036890645 0.0065892534
-0.023553396 0.21040156 0.17046557 0.07728115 0.031457976 0.06122409 -0.011643011 0.0897055
-0.082125746 -0.03915541 0.049582154 0.17147957 0.16912465 -0.07161237 0.02996076 0.10134944
-0.061304465 0.04647603 -0.007737118 0.021460697 0.014962525 0.14368008 -0.090969734 -0.12846218
0.040883437 -0.09525796 0.02683948 -0.050897114 0.05032671 0.106036484 -0.062540345 -0.040961966
0.15938784 0.31315768 0.15589155 -0.103479795 0.043450564 -0.2720098 -0.28143802 0.06279301
-0.0060874047 -0.041432463 -0.0006722685 -0.13237625 0.041747626 -0.09842645 0.26723376 0.08108636
-0.09115769 0.371394 0.068374924 0.016083866 -0.12181119 0.11189504 0.120635726 -0.04410439
-0.17993133 -0.07945258 0.19752052 0.19771402 -0.18414275 -0.048017263 0.013975728 -0.042658523
-0.13037616 0.10147162 0.18716104 -0.052818026 0.10197825 -0.0942648 -0.017061504 0.10666502
-0.035090968 -0.1910291 0.008623203 0.10020715 0.14749724 -0.05185999 0.14314067 0.038906347
-0.032825552 0.08889002 0.14676021 -0.21561989 0.21781063 0.13408354 0.2791211 0.18796785
-0.047972426 -0.054222144 0.2578363 0.06367461 0.20309485 0.10955715 0.04310183 0.3132184
0.12606029 -0.05669294 0.08088201 0.033839192 0.013232916 -0.13299075 0.06521326 -0.09452763
-0.12787032 -0.038563285 0.08593864 0.0026624901 -0.03067823 -0.014045563 -0.02704808 0.10085722
-0.12808554 -0.005271799 -0.0010225312 0.06557536 0.1507543 -0.0072163707 0.0761012 0.08092225
-0.048364874 0.1896907 0.16063249 -0.078070536 -0.051034357 0.11823042 0.12730707 0.03900886
0.071174815 0.11524838 0.13299803 -0.012832888 0.2247787 0.18335296 0.16161078 0.0804367
-0.09321494 -0.0018980798 0.075097576 0.04427123 -0.09248027 -0.08123768 0.09529067 -0.06925373
-0.099632286 0.052356336 0.012492245 -0.10549547 0.016956389 0.020736024 -0.08244764 -0.00815094
0.034587305 0.0206906 -0.01655428 -0.111413 -0.15522127 0.12591358 -0.11885876 -0.11009998

rnn.bias_ih_l0 f4 [256]
00000000: 00f7 80bd 1d22 cc3d a9c5 8a3d dd4b 873d
00000010: 696a a1bd bd29 5dbd 9f33 993d e8b6 e53d
00000020: 9969 063e 8f66 423c 51d9 a5bc a2a4 3b3d
00000030: 756b 043e 88d8 96bb 2f77 b43c 03e4 f2bd
00000040: f920 1f3d a2b4 813e 3062 243e b8bd 6b3e
00000050: b0f9 823d 6a57 5cbd 7f6b 18bc f0fb ae3d
00000060: 1622 e23d 4b0b 7b3e 0067 033d c5d2 aabb
00000070: dc04 8fbc 0d82 5dbb 93e1 fa3d 6153 593d
00000080: c28b a93d 45e2 a23c 9bf2 ed3d bb71 bfbd
00000090: 338c 2a3d d8e9 44bd 8595 bf3d 9e73 82bd
000000a0: 4b12 73bd 8f48 173e b36f 92bd f9d2 a83d
000000b0: 6c78 5cbc 3e51 833e 9aff 0a3e 325c b63d
000000c0: 1136 e5bd a603 84bd 07e0 58bc bc9d f93d
000000d0: 0010 11be ac57 80bd 444d ac3c 50f3 ca3d
000000e0: 6b38 d53c 855c c4bd 71b5 d9bd 7163 d5bc
000000f0: b8b7 333d 9da9 d1bc dd28 063e 72fa d33d
00000100: 408f 993c d7e0 e7bd cbc2 26bd 2624 303c
00000110: 60f4 35bd d7b0 643d cccf 64bd 24f8 aabc
00000120: 88f5 00bd 0330 b03d 6ce5 a1bd 8aaa 81bd
00000130: 26a6 fa3c 607c f33d 3bf3 aabc 1713 bfbd
00000140: cb72 9dbd a108 7d3c 65f9 183c 1f05 9e3c
00000150: 87ee 17bc 306f 16bd f1a3 c83d d9cb f33d
00000160: 508a 993d 88a8 233c fef0 7b3d 77ce 843d
00000170: 354a 0e3d 6e37 e3bc 3ab0 a8bd 07bb 1bbc
00000180: c092 f8bb c9ee 93bd f721 f2bd 1441 823d
00000190: 7fb7 c33d 1478 b53d 5b55 863d 89b5 06bd
000001a0: 3ff8 9bbd fdc8 54bd fea7 a03d 4cca c63d
000001b0: ee04 64bd 60ac 2ebe ac24 383c a9a4 213d
000001c0: dce4 913d 9680 1a3d e2c3 2d3d 87c0 d73d
000001d0: 0db7 883d 4e71 a3bd 7cc4 b43b bfdb 213b
000001e0: f604 4d3c 065a 893c 3fb3 083d 6af9 723d
000001f0: 6534 2a3d 1588 2dbd dcc8 1bbd f8d1 98bd
00000200: 155c e13d a5b2 453d ebba 5fbd 3d3e 553c
00000210: e12d ea3c 5791 22bb c4fd c9bd d381 1d3d
00000220: a5b7 37bd df25 82bd 57c5 f3bd dc49 483d
00000230: 91fb 0fbc 0b07 c13d c6b5 cd3d 3948 e53d
00000240: 5ef8 573b 1f21 8cbc c324 553d 3929 cd3c
00000250: c3a7 bb3d 51aa 7c3d 441e d23d a2a0 8abd
00000260: 3099 f1bc 99b0 3abc 4f90 be3d 1b9b d03d
00000270: 93df b1bc b910 383d a241 513d 6456 9fbd
00000280: 87b4 bcbd 109f c6bc 923b bd3d 332f b3bd
00000290: 62b4 cfbc 199c ba3d b367 2a3b 653a e0bc
000002a0: c574 febd 6ce4 a3bd 229c 463d c2c9 8bbd
000002b0: 3e42 a1bd 4308 8bbd 3c67 c6bc 848e c33d
000002c0: 35e1 8cbd b6e0 a03d 5ac1 c53c 3b5a bcbd
000002d0: 8a17 ad3d 5168 373c e7b7 473d 6c80 aa3d
000002e0: 9b44 a3bb a5f4 a1bd 4f85 b23d 2183 bbbd
000002f0: 383d a83d f331 233d 4ed9 a13d 059f f7bc
00000300: 7b5e 23bc 072a d63d 5b1a 133e 90be c43d
00000310: 04d9 a53d a3b4 d1bd 04c8 ac3d fb1d 803c
00000320: cf0f 043d 4582 f4bc a7b6 793d 31b4 de3d
00000330: f759 623e d2e4 22bc 1f10 233d 5be9 6dbd
00000340: e749 99bd 5696 8a3e b90c ff3d b00a 9c3e
00000350: ae1d 373e e594 c6bd 7b5b 703d 378c 8f3d
00000360: b8d5 d23b fdad 353e 66ee 7e3d e3f3 e03d
00000370: d8a1 2f3c aff3 1d3d a34b 193e fb51 d23d
00000380: 8b3c d53d bf27 763b ba5f 003e 8b9d c8bc
00000390: 3f34 80bd 9cc6 0ebc 1c19 5c3d 56f1 9e3b
000003a0: 9a1c 523d abf8 843b 9a24 0abe 4212 6d3d
000003b0: 502d a1bc 0184 b53e 630b 763d d49e 3a3d
000003c0: acc3 bf3c efb6 8fbd 1010 363e cb16 f4bc
000003d0: 9d9b ec3c 6621 a03c a5c7 d13c 6088 af3d
000003e0: 8389 febc d35d 59bc c8bf 44bd 110e 8cbc
000003f0: 05ce 6b3d 0882 943d 15a2 df3d 631f 9cbd
-0.062971115 0.09967444 0.06775982 0.06606267 -0.07881624 -0.053994883 0.07480549 0.11216527
0.1312622 0.011865272 -0.020245226 0.045811303 0.12931617 -0.0046034493 0.022029487 -0.11859896
0.038849805 0.25333124 0.1605308 0.2302159 0.0639528 -0.053794302 -0.009302973 0.08544147
0.110416576 0.24516027 0.03208065 -0.005213114 -0.017458372 -0.003379944 0.12250056 0.053058032
0.0827861 0.019883284 0.11618539 -0.09347864 0.04163761 -0.048074573 0.093546905 -0.063697085
-0.059343617 0.14773773 -0.07150211 0.08243365 -0.013456445 0.2564792 0.13574067 0.089043036
-0.11191953 -0.064460084 -0.013237006 0.121882886 -0.1416626 -0.06266722 0.021032937 0.099096894
0.026027879 -0.09587959 -0.1063031 -0.026048394 0.04387638 -0.025593573 0.13101526 0.10350503
0.018745065 -0.11322182 -0.040713113 0.010750806 -0.044422507 0.05583271 -0.055862233 -0.020870276
-0.031484157 0.086029075 -0.07905087 -0.06331356 0.030596804 0.11888957 -0.020867934 -0.09329813
-0.07687911 0.015443952 0.009336804 0.019289551 -0.009273178 -0.03672713 0.09796894 0.11904115
0.07497084 0.009988911 0.061509125 0.064846925 0.034738738 -0.027736392 -0.082367375 -0.00950504
-0.0075858533 -0.07223279 -0.118228845 0.06360069 0.095564835 0.08860794 0.06559249 -0.03288797
-0.076157086 -0.05194949 0.07844542 0.09706554 -0.055668764 -0.17057943 0.011239212 0.039463673
0.071237296 0.037720285 0.042423137 0.105347686 0.06675539 -0.079805955 0.005516587 0.002469763
0.01251339 0.01676656 0.033374067 0.05931989 0.041553874 -0.042366106 -0.03803335 -0.07461923
0.110038914 0.04826607 -0.05462162 0.013015327 0.02858633 -0.0024805868 -0.09862855 0.03845389
-0.04485287 -0.063548796 -0.11902874 0.048898563 -0.008788005 0.094251715 0.10044436 0.11195416
0.0032954435 -0.017105637 0.05203701 0.02504407 0.091628574 0.061685864 0.10259679 -0.067689195
-0.02949199 -0.011394643 0.093048684 0.10185834 -0.021713054 0.044937823 0.051087983 -0.077801496
-0.0921412 -0.024245769 0.09239878 -0.08749237 -0.025354568 0.091118045 0.002600175 -0.027371595
-0.12424616 -0.080025524 0.048488744 -0.068255916 -0.07873963 -0.06788685 -0.024219148 0.09548667
-0.06878892 0.0785536 0.024140049 -0.091968976 0.08451755 0.011194305 0.048759367 0.08325276
-0.0049825436 -0.0790799 0.08716833 -0.0915587 0.082148015 0.039842557 0.07902776 -0.030227194
-0.009971256 0.10457235 0.14365523 0.096066594 0.08098033 -0.10239532 0.084365875 0.015639296
0.03224164 -0.029847274 0.060965206 0.108742125 0.22104631 -0.00994225 0.039810296 -0.058083873
-0.07484799 0.27067822 0.124535985 0.30476904 0.17882416 -0.09696368 0.058680993 0.07009166
0.0064341687 0.17742153 0.062239073 0.10984018 0.010719739 0.038562473 0.1497026 0.10269543
0.10411938 0.0037560312 0.12536517 -0.024489185 -0.06259965 -0.008714344 0.053734884 0.004850547
0.051296808 0.004057964 -0.13490525 0.05787874 -0.019674927 0.35452273 0.060069453 0.045561627
0.023408733 -0.07017314 0.17779565 -0.029796025 0.028882796 0.019547176 0.025607893 0.08570933
-0.03107143 -0.013266998 -0.04803446 -0.017096551 0.057569522 0.07251364 0.109195866 -0.07623174

rnn.bias_hh_l0 f4 [256]
00000000: 83bf 1d3e 89bb 5d3d 1985 7b3d 89c8 c23d
00000010: a386 ce3d 6417 bd3d 2892 a13e 4443 7e3e
00000020: 343a a83d a0ed d23d 72bc b4bd 1d20 b13b
00000030: 6f0c 823e 22f5 343d 6d82 ed3c 43fe c13d
00000040: 0d76 46bd 8198 263e 4056 d23d 5ec0 1b3e
00000050: 5140 a63d 29c3 9c3d 9293 b4bc b9a4 0a3c
00000060: 50b4 d53d 9143 973e 40f8 e73d e54b d4bb
00000070: b59f 653c f62d 223d f5e1 51bd d745 513d
00000080: 4f88 d43a 5278 133e 29f7 c73d e723 3dbd
00000090: a2f3 833d 7305 193e d212 4ebd dfd6 2dbd
000000a0: 0c87 c23c 3429 223c d15e e13c fb5e 14bd
000000b0: 7b1a b7bd b48e 6c3e 39e1 033e e9cd 373e
000000c0: 77d2 e13d 03eb 6fbd 6b28 453e 84c6 28bd
000000d0: 3581 03bd 062c 9a3c 1af4 80bc d2ad c13b
000000e0: 561f 09bc c10d c13d 1f4a be3d e885 01be
000000f0: 5eeb 123e a004 323e 0972 d53b 1d48 493b
00000100: 726b 8d3d ad8f b33d b4f2 59bc d4a4 a03d
00000110: a6b1 723d cd5b a23b 75b8 2ebe fd31 783c
00000120: 1d16 e9bd 090c de3d 3339 b6bc 92da 24bc
00000130: cc46 fc3d 146d c7bc 9dbd 9ebd 3c4f 783b
00000140: 1e0d 623d 7c66 863d eb5e abbd 8941 4cbc
00000150: 6673 b83c 5056 5d3b 4d5f 773d 54ed 7f3c
00000160: 31e4 bc3d b75e 123d b3b4 48bd 9d8f ffbd
00000170: 2867 3e3d d671 64bd 686b acbc dfb1 c33d
00000180: 2c26 2d3d b125 d43b 5313 293d 5cbd 783d
00000190: 51b1 04be d033 67bd 2fcc aabd 3c8b de3b
000001a0: b5e8 933d c075 6a3c a888 aa3d 39ce d33c
000001b0: e036 a1bd 6008 0abe 8a3b dabd 6937 283e
000001c0: 0cd3 cb3d 3ed1 913d 9d3a 97bd 3f8c a63c
000001d0: d480 33bd 9883 b53d 228e febd 8656 973d
000001e0: 9c1a dc3d 1668 a33d 241c b7bd 09fd 03be
000001f0: 90e0 013b 8f58 353c 645a a2bd 4583 cebb
00000200: 8f36 8dbd 4498 033d 2068 c33d 784f f4bc
00000210: 1f2e 3f3d 5dbc 42bd 0906 d93b 0bd6 853c
00000220: e879 c2bd 5704 a3bd 595d d83d 254b f73b
00000230: 3834 883d 38f4 3dbd 58af a7bb c95e 7ebd
00000240: f836 c1bd 9d5d 263d 1f2b 4abd 4a93 71bd
00000250: 9111 06bd d05e 803d 5b5e 37ba 542e 963d
00000260: 8c5c dbbc 6625 293d 34c2 223d 8e57 eebc
00000270: be20 66bd e94d a4bd d936 adbd ecde db3d
00000280: 1bb8 fcbc 52c7 e33c f0b2 af3d e176 183d
00000290: 0fb6 aa3d 082c 38bd bc64 03bd a5bd a63d
000002a0: 09cd ae3d 3ee9 81bd 0431 4e3c 5623 2d3d
000002b0: 3610 ba3d 7d46 c23d 19b0 853d da2c 60bc
000002c0: cd8f 19bd dc5f bf3d fdf6 913d ef0e 8cbd
000002d0: fece 8c3d 63cc b93d 5f17 c43d 83a0 1abd
000002e0: abfb b23d a192 bbbc b1a7 be3d c030 2a3d
000002f0: 5e31 60bd 0b1a 3c3d 3693 e6bd e4fa bc3d
00000300: bc06 37bb 9b43 a23d dff8 943d 05d3 123e
00000310: 128b 943d 075d 44bd cde8 d53d e5cc 533e
00000320: d46f 84bb c7ae 8dbb b2a6 36bd 4917 da3d
00000330: 2395 283e fd01 583d 27d5 a03d 0a0b a63d
00000340: f56b 103e a6d9 193e 2db0 31bc 7e2d 0d3e
00000350: 7201 5a3e d627 1b3e a0bf 013e a06c bbbb
00000360: 9bb3 913d abe6 5a3d 732e 48bd 1ec3 33bd
00000370: 67cb 94bd 6da5 c7bd ac4c c93d b67f 103e
00000380: 2762 0a3e 2529 4e3c 0da9 d1bd f101 89bd
00000390: 7dc5 863c 93c5 c3bd e440 643d 5c98 963d
000003a0: eafc b5bd 859e b43c 5880 f7bd d520 3e3e
000003b0: d635 eb3d d586 b13e 1937 733d 8232 243e
000003c0: 757b fa3c a1eb 16bd c2f7 0dbd 5a98 313d
000003d0: 367e a7ba b1fb 37bc d16c 273e bada b43d
000003e0: 626c 2f3d f2ad 003c c612 55bd 1845 a9bd
000003f0: 6512 3d3e e1c0 f23c 7b85 1b3e 1167 e4bd
0.15405087 0.054133926 0.06140623 0.09510905 0.10084274 0.09232977 0.3155682 0.24830347
0.08214226 0.102992296 -0.088250056 0.0054054395 0.2540011 0.04417909 0.028992856 0.09472325
-0.048452426 0.16269113 0.10270357 0.15210101 0.08117736 0.07654411 -0.022043023 0.0084621245
0.104347825 0.29543737 0.11326647 -0.006478774 0.014015128 0.039594613 -0.05124088 0.051091995
0.001621494 0.14401367 0.09763939 -0.046176817 0.06442954 0.14943485 -0.050310917 -0.042441245
0.023746036 0.009897519 0.027511032 -0.036223393 -0.089405976 0.23101312 0.12878884 0.17949642
0.11026471 -0.058573734 0.192537 -0.041204944 -0.032105643 0.01881982 -0.015741397 0.0059106136
-0.0083692875 0.094264515 0.09291481 -0.12648737 0.14347598 0.17384577 0.006513838 0.003071315
0.06905259 0.08767638 -0.013302494 0.078439385 0.05925145 0.004954791 -0.17062552 0.015148637
-0.11381171 0.10842139 -0.022244072 -0.010061877 0.12318191 -0.024344005 -0.077510096 0.0037889024
0.05518829 0.06562516 -0.083677135 -0.012466797 0.022515964 0.003377337 0.06039362 0.015620548
0.092232116 0.03573486 -0.049000453 -0.12478564 0.046485096 -0.055772625 -0.021047309 0.095554106
0.04227273 0.0064742197 0.041278195 0.060727462 -0.12958266 -0.056445897 -0.08339726 0.0067915004
0.0722212 0.0143103 0.08326846 0.02585517 -0.07871795 -0.13479757 -0.106558874 0.16427387
0.09952363 0.07119988 -0.073842265 0.020330546 -0.043824032 0.0886299 -0.124294534 0.0738955
0.10747263 0.07978837 -0.08940914 -0.12889494 0.0019817688 0.011068477 -0.07927397 -0.0063022696
-0.06895172 0.032127634 0.09541345 -0.02982305 0.046674844 -0.04754292 0.006623034 0.016337415
-0.09495908 -0.07959812 0.1056468 0.0075467997 0.06650585 -0.046375483 -0.005117338 -0.062102113
-0.094343126 0.04061662 -0.04935753 -0.058978356 -0.032731596 0.06268084 -0.0006994956 0.07333055
-0.026777528 0.04129543 0.039735988 -0.029094484 -0.05618357 -0.08022673 -0.08457727 0.10735878
-0.030849507 0.027805004 0.085790515 0.037222747 0.08335506 -0.044963866 -0.03207849 0.081416406
0.08535201 -0.063433155 0.012584928 0.042270027 0.09085123 0.09486101 0.065277286 -0.013682568
-0.037490655 0.093444556 0.071271874 -0.06838786 0.06875418 0.09072187 0.0957477 -0.037750732
0.08739408 -0.022897067 0.09309328 0.041550398 -0.05473458 0.045923274 -0.11258547 0.09227541
-0.0027927598 0.07923051 0.07274031 0.1433831 0.07253088 -0.04794028 0.10444794 0.2068363
-0.0040416513 -0.0043238136 -0.044592567 0.106489725 0.16463141 0.05273627 0.078531556 0.08107574
0.14103682 0.15024433 -0.010845226 0.13786885 0.21289614 0.15151915 0.12670755 -0.005719736
0.07114335 0.05344264 -0.048872422 -0.04388725 -0.072653584 -0.09748349 0.09829077 0.14111218
0.13514005 0.012583052 -0.10237322 -0.066898234 0.016451592 -0.09559169 0.055725947 0.07353279
-0.0888613 0.022048244 -0.120850265 0.18567212 0.11484878 0.3467318 0.059378717 0.16034892
0.030576447 -0.036845807 -0.03466011 0.043358184 -0.0012778703 -0.0112294415 0.16350104 0.08830781
0.04282797 0.007853972 -0.052019857 -0.08265132 0.18464048 0.029632987 0.15187638 -0.11152471

rnn.weight_ih_l1 f4 [256, 64]
00000000: 0e19 c03c a8c4 143d 58fa 6a3d 774d b83c
00000010: c6e4 f53d 0548 c33c b59e c6bd 68af c63d
00000020: a65d 76bd 7b36 31bd 8cb2 503e f0e0 ec3d
00000030: e051 a93d 925a 063d 214b cabd 882b 0bbc
00000040: 4412 4dbc 8c24 ce3c a628 9d3d f487 d2bc
00000050: 9ad9 bf3d 69e0 fd3d 761b 1d3e 26d6 36bc
00000060: 8fd5 6cbc 7161 6fbd f6d1 fcbc d7c2 80bc
00000070: feae d3bb ca6d 0bbe fa68 f8bd 4086 c1bb
00000080: f89c 903d 003a bc3d dcf7 52bd d2be 26be
00000090: c9bf eebd 07f5 333d 19b1 663d bc80 2bbd
000000a0: ed27 dc3d 2218 543d 98eb bd3d b02e 5039
000000b0: 1d71 37bd 7eb5 36bd db43 953d 805b 683d
000000c0: e0e0 7f3d 2313 693d 79c1 cc3d 3214 06bb
000000d0: c61a d6bd 40d8 da3d e4eb 41bd 04e5 1a3e
000000e0: bd2f 443d 04e3 36bc a24d 383d 2ba9 e2bd
000000f0: dff6 013e dd0a f93b 6441 09be 05fc ffbb
00000100: 7921 983d 2052 0c3f 8c2c 873e c332 483d
00000110: 522a 553e 5634 19be 6e82 96be 935b bcbe
00000120: fae2 58be 1f57 a7bd f3c7 18be 609c b03d
00000130: cf68 2dbd ee23 b33d 1277 253e f46a 463e
00000140: 7001 45be b84c 48bd 6dfe a4bd e206 633e
00000150: 06f8 81be ed02 9d3e f33f f63d 1de3 283c
00000160: 80ff 11bd 2356 50be 655d 9b3d 20b8 8c3e
00000170: cb1a 6fbe 1f8f 90be e3da 63bd 4edc a7bd
00000180: 727e 3bbe 686f c13e 04cc f53d 3205 873d
00000190: 51aa 6e3e 9855 b03e 7234 923b ec88 8a3d
000001a0: fae9 afbc f73f 56be b3e2 54bd 0a6a 7a3d
000001b0: e109 e5bd 4e32 25be 5d70 16bd 75ca b13c
000001c0: fbe5 99bd 899c 573e 6595 d4bd 1d70 31be
000001d0: 9df4 923d 1f16 2e3e c58d 6e3c fc55 2f3e
000001e0: c2de 1a3e 2df8 d5bb 93f1 a73d 6975 82be
000001f0: 4b7c b7bd 8853 1d3e bbd8 74bd 1a6d 3f3e
00000200: 414c 35bc 7f26 a43c f707 b93d e43e 403c
00000210: 2276 47bd d96e c33d 6c77 33bd 88f8 39be
00000220: 6e82 cd3d 5ac8 dbbb dcbb d23d 03ec a73d
00000230: 6d67 1f3d 19d5 16bc 2e5c 873d d4b4 afbb
00000240: 031c b3bd 7bd2 c6bd 96d5 99bd 0bf0 8c3c
00000250: c6e0 573d f5f4 5abd dd15 f03d 885c ad3d
00000260: bb79 5c3d 39f0 9a3d 47f4 cdbb e5eb 09bd
00000270: 5b14 3d3c 0876 a9bc e338 533d 25c5 c43b
00000280: 12d2 e63d f7b9 38bd 34fc 94bc 966e b73c
00000290: 6279 ae3d dda0 af3c 6553 c0bd 4c98 2fbd
000002a0: 6079 f83d 793d 1bbd 3afa be3d 2468 bf3d
000002b0: 931c 70bd 0eb1 11bd 8358 79bd e93c 5e3d
000002c0: 5ed8 ac3d b0d6 09bd 307e 89bc 87ea 85bd
000002d0: 025f edbc 0bdc 913c 3d88 d83a be19 86bc
000002e0: 0174 9cbd 607b e03d c5da cf3d e412 463d
000002f0: 38fb 183c a0e8 f23d 363d c53d 707a 22be
00000300: ec1b d1bd ad34 b0bd 6b39 97bd 88e5 05be
00000310: 3c1e ce3d 5035 9e3d eeca 3c3d f69f a33d
00000320: a6f6 6f3d 89be 333e 5203 bcbd 6548 c2bd
00000330: ee6f 0dbc ab2b 7abd 495f c9bd c189 9fbc
00000340: 3cb7 9a3d 7d27 9abd 2db8 933d c508 153e
00000350: 35be e2bd 5832 0abd 224a 9fbd ed3f 10be
00000360: f11d f0bb 49ef 923d ecb6 b3bd e91c fe3d
00000370: 2961 e53d 5804 c1bd 5b17 42bd fc98 d3bc
00000380: ade2 33bd 39e7 393c b7c7 26be a89e 0ebb
00000390: d70c 4b3c 51b1 0c3d f82c da3b 7abb f4bc
000003a0: ede9 cbbc 034a d6bd 7aec 14bd 264f 653d
000003b0: b4c0 b03d 1dae 0fbe 4fa8 1d3d 5964 06be
000003c0: 06c9 273a 09e6 933d da34 c9bd 3279 33bd
000003d0: c6c1 573d 1bf2 c1bd 4d82 893d b066 8d3c
000003e0: 92bb 35be 8569 6dbd 6f0a ae3d 49aa 0e3c
000003f0: 8295 a1bd a06e 253c c6a2 043e 9fdc dbbd
0.023449447 0.03632036 0.057367653 0.022497876 0.12006526 0.023838053 -0.0969824 0.09701425
-0.060147904 -0.043264847 0.2038061 0.11566341 0.082675695 0.03280122 -0.09877611 -0.008494265
-0.012516562 0.025163911 0.07673769 -0.025699593 0.09367676 0.123963185 0.15342507 -0.011159455
-0.014455213 -0.058442537 -0.030861836 -0.015717907 -0.0064600697 -0.136161 -0.12129398 -0.0059058964
0.070611894 0.0919075 -0.05150591 -0.1628373 -0.11657674 0.04393485 0.056321237 -0.041870818
0.10749803 0.051780827 0.092734516 0.00019853818 -0.044785608 -0.04460668 0.07288333 0.056727886
0.062470317 0.056903016 0.099978395 -0.0020458815 -0.104543254 0.10685778 -0.047344103 0.15126425
0.04789709 -0.011162523 0.04499591 -0.110674225 0.1269183 0.007600172 -0.13403851 -0.0078120255
0.074282594 0.5481281 0.26401174 0.048876535 0.20816925 -0.14961371 -0.29396385 -0.36788616
-0.21180335 -0.08170914 -0.14920025 0.08623576 -0.04233628 0.087470874 0.16158703 0.19376737
-0.1923883 -0.04890129 -0.0805634 0.22170594 -0.2538454 0.30666295 0.12023916 0.010308054
-0.035644054 -0.20345359 0.07586173 0.27484226 -0.23350064 -0.28234193 -0.05562867 -0.08196317
-0.18309954 0.3778031 0.120018035 0.06592788 0.23307158 0.34440303 0.0044618184 0.06764397
-0.021473873 -0.20922838 -0.05197401 0.061136283 -0.11183525 -0.16132471 -0.03672825 0.021702984
-0.075145684 0.21055807 -0.10380057 -0.17327924 0.071755625 0.17000626 0.014560168 0.17122644
0.15124038 -0.006529829 0.082003735 -0.25480202 -0.08959254 0.15363896 -0.059777003 0.18693963
-0.011065544 0.020037888 0.09034722 0.011733744 -0.048696645 0.09542627 -0.04381506 -0.18161213
0.10034643 -0.0067072334 0.102897376 0.081993125 0.038916994 -0.00920608 0.06609379 -0.0053621326
-0.08745577 -0.09708115 -0.075114414 0.017204305 0.052704595 -0.053456265 0.1172292 0.084649146
0.05382703 0.0756535 -0.0062852236 -0.033672232 0.011540498 -0.020686164 0.051567923 0.006004947
0.112705365 -0.045099225 -0.018186666 0.022391599 0.08519246 0.02143901 -0.09390906 -0.04286985
0.121325254 -0.03790042 0.09325071 0.09346035 -0.058621 -0.035569243 -0.060875427 0.054257307
0.08439706 -0.033652008 -0.016783804 -0.06538873 -0.028975967 0.01780512 0.0016520094 -0.016369697
-0.076393135 0.10961032 0.10149149 0.04835786 0.009337239 0.11860776 0.09630816 -0.15867019
-0.10210404 -0.08603797 -0.073839985 -0.1307584 0.100643605 0.07725012 0.046091966 0.079894945
0.05858483 0.17553152 -0.09180321 -0.094864644 -0.008632643 -0.0610768 -0.09832627 -0.019474866
0.075544804 -0.07527063 0.07212863 0.14554127 -0.11071435 -0.033739418 -0.077778116 -0.14086886
-0.007327788 0.07174546 -0.08775124 0.12407858 0.112001725 -0.09424657 -0.047385555 -0.025829785
-0.043917347 0.011346632 -0.16287123 -0.0021762047 0.012393198 0.03434879 0.0066581927 -0.029874552
-0.024891818 -0.10463335 -0.036358334 0.055983685 0.08630505 -0.14031263 0.03849059 -0.13124217
0.0006400499 0.0722161 -0.09824534 -0.043816753 0.05267503 -0.09470006 0.06714306 0.01726088
-0.17747334 -0.05796196 0.08498084 0.008707591 -0.078898445 0.010097176 0.12952718 -0.107354395

rnn.weight_hh_l1 f4 [256, 64]
00000000: 1d45 1d3e f2ab a5bd b24c aabc 1a81 8ebd
00000010: 4b9c 07bd d04f 60be 8cea 68bd ec89 953c
00000020: 1203 e03d 10ae eebc 56ba 403d 6b2a e7bd
00000030: e1ab 073e c6a7 a83d 0667 48bd 77e0 84bc
00000040: 11b7 f03d bfdb 743c 3882 9b3d 41b4 dc3d
00000050: e73c b4bd e124 3c3e ab78 d2bd 0b9d cbbc
00000060: 7bb2 223e d643 c53d e6a3 eb3d 8684 e0bd
00000070: 5d38 e2bd 4d15 8ebd 085f ed3c 221b 503d
00000080: 9a4f f5bc 7cfe 883c e644 a03c d620 293e
00000090: f413 fdbc 79eb cfbd 365c 1b3e cbd1 3e3d
000000a0: 3d44 59bd f53c 8dbd 99cb 31bd a518 b93c
000000b0: 8e97 433e edee 9a3d 442d 2dbe 588c fabd
000000c0: d507 023e 99de b93d 6e18 8d3d 780a beb9
000000d0: 434b b7bd a463 03bd 7938 fa3b eae4 0b3e
000000e0: 2999 743d db9c d7bc 38ab c5bd a1f0 c7bc
000000f0: e656 19bd b411 fa3d 1eb2 493d 6813 b4bd
00000100: cb3d 9bbe e099 45be 3605 973e 8162 aa3d
00000110: ca6e 4dbe 4e41 48be d8d1 f7bd 0053 9bbe
00000120: 6149 82bc 82e5 ea3d ffb4 b8be f0d6 bc3d
00000130: b722 463e 711c 293e 9f64 d23d 9e8f 403e
00000140: 9654 b43d efb5 4b3e 861d f23d 2b8e 07be
00000150: 8029 60bc cd49 6f3e 93a6 a9be 4e31 4a3e
00000160: 9f99 083e 5e59 c43c a6b2 ebbb 2ce5 90bd
00000170: 2ca8 1e3c 1cbc 16be 518e e23c f832 8e3e
00000180: 0751 c33c 23a2 043e e5c8 703d f96e 073e
00000190: 24d4 0abe 114e 08be da5e aa3d ff2b 2cbe
000001a0: 2ee5 5fbe 835a 4e3e 0784 753e b63a 673e
000001b0: 4e13 c13c 1ba3 97be 9f56 5bbe 5573 003e
000001c0: a0ff f0bd 5908 df3c ef15 6b3e 4d86 fe3d
000001d0: df29 b4be fb67 8c3e a996 57be 3f85 e63d
000001e0: 9e60 873e efad 363e 5e99 0c3b 2823 943e
000001f0: 52ef bdbc 9235 c83d 2da3 a93c 9138 90bc
00000200: b3b9 85bd 46a8 a3bd d91a 503b 267d 10bd
00000210: da1b f33d 9f24 e1bd 3024 aebd 52fd dcbd
00000220: 9382 9c3d fd8c 373c 056a d7bd f27b 8fbd
00000230: d857 553d 1259 b2bd 5c64 203d c115 03bd
00000240: 5d71 74bd f332 d03d ffed b73d 5378 a9bd
00000250: 307d 033e 0491 cbbd fe29 83bd e15a f8bd
00000260: 2b09 6fbd 9287 bf3d 4bf9 97bd 85a0 023d
00000270: c4fd e73c 3ae9 cbbd d95c d83c 08f4 e13c
00000280: a97d 83bd 35fa cf3c 52fe 303d 0d91 ca3c
00000290: bfcd a2bd 3c61 bdbd b491 83bd 4733 d83c
000002a0: 63cd f13c 7dfd 6bbd 4d1a 713d d356 c53d
000002b0: 1ffc dfbb cd0a 023e efb3 48bd eb54 7f3c
000002c0: b302 2fbc 6134 8d3d e8b1 10be e2bf 053e
000002d0: 1595 5c3d bc4d ae3d 9846 37bd ce60 953c
000002e0: 135b d2bd fd09 96bc e775 f73d 8bad 77bc
000002f0: da37 73bd ab08 023c cc89 813d 5dce 44bb
00000300: 3e41 c13d efec 50be 049c 5cb9 97d6 0f3d
00000310: 6ebb f8bc f052 8cbc c1b7 e6bc 51e1 2c3d
00000320: 9427 a9bd 0568 c33d 474d 3ebd 6958 09be
00000330: 80af a33d 180c 57bc c557 5e3b 80f6 6ebd
00000340: 4a71 f1bc bd23 b2ba 09a0 12b9 7a5a 093c
00000350: ef06 ca3d 3aad cdbc 5a38 a03d 057a d63c
00000360: 7a2e a93c cebe d83d 3b7e c0bc f005 8bbd
00000370: 129b ebbd 830d 713d e8ad 093c 58cf 863d
00000380: eb79 2f3d a5a5 97bd 8010 dd3c 28fe 97bc
00000390: c305 05be 85f3 c2bd bd5f 4b3d c61d 55be
000003a0: d920 113d 2abc 13bd 1f9f 733d 4d35 c23c
000003b0: de8d 403d 700a b6bc b678 0d3e 6841 8fbc
000003c0: efb8 aa3d f521 27bd a310 18bd 6ece 02bd
000003d0: 2d65 023c 3618 ba3d 2458 353d ae42 8e3d
000003e0: 1368 0e3d ea3a 01be 4a2a 87bd 9ece 0cbe
000003f0: 10d8 933d 3796 a53c 9eb7 62bc d0ce af3c
0.15358396 -0.080894366 -0.020788524 -0.06958218 -0.033108037 -0.21905446 -0.056864306 0.018254243
0.109380856 -0.029135734 0.047052704 -0.112873875 0.1324916 0.08235125 -0.048926376 -0.016220314
0.11753667 0.01494497 0.07593197 0.10776568 -0.08800679 0.18373443 -0.10276922 -0.024855157
0.15888397 0.09632079 0.115058705 -0.10962777 -0.11045907 -0.069376566 0.028975978 0.050807126
-0.029945184 0.01672291 0.019564103 0.16516432 -0.030893303 -0.10152335 0.15171894 0.046586793
-0.053043593 -0.06896392 -0.043407056 0.02259476 0.19100782 0.07565103 -0.16911799 -0.122338
0.126983 0.0907566 0.06889425 -0.00036247424 -0.08949902 -0.032077447 0.0076361266 0.13661543
0.059716377 -0.026319912 -0.09651798 -0.024406733 -0.03743639 0.12210408 0.04924213 -0.08792764
-0.30320582 -0.1929698 0.29496163 0.083195694 -0.20061794 -0.19556162 -0.121005714 -0.3033676
-0.01590413 0.114695564 -0.3607559 0.092206836 0.1934918 0.16514756 0.10273098 0.18804786
0.08805196 0.19893621 0.118220374 -0.13237827 -0.013681769 0.23367997 -0.331349 0.19745371
0.13339852 0.023968395 -0.0071929274 -0.07074961 0.00968365 -0.14720196 0.027655752 0.2777326
0.023842348 0.12952475 0.058785338 0.13225926 -0.13557488 -0.1331103 0.08318873 -0.16813658
-0.21864769 0.20151715 0.23976146 0.2258099 0.023568776 -0.29616627 -0.21419762 0.12543996
-0.117675066 0.02722566 0.22957586 0.124279596 -0.35188195 0.2742308 -0.21053566 0.112558834
0.264409 0.17839788 0.0021453719 0.28933072 -0.023185406 0.09775843 0.020707691 -0.017605098
-0.0652956 -0.0799108 0.0031754284 -0.0352756 0.11870547 -0.10993313 -0.08502996 -0.107905045
0.076420926 0.011203048 -0.105182685 -0.070060626 0.052085727 -0.08708395 0.03915821 -0.032003168
-0.059678424 0.10165968 0.08980941 -0.08274903 0.12840724 -0.09939769 -0.06404494 -0.12126709
-0.058358353 0.0935203 -0.07420596 0.031891365 0.028319247 -0.09956594 0.02641146 0.027582183
-0.06420452 0.025387863 0.04321129 0.024727369 -0.07949399 -0.092470616 -0.06424275 0.026391638
0.029516881 -0.057614792 0.058862973 0.09635701 -0.006835475 0.12699433 -0.048999723 0.015584211
-0.010681796 0.06894756 -0.14130366 0.13061479 0.053853113 0.085109204 -0.044745058 0.018234637
-0.10271277 -0.01831531 0.12083035 -0.015117059 -0.059379436 0.007936637 0.06325111 -0.0030030229
0.09436272 -0.20402883 -0.00021038955 0.03511676 -0.030362811 -0.017129391 -0.028163793 0.042207066
-0.08259502 0.095413245 -0.046460416 -0.13412632 0.07992458 -0.013125442 0.0033926826 -0.05834055
-0.029472966 -0.0013590973 -0.00013983263 0.008383388 0.09864604 -0.025107015 0.07823248 0.02618123
0.020652045 0.10583268 -0.023497691 -0.06788242 -0.11504187 0.058850776 0.008403279 0.065825164
0.04284088 -0.07404641 0.026985407 -0.018553808 -0.12990479 -0.09519104 0.04965185 -0.20812139
0.035431717 -0.03606812 0.05947792 0.023707056 0.047010295 -0.022221774 0.13815579 -0.017487243
0.083360545 -0.04080387 -0.03712524 -0.031935148 0.0079586925 0.09086649 0.04427351 0.06946312
0.03476722 -0.1262013 -0.06599863 -0.13750693 0.07218945 0.02021323 -0.013837723 0.02146092

rnn.bias_ih_l1 f4 [256]
00000000: 0bbd 223e 5491 623e cee6 3cbd b48c d13d
00000010: 1af4 52bd 79ef ee3d 53bf a6bd aae0 debd
00000020: 8605 5e3d f28f ee3c c84e ef3d 6d38 04bb
00000030: e82d 64bd 0d1e c2bd 8e84 e9bd a965 7bbc
00000040: bb90 8fbd 8131 67bd 2b4a 903d 55fb bfbd
00000050: 3dc9 ae3c 8e0f 153e 4809 233e 4f36 873d
00000060: 0b28 0a3e 436b e83d 2c1c 253e 9f54 243c
00000070: 11f6 c73d 58e3 733d 6ece aabc d315 8ebc
00000080: 7aef d4bc a7dd 1bbd 4396 1bbd b3c7 87bc
00000090: 10a6 843d dd10 c33d c733 023e bfb8 223e
000000a0: 413f ae3d d288 5dbd 671b b6bd 1477 83bc
000000b0: ac54 cdbd c387 293d c686 123a 7de8 063c
000000c0: 0108 05bc ce44 b13d 862e 913d 76ef 393e
000000d0: 3656 a33d e844 f03c 4feb 87bd 1fc8 a03d
000000e0: e21f f23d adba 913d d2f7 06be 93d0 893d
000000f0: bff9 8e3d 297e 19bd 9e9f 8c3d 9aca 463d
00000100: ac78 1cbd 6d35 99bd c187 16be 7b60 b3bd
00000110: b492 e4bd 6cee 90bd 3c0c 05be acbb 8bbd
00000120: 261a 52bc 5c20 09bd b367 973b 1158 12be
00000130: d9bc 823d cc21 ae3d 3135 c63d 9b9b f5bd
00000140: 11ed 883d 2c0d bc3c f64e 14be be87 883d
00000150: 10c4 953d 1654 bf3c f8df 5f3d b117 463d
00000160: 0e18 d43d 14dd 403d 9ba7 b8bb f848 a2bd
00000170: f1d4 09be 9648 89bc 56d5 633c ea32 98bd
00000180: 1f43 34bd 1634 a2bc afac 87bb d51f e6bd
00000190: cc2d c43d e00d 143d 1ff6 bcbd bcc2 423c
000001a0: 07d2 85bc 9d4d ebbc 5a33 953d ee0d efbd
000001b0: a4bd 5ebc 5aeb 0cbe fc04 183d 27fe 62bd
000001c0: 5702 2fbc 0741 08be cb09 473c cb49 09bd
000001d0: fdbb 953d 79c7 bb3d 4b11 e53d 26b9 bcbd
000001e0: 8a8b 033d 4619 93bd 6fe2 18be 179d 2dbc
000001f0: 6b51 ca3d aded a0bd 95e0 ecbd 917e 1c3e
00000200: 80f0 60bd 21a7 0bbc 949f 2a3d 9bd6 813d
00000210: dbe6 aa3c 5f8f cdbd 22cf f4bd e393 8abd
00000220: fd88 ea3d 46c9 253d 6fa2 513d 10ec c43b
00000230: 3059 c33d 544a c93d ba90 fa3c 8ca9 3a3d
00000240: c24a ffbc 20cf ac3d cbea 5b3d 6f1a 0ebd
00000250: e7ee cfbd 7bf3 403d f443 2dbd 4ed8 9a3d
00000260: 7393 b23c 9374 92bd fe28 a3bc 5968 a7bd
00000270: 5cda 2fbc 24b5 8ebd 733a f1bd 2efd c63d
00000280: 0d36 89bd 13c0 7a3d d6be f43c f267 a73d
00000290: 8a27 ecbc 18c1 e1bd cc67 bcba dffb a0bd
000002a0: 8300 9e3c 8d5c 963c 0a68 523d 296d e13c
000002b0: 5124 653d f922 6abd 41b7 debb 9150 4b3c
000002c0: ac85 4dba b2ce 3ebd 66c4 e13d 0048 9b3d
000002d0: c11a 8fbc 9826 093d 9a40 7ebd 278f 2fbd
000002e0: 0f69 953d 025c 473d c4d5 56bd 0a8a b03c
000002f0: aab8 cfbc c824 8c3c 8430 053d 0c85 083d
00000300: 9305 103d 1f59 483e 7a96 41bd 0262 923c
00000310: 0b1c ea3d 6ea0 b63d 0c1d 563d 7885 1cbd
00000320: 37ea a83d 3cc3 42bd 5050 263d 2b56 43bd
00000330: 8dda 53bd a0cf 143d bb98 bbbd 2911 153d
00000340: 1127 02bc f445 ab3d b51d 19bc 4088 bebc
00000350: 682a 2c3d 176e 803d 78e2 123e 90cb 903d
00000360: 5601 20bc 4e19 1fbd 776f c43d cf5a 70bd
00000370: 6f7f 24bb 0c41 903d ed21 873c 9e0e 48bc
00000380: bc53 8a3d 7add 36ba 6297 c43c c54e 56bd
00000390: e7dc b8bc 7fee e23d 04e7 3a3e ecac c73d
000003a0: a82e 02bd 6502 1d3c 2a29 cb3d 3a5d 733d
000003b0: 4328 c3bd 5ee6 dcbc a2cf ea3d 7154 b2bd
000003c0: d4e0 6ebd 1406 3e3e b269 febd 40b4 093e
000003d0: e211 efbb f380 d13c e74c 7e3c 1d4e 133d
000003e0: bc6f f33d 09d2 50bd 0b2d 0d3d 45b0 913d
000003f0: 34d1 a23d 240f 913b d6c8 84bd 7048 a83d
0.15892427 0.22125751 -0.04611855 0.10231915 -0.051502325 0.116667695 -0.08141961 -0.10882695
0.054204486 0.029121373 0.11684948 -0.0020175234 -0.055707842 -0.09478388 -0.11402236 -0.015344062
-0.07010027 -0.056443695 0.070453964 -0.0937411 0.021336192 0.14556715 0.1592151 0.066021554
0.13491838 0.113485835 0.16124028 0.010029941 0.0976373 0.059542984 -0.020850386 -0.017344391
-0.025993098 -0.03805318 -0.037985098 -0.016574716 0.064769864 0.09524701 0.12715064 0.15890788
0.085081585 -0.05408556 -0.08891945 -0.016047992 -0.100259155 0.041389238 0.0005589541 0.00823414
-0.008119584 0.086557016 0.07088952 0.18157753 0.07975428 0.029329732 -0.066366784 0.0785067
0.118224874 0.07115684 -0.13180473 0.067292355 0.06981229 -0.03747383 0.06866382 0.04853306
-0.03820102 -0.07480893 -0.14700224 -0.087586366 -0.11160794 -0.07076725 -0.12992948 -0.06822905
-0.012823617 -0.033478126 0.004620516 -0.14291407 0.06383676 0.0850254 0.09678114 -0.1199257
0.06685842 0.0229555 -0.14483246 0.06666516 0.073127866 0.023355525 0.054656953 0.048362438
0.103561506 0.047085837 -0.0056352145 -0.07924074 -0.13460137 -0.016758244 0.013905844 -0.07431586
-0.044009324 -0.019800227 -0.0041404585 -0.1123654 0.095790476 0.036146045 -0.092266314 0.011887249
-0.0163355 -0.028723532 0.07285185 -0.11672579 -0.013595019 -0.13761654 0.03711413 -0.05541816
-0.01068171 -0.13306056 0.012148331 -0.03351764 0.073112465 0.09168906 0.11184939 -0.09215002
0.032115497 -0.07182555 -0.14930128 -0.010596535 0.098788105 -0.07857833 -0.11566273 0.15282656
-0.05491686 -0.008523733 0.04165609 0.06339761 0.020862034 -0.100371115 -0.1195357 -0.067664884
0.1145191 0.040475152 0.0511803 0.006009586 0.095384955 0.0982863 0.03058659 0.04557185
-0.031163577 0.084379435 0.053690713 -0.034693178 -0.10152989 0.0471072 -0.042301133 0.07560788
0.021798825 -0.07151141 -0.019917008 -0.081741996 -0.010733213 -0.069681436 -0.117787264 0.09716259
-0.066997625 0.061218332 0.029876154 0.08174123 -0.028827447 -0.11023158 -0.0014374196 -0.078605406
0.019287353 0.018354679 0.05136875 0.027517872 0.055942837 -0.05716226 -0.006796748 0.012409345
-0.0007840048 -0.04658384 0.11023788 0.07582092 -0.017468812 0.03348407 -0.062073328 -0.04286113
0.07295429 0.04867173 -0.052449957 0.021550197 -0.02535661 0.017107382 0.03251697 0.03333001
0.035161566 0.19565247 -0.047262646 0.017869 0.1143113 0.08917318 0.052273795 -0.038213223
0.08247798 -0.04754947 0.040603936 -0.047689598 -0.0517221 0.03633082 -0.091599904 0.03639332
-0.0079438845 0.08362952 -0.009345462 -0.023258328 0.04203263 0.06270998 0.14344203 0.070700765
-0.0097659435 -0.03884249 0.09591573 -0.05868035 -0.002510037 0.07043657 0.01649567 -0.012210516
0.06754252 -0.00069757516 0.023997966 -0.052321214 -0.022566272 0.11080646 0.18252188 0.09749779
-0.031782776 0.00958309 0.09919961 0.05941508 -0.09529164 -0.026965316 0.11465384 -0.08707512
-0.05831988 0.18557006 -0.124225035 0.13447666 -0.007295833 0.025574183 0.015521265 0.035963167
0.11886546 -0.050981555 0.034466784 0.07113699 0.079500586 0.0044268537 -0.06483619 0.08216941

rnn.bias_hh_l1 f4 [256]
00000000: d467 99bd 3641 833d 0298 b63c 25ca d23c
00000010: 6809 4b3d 3d35 a63d acb2 b9bc ba43 9c3d
00000020: 1365 81bc ff4f f9bd 58f4 ba3d d242 303e
00000030: 58c2 cabd d5bb b23d fb86 05be 34c5 d7bd
00000040: 9e5e a33d acc5 81bc 6734 a2bc c8ce 183d
00000050: 313f 8a3d 452d f3bc 6fe3 1f3d d2e7 153d
00000060: a5d1 dc3d 55df a03d 2827 093e 8833 043e
00000070: 7134 9b3d 4e18 b23d 0b94 04bd 4436 6d3d
00000080: 903d 28bd 31f9 00bc a88f 05be c79d da3d
00000090: 80fc e23d 7a14 643c cea2 d73d cf29 0d3d
000000a0: d55c 0c3e 0ff7 8abd fc9c ebbc 471b 32bd
000000b0: fc8a b93d b8ce b2bd cfd6 8ebd 7e67 82bd
000000c0: 6538 c1bd d466 ad3d 75a1 4abd 6cc4 df3d
000000d0: 8882 9b3c 6908 043e b54d 903d 15b3 6cbc
000000e0: e156 893c 0cde 74bc 717f d6bd 81df 9d3d
000000f0: 44c4 0dbd 2f10 5cbd 2771 04bd b2ea 113e
00000100: d256 e43d ac4a 433c 08c5 68bc b533 e1bd
00000110: 549e 96bd f620 333d 4c25 853d 4591 5a3d
00000120: 4d3a f8bc fcc9 91bb e596 ffbc 3209 7c3d
00000130: cf87 91bd 22e9 bf3d 87c4 023d 494d 933d
00000140: 2130 adbc 03a7 8ebd ee24 903d 4ccf d13d
00000150: 8b19 00bb 3344 b9bd 1f06 f0bd 749f ab3c
00000160: 32bc c2bd 031a 8e3d 3bdf a4bc 246d 0f3d
00000170: 33d0 e2bc 6a2c 1abe dee2 79bc 545d cabd
00000180: 68a9 cbbd 197d 9cbd afca 82bd b374 c4bd
00000190: 8e7a aebd 4e1a f6bd 9773 a93d 42c5 3abc
000001a0: fba5 f0bd 9cdf 483d 9f98 f2bc 34a9 863d
000001b0: bbb7 88bd 9cd3 67bc bd0e 02bb 2dba a73c
000001c0: e9c4 c13d dc65 4bbc c39f 543d caa5 67bd
000001d0: 854e 01be 0d35 dabd 1fd5 d8bd 0fa2 13be
000001e0: d3cc b0bd 14aa d4bd bf73 aa3d 09a8 6e3d
000001f0: e529 873d d044 45bd 5f11 89bd 4c8c 253e
00000200: 615c 953d a23e a93c 34ed f2bc b2b5 59bd
00000210: ce96 8cbd 99e2 8cbd f3ea 8a3c 0494 46bd
00000220: f24f 01bd d0d1 723d 01f8 d0bd 4f53 ab3d
00000230: 40eb 903d 168f ca3d 1c81 d53d 9039 543d
00000240: 02b3 bf3d 9a08 68bd eb37 103d c7a4 48bd
00000250: b375 3d3d 39ff 21bd 350d 5b3c f45f 803d
00000260: 3df6 ee3c a5b9 ca3d 7c7e 173d 53b4 8b3b
00000270: 03ea 863d b145 163d ec0d cf3c 8865 e93d
00000280: fff9 c33d 6119 d5bd 5519 c33d 0c88 d43d
00000290: d75b 8fbd f22c 76bc e605 923d b391 d53c
000002a0: e503 b6bc 32e0 ce3d aa11 093d ca16 8b3d
000002b0: b758 323d 9084 a03a 51f5 c1bd 2a6b 71bd
000002c0: 170c 7bbc 8ea3 273d 463e 41bd 5ab5 9fbd
000002d0: e08b a8bd ae99 ca3d 75f9 bebc 851c 783d
000002e0: e97e c83a cc04 c63d c094 72bc bac2 023e
000002f0: 91e0 783c 0c9d 7ebc 0a62 023e b4db 81bd
00000300: 5fee 593d 4d91 bd3d 5f07 9c3d 8b13 9d3d
00000310: 8b3f 09bd 5e76 88bd dc84 0fbd 3cea 8dbd
00000320: 2374 85bd bc56 59bd fc07 f53b c923 4dbd
00000330: 1889 a4bd 14cc 963d b3ed 8b3d 0b28 19bd
00000340: 6c05 c93d 641c 123d 9637 a8bd c1d5 da3d
00000350: 0ead 7a3d 0551 083e 9c7e be3d 94bd a1bc
00000360: 5425 8ebd e653 c2bd b3b5 ce3d 913c 39bd
00000370: ad5f debb f9ca b7bc d4b3 443e be39 63bd
00000380: 6bd3 19bd 53c6 e33d 70cc 413d f375 cd3d
00000390: d94a aabc 7a07 cf3c 7c1a 293e cb94 013e
000003a0: ac92 293e 2e18 b9bd 76fb 9cbd 4ea5 923c
000003b0: cf2e 94bd df8d e6bd b6df 513d d782 073d
000003c0: fb28 283c 3ad5 fc3d de41 533d c1d2 263d
000003d0: 4af1 f13d 7d47 e8bd 8b28 1dbc 814a 283d
000003e0: 722a d33d 5131 843d 9834 a5bc 57fb 073d
000003f0: 0f83 48bd 6992 c03a 0665 55bd 34e4 b53d
-0.07490507 0.064089224 0.02228928 0.025731156 0.049569517 0.08115623 -0.022668205 0.07630105
-0.015795266 -0.12173461 0.09128636 0.1721299 -0.099003494 0.08727232 -0.13039772 -0.105356604
0.07977031 -0.015841328 -0.019800378 0.037306577 0.06750334 -0.029684672 0.039035257 0.036598034
0.10782174 0.07855097 0.13393843 0.12910283 0.07578362 0.08696042 -0.032367747 0.05791308
-0.041074336 -0.007871912 -0.13043082 0.10674625 0.11083317 0.013920898 0.105290994 0.0344637
0.13707288 -0.06785404 -0.02876138 -0.043483045 0.09059712 -0.08730835 -0.06974565 -0.06367396
-0.094345845 0.084668785 -0.049470384 0.109261364 0.01898314 0.12893833 0.070460714 -0.014446993
0.01676506 -0.014945518 -0.10473526 0.077086456 -0.034611 -0.05372637 -0.032334473 0.14249685
0.11149372 0.011919659 -0.014207132 -0.109961905 -0.073544174 0.043732606 0.065012544 0.053361196
-0.030301237 -0.0044491272 -0.031199882 0.061532207 -0.071059816 0.093706384 0.031925704 0.07192475
-0.021141114 -0.06965449 0.07038294 0.10244617 -0.0019546475 -0.09046211 -0.117199175 0.020950057
-0.09508552 0.06938555 -0.020125976 0.035016194 -0.027687168 -0.15056005 -0.015251843 -0.09881082
-0.09944421 -0.07641048 -0.06386315 -0.09592571 -0.08519469 -0.12016736 0.08274 -0.011399569
-0.11750408 0.049041376 -0.029613791 0.06575242 -0.06675669 -0.014149573 -0.001984521 0.020474518
0.09461386 -0.012414422 0.051910173 -0.056554593 -0.12627609 -0.1065465 -0.105875246 -0.14417289
-0.08632817 -0.10384002 0.08322858 0.05826572 0.065997876 -0.048161328 -0.066927664 0.161668
0.072930105 0.020659748 -0.029654123 -0.053151794 -0.06864701 -0.068791576 0.016957736 -0.048481002
-0.031570382 0.059282124 -0.10203553 0.08365499 0.070761204 0.09890573 0.10425016 0.05181271
0.09360315 -0.056648828 0.035209578 -0.04898527 0.046254825 -0.03955004 0.013369848 0.062683016
0.02917015 0.0989869 0.03698586 0.0042634397 0.06587603 0.036687557 0.025275193 0.11396319
0.09569167 -0.10405231 0.09526316 0.103775114 -0.06999939 -0.015025364 0.07130031 0.026070451
-0.022218654 0.101013556 0.03346411 0.06791456 0.043541636 0.0012246538 -0.094706185 -0.05894009
-0.015322707 0.040927462 -0.04717853 -0.07798262 -0.08229804 0.09892593 -0.02331231 0.060574073
0.0015296611 0.09668884 -0.014805973 0.12769595 0.01519026 -0.015540373 0.12732711 -0.06340733
0.053205844 0.092562295 0.076185934 0.07669743 -0.033507865 -0.06663202 -0.035038814 -0.06929442
-0.06516292 -0.053061232 0.0074777585 -0.050082956 -0.08033961 0.073631436 0.06832447 -0.037391704
0.09815487 0.035671607 -0.08213727 0.106853016 0.061200194 0.13312156 0.093014926 -0.019743718
-0.069407135 -0.094886586 0.1009325 -0.045223776 -0.006786308 -0.022435652 0.19209224 -0.05547499
-0.03755514 0.11121812 0.047314107 0.10032263 -0.020787643 0.02527212 0.16514009 0.12654416
0.16559857 -0.09037815 -0.0766515 0.017901089 -0.072354905 -0.112575285 0.051238738 0.033083763
0.010263677 0.12345357 0.051576488 0.040728334 0.118136 -0.1134176 -0.009592186 0.041086677
0.1031083 0.06454719 -0.02016668 0.03319868 -0.048953112 0.0014692071 -0.052098297 0.08881417
