data/results/lstm_regime_BTC_r5d_r6_wNone.pt (torch, 221845 bytes, 9 tensors)

rnn.weight_ih_l0 f4 [256, 16]
0	0x3e5fb747	0.21847259
1	0x3d869572	0.06571473
2	0xbcec406c	-0.028839312
3	0xbcc325c7	-0.023821725
4	0x3e01954d	0.1265461
5	0x3e7dbe84	0.24779707
6	0x3cc5fb88	0.024167791
7	0xbdb6f32b	-0.08933099
8	0xbe0009fc	-0.12503809
9	0x3e3ef7b1	0.18649174
10	0x3db74278	0.08948225
11	0x3c9bfa3f	0.019040225
12	0xbd1fe6dc	-0.039038524
13	0x3d4c1e40	0.049833536
14	0x3e1ee64c	0.15517539
15	0xbcadc91f	-0.021214066
16	0x3dfbaf02	0.122892395
17	0x3e3748d8	0.17898881
18	0xbe0392bd	-0.12848945
19	0xbd2ae3d0	-0.041721165
20	0x3c200036	0.009765675
21	0x3cb1e075	0.021713475
22	0x3ddd72d6	0.10812919
23	0xbe2e38f9	-0.17013921
24	0xbca19c93	-0.01972798
25	0x3e1893bc	0.14900106
26	0x3d8ae083	0.067811035
27	0xbd35b49b	-0.044361692
28	0xbe3f5c66	-0.18687591
29	0xbe1deb20	-0.15421724
30	0x3e6e3fe6	0.23266563
31	0xbd3089bd	-0.043100107
32	0xbe7eee1e	-0.24895522
33	0xbd198d70	-0.0374884
34	0xbe59cd30	-0.21269679
35	0x3d88ffe2	0.06689431
36	0xbc877c95	-0.016538898
37	0xbde59d7e	-0.1121168
38	0xbda29ecf	-0.079404466
39	0xbe65228f	-0.22376464
40	0xbe1602d8	-0.14649522
41	0xbe2c9451	-0.16853453
42	0xbda72265	-0.08160857
43	0xbdf5a06b	-0.11993488
44	0xbe58110d	-0.21100254
45	0xbba7e017	-0.005123149
46	0xbe68c7ed	-0.22732516
47	0xbd1df64e	-0.038564973
48	0x3d58b5aa	0.052907623
49	0xbcc9d450	-0.024637371
50	0xbe7d9c9c	-0.24766773
51	0x3dfc8905	0.12330822
52	0xbdb910fd	-0.090364434
53	0xbe310ba0	-0.17289591
54	0x3e7c8f0b	0.24663942
55	0xbdd7c7d3	-0.1053616
56	0x3d9fc651	0.07801498
57	0xbd61ed21	-0.055157784
58	0xbe07436d	-0.13209315
59	0xbd43da63	-0.04781569
60	0xbe3a2483	-0.1817799
61	0x3d49f0dd	0.04930197
62	0xbe81fd80	-0.25388718
63	0xbe7f5c40	-0.24937534
64	0xbd8f5eec	-0.07000527
65	0xbe18d3a7	-0.14924489
66	0xbe3f4342	-0.18678
67	0xbd9b84c3	-0.07593682
68	0x3dfc8870	0.12330711
69	0xbe92f6fe	-0.28704065
70	0xbd6c4c8c	-0.05769019
71	0xbdc45e48	-0.09588295
72	0xbde5d1b9	-0.11221642
73	0xbcf134ff	-0.029444216
74	0xbd843475	-0.06455318
75	0xbd658ab1	-0.05604047
76	0xbc60c6c8	-0.013719268
77	0x3ca2a920	0.019856036
78	0xbe11d124	-0.14239937
79	0xbd23c943	-0.03998686
80	0x3e45eb2a	0.19327989
81	0xbd606e0a	-0.05479244
82	0xbe384d68	-0.17998278
83	0x3d8fd32e	0.07022701
84	0xbec99b42	-0.39376265
85	0x3eb932f7	0.36171696
86	0xbbf47116	-0.00745977
87	0xbe6aeb53	-0.22941332
88	0x3e140653	0.14455537
89	0xbe62e6bf	-0.22158335
90	0x3e744158	0.23853052
91	0xbd83f1c9	-0.06442601
92	0xbe3e4b40	-0.18583393
93	0x3c3d0d2b	0.011538784
94	0xbe86980c	-0.26287878
95	0xbbf1eae7	-0.007382739
96	0xbd419b94	-0.04726751
97	0x3ddd3cb1	0.108025916
98	0xbdd10588	-0.10206133
99	0xbe0cde0e	-0.13756582
100	0x3d94f8a8	0.0727399
101	0xbdf8329f	-0.1211903
102	0x3da30cb1	0.07961405
103	0x3da750f3	0.08169737
104	0x3e1f64c1	0.15565778
105	0xbda10b44	-0.07863477
106	0x3d65e157	0.056123104
107	0x3e31b5ed	0.17354555
108	0xbdfa531c	-0.12222883
109	0x3d125cac	0.03573291
110	0xbdac548c	-0.084145635
111	0x3aac04b6	0.0013123963
112	0x3d8b2747	0.06794601
113	0x3b42695a	0.0029664845
114	0xbdde39ff	-0.108509056
115	0xbe113b54	-0.14182788
116	0x3d340cf5	0.04395767
117	0x3e46660a	0.19374862
118	0x3d9c1047	0.07620292
119	0xbd865cf3	-0.065606974
120	0x3e00bcb3	0.12571983
121	0xbdde03d2	-0.108405724
122	0xbd00e480	-0.031467915
123	0x3db95692	0.09049715
124	0xbd806151	-0.06268562
125	0x3e0929a5	0.13394792
126	0x3d469ac0	0.048487425
127	0x3dc9baf4	0.098501116
128	0xbe87cb3a	-0.26522237
129	0x3d9cf030	0.07663
130	0xbe732afa	-0.23746863
131	0x3e2b7756	0.16744742
132	0x3c768957	0.015047393
133	0xbd8af370	-0.06784713
134	0x3e3e32ba	0.18574038
135	0xbe414e20	-0.18877459
136	0xbe1bbeb7	-0.1520947
137	0xbd70c0a3	-0.058777463
138	0x3d7e548b	0.062092345
139	0xbd0713ae	-0.032977752
140	0x3d1977f2	0.037467904
141	0xbd970b2c	-0.07375178
142	0x39344a36	0.00017193783
143	0x3cb1f01a	0.021720935
144	0xbe10bb75	-0.14134009
145	0x3e1a5368	0.1507088
146	0xbdebd17b	-0.115145646
147	0xbd84fbec	-0.06493363
148	0x3d492abf	0.04911303
149	0x3d3afd2e	0.045651607
150	0xbe018438	-0.12648094
151	0xbe92cf7d	-0.28673926
152	0xbd368a25	-0.04456534
153	0x3e0e2dc5	0.13884647
154	0x3b63626e	0.003469612
155	0x3dd5f437	0.10446971
156	0xbe82092c	-0.25397623
157	0x3daba5ed	0.08381257
158	0xbc8396db	-0.016063144
159	0x3c691398	0.014225863
160	0x3daba5dc	0.083812445
161	0x3e01b3e6	0.12666282
162	0xbe00f8c0	-0.1259489
163	0x3e5c2d70	0.21501708
164	0xbddd8249	-0.108158655
165	0x3da1930d	0.07889376
166	0xbca4d10e	-0.020119216
167	0xbe3d7bc8	-0.1850425
168	0x3df7f10f	0.12106525
169	0xbdf19ca8	-0.11797458
170	0x3d76c03b	0.06024192
171	0x3c302ad9	0.010752403
172	0xbe0b6392	-0.13612202
173	0x3e425346	0.18977079
174	0xbe55b3b4	-0.20869333
175	0x3c0f2156	0.008735975
176	0xbe0905c1	-0.13381101
177	0x3c109b58	0.008826099
178	0xbe055f58	-0.13024652
179	0xbe08b1ee	-0.13349125
180	0x3c0b2fac	0.008495253
181	0xbe924dd1	-0.28574994
182	0xbdcb0f22	-0.09914996
183	0x3bb3872e	0.005478761
184	0xbe4a72a7	-0.19770299
185	0x3dd6768a	0.10471828
186	0xbcad6cc7	-0.021170033
187	0x3c078a1f	0.008272677
188	0xbe264952	-0.16238907
189	0x3d89afe5	0.06723002
190	0xbde9a2a2	-0.11407973
191	0x3de261a2	0.11053778
192	0x3d7f72bd	0.062365282
193	0x3d8e084a	0.06935175
194	0xbe8de275	-0.27711836
195	0xbea29427	-0.31753656
196	0x3d2770d1	0.040879074
197	0xbd9d7d5d	-0.07689927
198	0xbda821bb	-0.082095586
199	0xbde73292	-0.112889424
200	0xbc2f77b2	-0.01070969
201	0x3db07aba	0.08617158
202	0xbd9b8a1e	-0.07594703
203	0x3d1ac645	0.03778674
204	0xbe3e208a	-0.185671
205	0x3d61ba38	0.055109233
206	0xbcac0af8	-0.021001324
207	0xbe11691a	-0.1420025
208	0x3c986a25	0.018605301
209	0x3e2bdb25	0.16782816
210	0x3db6be33	0.08922996
211	0xbdd87238	-0.105686605
212	0x3b915eef	0.004436366
213	0xbd4be1f2	-0.049776025
214	0x3da85495	0.08219258
215	0x3dac388b	0.08409222
216	0x3e4b391c	0.19846004
217	0x3c98e1ab	0.018662294
218	0x3ce68f78	0.028144583
219	0xbd3953aa	-0.045245804
220	0xbde8724e	-0.11349927
221	0x3db05831	0.08610571
222	0xbe936127	-0.2878506
223	0x3d21a999	0.03946838
224	0xbcb1d567	-0.021708203
225	0x3e07b8ef	0.1325414
226	0xbd340501	-0.043950085
227	0xbae7096f	-0.0017626713
228	0x3d0f527a	0.034990765
229	0xbdc50340	-0.096197605
230	0x3d3f57f6	0.046714745
231	0x3c6b5ece	0.014365865
232	0xbd4bf65e	-0.0497955
233	0x3e12221d	0.14270826
234	0xb82d1dbd	-4.127411e-05
235	0xbd5cc296	-0.05389651
236	0xbe3ac248	-0.18238175
237	0xbdfb8312	-0.12280859
238	0xbd8ac72d	-0.06776271
239	0xbdc47b41	-0.09593821
240	0x3dc33445	0.09531454
241	0x3cb8e173	0.02256844
242	0x3def35d3	0.11680188
243	0x3e571878	0.21005428
244	0xbe01c541	-0.12672903
245	0x3e948425	0.29007068
246	0x3d542e04	0.051801696
247	0xbdec747d	-0.11545656
248	0x3e51ff0d	0.2050745
249	0xbe882ca1	-0.2659655
250	0x3e74dfa3	0.23913436
251	0x3e2c1299	0.1680397
252	0x3e05a52f	0.13051294
253	0x3e6efcc7	0.23338614
254	0x3d179c1e	0.03701412
255	0xb9260d8c	-0.0001583604

rnn.weight_hh_l0 f4 [256, 64]
0	0xbcd1953f	-0.025583861
1	0xbd338eb1	-0.043837253
2	0x3dbcba07	0.092151694
3	0x3cd0fc32	0.025510881
4	0x3dc18089	0.09448344
5	0x3b940609	0.004517321
6	0x3ce07778	0.027400717
7	0x3c623fb5	0.013809134
8	0xbd8fe0a7	-0.07025271
9	0xbd3a82bc	-0.045534834
10	0x3df1915f	0.117953055
11	0xbdd42840	-0.103592396
12	0x3dc9f363	0.098608755
13	0x3ce7332f	0.028222648
14	0x3db90c63	0.09035566
15	0xbdf18ad6	-0.11794059
16	0x3c5e9f43	0.013587776
17	0x3d587b94	0.05285223
18	0xbde0a884	-0.10969642
19	0x3d4a018c	0.04931788
20	0x3d6d528a	0.057940044
21	0xbbf7616f	-0.007549457
22	0x3d42f491	0.047596518
23	0xbc2d461c	-0.010575797
24	0x3c4fdb9b	0.012686635
25	0xbdd269b4	-0.102740675
26	0xbda0c402	-0.078498855
27	0xbcd35172	-0.025795672
28	0xbd916e3d	-0.071011044
29	0x3d156283	0.0364709
30	0xbd2c78a2	-0.042107232
31	0x3c40ce63	0.011767956
32	0x3d7f3562	0.06230677
33	0x3d93b6ff	0.07212638
34	0x3d4de7c6	0.050269864
35	0x3cdade28	0.02671726
36	0x3cc7a9b8	0.02437292
37	0xbc924b5d	-0.017858202
38	0xbdb107a4	-0.086440355
39	0x3d271e23	0.040800225
40	0xbc17ad12	-0.009257572
41	0xbd974f05	-0.07388119
42	0x3cfaa9c3	0.030598527
43	0xbca5d562	-0.02024335
44	0xbdc1f948	-0.09471375
45	0xbc906a0c	-0.017628692
46	0xbd161097	-0.036636915
47	0xbdde5d8c	-0.108576864
48	0x3d2d5d87	0.042325523
49	0xbd8a035b	-0.06738921
50	0xbdc19969	-0.09453089
51	0xbda5d3f5	-0.08097068
52	0xbd475432	-0.04866428
53	0xbca80a74	-0.020512797
54	0xbe04501c	-0.12921184
55	0x3d63ac9a	0.055584528
56	0xbb966278	-0.004589375
57	0xbc4e0b36	-0.012575915
58	0xbd7198a2	-0.058983453
59	0xbc8f7aa1	-0.017514529
60	0xbd8ad0b7	-0.067780904
61	0x3dc0f7e5	0.09422282
62	0x3d7a341b	0.061084848
63	0xbd847509	-0.06467635
64	0xbcb4a55c	-0.022051506
65	0x3e1d0121	0.15332462
66	0x3e2fa7fa	0.17153922
67	0xbd079c08	-0.033107787
68	0x3e4d240f	0.20033287
69	0xbdf6bc62	-0.1204765
70	0x3dd20def	0.10256564
71	0xbcf7e6a5	-0.030261347
72	0xbd3df73e	-0.046378367
73	0x3d86495c	0.06556961
74	0x3d9029b1	0.07039202
75	0x3d4c7884	0.04991962
76	0x3dbccf90	0.09219277
77	0xbe1231a1	-0.14276744
78	0x3de21ea6	0.11041002
79	0xbc33ab20	-0.010966092
80	0xbd039294	-0.03212221
81	0x3dd6f22b	0.104954086
82	0xbc87e58e	-0.016588952
83	0x3e412932	0.18863371
84	0x3d458e83	0.048231613
85	0x3db3ba30	0.08775747
86	0xbd0472a9	-0.03233591
87	0xbd1403b1	-0.036136333
88	0xbe0763ef	-0.13221715
89	0x3d548dac	0.05189292
90	0xbca42a92	-0.02003983
91	0xbd04e58e	-0.032445483
92	0x3d561441	0.05226541
93	0x3cec8f8b	0.02887704
94	0x3dbc3e81	0.09191609
95	0xbd6967a1	-0.056983594
96	0xbe5513be	-0.20808312
97	0x3e571687	0.21004687
98	0xbda18a9d	-0.078877665
99	0x3e212854	0.1573804
100	0x3ccddbae	0.025129166
101	0x3d0a7f36	0.033812724
102	0x3d142c05	0.036174793
103	0x3b413f63	0.0029487244
104	0x3de283aa	0.11060269
105	0xbddbe753	-0.10737481
106	0xbda74290	-0.08166993
107	0xbcf917e8	-0.030406907
108	0xbd6c00fc	-0.057618126
109	0xbdd9af70	-0.10629165
110	0x3ca5f715	0.02025942
111	0x3e01ed22	0.12688115
112	0x3d561ab5	0.052271564
113	0xbe02eaf3	-0.12784939
114	0xbd853e43	-0.06506016
115	0xbdb07e1a	-0.08617802
116	0x3bc9e975	0.0061618634
117	0xbdf04813	-0.11732497
118	0x3e2d7991	0.16940905
119	0x3dd79bbc	0.10527751
120	0xbdc5d5c8	-0.09659916
121	0xbbed24b1	-0.00723704
122	0xbded7e9d	-0.11596415
123	0x3cc93064	0.024559207
124	0x3d836da1	0.064173944
125	0x3d3ad4a6	0.045612954
126	0xbe766e27	-0.24065457
127	0xbcfda51f	-0.030962525
128	0x3dd4188d	0.10356245
129	0xbc1b81e4	-0.009491418
130	0x3d27ed62	0.04099787
131	0xbe2e4ceb	-0.1702153
132	0x3c13b7aa	0.009015957
133	0xbda87b58	-0.08226651
134	0x3ce3bf4d	0.02780118
135	0x3c80d730	0.01572761
136	0x3c1ceb71	0.009577618
137	0x3cc9c923	0.024632042
138	0xbd211a04	-0.03933145
139	0xbdc7edb2	-0.09762134
140	0xbdb507c8	-0.08839375
141	0xbbaf96c6	-0.0053585498
142	0x3e0c088a	0.13675132
143	0x3b91e00e	0.004451758
144	0xbb8b3ffc	-0.004249571
145	0x3db25de8	0.087093174
146	0x3d8d6f5f	0.06906008
147	0x3ddbc13d	0.10730217
148	0x3d994948	0.074846804
149	0x3d82cd9a	0.06386872
150	0xbc25c602	-0.0101180095
151	0x3e05b969	0.1305901
152	0x3d895a46	0.067066714
153	0x3d977ee0	0.07397246
154	0xbd19a338	-0.037509173
155	0x3cccd11d	0.025002057
156	0xbce67840	-0.028133512
157	0xbe065fd4	-0.13122493
158	0xbdca109f	-0.098664515
159	0x3c012fa2	0.007884892
160	0x3d5a4ae3	0.053294074
161	0x3dd1871b	0.102308474
162	0x3d7ecac6	0.0622051
163	0x3b386796	0.0028137914
164	0x3c985c63	0.01859874
165	0xbe12c929	-0.14334549
166	0x3cc99638	0.024607763
167	0x3d8dda31	0.06926382
168	0xbc334520	-0.010941774
169	0x3e020133	0.1269577
170	0xbc8710cd	-0.016487503
171	0x3e040657	0.12893043
172	0xbc0b5202	-0.008503439
173	0xbdca8f9b	-0.09890672
174	0xbca0b16d	-0.019615853
175	0xbc341db7	-0.010993413
176	0x3d342650	0.04398185
177	0x3bbb5525	0.005716937
178	0x3d285c09	0.041103397
179	0x3d648d57	0.055798855
180	0xbddfc952	-0.10927071
181	0x3e01b7e2	0.12667802
182	0xbd557b00	-0.052119255
183	0xbde45c50	-0.1115042
184	0xbdd62bb1	-0.10457552
185	0xb993fabe	-0.00028224842
186	0xbcf386af	-0.029727308
187	0x3d82dfc4	0.06390336
188	0xbdc039e4	-0.09386042
189	0xbdcc220e	-0.09967433
190	0xbcde2c79	-0.027120816
191	0x3d53f093	0.0517431
192	0x3cb1e746	0.021716725
193	0x3d12c367	0.03583088
194	0xbac797fb	-0.0015227789
195	0xbe45394e	-0.19260141
196	0xbdaf7230	-0.085667014
197	0xbb2a89af	-0.0026022007
198	0x3db299bb	0.08720728
199	0xbdb61678	-0.08891004
200	0x3dd6258a	0.10456379
201	0x3d82d8b1	0.06388987
202	0x3e53424f	0.20630763
203	0x3e033330	0.12812495
204	0xbd86ee83	-0.06588461
205	0xbd0adf6c	-0.033904478
206	0x3e80671c	0.25078666
207	0x3e943d6a	0.28953105
208	0xbe77a067	-0.24182282
209	0x3e8c8524	0.27445328
210	0xbc078555	-0.008271535
211	0x3e2d32ab	0.1691386
212	0xbdb1cace	-0.0868126
213	0x3e81cd98	0.25352168
214	0x3d0a7514	0.03380306
215	0x3d9d4040	0.0767827
216	0x3e3f1bc6	0.18662938
217	0xbd21041c	-0.03931056
218	0x3d636af8	0.055521935
219	0xbde370ab	-0.11105474
220	0xbe4cf64f	-0.20015834
221	0x3e3cfc47	0.18455611
222	0x3e29c086	0.16577348
223	0xbdfa1fb3	-0.122130774
224	0xbca49786	-0.020091783
225	0x3e55847a	0.20851317
226	0xbe3e7eb9	-0.18603028
227	0xbe500752	-0.20315292
228	0xbe409ffd	-0.1881103
229	0xbd8aadfb	-0.067714654
230	0x3c1dd112	0.009632366
231	0xbc819fd4	-0.015823282
232	0x3d5665e8	0.05234328
233	0xbd83eac6	-0.06441264
234	0x3d4e9ee5	0.050444502
235	0xbda307ab	-0.07960447
236	0x3e2b2768	0.16714251
237	0xbe083af5	-0.1330374
238	0x3ec3a6dd	0.38213244
239	0x3e42921c	0.19001049
240	0xbeaf23d4	-0.34207022
241	0xbda4b810	-0.0804292
242	0x3d438d09	0.047741923
243	0xbe9b9b8a	-0.30392104
244	0x3e332f6b	0.17498557
245	0x3e0e138a	0.13874641
246	0xbd500b51	-0.050792042
247	0xbdcbce1b	-0.09951421
248	0x3d180e7f	0.0371232
249	0x3dfeed50	0.124476075
250	0xbe4efa41	-0.20212652
251	0x3e22b99c	0.15891117
252	0xbcb61f8f	-0.022231845
253	0x3e34829e	0.17627952
254	0xbe445483	-0.19172864
255	0x3d3b6aec	0.045756266

rnn.bias_ih_l0 f4 [256]
0	0xbc5764f1	-0.013146625
1	0x3d8df7be	0.06932019
2	0x3cbc5df0	0.022994012
3	0x3c04d2a4	0.008106861
4	0xbd8a9ce2	-0.06768204
5	0x3df19709	0.11796386
6	0xbd1de7ae	-0.038551025
7	0xbd0040f8	-0.03131196
8	0xbcc09eff	-0.023513315
9	0x3c51b4a7	0.0127994185
10	0x3e1e8cfb	0.15483467
11	0x3dbec6b2	0.09315242
12	0x3d7dd57a	0.061971165
13	0xbdc8e0bc	-0.0980849
14	0xbd4b6628	-0.04965797
15	0x3e007468	0.12544405
16	0x3b8fcf84	0.0043887515
17	0x3d8f037c	0.069830865
18	0x3e4dfdff	0.20116423
19	0xbd4839e8	-0.04888335
20	0x3ddfe178	0.109316766
21	0xbdb90029	-0.09033234
22	0xbd42156f	-0.047383722
23	0x3e42fe09	0.19042219
24	0x3c81d2d3	0.0158476
25	0x3dc149f8	0.094379365
26	0x3d6ca2aa	0.057772316
27	0x3d85f5d0	0.06541026
28	0xbcbd76ba	-0.023127902
29	0xbd58dd92	-0.05294568
30	0x3e31aeed	0.17351885
31	0xbd873cdc	-0.06603405
32	0xbc8d532c	-0.017251574
33	0x3c7daa6d	0.015482527
34	0xbd56146d	-0.052265573
35	0x3d9f739f	0.07785725
36	0x3da81934	0.08207932
37	0xbd39aaac	-0.04532878
38	0xbdc0840c	-0.09400186
39	0x3dc89673	0.09794321
40	0xbc1f1e29	-0.009711781
41	0x3e0b86da	0.1362566
42	0x3da4f6c0	0.08054876
43	0x3d55670d	0.05210023
44	0xbd915512	-0.07096304
45	0x3def0520	0.116708994
46	0x3dae9741	0.08524943
47	0x3dc19ded	0.0945395
48	0xbc7db257	-0.015484414
49	0xbdb90bf7	-0.09035485
50	0x3d2958ae	0.041344337
51	0x3d24a6ba	0.040198065
52	0xbc02bd2b	-0.0079796715
53	0x3e147f22	0.14501622
54	0x3dba3b57	0.090933494
55	0xbd72a389	-0.05923799
56	0x3e68617d	0.22693439
57	0x3e1c0182	0.1523495
58	0x3e33ecad	0.17570753
59	0x3c729216	0.014805337
60	0x3da55a1d	0.08073828
61	0xbd389efd	-0.045073498
62	0xbd340dab	-0.043958347
63	0x3db1a8b9	0.086747594
64	0xbd67d45a	-0.056599
65	0xbbf8a64e	-0.0075881844
66	0x3cacb6a3	0.021083182
67	0x3c667846	0.014066761
68	0xbcc39d99	-0.02387886
69	0xbe02349c	-0.12715381
70	0xbde5b38d	-0.11215887
71	0x3dce8e3d	0.100857235
72	0xbdcd586f	-0.10026633
73	0x3e0e0349	0.1386844
74	0x3ddba842	0.10725452
75	0xbd78ce42	-0.060743578
76	0xbddb8fff	-0.107208245
77	0xbdb28ed6	-0.0871865
78	0xbce4d044	-0.02793134
79	0x3d8f738e	0.07004462
80	0xbddc1425	-0.1074603
81	0x3dda2927	0.106523804
82	0xbe1f063d	-0.15529723
83	0x3d34b6ac	0.044119522
84	0xbe094328	-0.13404524
85	0x3bf495a6	0.0074641285
86	0xbcf76da9	-0.030203657
87	0xbd9a1f94	-0.07525554
88	0xbd0583bf	-0.032596346
89	0x3d85d987	0.06535631
90	0xbd918fcf	-0.071075074
91	0xbda64839	-0.08119244
92	0xbdded26c	-0.108799785
93	0xbd87b8c1	-0.06627036
94	0x3c24baad	0.010054273
95	0x3dbf828a	0.0935107
96	0x3cbe8f56	0.023261707
97	0x3d24a710	0.040198386
98	0xbda747ff	-0.08168029
99	0x3dc97ec6	0.09838633
100	0x3d512738	0.051062793
101	0x3dbbcac3	0.09169533
102	0x3d9f8f1b	0.07790967
103	0x3d3fc828	0.046821743
104	0xbd453364	-0.048144713
105	0xbd4c0fe8	-0.049819857
106	0x3c83a1d6	0.01606838
107	0xbd11e16f	-0.03561538
108	0xbce12031	-0.02748117
109	0xbdc052d9	-0.09390802
110	0xbd80e352	-0.06293358
111	0xbdbcd534	-0.09220353
112	0x3db97983	0.0905638
113	0xbd05bcaa	-0.032650627
114	0xbce3cd93	-0.027807986
115	0xbd8b4255	-0.06799761
116	0x3d7e3ed2	0.06207163
117	0x3d31c533	0.043400954
118	0xbd81fc8a	-0.06346996
119	0x3ca1dab1	0.0197576
120	0x3d9d3da3	0.07677772
121	0xbd985a57	-0.07439106
122	0xbd7a461f	-0.06110203
123	0xbd868fcd	-0.065703966
124	0xbdde115c	-0.10843155
125	0x3dc7db01	0.097585686
126	0xbb83e799	-0.0040254113
127	0xbe137584	-0.14400297
128	0xbc0069e9	-0.007837751
129	0x3d9931a4	0.07480171
130	0x3bccbea5	0.0062483125
131	0xbd9ecdbc	-0.077540845
132	0xbd40219d	-0.046907056
133	0x3df2fd48	0.11864716
134	0xbd4f9f7a	-0.050689198
135	0x3c0a4ca1	0.008441121
136	0xbba6bbbd	-0.005088298
137	0x3dd04830	0.10170019
138	0x3def1db3	0.116755866
139	0x3db8dbe3	0.09026315
140	0x3dc84f93	0.097808026
141	0xbdefd7cc	-0.11711082
142	0xbdb1b950	-0.08677924
143	0x3d1537ae	0.036430053
144	0xbc82f934	-0.01598797
145	0xbda8c4e1	-0.08240677
146	0x3d0e2347	0.03470161
147	0x3dabb0f9	0.08383364
148	0x3cc42aaa	0.023946125
149	0x3d7ba0cc	0.061432645
150	0xbc582dfe	-0.013194559
151	0xbc9c95dd	-0.01911443
152	0x3d30c633	0.043157768
153	0x3dadd131	0.08487166
154	0x3dde2978	0.10847753
155	0xbda68595	-0.081309475
156	0x3d3279f0	0.04357332
157	0x3d489a87	0.048975494
158	0x3df6ac1b	0.12044545
159	0xbd7086d0	-0.058722317
160	0xbdbe1cf4	-0.09282866
161	0x3da5f295	0.081029095
162	0x3cd06812	0.02544025
163	0xbba3981e	-0.004992499
164	0xbd993c98	-0.074822605
165	0xbd7aec5f	-0.061260577
166	0x3ddfacb6	0.10921614
167	0x3d19c936	0.037545405
168	0xbc40268b	-0.011727939
169	0xbd3a8f3f	-0.045546766
170	0xbd8f492c	-0.06996378
171	0xbd40a60c	-0.047033355
172	0x3d2299a0	0.03969729
173	0x3d3b0586	0.045659564
174	0x3d9fd82a	0.07804902
175	0x3dd1cfd4	0.10244718
176	0xbdb8d12d	-0.09024272
177	0xbce64746	-0.028110158
178	0xbddec2e7	-0.108770184
179	0xbe0b1cfd	-0.13585277
180	0xbda82877	-0.08210843
181	0xbd892d03	-0.066980384
182	0x3ce90640	0.028445363
183	0xbdac7c2f	-0.08422124
184	0x3d70df3c	0.058806643
185	0xbcc36d09	-0.023855703
186	0xbdddcbbf	-0.10829877
187	0x3d2d7bc0	0.042354345
188	0xbda82027	-0.082092576
189	0x3c6d5255	0.0144849615
190	0x3bcdfa27	0.006285924
191	0x3d4344b8	0.047672957
192	0x3dc41eb3	0.09576168
193	0x3dc30d02	0.095239654
194	0xbdea458a	-0.11439045
195	0xbb17d609	-0.0023168346
196	0x3e010ef6	0.12603363
197	0x3d668c0e	0.05628591
198	0x3e1aaea1	0.15105678
199	0x3d54abd2	0.051921673
200	0xbd9f8d82	-0.07790662
201	0x3e358fa1	0.17730571
202	0xbcbedad3	-0.023297703
203	0x3e01f32b	0.12690417
204	0xbdd16c4d	-0.10225735
205	0xbd85f5c6	-0.06541018
206	0x3dd1782d	0.10228
207	0xbd91884d	-0.071060754
208	0xbdcd5632	-0.10026206
209	0x3d1a7aae	0.037714653
210	0x3e2dadac	0.16960782
211	0x3dc0f902	0.094224945
212	0x3c8e89de	0.017399725
213	0xbdc20c99	-0.09475059
214	0xbd89ac56	-0.067223236
215	0x3e166dbb	0.14690296
216	0xbd6e2599	-0.058141325
217	0xbdbe2799	-0.092848964
218	0xbd9502c5	-0.07275919
219	0xbcbff88a	-0.023433942
220	0x3d955e00	0.0729332
221	0x3d488baf	0.048961338
222	0x3ccf4a37	0.025303943
223	0x3dcfdb76	0.10149281
224	0x3d3abf2e	0.04559248
225	0x3c9b9c5a	0.018995453
226	0xbcb06861	-0.021534147
227	0xbd02d3f5	-0.03194042
228	0x3d180473	0.037113618
229	0x3e44db0d	0.19224186
230	0xbddc4f77	-0.10757344
231	0x3d027c62	0.031856902
232	0x3e190b83	0.14945798
233	0xbd797ebe	-0.060911886
234	0xbd59a54d	-0.05313616
235	0x3d238cc2	0.03992916
236	0xbcbf7c5c	-0.023374729
237	0xbc9669d5	-0.018361012
238	0xbd3bad40	-0.04581952
239	0x3d3e72cd	0.0464962
240	0xbd4d7353	-0.05015881
241	0xbda0d939	-0.07853932
242	0x3d570eed	0.05250447
243	0xbcda2009	-0.026626604
244	0x3d1f9508	0.038960487
245	0x3e23b653	0.1598752
246	0x3db81540	0.08988428
247	0x3e017579	0.12642469
248	0x3d518aec	0.051157877
249	0x3d3ffdfc	0.046873078
250	0xbced4427	-0.028963162
251	0x3d8ba60a	0.06818779
252	0xbd1dbea9	-0.038511906
253	0x3d960b2d	0.0732635
254	0x3de7100a	0.11282356
255	0x3dc8502f	0.09780919

rnn.bias_hh_l0 f4 [256]
0	0xbd725db0	-0.05917138
1	0xbd49641b	-0.049167734
2	0xbba9b19e	-0.0051786443
3	0x3dec2e7e	0.11532305
4	0xbdc78c5a	-0.09743567
5	0x3c6b8887	0.014375812
6	0xbcd7d39f	-0.026346026
7	0xbc15f8c5	-0.00915355
8	0xbde3918e	-0.11111747
9	0x3e1acfc3	0.15118317
10	0x3c888aef	0.016667811
11	0x3e02673a	0.1273469
12	0xbd32c309	-0.04364303
13	0x3def37b8	0.116805494
14	0x3d21d7b8	0.039512366
15	0xbb80de46	-0.003932747
16	0x3d17d494	0.037067965
17	0xbd9ff2f6	-0.07810013
18	0x3e30486a	0.17215124
19	0x3d0874d0	0.033314526
20	0x3d2c05f5	0.04199787
21	0xbd1edb4e	-0.038783364
22	0xbd0d7919	-0.034539316
23	0x3e25bc3f	0.16185091
24	0xbb6333b0	-0.003466826
25	0x3c8cbb2a	0.01717909
26	0xbde9aa9d	-0.11409495
27	0xbce0f312	-0.027459655
28	0x3d26c417	0.04071435
29	0x3dd22b1a	0.10262127
30	0x3dcef530	0.101053596
31	0x3dd80892	0.1054851
32	0x3e414f28	0.18877852
33	0x3d574fe0	0.05256641
34	0x3da628f7	0.08113282
35	0xbc80229a	-0.0156415
36	0x3e020d88	0.12700474
37	0x3e37e8bc	0.17959875
38	0x3de43282	0.11142446
39	0x3d6119ee	0.05495637
40	0xbc9875a2	-0.01861078
41	0xbbe2cdb2	-0.0069214934
42	0x3de67b70	0.112540126
43	0x3db3e165	0.08783225
44	0xbdb8c492	-0.09021868
45	0x3d6cc3ea	0.057804026
46	0xbd162599	-0.03665695
47	0x3e01eead	0.12688704
48	0xbd71f27e	-0.05906915
49	0x3dbbf47f	0.09177493
50	0x3cacfd41	0.021116855
51	0x3d69c1f6	0.05706974
52	0xbc73d48b	-0.014882217
53	0x3da655fc	0.08121869
54	0x3d934f83	0.071929
55	0x3d0b7e1b	0.03405581
56	0x3e5264a3	0.20546202
57	0x3e156d80	0.14592552
58	0x3cdcb296	0.026940625
59	0x3c2b9311	0.010472075
60	0x3d88738d	0.066626646
61	0x3d741dab	0.059598606
62	0xbd8b9e6c	-0.06817326
63	0x3d74c954	0.059762314
64	0xbdb6e103	-0.08929636
65	0xbd8e70df	-0.06955122
66	0x3cbcd3f1	0.02305028
67	0x3d27e344	0.04098822
68	0x3b9ce896	0.0047884686
69	0xbe05f46f	-0.13081525
70	0xbc272290	-0.010201111
71	0xbd9b0e3b	-0.075710736
72	0xbdd9f2a5	-0.10641984
73	0xbd888440	-0.0666585
74	0x3d556f9a	0.052108385
75	0x3dd2951c	0.102823466
76	0x3b86a352	0.004108825
77	0xbce6aee0	-0.028159559
78	0xbdd43595	-0.103617825
79	0x3de43552	0.111429825
80	0xbcf4c6aa	-0.029879887
81	0xbc17e8e8	-0.009271838
82	0xbe187069	-0.14886631
83	0x3d7befa0	0.06150782
84	0x3d9903b4	0.074714094
85	0x3c7edad0	0.015555099
86	0xbdd34855	-0.103165306
87	0x3d2a55eb	0.041585844
88	0xba7d34a3	-0.00096590276
89	0x3dd95613	0.106121205
90	0x3dc4980b	0.095993124
91	0xbd20150d	-0.039082576
92	0xbd306076	-0.043060742
93	0x3c7a9fdf	0.015296905
94	0xbdd4e3f5	-0.10395042
95	0x3d8bb7e8	0.06822187
96	0xbdc4cc31	-0.09609259
97	0xbcb0fc33	-0.021604633
98	0x3dba8ebd	0.091092564
99	0xbdab83b8	-0.08374733
100	0xbc4f2ac1	-0.012644471
101	0x3d1386f2	0.036017366
102	0xbdd57a6d	-0.104237415
103	0xbcc62908	-0.024189487
104	0x3d8850fe	0.06656073
105	0xbdada8d2	-0.084794655
106	0x3d8bb625	0.06821851
107	0x3da10585	0.07862381
108	0xbd9b6a3b	-0.07588621
109	0xbddbb965	-0.107287206
110	0xbcfc0bcb	-0.030767342
111	0xbb5dfecc	-0.0033873795
112	0x3da27281	0.07931996
113	0x3c801a0c	0.01563742
114	0xbd98dd79	-0.074641176
115	0x3d996cdf	0.07491469
116	0x3d9730b7	0.073823385
117	0xbe0f14e9	-0.1397282
118	0x3bfefa13	0.007781276
119	0xbd9eaae6	-0.0774744
120	0xbd5b1164	-0.053483382
121	0xbbcd2d65	-0.006261515
122	0x3d9912d6	0.07474296
123	0x3be61ae8	0.0070222504
124	0xbd05c214	-0.03265579
125	0xbd09de94	-0.033659533
126	0x3d8759dc	0.06608936
127	0xbe1c8c7e	-0.15287969
128	0xbdb98c1e	-0.09059928
129	0x3d3c2e6b	0.045942705
130	0x3cd7490f	0.026279954
131	0xbd8a252b	-0.067453705
132	0xbd39e625	-0.0453855
133	0xbd229d4e	-0.0397008
134	0x3ded4fdc	0.115874976
135	0x3d96d008	0.073638976
136	0x3d23e48d	0.040012885
137	0xbcc7f21e	-0.024407443
138	0xbd29738b	-0.041369956
139	0x3db8b6fb	0.09019276
140	0x3d5118c6	0.051049016
141	0xbd6487e3	-0.055793654
142	0x3df173ba	0.11789651
143	0x3dfad3fc	0.12247464
144	0x3cd0c46b	0.025484284
145	0x3df073f1	0.11740864
146	0xbcd7ffbe	-0.026367065
147	0x3d5868f9	0.052834485
148	0xbaa783cf	-0.0012780371
149	0xbd05c9b8	-0.032663077
150	0xbddd311b	-0.10800382
151	0x3d88f02f	0.066864364
152	0x3d345a47	0.044031408
153	0x3d60d909	0.05489448
154	0xbcab09f7	-0.020878775
155	0xbe021feb	-0.12707488
156	0xbc43ea3a	-0.011957699
157	0xbd64c71b	-0.055853944
158	0x3d96f743	0.0737138
159	0xbe0c5f88	-0.13708317
160	0xba8dd048	-0.0010819519
161	0x3d6c550c	0.057698295
162	0x3b7ab7a7	0.0038256438
163	0xbbce0020	-0.006286636
164	0xbd3435d9	-0.043996666
165	0xbcef653d	-0.029223079
166	0xbd29e061	-0.04147375
167	0xbc2355ec	-0.009969216
168	0x3d76cd4f	0.06025439
169	0xbd5c1533	-0.053731155
170	0xbca4567f	-0.020060776
171	0x3dd5fe31	0.10448874
172	0xbcf96432	-0.030443285
173	0x3d347c30	0.044063747
174	0x3df16462	0.117867246
175	0x3d7e7b4a	0.062129296
176	0xbd7db688	-0.061941653
177	0x3cace3e2	0.021104757
178	0x3d20503b	0.039139014
179	0x3ca858e9	0.020550208
180	0x3df893f9	0.121375985
181	0x3d75a6f1	0.05997366
182	0x3c6e9592	0.0145620275
183	0x3d6ebcc6	0.058285497
184	0xbe102b57	-0.14079033
185	0x3dbe2076	0.09283535
186	0x3d839965	0.06425742
187	0x3dabfa0b	0.08397301
188	0x3d825225	0.06363324
189	0x3e02529d	0.12726827
190	0xbd886536	-0.066599295
191	0xbdfe69f0	-0.1242255
192	0x3d9abb7b	0.0755529
193	0xbd193570	-0.037404478
194	0xbde75d5e	-0.11297105
195	0xbcbc8ce5	-0.023016402
196	0x3d8f7012	0.070037976
197	0x3d06328b	0.032763045
198	0x3c86d28b	0.016457817
199	0x3dcbc665	0.0994995
200	0x3a33dcae	0.0006861192
201	0x3c9e5f38	0.019332513
202	0x3e1f7e4b	0.1557552
203	0x3a7b4244	0.00095847645
204	0xbac64a36	-0.0015128318
205	0xbd774d48	-0.060376436
206	0xbce5c098	-0.028045937
207	0x3c9d63e3	0.019212669
208	0xbdc1cf3e	-0.094633564
209	0x3d236856	0.039894424
210	0x3cfd52eb	0.030923327
211	0x3d98f5d2	0.074687615
212	0x3dcb8a05	0.099384345
213	0x3ddd13f9	0.10794825
214	0x3d9e6692	0.077344075
215	0x3dd964c2	0.10614921
216	0xbdcde7a4	-0.100539476
217	0x3d44220f	0.047884043
218	0xbc5bdba2	-0.013419064
219	0x3e04430c	0.12916201
220	0x3da9881e	0.082779154
221	0xbdeb4fac	-0.114898056
222	0x3dd692b7	0.104772024
223	0x3d8ebb86	0.06969361
224	0x3dd83857	0.10557621
225	0x3d8056c6	0.06266551
226	0xbdba9d7e	-0.091120705
227	0x3e381579	0.17976941
228	0xbc7862c6	-0.015160268
229	0xbd3d2a30	-0.04618281
230	0x3d76d374	0.06026025
231	0xbc9198e0	-0.017773092
232	0xbd54c423	-0.051944863
233	0x3d6ff6e8	0.058585078
234	0x3d72470b	0.059149783
235	0xbdadd392	-0.084876195
236	0xbd58437b	-0.05279873
237	0x3b836c55	0.004010717
238	0x3d812d99	0.06307525
239	0xbdd5389a	-0.104111865
240	0x3db7c85f	0.08973765
241	0xbde05cf3	-0.10955229
242	0x3d9a833b	0.075445615
243	0x3e0e3c11	0.13890101
244	0xbdc140ae	-0.09436165
245	0x3cd943ae	0.02652153
246	0x3e337f1c	0.17528957
247	0x3d58bf26	0.05291667
248	0x3e702f9b	0.2345566
249	0x3d78045d	0.060551036
250	0x3df33883	0.11876013
251	0x3db4527a	0.08804794
252	0xbc4d030a	-0.012512932
253	0x3dd82579	0.10554022
254	0xbdab5f30	-0.08367765
255	0x3cbd7790	0.0231283

rnn.weight_ih_l1 f4 [256, 64]
0	0x3d983d53	0.07433572
1	0x3d3abfa7	0.04559293
2	0x3dbcdcd8	0.0922181
3	0xbe2e39b8	-0.17014205
4	0x3c81d7ad	0.015849913
5	0x3dd70124	0.104982644
6	0xbcf96702	-0.030444626
7	0xbdee5cd3	-0.116387986
8	0xbcf2c171	-0.029633256
9	0x3d056345	0.032565374
10	0xbdd111f2	-0.10208501
11	0x3d1653df	0.03670108
12	0x3c2b142c	0.010441821
13	0x3cf0fcae	0.029417362
14	0x3ce13c73	0.027494645
15	0x3a864441	0.001024373
16	0x3d9962bc	0.07489535
17	0xbdb3c7dd	-0.08778355
18	0xbd0fbebe	-0.035094015
19	0xbdd36aec	-0.10323128
20	0x3df63135	0.12021104
21	0x3dc1b33b	0.094580136
22	0x3dffd3cf	0.12491571
23	0x3c8fd9b2	0.01755986
24	0x3c7778f7	0.015104524
25	0xbd3ffa0f	-0.046869334
26	0xbd81ffad	-0.063475944
27	0xbc2c0ee4	-0.010501597
28	0xbd0a9a3f	-0.033838507
29	0x3d89cd09	0.067285605
30	0xbe1f187d	-0.15536685
31	0xbca0b1d6	-0.019616049
32	0x3e1194bb	0.14216892
33	0xbd2664dd	-0.040623534
34	0xbd51a8dd	-0.05118643
35	0xbc86bdc2	-0.016447905
36	0x3d0cc5a9	0.03436819
37	0xbd4e9214	-0.05043228
38	0xbdbaaa7a	-0.09114547
39	0xbd056108	-0.03256324
40	0xbdef9cbe	-0.11699818
41	0x3e084a8f	0.13309692
42	0x3df4bfd6	0.11950652
43	0xbe022f9c	-0.12713474
44	0xbdc3a070	-0.095520854
45	0x3deaf925	0.11473302
46	0x3d80cdbc	0.06289241
47	0xbd2ef145	-0.04271056
48	0x3e0b33ea	0.13594022
49	0x3ce427e8	0.02785106
50	0x3e1da962	0.15396646
51	0x3d94890a	0.072527006
52	0x3d145000	0.036209106
53	0x3d2691e0	0.04066646
54	0xbdec5697	-0.11539953
55	0xbdd2fb19	-0.10301799
56	0x3dbb39c8	0.0914188
57	0x3d013044	0.03154017
58	0xbd3383c8	-0.04382685
59	0xbc01f292	-0.007931368
60	0xbdce8931	-0.10084761
61	0x3cf119f6	0.029431324
62	0xbd9a7f59	-0.07543821
63	0x3d15aa0e	0.03653913
64	0xbdbd9e52	-0.09258713
65	0xbcc49b93	-0.023999965
66	0x3d4f3bbc	0.050594077
67	0x3cb8a036	0.022537332
68	0xbcad848b	-0.021181365
69	0xbd34c1f6	-0.044130288
70	0x3e0f91ab	0.14020412
71	0x3d406026	0.046966694
72	0x3dab80ee	0.08374201
73	0xbdc720da	-0.09723063
74	0xbbfb5f2f	-0.007671259
75	0x3e0cc822	0.1374822
76	0xbdc414f4	-0.09574309
77	0x3d3587fe	0.044319145
78	0x3d81bf17	0.063352756
79	0x3dac2040	0.08404589
80	0xbd941acf	-0.07231676
81	0xbc8b26ef	-0.016986338
82	0x3d117dcf	0.03552037
83	0xbd1cd284	-0.0382867
84	0xbd4506df	-0.048102256
85	0xbdc5ed05	-0.096643485
86	0xbd753568	-0.059865385
87	0xbd455756	-0.048178993
88	0x3dd9b4aa	0.10630162
89	0x3db840f4	0.08996764
90	0xbd56a98f	-0.052407797
91	0x3d659583	0.05605079
92	0x3d667c5d	0.056270946
93	0xbb00b318	-0.0019637998
94	0x3cc8c1b3	0.024506425
95	0xbce0118d	-0.027352119
96	0x3bfaf455	0.007658521
97	0xb6096a14	-2.0476336e-06
98	0x3dcf36bf	0.10117864
99	0xbb4a2e23	-0.0030850254
100	0xbdd1e1c8	-0.102481425
101	0x3d523693	0.051321577
102	0x3d475efb	0.048674565
103	0xbcf5d7cd	-0.030010128
104	0xbd85916f	-0.0652188
105	0xbdedbffc	-0.11608884
106	0xbdf3c10f	-0.119020574
107	0xbcc64742	-0.0242039
108	0x3d1b47db	0.037910324
109	0xbdd353fc	-0.10318753
110	0x3d46a3fd	0.048496235
111	0xbcfcb2d7	-0.030846996
112	0xbd93f256	-0.07223956
113	0xbdf43356	-0.11923854
114	0xbd5cbeb8	-0.05389282
115	0xbd26bf20	-0.040709615
116	0x3da862c2	0.082219616
117	0xbd94ed70	-0.0727185
118	0x3df7fbc0	0.121085644
119	0x3ca02fc3	0.019554025
120	0x3b7361c6	0.0037137135
121	0xbbf5b9e7	-0.007498968
122	0x3c80b238	0.015709981
123	0xbca43630	-0.02004537
124	0x3e04b3bb	0.12959187
125	0xbd7dcec7	-0.061964776
126	0x3d13907b	0.03602646
127	0xbba35e73	-0.0049856245
128	0xbe215149	-0.15753664
129	0x3d0d1c6c	0.034450933
130	0xbe190af4	-0.14945585
131	0x3d105ec8	0.03524664
132	0xbdbb7d18	-0.09154719
133	0xbe8046b1	-0.25053933
134	0x3d1d0d57	0.0383428
135	0x3d80ff72	0.06298722
136	0xbe4e561d	-0.20150037
137	0xbd3f7dea	-0.04675094
138	0xbe66e67c	-0.2254886
139	0xbdf3f6ff	-0.11912345
140	0x3dc6f890	0.09715378
141	0xbe5eaca7	-0.21745549
142	0xbe012373	-0.12611179
143	0xbe4f0b1e	-0.20219085
144	0x3e807e10	0.25096178
145	0xbd3015c7	-0.04298952
146	0xbd9a9d7e	-0.075495705
147	0xbd8d67bc	-0.069045514
148	0xbdf9d0b4	-0.1219801
149	0xbd4bae49	-0.04972676
150	0xbe8d4298	-0.2758987
151	0xbd9e26fe	-0.07722281
152	0x3c86e582	0.01646686
153	0x3d403a74	0.046930745
154	0xbdaa5e85	-0.083188094
155	0x3d3b6949	0.045754705
156	0x3df28047	0.11840873
157	0xbe118513	-0.1421092
158	0xbdeba987	-0.11506944
159	0x3dd66604	0.10468677
160	0x3d50d90c	0.050988242
161	0x3d1f6cba	0.03892205
162	0x3dd9eea3	0.106412195
163	0xbd647691	-0.055777136
164	0x3d96a204	0.07355121
165	0x3de7cd6a	0.113184765
166	0xbde76cf8	-0.11300081
167	0x3e1a6f49	0.15081514
168	0x3d87d57e	0.06632517
169	0x3e185863	0.14877467
170	0x3d8caed9	0.06869287
171	0x3cfd0e45	0.030890593
172	0xbceaa8c8	-0.028644934
173	0x3e38f240	0.18061161
174	0xbceb9908	-0.028759494
175	0xbe803730	-0.25042105
176	0x3dae2c18	0.08504504
177	0x3df0c7db	0.117568694
178	0x3d806c41	0.06270648
179	0x3cc890df	0.024483142
180	0xbdd22297	-0.10260504
181	0xbe628fb4	-0.22125131
182	0xbe05f763	-0.13082652
183	0xbcbe09fc	-0.02319812
184	0x3dd438ee	0.10362421
185	0xbe0d5510	-0.1380198
186	0x3c78bfc9	0.015182444
187	0xbdf827f6	-0.12116997
188	0xbc231666	-0.009954071
189	0xbc4bfa14	-0.01244976
190	0xbd2824fc	-0.041050896
191	0x3ddfed9d	0.10933993
192	0x3dbc7a35	0.09202997
193	0xbd341aa7	-0.04397073
194	0xbda194ae	-0.078896865
195	0x3d4279d0	0.04747945
196	0xbd228e6c	-0.039686605
197	0x3d03ed15	0.03220852
198	0xbdd285c9	-0.10279424
199	0x3d9bc88a	0.07606609
200	0xbe07c1f5	-0.13257582
201	0xbdc10da7	-0.09426432
202	0xbd480ab5	-0.048838336
203	0xbcc0442f	-0.023470012
204	0xbd90253a	-0.070383504
205	0x3dd91473	0.105996035
206	0xbdb75418	-0.089515865
207	0xbcd2d41b	-0.025735905
208	0x3e094da9	0.13408531
209	0x3d97fe0c	0.074215025
210	0x3dbc4e6f	0.091946475
211	0xbdc185f5	-0.094493784
212	0x3d82c383	0.06384947
213	0x3cba92e0	0.022775114
214	0xbce4da53	-0.027936136
215	0xbd45946c	-0.04823725
216	0x3d4efc8a	0.05053381
217	0x3df3fa3e	0.11912964
218	0x3b6dccb4	0.0036285343
219	0xbd841112	-0.064485684
220	0xbd943fef	-0.07238757
221	0x3db5fea6	0.08886461
222	0x3c75878e	0.014985932
223	0x3dda9396	0.10672681
224	0x3d7dc0bb	0.06195138
225	0x3b82e3a2	0.003994421
226	0x3db06fef	0.086151
227	0xbe273990	-0.16330552
228	0x3d350cab	0.044201534
229	0x3a21a3e8	0.00061660865
230	0xbd3d5021	-0.046218995
231	0xbd7a32bb	-0.061083537
232	0xbdea1ba1	-0.11431051
233	0xbd4f40fa	-0.050599076
234	0x3dbfb498	0.093606174
235	0xbd9850c9	-0.074372835
236	0xbc48db64	-0.012259338
237	0x3df361b1	0.118838675
238	0xbdaca45d	-0.08429787
239	0xbc27140c	-0.010197651
240	0xbdb179a9	-0.08665783
241	0x3de463af	0.11151826
242	0x3d9a77ae	0.07542358
243	0x3e1be9f9	0.15225972
244	0xbd121b1d	-0.03567039
245	0x3d913639	0.0709042
246	0x3cd6fcb8	0.026243553
247	0x3ca72376	0.020402651
248	0xbddc8030	-0.10766637
249	0x3dd7c55f	0.105356924
250	0xbd18d380	-0.037311077
251	0xbd843035	-0.06454507
252	0xbde6c1cb	-0.11267432
253	0xbd9dbde4	-0.077022344
254	0xbdc7669a	-0.097363666
255	0x3dcb9c26	0.09941892

rnn.weight_hh_l1 f4 [256, 64]
0	0x3c13e2b1	0.009026215
1	0x3c1a274f	0.009408786
2	0x3db72f58	0.08944577
3	0x3da5a412	0.080879346
4	0x3d1a7aff	0.037714954
5	0xbe0f7d06	-0.14012536
6	0xbc93412e	-0.017975416
7	0x3dc3869e	0.095471606
8	0xb950e7ea	-0.0001992282
9	0xbc53cae8	-0.012926795
10	0x3c2cfba4	0.010558043
11	0xbdb5c69b	-0.088757716
12	0x3d5edb5e	0.054408424
13	0xbdebb6e1	-0.11509491
14	0xbdbd39c4	-0.092395335
15	0x3de9f71e	0.11424087
16	0x3c9bf96c	0.019039832
17	0x3d7a6cb4	0.061138824
18	0xbdf2fb68	-0.11864358
19	0xbc152b7e	-0.009104608
20	0xbd0efb69	-0.034907732
21	0xbd94566f	-0.072430484
22	0xbdc5636a	-0.09638102
23	0xbd92043b	-0.07129713
24	0x3db6263b	0.08894011
25	0x3df0cf67	0.11758309
26	0x3d328258	0.043581337
27	0xbc1ee047	-0.009697027
28	0xbd9fcfcc	-0.07803306
29	0x3dd87360	0.10568881
30	0xbd0fede5	-0.035138983
31	0x3def2728	0.1167739
32	0x3d82c787	0.06385713
33	0x3dc41adb	0.09575435
34	0xbd8ef652	-0.069805756
35	0xbd0527bf	-0.032508608
36	0x3da94e35	0.0826687
37	0x3d821bf1	0.06352986
38	0x3cfac40a	0.030611057
39	0x3bcbe4af	0.0062223296
40	0x3dad75ce	0.08469735
41	0x3d91e732	0.07124175
42	0x3d649d3b	0.05581401
43	0xbdb8d828	-0.090256035
44	0xbd959fcc	-0.073058695
45	0xbdb3eb1c	-0.08785078
46	0x3dedcaf5	0.116109766
47	0xbcefe3b9	-0.029283391
48	0xbba64ec9	-0.00507531
49	0xba790f29	-0.0009500855
50	0xbcde5279	-0.027138935
51	0x3b9fc803	0.004876138
52	0xbbe76d8a	-0.0070626186
53	0x3da172e8	0.07883245
54	0x3c9018c5	0.017589936
55	0x3d3be988	0.04587701
56	0x3d2b9286	0.041887783
57	0xbd7ae1a5	-0.061250348
58	0xbc86a401	-0.016435625
59	0x3c060f1e	0.008182315
60	0xbdba5e26	-0.09099989
61	0x3caa137d	0.020761246
62	0xbd0e12e9	-0.034686003
63	0xbde19035	-0.110138334
64	0x3d86b442	0.0657735
65	0xbdbec401	-0.093147285
66	0xb8988a6f	-7.27371e-05
67	0x3d0385b2	0.032109924
68	0xbde4aff0	-0.1116637
69	0x3ddf5e82	0.10906698
70	0xbdb9c096	-0.09069936
71	0xbe014621	-0.12624408
72	0xbc9e32c9	-0.019311326
73	0x3c45647c	0.012047883
74	0xbd5c5162	-0.05378855
75	0x3dc3596b	0.095385395
76	0x3dbb1eec	0.09136757
77	0xbcc464b3	-0.023973798
78	0x3d88df8e	0.06683265
79	0xbdebd01d	-0.11514304
80	0xbbf7bddf	-0.007560476
81	0x3e034963	0.12820964
82	0x3dab03ed	0.08350358
83	0x3ceed053	0.029152071
84	0x3d9a4667	0.075329594
85	0xbcc0614f	-0.0234839
86	0xbdc54cec	-0.09633812
87	0x3d2bcb23	0.041941773
88	0xbd766096	-0.060150705
89	0xbdb7a7df	-0.08967566
90	0x3d26b1bd	0.04069685
91	0x3dcdbc37	0.10045665
92	0xbdeaa0ef	-0.11456477
93	0xbd9f3879	-0.07774443
94	0x3d192a0b	0.03739361
95	0x3ddd7d6c	0.10814938
96	0x3e047cf9	0.12938298
97	0x3c5fe121	0.013664515
98	0x3dd8b818	0.10581988
99	0xbdab6260	-0.08368373
100	0xbdb0f766	-0.086409375
101	0x3d986bbd	0.074424244
102	0xbda49bc5	-0.08037523
103	0x3dc47d13	0.095941685
104	0xbd4edb31	-0.050502006
105	0x3d1324a1	0.035923604
106	0xbc94074a	-0.018069882
107	0xbd6b39dc	-0.057428226
108	0x3cf61d10	0.030043155
109	0xbcf7f627	-0.030268742
110	0xbe02e096	-0.12780985
111	0xbc91bc37	-0.017789943
112	0x3c3d58de	0.011556832
113	0xbc326cfc	-0.010890242
114	0x3dfdcba4	0.12392357
115	0xbe001546	-0.12508115
116	0xbd7acba0	-0.06122935
117	0x3d9bda3a	0.07609983
118	0x3d6dbb6e	0.058040075
119	0xbd879e52	-0.06621994
120	0x3d9f51f9	0.07779307
121	0x3e2413bb	0.16023152
122	0xbd8c1750	-0.06840384
123	0x3dcb112b	0.09915384
124	0xbd10fa29	-0.03539482
125	0xbb57c60b	-0.003292444
126	0xbd636fd2	-0.055526562
127	0xbd10c7ba	-0.035346724
128	0x3d638b65	0.05555286
129	0xbe1ce026	-0.15319881
130	0xbc920e77	-0.017829163
131	0x3ca96318	0.020677134
132	0x3d8128f7	0.063066415
133	0x3d173a00	0.036920547
134	0xbdbd1db0	-0.09234178
135	0x3d8f21db	0.06988879
136	0xbdc4f81b	-0.09617635
137	0xbde7e080	-0.11322117
138	0xbd042614	-0.032262877
139	0x3e02795a	0.12741604
140	0xbd0de5aa	-0.034642853
141	0xbd46bc44	-0.048519388
142	0x3e434402	0.19068912
143	0x3e05fb96	0.13084254
144	0xbcc5c846	-0.02414335
145	0x3d92d013	0.07168593
146	0xbe4376b1	-0.19088246
147	0xbda55533	-0.08072891
148	0xbe511c76	-0.20421013
149	0xbe3bbb6b	-0.18333213
150	0xbddc6985	-0.10762314
151	0x3ccaef28	0.024772242
152	0x3e3a61e4	0.18201405
153	0xbe6da18e	-0.2320616
154	0x3d3bc54c	0.045842454
155	0xbe8857db	-0.26629528
156	0xbd4a9b1d	-0.049464334
157	0x3d01da22	0.03170217
158	0x3e06ca4b	0.13163106
159	0x3e106604	0.14101416
160	0xbe3324ce	-0.17494509
161	0xbd755f9e	-0.05990564
162	0x3c0476a5	0.008084928
163	0x3e030885	0.12796219
164	0xbca5a3ac	-0.020219646
165	0x3d9c1dc3	0.07622864
166	0x3e844528	0.25834012
167	0x3e2e9606	0.17049417
168	0xbc2b4bea	-0.010455111
169	0x3dd8c44e	0.10584317
170	0x3d83d839	0.064377256
171	0x3ca63dfe	0.020293232
172	0x3e61a118	0.22034109
173	0x3e0e90ab	0.13922374
174	0x3d97b2d1	0.074071534
175	0x3e55febe	0.20897958
176	0x3e30d51d	0.17268796
177	0x3dfe367d	0.124127366
178	0x3dc2e86b	0.095169865
179	0x3e06becf	0.13158725
180	0xbe714af9	-0.23563756
181	0xbc8832e4	-0.016625829
182	0x3d504fac	0.05085723
183	0x3c6cc2d0	0.014450744
184	0x3e6d9267	0.2320038
185	0x3da7266c	0.08161625
186	0xbe38b257	-0.18036781
187	0xbe5b5174	-0.2141779
188	0xbce32893	-0.027729308
189	0xbe81927e	-0.25307077
190	0x3e036e3c	0.1283502
191	0xbcea7765	-0.028621385
192	0xb963cdaa	-0.00021725023
193	0xbc4acaf2	-0.0123774875
194	0x3d6eb494	0.05827768
195	0x3df6e6ea	0.12055762
196	0xbdb67db9	-0.089106984
197	0x3dd2b5da	0.10288592
198	0xbc732435	-0.014840175
199	0xbd88f363	-0.06687047
200	0xbdfe41d1	-0.12414897
201	0xbd895c61	-0.06707073
202	0x3df3e109	0.119081564
203	0x3e20591c	0.15658993
204	0x3de58bd0	0.11208308
205	0xbcc44c47	-0.023962153
206	0x3db48134	0.08813706
207	0xbdeb63a5	-0.11493615
208	0xbd602821	-0.05472577
209	0xbdbc1588	-0.09183794
210	0xbe2308e3	-0.15921359
211	0xbd6ee8ca	-0.058327474
212	0x3d1f32a5	0.038866658
213	0xbda46788	-0.080275595
214	0x3cf9ad3e	0.030478116
215	0x3df87078	0.12130827
216	0xbdc48b67	-0.095969014
217	0x3d5febb5	0.054668147
218	0xbd11dae5	-0.035609145
219	0x3d500d11	0.05079371
220	0x3dd32e2a	0.103115395
221	0xbdb42eab	-0.08797964
222	0xbd944ab7	-0.07240813
223	0xbdd1a096	-0.102357075
224	0x3cb6f909	0.022335546
225	0x3e187a08	0.14890301
226	0xbcb88b2b	-0.022527298
227	0x3dadc41e	0.08484672
228	0x3e015ff4	0.1263426
229	0x3d6ffbec	0.05858986
230	0x3c5c9dfe	0.013465403
231	0x3dd262a0	0.102727175
232	0xbe047f23	-0.12939124
233	0xbc5fc952	-0.013658838
234	0x3d725cb2	0.059170432
235	0xbd0acda1	-0.03388751
236	0x3da31057	0.07962101
237	0x3db63db0	0.08898485
238	0xbdfba5c7	-0.12287479
239	0x3dfcdb10	0.1234647
240	0x3e24191e	0.16025206
241	0x3d091889	0.033470664
242	0xbe1fefc1	-0.15618803
243	0xbc9112b6	-0.017709117
244	0x3dcdfbb0	0.10057771
245	0xbdb4c2d5	-0.08826224
246	0xbd77fe8a	-0.06054548
247	0xbc324f2f	-0.010883137
248	0xbd14f1ce	-0.036363415
249	0x3dbe4af8	0.09291643
250	0xbd7a38f6	-0.06108948
251	0x3dbaaaa1	0.09114576
252	0xbd71c55b	-0.059026103
253	0xbdbcb557	-0.09214275
254	0x3cd78a19	0.026310967
255	0x3dda87fc	0.10670468

rnn.bias_ih_l1 f4 [256]
0	0x3c35def0	0.011100516
1	0xbe01198a	-0.12607399
2	0x3e44b987	0.19211398
3	0x3d8b1473	0.0679101
4	0xbd946e10	-0.07247555
5	0x3d88dfd3	0.06683316
6	0xbdd11f35	-0.102110304
7	0xbacbc302	-0.0015545788
8	0xbdc973e0	-0.098365545
9	0x3c20fe34	0.009826232
10	0x3d38803a	0.04504416
11	0xbc930520	-0.01794678
12	0xbdbcaf66	-0.09213142
13	0x3dcf11aa	0.10110791
14	0xbd8a568f	-0.06754791
15	0xbd955bfc	-0.07292935
16	0x3a420f44	0.00074027875
17	0xbd3e882c	-0.046516582
18	0x3e82dbff	0.2555847
19	0xbc9c68ab	-0.019092878
20	0xbbf6dbae	-0.007533512
21	0xbd866325	-0.06561879
22	0xbc705394	-0.014668364
23	0xbdb51ccc	-0.08843383
24	0x3de14438	0.1099934
25	0x3e2ae92d	0.16690512
26	0xbc86bb84	-0.016446836
27	0x3d95292e	0.07283245
28	0x3cb70631	0.02234182
29	0xbd5fa400	-0.054599762
30	0x3dca553a	0.09879537
31	0x3cf60923	0.030033654
32	0x3de006a4	0.109387666
33	0x3dfcfb0b	0.1235257
34	0x3d536ef7	0.051619496
35	0xbd326918	-0.043557256
36	0x3df0b06b	0.11752399
37	0x3dca4280	0.09875965
38	0x3d3484b1	0.044071857
39	0x3df0234c	0.11725482
40	0xbba6051b	-0.0050665266
41	0x3e244138	0.16040504
42	0xbacc722d	-0.0015597992
43	0xbde8f6c9	-0.113751955
44	0x3d015237	0.031572547
45	0x3e1d7ead	0.15380354
46	0xbcf2887d	-0.029606098
47	0x3d0e465e	0.034735076
48	0x3d969f17	0.07354563
49	0xbdc6b493	-0.097024105
50	0x3d6472be	0.05577349
51	0xbddbdfe5	-0.10736064
52	0x3df6a9bb	0.12044092
53	0xbd3a7a11	-0.045526568
54	0x3cda6512	0.026659522
55	0x3e169fd8	0.14709413
56	0x3d24cf2e	0.040236644
57	0x3cc3733c	0.023858659
58	0x3d451409	0.04811481
59	0x3da99e29	0.0828212
60	0x3d44c305	0.048037548
61	0x3d8b32da	0.067968085
62	0x3ccdc543	0.025118476
63	0xbc96e581	-0.018419983
64	0xbd6cc3fd	-0.057804096
65	0x3d27831e	0.040896527
66	0xbdbc461f	-0.09193062
67	0x3c19f37f	0.009396433
68	0xbdc2c29e	-0.095097765
69	0xbdc334fb	-0.095315896
70	0x3cf72d65	0.030173013
71	0xbe01d07d	-0.12677188
72	0x3b822432	0.0039716
73	0xbe2a3dc8	-0.1662513
74	0xbd5e8610	-0.05432707
75	0xbcc7713a	-0.024345983
76	0x3cc05c70	0.023481578
77	0xbe231c7c	-0.15928835
78	0x3dd975b6	0.10618155
79	0xbdd2c24b	-0.10290965
80	0xbd4b1015	-0.049575884
81	0xbdb5784a	-0.08860834
82	0xbe8aa841	-0.27081493
83	0xbdc55fda	-0.09637423
84	0x3d645757	0.055747356
85	0x3d242e54	0.040083244
86	0xbd0c262d	-0.034216095
87	0xbdf76bb0	-0.12081087
88	0xbd662dbc	-0.05619596
89	0xbcbbc653	-0.022921717
90	0x3d196e3a	0.037458636
91	0xbd15bc62	-0.03655661
92	0xbbb2a87f	-0.005452215
93	0xbdfc5adc	-0.123220176
94	0x3c686528	0.014184274
95	0x3cf3f55d	0.029780084
96	0x3dabaf62	0.08383061
97	0xbe30995a	-0.17245999
98	0x3d5edf06	0.05441191
99	0xbdf1dc12	-0.11809553
100	0xbd3840d2	-0.044983692
101	0x3d7e71fa	0.062120415
102	0x3db48f9e	0.08816455
103	0x3d3893ac	0.045062706
104	0xbd28efdd	-0.041244376
105	0xbd257631	-0.04039592
106	0x3dc63dff	0.096797936
107	0xbdd8aa8e	-0.10579406
108	0x3cb70f6b	0.022346219
109	0x3c0ca8e4	0.008585189
110	0xbe3c067f	-0.18361853
111	0x3c488e94	0.0122410245
112	0xbc6ecc87	-0.01457513
113	0x3d265cf9	0.04061601
114	0x3cea6d02	0.028616432
115	0x3dce41f5	0.10071174
116	0x3cdc7858	0.026912853
117	0x3d30ee8c	0.043196246
118	0x3d0aa03f	0.03384423
119	0xbdc57da2	-0.09643103
120	0x3d7493bd	0.059711207
121	0xbe209a87	-0.15683948
122	0xbdad994d	-0.084765054
123	0x3ab1d8eb	0.0013568675
124	0x3dd06f52	0.10177483
125	0xbc9db57d	-0.01925158
126	0xbe19d34b	-0.15022008
127	0xbe15fb92	-0.14646748
128	0x3d75d733	0.060019683
129	0xbcb67650	-0.022273213
130	0x3dae931f	0.08524155
131	0x3d36681c	0.04453288
132	0x3c332228	0.010933436
133	0xbdb74b48	-0.08949906
134	0x3d28efb6	0.04124423
135	0xbc8d79f4	-0.017270066
136	0xbd9bc628	-0.07606155
137	0x3d98ad65	0.074549474
138	0xbdf29a1f	-0.118458025
139	0x3c0906da	0.00836345
140	0x3daec0e8	0.08532888
141	0x3d9f1c9d	0.077691294
142	0x3d7593bd	0.059955347
143	0x3cd66717	0.026172204
144	0x3d118461	0.035526637
145	0xbd1ad15a	-0.03779731
146	0x3d6c1a86	0.057642482
147	0xbcf5291e	-0.029926833
148	0xbc0e89f7	-0.008699886
149	0x3d95c3fd	0.073127724
150	0x3d97d87d	0.07414339
151	0x3dbe36a4	0.092877656
152	0x3d47edd3	0.04881079
153	0x3c826ac1	0.015920045
154	0x3dadefb9	0.08492989
155	0xbb0c8f33	-0.0021447658
156	0xbdbffd20	-0.09374452
157	0x3dd71894	0.10502735
158	0x3da750db	0.08169719
159	0x3dbafbf2	0.09130086
160	0xbdd948a5	-0.10609559
161	0xbd33cfa9	-0.043899212
162	0x3c27ddce	0.010245753
163	0x3da24bb5	0.07924596
164	0xbd1b2c21	-0.03788388
165	0x3df4cc15	0.11952988
166	0xbd29a13f	-0.041413542
167	0xbda55d24	-0.08074406
168	0xbd0e4a41	-0.034738783
169	0xbd60df05	-0.054900188
170	0x3db0fe73	0.08642282
171	0xbc15896f	-0.009127005
172	0x3d25be9c	0.040464982
173	0xbac9f4ef	-0.0015408079
174	0x3d65087c	0.055916294
175	0x3ddcd5d7	0.10782974
176	0x3dc73a77	0.09727948
177	0x3cb4b8d2	0.022060785
178	0x3d96e589	0.07367999
179	0x3dc6cc30	0.097069144
180	0xbd9048f4	-0.07045165
181	0x3b95d3b9	0.0045723584
182	0xbdac124a	-0.08401926
183	0x3c175a9a	0.00923791
184	0x3d96c359	0.07361478
185	0x3d148bb6	0.03626605
186	0xbd30fa30	-0.043207347
187	0xbd9295e2	-0.07157494
188	0xbda442ad	-0.0802053
189	0xbdbb0854	-0.09132448
190	0x3d7328e0	0.059365153
191	0x3d5565d0	0.05209905
192	0x3d134c6b	0.03596155
193	0xbdcb976f	-0.09940993
194	0x3d00600b	0.031341594
195	0xbdc87085	-0.097870864
196	0x3dd0fbca	0.10204275
197	0x3e04cf84	0.12969786
198	0x3cd9d80a	0.026592273
199	0xbde7eacb	-0.1132408
200	0x3cf22ddc	0.029562883
201	0xbdb92c06	-0.090416
202	0x3dd798ac	0.10527167
203	0x3d135c8e	0.03597694
204	0xbdbcd11b	-0.09219571
205	0x3d983b71	0.074332125
206	0xbccb7830	-0.024837583
207	0xbd9c5e1f	-0.0763514
208	0xbd7f395b	-0.062310558
209	0x3d67fe7b	0.056639176
210	0x3e2a4539	0.16627969
211	0x3d4a69f1	0.04941744
212	0xbda14ae8	-0.07875615
213	0x3c512836	0.012765935
214	0x3dcecf5d	0.10098145
215	0x3d29cf4c	0.04145746
216	0xbda17eaa	-0.078854874
217	0xbc159ce6	-0.009131646
218	0xbc86ee9c	-0.0164712
219	0x3dab7a68	0.083729565
220	0xbdc75635	-0.097332396
221	0xbda82bd5	-0.08211485
222	0xbde54d15	-0.11196343
223	0xbc9922dd	-0.018693382
224	0xbdfabc96	-0.12243001
225	0xbbafab33	-0.0053609847
226	0x3d9bbf02	0.07604791
227	0xbd8cf82a	-0.06883271
228	0xbdd21699	-0.102582164
229	0xbd7005f3	-0.058599424
230	0x3e0667ce	0.13125536
231	0xbcbb2b01	-0.022847654
232	0x3df46a80	0.11934376
233	0x3e200189	0.15625586
234	0x3deb6b2d	0.114950515
235	0xbd8dcce5	-0.06923846
236	0xbe086186	-0.13318452
237	0x3e189cdd	0.14903589
238	0x3d956b5a	0.07295866
239	0x3c8b4b5a	0.017003704
240	0x3d517a08	0.05114177
241	0xbd9bc277	-0.076054506
242	0x3de88bd1	0.11354793
243	0xbdbff1ba	-0.093722776
244	0x3decc078	0.11560148
245	0x3df70816	0.12062089
246	0x3d8b6849	0.06807
247	0x3dcb4f00	0.099271774
248	0x3ce327e0	0.027728975
249	0x3db7eb02	0.08980371
250	0xbdc37754	-0.095442444
251	0xbd58e301	-0.052950863
252	0x3c48b567	0.012250281
253	0x3dc0e7ee	0.09419237
254	0x3d749b28	0.05971828
255	0x3e07d119	0.13263358
