data/results/lstm_regime_BTC_r15d_r6_wNone.pt (torch, 221861 bytes, 9 tensors)

rnn.weight_ih_l0 f4 [256, 16]
0	0xbcf2717b	-0.029595127
1	0x3d542163	0.051789653
2	0xbdf5cebf	-0.12002324
3	0x3dc7f766	0.097639844
4	0xbd83b72b	-0.06431421
5	0x3e3f6aad	0.18693037
6	0xbd91e6e3	-0.07124116
7	0x3c2792c7	0.010227866
8	0x3d9353da	0.07193728
9	0x3d260bc4	0.040538564
10	0x3e0dc6fc	0.13845438
11	0xbcedfa98	-0.029050156
12	0xbe145848	-0.14486802
13	0x3d0d032d	0.034426857
14	0x3d3a3924	0.04546465
15	0x3daa0ef4	0.08303633
16	0xbe8a6157	-0.2702739
17	0xbe62ebed	-0.22160311
18	0xbdeea025	-0.11651639
19	0x3d0f35b7	0.034963336
20	0xbd9afdad	-0.07567916
21	0xbe6da633	-0.23207931
22	0xbb109da1	-0.002206661
23	0x3d91a641	0.071117885
24	0x3cf86c7c	0.030325167
25	0xbe10307c	-0.14080995
26	0x3c312e3f	0.010814249
27	0x3d8d28fd	0.068925835
28	0x3e144e82	0.14483073
29	0x3c4a2a4b	0.012339185
30	0x3d94bb69	0.07262308
31	0xbcc76c08	-0.024343506
32	0xbde6a6ba	-0.11262269
33	0x3b9d12dd	0.0047935084
34	0x3be50f36	0.0069903387
35	0x3e05834d	0.13038369
36	0xbe4c6071	-0.19958664
37	0xbc7d33dd	-0.01545426
38	0xbb823df0	-0.0039746687
39	0x3cbf6326	0.023362707
40	0x3ce58167	0.028015805
41	0xbda5d30e	-0.08096896
42	0xbd05d31f	-0.032672044
43	0x3cbf0d55	0.023321787
44	0x3de16a11	0.11006559
45	0xbd91db73	-0.07121935
46	0xbd39b637	-0.04533979
47	0x3cf1bfba	0.029510368
48	0x3e97deb7	0.29662105
49	0x3d9adf42	0.07562114
50	0x3d88542c	0.066566795
51	0xbd4d6ee2	-0.050154574
52	0x3e261187	0.16217624
53	0x3d1d4b88	0.03840211
54	0x3e04db78	0.12974346
55	0x3d68da56	0.056848846
56	0xbdcc3422	-0.09970881
57	0x3ddd3f2a	0.10803063
58	0x3e09e152	0.13464859
59	0x3da61ba7	0.08110743
60	0xbe03daba	-0.12876406
61	0xbc31de2d	-0.0108561935
62	0x3e638285	0.22217758
63	0x3cc38246	0.02386583
64	0x3e26f8e2	0.16305879
65	0x3c75ab56	0.014994463
66	0xbdba793a	-0.091051534
67	0x3ca86f23	0.020560807
68	0xbd1a133a	-0.037615992
69	0x3e273a87	0.1633092
70	0x3e217f7a	0.15771285
71	0xbe0255b0	-0.12728
72	0x3dc56ab6	0.09639494
73	0xbe03ff4d	-0.12890358
74	0x3d4b041f	0.049564477
75	0x3d11b567	0.03557339
76	0xbe273f27	-0.16332684
77	0xbe073d26	-0.1320692
78	0x3d78f387	0.06077912
79	0xbd8842f2	-0.06653394
80	0xbe00f2d7	-0.12592636
81	0x3d25fb4d	0.040522862
82	0xbdcf23d9	-0.10114259
83	0xbdb5c7f2	-0.08876027
84	0xbd84321f	-0.06454872
85	0x3d70dc25	0.058803696
86	0xbb53cbfe	-0.0032317634
87	0xbd4859b3	-0.04891367
88	0xbd44a988	-0.04801324
89	0xbd7c4375	-0.06158777
90	0x3c1fd920	0.0097563565
91	0xbe208d7c	-0.15678972
92	0x3bc8955f	0.006121322
93	0xbe1978ac	-0.14987439
94	0x3bc3c832	0.005974793
95	0xbdbedca8	-0.093194306
96	0x3d60a63d	0.054846037
97	0xbd8c6fac	-0.06857237
98	0xbcb75fb0	-0.022384495
99	0xbc4ef812	-0.012632387
100	0x3b8c17d8	0.0042753033
101	0x3c014449	0.007889816
102	0xbddb1e41	-0.1069913
103	0xbe059d8e	-0.13048384
104	0xbd97cb01	-0.07411767
105	0x3de0c59e	0.109751925
106	0xbdbfb2fc	-0.093603104
107	0x3cee8535	0.029116252
108	0xbe18f2e3	-0.14936404
109	0x3e2a0df7	0.1660689
110	0x3cd19528	0.025583819
111	0x3d3abe54	0.045591667
112	0xbe8cb874	-0.27484477
113	0x3da0db5e	0.07854341
114	0xbcf8a706	-0.03035308
115	0x3e08e6c0	0.13369274
116	0xbe1dd1be	-0.15412042
117	0xbe6592f1	-0.22419335
118	0xbd937c7a	-0.072014764
119	0xbdb00789	-0.08595187
120	0xbcc374b1	-0.023859354
121	0xbe0fa091	-0.14026095
122	0xbced0538	-0.028933153
123	0x3d700479	0.058598015
124	0xbb06e33d	-0.0020582222
125	0x3e0d2aea	0.13785902
126	0xbde0e87a	-0.109818414
127	0x3e19c41d	0.15016218
128	0x3d5d54be	0.054035895
129	0x3da7a9df	0.08186697
130	0x3ed3a571	0.4133716
131	0x3de62c12	0.112388745
132	0xbe26a6a5	-0.16274507
133	0xbd948c90	-0.07253373
134	0x3ccb3152	0.024803791
135	0x3db55b2c	0.0885528
136	0xbc9449b6	-0.018101554
137	0xbde6b188	-0.1126433
138	0xbe0c66c7	-0.13711081
139	0xbcec2809	-0.028827684
140	0x3d72a6b4	0.05924101
141	0x3e61dc66	0.22056732
142	0xbe735a37	-0.23764883
143	0xbd2a94ae	-0.0416457
144	0x3cafea04	0.021473892
145	0xbdb4a9b0	-0.08821428
146	0xbe0fb96d	-0.14035578
147	0x3cf70065	0.030151555
148	0xbe00f674	-0.12594014
149	0x3e3e8210	0.18604302
150	0x3c438b42	0.011935057
151	0xbdac7570	-0.08420837
152	0x3e10cbd7	0.14140259
153	0xbde6d412	-0.11270918
154	0x3defc7cf	0.11708032
155	0xbd5e91e6	-0.05433836
156	0xbd0c19f9	-0.034204457
157	0x3e7e0860	0.24807882
158	0xbe508a49	-0.20365252
159	0x3e3c70d9	0.18402423
160	0xbdfdfd02	-0.12401773
161	0xbd8835e7	-0.06650906
162	0x3dbf57b1	0.09342898
163	0xbcd783ae	-0.026307907
164	0x3d537de8	0.051633745
165	0x3dc1e9c9	0.09468419
166	0xbcf60188	-0.030030027
167	0x3e1aed0f	0.15129493
168	0xbcd8a161	-0.026444139
169	0xbdca964a	-0.098919466
170	0xbe177191	-0.14789416
171	0xbe20288c	-0.15640467
172	0xbdcffad0	-0.101552606
173	0x3d88c354	0.06677881
174	0x3d959852	0.073044434
175	0x3da12539	0.07868428
176	0x3d7ff044	0.062484995
177	0xbd45eea7	-0.0483233
178	0x3e88dab2	0.2672935
179	0x3d33de9c	0.04391347
180	0xbe3b4415	-0.1828769
181	0xbd0962bf	-0.033541437
182	0x3d7d76ee	0.061881
183	0xbdfb6e24	-0.12276867
184	0x3cd2f157	0.025749845
185	0xbebd3bc3	-0.36959657
186	0xbde936b9	-0.11387391
187	0xbc87c316	-0.016572516
188	0x3d844e8d	0.06460295
189	0x3d744052	0.059631653
190	0xbe9eed3d	-0.31040373
191	0x3e0369b1	0.12833287
192	0x3c40f7dd	0.011777845
193	0xbe1d8945	-0.15384395
194	0xbe30a80d	-0.17251606
195	0xbe7d2a62	-0.24723199
196	0x3e8cc7e7	0.27496263
197	0x3e631e78	0.22179592
198	0x3c565363	0.013081404
199	0x3e2cb315	0.1686519
200	0xbdb2b2f3	-0.08725538
201	0x3e5ce7ac	0.21572751
202	0x3c884d99	0.016638564
203	0x3d973ca7	0.073846154
204	0x3df01019	0.117218204
205	0xbe38f3fc	-0.18061823
206	0x3df32db8	0.118739545
207	0xbcde8962	-0.027165119
208	0x3d35a070	0.04434246
209	0x3df3545b	0.11881324
210	0xbe245c62	-0.16050866
211	0x3c9ad9cd	0.018902684
212	0xbe8260e9	-0.25464562
213	0x3954dd64	0.0002030037
214	0x3d2bc3df	0.041934844
215	0xbd87086b	-0.065934025
216	0x3e4ad5f7	0.19808184
217	0xbdd35705	-0.10319332
218	0xbd034208	-0.032045394
219	0xbe3ca275	-0.18421347
220	0xbe1a1353	-0.15046434
221	0x3e17471d	0.14773221
222	0xbe41d33f	-0.1892824
223	0x3cb2b52b	0.021814903
224	0x3da9038c	0.0825263
225	0xbdf34e07	-0.11880117
226	0xbdbd8108	-0.092531264
227	0x3d663150	0.05619937
228	0xbdf9e318	-0.12201518
229	0x3e1a780f	0.15084861
230	0xbe0e1895	-0.13876565
231	0xbe1a2bf3	-0.15055828
232	0x3e2d0fa5	0.16900499
233	0xbdcaa839	-0.09895367
234	0xbc9c06c0	-0.019046187
235	0xbd89cf8b	-0.06729039
236	0xbc5dbaab	-0.013533275
237	0xbd819b68	-0.063284695
238	0xbbb08a3a	-0.0053875716
239	0xbd5148b7	-0.051094737
240	0xbd722c0d	-0.05912404
241	0x3da3e60a	0.08002861
242	0xbdbb20b2	-0.091370955
243	0x3d1d7016	0.03843697
244	0xbe531163	-0.20612101
245	0xbe74ccf4	-0.23906308
246	0xbe02ad6d	-0.12761469
247	0xbda384a5	-0.07984284
248	0xbe22e0b0	-0.15906024
249	0xbd5eab89	-0.054362807
250	0xbd91129d	-0.07083628
251	0x3d427187	0.04747155
252	0xbc91974f	-0.017772345
253	0xbd460254	-0.048342064
254	0xbe143d63	-0.14476542
255	0xbd46db6e	-0.04854911

rnn.weight_hh_l0 f4 [256, 64]
0	0xbdae02a6	-0.08496599
1	0x39b4911d	0.00034440393
2	0x3d7de5c2	0.061986692
3	0x3dc13ee7	0.09435826
4	0xbdb410f6	-0.087922975
5	0xbdabd77d	-0.083907105
6	0x3c4c3a7d	0.012465117
7	0x3e058933	0.13040619
8	0x3b35efe5	0.0027761396
9	0x3d187801	0.03722382
10	0xbc161d4b	-0.009162257
11	0x3d923704	0.071394
12	0x3d7e3a39	0.062067244
13	0xbcf2aa51	-0.029622229
14	0xbd14235c	-0.036166534
15	0xbbee00eb	-0.007263293
16	0x3d9d6a87	0.07686334
17	0x3d6cba38	0.05779478
18	0xbc40f92e	-0.011778159
19	0x3d0cfebe	0.03442263
20	0x3d26c513	0.04071529
21	0x3d0bb9e9	0.034112845
22	0x3d695e5b	0.05697475
23	0x3dd63cce	0.10460816
24	0x3d9fb517	0.07798212
25	0xbda54c95	-0.080712475
26	0x3d2a06f3	0.041510534
27	0x3e08d833	0.13363723
28	0x3d4264b3	0.047459316
29	0xbd74ac8d	-0.05973487
30	0xbd0256b6	-0.031820975
31	0x3ddfd763	0.10929754
32	0xbe14baf0	-0.14524436
33	0x3d5db513	0.054127764
34	0x3d32d683	0.043661606
35	0x3d5a0306	0.05322554
36	0x3d2f5528	0.04280582
37	0x3df6915d	0.120394446
38	0x3dcb9df5	0.09942237
39	0xbe08c981	-0.13358118
40	0xbd3b1793	-0.04567678
41	0x3d37cb42	0.044871576
42	0xbda4631c	-0.08026716
43	0x3d368f3c	0.044570193
44	0x3d198bd9	0.037486885
45	0xbca6c0e5	-0.020355651
46	0xbde22508	-0.110422194
47	0xbdde4a72	-0.10854043
48	0x3dcc29f8	0.099689424
49	0x3debe050	0.115173936
50	0xbd8b3dfb	-0.06798931
51	0x3d0eb2c6	0.03483846
52	0x3d5c7f1a	0.05383215
53	0x3cbf559d	0.023356253
54	0x3e081ba7	0.13291799
55	0xbd94e112	-0.07269491
56	0x3d2c2cc8	0.042034894
57	0xbd839faa	-0.06426938
58	0x3d914909	0.070940085
59	0xbdaa296a	-0.0830868
60	0x3e087af7	0.13328157
61	0xbc7b0f80	-0.01532352
62	0x3e0d1a5f	0.13779591
63	0xbc986747	-0.018603934
64	0xbd7ca5a0	-0.06168139
65	0xbce3aa6b	-0.027791223
66	0x3d39cb71	0.045360032
67	0x3d6b7e92	0.057493754
68	0x3d6b34b3	0.057423305
69	0x3d530922	0.05152238
70	0xbd31cf9d	-0.043410886
71	0xbcfa05a4	-0.030520268
72	0xbb53dc28	-0.0032327268
73	0xbdca6083	-0.098816894
74	0x3d8271fb	0.06369396
75	0xbdd36669	-0.103222676
76	0xbd07ae1c	-0.033125028
77	0xbd96a121	-0.07354952
78	0x3e3dba42	0.18528083
79	0xbdb1ea33	-0.08687248
80	0xbd2c47e6	-0.042060755
81	0xbd935b65	-0.071951665
82	0x3c79a753	0.015237647
83	0xbd022db1	-0.031781856
84	0xbc1f7b00	-0.009733915
85	0x3d82b029	0.06381256
86	0x3df4f019	0.119598575
87	0xbda617f4	-0.081100374
88	0xbc5fbba1	-0.013655574
89	0xbe0032b7	-0.12519346
90	0xbe02bd64	-0.1276756
91	0x3c7fc492	0.015610831
92	0xbd666013	-0.056243967
93	0xbaab659e	-0.0013076549
94	0xbb4d17a4	-0.0031294608
95	0xbda3b1e2	-0.07992913
96	0xbd36101f	-0.044448968
97	0x3e0363e5	0.12831075
98	0xbd8afb05	-0.067861594
99	0xbd69f975	-0.057122666
100	0x3dce367e	0.10068987
101	0x3db8c2cb	0.09021529
102	0xbe0c47ef	-0.13699315
103	0x3dee2a97	0.11629217
104	0xbc80d897	-0.015728278
105	0xbc7dbf50	-0.015487507
106	0xbc576669	-0.013146975
107	0xbe428452	-0.18995789
108	0x3d0437dc	0.032279834
109	0xbd4b62ac	-0.049654648
110	0xbcef3cbc	-0.029203765
111	0x3dd637ad	0.10459838
112	0x3d88d0bb	0.06680437
113	0xbe12a026	-0.14318904
114	0x3de7c93d	0.1131768
115	0xbce79471	-0.028269025
116	0xbda0de8f	-0.0785495
117	0x3d4bcfa0	0.049758554
118	0xbda4e630	-0.08051717
119	0xbd41be95	-0.047300894
120	0x3daf9de5	0.08575038
121	0xbd970907	-0.07374769
122	0x3d1a4da5	0.037671704
123	0x3dce8814	0.100845486
124	0x3dedcbc8	0.11611134
125	0xbd08752d	-0.033314873
126	0xbd029adf	-0.031885978
127	0x3d90b97a	0.07066627
128	0xbda9b91a	-0.082872584
129	0xbd0b8df4	-0.034070924
130	0x3b891940	0.0041839182
131	0x3da2b54a	0.079447344
132	0xbe0c2c8d	-0.1368887
133	0x3bcfcacb	0.0063413135
134	0xbd72e451	-0.05929977
135	0x3d6d68e7	0.05796137
136	0xbb80337f	-0.003912389
137	0x3dd6cb26	0.10487966
138	0xbd82fd2b	-0.06395944
139	0xbd135408	-0.03596881
140	0xbdbd9719	-0.09257335
141	0xbcaf97b3	-0.02143464
142	0xbc68dcbd	-0.014212784
143	0x3d671954	0.05642064
144	0xbd9582ae	-0.07300316
145	0x3d45e5b6	0.048314773
146	0x3da12fea	0.07870467
147	0x3d0d771f	0.03453743
148	0x3d07c547	0.033147123
149	0xbd3144dd	-0.043278564
150	0x3e1008ad	0.1406581
151	0xbe01027c	-0.12598604
152	0xbdf371e2	-0.11886956
153	0xb9049a70	-0.00012646033
154	0x3ca7df9d	0.02049237
155	0xbd1e863c	-0.038702235
156	0xbd886838	-0.06660503
157	0xbc53193a	-0.012884432
158	0x3b9bb477	0.0047517377
159	0x3c720725	0.014772211
160	0xbcb7f5d1	-0.022456082
161	0x3d8b8b83	0.06813719
162	0x3deaddd0	0.114680886
163	0xbcb7d1d3	-0.02243892
164	0xb964e648	-0.00021829561
165	0x3da24535	0.079233564
166	0xbb8eabac	-0.004353961
167	0xbd981ccf	-0.0742737
168	0x3d141a04	0.036157623
169	0xbde0a6e1	-0.109693296
170	0x3d9339ba	0.07188745
171	0xbd69cbd1	-0.05707914
172	0xbc70b295	-0.014691015
173	0x3c9e3cc7	0.01931609
174	0xbd35f4d8	-0.044422954
175	0x3c6c36fc	0.014417406
176	0x3c130305	0.008972888
177	0xbdab9ad5	-0.08379141
178	0x3d61f8b3	0.05516882
179	0x3bf9f177	0.007627662
180	0x3d25f48c	0.04051642
181	0xbe024db2	-0.12724951
182	0x3c1177a1	0.008878619
183	0xbd1a1d77	-0.037625756
184	0xbb39e1f5	-0.002836344
185	0xbd64e8d0	-0.05588609
186	0xbd898d62	-0.0671642
187	0x3d6e1624	0.058126584
188	0x3ce68383	0.028138882
189	0x3cdc887d	0.026920551
190	0x3d1f2377	0.03885218
191	0x3c53ef72	0.012935506
192	0x3d818e1d	0.06325934
193	0xbd8cccc2	-0.06874992
194	0xbddfde68	-0.109310925
195	0x3cfabb0b	0.030606767
196	0x3d801ab5	0.06255094
197	0xbd87e33d	-0.06635139
198	0xbdf74805	-0.120742835
199	0x3d6cbb7b	0.057795983
200	0xbe2c0e50	-0.16802335
201	0xbe2a6216	-0.1663898
202	0xbdce2b38	-0.10066837
203	0x3e46dfa4	0.1942125
204	0xbda36135	-0.07977525
205	0x3cd9465c	0.026522808
206	0xbd3e7531	-0.04649848
207	0x3bb90fb1	0.0056476225
208	0xbe5f16ac	-0.21785992
209	0x3e014471	0.12623765
210	0xbe20a060	-0.15686178
211	0x3bfb6ba3	0.0076727434
212	0xbc1ef84a	-0.009702751
213	0x3b213c3f	0.002460256
214	0x3d4e94c6	0.05043485
215	0xbde46562	-0.1115215
216	0xbd2cee64	-0.042219535
217	0x3d836db0	0.064174056
218	0x3be24111	0.006904729
219	0xbd1220de	-0.035675876
220	0x3d8b41f8	0.06799692
221	0x3cbdbdb3	0.023161745
222	0x3d9bcfc2	0.07607986
223	0x3ca0d01c	0.019630484
224	0x3e06e232	0.13172224
225	0x3d137866	0.036003493
226	0xbd795287	-0.06086972
227	0xbdb95e08	-0.09051138
228	0xbe64ffb3	-0.22363167
229	0xbe01d425	-0.12678583
230	0x3cd57155	0.026055017
231	0x3dca0923	0.09865024
232	0x3c99af15	0.018760243
233	0xbd2dccf2	-0.04243178
234	0xbd15d9b1	-0.03658456
235	0x3dd82ee6	0.1055582
236	0xbdef8fa6	-0.11697321
237	0x3d98ac46	0.074547336
238	0x3ddc561c	0.107586116
239	0xbd29bd34	-0.041440204
240	0x3d621883	0.055199157
241	0x3c90ecc0	0.017691016
242	0x3bd3663e	0.006451397
243	0xbd941297	-0.07230108
244	0xbd6e23e3	-0.058139693
245	0xbd46c5a3	-0.048528325
246	0xbd2ae9b0	-0.041726768
247	0x3d871ec5	0.06597666
248	0xbe1abf23	-0.15111975
249	0x3d8a4d6a	0.06753047
250	0xbe0a6fb0	-0.13519168
251	0x3d48952e	0.048970394
252	0xbd0cc822	-0.03437055
253	0x3d0a48d6	0.033760868
254	0x3d6cdc45	0.057827253
255	0xbdb08627	-0.086193375

rnn.bias_ih_l0 f4 [256]
0	0x3cd1d88e	0.025615957
1	0x3d25214f	0.04031497
2	0x3cd445f9	0.025912272
3	0xbd53be40	-0.05169511
4	0x3d11cffe	0.035598747
5	0xbd6b81e3	-0.057496917
6	0x3d69e278	0.057100743
7	0xbce214d7	-0.027597828
8	0xbd8298fd	-0.063768364
9	0x3e481bef	0.19541906
10	0xbe0163be	-0.12635705
11	0x3d5510d7	0.052018013
12	0xbb8fde6e	-0.0043905294
13	0xbdc86d68	-0.097864926
14	0x3cf8f73e	0.030391332
15	0x3d49aaef	0.04923528
16	0x3dbe4294	0.092900425
17	0x3dea80cc	0.11450347
18	0xbaae58e0	-0.0013301633
19	0xbdd57d1f	-0.104242556
20	0x3e2d5b11	0.1692927
21	0x3d8ac5e6	0.067760274
22	0xbd5117f2	-0.051048227
23	0xbdfc0251	-0.12305129
24	0x3dd15a55	0.102223076
25	0xbdd26072	-0.10272302
26	0x3e0a6ecc	0.13518828
27	0x3d8f0ae2	0.069844976
28	0xbd1867ca	-0.037208356
29	0x3e13e110	0.14441323
30	0x3ea8f4f0	0.32999372
31	0x3e4f1662	0.20223382
32	0xbdb56af1	-0.08858288
33	0xbd572dc8	-0.052533895
34	0xbc8d93e7	-0.01728244
35	0x3c293571	0.010327683
36	0x3e4057f7	0.18783556
37	0x3ddea7d6	0.10871856
38	0xbc3dde57	-0.0115886545
39	0x3df2f631	0.118633635
40	0x3dd9e586	0.10639481
41	0xbdb47fd2	-0.08813442
42	0x3d5001c2	0.050782926
43	0x3dc5acda	0.096521094
44	0x3d8a195e	0.0674312
45	0xbdeed2b9	-0.11661286
46	0x3e0aa2d6	0.1353868
47	0x3dd7ef86	0.10543732
48	0xbdf36b45	-0.118856944
49	0x3ccbab5f	0.02486199
50	0xbe04a162	-0.12952188
51	0xbdf863e6	-0.12128429
52	0xbda01d4b	-0.07818087
53	0x3da22b6e	0.0791844
54	0x3d3d3ada	0.046198703
55	0x3d742c81	0.059612755
56	0x3c852970	0.01625511
57	0x3ccde0a4	0.025131531
58	0x3e1c0721	0.15237094
59	0x3dd1be3c	0.102413625
60	0x3cf032f4	0.029321171
61	0x3d900d1b	0.0703375
62	0x3dd4cbe2	0.1039045
63	0x3eb4e3d7	0.35330078
64	0xbd8e1a60	-0.069386244
65	0x3ce4bbcf	0.027921585
66	0x3d9461d7	0.07245224
67	0xbc61e0dc	-0.013786521
68	0x3d364a18	0.044504255
69	0xbdec59d8	-0.11540574
70	0x3d6db8e6	0.05803766
71	0xbd94fcdc	-0.072747916
72	0xbdebc85c	-0.11512825
73	0xbd214543	-0.039372694
74	0x3d7c1ee6	0.061552905
75	0x3e128748	0.14309418
76	0xb8f45178	-0.000116500014
77	0xbd52a0ca	-0.05142287
78	0xbc6d861c	-0.014497306
79	0x3d38727b	0.045031052
80	0xbe0b4473	-0.1360033
81	0x3df2b232	0.11850394
82	0xbc8802bc	-0.016602866
83	0xbddadedb	-0.106870376
84	0xbd9e7353	-0.0773684
85	0x3dcde006	0.10052495
86	0xbd826157	-0.06366222
87	0x3d02b197	0.031907644
88	0x3d3a607b	0.045502167
89	0xbdf658e6	-0.12028675
90	0xbc9cbb6a	-0.019132335
91	0x3d0c0d56	0.034192406
92	0xbd2ec0f4	-0.042664483
93	0x3dd28041	0.10278369
94	0xbda9b279	-0.08285994
95	0xbda3c834	-0.0799717
96	0xbdfe5110	-0.12417805
97	0xbd258310	-0.040408194
98	0x3d7604f0	0.060063303
99	0xbca2159b	-0.019785693
100	0xbc264fae	-0.010150833
101	0xbd787db1	-0.060666744
102	0x3c477c5f	0.0121756485
103	0xbd5266d5	-0.0513676
104	0xbde2a4a8	-0.11066562
105	0xbc9346d0	-0.017978102
106	0x3c224400	0.009903908
107	0xbd9aef73	-0.075652026
108	0x3bb571f9	0.0055372682
109	0x3d8d0a71	0.06886757
110	0x3d88d40c	0.0668107
111	0xbd0b2849	-0.033973966
112	0xbdea89e6	-0.11452083
113	0xbdf735c7	-0.12070804
114	0xbe0a21b1	-0.13489415
115	0x3deb7c8b	0.11498364
116	0xbd231d3f	-0.039822813
117	0x3ddd2983	0.10798933
118	0x3dc4972e	0.09599148
119	0xbda45e55	-0.08025805
120	0x3d2ae3f8	0.041721314
121	0xbcd1953c	-0.025583856
122	0x3c57e836	0.013177922
123	0x3de3316c	0.11093411
124	0x3c43dbc2	0.01195425
125	0xbcd029e8	-0.025410607
126	0xbdbc397e	-0.09190653
127	0xbd21b162	-0.039475806
128	0xbd5d0e01	-0.053968433
129	0x3d663bed	0.056209493
130	0x3d9faa88	0.07796198
131	0x3d65d0c2	0.05610729
132	0xbc2dd655	-0.010610183
133	0x3d6a4f55	0.057204563
134	0xbd2c7d62	-0.042111762
135	0xbc8ec5dc	-0.017428331
136	0xbe023623	-0.12715964
137	0x3cd5ae4f	0.026084093
138	0xbc816828	-0.015796736
139	0x3df95dc5	0.12176088
140	0xbda3f436	-0.08005564
141	0xbda6569b	-0.081219874
142	0xbda6469c	-0.081189364
143	0xbb9146a2	-0.004433469
144	0xbdf0756e	-0.11741148
145	0xbbf9ac06	-0.0076193837
146	0xbdc32757	-0.09528988
147	0x3e043d85	0.12914093
148	0x3da3ae6f	0.07992255
149	0xbb0243e5	-0.0019876894
150	0x3d891d18	0.06695002
151	0x3d8a385f	0.06749033
152	0xbcd5d9f1	-0.0261049
153	0x3c3ea9f9	0.011637204
154	0xbdb2d08c	-0.087311834
155	0xbd71785f	-0.058952685
156	0xbadc3970	-0.0016801786
157	0x3c1e2257	0.009651742
158	0xbb8084b9	-0.003922072
159	0xbd023a74	-0.031794026
160	0x3da9c60f	0.0828973
161	0xbc70b63f	-0.014691888
162	0xbdba46f6	-0.09095566
163	0x3dd54ce0	0.10415053
164	0x3d82f732	0.06394805
165	0x3da71517	0.081583194
166	0x3d117b56	0.035518013
167	0x3b05b8d8	0.0020404365
168	0x38a3afc2	7.805183e-05
169	0xbd65c0b1	-0.056091968
170	0x3dc1a1b0	0.094546676
171	0xb9c40687	-0.00037388896
172	0xbd5ca081	-0.053864006
173	0xbca187db	-0.019718101
174	0x3d7318cf	0.05934983
175	0x3dceb63f	0.100933544
176	0x3d489a45	0.048975248
177	0xbdec22cf	-0.11530077
178	0xbdc12bef	-0.09432208
179	0xbd8dcc54	-0.06923738
180	0x3dde94e2	0.10868241
181	0xbd560499	-0.05225048
182	0xbd2b1f72	-0.041778035
183	0xbcfd058f	-0.03088644
184	0x3d239e19	0.039945696
185	0xbcd83971	-0.026394578
186	0x3d73e0aa	0.05954043
187	0x3da48020	0.080322504
188	0xbd335927	-0.043786194
189	0xbc2f8adc	-0.010714259
190	0x3be8c6f7	0.0071037966
191	0x3c4d19a7	0.012518323
192	0x3db04889	0.08607585
193	0x3dac2c40	0.084068775
194	0x3d622f48	0.055220872
195	0x3d11392b	0.03545491
196	0xbde91223	-0.113804124
197	0xbdc580c9	-0.096437044
198	0x3dee0f1d	0.116239764
199	0xbc1821fc	-0.009285446
200	0xba099b82	-0.0005249308
201	0x3eb7c4b7	0.3589227
202	0x3c8dd7f2	0.017314885
203	0x3d95c027	0.07312041
204	0x3dbe7ffb	0.09301754
205	0xbd552acb	-0.052042764
206	0x3e048105	0.12939842
207	0x3d981ed6	0.074277565
208	0xbcb8debc	-0.022567146
209	0x3e0a7cce	0.13524172
210	0x3cb0417f	0.021515606
211	0x3dac914d	0.084261514
212	0x3cde82c4	0.027161963
213	0xbcd733dc	-0.026269846
214	0x3d17ad3f	0.037030455
215	0x3d85233d	0.06500862
216	0x3d1c9a8b	0.03823332
217	0x3df375d5	0.11887709
218	0x3dfa46a3	0.12220504
219	0x3d627730	0.055289447
220	0x3d466f8a	0.048446216
221	0x3d917a3b	0.07103392
222	0x3eae5db2	0.3405586
223	0x3e126cdd	0.1429934
224	0xbd5eb14a	-0.054368295
225	0x3c1a3040	0.009410918
226	0xbd1d28fb	-0.03836916
227	0x3d157288	0.03648618
228	0x3dc13f28	0.09435874
229	0x3e385c2a	0.18003908
230	0xbd7e8955	-0.06214269
231	0xbdc3a9f0	-0.095538974
232	0x3c25b5c6	0.010114139
233	0xbd40a40d	-0.04703145
234	0x3e1ac9ea	0.15116087
235	0x3dbb67f8	0.0915069
236	0xbd50b2cf	-0.050951775
237	0xbdf0a173	-0.11749544
238	0x3c4240f2	0.0118563045
239	0x3d6c245e	0.05765187
240	0xbd9e0fad	-0.07717834
241	0xbd232d18	-0.039837927
242	0x3da0aea0	0.07845807
243	0x3da97265	0.08273772
244	0xbde760cb	-0.11297759
245	0x3dd5110b	0.10403641
246	0x3d10da40	0.03536439
247	0xbca7f6d4	-0.020503439
248	0x3dfd557b	0.1236982
249	0x3df077db	0.117416106
250	0x3d6ff243	0.05858065
251	0xbdd11ab8	-0.10210174
252	0xbddc584a	-0.10759027
253	0xbc572107	-0.013130433
254	0xbcce65da	-0.025195051
255	0x3eb7b9eb	0.35884032

rnn.bias_hh_l0 f4 [256]
0	0x3db9a51c	0.09064695
1	0x3d1b890b	0.03797249
2	0xbdf40705	-0.11915401
3	0xbd4d44fa	-0.05011461
4	0xbdd45dee	-0.10369478
5	0x3cae261b	0.021258404
6	0x3df0da97	0.11760443
7	0x3da29668	0.07938844
8	0x3de06d4b	0.10958346
9	0x3e2422eb	0.16028945
10	0xbdfb760c	-0.12278375
11	0x3e294ee0	0.16533995
12	0x3d7be67c	0.061499104
13	0xbd056c6d	-0.032574106
14	0x3decdee9	0.11565954
15	0xbd91465e	-0.070934996
16	0x3cbabd38	0.022795305
17	0x3c7e5978	0.015524261
18	0x3c1be013	0.009513873
19	0xbd83e035	-0.064392485
20	0x3dc43739	0.095808454
21	0x3cb3faf8	0.021970257
22	0xbca7be19	-0.020476388
23	0xbdc8c6f9	-0.09803576
24	0xbd920ebf	-0.07131719
25	0xbd62b5c2	-0.05534912
26	0xbb33c393	-0.0027429804
27	0x3dda4651	0.10657943
28	0x3da5026a	0.08057101
29	0xbd546047	-0.05184963
30	0x3eadd2a4	0.3394977
31	0x3d3e87db	0.04651628
32	0xbe106f14	-0.14104873
33	0x3db8b181	0.09018231
34	0xbc98b5cd	-0.018641377
35	0x3d389f04	0.045073524
36	0x3e1a6c85	0.1508046
37	0x3e22cca9	0.15898384
38	0xbc9bbd5a	-0.019011188
39	0xbd204946	-0.03913238
40	0x3db8e429	0.09027893
41	0x3c3f16c5	0.0116631435
42	0xbd8e6ff8	-0.0695495
43	0x3d65255f	0.055943843
44	0x3d623fd3	0.05523665
45	0x3deacd09	0.114648886
46	0xbd8b0c1b	-0.06789418
47	0xbd2e9e90	-0.042631686
48	0x3dcb59c7	0.09929233
49	0xbdd597fa	-0.10429378
50	0xbd0394ac	-0.032124206
51	0xbb0cbbef	-0.0021474322
52	0x3c132b94	0.008982558
53	0x3ddd6554	0.108103424
54	0xbd195965	-0.03743877
55	0x3d9f92e1	0.07791687
56	0x3dc3afac	0.09554991
57	0x3dedffb7	0.11621039
58	0xbd17fda8	-0.03710714
59	0x3c396d13	0.011317509
60	0x3a061209	0.0005114382
61	0x3e1c0271	0.15235306
62	0xbd90c380	-0.07068539
63	0x3eb081c4	0.34474003
64	0xbd79bebc	-0.060972914
65	0xbd9ed3ba	-0.077552274
66	0xbdb1c6aa	-0.0868047
67	0xbdf86d95	-0.12130276
68	0x3cb09f34	0.021560289
69	0x3d298b99	0.041392896
70	0xbd0381d2	-0.03210623
71	0x3d86af40	0.06576395
72	0x3d78c480	0.060734272
73	0xbd72a591	-0.059239928
74	0xbd3cabbe	-0.046062224
75	0x3e099558	0.13435876
76	0xbdcf6c78	-0.10128111
77	0xbca20edf	-0.019782482
78	0xbcfa1994	-0.030529775
79	0x3e038b57	0.12846123
80	0xbd5be31a	-0.053683378
81	0xbd703c1a	-0.058651067
82	0xbda78975	-0.08180515
83	0x3cd573f4	0.026056267
84	0xbda444d9	-0.08020944
85	0x3cad5129	0.021156864
86	0xbdc6f265	-0.09714202
87	0x3c68d09d	0.0142098935
88	0x3d264579	0.040593598
89	0xbd1b5207	-0.037920024
90	0xbd4ac48f	-0.04950386
91	0x3d5b1456	0.05348619
92	0x3c6a49ca	0.014299819
93	0xbd895d9c	-0.06707308
94	0xbb7d3f8f	-0.003864262
95	0x3d06bff2	0.032897897
96	0x3d452f73	0.048140954
97	0x3d91b106	0.07113843
98	0xbdfffd37	-0.12499469
99	0xbdbac693	-0.09119906
100	0x3d7404fe	0.059575073
101	0xbd39bd33	-0.04534645
102	0xbe24fd70	-0.16112304
103	0xbe099684	-0.13436323
104	0xbda1f04c	-0.07907161
105	0xbd66a017	-0.056305017
106	0x3cc44bae	0.023961868
107	0xbd1aecf4	-0.037823632
108	0x3db59696	0.088666126
109	0x3c9329f8	0.017964348
110	0xbd674ba1	-0.05646861
111	0x3d99896a	0.07496913
112	0x3d3dfd1d	0.046383966
113	0x3c00c557	0.0078595495
114	0x3dc1aec7	0.09457164
115	0x3d861b45	0.0654817
116	0xbdabab7d	-0.08382318
117	0xbd5181ef	-0.051149305
118	0x3db9a4c2	0.09064628
119	0xbd7860f9	-0.060639355
120	0x3df7ebf2	0.1210555
121	0xbd1f12e4	-0.038836375
122	0xbd16e53d	-0.036839712
123	0x3c50fd34	0.012755681
124	0x3de220ac	0.11041388
125	0x3d330c62	0.04371298
126	0x3da45daa	0.080256775
127	0xbd3cd425	-0.046100754
128	0xbdfb9a5b	-0.122853
129	0xbd8fdd7a	-0.07024665
130	0xbce4e44b	-0.02794089
131	0x3d8ad9f6	0.06779854
132	0xbce20df8	-0.027594551
133	0x3d0cdc93	0.034390043
134	0x3dbae1a8	0.09125072
135	0x3dcc6099	0.09979362
136	0xbdc28343	-0.094976924
137	0xbd6b7ddc	-0.057493076
138	0xbdc387fe	-0.09547423
139	0x3d8481c5	0.06470064
140	0x3d50998c	0.050927684
141	0xbd27c3f6	-0.040958367
142	0x3dda8f38	0.10671848
143	0x3d09c43f	0.03363442
144	0xbdefbb56	-0.11705653
145	0xbdd4ca06	-0.103900954
146	0xbdb0c10d	-0.086305715
147	0xbd85929a	-0.06522103
148	0x3d467730	0.04845351
149	0x3dcb7f13	0.09936347
150	0x3d852795	0.0650169
151	0x3d50c05a	0.05096469
152	0xbc93f7d7	-0.018062515
153	0xbd94687d	-0.07246492
154	0x3d7a2de4	0.06107892
155	0xbba63255	-0.005071918
156	0xbde16c16	-0.11006944
157	0xbdb2a7eb	-0.08723434
158	0x3bba1add	0.005679472
159	0x3cf372f0	0.029717892
160	0x3e0d3e89	0.13793387
161	0x3d5bea05	0.053689975
162	0xbbe44393	-0.0069660633
163	0x3dd7a246	0.10528998
164	0x3d2d1c66	0.04226341
165	0xbd0446ca	-0.032294072
166	0x3d35bf5e	0.044371955
167	0xbc85b1c0	-0.01632011
168	0xbd0d7f1f	-0.03454506
169	0x3c8aebba	0.016958106
170	0xbd69d0d1	-0.05708391
171	0xbdaa2aef	-0.0830897
172	0xbcd74785	-0.02627922
173	0xbdb7c399	-0.08972854
174	0xbb7ba8f3	-0.0038400262
175	0xbd68c2f8	-0.05682656
176	0x3d2b3161	0.04179514
177	0x3da383c5	0.079841174
178	0xb70261a8	-7.771341e-06
179	0xba81304f	-0.0009856316
180	0x3c34ad97	0.011027715
181	0xbdd499ae	-0.103808746
182	0xbdab0dbe	-0.083522305
183	0xbc4529a3	-0.012033853
184	0x3b3dda24	0.0028969133
185	0x38f0f23a	0.0001148921
186	0xbd669058	-0.05629
187	0xbdb27f80	-0.08715725
188	0x3cbc88f7	0.023014529
189	0x3dac5dc5	0.084163226
190	0x3deaaef4	0.11459151
191	0xbda575e5	-0.08079127
192	0x3d0a51a1	0.033769254
193	0x3ced1a56	0.028943222
194	0xbcf60f4d	-0.030036593
195	0x3e055643	0.13021187
196	0x3d94fc55	0.07274691
197	0xbdd07707	-0.10178953
198	0xbd8a09b3	-0.06740131
199	0x3dc198d3	0.09452977
200	0x3c6c9538	0.014439873
201	0x3e2a628f	0.1663916
202	0x3d579512	0.0526324
203	0xbd52915c	-0.051408157
204	0x3d5d25e7	0.053991225
205	0xbc85e396	-0.016343873
206	0x3dbedf0c	0.093198866
207	0xbdf24df4	-0.11831275
208	0x3bf01352	0.007326522
209	0x3e09b710	0.13448739
210	0x3dcb0a77	0.099141054
211	0xbce823d5	-0.028337399
212	0xbc266cc3	-0.010157767
213	0x3d4cfa55	0.050043423
214	0x3ca81dea	0.020522077
215	0xbd59d115	-0.05317791
216	0xbd04c25f	-0.03241193
217	0x3c975b73	0.018476224
218	0xbbfa427b	-0.0076373196
219	0x3c7acc83	0.015307548
220	0x3db4bb94	0.0882484
221	0x3d39834e	0.045291238
222	0x3e88e5d2	0.2673784
223	0x3e2471c8	0.16059029
224	0xbc86a7b7	-0.016437395
225	0x3d9f924f	0.07791578
226	0x3c91d885	0.01780344
227	0x3da7e2ef	0.08197581
228	0x3df08042	0.11743213
229	0x3e0f46ac	0.13991803
230	0x3d8f45e5	0.06995753
231	0x3dab413e	0.08362053
232	0x3cf9b53f	0.030481933
233	0x3d3bec73	0.045879792
234	0xbd0e0def	-0.034681257
235	0xbceb78df	-0.02874416
236	0x3d30bed5	0.04315074
237	0x3ddba3cf	0.107246034
238	0x3cfd19dc	0.03089612
239	0x3db493fb	0.088172875
240	0xbddc31a9	-0.107516594
241	0x3dc31094	0.095246464
242	0xbde43762	-0.11143376
243	0xbca81e8c	-0.020522378
244	0x3d3c1e89	0.045927558
245	0x3e38c896	0.18045267
246	0x3dfbb64e	0.12290631
247	0xbd6abd42	-0.057309397
248	0x3e296fb0	0.16546512
249	0x3d3ce6a3	0.04611839
250	0x3def2162	0.11676289
251	0xbba799b7	-0.00511476
252	0x3e0c6e65	0.13713987
253	0xbc8b791f	-0.017025528
254	0x3da75a20	0.08171487
255	0x3ea0d000	0.3140869

rnn.weight_ih_l1 f4 [256, 64]
0	0x3d970b2a	0.07375176
1	0x3c9a3115	0.018822232
2	0x3df224a8	0.11823398
3	0x3d00f2a4	0.0314814
4	0x3d4c93e8	0.049945742
5	0x3db715f8	0.08939737
6	0xbd0c125a	-0.03419719
7	0xbd1f2b03	-0.03885938
8	0xbd8459d6	-0.06462447
9	0xbd47ffe2	-0.048828013
10	0xbd55e061	-0.052215938
11	0xbd810678	-0.06300062
12	0x3cb6938d	0.022287155
13	0x3d423485	0.047413368
14	0x3e054d62	0.130178
15	0xbd46fd26	-0.048581265
16	0xbd0092a9	-0.031389866
17	0xbd2a0829	-0.04151169
18	0x3e07d439	0.1326455
19	0x3dab5c23	0.08367183
20	0xbd435f6c	-0.047698423
21	0x3d643b06	0.05572035
22	0x3e109ef8	0.14123142
23	0x3d93f314	0.07224098
24	0xbd990675	-0.07471935
25	0x3ce8a917	0.02840094
26	0xbdc9b27a	-0.09848495
27	0x3d0c778a	0.03429369
28	0x3ded5929	0.115892716
29	0xbd6c64a2	-0.05771316
30	0x3dac05ce	0.08399545
31	0x3de50c81	0.111840256
32	0x3dbc8a68	0.092060864
33	0x3e1ff759	0.156217
34	0x3e129e86	0.14318284
35	0x3d9c8499	0.076424785
36	0x3e239689	0.15975393
37	0xbcb57654	-0.02215115
38	0x3d8761ce	0.06610452
39	0x3e0672c1	0.13129713
40	0x3d9c9179	0.07644934
41	0xbde1db7c	-0.110281914
42	0xbe27bf50	-0.16381574
43	0x3d3d5106	0.046219848
44	0xbda0e931	-0.07856978
45	0x3ce6f560	0.028193176
46	0xbdea162c	-0.1143001
47	0xbd270c06	-0.04078295
48	0xbb9e9ed2	-0.00484071
49	0xbd058695	-0.03259905
50	0xbcc7ca8c	-0.024388574
51	0x3d09266a	0.0334839
52	0x3dc63143	0.09677365
53	0x3dc726c7	0.09724193
54	0xbbfdf893	-0.0077505796
55	0xbd3ca984	-0.0460601
56	0xbdca1566	-0.09867363
57	0xbd30c513	-0.043156695
58	0x3c8b669c	0.017016701
59	0x3dd380e7	0.103273205
60	0x3e13e39d	0.14442296
61	0x3d2b0395	0.041751463
62	0x3dd6ee83	0.10494711
63	0xbd9cddac	-0.07659468
64	0x3df76cf0	0.12081325
65	0x3e00967d	0.12557407
66	0x3b5d1f33	0.003374052
67	0x3dbcb484	0.09214118
68	0xbd79e2f7	-0.061007466
69	0x3d2e0c6d	0.04249232
70	0x3dede349	0.11615617
71	0xbcfbbf92	-0.030730996
72	0x3d31b326	0.04338374
73	0xbdbba740	-0.0916276
74	0xbcffced3	-0.031226551
75	0xbd25a5e5	-0.040441412
76	0xbde1dda0	-0.110286
77	0xbd6d6de1	-0.057966117
78	0xbd2e8172	-0.042603917
79	0xbd646387	-0.05575898
80	0x3c91190e	0.017712142
81	0x3d5acf6c	0.05342047
82	0xbdf73605	-0.1207085
83	0xbdbadee7	-0.091245465
84	0xbc9ee746	-0.01939739
85	0x3d6d46fd	0.057929028
86	0x3d51b90d	0.05120187
87	0xbd5ad157	-0.0534223
88	0xbd057100	-0.03257847
89	0x3be3a05f	0.006946608
90	0xbd6651a6	-0.05623021
91	0xbd057026	-0.032577656
92	0x3cce22bd	0.025163049
93	0x3dc24ab2	0.09486903
94	0x3c4e8323	0.012604508
95	0x3d560e27	0.05225959
96	0x3d67eb8d	0.056621123
97	0xbda82acd	-0.082112886
98	0x3c377138	0.011196427
99	0xbda2d370	-0.07950485
100	0xbe0c79f2	-0.13718393
101	0xbc10893f	-0.0088217845
102	0x3b3e5436	0.0029041893
103	0x3d99586f	0.074875705
104	0x3de7e5a7	0.113230996
105	0xbdb4f022	-0.08834864
106	0x3e05a8fe	0.13052747
107	0x3c2c04c5	0.010499184
108	0x3d74b76f	0.05974525
109	0x3e01bf34	0.12670594
110	0x3be82b99	0.0070852754
111	0xbd81a2e3	-0.06329896
112	0x3ac95929	0.0015361655
113	0xbdcdc133	-0.100466155
114	0xbdda0c5e	-0.1064689
115	0x3dd111a8	0.10208446
116	0x3d13461c	0.035955533
117	0x3dc16b23	0.09444263
118	0xbcf9fb86	-0.030515444
119	0xbd3ea210	-0.046541274
120	0x3d4f582e	0.050621204
121	0xbe0b3ee1	-0.13598205
122	0x3dbdb217	0.092624836
123	0xbc7ef8e8	-0.015562274
124	0xbe07721e	-0.13227126
125	0x3cce0567	0.02514906
126	0xbd274153	-0.040833782
127	0xbdbadc55	-0.09124056
128	0xbdb8f18e	-0.09030448
129	0x3de919c2	0.11381866
130	0x3dc3b3a9	0.09555752
131	0xbc5ea491	-0.01358904
132	0x3dee9aaa	0.116505936
133	0xbd901af1	-0.07036389
134	0xbd19eb75	-0.037578065
135	0xbd6f3357	-0.05839857
136	0xbe06829b	-0.1313576
137	0xbcfae8ad	-0.030628527
138	0xbdbefde6	-0.09325771
139	0x3e2f115a	0.17096463
140	0x3ddc7386	0.10764222
141	0xbd80b338	-0.06284183
142	0xb9952ab0	-0.000284513
143	0x3d89a033	0.06720009
144	0xbdc8284f	-0.09773313
145	0x3d624e30	0.055250347
146	0xbd9b2369	-0.07575113
147	0x3d4d984b	0.050194066
148	0x3daf3668	0.08555299
149	0xbdbf6d40	-0.0934701
150	0x3d919caf	0.07109963
151	0x3c604f8d	0.013690841
152	0x3db8a107	0.090150885
153	0x3d4e61d2	0.050386257
154	0x3e20841b	0.15675394
155	0x3d1d482d	0.03839891
156	0x3d1091aa	0.035295166
157	0xbcc78cc1	-0.024359109
158	0xbe39e69c	-0.18154377
159	0xbe00703c	-0.12542814
160	0x3c4f108a	0.012638221
161	0xbce06fea	-0.027397115
162	0x3c80cc9f	0.015722571
163	0x3d8b1250	0.06790602
164	0xbdc636f4	-0.0967845
165	0xbd780f70	-0.060561597
166	0xbc82d049	-0.015968459
167	0x3c49820a	0.01229907
168	0x3da48822	0.08033778
169	0x3db37200	0.08761978
170	0x3e305d8d	0.17223187
171	0x3d7ffc90	0.06249672
172	0xbd0b4c29	-0.03400818
173	0xbcba6d03	-0.022757059
174	0x3db095ca	0.0862232
175	0x3e0d14d9	0.13777484
176	0x3d96ba16	0.07359712
177	0xbdc811d4	-0.097690254
178	0xbd7f7bc8	-0.062373906
179	0xbdd025b9	-0.10163445
180	0xbdbad423	-0.09122493
181	0x3db8792d	0.090074874
182	0x3d8d5f1d	0.06902907
183	0x3dcfcce3	0.10146501
184	0xbccdd9d2	-0.025128279
185	0xbde1b8b8	-0.110215604
186	0xbe09349a	-0.13398972
187	0xbe0e6dc7	-0.13909064
188	0xbdb7c374	-0.089728266
189	0x39933b32	0.0002808213
190	0x3d171fa4	0.03689541
191	0x388e70e4	6.792115e-05
192	0x3dabe41b	0.08393117
193	0xbc33cc91	-0.010974065
194	0x3d2e4541	0.042546514
195	0xbd8fd3af	-0.07022797
196	0xbd894b8a	-0.06703861
197	0xbd7d2553	-0.061803173
198	0x3d11485e	0.035469405
199	0xbc5850f0	-0.013202891
200	0x3c7005c6	0.014649814
201	0xbe3857bc	-0.18002218
202	0xbd9884f7	-0.07447236
203	0xbd52a7c1	-0.051429514
204	0x3d8159a4	0.06315926
205	0xbc9eee44	-0.019400723
206	0xbd55b71e	-0.052176587
207	0xbdaeacb5	-0.08529035
208	0x3c0e333b	0.0086792065
209	0x3d3b4203	0.04571725
210	0x3acc9224	0.0015607518
211	0xbb856537	-0.0040709036
212	0x3e0f4d32	0.13994291
213	0x3e2f0989	0.17093481
214	0xbdc9f99c	-0.09862062
215	0x3cffdc0d	0.031232858
216	0xbd7c0e40	-0.061537027
217	0xbdc55142	-0.09634639
218	0x3cbf49c8	0.023350611
219	0x3d9607b7	0.0732569
220	0xbd67a78a	-0.056556262
221	0x3de936ca	0.11387403
222	0x3e4821f1	0.19544198
223	0x3d039dd9	0.032132957
224	0xbdf22f28	-0.118254006
225	0xbdd2a532	-0.10285415
226	0xbdbdb7e6	-0.092635915
227	0x3e10ec4d	0.14152642
228	0x3d9eae33	0.077480696
229	0x3d6eacca	0.058270253
230	0x3d625b9e	0.055263154
231	0xbdc5b52f	-0.09653699
232	0xbde5e63a	-0.11225553
233	0x3dc31a59	0.0952651
234	0xbdd1bbbf	-0.10240888
235	0x3d5d076c	0.053962156
236	0xbd19a594	-0.037511423
237	0xbe1647ad	-0.1467578
238	0xbd4a3faf	-0.04937714
239	0xbd0ccf7a	-0.034377553
240	0x3dab0d0e	0.08352099
241	0x3d183204	0.037157074
242	0xbcb54ba1	-0.02213079
243	0x3c6d349a	0.014477873
244	0xbd8e183e	-0.069382176
245	0xbd1ec68c	-0.038763568
246	0xbd98e378	-0.07465261
247	0x3db9b1ac	0.09067091
248	0xbe1405b0	-0.14455295
249	0xbc679bd7	-0.014136276
250	0x3e0200e2	0.1269565
251	0x3dccbcde	0.09996961
252	0x3d63c63c	0.055608973
253	0xbdc91033	-0.09817543
254	0x3ce7d78b	0.028301021
255	0xbd6a0dc1	-0.057142023

rnn.weight_hh_l1 f4 [256, 64]
0	0x3d8b3831	0.06797827
1	0x3d977705	0.07395748
2	0xbde85569	-0.11344416
3	0xba27802c	-0.00063896435
4	0xbd155faa	-0.036468185
5	0x3dba609d	0.09100459
6	0xbc8b4507	-0.017000688
7	0xbdc542bb	-0.096318685
8	0xbc9878ce	-0.018612292
9	0x3aecf053	0.0018076993
10	0xbe0d57c7	-0.13803016
11	0xbdf5678d	-0.11982641
12	0x3de58a48	0.11208016
13	0xbd14510d	-0.03621011
14	0x3d54d68b	0.051962417
15	0xbd45f62a	-0.048330463
16	0x3d36b746	0.044608377
17	0x3cb793dd	0.022409374
18	0x3d8a46bd	0.067517735
19	0x3d983865	0.074326314
20	0xbce18666	-0.027529906
21	0x3cd7d0b5	0.026344636
22	0x3db4544c	0.08805141
23	0xbe0078d7	-0.12546097
24	0xbc38a928	-0.011270799
25	0xbd5cc83c	-0.053901896
26	0xbe002907	-0.1251565
27	0xbda6c32b	-0.08142694
28	0x3b241cdb	0.0025041613
29	0x3debaa3b	0.11507078
30	0xbc42fb1c	-0.011900689
31	0x3db7a8d2	0.08967747
32	0x3df14742	0.117811695
33	0xbe0a3c2c	-0.13499516
34	0xbdc5b0b6	-0.096528456
35	0x3dab8ae6	0.08376102
36	0x3dbcc85f	0.09217905
37	0x3dc1d34f	0.09464132
38	0xbda4eb0d	-0.08052645
39	0x3d7b795d	0.061395038
40	0x3da768dd	0.08174298
41	0x3cf79ae6	0.030225229
42	0xbb45888e	-0.0030141207
43	0x3ccb27a6	0.02479918
44	0x3c70d8cb	0.014700125
45	0x3dc5625f	0.096379034
46	0x3b322089	0.0027180037
47	0x3d8d3c8d	0.06896315
48	0xbb739812	-0.0037169498
49	0x3d683b6a	0.056697287
50	0xbd9ba0da	-0.075990394
51	0x3db6e3e7	0.08930188
52	0xbcbef343	-0.023309356
53	0x3d8bd45e	0.06827615
54	0xbd750acf	-0.05982476
55	0xbc35d8a5	-0.011099015
56	0x3d9e11b2	0.07718219
57	0xbcd857d6	-0.026409071
58	0x3d8b10d0	0.06790316
59	0xbe003c82	-0.12523082
60	0x3dd6cd75	0.104884066
61	0x3e0320f7	0.12805544
62	0x3cac67bd	0.02104556
63	0xbce4a101	-0.027908804
64	0xbd90fbdc	-0.07079288
65	0x3db58850	0.0886389
66	0x3d7223d1	0.05911619
67	0x3d5f832c	0.054568455
68	0x3d96f544	0.073709995
69	0xbccdb0d3	-0.02510873
70	0x3dc084cc	0.09400329
71	0x3d393183	0.045213234
72	0xbb22e1b6	-0.0024853772
73	0x3dc50acc	0.096212
74	0x3cc8a0dd	0.024490768
75	0x3d55ef83	0.05223037
76	0x3d9ccd3b	0.07656332
77	0xbdc46a4e	-0.095905885
78	0xbd86725c	-0.06564781
79	0xbd567f04	-0.052367225
80	0xbc447dad	-0.011992854
81	0xbcc00b93	-0.023443019
82	0x3e0a4c5b	0.1350569
83	0x3dfd6d38	0.123743474
84	0x3ca5563c	0.020182721
85	0x3de48e13	0.11159911
86	0xbdb8aae6	-0.09016971
87	0xbd94a274	-0.07257548
88	0x3d2b855e	0.041875236
89	0xbd92116a	-0.07132228
90	0x3def27b2	0.11677493
91	0x3d4362b9	0.04770157
92	0xbd9bf369	-0.07614786
93	0xbdbbfb0a	-0.09178741
94	0x3d16a731	0.03678054
95	0xbde78676	-0.11304943
96	0xbdf0d445	-0.11759237
97	0x3d0dc17b	0.034608345
98	0xbd9871ab	-0.074435554
99	0xbc8ecb8b	-0.017431041
100	0xbcf4e3aa	-0.029893715
101	0x3d81dc8b	0.06340893
102	0xbaba2f43	-0.0014204759
103	0xbda9d192	-0.082919255
104	0xbcf9a1a0	-0.030472577
105	0x3db1e355	0.08685938
106	0xbbc54d45	-0.006021174
107	0xbddce9d8	-0.1078679
108	0xbdca89c7	-0.0988956
109	0x3de9a379	0.11408133
110	0xbce68076	-0.028137427
111	0x3de622af	0.11237084
112	0x3d0a9a40	0.03383851
113	0x3d46de8a	0.048552074
114	0xbd83db77	-0.06438344
115	0x3cdef7f3	0.02721784
116	0x3d5102fe	0.051028244
117	0x3d92fc98	0.07177085
118	0x3dcc606a	0.09979327
119	0xbe02ea75	-0.12784751
120	0x3da94bb2	0.08266391
121	0x3de0e015	0.1098024
122	0xbe018a7e	-0.12650487
123	0x3deb80da	0.11499186
124	0x3c3e1cd8	0.011603557
125	0xbdadb0a6	-0.08480959
126	0x3d92e2b3	0.07172146
127	0xbd654760	-0.05597627
128	0x3d60f6b7	0.054922786
129	0xbcc19984	-0.023632772
130	0xbd42e214	-0.047578886
131	0xbd5a149f	-0.053242322
132	0xbc1d35d3	-0.009595352
133	0x3e1a095f	0.15042637
134	0xbcc9f5e9	-0.024653392
135	0x3d568981	0.052377228
136	0x3dda2e72	0.1065339
137	0xbcd36d8a	-0.025809068
138	0xbb0cd6aa	-0.0021490254
139	0x3dd33fac	0.10314879
140	0xbdb5fd50	-0.08886206
141	0x3d414bb1	0.047191326
142	0xbdde30d0	-0.10849154
143	0x3dc5d3fe	0.09659575
144	0xbd9cd01e	-0.07656883
145	0xbcf77bcf	-0.030210404
146	0xbe09ae29	-0.13445343
147	0xbdafc100	-0.08581734
148	0x3d446731	0.047949973
149	0x3c9de4ed	0.0192742
150	0x3ce2d057	0.027687235
151	0xbdb2bd01	-0.08727456
152	0x3db7adab	0.089686714
153	0x3e0082b3	0.12549858
154	0xbd8cebbb	-0.068808995
155	0x3d393003	0.045211803
156	0x3c4a93c0	0.012364328
157	0x3b8251db	0.003977043
158	0xbd11e171	-0.03561539
159	0x3d8a8ad6	0.06764762
160	0x3d85ec0f	0.06539165
161	0x3d7f36c9	0.062308107
162	0x3c7c9093	0.015415329
163	0xbd9c0366	-0.07617836
164	0xbd637476	-0.055530988
165	0x3d908d2e	0.07058178
166	0x3dae3b75	0.08507434
167	0xbba41369	-0.0050071967
168	0x3e118f30	0.14214778
169	0xbd8236d6	-0.063581154
170	0xbdcafea2	-0.099118486
171	0xbd2371f2	-0.03990359
172	0x3dbb91ad	0.09158645
173	0x3d71e560	0.05905664
174	0x3cd021c0	0.025406718
175	0x3d598741	0.053107504
176	0xbddb7ee7	-0.10717564
177	0x3adba29c	0.0016756835
178	0x3ddd7285	0.108128585
179	0xbc4e7038	-0.012599997
180	0xbd8a81a1	-0.06763006
181	0x3d991591	0.074748166
182	0xbd7144f1	-0.05890364
183	0x3d17d2c9	0.037066255
184	0xbcc3dbd3	-0.023908531
185	0xbdd37a4a	-0.10326059
186	0xb9663ad6	-0.00021956427
187	0x3cc70bf5	0.024297694
188	0xbde4352c	-0.11142954
189	0x3d90db7b	0.070731126
190	0xbdc20aa4	-0.09474686
191	0xbd76f6af	-0.06029385
192	0xbd401a8a	-0.04690031
193	0x3d1b78ac	0.03795688
194	0xbc94d880	-0.018169641
195	0x3d162126	0.036652707
196	0xbdea6235	-0.11444513
197	0xbcfaf110	-0.030632526
198	0x3d0da5b3	0.03458185
199	0xbe15b2ea	-0.14619032
200	0xbe17b024	-0.14813286
201	0xbd7306d8	-0.0593327
202	0xbdbbcdbc	-0.091701
203	0x3d88f362	0.066870466
204	0xbdc945e5	-0.098277844
205	0x3e08b93c	0.13351911
206	0xba31ab42	-0.00067775336
207	0x3bd14ee4	0.0063875783
208	0x3df2c025	0.11853055
209	0x3dad2653	0.084545754
210	0xbdc89fa5	-0.09796075
211	0x3de54b41	0.11195994
212	0xbd693810	-0.05693823
213	0xbdd299c1	-0.102832325
214	0xbd97212a	-0.073793724
215	0x3dfda25d	0.12384484
216	0x3da9efa1	0.08297659
217	0xbcb2c8e3	-0.021824306
218	0xbdee0d8b	-0.11623677
219	0xbadd0818	-0.0016863374
220	0xbd51d3ad	-0.05122726
221	0x3c61b307	0.013775594
222	0xbd1768f0	-0.03696531
223	0xbdf69732	-0.12040557
224	0x3e1de4a8	0.15419257
225	0xbd84ad16	-0.06478326
226	0xbdb77a16	-0.08958833
227	0x3c8534bb	0.016260495
228	0xbdd23588	-0.102641165
229	0x3dbf7987	0.093493514
230	0x3ce68aa0	0.028142273
231	0xbde13b1a	-0.10997601
232	0x3c27a6c3	0.01023263
233	0x3dd22027	0.10260039
234	0x3c361524	0.011113439
235	0x3c5ed360	0.0136002
236	0xbe0210cc	-0.1270172
237	0xbe245dfe	-0.1605148
238	0xbd1b3979	-0.037896607
239	0xbdb41166	-0.08792381
240	0xbdbaef81	-0.09127713
241	0xbda49c97	-0.0803768
242	0xbdf94904	-0.1217213
243	0xbd6440b6	-0.055725776
244	0x3dd33706	0.10313229
245	0xbd9da49c	-0.07697412
246	0x3d8e2441	0.06940509
247	0x3d982476	0.07428829
248	0x3c8f148b	0.01746585
249	0x3d925fa3	0.071471475
250	0xbdfa1477	-0.122109346
251	0x3d84741e	0.0646746
252	0x3e2b149a	0.16707078
253	0x3d82acee	0.0638064
254	0xbdfec167	-0.12439232
255	0xbb1cc51e	-0.0023921202

rnn.bias_ih_l1 f4 [256]
0	0x3ce612bc	0.028085105
1	0xbdc05701	-0.09391595
2	0xbc36b9ce	-0.011152698
3	0x3e07717e	0.13226888
4	0x3e2bace6	0.16765174
5	0xbcae65d9	-0.0212888
6	0xbd8be2b0	-0.068303466
7	0xbd886728	-0.066603005
8	0x3ddfb6e4	0.109235555
9	0x3da8ea8f	0.082478635
10	0x3de5cfdc	0.11221287
11	0x3c6d33ce	0.014477683
12	0xbda49e64	-0.08038023
13	0x3dc0c36d	0.094122745
14	0x3dff952f	0.124796264
15	0x3e0a3b09	0.13499083
16	0x3e0e00f4	0.13867551
17	0xbdee9e72	-0.11651315
18	0x3e7de1cc	0.24793166
19	0x3e0c5362	0.13703683
20	0x3d197581	0.037465576
21	0xbd6d9944	-0.058007494
22	0xbd194074	-0.037414983
23	0x3d7a7ad2	0.061152287
24	0xbc5718da	-0.013128484
25	0xbdd01189	-0.101595946
26	0x3ddf3c7f	0.109002106
27	0xbd1454b5	-0.036213595
28	0xbdc88396	-0.09790723
29	0xbd82ea71	-0.063923724
30	0x3d751a1d	0.059839357
31	0xbd9f20d0	-0.0776993
32	0xbdb04a45	-0.08607916
33	0x3c0e7546	0.008694952
34	0x3db6e57d	0.0893049
35	0x3ce74ad7	0.028233929
36	0xbdbb5cc2	-0.091485515
37	0x3de767bb	0.11299082
38	0xbd96ffc4	-0.07373002
39	0x3e50ada1	0.20378734
40	0xbbe081e8	-0.0068514235
41	0x3e781bd1	0.24229361
42	0x3d2943a5	0.041324276
43	0xbce059ad	-0.02738651
44	0x3dabb491	0.0838405
45	0x3c9da57f	0.019243954
46	0xbe06e599	-0.13173522
47	0x3e1438b1	0.14474751
48	0xbd1ba66c	-0.03800051
49	0xbda1a125	-0.07892064
50	0x3dbf4570	0.09339416
51	0x3e1155d6	0.141929
52	0x3da1789b	0.07884332
53	0x3dfb9d49	0.12285859
54	0xbd7aa340	-0.061190844
55	0x3c42fe83	0.011901501
56	0xbacad074	-0.0015473501
57	0x3d631a00	0.055444717
58	0x3d03f66c	0.032217428
59	0xbda5e0b5	-0.080995
60	0x3e719598	0.23592222
61	0xbd939773	-0.07206621
62	0x3eae3bd4	0.3403002
63	0x3e0932a0	0.13398218
64	0x3d4296f8	0.047507256
65	0x3c91bf36	0.017791372
66	0xbd947fcb	-0.07250937
67	0xbdab9d93	-0.08379664
68	0xbda2de94	-0.0795261
69	0xbbf63d1e	-0.00751461
70	0x3dc75d4d	0.097345926
71	0xbbc4ba29	-0.0060036373
72	0xbd84c0c9	-0.06482083
73	0xbdd00317	-0.10156839
74	0xbde71114	-0.11282554
75	0xbcfbf3a4	-0.030755825
76	0x3d909eb2	0.07061519
77	0x3dbe5786	0.092940375
78	0xbe02a044	-0.12756449
79	0xbc82a656	-0.015948456
80	0x3cc4ec03	0.02403832
81	0xbc8be6a6	-0.017077755
82	0xbdb6eb71	-0.08931626
83	0x3ca22aa8	0.01979573
84	0x3d80b33e	0.06284188
85	0x3ce29219	0.027657555
86	0xbda2dbaf	-0.079520576
87	0xbd76c24e	-0.060243897
88	0xbb2d7bec	-0.0026471568
89	0xbdb34bce	-0.08754693
90	0xbe23f529	-0.1601149
91	0xbdd10e15	-0.10207764
92	0xbe1640fd	-0.14673229
93	0x3da88a74	0.08229533
94	0xbdee8864	-0.11647108
95	0xbe0b803c	-0.13623136
96	0xbcbd56f1	-0.023112746
97	0xbe0d226f	-0.13782667
98	0x3d6ff3a5	0.058581967
99	0x3d989e0c	0.0745202
100	0xbd310879	-0.04322097
101	0xbe10fe3e	-0.14159486
102	0xbd5c2688	-0.053747684
103	0xbdbafeb2	-0.091306105
104	0x3dc93f72	0.09826554
105	0xbdf7b0ff	-0.12094306
106	0x3ac0fd27	0.0014723883
107	0x3dadeed6	0.0849282
108	0x3d16542a	0.03670136
109	0xbd64fbfe	-0.05590438
110	0xbd3aacc1	-0.045574907
111	0xbde1f8a3	-0.11033752
112	0x3c1877b5	0.009305884
113	0xbc49eebd	-0.012324986
114	0xbd5a3bef	-0.053279813
115	0x3d9b25d3	0.07575574
116	0x3dc95bf0	0.09831989
117	0xbddec870	-0.10878074
118	0xbdacb29d	-0.08432505
119	0xbdf1c1dd	-0.118045546
120	0x3d44a32e	0.048007183
121	0xbb54bb21	-0.003246017
122	0x3da9abbb	0.08284708
123	0xbdfce297	-0.12347906
124	0xbdcaca66	-0.09901886
125	0x3cab1039	0.020881759
126	0xbe3cbd09	-0.18431486
127	0xbe1030ef	-0.14081167
128	0x3def7c57	0.11693638
129	0xbdc288d9	-0.09498758
130	0xbd41cba8	-0.047313362
131	0xbda32648	-0.07966286
132	0x3ce5d64b	0.028056284
133	0x3db2efbb	0.08737131
134	0x3dba1d00	0.090875626
135	0xbd22f21a	-0.039781667
136	0xbd7b3c24	-0.06133665
137	0x3d6d0c00	0.057872772
138	0xbd2caca8	-0.042156845
139	0x3d31cdfb	0.04340933
140	0x3db50e20	0.08840585
141	0x3dd49f4b	0.10381945
142	0xbd9f2dbf	-0.07772397
143	0xbd960e51	-0.073269494
144	0x3dc176af	0.09446465
145	0xbda84db8	-0.08217949
146	0x3c990e63	0.018683618
147	0x3d242165	0.04007091
148	0xbd63f6ec	-0.055655405
149	0xbccfa221	-0.025345864
150	0xbd5cb8d8	-0.05388722
151	0xbd60c3e0	-0.0548743
152	0x3da6fe5a	0.081539825
153	0xbd510378	-0.0510287
154	0xbd2bc9eb	-0.04194061
155	0xbd0233bd	-0.031787623
156	0xbd178ad4	-0.03699763
157	0x3d864a84	0.065571815
158	0x3db37af1	0.087636836
159	0x3cc216ec	0.02369257
160	0x3ca498cc	0.02009239
161	0xbde1d38d	-0.11026678
162	0xbd20075d	-0.039069522
163	0xbd892188	-0.06695849
164	0xbd5eae31	-0.05436534
165	0x3de346a1	0.11097456
166	0xbd9d7bf8	-0.07689661
167	0x3d9df92a	0.0771354
168	0x3dbf972a	0.09355004
169	0xbd36c20a	-0.044618644
170	0x3d81238a	0.06305607
171	0x3d4200b2	0.047363944
172	0x3d7212e1	0.059100036
173	0x3d96c3fa	0.07361598
174	0xbde30a2b	-0.11085924
175	0x3de2ea5e	0.11079858
176	0xbc1067a2	-0.0088137705
177	0x3dc34677	0.095349245
178	0x3d749dc0	0.059720755
179	0x3d683e47	0.056700017
180	0xbd32803b	-0.04357932
181	0xbd98e297	-0.074650936
182	0x3dda9f63	0.10674932
183	0x3c970af7	0.018437846
184	0x3d870fa8	0.06594783
185	0xbdd6e7a6	-0.10493402
186	0xbcc325ee	-0.023821797
187	0xbd907538	-0.07053608
188	0x3e024d8c	0.12724894
189	0xbdb68d5f	-0.08913683
190	0x3dcceffc	0.10006711
191	0x3ce2b079	0.02767204
192	0x3ca54328	0.020173624
193	0x3bd8ea9f	0.006619766
194	0xbbd66ef7	-0.0065439898
195	0x3ddce149	0.10785157
196	0x3dbecdef	0.093166225
197	0xbdc9f0ac	-0.09860358
198	0xbd6c0b7c	-0.05762814
199	0x3dbc6612	0.09199156
200	0x3d28f293	0.04124696
201	0x3e54a933	0.2076767
202	0xbd8d8da1	-0.06911779
203	0x3d987449	0.07444055
204	0x397a332a	0.00023860918
205	0xbb4d8713	-0.0031361028
206	0x3d8a674b	0.06757983
207	0x3e9a2e0f	0.30113265
208	0x3c1f402a	0.009719888
209	0x3cb5b3bc	0.02218043
210	0x3dd4a52a	0.10383065
211	0x3d078efb	0.03309534
212	0xbdcd023f	-0.10010194
213	0xbd8a4912	-0.06752218
214	0x3e287547	0.16450988
215	0x3c953c64	0.018217273
216	0x3dbff01a	0.093719676
217	0x3dac2760	0.08405948
218	0x3df45e00	0.119319916
219	0xbcee71a8	-0.02910693
220	0xbdbfdc7f	-0.09368228
221	0x3e023b94	0.1271804
222	0xbd86f978	-0.06590551
223	0xbd06b0ae	-0.03288334
224	0xbe010f32	-0.12603453
225	0xbdce18cb	-0.10063323
226	0x3d44ed43	0.048077833
227	0x3d0adad2	0.03390009
228	0xbdb57945	-0.08861021
229	0x3d7a5922	0.06112016
230	0x3dbda53c	0.092600316
231	0x3e76c16c	0.24097222
232	0x3a7d96f8	0.000967368
233	0x3e7856dd	0.24251886
234	0x3dc068a7	0.09394961
235	0xbdbfe394	-0.09369579
236	0x3dfc9335	0.12332765
237	0x3cd42ee4	0.025901265
238	0xbdd31dee	-0.10308443
239	0x3dc0ab76	0.094077036
240	0x3e03c5af	0.12868379
241	0xbcf3fa08	-0.02978231
242	0xbc65bf6e	-0.014022691
243	0xbbc2130e	-0.0059226817
244	0x3d97db0a	0.07414825
245	0x3ca99456	0.020700615
246	0x3deb1016	0.114776775
247	0x3d1969ce	0.03745442
248	0xbd89ab3e	-0.06722115
249	0x3df24b5f	0.11830782
250	0xbd581d8f	-0.052762564
251	0x3de89538	0.11356586
252	0x39651a50	0.00021848944
253	0x3d885fce	0.06658898
254	0x3eba5e0b	0.36399874
255	0x3d90a202	0.070621505
