data/results/lstm_baseline_BTC_r5d.pt (torch, 220581 bytes, 9 tensors)

rnn.weight_ih_l0 f4 [256, 15]
00000000: e328 b6bc 00ff 1a3d f375 5cbe 5a05 583d
00000010: bec3 aebd 2781 90bd 93a7 e7bd b4fa 60be
00000020: 0f3a 223e f3f6 3cbe 7966 bcbd 6aa5 893d
00000030: 01d5 8abd aac2 d9bd c607 3fbe adf8 40be
00000040: db33 6abd 1d0c 25be 24ff b3bc 2724 60be
00000050: fe35 fb3b e58c acbc 125b f0bd a413 353e
00000060: c37d 63be 0915 fabd 50e8 a43d affe 59be
00000070: b009 3a3d 3639 95be 163c 18be 8102 b0bd
00000080: d9d7 54be 8492 7abd 465a 363d 00e2 a53d
00000090: 1fbc 2f3c f31f 61be 907a 843e 982a f7bd
000000a0: b472 2ebe 3f0c 94bd 0aba b4bd 58a0 803c
000000b0: eb5b 1cbe f568 17be 3375 47bc 6066 1cbe
000000c0: 387d 013e e8e8 04be 1000 f1bd 9275 ec3d
000000d0: b12c 70be 10f6 8e3e 2bff 22be e70a 103d
000000e0: 82f6 243d 66d1 a2be 8277 d73d 5e78 a6be
000000f0: 0609 003e 1d34 c5bd 1e7f 5fbe 8e25 25bb
00000100: 82d1 09be 892f e83c 09c1 0e3d dbee b9bd
00000110: 1d05 a2bc feae b43d 89aa 82bd 269d a23c
00000120: 4bde 33bd 9a9c 0bbd 0eca b1bd 44ee a3bd
00000130: ab02 08bc f617 84be e2f7 16be a1c1 1bbe
00000140: c1f3 d5bd 2c76 a1bd 6e03 e8bd b0fa a3bd
00000150: 4c58 81bd 7914 d13c 9b34 bdbc 996b 6ebd
00000160: fdcb 283d f189 95be 1dcd 713d 9e3a 15be
00000170: 40b6 87bb c8b7 003e 4eed 11be 74b1 43bd
00000180: 34a9 ed3d eb7d 19be cc92 603c d7df 563d
00000190: ebe6 bb3d 3216 9a3d 69bf 6ebc 9acd afbd
000001a0: 684e 123c 45af b63d ab1d 69bd 02a9 41be
000001b0: 03ee 853d 569e 7bbe fa0b 2a3e 5fd6 1dbd
000001c0: b070 1ebe 300e 363e cfe1 61bd f535 f8bd
000001d0: 71bf d6bb 4963 40bd b253 613e bd34 aabe
000001e0: c0aa 15be b233 9bbd b4a3 5ebe a36d 05bd
000001f0: b24c 813d 4ca1 1dbe 8d4b d9bc c64b 45be
00000200: 0b7c 9dbd b10d 0f3b 3d78 573d f4d2 c13d
00000210: b860 bebb 0237 aebd f481 d7bd 4679 623e
00000220: 77ea 463d 8886 24be c323 a73d 252b e33b
00000230: 1fdd 353e b06e f03d 9f84 98be 972c db3d
00000240: 8bd5 933e 45e0 1e3e 7323 f93c dab8 ccbc
00000250: 5ff4 4c3d d4c6 8b3c 3d63 4fbe 42d3 443d
00000260: a338 9cbd f903 113d c1e2 d73c 74b9 4bbd
00000270: d839 0ebe d063 2a3d e001 163e 74bd c1bd
00000280: c51b d4bd 71ee 953c 61d3 08bd b4bd 903d
00000290: b173 20be 483d 353e 5652 133e 0617 0bbe
000002a0: 87af 663e dc1b c4be 2104 b53d 4346 34bd
000002b0: 450d 56be ee58 9fbd 0e92 cd3c 4f00 8c3c
000002c0: 233e 763c 6501 edbd d3e4 6b3e 8a4a 5fbe
000002d0: 17ec 59be 2b32 bfbd 8f3b 76be 2f63 0abd
000002e0: df39 2abe ba41 78be 1dea 7d3d 03b8 a2be
000002f0: c3da 163e 08a4 1bbe 2925 04bc adf4 2c3e
00000300: 051c 0bbe 481a 9f3d 41e6 afbe b7e0 d9bd
00000310: 4c73 143d 149d 97be a68e bebc 7c5b 54be
00000320: f247 253e 729f c63d ea0c 07be abba 303e
00000330: 323c 80bd 6f91 85bd 1a42 62bd 684c 82be
00000340: 09bb 193c 77be 67be 1c79 a0bd df45 f83d
00000350: 55b5 e4bd e6de 633e 4df6 d7bd 6a41 e9bd
00000360: f31a f83d 29f0 1bbe cbdb 243c 71ed d5bc
00000370: fdba 06be fe5a 643c b066 813d 38fc eebc
00000380: a751 c5bd e938 08bd e3bb e23d 09a0 3abe
00000390: 304e ae3e 00c1 2ebd 047e d43c 693c 083d
000003a0: 26e9 25be bb20 bb3d 1643 dabd acf7 10bd
000003b0: e463 45bd ddfc 07bd 24de 093e 1bf9 40be
000003c0: ddaf 11bd 9c77 ecbd 8912 2ebe 8241 b5bd
000003d0: f1af a2be 4f93 0d3e fb3f db3d 0eb8 4abe
000003e0: 31b0 c5bc da1c 47bd bbaf 643d df4d a1bb
000003f0: cd26 cbbd 7a94 d13d aac9 c5bd d44f 3fbc
-0.022236293 0.037840843 -0.21529369 0.05273948 -0.085334286 -0.07055884 -0.11311259 -0.21970636
0.1584246 -0.18453579 -0.091992326 0.06721003 -0.067789085 -0.10632832 -0.18655309 -0.18844862
-0.05717836 -0.16117902 -0.021972246 -0.21888791 0.0076663485 -0.021063277 -0.1173612 0.17683274
-0.22215943 -0.122110434 0.080521226 -0.2128856 0.045419395 -0.2914521 -0.14866671 -0.085942276
-0.20785464 -0.061174884 0.044519685 0.08099747 0.010726004 -0.21984844 0.25874758 -0.12068671
-0.17035943 -0.07228898 -0.08824547 0.015701458 -0.15269439 -0.14786132 -0.012173939 -0.15273428
0.12645423 -0.12979472 -0.1176759 0.11545862 -0.23454548 0.27922106 -0.15917651 0.035166647
0.04027415 -0.31800383 0.10520841 -0.32513708 0.12503442 -0.096290804 -0.21825835 -0.0025199386
-0.13458827 0.028342979 0.03485206 -0.09078761 -0.019777829 0.088224396 -0.06380183 0.019850325
-0.043913167 -0.034084894 -0.08681117 -0.0800443 -0.008301417 -0.2579953 -0.14742997 -0.15210582
-0.10446883 -0.078838676 -0.11328779 -0.08006799 -0.063156694 0.025522457 -0.023096373 -0.058208082
0.041210163 -0.29206803 0.059033502 -0.14573142 -0.004141599 0.12570107 -0.14250681 -0.047776654
0.116045386 -0.1498944 0.013706874 0.052459564 0.091749035 0.07523765 -0.014572003 -0.08584137
0.008929826 0.08920149 -0.05691306 -0.18912128 0.06539538 -0.24572119 0.16606131 -0.03853452
-0.15472674 0.1777885 -0.05514699 -0.121196665 -0.0065535833 -0.046969686 0.22004583 -0.3324336
-0.14615917 -0.075782195 -0.21742135 -0.03257526 0.063134566 -0.15393561 -0.026525283 -0.19267187
-0.07689675 0.002182823 0.052604903 0.09464064 -0.0058098696 -0.08506586 -0.105228335 0.22116575
0.048563447 -0.16066945 0.08161118 0.0069326335 0.17760132 0.11739862 -0.29788682 0.10701864
0.28873858 0.1551524 0.030412411 -0.024990488 0.050037738 0.017062582 -0.202527 0.048053034
-0.0762799 0.03540418 0.026353242 -0.04973741 -0.13889253 0.041599095 0.14649153 -0.094599634
-0.10356859 0.018302174 -0.03340471 0.07067433 -0.15669133 0.17699158 0.14386877 -0.13583001
0.22527896 -0.38302505 0.08838678 -0.04401232 -0.209035 -0.07780634 0.025094058 0.01708999
0.015029463 -0.115725316 0.23036508 -0.21805778 -0.21281467 -0.09335741 -0.24046157 -0.033785995
-0.16623639 -0.24243823 0.061990846 -0.31781015 0.14731888 -0.15199292 -0.0080655 0.16890211
-0.13584907 0.077686846 -0.34355357 -0.10638564 0.03624277 -0.2961203 -0.02326138 -0.20738024
0.16140726 0.096983805 -0.1318852 0.17258708 -0.06261481 -0.0652188 -0.05523882 -0.25448918
0.009382972 -0.2263125 -0.078356 0.12122702 -0.11167399 0.22252998 -0.10545025 -0.1138943
0.12114515 -0.15228333 0.010062168 -0.026114197 -0.13157268 0.01393771 0.06318414 -0.029173002
-0.096347146 -0.0332574 0.11070993 -0.18225111 0.34044027 -0.042664528 0.025938995 0.033260737
-0.1620222 0.09137102 -0.10657327 -0.03539245 -0.048190966 -0.033200134 0.13463646 -0.18845026
-0.035568107 -0.11546251 -0.16999258 -0.08850385 -0.31774858 0.13825725 0.10705563 -0.19796774
-0.024131866 -0.0486115 0.055831652 -0.004922613 -0.0991951 0.10233398 -0.09657605 -0.011676747

rnn.weight_hh_l0 f4 [256, 64]
00000000: 4784 b1bd 70c1 2d3c 5ce4 9f3d ecdc 2c3e
00000010: d851 093e e7a5 213d 97db 823a 7ca9 363d
00000020: 7155 30be 9c06 80bb 9b4d 4f3d 5018 6e3c
00000030: 2985 0abe 126a 4ebc 2aec 273e a018 583d
00000040: dea1 1dbd a46e e53d 508e f6bd edf9 2cbd
00000050: b7fd 84bb ec7c fbbd dfb2 c9bd a8c2 28be
00000060: ef54 8ebd a140 b53d e247 a2bd 173e 173d
00000070: 0c8b f9bd 6444 c3bd 7e83 f73c 820a a73d
00000080: b793 e83c 4876 a63d 2485 cfbd 2494 5b3d
00000090: 0de1 47be d738 cbbc 6c55 533e 557c 633d
000000a0: f771 26be 99d1 00be 1fed 0bbe 8dd9 9bbc
000000b0: 8165 933c 6d4e 0f3d cc8c 47bd 7a03 70bd
000000c0: bdb1 7c3d 8e3f 49be 043e 86bd ae19 1d3d
000000d0: 681c 173e 67e5 0b3e b9ea 843d a680 5dbc
000000e0: f2f9 8cb9 4dbf a93d d922 02bd 2847 303d
000000f0: 13ed a8bb 81e8 25bd 35dc 7a3c cd9c 06bc
00000100: 6099 b23d b132 adbd 3f92 abbb aee6 bb3c
00000110: e123 6ebd 4b0d 653d 7d45 443d 5e99 5a3c
00000120: bcfb 09be 8ba3 cb3c b3c1 543e bba3 0abd
00000130: 4e44 29bc 8aa7 47bd 6728 813d 1802 e7bc
00000140: 59a3 7f3d 819a 303c 069f a9bc b2af afbd
00000150: 9349 703d a97a efbd 0c51 97bd d131 713d
00000160: 61a1 cb3d c7a8 32bc 3d61 93bd 0e11 29bc
00000170: ee66 30bb ad52 ab3d f750 41be 56fc 30bc
00000180: db6e 483c 1081 aebd e74d 37be caaf 693d
00000190: aec9 96bd 3189 063d d570 9e3c 8f31 3cbd
000001a0: bea3 a93c 8de2 8cbd 0c56 98bd 1f4e a73d
000001b0: 3a1d f63c 60c1 27bd d003 dbbb 61a2 e2bd
000001c0: f350 5f3e 4dc5 853d 9250 063e cf44 e1ba
000001d0: d85e ba3d fa5b b83d 01b6 053e 6c67 8c3d
000001e0: 61a4 8e3c 1150 8f3d dacc ac3c 5fe7 8a3d
000001f0: 0948 e73b 75e2 ba3d 437f a13c 365e 72bd
00000200: 32d3 03be 473b f0bc 937f be3d a12a 67bd
00000210: df75 35bd af19 8a3c 9a92 c43d 9250 10be
00000220: 7a57 8bbe 5403 d9bd 7981 243e e8ea 7bbe
00000230: d5f8 4abe a6a8 4abd fc75 c63d 186a 1fbe
00000240: 0e95 11be 97fe d93d 0e28 debd a805 203e
00000250: bfb6 43bc e60d 0dbe aca4 143d b1ee e2bc
00000260: 1243 3fbd d7ca 513d 41a5 f43d 6c63 3abe
00000270: a721 01be eb5e 9e3d b1dd 8abe 40bb 163e
00000280: 691f b23c fc3c c93d d404 32be 8ece 313d
00000290: 0ccb 04be b454 263e a00b 583e 715c 213d
000002a0: 85de 70bd 1e4b edbd ad42 92bd 2523 b8bb
000002b0: f9a6 de3d bf4d 1cbe 3800 6abe 1a0c 55be
000002c0: 600c ec3d 11db 32be 04fc 963e 2f42 263e
000002d0: fdac d03d da08 a73c 064d 8a3e 5ed2 b53c
000002e0: 6165 06bd e713 d73d ff60 5abe 7d3d 583d
000002f0: 610b 8a3e 6b31 07bd 688d 4e3d 69b2 03be
00000300: 0ec1 0ebe 99b9 15be ab90 a63c 436b 233e
00000310: 37d3 333d a5f5 933d 2d8e 263e 1435 06be
00000320: c842 bbbe 715d 39be 0057 193e b3d3 cdbd
00000330: 45d2 75bd f176 66be cebf 5d3e 5b88 1cbe
00000340: 056d 403d f427 da3d a0cd aebc 8884 243e
00000350: 6d77 39be d8e9 5cbe b9c0 393d 166c d13d
00000360: 69b0 acbd 2f74 7b3e cd0b c13a 13bb e2bd
00000370: 275a 25be 7d1c e1bc 8273 45be 824d c23d
00000380: 5336 2e3e b08a 81bb 1f76 59be 5d33 a33d
00000390: 8069 5dbe e926 263e 9c58 923e 5092 fd3d
000003a0: 37b3 aabd 093f 6ebe 607d 08be da2f f5bd
000003b0: 7325 683e e092 77bd de73 4abe dd72 39be
000003c0: dcdb 613e 075f 62be f787 593e 699e 073e
000003d0: c66e 663d 69a7 8f3d 5f8c 293e 51a4 43bd
000003e0: af78 053e 34a9 c13d 8686 1cbd 8308 753d
000003f0: 0877 633e c2ac 503e 803c dd3d 1624 6ebe
-0.08667808 0.010605201 0.07807228 0.1688115 0.13410127 0.039464857 0.0009983656 0.044595227
-0.17220093 -0.003907038 0.05061112 0.014532164 -0.13527359 -0.012598531 0.16398683 0.05275786
-0.038484447 0.11202744 -0.12038863 -0.042230535 -0.0040585655 -0.12279686 -0.0984857 -0.16480505
-0.069497935 0.088502176 -0.07923867 0.036924448 -0.12184724 -0.09534529 0.030214068 0.08156301
0.028390748 0.08128029 -0.101328164 0.053608075 -0.19519444 -0.024807377 0.20638055 0.055538494
-0.16254412 -0.12579955 -0.13664673 -0.019024635 0.017992737 0.034986902 -0.04871826 -0.058597066
0.061692942 -0.1965315 -0.06554797 0.03835457 0.1475693 0.13661729 0.06490082 -0.013519442
-0.00026889105 0.08288441 -0.031771515 0.04303661 -0.0051552146 -0.040504936 0.0153112905 -0.008216095
0.0872066 -0.08456934 -0.0052359398 0.022937145 -0.058139686 0.05592088 0.04791783 0.01334223
-0.13474935 0.024858257 0.20777015 -0.03384755 -0.0103312265 -0.048743762 0.06306534 -0.02819924
0.06241164 0.010779024 -0.020705711 -0.08578433 0.058663916 -0.116933174 -0.07388505 0.0588854
0.0994289 -0.0109044975 -0.07196281 -0.010319008 -0.002691682 0.083653785 -0.18878542 -0.010802349
0.012233461 -0.085207105 -0.17900811 0.05705241 -0.07362686 0.03284568 0.019340912 -0.0459457
0.020707961 -0.06879149 -0.07438287 0.08169197 0.030043233 -0.0409559 -0.006683804 -0.110661276
0.21808223 0.06531773 0.13116673 -0.0017186644 0.09100121 0.09001918 0.1305771 0.06855664
0.017412366 0.06997693 0.021093775 0.06782412 0.007058148 0.091252245 0.019714003 -0.059171878
-0.12873533 -0.02932514 0.093016766 -0.05643714 -0.044301864 0.01685795 0.095982745 -0.14093235
-0.27215177 -0.10596338 0.16065015 -0.24601328 -0.19821484 -0.049477242 0.096904725 -0.15567815
-0.14217016 0.10644262 -0.108474836 0.15627158 -0.0119454255 -0.13774833 0.036289856 -0.027701708
-0.046694823 0.051218834 0.11945582 -0.18201989 -0.12610494 0.07732948 -0.27122262 0.14719868
0.021743493 0.09826085 -0.17384654 0.043409877 -0.12968081 0.16243249 0.21098185 0.0393948
-0.05880596 -0.11586593 -0.07141624 -0.005619424 0.10871691 -0.15264033 -0.22851646 -0.20805398
0.11525798 -0.1746638 0.29489148 0.16236185 0.10189245 0.020389963 0.2701189 0.022195037
-0.032811526 0.10501843 -0.21326064 0.052793015 0.26961806 -0.033006113 0.050427824 -0.12861027
-0.13940832 -0.14621581 0.020332655 0.15958886 0.043902602 0.07224587 0.16265173 -0.13106185
-0.36574388 -0.18102051 0.14974594 -0.10050144 -0.06001498 -0.2250631 0.21655199 -0.1528639
0.04697897 0.10652152 -0.021338284 0.16066182 -0.18111964 -0.2157358 0.04534981 0.10225694
-0.08432085 0.2455604 0.0014728248 -0.11070838 -0.16147672 -0.027479405 -0.19282344 0.0948744
0.1701291 -0.0039533004 -0.21236466 0.07968781 -0.21622276 0.1622578 0.2858323 0.123814225
-0.08334964 -0.23266234 -0.13329077 -0.119720176 0.22670536 -0.060442805 -0.19770762 -0.18110223
0.22056526 -0.22106563 0.21243273 0.13244022 0.056257986 0.07014353 0.16557454 -0.047764126
0.13034318 0.09456101 -0.03821423 0.05982257 0.22213376 0.20378402 0.10802555 -0.23255953

rnn.bias_ih_l0 f4 [256]
00000000: 98e8 04bd e781 c4bd 565d 953d f172 fc3d
00000010: a2b3 22bd 0a9f 683d 6806 b93d f0c1 583e
00000020: 14b6 a0bd 7d29 b13e 9907 abbd 5b69 173e
00000030: 0d5a ef3d 1970 103e 19ce 6bbd 0282 d83d
00000040: 236c a7bc fa0e e73d 6ff7 0c3e 04b5 5e3e
00000050: 5a00 a9bd d899 d43d 60e8 3fbc d841 69bd
00000060: a30f d93d f5ef 693c 77be 413e 00b6 303e
00000070: b310 e0bc 3b7e 5abd aae8 5f3c 952c cf3d
00000080: 27bd 61bd f686 29bd 3bc6 463d e2cf a23d
00000090: ea4c 9dbb a19a cf3d ce77 113e 6a00 803d
000000a0: 1211 fa3c 3dac 883d 56e6 0e3d 14de be3d
000000b0: 4556 d33d 86d4 a43d fc41 2ebd 28fc 91bd
000000c0: 15a4 a8bd 10ca 293c 7042 583b d03b ab3b
000000d0: aec3 a33c fe46 9fbc ca15 373e 068c adbc
000000e0: 2604 313d 7eca ea3d 0c38 8a3c 29bf 2b3e
000000f0: 71d5 95bd fd86 e3bd d0d8 ea3d 275e cb3e
00000100: ae39 e6bd 0fcd a23d 787d 5f3d 85c8 92bd
00000110: ae7a c8bd a38e 613c 0dd9 86bd 7810 b33d
00000120: a291 d43c 9335 7dbd c11b c5bd 3f1b f9bd
00000130: d3c0 6cbd 94f0 00bd 2e13 8c3c dcea febd
00000140: 41c6 803d e122 0abe 1902 3abe eea5 c83d
00000150: 60aa dc3d cfb7 493d 2657 17bd d97a 86bd
00000160: 5562 a13d 7a3b 03bc aab0 c1bd 4b32 27bd
00000170: 7fc9 de3b 74f1 c7bd 616d 7ebd 8fe4 9d3d
00000180: b46c d03d 53f0 65bd 29c9 f9bd baa9 20bd
00000190: d1a7 1a3d 8afc 0b3d 5516 f8bd f310 b3bd
000001a0: 865d 77bd b2b4 42bd f3b0 12be ee18 e83c
000001b0: 6d70 dabd c9b7 09bd 55a4 0cbb 7ad8 3e3d
000001c0: 8c1d 153d 0850 79bd 2957 42bd 5b91 babd
000001d0: dae7 493d 99f6 903d 4f8c 83bd 1327 48bd
000001e0: 4a46 29bc da1e 393d c6c2 463a fbbc 66bd
000001f0: a2e0 583c 75dc 9b3d 417b a73d 0a43 4ebe
00000200: 0e62 f73c bef2 47bd 3a61 33bc a652 3fbd
00000210: a6b2 653d 7546 e53d 6b77 a03d 11c5 673c
00000220: 384c 603c 9263 f53c 193c 9dbd 5b4a 91bd
00000230: fb37 d0bd b42f ccbd a67d a43d 5a73 99bd
00000240: 048b 9a3d 7ced 73bd c03d 263d 1e14 94bd
00000250: 04ab 54bd 1502 b0bd 0043 b2bd c0b5 58bd
00000260: e278 7f3d 9c3b 4c3d 1ae5 a0bd 6a37 dabd
00000270: edb5 dfbd 8acd 30bd e7a4 acbb 3951 0cbd
00000280: 8ec1 c63d 5c96 28bd d0bb 23bd 52d5 903d
00000290: 5a87 73bd b43f 5c3c 1097 b83d 45e9 923d
000002a0: 424a 3d3c 41a0 cfbd 6465 19bd 16b5 53bc
000002b0: abc0 ad3d cd43 0c3c 8f5d aabd 2025 e9bb
000002c0: d919 8f3d da13 d2bd c29d 8d3d 352f 7d3d
000002d0: e0e1 4bbd a08d de3d 4b6d 84bc 9032 f43b
000002e0: 4f29 3a3c 9c56 283b 0f96 c7bd 3b4d 8a3d
000002f0: cc5e 4ebc e24f ab3d 688a d33d 0d0e f5bd
00000300: cb1a 09bc 9cf4 29bd fba5 313e 7a7d 923e
00000310: fe9f 63bd eb36 393e 689a d33d 4d64 0e3e
00000320: 5ea2 273c fb8f 873e 2b8d 973d fd38 463c
00000330: 030a 623e 307e 8c3e 74e6 e73b 3f1f cb3d
00000340: 6f46 463e 09b5 063e 772d 023e 57fc 483b
00000350: 6b44 ad3b c712 ce3d c7cd 1a3e c714 1c3e
00000360: 4487 403e 6946 dc3d 58d8 dd3d e821 a93b
00000370: ee1c 043e e29b b9bd dbee 77bd 0107 023e
00000380: 32c3 c03d b2ca 003e e86a 6bbc 67ae f23d
00000390: 6ab1 e83d 532f c73d 6ae4 3bbd dc66 713c
000003a0: 56ae e73d d53e 6a3d 8695 493e 89fe f33d
000003b0: 41aa 3ebd 28b8 2ebd 7c5d 6dbd 8544 af3d
000003c0: d7a9 43bd ca70 d4ba 44c2 01bd 39d8 893d
000003d0: 5c53 bcbd 6663 2b3d 1d3a 0f3e 62b9 ec3d
000003e0: 2d8b 463e e5fb 6d3d 2141 803c 1fb0 1e3e
000003f0: f37e 0c3d 094c a5bd d166 8dbd c8cb bf3e
-0.03244838 -0.095950894 0.07293193 0.12326611 -0.039722092 0.056792296 0.09034425 0.21167731
-0.07847229 0.34601966 -0.083510585 0.14786284 0.11687098 0.14105262 -0.057569597 0.10571672
-0.020437306 0.112821534 0.13766263 0.2174874 -0.0825202 0.10380906 -0.011713117 -0.05694756
0.105986856 0.014278402 0.18920313 0.17256927 -0.027351713 -0.05334304 0.013666311 0.10115925
-0.05511203 -0.041388474 0.04852889 0.07949807 -0.0048004286 0.10136915 0.14205858 0.06250079
0.030525718 0.06673477 0.034887634 0.09319702 0.10319189 0.08048348 -0.042543396 -0.07128173
-0.08234421 0.010363117 0.0032998584 0.005225636 0.019990768 -0.019443031 0.17879406 -0.021184932
0.043216847 0.114644036 0.016872428 0.1677214 -0.07316101 -0.11109731 0.11467135 0.3972027
-0.1124147 0.07949268 0.054563016 -0.07167152 -0.09789024 0.013766917 -0.06584368 0.087433755
0.02594835 -0.06181867 -0.09624434 -0.121634 -0.05780108 -0.031479433 0.01709899 -0.124471396
0.06287814 -0.13489868 -0.18164863 0.097972736 0.10774684 0.04924756 -0.036948346 -0.065664
0.078800835 -0.008009786 -0.09457524 -0.040819447 0.0067989225 -0.097628504 -0.06211603 0.0770961
0.101769835 -0.056137394 -0.121965714 -0.039224364 0.0377577 0.034176387 -0.121136345 -0.08743467
-0.060391925 -0.047535606 -0.14325313 0.0283322 -0.10665975 -0.033622537 -0.0021460254 0.046593167
0.03640513 -0.06086734 -0.047446404 -0.091097556 0.049293377 0.07078285 -0.06423246 -0.04886539
-0.0103317 0.045195438 0.0007582124 -0.05633257 0.01323715 0.07610408 0.08177806 -0.20142761
0.030198123 -0.04881548 -0.010948474 -0.04670968 0.056078576 0.11195079 0.07835277 0.014146105
0.013690047 0.029954705 -0.07677478 -0.0709426 -0.101669274 -0.09970036 0.08031778 -0.07492705
0.075460464 -0.059552655 0.040586233 -0.072303995 -0.051920906 -0.08594147 -0.087041855 -0.052907705
0.062371142 0.049861535 -0.07856198 -0.10655101 -0.109233715 -0.043164767 -0.0052686813 -0.034257147
0.097048864 -0.04115902 -0.039974034 0.070719376 -0.059455253 0.013442922 0.09013188 0.07173399
0.011553349 -0.10137988 -0.03745021 -0.012921592 0.08484014 0.008561087 -0.08318626 -0.0071150213
0.06987352 -0.10257693 0.069148555 0.0618126 -0.049775958 0.108668566 -0.016165396 0.0074523166
0.011362388 0.0025686389 -0.09745418 0.06753012 -0.0125958435 0.08364846 0.10329133 -0.119655706
-0.008368204 -0.041493043 0.17348473 0.28611356 -0.055572502 0.18087356 0.10332185 0.13905449
0.010231582 0.26477036 0.073999725 0.012098548 0.22074132 0.27440023 0.0070770327 0.09918069
0.19362806 0.13154997 0.12712656 0.0030667984 0.005287697 0.10062175 0.1511756 0.15242301
0.188016 0.10755617 0.1083228 0.0051615126 0.12901661 -0.090629354 -0.060530525 0.12697984
0.094122306 0.12577322 -0.01436875 0.11849671 0.11361964 0.09725823 -0.04587213 0.014733996
0.11312549 0.057188828 0.19685945 0.11913783 -0.046549086 -0.042656094 -0.05795048 0.08557991
-0.047769394 -0.001620793 -0.031679407 0.06730694 -0.09195587 0.04184284 0.13987012 0.115587965
0.19389029 0.058101553 0.015656056 0.15496872 0.034300756 -0.08071143 -0.06904376 0.3746016

rnn.bias_hh_l0 f4 [256]
00000000: 9a49 e0bc 45dc 10bb 9164 ef3d 5f12 f03d
00000010: 3fd4 053d 5586 e23d 5ccb cebc fd96 ba3d
00000020: 5292 2f3d 9f2b 333e 4710 aebd c04b 2fbd
00000030: d37c 6c3e aab8 003e e3dc 4bbc 986e 923d
00000040: 0981 623d 602e b13d e504 e93c 7e50 3f3e
00000050: 2eb1 b7bd 1480 4f3e 41c2 2a3e 60b0 143d
00000060: f9ea 3abd 1819 d9bc 3d9d 5c3e 10c0 be37
00000070: 4e93 603c a98c 97bd 545f 94bd a1d4 97bc
00000080: d502 d63d 1035 c43d 165f 4dbc 40f9 873d
00000090: fb9b a5bd 75c4 043e 849c 013e c080 76bd
000000a0: 4d10 983d fc45 e93d 20b4 31bc 96ca 233e
000000b0: 8f64 c5bc faa2 06bd 36eb a7bd dcf8 e03d
000000c0: f372 983d bbea b5bd f286 083d efc9 203e
000000d0: b58f c33d 456c 953d 224d 033e 8f5b 503e
000000e0: 305a c2bb 7396 e3bb 50ed 9ebd e04c f4bb
000000f0: c738 a43c b36c 58bd 449c b8bc 2a85 a53e
00000100: ecb6 3ebc ed0a b6bd de2f 84bd 03a4 0b3d
00000110: 26d6 0ebe 9ebf d23a af83 a63d 9fd8 1abc
00000120: 6895 3bb9 ea71 0abe 45d1 873d b73a 9c3d
00000130: 92e0 dd3d d314 4abd b6f4 dfbd bec6 aabd
00000140: 95aa 093d 11db 3e3d 6909 cdbd e640 f5bc
00000150: 85a7 4bbd 3f9e 2a3d 285e b23c 28e7 673d
00000160: 7bfe ccbd f4c1 a5bd 8a6e 39bd 679d c9bd
00000170: 5aee ce3d 3e3b c7bd 617c 053d e9ea a33d
00000180: 9364 a03c 10ad be3d 7086 793c 9969 00bd
00000190: 638c bf3d da01 97bd 9d34 ac3d cd72 f43d
000001a0: 0586 88bd bb45 b3bc b513 03be 23ea fdbd
000001b0: cb12 50bb 6b7c 03be 7477 793d 0c5f 683d
000001c0: b469 ca3c 0098 d2bd 61ef ebbd a6cd ce3c
000001d0: e847 133d 4337 aebd 9fdd 4b3d 1cf2 893c
000001e0: 3629 8c3d 4684 02bd 3c99 adbd f260 95bd
000001f0: 18eb 01bd b585 05be 0733 83bc eb8f 9abe
00000200: 6d91 67bd dde6 78bd be60 a03d 4faf ae3d
00000210: 12d7 ac3d 917f acbd 7877 133d 86e5 acbd
00000220: c9fa 13bd d154 a3bd 77e8 d63d 8316 eabd
00000230: d83a e8b8 8b67 8d3c 1c98 9c3d ee3b e7bd
00000240: 0143 4fbd 2e47 853d 2ab0 8dbd 8a75 403d
00000250: 8c08 05bd 08fb 7c3d 5d58 8a3d 3884 733d
00000260: f2af 40bd 25f2 073c c47c ce3d de09 89bc
00000270: da6a 0c3d 072c a5bc 44c5 ccbd 4a65 eb3c
00000280: 63eb 3fbd 9c05 10bd 7775 eabd 80c1 9f3d
00000290: 2684 e4bd 1407 e13c 71b9 87bd afbc 8d3d
000002a0: 12c0 023c 0f46 04be 8971 1d3c 3605 c9bb
000002b0: 046b c03c 79db 963d d394 b6bd b41b e3bd
000002c0: 3f43 083d 06b3 c139 a800 1d3d b37e 183d
000002d0: 7796 913c 9d4f d6bc 2a1c f9bc 9ec2 803a
000002e0: e344 0b3d 07d8 a7bd 05c8 31bd 4d9c 4abc
000002f0: 0e78 8b3d 9a88 ec3c ee2f e7bd b298 bfbc
00000300: 2e7c c43d 3d58 e33d 87b5 633e 98a7 923e
00000310: f16f c7bd b70b 663d 8054 18bc 2a3a 6d3e
00000320: c14b ed3d 5272 473e 836b 8fbd c697 cb3d
00000330: 1d73 193e 495f 6e3d e703 8e3d de1b 1a3d
00000340: 8847 c7bc e6b2 ee3d 3720 843e 680f 493e
00000350: 4aa9 7bbc 5771 42ba 2de0 ea3b 8b99 0eb8
00000360: 03ec ed3d 9d60 173c b94d 2c3e f187 a1bd
00000370: cdb2 603c 9e59 dcbd 2e3e 483d 88ee c4bc
00000380: a4f8 e33b 1a7c 7bbd 285a 283e cdbc 0bbd
00000390: aff1 9cbc 66d1 a0bc 3605 763d c749 953d
000003a0: c117 2c3e 8359 153e 10c1 933d 71ab db3d
000003b0: 5d7f cf3d 583d c03d d6c3 05bc 8be3 9fbd
000003c0: 2564 30bd 6a3e 8b3d 29a1 b23d 0772 c13d
000003d0: 309d a6bd 4976 dabc a985 083e ef36 dd3c
000003e0: 7fb1 2c3e 8faf 6b3d 7e5d 2cbd 7c49 0f3e
000003f0: 4b19 123e 0356 cd3d 0622 b6bc c99d 5d3e
-0.027378846 -0.0022103947 0.116891034 0.11722254 0.032673117 0.11060778 -0.025243454 0.0911083
0.04286415 0.17497109 -0.084991984 -0.04279685 0.23094492 0.12570444 -0.0124428 0.0715
0.05529884 0.086514235 0.028444717 0.18683049 -0.08969341 0.20263702 0.16675664 0.036301017
-0.045634244 -0.026501223 0.21544357 2.2739201e-05 0.013706995 -0.07399876 -0.07244745 -0.018534007
0.10449759 0.09580433 -0.012534877 0.066393375 -0.080863915 0.12965567 0.12657362 -0.06018138
0.07424984 0.113903016 -0.010846168 0.15995249 -0.024095802 -0.03287027 -0.0819916 0.10984966
0.074438 -0.08882662 0.03333182 0.15702032 0.09548894 0.072960414 0.12822393 0.20347427
-0.0059311613 -0.006945425 -0.077601075 -0.0074554533 0.020046605 -0.05283804 -0.02253545 0.3232816
-0.011640292 -0.08888803 -0.064544424 0.03409196 -0.13948879 0.0016078835 0.081305854 -0.009451061
-0.00017889368 -0.13520017 0.06631712 0.076283865 0.10833849 -0.049336266 -0.10935347 -0.08338688
0.033609945 0.046595637 -0.100115605 -0.029938173 -0.049720306 0.04165482 0.021773413 0.056616932
-0.10009476 -0.08093634 -0.045271434 -0.09844475 0.10104056 -0.097280964 0.03258932 0.0800379
0.019579208 0.09310353 0.015229806 -0.031350706 0.093529485 -0.073734 0.08408473 0.11935959
-0.06666187 -0.021883836 -0.12800486 -0.12398174 -0.0031749483 -0.1284043 0.060904935 0.05673127
0.024708606 -0.10282898 -0.11520267 0.025244545 0.035957247 -0.08506634 0.0497719 0.01683908
0.06843798 -0.031864427 -0.08476493 -0.072938815 -0.031718343 -0.13039286 -0.016015543 -0.30187926
-0.056535173 -0.060767043 0.07830952 0.08529531 0.08439459 -0.08422769 0.036002606 -0.084422156
-0.03612784 -0.07975162 0.10493558 -0.11430075 -0.000110735826 0.017261287 0.076462 -0.112907276
-0.05060101 0.06507717 -0.06918366 0.046987094 -0.032478854 0.06176284 0.06755135 0.059452266
-0.047042795 0.008297478 0.10082391 -0.016728338 0.03428159 -0.020162595 -0.09998563 0.028734822
-0.04685534 -0.0351616 -0.11448186 0.07800579 -0.11158018 0.027469195 -0.06627167 0.06920754
0.007980363 -0.1291735 0.009609588 -0.0061346544 0.023488529 0.0736608 -0.08915105 -0.11089268
0.033267256 0.00036945211 0.038330704 0.037230205 0.017771943 -0.02616101 -0.030408937 0.0009823625
0.034001242 -0.08195501 -0.043403644 -0.012366367 0.06810008 0.02887373 -0.11288439 -0.02338824
0.09593998 0.111008145 0.22237216 0.2864349 -0.09738148 0.056163516 -0.00929749 0.23166719
0.115867145 0.19477203 -0.07002928 0.09941058 0.14985318 0.05819634 0.06934338 0.037624232
-0.024326101 0.11655216 0.25805828 0.19634783 -0.015360186 -0.00074174016 0.007167837 -3.3998436e-05
0.11617281 0.009239343 0.16826524 -0.07887257 0.013714504 -0.107592806 0.048887424 -0.024039522
0.0069571305 -0.06139765 0.16440642 -0.0341156 -0.019158212 -0.019631099 0.060063563 0.072894625
0.16805936 0.14584927 0.07214558 0.10726059 0.101317145 0.093867004 -0.008164367 -0.07807072
-0.043064255 0.06799014 0.08722145 0.09445577 -0.0813545 -0.02666773 0.13332237 0.027003733
0.16864584 0.057540473 -0.04208135 0.13992876 0.14267461 0.10026171 -0.02223302 0.21642222

rnn.weight_ih_l1 f4 [256, 64]
00000000: 09fd 56bd cda3 063e 96b2 8bbd d8a2 babc
00000010: cbc4 f13d d048 aa3d cb6f 243d 44e1 16bd
00000020: 5487 9dbd ed2b a2bd 2755 bf3d 97f3 d63d
00000030: 5398 f63d dcde 573d 3f67 e73d 93cb 2d3d
00000040: 1ea5 9ebd d3ed 173a 426a 7e3d 4b4c fbbd
00000050: 438e e9bc 9b13 1f3c 25e4 f03d 0d3f 423e
00000060: 197d b93d 247b 713c 3211 ebba 9ab8 d6bd
00000070: 2607 9c3d 8cb6 22bd c985 9abd 3540 743d
00000080: 2bdc fabd 5adb 963d 2a81 f9bd f2cd bcbd
00000090: 7b0b f63d 3039 2e3e 52be f2bd f73f d2bd
000000a0: 6628 f03d 2f73 c8bc dd55 90bc 463b 003e
000000b0: 64ca 40bc f414 103d 1ead aa3c f7c7 88bd
000000c0: d3dd 833d 029b 08bb 82ba 393d 2469 76bc
000000d0: 87c5 e53d 7549 4f3c b281 19be a92f 293d
000000e0: 7e7f ecbd 3dcf 68bd cea7 c0bc 745a 323c
000000f0: 7858 eebd 4dea d13b 6ca5 423c a208 843d
00000100: 4a9e 29bd 0e8e 183d 1d85 d43d 4cf0 0bbe
00000110: 2e59 c3bd 97af eb3c 76aa 82bd 4d3b 1f3d
00000120: 0216 153c 631c 473d da2e 09bd 03cb 3c3d
00000130: 3390 c43d 865c 0cbd c7bd 6d3c a7cc 1bbd
00000140: 65bc b5bd f39e 763d bd08 4ebb aaec aa3d
00000150: 5feb 4a3d 109a c3bd 680b 7dbd 4d18 a1bd
00000160: 314a 91bd 958a e3bc 4c99 9f3d 8f02 84bd
00000170: 5952 b63d 1987 b0bd dd97 463d 6f61 e9bd
00000180: 0e5b 6dbc 5bd2 5b3d 28af 4e3c 5fa5 d3bc
00000190: 0f2c 713d dcf7 9a3d 2356 9fbc b9cc 893d
000001a0: 22e2 243e 40bb 8fbd d2ee 49bd 3c0c 9b3c
000001b0: 25bc a73d 213c a03d 4530 8e3d 3ca5 17bd
000001c0: c7a7 603d 0a7b 003c 91d4 dfbd 899c 153d
000001d0: 9a39 a4bd efec 7fbd 2a31 20bd 217d bfbd
000001e0: 2dee 99bd 7804 f6bd 89c6 7bbd 4e44 c1bb
000001f0: 0618 893d 4c60 de3c 6d58 5a3d a41e 2e3d
00000200: f60c f8bc 104e c0bb 294a 0bbe aac0 96bd
00000210: b52c 273d b0ce c83d e206 e03d cadf f3bd
00000220: 8509 b33b 70ce b33c 88b6 ffbb f078 f2bc
00000230: 40f6 853d 1578 733d 4d3a a53d 0247 6ebc
00000240: 937f 03bd 6c71 16be 6248 58bd 3bbd 0cbe
00000250: 5bb3 a9bd dfe6 2f3d 8771 b93c 1c2f 0b3e
00000260: da4c 953d 4370 e3bd 0b50 013d dc56 87bd
00000270: 9494 fabd e8f3 a23d d5f1 043e 6284 d33d
00000280: a5de 723d 34af 383d 247f 383d 44be 4bbd
00000290: 4075 8cbd 1f07 c0bc 3ebb 3dbd 3ee9 c13d
000002a0: b14d 293e bbaf 44bc 0ef6 19bc 76f9 c9bd
000002b0: 09a0 6e3d fa27 db3d 6255 963d bd3f cc3d
000002c0: 84b5 9c3d 9339 873d 332e f5bc 2e10 473b
000002d0: 9f40 b4bd 739d 86bc 267e 11be c814 11bd
000002e0: 9bed 02be 6293 ecbc 3fd1 813d 1363 c03d
000002f0: e8bd 7c3d ffe4 c03d b109 fabc 3b6b 22bd
00000300: 6d46 7b3d aa0c aa3d 79af 20be 726a 26be
00000310: f858 a43d ddda 36bd a4ab 3e3d 1b1b d3bd
00000320: 2c57 c1bc 33e0 04be c060 e33b 5488 4bbd
00000330: ee37 0c3e a9ac 1f3d 09bb 913a 812d 8a3d
00000340: 9aaf 393c ba00 47be 9d96 773d c7e4 4cbd
00000350: 5dd3 65bd 8786 443e f1b4 0b3d a2df 233e
00000360: 3d92 1dbe c73b 36be fa3d b0bb 1d9f a13d
00000370: f395 e43b ad81 47bd 28d1 763c 444a f4bd
00000380: eb0f 30be b98d c6bd 01bc 043d 9f96 7e3d
00000390: e364 77bd 3291 043d 89fc eabc 31f8 f33d
000003a0: bd34 dc3b 0f0f 0abd 9a52 0c3e 41c4 433d
000003b0: 46ca e2bd a5a8 b93d 8288 ad3d efd5 03bd
000003c0: 2001 b03b 4af6 ccbd 233b 773d cf6b eebd
000003d0: 4003 e13d f343 b03c feca 41be d795 503d
000003e0: 27c1 b8ba 62f8 b7bd b7ea 00bd 339d 2fbc
000003f0: 94f9 a1bd 3ef5 c0bd a4fb 5bbd 7be2 aa3d
-0.052487407 0.13148423 -0.06821172 -0.022782728 0.118051134 0.08314669 0.040145677 -0.036835924
-0.076918274 -0.079185344 0.093424134 0.1049568 0.12040772 0.05270277 0.112989895 0.04243047
-0.07746337 0.00057956314 0.062113054 -0.12270411 -0.028510218 0.009709264 0.11762265 0.18969364
0.090570636 0.014738832 -0.0017934202 -0.10484429 0.07618551 -0.03972487 -0.07545049 0.059631545
-0.12249025 0.07366057 -0.12182839 -0.092189685 0.120139085 0.17014003 -0.11852707 -0.102661066
0.117264554 -0.024468986 -0.017619068 0.12522611 -0.011767004 0.035176232 0.020834502 -0.06678765
0.06438794 -0.0020844345 0.045343883 -0.015039716 0.11219316 0.012651791 -0.14990881 0.041305218
-0.11547755 -0.056838263 -0.023517516 0.0108858235 -0.11637968 0.0064061047 0.01188026 0.06446959
-0.04141072 0.03724485 0.10376952 -0.13665885 -0.09538494 0.028770251 -0.06380169 0.038874913
0.009099485 0.048611056 -0.033491947 0.046092045 0.09597816 -0.034267925 0.0145105785 -0.03803697
-0.08873824 0.06021018 -0.0031438314 0.08345921 0.049540874 -0.095508695 -0.061778456 -0.07865963
-0.07094229 -0.027776042 0.07792911 -0.064458005 0.08902425 -0.08619518 0.04848467 -0.11395537
-0.014487041 0.053667407 0.012615003 -0.025835691 0.05887991 0.07566807 -0.019450253 0.06728501
0.16101888 -0.07018137 -0.049300022 0.018926732 0.081901826 0.07823969 0.069428004 -0.037022814
0.054847505 0.007841835 -0.10929216 0.036526237 -0.08018799 -0.062481817 -0.039109387 -0.09350038
-0.075161316 -0.12012571 -0.061468635 -0.005898035 0.06694035 0.027145527 0.053306986 0.04250969
-0.030279618 -0.005868681 -0.13602509 -0.073609665 0.04081412 0.098050475 0.10938813 -0.11907919
0.0054637813 0.021949023 -0.007803742 -0.029598683 0.06541109 0.05944069 0.080677606 -0.014543297
-0.032104086 -0.14691705 -0.052803405 -0.1374406 -0.082861625 0.042944785 0.022637142 0.1359219
0.07290049 -0.111053966 0.031570476 -0.06608364 -0.1223537 0.07956678 0.12982877 0.103279844
0.05929436 0.04508896 0.045043126 -0.049742 -0.06858301 -0.023440896 -0.046321146 0.094683155
0.16533543 -0.012004788 -0.009397043 -0.09862034 0.05825809 0.10700984 0.07340504 0.099730946
0.07651809 0.06602778 -0.029929256 0.0030374634 -0.08801388 -0.0164325 -0.14208278 -0.03542021
-0.12785952 -0.028878871 0.06338739 0.09393897 0.061704546 0.094186775 -0.0305222 -0.039653044
0.06134646 0.08303197 -0.15691938 -0.16251543 0.08024782 -0.044642318 0.046550408 -0.10307904
-0.023601137 -0.1297615 0.0069390237 -0.04969056 0.1369321 0.03898302 0.0011118363 0.067469604
0.011333371 -0.19433871 0.06044637 -0.050022867 -0.056109775 0.19191943 0.034108106 0.16003278
-0.15387817 -0.17796241 -0.005378482 0.078916766 0.006975883 -0.048707653 0.015064515 -0.119282275
-0.17193572 -0.09695 0.032405857 0.062155362 -0.060398947 0.03236503 -0.028684871 0.11912573
0.006720154 -0.033705767 0.13703385 0.047794584 -0.11073737 0.090653695 0.084733024 -0.032186445
0.005371228 -0.100079134 0.06035913 -0.116416566 0.10986948 0.021516776 -0.18925092 0.05092415
-0.001409565 -0.08982922 -0.03147384 -0.010718632 -0.079089314 -0.09421776 -0.05370678 0.08343979

rnn.weight_hh_l1 f4 [256, 64]
00000000: 59c7 d6bd 3096 8ebc 0024 6c3d 50db 45bd
00000010: ba3b a9bd 6ccd acbd 5f51 6abd bc16 4a3d
00000020: 33bb 0cbd 362c e33d 63d8 64bd 5192 853c
00000030: f241 893d ec69 f5bd 6454 e33d 3e4d 9bbd
00000040: fc90 b5bc 35b6 0f3d 539d 8e3b 2693 7ebc
00000050: ab5b 813d a5c3 f93c e035 e93d 484f c63c
00000060: 993a db3d 0a37 f8bd 233f febd b29b 86bd
00000070: b0c4 7b3d 70b6 883d 219d 643c ccea c23c
00000080: 0fb3 9f3c 6263 5ebb 7cc1 6c3d a7ec 1e3d
00000090: 62ef 17bd 925d cebd a2d5 16bd e032 7839
000000a0: 35e2 e53c 4a92 ba3d 3213 f6bc 4452 66bc
000000b0: c732 dbbd 9541 bebd 7a05 7ebd 8123 973c
000000c0: c83a eb3c 5149 9cbc b2fb c2bd 6438 a53d
000000d0: acba ab3d 7656 ec3d 5124 c3bc 06d5 343d
000000e0: ec8d af3c 6a57 ff3c d38b e43d c590 edba
000000f0: 78a1 9e3c 5f38 663d 2f17 da3b 01eb ccbc
00000100: bfee 9fbd 13f0 233c 01bd 4a3d 6acb de3d
00000110: 807e 08be fc33 0e3c 2551 58bd 2667 ed3d
00000120: 4b96 c5bd 9208 87bc cc86 0ebd 737f 3f3c
00000130: 20d5 3c3d 3e2c 413d 7a27 0bbc de8c cc3d
00000140: ce9d ac3d 695b c3bd 1603 083d a077 0fbe
00000150: a747 e3bd f111 0fbe f839 893c 73b1 513d
00000160: 4c17 853b 46c8 9dbd 4224 3b3d e712 78bd
00000170: 1270 12be f422 d23d 9309 0abd 90cc f2ba
00000180: a9aa 9d3d d783 c9bd f883 053e 77c1 19bc
00000190: 3ef5 d33d dda2 55bd 112a 2dbe 2391 2e3d
000001a0: ba03 923d adf8 eb3c 9fe0 183c 6fde c8bd
000001b0: d4d2 24bd 27d5 d0bd f627 0ebe a24e 96bc
000001c0: 6c3c ee3b 252d b33d 84be 3a3d 7563 bfbd
000001d0: 7f5a eabc d699 35bd e2de febd a04d 373d
000001e0: 782f 08be 4af4 f1bc 8c3a b4bd e9f2 0e3e
000001f0: aa07 ba3d 3436 ccbd a223 92bd 84a3 90bd
00000200: 7163 3bbd ef38 bd3d b4e8 f1b8 341f a73b
00000210: 98e8 153c 1922 f8bd c988 09bd e923 e53c
00000220: 7783 6eba 7676 993d 7d14 a53c 0387 fa3c
00000230: d3ed 06be 7eb9 05be 91b1 b93d d9a5 b6bd
00000240: 1dba 37bd 7944 12be c940 5ebd 6b52 42bd
00000250: 5ec6 45bd 2d6d 90bc 3d4c 033d ed0e e8bc
00000260: d641 e9bd 6e42 d4bd 9b6c 26bd f2fd 373c
00000270: d0c9 0c3c 7662 193e 1ba6 16be 43d4 d13d
00000280: a6b9 fb3d 8a14 bebd 9190 253e 8fc6 35bd
00000290: 2dd3 66bb 22cf aa3c bf82 85bd f6fe 5c3c
000002a0: 901c 20bd 8d6c f23d 610a cabc ea1d 72bd
000002b0: 8a66 dbbc 3fd6 0fbe f735 853d db11 acbd
000002c0: 1aaf 863d d70a 4abd fdf6 4fbd 883c f4bc
000002d0: 9662 b73d 0f8c e03d 5569 d5bd bcef f3bd
000002e0: a298 22bd a50d 493d fadd c13d 3f03 1c3d
000002f0: 70a4 b2bd 50ae 953c f669 88bd d063 bd3b
00000300: d704 a83d 70f0 5dbb 3b7c ee3b e4b1 71bd
00000310: 5417 0d3c fd26 a83c 3bcd 84bd fb1d 99bd
00000320: 4689 9d3b 54c9 a2bc e6be b3bd 7f80 823b
00000330: 07cd febd 0750 6d3d 5ce0 debc 18d7 813d
00000340: e2c4 5f3d 8188 2a3d 4530 c8bc f9c7 f9bd
00000350: 105a d83d 73ac 26bd 134c 12bb 842a 173d
00000360: 1a23 0e3d 8a6c 183d ea53 f23d 08f3 c33d
00000370: a3c5 e0bd 712d cd3d 19be b83d 6e2a acbd
00000380: d720 ba3d d82f 8dbd 0908 973d 818c 003e
00000390: d825 1fbc 2620 68bd b8d0 84bc be58 a23d
000003a0: 97dd bfbd 7956 de3d 82a1 cbbd 19d0 543d
000003b0: b2a2 0e3c d2d8 24be e437 a2bd 6e3d 1ebd
000003c0: f6da 9ebd 7903 363b 6e4f a63d b1a6 1fbe
000003d0: aa17 203d fca0 063b 807c ce3b 4601 91bd
000003e0: e143 b63a a822 ccbc c0b7 11be 2f40 8a3d
000003f0: b32c bbbd c06b dd3c 8f20 053d 8612 183e
-0.10487241 -0.0174056 0.05765152 -0.048304856 -0.08263345 -0.084376186 -0.057206508 0.049338087
-0.034358215 0.11092417 -0.055870425 0.01630512 0.06702031 -0.119830936 0.111000806 -0.07583092
-0.02216386 0.035085876 0.0043522506 -0.015538013 0.063163124 0.030488798 0.11387229 0.024207726
0.10704536 -0.12119873 -0.12414386 -0.06572665 0.061466873 0.06675422 0.013953478 0.0237936
0.019494561 -0.0033933748 0.05780171 0.038799908 -0.037093528 -0.10076441 -0.03682483 0.00023670075
0.028061965 0.09109934 -0.03003845 -0.0140577 -0.107030444 -0.092898525 -0.06201694 0.018449547
0.028714553 -0.019077929 -0.09520663 0.08067396 0.08385214 0.115399286 -0.023821028 0.044148467
0.021429978 0.031169612 0.11159482 -0.001812481 0.019364104 0.056206103 0.0066555957 -0.025014402
-0.07809209 0.010005969 0.049496654 0.10878642 -0.13329506 0.008679386 -0.05281176 0.1159194
-0.09647807 -0.016483579 -0.03479652 0.011688101 0.04610169 0.047161333 -0.008493299 0.09987806
0.08428536 -0.095389195 0.033206068 -0.14010477 -0.11097651 -0.13971688 0.016751274 0.05119462
0.004061615 -0.07704215 0.045688875 -0.0605649 -0.14300564 0.10260573 -0.033700537 -0.0018524099
0.076985665 -0.098395996 0.13038623 -0.0093845045 0.103495106 -0.05215727 -0.16910578 0.042618882
0.07129617 0.028805101 0.009330898 -0.09808051 -0.040240124 -0.101969056 -0.13882431 -0.018348042
0.0072703864 0.08748845 0.045591846 -0.09345142 -0.028607605 -0.044336163 -0.12444855 0.044751763
-0.13299358 -0.029535431 -0.088002294 0.1395985 0.09083493 -0.09971276 -0.07135703 -0.07062438
-0.04574913 0.09239375 -0.0001153512 0.0051001552 0.009149693 -0.121158786 -0.033577714 0.027971225
-0.0009098569 0.07493298 0.020151371 0.030581957 -0.1317666 -0.13059041 0.09067071 -0.08918352
-0.044855226 -0.14283933 -0.054261003 -0.04744188 -0.04828488 -0.017630184 0.03205513 -0.02832743
-0.1138951 -0.10364233 -0.040630918 0.011229979 0.008593038 0.14978966 -0.14711802 0.10245564
0.12291269 -0.09281261 0.16168429 -0.044378813 -0.0035221085 0.020850722 -0.065190785 0.013488522
-0.03908974 0.11837111 -0.024663152 -0.05911056 -0.026782293 -0.14046572 0.065044336 -0.08401843
0.06576367 -0.049326744 -0.050772656 -0.02981402 0.08954351 0.10964214 -0.10420481 -0.1191096
-0.039696343 0.049085278 0.09466167 0.038089033 -0.0872277 0.018271595 -0.066608354 0.005779721
0.08204048 -0.0033865236 0.007277993 -0.05900754 0.008611519 0.020526404 -0.06484457 -0.074764214
0.004807624 -0.019871391 -0.08776645 0.003982603 -0.124414496 0.05793765 -0.027206592 0.06339854
0.05463112 0.041634087 -0.02443708 -0.12196345 0.10564053 -0.040691804 -0.0022323176 0.03690578
0.034701444 0.037212886 0.118324116 0.09567839 -0.10975196 0.10018433 0.09020633 -0.0840653
0.09088295 -0.06893891 0.073745795 0.12553598 -0.0097136125 -0.056671284 -0.016212806 0.079270825
-0.09368437 0.10856337 -0.099429145 0.05195627 0.008705782 -0.16098335 -0.079208165 -0.038632803
-0.07756607 0.0027773066 0.08120619 -0.15590931 0.039085068 0.0020542732 0.0063014627 -0.07080321
0.0013905728 -0.02491887 -0.14230251 0.06750523 -0.09139385 0.027028918 0.032501753 0.14850816

rnn.bias_ih_l1 f4 [256]
00000000: 76ee 733d 885d df3d a794 2b3c c44d cabd
00000010: 2182 3a3e 798d d5bd fafc c43c 5086 c6bd
00000020: bd1d 0f3d eac7 203e 4eb7 4cbd 8fae 043d
00000030: 5c12 4d3b c5f0 093e c698 9b3d afe0 c93d
00000040: ae44 b13d 8851 0c3e 917e a53d 4e50 663c
00000050: 6a9a 953d ab91 e1bd 4dff e4bd 7a47 abbc
00000060: 4074 823d f374 bc3d ff6e 01be dac6 093e
00000070: 0ecf cd3d f70d 743c e000 4e3d fbb5 97bc
00000080: 012c dfbd fed3 983d 635d 033e 7217 b7bd
00000090: ca5e adbd a46d b13d a0cd 573d c129 bdbd
000000a0: 1034 b0bd 8df4 f73b 9282 c8bd b00f 0bbd
000000b0: 9c16 973b 767e 95bc a3f5 34bd 5502 82bb
000000c0: e7bb 413e 79d6 8d3c a2fc bd3d 8137 d3bc
000000d0: d5f2 b63c b151 76bd b801 60bc dc54 9abd
000000e0: c55b 7339 30d4 013e 4e59 1e3c dadd 8b3c
000000f0: 3a31 09bc 4689 97bb 3542 993e c8b3 a1bd
00000100: a741 c8bd 2fba e2bd 9b50 83bd 8bb1 c33d
00000110: 5c9b 96bd e5f6 183d e5a4 293d 3c9e 8dbd
00000120: d252 8abd 5bac c5bd ac73 dbbd 4e35 e6bd
00000130: 5c53 24bd c796 f5bd daf0 5f3d 33b8 1bbe
00000140: 0e12 9abd 1262 e73d 5e34 cb3b 531d e3bd
00000150: 2ec9 20bb 0667 0c3d aabf e6bc 2c69 83bd
00000160: c2ed 7ebd cb62 ba3c 699a 8ebc fb1c 263b
00000170: 924a 1c3d a6b4 5b3a 1227 1bbe a8f5 8dbd
00000180: 8a02 5a3c ddaf a43d ac97 f8bd 4b98 d0bc
00000190: 063c 4cbd 19c8 5b3d 6d06 5dbb 5363 cd3c
000001a0: 5daf 863d e46a 52bd 427e 773d fd51 b63b
000001b0: b53e b1bd f423 6abd 6e65 9e3d 5e8d aebc
000001c0: d5d7 cabd d0cc be3c 0a9e c63a 7cfc d3bd
000001d0: 4c65 703d bc91 613d 8318 18bd f6f4 d0bd
000001e0: c4df a53d 5f25 8ebd 504d 713d 51c0 c3bd
000001f0: 7a4b ccbd 0b33 c63d 59da 32be a5e4 ebbd
00000200: 1d5d 47bd 8090 9dbd 2ef2 133d 0005 b3bd
00000210: da47 9bbd 07e4 08bd 42fb 063d d397 93bd
00000220: 20fc 8d3b 9722 f8bd c5dc 7ebd dc2c 933c
00000230: d1ac 853d 8d73 103d 5565 c13c 233e 83ba
00000240: d829 8dbd ffeb 6a3d f898 083e 5a18 d5bc
00000250: f2f8 2e3d 875e 353d be21 f4bd 99e9 4d3d
00000260: 9a9f e03c 9248 e0bd f282 3a3c 7fb1 8b3c
00000270: 25c7 c2bd 6d9b 7ebc 7abc a0bc 1b51 be3d
00000280: b1fe 90bc 7548 ac3d f74e 4a3d fe2c 7d3a
00000290: 22c3 963d e254 cc3d a052 0abd 7f97 c9ba
000002a0: 20f8 963d e79a 643d 3c01 55bd e79d a53d
000002b0: aa36 063c 0bf5 76bd b47f 4fbd 9c40 903d
000002c0: 9442 75bd c669 243d e0b4 8c3d 5b25 bdbd
000002d0: 6052 adbd d04d 1fbc 636a d93c a93b 893c
000002e0: 2418 e53d c17c 47bd c547 5dbd a7f1 283d
000002f0: bf04 e4bd bec4 273d 5d8e 03bb e553 88bd
00000300: 3b8a 1b3d 7ba1 00bd e574 85bd b1d3 8a3c
00000310: 25ba 983d f303 7abd ebd5 1dbd fc99 a63d
00000320: d76a 16be 53ea 3b3d e68d 393d 2851 7b3d
00000330: 20d7 db3d db38 e13d fd76 d23c 79ad 0cbd
00000340: 9475 5a3d 15b5 2b3c 8c36 10bd 97c6 56bd
00000350: 6bb9 f13d bd1f 973d 64d8 4f3c 0643 e63c
00000360: 3fbe bdbd bb89 d53c db38 2a3d c8aa 0f3d
00000370: b973 94bd 89dc a43d 0987 f93a 73c9 60bc
00000380: 6978 033d 5bcd 363e c425 013e 67c3 b7bc
00000390: 38d9 77bd 8c2c 9cbc 6848 53bd f3a0 b1bd
000003a0: 78bd a93b d43c 44bd 2245 e6bd 41de b2bd
000003b0: 86ec 643d 304e cfbc 9232 bd3d e6ed 003e
000003c0: bab2 093e ca15 87ba 6f24 b63a 91ac ee3d
000003d0: 69ad 0bbc 0fa2 083b e76d c03d bd35 b1bd
000003e0: 7115 e73d e4fc 973d 4aff 373d 19c4 c33d
000003f0: 5494 883d cf35 eebd 5418 593e 2f19 c43b
0.059553586 0.109065115 0.010472453 -0.09878114 0.18213703 -0.104273744 0.02404641 -0.09693587
0.03494047 0.15701261 -0.0499795 0.032393035 0.003129146 0.13470753 0.075974986 0.09857308
0.08655678 0.13702977 0.08080781 0.014057232 0.07304843 -0.11014112 -0.11181507 -0.020908106
0.06369829 0.09201994 -0.12639998 0.13454762 0.10049258 0.014895908 0.050293803 -0.018519392
-0.10897065 0.07462309 0.12828593 -0.08940019 -0.08465345 0.086634904 0.052686334 -0.092364796
-0.0860368 0.0075669945 -0.09790529 -0.033950508 0.0046108495 -0.018248778 -0.04417957 -0.003967563
0.18919335 0.017314183 0.092767015 -0.025783302 0.022332588 -0.0601365 -0.013672285 -0.07535717
0.00023208473 0.126786 0.009664847 0.01707356 -0.008373553 -0.0046245186 0.29933324 -0.07895619
-0.09778147 -0.11070668 -0.06411859 0.09555348 -0.07353851 0.037344832 0.04141702 -0.069149464
-0.06754078 -0.09652015 -0.10715422 -0.11240636 -0.04011856 -0.11991649 0.054673053 -0.15206985
-0.07522975 0.11298002 0.006201311 -0.110895775 -0.0024533975 0.03427794 -0.028167564 -0.06416544
-0.062238462 0.022752186 -0.017407613 0.0025346864 0.038157053 0.0008381106 -0.15151623 -0.06931621
0.013306269 0.08041356 -0.12138304 -0.025463244 -0.04986193 0.053657625 -0.0033725754 0.025071776
0.06576417 -0.05137147 0.060423143 0.005563973 -0.086545385 -0.057163194 0.0773419 -0.021307644
-0.09904448 0.023291022 0.00151533 -0.10350892 0.058690354 0.055070624 -0.03713275 -0.102029726
0.080993205 -0.06940722 0.05891162 -0.09558166 -0.099753335 0.096777044 -0.17466106 -0.1151822
-0.048672784 -0.07693577 0.036119632 -0.08741188 -0.07582064 -0.03342059 0.032954462 -0.072066925
0.004333034 -0.121159725 -0.06222226 0.017965727 0.06527103 0.035266448 0.02360789 -0.0010013025
-0.06892747 0.05735397 0.13339603 -0.026012588 0.04271788 0.0442796 -0.11920498 0.050271604
0.027419854 -0.10951342 0.011383759 0.01705241 -0.0951064 -0.015539986 -0.019621123 0.092928134
-0.017699571 0.084122576 0.049391713 0.00096578884 0.073614374 0.099771276 -0.033770204 -0.0015380232
0.07371545 0.05581179 -0.05200313 0.08086758 0.008191744 -0.060292285 -0.050658897 0.07043573
-0.059877947 0.040139936 0.06870437 -0.092356406 -0.084629774 -0.009723142 0.026539987 0.016752081
0.11186245 -0.04870296 -0.054023523 0.041246083 -0.11133718 0.040959112 -0.0020073869 -0.066566266
0.037973624 -0.031404 -0.065164365 0.016946645 0.07457379 -0.061038923 -0.038534086 0.08134839
-0.14689194 0.045877766 0.04530134 0.061356694 0.10734391 0.109971724 0.025691504 -0.034345124
0.053334787 0.010480185 -0.03520827 -0.052435484 0.11802944 0.073791005 0.012685869 0.028108131
-0.09264802 0.026066652 0.041558128 0.03507498 -0.07248635 0.08049876 0.0019037436 -0.013719904
0.032097254 0.17851774 0.12612063 -0.022432042 -0.06050989 -0.01906421 -0.051582724 -0.08673277
0.005180057 -0.047909573 -0.11243655 -0.08733798 0.05588963 -0.025305837 0.09238161 0.12590751
0.13447085 -0.0010306176 0.0013896356 0.11654008 -0.008525231 0.0020848548 0.09395962 -0.08652828
0.112833865 0.07421282 0.044921197 0.09558887 0.06668916 -0.11631357 0.21200687 0.0059844474
