data/results/lstm_baseline_SPX_r10d.pt (torch, 220661 bytes, 9 tensors)

rnn.weight_ih_l0 f4 [256, 15]
00000000: 9e48 47bc 3260 973d 4e82 8abd 5083 30be
00000010: ec85 e03c 791e cdbd 9c12 0f3d f532 21be
00000020: fa06 1a3d bf15 b0bd fc33 6bbc 476f 8fbd
00000030: 469f d6bb 0fab 13bd 0c61 ff3c 0cc9 c73d
00000040: 130d 163d 742b 3cbd 4ff1 3ebe 0723 633e
00000050: 5533 313e e372 74bb 7799 5bbe fd95 1dbe
00000060: 41b1 f03d 422c f6bd 5145 b0bd 3c94 aabe
00000070: 274d 96be 03a4 803d 0d3f 24be 192e 30bc
00000080: 95be 5fbe 9479 10bd 7b14 4fbd a31f cbbd
00000090: b6c7 dcbd 2cd7 6cbe 4c8a 5b3d bdd8 f4bd
000000a0: ac9d 94bb 79d6 fcbd ba9b 10be c14d f1bc
000000b0: 23a3 6bbe 9e59 0b3d 4cc6 aaba 479e b3bd
000000c0: ade7 00be 3ecf 023e 5241 983a 50f5 6b3d
000000d0: 24bf 2cbe fd52 85bd c84e cbbd b4e4 b13d
000000e0: 863a 283c 1c15 2bbd ff8b febd d569 37bd
000000f0: b7df 153d 630f 3bbd 4f7c b8be 492f f1bd
00000100: 026c 16bd 75db e8bc 9a25 1439 27de 49be
00000110: 12f1 1a3e 3693 d0bd fd05 2ebe c5dc 01be
00000120: a0bb 16bd ee8a 253e b547 b23d 0f66 c8bd
00000130: 3763 0fbe b437 85bd 9cad 683e fe43 0cbe
00000140: 4eeb 71be 7c65 86be 3a3e 6abe 7e88 883e
00000150: f511 8fbd 7b6e a4bd 0fda f6bc d68e 8abb
00000160: 8507 aa3e 460d afbe a416 8f3d 5837 e1bd
00000170: 1297 2cbe 2101 193d d514 18be 2b46 6cbd
00000180: be85 be3d d151 8bbd 677c 803c eb6c 25be
00000190: d86f 77bd b179 e53d 8460 e4bc e5e7 c73d
000001a0: c5bd d7bd f640 a7bd 2fea 4ebd e4e4 7f3e
000001b0: acae a3bc eb31 10be bfc7 e4bd 45d8 d63d
000001c0: d8b6 ef3d b53b a83d 0336 dcbe 1c15 0f3d
000001d0: 68bb 343d a2d4 54bd 47f9 8b3e af52 63be
000001e0: d05c 06bd 2082 813d 682a 153b 9a3c 6ebe
000001f0: fb3c 1e3d 35f7 f73c 5639 96bd 1d5e 94bd
00000200: 6a2e 96be de5b b63d fca8 b73d 2023 f73d
00000210: 8dfb 873d 6172 57be d6b5 b9bc 5eb9 303e
00000220: 76b3 36bd 0a38 78be 63d5 86be 8e47 683e
00000230: 67c9 6d3e 6112 8d3e 2a1e 95bd 690f 87be
00000240: 32e5 803e acc2 653d 4f71 0cbb 0285 8abe
00000250: 4565 f2be 2eb9 903e bbfd adbd c2d9 04bd
00000260: 92cb 143c 1fe0 50be 1a71 4f3e aa60 b6bd
00000270: 4d31 93bd e6fe 163e 983a a8be 1d17 c5bb
00000280: 53ed 02bc 754a 07be 0781 48bd ae3d 8abe
00000290: eb13 2dbe d58e f33d 4171 c93d b099 0bbe
000002a0: bcff 813e af26 54be 990c 82bd c5e5 17be
000002b0: f8d1 0abe b476 cd3d 30fd 32bd 1221 c13d
000002c0: 8237 a2bd 300a f9bd 3612 5d3c 2842 673c
000002d0: ebea 883d 58ed ce3d fa34 6fbe 8d37 2d3d
000002e0: 0a44 90bc 5c38 da3d 2806 043e bb20 d1bd
000002f0: 3837 35ba b557 d4bc 7834 69bb 4008 09bb
00000300: 8550 4cbd 0443 afbd 5247 18be 56ef 643d
00000310: b2fd 553e 6716 a93d 0de2 3bbd 3401 303d
00000320: a24d 933d 5b39 173e 8f69 2dbd 4a7e 17be
00000330: 00b1 eb3c 9852 5c3e 3f8f 3b3e 35a2 153e
00000340: 36e1 0e3d 0cfc 47be 610f 313e 78cb 35bd
00000350: 26f6 443e 79eb 063f b453 debe fd0c e63e
00000360: 0245 3c3e dccd ed3b 7811 b53e 905a 0cbf
00000370: 9118 cb3d 9cea 47bd c165 7ebd c21f 2c3e
00000380: 5502 d5be f0ed 523d 8adf 11be 653f 9fbe
00000390: ca65 113d 5804 62bc 3938 e53d 2a70 acbd
000003a0: 9c7b 8bbe aead 6fbd b633 dabd 6b07 26be
000003b0: 9e52 07be 1380 47be 90e3 1f3e 107d e83b
000003c0: f51b ba3d 7445 66be 6b43 c9bd fe76 093e
000003d0: d751 5c3d e83e a8bb 86ad 48be 703f 6e3e
000003e0: b77c 6b3e 821e e5be bf95 98bd 9fd4 05be
000003f0: e380 e43d 9bec 53bd c394 32be 0676 0d3e
-0.012163309 0.07391395 -0.06763135 -0.17237592 0.027407609 -0.10015578 0.034929857 -0.15742095
0.03760431 -0.08597898 -0.014355656 -0.07003646 -0.0065497486 -0.036051806 0.031174205 0.097551435
0.036633562 -0.045939878 -0.1864674 0.2218133 0.17304738 -0.0037299923 -0.21445261 -0.15389247
0.117525585 -0.1202016 -0.08606971 -0.3331622 -0.29355738 0.06281283 -0.16039677 -0.010753178
-0.21850045 -0.035272196 -0.05055664 -0.099181436 -0.10780279 -0.23128957 0.053598687 -0.11955402
-0.0045353975 -0.12345595 -0.14121905 -0.029456021 -0.2301145 0.034021012 -0.0013029068 -0.087704234
-0.12588377 0.12774369 0.0011616147 0.057606995 -0.1686979 -0.065099694 -0.09927136 0.086862
0.010267859 -0.04176818 -0.12429046 -0.044778664 0.036590304 -0.04566897 -0.3603234 -0.11776597
-0.036724098 -0.028424958 0.00014128388 -0.1971365 0.15131024 -0.10184328 -0.16994472 -0.12681873
-0.036800027 0.16166279 0.08705083 -0.09785091 -0.14002691 -0.06504765 0.22722477 -0.13697812
-0.23624918 -0.262493 -0.228753 0.26666635 -0.06985847 -0.08028885 -0.030133275 -0.004228453
0.33208862 -0.34189814 0.0698674 -0.10996884 -0.16854504 0.037354592 -0.14851697 -0.057684105
0.09302853 -0.068027146 0.01568432 -0.1615483 -0.060409397 0.112048514 -0.027878053 0.09761027
-0.105342425 -0.08166687 -0.050516304 0.24989659 -0.019980751 -0.14081542 -0.11170911 0.10490469
0.117047966 0.08214513 -0.43009958 0.03493224 0.044124037 -0.051960595 0.2733862 -0.2219951
-0.032803357 0.063236475 0.0022760872 -0.23265305 0.038632374 0.030269245 -0.07335155 -0.07244513
-0.29332286 0.08904241 0.08967778 0.120672464 0.066397764 -0.21039726 -0.022669714 0.17258212
-0.04460474 -0.24240127 -0.26334676 0.22683546 0.2322136 0.27553084 -0.07281144 -0.26378945
0.25174862 0.056093857 -0.0021429842 -0.27054602 -0.47342888 0.2826628 -0.08495661 -0.032434233
0.009081738 -0.20397995 0.20257989 -0.08905156 -0.07187138 0.14745674 -0.32857203 -0.006014718
-0.007991153 -0.13211997 -0.048951175 -0.27000183 -0.1690213 0.118924774 0.098360546 -0.13632846
0.25390422 -0.20717882 -0.06350059 -0.14833744 -0.13556659 0.100324064 -0.04369849 0.09430136
-0.079207435 -0.12160146 0.013493111 0.014114894 0.06685432 0.101038635 -0.23360053 0.042289305
-0.017610569 0.10655281 0.12892973 -0.10211321 -0.000691283 -0.025920728 -0.0035584252 -0.0020909458
-0.049881477 -0.08557704 -0.14870957 0.05589231 0.20897558 0.08256226 -0.045869876 0.042969897
0.07192542 0.14767973 -0.042336997 -0.14794269 0.028770924 0.21515882 0.18316363 0.14612658
0.034882747 -0.19529742 0.17291023 -0.044383496 0.19234523 0.5270305 -0.43423235 0.44931784
0.183857 0.0072572064 0.3536489 -0.5482569 0.09916795 -0.048807725 -0.06210876 0.1680899
-0.41603342 0.051496446 -0.1424543 -0.31103054 0.035497464 -0.013794981 0.11192364 -0.08419831
-0.27242744 -0.058515243 -0.10654394 -0.16213767 -0.1321511 -0.1948245 0.15614152 0.0070949867
0.09087364 -0.22487432 -0.09827312 0.13424298 0.053788986 -0.005134452 -0.19597444 0.23266387
0.22996794 -0.44749838 -0.07450437 -0.1306939 0.11157396 -0.051739316 -0.1743956 0.13814554

rnn.weight_hh_l0 f4 [256, 64]
00000000: 4601 63bd 5b25 383c f405 94bd 32f1 b33d
00000010: 2580 ddbd 5f3a 613d f2e5 e63c f2f1 693d
00000020: 37d6 95bd 3609 9a3d 2090 ae3d 763a 943d
00000030: c2e9 bb3d 4d72 2abd 8b0d ae3d f040 983d
00000040: 391c 70bd 1fe1 1abc c626 1d3e f016 913d
00000050: c5f9 4abd 72ae 7d3d f6d0 1c3d bd3b 223d
00000060: 1a2d 573d 15bc 65bd 8f46 363c a23a 01be
00000070: 8b26 cb3d a8fe 123e aa9d 173e 7c47 b13d
00000080: b63e 2cbe ce7e b1bd 2248 d0bd ac35 32bd
00000090: 1135 eb3d 9126 17bb 25c4 b4bd 77ff 05be
000000a0: 95b7 8cbd b473 683d 9991 c1bd 59a1 923b
000000b0: e910 863d 9f65 01bc 645c b93c 2e10 1a3c
000000c0: fd00 84bd ae32 c93d 6c41 98bd de7a 5fbc
000000d0: 1cb6 f43d f649 6a3c c720 dcbb 6c8d a23b
000000e0: 086c 31bd df34 3e3c 62f9 60bd d048 b7bc
000000f0: a46c a5bd 9863 de3d 22ea 863c 112b ec3d
00000100: b934 c03d 5a17 083e 24ef 58be 60ad 3ebd
00000110: 84f9 64bd 02ef 93be 9b4d 08be 3dc2 3fbd
00000120: 45fb 03be 5138 3d3e 172b 5f3e a5a4 c6bd
00000130: 3b78 633d ba48 3c39 4731 cf3d 4199 303d
00000140: 1052 463d 0c46 133e 2953 16be 2746 003d
00000150: 7cf4 623d 0549 8cbd c254 103e 7198 213d
00000160: b310 d6bd 87c6 7b3e 16c7 2abe 721b 1e3e
00000170: e783 583b 4741 0b3e 47ba 3a3d d620 ef3d
00000180: 46d4 6ebe 052f a83d c5d0 b6bd 1867 5ebd
00000190: 2900 2cbe 01e0 61bd c578 84bd ee9a 8bbe
000001a0: cb44 1e3e 0872 63be 812f 7ebd a5b8 84bc
000001b0: aff3 3ebc db5f 44bd e170 9bbd 468a 833d
000001c0: 2dc5 e93d 26e1 01be 902a f0bd 302c 16be
000001d0: 99c5 d5bd 3090 41bd d6da 253d e8bd 1e3e
000001e0: 2003 b6bc e087 d03c 9ee9 7b3d 8bc6 64bd
000001f0: 0fb1 cd3d fe44 a83d 5e11 3ebd 8065 133e
00000200: 843e ebbc b753 723d a2ef ef3c a3e8 783c
00000210: b3d0 0dbb e5d7 473e 97b3 073d dcb4 febd
00000220: 27a9 963d 0cd2 95bd 5970 22be d6a1 823e
00000230: 72b4 d9b9 9d82 86bd 78de d3bd 1ad3 643d
00000240: 3c52 ec3d 60f3 d0bd 6d1e 0a3e 69ee 06bd
00000250: 5c39 eebd c6c4 d43b 34d9 54bc 3d18 c63d
00000260: 7f86 293e 1e91 07bd 27e8 f63d 2cc0 ed3c
00000270: c808 393e 4f7e bcbc 4327 583e 9430 0b3d
00000280: 64db 153d 3c2e 2f3c 9fb1 f43d 8e97 1a3e
00000290: 9157 cc3d cae9 ad3d 0528 13bb 32e9 87bd
000002a0: 8cb5 0abd 358e 6f3d 5a34 2abd 6d53 9f3d
000002b0: 1180 b0bd 1bfb a9bd e404 c23d efb0 0f3d
000002c0: 6058 bbbd 40df c63d f1a7 8fbd 5290 913d
000002d0: 0856 02bd e082 f1bd 1bd6 febc b3f3 9bbc
000002e0: 319f ec3b 8b30 e83c 75a5 df3d 79aa 0a3d
000002f0: 318d 7bbe c501 a13d 3b44 d23c 5cb4 2e3e
00000300: 92b8 843c 36ed b8bc 4097 383d dbe1 003d
00000310: fb4c 8d3c 841e 9d3c f4ed 84bd 7b4c b63c
00000320: f8b2 e1bd 2c7e 97bd a297 11be 7588 383e
00000330: 1ac4 0e3d 300b 3cbc ae8b 913d ac98 a7bd
00000340: f70f 41be 11a9 14be f67c 013d 2642 84bd
00000350: 2665 283d 15d6 2b3e ef32 cdbd 8dfd 503d
00000360: 4f44 953d 93d0 58bd 924a f6bd 8002 21bc
00000370: 8c70 183e 3bc1 213c 1221 5ebd e8a7 b7bc
00000380: 8d29 fbbd 1996 783b 17b9 a03d dbc9 54bd
00000390: 5694 c43d 26f6 39be f1e2 b83c 1f45 413e
000003a0: 567b 14be 1d77 88bd ffc0 24bd e7c9 de3b
000003b0: 91d3 643c 3941 373e 2d41 023e 0319 b5bd
000003c0: f143 993d 0957 d6bc 47cc 223e 4ae2 473e
000003d0: 0e66 2d3d f5ee 7bbd 7a0d 81bc 199d 1cbe
000003e0: 23bb c03d e113 1ebe b7df f2bd 6739 e23d
000003f0: 60c7 87be 9d41 24be f7c6 1b3e 7d61 aa3d
-0.055421136 0.011239375 -0.07227698 0.08786239 -0.10815457 0.054987308 0.028185818 0.057115503
-0.07316249 0.07521288 0.085235834 0.07237713 0.09175445 -0.041612912 0.08498677 0.07434261
-0.058620665 -0.009453087 0.15346822 0.07084453 -0.049554605 0.061933942 0.03828522 0.039607752
0.052533247 -0.056087572 0.011125221 -0.12620023 0.09919461 0.14354956 0.14806238 0.08656213
-0.16820797 -0.08666764 -0.10170008 -0.043508217 0.11484731 -0.002306376 -0.08826474 -0.13085733
-0.06870953 0.056750968 -0.09451599 0.0044748005 0.06546194 -0.0078977635 0.022627063 0.009403272
-0.06445501 0.098241195 -0.07434353 -0.013640134 0.11948797 0.01429986 -0.0067177746 0.0049607065
-0.043315917 0.011609285 -0.05492533 -0.022373587 -0.08077362 0.1085884 0.016469065 0.11531652
0.09385056 0.13290158 -0.21184975 -0.046552062 -0.05590202 -0.28893286 -0.13310854 -0.0468161
-0.1288882 0.18478514 0.21793781 -0.09699372 0.055534583 0.0001795617 0.10116821 0.043114904
0.048418105 0.1438219 -0.1468016 0.031316902 0.05540894 -0.06849865 0.14094833 0.03945202
-0.10452404 0.24587451 -0.16677508 0.15440157 0.0033037604 0.1359912 0.045587804 0.11676185
-0.23323163 0.08212093 -0.089265384 -0.054297537 -0.16796936 -0.055145267 -0.064683475 -0.2726664
0.1545593 -0.22211468 -0.062057022 -0.016201327 -0.011654778 -0.047942977 -0.07589889 0.06422858
0.114145614 -0.12683544 -0.11726868 -0.14665294 -0.104380794 -0.04725665 0.0404919 0.15502131
-0.022218287 0.025455415 0.06150209 -0.055853408 0.10043537 0.08216284 -0.04640328 0.14394188
-0.028716333 0.059161868 0.02928907 0.015192184 -0.0021639287 0.19515951 0.033130255 -0.1243684
0.07356482 -0.07315454 -0.1586317 0.25514096 -0.00041523908 -0.06567881 -0.10345167 0.055865385
0.115391225 -0.1020267 0.13488169 -0.03294221 -0.11632034 0.006493184 -0.012991238 0.09672592
0.16555212 -0.03309738 0.12055998 0.029022299 0.18069756 -0.023009447 0.21108727 0.033981875
0.03658618 0.0106921755 0.11947941 0.15096876 0.099776395 0.08491857 -0.0022454273 -0.06636275
-0.033864543 0.05848523 -0.041553833 0.07779584 -0.08618177 -0.08299848 0.09473589 0.035080846
-0.091477156 0.0971055 -0.07014454 0.07107605 -0.031820327 -0.117925406 -0.031107953 -0.019037103
0.0072211255 0.02834346 0.1092023 0.03385398 -0.24565579 0.07861666 0.0256673 0.17060989
0.016201291 -0.022574048 0.04506612 0.031465393 0.017248621 0.01917959 -0.064906985 0.022253266
-0.11020464 -0.07397112 -0.14218 0.18020804 0.034854986 -0.011477277 0.0710672 -0.08183417
-0.18853746 -0.14517619 0.031613313 -0.06457929 0.041112088 0.16780885 -0.100194804 0.051023055
0.072884195 -0.052933287 -0.12025942 -0.009827256 0.14886683 0.00987273 -0.054230757 -0.022418931
-0.122637846 0.0037931262 0.07847803 -0.051950317 0.09598605 -0.18160304 0.022569152 0.18874024
-0.14500174 -0.06663344 -0.040223118 0.006798971 0.013966457 0.17895974 0.12720175 -0.08842661
0.07483662 -0.026164548 0.15898238 0.19519916 0.042333655 -0.061507184 -0.015753496 -0.15294303
0.094106935 -0.1543727 -0.118590765 0.11046105 -0.265193 -0.16040654 0.15212618 0.08319376

rnn.bias_ih_l0 f4 [256]
00000000: d012 83bc 5081 163e a9e6 87bc c217 d1bc
00000010: 658d c1bd b201 e13d e6db fa3d 5b4d fbbd
00000020: 7a89 8a3e 7275 913e 1577 193d bb12 913c
00000030: b98c 163e cf3a f8bd 0d23 483e 8744 c4bd
00000040: 51d4 e73d 7fbc f23d 546d debd 2759 93bd
00000050: 40e3 ae3d 85a2 173d 9880 833e 22d9 fd3a
00000060: 1197 573d 7a5c c23d ed68 10bd 2e96 09bd
00000070: 5d4e dd3d 25dc 303b 8695 04be 8c87 bc3d
00000080: caf0 a3bb 1052 3cbd 7ad2 c33d e6b1 cf3d
00000090: 7f9d 843d 7af9 b7bd e554 103e 0818 a83e
000000a0: c7e7 ea3d 1594 0fbd 7cda 0dbd b1ab 103e
000000b0: b805 41bb aceb 493b accb c0bd f785 cebd
000000c0: af37 31bd 58d5 4f3d 24d8 bd3d 2985 cebb
000000d0: 7190 5bbd c9dd 143e 22a0 703d 6823 8fbd
000000e0: 3d34 d83c c9d5 9e3d dfb0 e4bd fae3 21bd
000000f0: 28de bf3d 9dd7 d0bd 7114 853e 4ad3 0ebd
00000100: 0ea3 d73c 0694 64bd a2ff d3bc a501 9d3d
00000110: 880a 03be 1c67 88bc 4370 14bd 96ee 873d
00000120: 6852 a5bd b624 833b 4a61 fa3d 55f8 5d3c
00000130: 7ed0 e5bd d39c 56bd 8be2 243d c397 02be
00000140: f91e 8fbb 8a37 8cbd ff7a 213d 9ce4 083d
00000150: 16e4 48bd 2638 79ba b031 9fbd 9d38 993d
00000160: 5826 e8bd 9b1d 713d 698e 8abd 1942 c8bd
00000170: cff5 b23c e8ed 0abe 594e 583d 9778 bf3d
00000180: 0f31 84bd fc8f c1bc 391e 8a3d c42d a9bd
00000190: f29f acbc 7e7c afbd 4f5d c53d 211a 893d
000001a0: 51ae 833d 45b6 453d 55a8 3bbd 046f a1ba
000001b0: fdc2 8e3a d89a 203d e0e6 9137 1b16 59bd
000001c0: 66e5 9cbd 25e9 1ebd a575 babd 669c ab3d
000001d0: 9abe e5bd a69d b6bd c679 8ebd 6075 f2bd
000001e0: 150c cfbd 16fc 08be 0427 18bb d244 bfbd
000001f0: 2d68 53bc f4d4 cd3d b7e4 8fbd e569 ab3d
00000200: 4423 4f3d 523c 263d 06d8 22bd f833 0c3d
00000210: f441 a1bd a9c0 83bd feac 86bd 7238 bebd
00000220: b36c a0bd c1bd 5f3d 7955 6abd 3f23 39bd
00000230: 9974 8e3d d9df bf3b c337 bf3d 3c3c b83d
00000240: 475e 98bc 47fb d23d d69e 173a 7e42 7e3d
00000250: d879 75bd 2fbc 10bd 18d6 01bd 6829 6e3d
00000260: fe2f 8e3d effc 7dbd d27d 653d dfb8 3d3d
00000270: 55b0 f33b 7d1d 95bd 5eb6 153d d8ab d03d
00000280: ce99 a73d 896e cabc 672e a43d affb 8dbd
00000290: 0751 e7bc 5985 ec3d d03c 5a3c df02 71bd
000002a0: 73d3 223d abd1 e1bc 257e b93d 7f71 b0bd
000002b0: 4213 863d 2abe 883d 4185 4bbd 8458 a8bd
000002c0: a4a8 d2bd ff18 9f3d 6bb3 dfbd b8f1 053d
000002d0: bc42 d4bd 506e cdba f95f babd 8b81 6a3d
000002e0: 6943 a43d 8cbb ea3c 3497 953d bb31 423d
000002f0: de5b 0dbd 4f4f a43d 022e 7f3d b88a 933d
00000300: 6c3b 36bc afd3 0a3e 57ae 2e3d 0ae9 933c
00000310: cc7a 16bd 636e 4d3b f139 be3c 24d8 b03d
00000320: 21cb 953e 26d6 0e3e 7ab5 033e c615 763d
00000330: 4f1c 093e 94c2 95bd 7193 843d d31d b93c
00000340: 984e 1e3e ac57 a23b 4118 cebd bf64 6e3d
00000350: 9b76 15bd b8ec 98bd 1cf0 6f3e 8895 7b3d
00000360: 7d88 87bc a86d 043e b0cd ab3d b702 ccbd
00000370: 3f1c bf3d 2d74 03bc ec58 683d 445d 703e
00000380: 770f a53d 56e1 913c eeb9 c93c 9a1b f3bc
00000390: 8413 513d 9ec6 22bd b195 8d3d 6103 973e
000003a0: 8246 1d3e 77a9 7c3d 3f7e d13d 3369 1eba
000003b0: e355 e2bd fee7 c3bd c040 023e 0ccc 783d
000003c0: 955a 7ebd b13d bb3d a983 4d3e d42b 973d
000003d0: 9917 b63d 98da d4bc 6e01 51bd 3de1 223d
000003e0: 3cd4 4fbd ce86 b93c bdfd 0cbe 5473 893d
000003f0: 1507 633d 2eb4 293d fbad 963e 0ec9 9e3b
-0.016000181 0.14697766 -0.01658948 -0.025524024 -0.09450797 0.109866515 0.122489735 -0.12270614
0.2705801 0.28409916 0.03746708 0.017709127 0.14702119 -0.12120592 0.19544621 -0.09583383
0.11319793 0.11852359 -0.108606964 -0.07194739 0.08539438 0.037020225 0.25684047 0.0019367079
0.052634303 0.09490295 -0.035256315 -0.033590488 0.10805962 0.0026986685 -0.12947664 0.09205541
-0.0050030695 -0.0459767 0.095616296 0.10141353 0.064753525 -0.08983131 0.14094885 0.32830834
0.11469989 -0.03505333 -0.03463219 0.14127995 -0.0029452872 0.0030810637 -0.09413847 -0.100841455
-0.043265995 0.05074057 0.09269741 -0.006302495 -0.053604547 0.1453773 0.058746465 -0.06989175
0.026392097 0.0775562 -0.11166548 -0.039524056 0.09368545 -0.10197375 0.25992158 -0.03486947
0.026322868 -0.05580523 -0.025878731 0.07666329 -0.12796986 -0.016650729 -0.036239874 0.066373035
-0.08072358 0.004002179 0.12225588 0.0135479765 -0.11221407 -0.052395653 0.04025511 -0.12753205
-0.004367706 -0.06846531 0.03942394 0.033421144 -0.049045645 -0.0009506963 -0.07773149 0.07481501
-0.113354385 0.058866125 -0.06765444 -0.09778232 0.021845726 -0.13567317 0.052809093 0.093491726
-0.0645467 -0.023628227 0.06744046 -0.08260682 -0.021072362 -0.08568667 0.09636938 0.06694437
0.064297326 0.04826953 -0.04581483 -0.001231641 0.0010891851 0.03921017 1.7392857e-05 -0.052999597
-0.07660942 -0.038796563 -0.0910447 0.0837944 -0.11217995 -0.08916788 -0.0695682 -0.11838794
-0.10109726 -0.13377413 -0.0023216614 -0.09339298 -0.012903255 0.10050383 -0.07026046 0.08369807
0.05057074 0.04058487 -0.039756797 0.03422925 -0.07873908 -0.064332314 -0.065759644 -0.0928811
-0.07833233 0.054624323 -0.05721042 -0.04519963 0.06955833 0.005855542 0.093368076 0.08995864
-0.018599642 0.103018336 0.0005783861 0.06207513 -0.059930652 -0.035335716 -0.031698316 0.058144957
0.069427475 -0.062008794 0.056028195 0.046318885 0.007436792 -0.07281015 0.036550872 0.101890266
0.08183633 -0.02471091 0.08016663 -0.069327705 -0.028236879 0.115488715 0.013320163 -0.05884063
0.039752435 -0.027565798 0.09057263 -0.08615398 0.06546642 0.06676896 -0.049687628 -0.08220008
-0.10286072 0.077684395 -0.10922893 0.032701224 -0.10364291 -0.0015673134 -0.091003366 0.057252448
0.0802067 0.028653882 0.0730423 0.047410708 -0.03451144 0.080229394 0.062299736 0.07204193
-0.011122566 0.13557313 0.042646732 0.018055458 -0.036738202 0.0031346313 0.023220988 0.086349756
0.29256538 0.13948879 0.12862197 0.06007936 0.13389705 -0.073125035 0.06473435 0.02259723
0.15459669 0.004954299 -0.1006322 0.058201548 -0.036490064 -0.074670255 0.23431438 0.0614219
-0.016544575 0.12932456 0.08388841 -0.09961455 0.093315594 -0.008023304 0.056725428 0.23473078
0.0805959 0.017807644 0.024624791 -0.029676247 0.051044002 -0.039740197 0.06913317 0.29494765
0.15358928 0.06168505 0.10229158 -0.00060428976 -0.11051538 -0.095657334 0.12720013 0.06074147
-0.062098105 0.09142626 0.20069756 0.073814064 0.0889122 -0.02598314 -0.051026754 0.039765585
-0.05073951 0.022647288 -0.13768668 0.0671145 0.055426676 0.0414316 0.29429612 0.004845745

rnn.bias_hh_l0 f4 [256]
00000000: 15d0 e53d dc6b e53d 8d1c e1bb 1010 d33d
00000010: 1898 04be 5578 1a3d 683f a9bd f839 9dbb
00000020: 046f 713e e45d 8b3e d978 303e 2804 303d
00000030: 6faa 143e d006 dbbc 55cb 6f3e 2f03 f1bd
00000040: 394c 3a3e 7f67 cdbc 5fba fc3c 902d 923c
00000050: 36e7 ba3d 67be 163d 8bf5 7d3e cda8 953d
00000060: cd9d 9d3d 1150 773e 8bc4 ed3d fc22 19bd
00000070: caff b0bc 805c 103e b926 c43d 2120 013e
00000080: 1bc6 183e e6de 073d 3e14 5f3d 8633 c23d
00000090: 3c99 bebd ad83 1b3d 6065 323d d626 c83e
000000a0: 7b02 d63d 6d03 33bd 7033 d6bc c704 bc3d
000000b0: 18c2 153d 0fae f7bd 4199 ce3d a722 aebd
000000c0: 4fb2 1e3d 3b80 e53d b4a2 c63d ca56 823d
000000d0: 1440 9dbd 8630 103e b58a fa3d a561 17bd
000000e0: 7a43 833d 8853 06be 8712 c43d 00ef 573d
000000f0: bd76 833e eadc 22bb 5e26 df3e 64d4 483d
00000100: fcbb 9e3d e7ed bebd 2b9c cfbd 744d 0e3c
00000110: 187c 893c 3f63 423d 9b58 443d 70c3 a6bc
00000120: c085 d13d fa50 8f3b 66b5 1f3e 6a40 d53c
00000130: 9c22 ef3d f0b0 d13d bb80 3e3e a1bf 8ebd
00000140: 2e52 2abc 9047 91bd db83 e1bc 5ad2 24bc
00000150: af14 dfbc 58f9 9d3d 2d30 b03b f24d 783d
00000160: 27fd 08be 0cf3 183e 0701 e9bc 9510 88bc
00000170: 5b53 3f3d 4169 a6bd abd1 543d 5f20 bf3d
00000180: 41a7 afbd d2b7 b3bc 43f1 8dbc 284a dfbb
00000190: 32ce c93d 96fe cdbd 33f1 ff3d 3fc4 8a3d
000001a0: 10a6 463d e168 cb3d 917e ac3d c584 25bd
000001b0: 07f0 07be f5b4 febb a6e1 d7bd eb5b a5bd
000001c0: 87b0 e53b 4abc f0bc 11a8 34bd d2a9 e3bd
000001d0: 90e4 d03d a244 ad3d 88aa 2cbc d779 8ebd
000001e0: a595 b53d 12c6 47bd 4080 30bb 9a2d cd3d
000001f0: f34a 37bc 4407 c1bd 40d3 68bd d45d 92bc
00000200: b6e5 8cbc b269 1cbd d4e4 f3bc 3060 2fbd
00000210: da38 93bd 062c 083d 32a4 3b3d 5f0f 883d
00000220: fba8 373d 3771 24bd 41b9 843c 397a 223d
00000230: 2507 50bd bc06 1abd 3a5b 0fbd 2550 5f3d
00000240: a9c4 8bbd 6db8 c9bd 0213 1dbd f24a 2c3d
00000250: f4f9 a53d 8f70 183d de93 d33c 4267 ecbc
00000260: 4802 543d e0d6 7c3d 2de5 76bc 2684 ca3d
00000270: 3598 233d 7160 543d f51a 79bc 6479 81bd
00000280: 92e2 efbd c904 48bd 839f 383c 1fc2 a93d
00000290: 2cfa 37bd cb31 a6bd 5333 ca3d 1174 063d
000002a0: 8ca0 c0bc a54b 8e3d cde3 88bd 0943 623d
000002b0: 2481 98bd bace a4bd 3f47 6b3d 84e7 103c
000002c0: 5866 f43d eea9 50bd 99ec 8e3d a387 863d
000002d0: 769c 4dbd 6850 333c 6745 be3d d966 3c3d
000002e0: 076e 06bd 58f2 15bd 04e6 b33d 1735 b4bd
000002f0: e5d5 bf3c 2f7f 82bc d3a1 35bd 6ad2 ff3c
00000300: 055b bf3b 0a4f c73d 5626 163e 4508 06bd
00000310: 7a33 a0bc 396e 033e 3ddf 8e3d 6c33 e8ba
00000320: 2311 863e 5b0b 823e 669d ad3d 232e 96bd
00000330: 364c bd3c 168c d93d e52b 753d 6a4b ffbd
00000340: ed3f fb3d fb76 e93d 56f1 323b 5ddc 0abe
00000350: 90d2 833d d48f 243d b4f5 103e b051 043d
00000360: 45cb a23c a275 e33d 5875 cc3d 5118 c1bd
00000370: 2f7a 7f3c 65e5 643c d2b8 b7bc e676 013e
00000380: 78f0 843d 2ddf d1bd b044 0fbe 2919 ae3b
00000390: 327a 443d 699b 84bd 7120 3f3d 537a 993e
000003a0: e807 403e b497 d03d 2912 afbc 62fc 7cbd
000003b0: 35bc 123d 50b9 c8bc 0226 f43d f9d3 973b
000003c0: 51a3 233d afcc 0d3d fb3e 2f3e a3f4 b2bc
000003d0: 51e8 1e3d babc 23bc 289c 97bd ed48 20bd
000003e0: de8d 66bd 73b2 f5bd a469 d7bd 5a4e 723d
000003f0: b880 fd3d e4fe 83bd dbd7 b43e 38ca 563d
0.11221329 0.11202213 -0.0068698586 0.10305798 -0.12948644 0.037712414 -0.08264047 -0.00479817
0.23577505 0.2722007 0.172336 0.042972714 0.1451814 -0.026736647 0.23417409 -0.11768185
0.18193139 -0.025073765 0.030850587 0.017843992 0.09126131 0.036802676 0.24800698 0.07307587
0.07696114 0.24151637 0.11609753 -0.03738688 -0.021606345 0.14097786 0.09577698 0.12609912
0.14919321 0.033171557 0.054462664 0.094824836 -0.09306571 0.037967373 0.04355371 0.3909213
0.10449692 -0.04370444 -0.026147574 0.09180599 0.036562055 -0.12093746 0.100878246 -0.08502703
0.038744267 0.11206099 0.09699002 0.0636421 -0.076782376 0.1408101 0.122334875 -0.036958355
0.064093545 -0.13117802 0.09573846 0.052718163 0.25676528 -0.0024850913 0.4358396 0.049030676
0.07750699 -0.0932272 -0.101372086 0.008685458 0.016782805 0.04745793 0.047936063 -0.020356864
0.10230589 0.004373667 0.15596542 0.026031692 0.11676523 0.10238826 0.18603794 -0.06970144
-0.01039557 -0.070937276 -0.027528694 -0.010059917 -0.027231542 0.07713574 0.0053768368 0.06062121
-0.1337782 0.14936465 -0.028442873 -0.01660947 0.046710353 -0.08125544 0.051957767 0.09332346
-0.08576823 -0.021938238 -0.017326957 -0.00681426 0.09853782 -0.10058324 0.12497177 0.06775712
0.048498213 0.099321134 0.08422578 -0.040409822 -0.13275157 -0.0077730366 -0.10541086 -0.080741726
0.007009569 -0.029386658 -0.044105593 -0.11116375 0.10199845 0.08460356 -0.010538705 -0.06956833
0.08866433 -0.04877288 -0.0026931912 0.100184634 -0.011187303 -0.09425214 -0.05684209 -0.017867006
-0.017199378 -0.038186736 -0.0297722 -0.04281634 -0.07188578 0.03324511 0.045810886 0.06643557
0.044838887 -0.040147033 0.016201617 0.03966734 -0.050788064 -0.03760408 -0.03499911 0.05451979
-0.06824619 -0.098496296 -0.038348205 0.04206366 0.081043154 0.03721672 0.025827345 -0.02885783
0.051759988 0.06172836 -0.015069288 0.098884866 0.039940078 0.051849786 -0.015204181 -0.063219815
-0.11713137 -0.04883269 0.011268499 0.08288979 -0.044916317 -0.08114966 0.098730706 0.032825533
-0.023514055 0.06948022 -0.066840746 0.05523971 -0.074465066 -0.080472425 0.057440992 0.00884426
0.11933583 -0.050943308 0.06978721 0.065688394 -0.05019804 0.010944463 0.09290581 0.04599652
-0.032819774 -0.03660807 0.087841064 -0.087991886 0.023417423 -0.015929786 -0.04434378 0.031228263
0.005839708 0.097318724 0.14663061 -0.03272273 -0.019555796 0.12835015 0.06976173 -0.001771552
0.2618495 0.2539929 0.08477287 -0.07333019 0.02310763 0.106224224 0.059856314 -0.12465556
0.12268052 0.11399647 0.0027304492 -0.13560624 0.06436646 0.040176228 0.14156228 0.032304466
0.019872317 0.11106421 0.09983319 -0.09428466 0.015593096 0.013970708 -0.022426996 0.12643012
0.06491178 -0.102476455 -0.13991046 0.005313058 0.047968097 -0.06474955 0.046661798 0.29976138
0.18753016 0.10185185 -0.021370964 -0.06176413 0.03582402 -0.024502426 0.11921312 0.0046334234
0.039950673 0.03461903 0.17113869 -0.021845168 0.038795773 -0.009993726 -0.07402831 -0.039132047
-0.05628764 -0.11996927 -0.10518196 0.059156753 0.12378067 -0.06445101 0.35320935 0.052438945

rnn.weight_ih_l1 f4 [256, 64]
00000000: ce73 22bd 700c e6bb a729 cfbc 2356 2fbc
00000010: 0d22 2b3c 15f0 ee3c 0b42 793d aaf9 54bd
00000020: 5f58 9f3d 644a 0b3e e3b1 e2bd 7cb0 0b3e
00000030: ecb7 d53d 9325 463d bc8a 00be 0cfa 79bd
00000040: 76f3 003e 4a24 8cbd b820 a13d a88f a7bc
00000050: 03f3 c5bd 7a46 d3bb 9251 95bc 655b bb3d
00000060: 5270 1e3d 2138 eb3b 4758 f23d 4868 94bd
00000070: ff95 3a3d 2c50 3f3d bd64 a03d ae4d d7bd
00000080: 9d11 47bd 4762 9dbd b7d7 05bd 4282 2a3d
00000090: 0a1b 2bbd c34d e2bb 5c33 91bc 4931 f3bc
000000a0: 21f8 e0bd 0d25 013d 0119 7ebd fbec a43d
000000b0: 42e0 aebd 8bc3 ecbd 38ee c53c 684e 0ebc
000000c0: b8eb a53c fb19 76bd bdae 0e3e a923 8a3d
000000d0: c111 03bd 38dd d03d 3201 903d 0580 59bd
000000e0: b698 b1bc af85 a8bc 160e 333d 66ef 623d
000000f0: fadf c0bd 93b6 1a3d 33b3 13be 56e1 443d
00000100: fd0e 04bd 1312 55be d5aa 0e3d a990 b6bd
00000110: fe5e dbbc 4680 3cbd a65d c73d 8362 01be
00000120: 33f1 88bc 63bb 433e 6be3 f23d fe1f 853b
00000130: c7f7 7dbd 08c2 cebd 9ad5 1dbe fa8c b1bd
00000140: f986 143e a2ab 21be 6a3b 29be 3f28 253e
00000150: 82f8 7dbd 895c ec3d c61d 083e 963f 503e
00000160: 737f 813d b997 01be f167 2f3e d24e a9bc
00000170: 506b 083e f247 4cbe 3ce5 173e 16d2 c03d
00000180: 6b53 ff3d 0ffd f93b d65c 2fbe b65a 843d
00000190: 24c5 28be 43fb 86bd 508c 1d3e 9184 94be
000001a0: 2439 993d 549e b7bc bc4d 9ebd bc2c 8fbe
000001b0: d466 cb3d 943c efbc 6613 703d 8859 57bc
000001c0: 149d 42bd 795a f0bd dff8 943d b3d6 923c
000001d0: 1c44 723d 653b e03d 2932 dd3c a959 c13d
000001e0: d17b 073e fc82 b1bd a4ce 5b3e db98 053e
000001f0: d9ad 973e a49c 9038 d4c0 f43d 3800 713d
00000200: 7353 b6bd 6c07 1b3d d7f1 af3d a523 c73b
00000210: b0f8 6bbd 0851 773d 753f 9f3d 6f9b 4bbd
00000220: add7 e4bd 5638 253c ff08 3f3d ea20 a83c
00000230: d6a8 793d 3f4b 7ebd a189 913d e6be f8bd
00000240: 4a69 64bd b319 1b3d 1e56 983d 7fe6 cb3c
00000250: 1a57 8cbd 0a4d 123d b8b7 503d 2bc5 a03d
00000260: 388c a43b 7780 3b3e 99b2 933d ff14 cdbd
00000270: e44a 0a3d 02a4 e7bd 6a1e 5f3c b817 f33d
00000280: f48b 853d 18ce 673d e907 cb3c 17c8 93bd
00000290: 123c d73c 4add 24bd b0e0 233d e360 b93c
000002a0: 1a4c c93d 3f3b e8bc 1c97 0b3d 70b2 00be
000002b0: d0ba e53d 8762 febd 2d51 ea3c f26d 4ebc
000002c0: 1422 ddbd 63eb 91bd 77b2 69bd b192 d13d
000002d0: d010 413d 575d 81bd d4e4 013c 2597 153c
000002e0: 33e6 bebd 2281 43bd 6e10 a33d 210d 8abd
000002f0: 66bf 3cbd f45d 34bd 0e69 e03d c388 14bd
00000300: fb8d a03d 12ff f3bd ef6e 073d dbe7 95bc
00000310: ad19 b5bd bd21 b63d bfc2 92bb f84a 75bc
00000320: 7669 a1bd 22f5 abbd df7b 063e 1865 683e
00000330: c26b 233e 789a fabd e5d7 18bd a312 993d
00000340: 415e e7bc f076 86bd 3e95 5bbc fbc3 5a3d
00000350: 7866 aabd 5c0d f93c e275 f93d 1829 0bbd
00000360: 6712 d6bd 97cf 03be 0a38 9c3d 4112 443c
00000370: 744a 0c3e 58ca c93d 2fd4 acbc 5af5 fbbd
00000380: 19f2 b0bd bb79 e93d ab21 04be 5ddf 1d3c
00000390: 66e9 823d 1749 80bc 0584 d2bd 44f4 a73b
000003a0: 38b8 47bc 2db9 fe3a 055f 64bb f987 5f3d
000003b0: af1f f5bd e649 203d 5178 963d fdbf a6bd
000003c0: c87e a83b 3a65 d9bd a015 febb 9722 903d
000003d0: 98b5 d9bb a12a 2ebd 830e e63c a775 cf3c
000003e0: 58b8 923d f7c9 b43d a9d4 c83d 376d 10bc
000003f0: 60a1 983c 7af4 b3bd 5e4e 753d 096c 243e
-0.03966122 -0.0070205256 -0.025288416 -0.010701689 0.01044513 0.029167214 0.060854 -0.05199591
0.07780527 0.13602597 -0.110690854 0.13641542 0.10435471 0.048375677 -0.12552923 -0.06102948
0.12592873 -0.06842859 0.07867569 -0.020454243 -0.096654914 -0.0064476104 -0.018227372 0.091482915
0.038681336 0.007178322 0.11833244 -0.072464526 0.045553204 0.046707317 0.07831714 -0.10512863
-0.04860078 -0.076847605 -0.032676425 0.04162813 -0.041773833 -0.0069062426 -0.017724685 -0.029686587
-0.10984827 0.031529475 -0.062035564 0.08053013 -0.085388675 -0.11560734 0.024161443 -0.008685686
0.020254001 -0.06008337 0.13933845 0.06745083 -0.031999353 0.10198444 0.07031478 -0.053100605
-0.021679264 -0.020571558 0.043714605 0.05540409 -0.0941772 0.037771773 -0.14423828 0.04806646
-0.032240856 -0.20807676 0.034830887 -0.089143105 -0.026778694 -0.04602077 0.09734659 -0.12635235
-0.016716575 0.19114451 0.11859783 0.0040626517 -0.062003877 -0.10095602 -0.15413514 -0.08669467
0.14504613 -0.15788129 -0.16526571 0.16128634 -0.062004574 0.11541087 0.13292608 0.20336756
0.06323137 -0.12655534 0.17129494 -0.020667467 0.13322186 -0.1994932 0.1483354 0.09415071
0.124670826 0.007629044 -0.17125258 0.06462614 -0.16481453 -0.06590893 0.15385556 -0.2900739
0.07481602 -0.022414364 -0.077296704 -0.27963817 0.09931722 -0.02920369 0.05861225 -0.0131439045
-0.047513083 -0.11736006 0.07274031 0.017924642 0.059146985 0.109488286 0.027001457 0.094409294
0.13230826 -0.086675614 0.21465546 0.13046591 0.29624823 6.895632e-05 0.119508415 0.0588381
-0.089026354 0.037848875 0.08591049 0.006077247 -0.057610214 0.06038001 0.07775775 -0.04970878
-0.111739494 0.010084232 0.04663944 0.020523507 0.06095203 -0.06208348 0.07106329 -0.12145786
-0.055764474 0.037866306 0.074383005 0.024890183 -0.06852551 0.035718 0.050956458 0.07850107
0.005021598 0.18310724 0.07211799 -0.1001377 0.033762828 -0.11310579 0.013618091 0.11869758
0.065208346 0.05659303 0.024784045 -0.072158985 0.026273761 -0.0402501 0.0400092 0.022629207
0.09828968 -0.028348563 0.034079656 -0.12568069 0.11217272 -0.12421136 0.02860316 -0.012599455
-0.107975155 -0.071249746 -0.057054963 0.10233057 0.047135174 -0.06316631 0.007928092 0.009130274
-0.09321251 -0.047730573 0.07962118 -0.067407854 -0.04608097 -0.044034913 0.109575376 -0.03626324
0.078395806 -0.11913885 0.03306478 -0.018299034 -0.08842788 0.08893154 -0.004478782 -0.014971487
-0.07881443 -0.08396365 0.1313319 0.22694814 0.15959075 -0.12236494 -0.037315268 0.07474258
-0.028243186 -0.06565654 -0.013402281 0.053409558 -0.083203256 0.030401878 0.121806875 -0.033974737
-0.10452729 -0.12872158 0.07627876 0.011967243 0.13700277 0.09853047 -0.02109727 -0.123026565
-0.086399265 0.11400171 -0.12903468 0.0096357735 0.063921735 -0.015659852 -0.10279087 0.0051255543
-0.012189917 0.0019433849 -0.0034846675 0.054573033 -0.11968934 0.039132975 0.07347167 -0.081420876
0.0051420666 -0.106150106 -0.0077540427 0.070378475 -0.006643962 -0.042521123 0.028083092 0.025324656
0.07164067 0.08827584 0.09806187 -0.008815101 0.018631637 -0.087868646 0.05988919 0.16056837

rnn.weight_hh_l1 f4 [256, 64]
00000000: 0b6f 333c c875 c4bc ddf6 9abc 91c0 2a3d
00000010: bc85 86bd e584 d3bd 9a18 27bd 720a 533d
00000020: 83fa 56bd d836 9fbd 179b 27be ec72 343e
00000030: da5a 85bd 40b1 06be a4f8 88bd 5705 773d
00000040: 53e4 d8bd be50 32bd fc7e 6bb9 277d d2ba
00000050: 6471 56bd 0b1c 1ebe b866 febd 1ca7 b23c
00000060: e34a 78bc 281d 963d ada9 113e b7b2 55bc
00000070: 5c44 c03c c74c dcba c75b 0c3c 1a8a 103b
00000080: 4e95 88bd 1667 53bd 1a4a db3d cb17 90bd
00000090: 51af 523d 230d e5bd a580 a6bd cc7a 4cbd
000000a0: 22eb a4bd bffa 593d 3caa 5dbc cab1 b63d
000000b0: 456b 8a3d 69cd 133d 73e8 66bc 3baa a5bd
000000c0: 239d cabd 77cd 6e3d 21db 993d 84d9 d4bd
000000d0: 7eef 20bc 2bef 80bc 44ee 7e3d d1e9 39be
000000e0: 6ace bdbd 5c4e c53d 039e 3ebd 958a 87bd
000000f0: 37fe b03c d30d d1bd 448a 9e3d 2433 cf3c
00000100: ed14 59be f38b 413d 1ba7 0dbd 9dc9 72be
00000110: 13e3 87bd ee28 cbbd dd55 f53c 6d85 66bb
00000120: d01b 9dbd 6dcc 29be b508 cc3d 1ab3 2abe
00000130: c3c1 1bbe 36bc a2bd 4b03 8f3d 93f5 c4bc
00000140: 343a 8ebc 87b5 443d 5a90 243d 684b 23bd
00000150: 0b75 2abc 1104 2dbd edef 8c3d 1a15 293c
00000160: 9446 ab3d 261a 35be 5f62 bbbd 14c2 c53c
00000170: 45f6 b43c e35e 853e 9c8c 63bd ae80 71be
00000180: abc7 163e 5929 863e 2f84 f2bd 4d1f 45be
00000190: 851b 9c3d 32bd f83d f5fd 40bc 4f66 46be
000001a0: 5940 32be df0d 733e 3722 ecbd 3418 70be
000001b0: 2ba1 f13d 4e1d a63d 4998 6f3e b1c5 813e
000001c0: faf3 cebc ce06 613e edf2 e1bd 1ea0 f7bd
000001d0: 6fad 94bd 6f71 ee3d 6a8a 2b3e 7987 57bb
000001e0: f076 f73d 042a c8bd adc9 39bd ae24 a5bd
000001f0: 7a66 63be 8266 923e 8326 663d 3b0c 1d3e
00000200: 8b72 8ebd e773 77bb ac95 933d 710b 493c
00000210: 7392 123d 775b 253d 9cca 233b a708 83bd
00000220: 00be 05be 87ce 763d 14d4 10bd f981 023d
00000230: 8f4c 0fbc 1bab 223e 9ad4 ddba bab2 f93d
00000240: 7846 503d 33b2 973c 9ac5 8e3d 9de9 7b3d
00000250: 42a9 d03d 2ab9 92bd b746 76bd 6127 13be
00000260: cf13 0bbe 436e 803d 02ed c23c 63c4 2fbd
00000270: 32fb 19be d73f 023e e23a 753d c443 abbd
00000280: fe84 80bd 2e87 a23d 081a 6d3d 9d60 c2bd
00000290: 0a41 40bd fc59 963c 70ed 403d db4c ccbd
000002a0: 58f1 033d d77e b03d 4d4d 2fbe 20a0 55be
000002b0: b513 b43d 400e 373e 9496 7a3d 4c53 78bd
000002c0: 6c1d acbd 8fb5 ac3d 96d9 d0bd 0d9c 873b
000002d0: 2b55 113d 7012 813d 7c80 e2bc 0aab 7cbc
000002e0: 800e 93bd c7a6 15bd b73e 46bd 4766 7d3c
000002f0: 1588 a83d b090 da3d 0fa1 a4bd 2d26 7dbd
00000300: cd27 d83d 820c e1bd 9241 29bd 7cba 84bd
00000310: 4ce0 ffbd 373e 02be 79b5 333c dd53 ebbd
00000320: 9dd9 023e fa33 81bc 68cf 1bbe 9584 393e
00000330: 62e0 36bd fb46 1bbd 8f63 bfbd e46f e5bd
00000340: f35e c8bd d7f4 d7bc 3bd1 613d 5114 003d
00000350: 1898 283d ec6d 20bd 867c a23d 3cb9 aebd
00000360: 12ee a7bd a2ea 19bd d33f bb3d 09d7 cabd
00000370: 61b9 013e 77e6 223d ccda 78bd ea38 0bbb
00000380: c960 e13d a416 8e3c 75fc d1bc 1feb c0bd
00000390: 6d7a b2bd d86c f53d fa69 013d fc4d bb3d
000003a0: ebef 45bd fc64 233d b63d 9cbd 823c 243b
000003b0: 7f0b 9e3d a294 00be 4579 0e3d 8dc6 383c
000003c0: b337 bbbd c44b 11be 7d2e 7bbd 149e c93d
000003d0: 845d f4bd 60ee a43d 6048 d3bc 4669 10be
000003e0: d359 cc3d b044 643d 9919 06be 2bda c0bd
000003f0: 6b23 c73d f1d9 12be 4b78 dc3d 1551 833d
0.010951768 -0.023981944 -0.018916542 0.041687552 -0.065684766 -0.10328082 -0.040794946 0.051523633
-0.052485 -0.077741325 -0.16367756 0.17621964 -0.06511469 -0.13153553 -0.066880494 0.060307827
-0.105904244 -0.043534033 -0.00022458652 -0.0016059027 -0.05235423 -0.15440385 -0.12421936 0.0218082
-0.015154573 0.0732978 0.14224882 -0.013043097 0.023470096 -0.0016807549 0.008566803 0.0022054971
-0.066691026 -0.051611982 0.10707493 -0.07035788 0.051436726 -0.11184146 -0.08130006 -0.049921796
-0.080526605 0.053217646 -0.013529357 0.08920629 0.06758741 0.036084566 -0.014093506 -0.080891095
-0.09893253 0.058301415 0.07512499 -0.1039305 -0.009822724 -0.015739044 0.062238947 -0.181556
-0.09267886 0.096340865 -0.04653741 -0.06618229 0.021605594 -0.10207715 0.07741216 0.02529294
-0.21199389 0.047252607 -0.034583192 -0.23709722 -0.06635108 -0.09919916 0.02994817 -0.0035174743
-0.076713204 -0.16581888 0.09962598 -0.16669884 -0.15210633 -0.07946055 0.0698305 -0.02404288
-0.017361738 0.04802468 0.040176727 -0.039866835 -0.010403882 -0.042240206 0.068817 0.010319972
0.08363071 -0.17685756 -0.09149622 0.024140395 0.022090087 0.26048955 -0.055554017 -0.23584244
0.14724605 0.2620342 -0.11841618 -0.19250222 0.076224364 0.12145461 -0.011779298 -0.19374965
-0.17407359 0.2373576 -0.115299635 -0.23446733 0.117983185 0.08111058 0.23397936 0.2534614
-0.025262821 0.21975252 -0.110326625 -0.12091087 -0.07259642 0.116427295 0.1675202 -0.0032887144
0.120832324 -0.09773639 -0.04535835 -0.08063637 -0.2220706 0.28593832 0.05618907 0.15336697
-0.06955441 -0.0037758292 0.07206282 0.012270794 0.035784196 0.04037043 0.002499259 -0.06398135
-0.1306076 0.060255554 -0.035358503 0.031862233 -0.00874628 0.15885584 -0.0016924322 0.121922925
0.050848454 0.01851759 0.06971283 0.061502088 0.10188533 -0.071642235 -0.060126033 -0.1437049
-0.13581775 0.06271031 0.023794655 -0.0429119 -0.1503723 0.12719665 0.05987061 -0.08362535
-0.06275366 0.0793594 0.057886153 -0.09491084 -0.046937026 0.018353455 0.047101438 -0.099755965
0.032212585 0.08617943 -0.17119332 -0.20861864 0.08792821 0.1787653 0.06117876 -0.060626313
-0.08404049 0.08433067 -0.10197751 0.0041384757 0.035481613 0.06302345 -0.027649157 -0.015421638
-0.071805 -0.036536004 -0.048399653 0.015466279 0.082290806 0.10672128 -0.08038532 -0.061803985
0.105544664 -0.10988714 -0.0413223 -0.064808816 -0.12493953 -0.12719046 0.010968559 -0.11490605
0.12778325 -0.015771855 -0.15215838 0.18116982 -0.044647582 -0.03790949 -0.09345161 -0.11202982
-0.09783735 -0.026361866 0.05513118 0.031269375 0.041160673 -0.03916733 0.07933907 -0.085314244
-0.08199705 -0.03757728 0.09143033 -0.09904296 0.12668373 0.03977057 -0.060755536 -0.002124364
0.110047884 0.01734478 -0.025633076 -0.09419846 -0.08714757 0.11983651 0.031595208 0.09145734
-0.048324507 0.039891228 -0.07628958 0.002506048 0.077170365 -0.12556699 0.03478362 0.011277807
-0.09141483 -0.14189059 -0.06132363 0.09844604 -0.11931899 0.08053279 -0.025791347 -0.14102659
0.0997807 0.055729568 -0.13095702 -0.09416612 0.09723552 -0.1434095 0.107651316 0.064119495

rnn.bias_ih_l1 f4 [256]
00000000: 5b15 c6bc 9ee6 b2bc 467c d8bd 8c62 d93d
00000010: 8f31 f7bc a61e 70bc 0244 8a3d 082a 88bd
00000020: 7ba7 6ebd 96ef 6cbd c06f f6bc c504 b63e
00000030: 57ba a7bd 0a4a 7fbc f0ac 943d b718 e6bc
00000040: 835d ffbd dd0b 16bd f4b2 a93d 549a 0e3d
00000050: 3b96 833d 129c e9bd 27d0 bfbd 50d8 bdbb
00000060: 5825 ca3d 277c 54bc dfde 2e3c b954 9dbd
00000070: df27 02bd be8e 413e 2aa8 02be 2331 fcbc
00000080: ce00 9ebd 4cc1 973d c67c d0bd 82ef e2bd
00000090: 2ee6 cdbc 4070 8ebc 4582 84bd d7d6 ac3d
000000a0: 750d 963d 2d79 023e e6b8 5dbc b8e2 ce3d
000000b0: 3183 c1b9 4081 203c f575 853e eb65 81bd
000000c0: 5a6b d8bd 5ddd 31bb 83d5 cb3d 1669 8e3d
000000d0: f287 813c b370 d23c 62cf 623d 4d90 ac3d
000000e0: 14cc d33d a6df d73c 2935 89bc 9c8c bf3b
000000f0: 7caf ccbc 084e a03e 2e54 243d e692 393c
00000100: 5022 903d 0725 04be a856 9ebd 321a a63d
00000110: fe71 9dbd ed20 84bd b959 47bd be62 b83d
00000120: d1aa edbd c876 fbbc d272 d0bd da36 3cbd
00000130: aa49 bcbd 9b5f 3b3d dd4a 5ebc 3d65 823a
00000140: 8023 7ebd c95a 83bc 6134 ebbd 3b3d 4ebd
00000150: 825c 463d 0d33 3c3d 25cf 8ebd 01ea f1bb
00000160: aaaf c03c c54f 0fbe ee78 3abc 9df5 93bd
00000170: 7a78 893d ab4d c1bd 49e9 1dba 3742 efbc
00000180: e4c1 0dbe 4a5f 243d 38bb b93d d30d 1e3d
00000190: b440 aabd 7bf0 863b 1c66 123a b876 1c3c
000001a0: dad5 a4bd d2dc a8bc f1a1 5e3d e71e c9bd
000001b0: 6a10 3e3d 8bbf 5c3c e3d3 b5bd 7252 0dbe
000001c0: 00d1 d0bd ea7c dbbd 6c2a 013d c4a0 0abe
000001d0: 1d16 04bc 670b 86bd 25f7 0cbe 4bfe e23d
000001e0: cdb1 94bd f8a7 03be 9c9f b5bd 96a7 7cbc
000001f0: 930f 9fbc 21b7 e3bc 5a34 f5bd 380d 14be
00000200: 05d6 9ebd 70f6 963d e302 9ebd 475a 2b3c
00000210: e92a 6fbd 3177 943d dcc7 d5bd a29e ddbc
00000220: 62ee 833d b6a5 e33d e1f0 84bd a135 a53d
00000230: d0c9 9b3d 6fd0 afbc 390d b33d 17b1 a0bd
00000240: 9d16 463c 41ca a7bc 0d7f 033d b666 12bd
00000250: c03c a63d 2c48 81bd b99d b4bc f517 c03d
00000260: 55fe 0bbc 2f93 89ba 821a e3bb c6cc a6bd
00000270: 2aa2 57bc f982 8b3c 2d07 923b e956 6e3c
00000280: 9637 0c3d 12b5 b83d 791b e1bd 765b c7bd
00000290: 1005 a9bd 8efd ee3d 0077 a53c 3589 8cbb
000002a0: a4ac 64bc c735 44bd 861e e33c 5e08 cb3c
000002b0: a985 53bd 844a b83d e3eb 933d ac9d c13d
000002c0: 6ad4 61bd cf53 36bd c868 c43d 4a00 413d
000002d0: 683d b2bd 8d4d d33d e2c2 993d 8d08 e33b
000002e0: 570e b13d 3bc8 b63d dec4 6abd 24ac acbc
000002f0: 6648 dabd 67ef eabc 0128 c13d e51d 0a3c
00000300: cee9 b43d 460d 313d 9725 7cbd 6d7f e6bc
00000310: f34d c9bd cdfd c4bd 2783 6bbd dfd9 db3d
00000320: 70ab d7bc 654b a4bd 1b33 c0bc 60eb 8a3d
00000330: 7a88 bb3d c857 50bc 8dd0 4a3d 58e1 973d
00000340: 4960 f9bd 9fd0 2dbe 8765 f4bd 0cfd 503d
00000350: e618 84bd 69f5 343d 9d16 e0bc 0d4b 9bbd
00000360: 5387 79bd cbd4 803d 42be 7cbd a32f 0f3d
00000370: 6548 46bc 4f62 233e d644 09be ed0a 81bc
00000380: 5e25 d7bd 8a7c fd3d 568e 2038 0b1c e53d
00000390: 6234 a03d 08a5 953c 20d2 053d 212b ddbd
000003a0: 78bc 1f3d 8395 6f3e fe3c ba3d a7f7 143e
000003b0: f72a 843d 3e4e b6bb 495d c13d d821 aebd
000003c0: f049 9abd 8fe2 b53c 3172 9cbd 676e a3bd
000003d0: d2ec f4bd 9fe4 93bd 6878 ae3d 0362 38bc
000003e0: 3727 0e3c 7d2b 66bd 5fd1 f2bd 3e87 25bd
000003f0: bd61 0d3d e190 423e 56fc 533d b0ca 6bbd
-0.024180105 -0.021838482 -0.10570578 0.106144994 -0.030174999 -0.014655745 0.06751253 -0.06648642
-0.05826519 -0.057845674 -0.030082583 0.35550514 -0.081898384 -0.015581617 0.07259548 -0.028087957
-0.12469008 -0.036632407 0.08286086 0.034815148 0.064251386 -0.11406721 -0.09365874 -0.0057936087
0.09870404 -0.012969053 0.010673254 -0.07682175 -0.031776305 0.18902108 -0.12759462 -0.030785149
-0.07714997 0.07409915 -0.10180049 -0.11080839 -0.025134172 -0.01738751 -0.064701594 0.08439415
0.073267855 0.12741537 -0.013532853 0.10101837 -0.00036909574 0.009796441 0.26066557 -0.063182674
-0.10567351 -0.002714 0.099528335 0.06953637 0.015811894 0.025688505 0.055373557 0.08425961
0.10341659 0.026351761 -0.016748982 0.0058456194 -0.024986021 0.31309533 0.040119343 0.011326527
0.070377946 -0.1290475 -0.07731372 0.08110465 -0.07687758 -0.064515926 -0.04866955 0.090032086
-0.11604846 -0.030696288 -0.1017815 -0.045950748 -0.09193738 0.045745473 -0.0135676535 0.0009948384
-0.062045574 -0.0160345 -0.114846 -0.050351363 0.048428066 0.045947123 -0.069731034 -0.007382632
0.023521263 -0.13995273 -0.011381371 -0.072245814 0.06712432 -0.09438642 -0.0006023837 -0.029206378
-0.13843495 0.040129937 0.09068912 0.038587403 -0.083131224 0.004118023 0.00055846735 0.009549789
-0.080486014 -0.020613108 0.054353658 -0.09820347 0.046402372 0.013473402 -0.08878305 -0.13800982
-0.101961136 -0.10717185 0.031534597 -0.1353789 -0.008061913 -0.065451436 -0.13766153 0.11083659
-0.07260475 -0.12857044 -0.08868334 -0.015420815 -0.019416606 -0.027797284 -0.11972876 -0.14458168
-0.07755665 0.07371223 -0.07715394 0.0104585355 -0.05839053 0.072492965 -0.10438511 -0.027053181
0.06441952 0.11115591 -0.064912565 0.080668695 0.07606852 -0.021461694 0.087427564 -0.07846277
0.012090352 -0.020482184 0.032103587 -0.035742484 0.08117056 -0.06312594 -0.022047864 0.093795694
-0.008544524 -0.0010496135 -0.00693065 -0.08144526 -0.0131612215 0.017030226 0.004456422 0.014547088
0.0342327 0.090189114 -0.10991568 -0.09734242 -0.08252919 0.116694555 0.020198345 -0.0042888173
-0.013957176 -0.04790285 0.027724516 0.024784263 -0.05164114 0.08998588 0.07222726 0.09453902
-0.055134214 -0.04451352 0.09590298 0.047119416 -0.087031186 0.10317526 0.07507874 0.0069285096
0.08645313 0.0892491 -0.057316653 -0.021078177 -0.1065834 -0.028678609 0.09431458 0.008429979
0.08833657 0.04322555 -0.061559286 -0.028136933 -0.09829321 -0.09618721 -0.057498123 0.10734915
-0.026326865 -0.08022193 -0.023461869 0.067831755 0.0915689 -0.012716241 0.049515296 0.07416028
-0.12176568 -0.16974114 -0.11933427 0.051022574 -0.064500615 0.044179354 -0.027354533 -0.07582674
-0.06092007 0.06290587 -0.06170488 0.03495754 -0.012102221 0.1595547 -0.13405165 -0.01575228
-0.10505174 0.123772696 3.8279533e-05 0.111869894 0.07822491 0.01826717 0.032671094 -0.10799242
0.038998097 0.23396878 0.090936646 0.14547597 0.064535074 -0.0055635264 0.09441621 -0.08502549
-0.07533634 0.022202758 -0.07638968 -0.07980042 -0.119592324 -0.072213404 0.085190594 -0.011253837
0.008676342 -0.056193817 -0.118563406 -0.04041218 0.03451704 0.1900058 0.05175432 -0.057566345
